savedModels/ppo_cartpole_87040.pth (torch, 13659 bytes, 15 tensors)

shared_fc.0.weight f4 [64, 4]
-0.07441395 0.39363635 0.030774487 -0.40299472 -0.008373812 -0.17214017 -0.6068668 -0.2073033
0.107831545 -0.29636064 -0.33621943 -0.4678802 0.018658 -0.10455289 -0.43317565 -0.2480479
0.15994422 0.10639334 -0.70358884 -0.29727706 -0.10887416 -0.018474635 -0.35426342 0.042034242
-0.027559029 0.13360414 0.2375418 0.38329417 -0.6041115 -0.24793294 0.13282084 -0.06973385
0.6877412 0.03371299 -0.64268565 -0.24511616 0.226857 0.11170671 0.12094589 -0.31404012
0.78804594 -0.16452155 -0.58113295 -0.46103844 0.10753418 -0.2314323 -0.17099011 0.14846766
0.090017855 -0.09707048 -0.019077623 0.3194947 -0.003387201 -0.10743769 -0.054880172 0.13189162
-0.6242504 -0.052314542 0.56687313 0.24963154 0.553445 0.2685918 -0.05246592 0.13808988
-0.54045117 -0.44148156 -0.048008762 -0.27436036 0.36374086 0.049376592 -0.23758593 0.31570864
0.13864475 0.025687546 -0.31820527 -0.35489288 0.0032801186 0.3050484 -0.038761105 -0.0011213777
0.1353028 -0.34459177 -0.06901433 0.45913064 -0.037546583 0.27366316 0.18202652 -0.26211053
0.10358918 -0.021907158 0.076340936 0.5640721 -0.46425617 -0.26148114 0.029787876 -0.12994812
0.7168349 0.23429115 -0.7489999 0.030235516 0.15522818 -0.34647676 -0.18724023 0.026031302
0.41316578 0.28268826 0.16993105 0.20963454 0.6305358 0.22168523 0.054253265 0.09342297
0.026325978 -0.020508094 0.009781905 0.22260112 0.10142428 -0.33179823 0.25145274 0.33545047
0.27027202 -0.11252017 0.28300348 0.2650833 0.16455358 -0.31785208 -0.052395344 0.18619367
0.16364719 0.100724824 -0.3818662 -0.32683486 -0.3363981 -0.42751777 0.030020902 -0.40206045
0.37628105 0.002462835 -0.27557388 -0.16591413 -0.06075748 0.041737888 0.20953907 0.31406942
-0.85883695 -0.22030006 0.5563938 0.09204569 0.24136221 0.38557714 0.18716723 0.3571248
0.07309545 -0.16955845 0.09533986 0.14605676 -0.11371789 -0.08021253 -0.22910345 0.42588925
-0.043750282 -0.15787959 0.109943345 0.16871497 -0.18416318 0.5269426 -0.036599174 -0.39598683
-0.12961587 0.34579766 -0.20231146 -0.25486183 0.23972069 0.1076935 0.009721077 -0.23951782
0.39269215 -0.10425839 -0.058108725 0.2695322 0.33560252 -0.5009861 0.17275368 0.28851062
0.11134111 -0.31747913 0.37495387 0.36407474 0.24219282 -0.4566278 0.04816459 0.13622653
0.3417585 0.019215053 0.06568569 -0.13410714 -0.010539644 -0.20211755 -0.3490162 -0.35522646
-0.660552 -0.04409813 0.72222173 0.30579308 -0.016537674 0.35695451 0.010440205 -0.6721239
0.35175854 0.030651625 0.122808784 0.30688995 0.5118936 0.2120215 0.16396654 0.11579758
0.47937417 -0.016856868 -0.7300501 -0.32660058 0.004988938 0.18247211 -0.11930125 -0.650718
0.2613228 0.09019861 -0.04658694 -0.24975431 -0.7338112 0.017022332 0.49996728 0.4055659
0.03943889 0.2536191 -0.13919675 -0.24681626 -0.24796915 0.34891045 -0.14916217 -0.46067604
0.055237826 0.2793681 -0.056578837 -0.24077119 0.8424882 0.18342112 0.13942592 0.052508444
-0.5192653 -0.25322673 -0.22968522 -0.17747791 0.11689388 0.1812323 -0.16961193 -0.30005133
00000000: 5766 98bd b48a c93e c71a fc3c 5355 cebe
00000010: 5032 09bc 8345 30be 9f5b 1bbf 5147 54be
00000020: c9d6 dc3d 95bc 97be f424 acbe fe8d efbe
00000030: a9d8 983c d31f d6bd 33c9 ddbe 4500 7ebe
00000040: 6bc8 233e c0e4 d93d 661e 34bf b334 98be
00000050: 6af9 debd 1e58 97bc 0462 b5be 192c 2c3d
00000060: 79c3 e1bc 86cf 083e 283e 733e 223f c43e
00000070: 0da7 1abf 22e2 7dbe 3002 083e 9fd0 8ebd
00000080: cf0f 303f a216 0a3d 0c87 24bf bbff 7abe
00000090: 344d 683e 7dc6 e43d 7bb2 f73d dec9 a0be
000000a0: 61bd 493f 5678 28be 21c5 14bf 3b0d ecbe
000000b0: e13a dc3d 97fc 6cbe 0818 2fbe e807 183e
000000c0: 485b b83d e3cc c6bd ad48 9cbc cf94 a33e
000000d0: cefb 5dbb 4b08 dcbd 08ca 60bd 990e 073e
000000e0: e0ce 1fbf c647 56bd 991e 113f 699f 7f3e
000000f0: 92ae 0d3f dd84 893e 81e6 56bd 6f67 0d3e
00000100: 025b 0abf df09 e2be d6a4 44bd f678 8cbe
00000110: 3e3c ba3e 1c3f 4a3d ba49 73be 90a4 a13e
00000120: e4f8 0d3e b06e d23c cdeb a2be 85b4 b5be
00000130: 42f7 563b 4e2f 9c3e f7c3 1ebd 31fb 92ba
00000140: d18c 0a3e 556e b0be 6357 8dbd 2c13 eb3e
00000150: 72ca 19bd 941d 8c3e 2965 3a3e 5a33 86be
00000160: 9026 d43d a476 b3bc a358 9c3d 0767 103f
00000170: fcb2 edbe dbe0 85be b405 f43c 1f11 05be
00000180: 7e82 373f 05ea 6f3e 75be 3fbf 79b0 f73c
00000190: 23f4 1e3e 6765 b1be e7bb 3fbe 993f d53c
000001a0: 778a d33e 84bc 903e 6802 2e3e 70aa 563e
000001b0: cb6a 213f 7401 633e ac38 5e3d 8b54 bf3d
000001c0: 94a9 d73c 9700 a8bc 4944 203c 8cf1 633e
000001d0: 88b7 cf3d 75e1 a9be 6abe 803e 2ac0 ab3e
000001e0: 1861 8a3e fa70 e6bd d5e5 903e 00b9 873e
000001f0: bc80 283e 82bd a2be 809c 56bd 8ea9 3e3e
00000200: 2193 273e d148 ce3d f783 c3be e656 a7be
00000210: 5f3c acbe 9ce3 dabe 65ee f53c deda cdbe
00000220: e9a7 c03e 8467 213b 0518 8dbe 65e5 29be
00000230: d6dc 78bd 59f5 2a3d 6991 563e b5cd a03e
00000240: bddc 5bbf 5796 61be d36f 0e3f 7382 bc3d
00000250: a827 773e 5e6a c53e c4a8 3f3e 10d9 b63e
00000260: 11b3 953d bba0 2dbe 8b41 c33d e78f 153e
00000270: ede4 e8bd 7846 a4bd 189a 6abe 280e da3e
00000280: 7f33 33bd 30ab 21be fa29 e13d 9ec3 2c3e
00000290: 4695 3cbe b6e5 063f 04e9 15bd c9be cabe
000002a0: 06ba 04be 640c b13e bc2a 4fbe 407d 82be
000002b0: 5779 753e 698e dc3d 2745 1f3c 2944 75be
000002c0: f20e c93e 6c85 d5bd 6a03 6ebd 2000 8a3e
000002d0: 18d4 ab3e a040 00bf 57e6 303e aab7 933e
000002e0: cf06 e43d a08c a2be f4f9 bf3e 0168 ba3e
000002f0: 6501 783e 1ecb e9be 3c48 453d f87e 0b3e
00000300: f8fa ae3e e368 9d3c 3886 863d 6253 09be
00000310: 79ae 2cbc e7f7 4ebe 40b2 b2be 3ee0 b5be
00000320: f019 29bf 3ea0 34bd 86e3 383f e990 9c3e
00000330: 047a 87bc bec2 b63e 650d 2b3c 5010 2cbf
00000340: b219 b43e 1e19 fb3c 2c83 fb3d ae20 9d3e
00000350: 750b 033f 2a1c 593e d8e6 273e 4827 ed3d
00000360: 8870 f53e 6a17 8abc 90e4 3abf 3138 a7be
00000370: 3f7a a33b f8d9 3a3e 3754 f4bd 7495 26bf
00000380: 1acc 853e 0dba b83d f2d1 3ebd 98bf 7fbe
00000390: 0ddb 3bbf 6b72 8b3c b6fb ff3e 55a6 cf3e
000003a0: ac8a 213d 5dda 813e 9889 0ebe 67bd 7cbe
000003b0: a0eb 7dbe 64a4 b23e f8bd 18be bbdd ebbe
000003c0: 0f41 623d 5609 8f3e 36bf 67bd b98c 76be
000003d0: 4fad 573f bfd2 3b3e abc5 0e3e 1813 573d
000003e0: 92ee 04bf efa6 81be 9a32 6bbe c5bc 35be
000003f0: 0f66 ef3d f694 393e c0ae 2dbe 54a0 99be

shared_fc.0.bias f4 [64]
0.9456469 0.9769578 0.98282266 0.88690656 0.9190085 0.9932877 0.921268 -0.15361312
-0.059826326 1.0129008 -0.05747329 0.8626615 1.0017511 0.90839875 -0.11023003 -0.097625144
-0.11812909 0.9992077 0.9048276 0.9774232 1.0465829 1.0300883 0.87795275 -0.117732145
-0.10139084 0.9094763 -0.073004596 -0.10413037 0.9956877 0.94025415 0.8926376 1.0181615
0.94998515 -0.06620298 0.99394953 0.86423296 -0.17588893 -0.076559104 0.8784254 1.0252864
1.0217587 0.9097978 1.0289055 1.0342038 0.82259035 0.9736503 1.0085531 1.0007733
0.93719065 0.9985149 -0.118677944 0.91707665 0.96486235 -0.081867866 -0.040971495 1.017217
1.0225517 -0.12915747 0.882524 0.93745065 1.0498954 -0.11913093 -0.084961176 0.95825094
00000000: ea15 723f e819 7a3f 449a 7b3f 4f0c 633f
00000010: 2444 6b3f 1a48 7e3f 38d8 6b3f c24c 1dbe
00000020: 730c 75bd bca6 813f 1d69 6bbd 62d7 5c3f
00000030: 6139 803f d28c 683f 48c0 e1bd b1ef c7bd
00000040: aaed f1bd 13cc 7f3f c8a2 673f 6838 7a3f
00000050: 6ef6 853f efd9 833f 83c1 603f 8d1d f1bd
00000060: 00a6 cfbd 70d3 683f 6f83 95bd 4e42 d5bd
00000070: 64e5 7e3f 7fb4 703f e683 643f 1e53 823f
00000080: 3a32 733f 6e95 87bd 7a73 7e3f 5f3e 5d3f
00000090: 3a1c 34be 05cb 9cbd 7de0 603f 963c 833f
000000a0: fdc8 823f 82e8 683f 2db3 833f ca60 843f
000000b0: 4895 523f 2541 793f 4518 813f 5719 803f
000000c0: baeb 6f3f ac9e 7f3f 6c0d f3bd 89c5 6a3f
000000d0: 3801 773f 57aa a7bd bad1 27bd 2b34 823f
000000e0: f9e2 823f db41 04be 18ed 613f c4fc 6f3f
000000f0: f962 863f ebfa f3bd 2000 aebd ef4f 753f

actor_head.weight f4 [2, 64]
-0.008998842 0.19709553 0.23038612 0.20868841 0.15045542 0.04218608 -0.268986 0.061803088
0.110311575 0.031802654 0.33973128 -0.00853856 -0.13491796 -0.05149739 -0.167583 -0.08028394
0.08601037 -0.10288038 0.15586217 -0.084235184 -0.06775372 -0.014737363 -0.202079 0.13917843
0.02544862 0.05999518 -0.1458472 -0.057288274 -0.16260102 -0.07346262 -0.14983575 -0.019969821
0.12712803 0.16827542 0.12871924 -0.23802312 -0.042827584 -0.21026307 -0.08114764 -0.11696029
-0.092680596 -0.013799117 0.029396316 0.074433476 -0.115605146 0.0034659884 -0.07298192 0.008298941
0.07163226 0.20906498 -0.18881582 0.08233442 -0.18459022 -0.11657752 0.24229194 0.10599986
0.06259185 -0.20097543 -0.00946302 0.04701396 0.015659612 -0.05507752 0.18391517 0.035782184
0.013391469 -0.20754215 -0.24144568 -0.21176437 -0.1751673 -0.038114373 0.27849168 -0.05841463
-0.12615588 -0.06069149 -0.2972897 -0.0023312455 0.14560321 0.07818696 0.15119247 0.066538535
-0.14697185 0.100993305 -0.1678224 0.0778247 0.041281793 -0.0044052913 0.21362956 -0.15923372
-0.04628056 -0.07031205 0.1648986 0.06302701 0.12796836 0.082395375 0.16806124 0.0441837
-0.13387802 -0.16301623 -0.11241228 0.24979912 0.056004155 0.19640972 0.07008101 0.10533153
0.07947819 0.025368325 -0.026328944 -0.08386518 0.083993405 0.019898612 0.058588307 -0.008439568
-0.049562667 -0.21150899 0.1894752 -0.059576474 0.19872081 0.11870342 -0.24986339 -0.11548449
-0.06248702 0.20058064 0.01201566 -0.03996241 -0.0043599233 0.05671186 -0.17336994 -0.069839045
00000000: e16f 13bc 69d3 493e 57ea 6b3e 6ab2 553e
00000010: fc10 1a3e 50cb 2c3d 88b8 89be 3c25 7d3d
00000020: 09eb e13d 8043 023d 42f1 ad3e 51e5 0bbc
00000030: ef27 0abe edee 52bd e19a 2bbe e86b a4bd
00000040: 3426 b03d f3b2 d2bd 559a 1f3e 7f83 acbd
00000050: 76c2 8abd fb74 71bc cced 4ebe ca84 0e3e
00000060: a079 d03c 82bd 753d f858 15be 1ca7 6abd
00000070: e280 26be 9273 96bd 8b6e 19be c097 a3bc
00000080: da2d 023e 6450 2c3e face 033e 55bc 73be
00000090: fa6b 2fbd 344f 57be bc30 a6bd e088 efbd
000000a0: 53cf bdbd b115 62bc 8bd0 f03c 9470 983d
000000b0: 64c2 ecbd a325 633b 8b77 95bd 48f8 073c
000000c0: efb3 923d 2115 563e ef58 41be f39e a83d
000000d0: 3805 3dbe 32c0 eebd 611b 783e 7416 d93d
000000e0: 2830 803d 81cc 4dbe c80a 1bbc b691 403d
000000f0: 9648 803c f798 61bd 4254 3c3e 5790 123d
00000100: e467 5b3c ee85 54be 893d 77be c2d8 58be
00000110: 0f5f 33be d11d 1cbd 7696 8e3e 2e44 6fbd
00000120: 022f 01be a497 78bd 5b36 98be cfc7 18bb
00000130: 0219 153e 7c20 a03d 33d2 1a3e 5b45 883d
00000140: ca7f 16be 94d5 ce3d a3d9 2bbe 8e62 9f3d
00000150: 1917 293d 435a 90bb b5c1 5a3e 2a0e 23be
00000160: af90 3dbd c4ff 8fbd 2edb 283e 4e14 813d
00000170: 230a 033e e8be a83d 3f18 2c3e f8f9 343d
00000180: 5217 09be baed 26be 6938 e6bd 57cb 7f3e
00000190: 9d64 653d a11f 493e a286 8f3d 0fb8 d73d
000001a0: 76c5 a23d 3cd1 cf3c ccaf d7bc 82c1 abbd
000001b0: bc04 ac3d 6a02 a33c 4bfa 6f3d 1d46 0abc
000001c0: 3902 4bbd d095 58be c905 423e 7606 74bd
000001d0: 787d 4b3e c71a f33d 30dc 7fbe 2283 ecbd
000001e0: 64f2 7fbd 0365 4d3e 55dd 443c a0af 23bd
000001f0: b0dd 8ebb b24a 683d e487 31be c607 8fbd

actor_head.bias f4 [2]
-0.027561547 0.027561551
00000000: c1c8 e1bc c3c8 e13c

critic_head.weight f4 [1, 64]
0.91073096 0.94872487 0.9288891 1.0792631 1.0388321 0.9945663 1.0253975 -0.66889393
-0.7159102 0.936055 -0.6179398 1.1327466 0.9596426 1.0359187 -0.8925334 -0.50451744
-0.3753876 1.0163953 1.0515608 0.99072754 0.8515184 0.9199718 1.0840536 -0.600188
-0.469925 1.018049 -0.5125912 -0.5147895 0.99821776 0.90990615 1.0984871 0.93380255
0.9923885 -0.5748923 0.99802065 1.1204011 -0.62702745 -0.4353578 1.1008656 0.8783563
0.91870296 0.928181 0.90965384 0.954542 1.3919321 0.9098547 0.8081895 0.90542084
1.0569082 0.9222212 -0.68358535 0.8715067 1.0247855 -0.58546996 -0.40640453 0.85862255
0.95100677 -0.6763834 0.6929061 0.9276111 0.90853876 -0.48193407 -0.5582562 0.97830683
00000000: aa25 693f a2df 723f adcb 6d3f 4b25 8a3f
00000010: 73f8 843f e69b 7e3f 3a40 833f a23c 2bbf
00000020: e445 37bf 4da1 6f3f 4d31 1ebf d7fd 903f
00000030: 23ab 753f fc98 843f 127d 64bf 0e28 01bf
00000040: ce32 c0be 3e19 823f 8b99 863f 52a0 7d3f
00000050: 1cfd 593f 4683 6b3f 45c2 8a3f eca5 19bf
00000060: 029a f0be 6e4f 823f 2d39 03bf 3fc9 03bf
00000070: 338b 7f3f 9cef 683f 3a9b 8c3f af0d 6f3f
00000080: 2c0d 7e3f 242c 13bf 487e 7f3f 4e69 8f3f
00000090: df84 20bf 38e7 debe 2ae9 8c3f f5db 603f
000000a0: 1e30 6b3f 459d 6d3f 13df 683f dd5c 743f
000000b0: d52a b23f 3dec 683f 82e5 4e3f a9c9 673f
000000c0: c548 873f b016 6c3f 73ff 2ebf 101b 5f3f
000000d0: 2c2c 833f 5ce1 15bf 4114 d0be b0ce 5b3f
000000e0: 2e75 733f 7627 2dbf 4b62 313f ec77 6d3f
000000f0: ff95 683f 10c0 f6be e1e9 0ebf 5172 7a3f

exp_avg f4 [64, 4]
0.014707512 0.0027916224 0.007880783 0.0053927638 0.01471875 0.0017205856 0.008428408 0.0057850676
0.014332299 0.0014019605 0.008273 0.005695942 0.016786328 0.0021065974 0.009577918 0.006564969
0.016241375 0.0023262787 0.009196875 0.006284797 0.015791561 0.0030850924 0.008745233 0.005923957
0.016945472 0.005528288 0.008851879 0.005851091 0.008119753 -0.0066398773 -0.0026934696 0.0036152916
-0.019857025 0.004645181 -0.0032776045 -0.0084629515 0.014766913 0.0027405475 0.008233585 0.00560036
-0.017300654 -0.0006682648 -0.003592797 -0.007571364 0.018089289 0.0038750758 0.0099365795 0.0067093833
0.015614994 0.0043083653 0.0083457 0.0055713686 0.016673189 0.0040064375 0.009053974 0.0060843965
0.013688994 0.00066944264 -0.001989346 0.004931659 -0.01456184 0.0032803598 -0.0025269594 -0.0060447142
0.0040031495 -0.0046579693 -0.0015665727 0.0021426787 0.021726767 0.0076132184 0.008649674 0.00722113
0.016447175 0.0023749378 0.009309338 0.0063608303 0.015987273 0.0039788196 0.0086476365 0.0058013694
0.013709231 0.0032995748 0.0074435705 0.00500254 0.0146985 0.003172311 0.008067232 0.005444607
0.017744016 0.0052351425 0.009402543 0.0062542045 0.006695367 -0.0070214868 -0.0025152734 0.0033498963
-0.013208421 0.0030516498 -0.0021403586 -0.005226287 0.016115112 0.0029756003 0.008966614 0.006086064
-0.015142743 0.0033238507 -0.002596301 -0.006062079 -0.0147953 0.0033515138 -0.002566814 -0.006160947
0.016240936 0.004478028 0.0086808335 0.005795046 0.014690923 0.0036723064 0.007944117 0.0053299507
0.017872687 0.004919703 0.0095556695 0.00638036 0.0149751725 0.003413038 0.008176672 0.005507684
0.015568827 0.002408078 0.008773454 0.005984231 0.0063836845 -0.0057819295 -0.0023930436 0.0019870126
0.01081946 -0.0015062543 0.009027138 0.006865148 0.01839851 0.005628568 0.009700961 0.0064384174
0.008396614 -0.003977415 -0.002173909 0.003221914 -0.013174242 0.0027935228 -0.0022451847 -0.0051381555
0.01773332 0.004306803 0.009619074 0.006461442 0.014254927 0.0038149888 0.0076470124 0.0051128096
0.014846982 0.003764986 0.008014965 0.005373111 0.019440126 0.007684607 0.007863474 0.004918628
0.014463068 0.0028924611 0.007992578 0.005408933 0.015074376 0.0026608373 0.008416143 0.0057197637
0.0296886 0.010139395 0.011866546 0.009928197 0.014544499 0.0031518028 0.007981337 0.0053877304
0.01304246 0.0032354544 0.0070586945 0.0047377483 0.014437712 0.0030141203 0.007949894 0.0053736567
0.016748158 0.003146515 0.00930537 0.00631211 0.014279415 0.0015706603 0.008200649 0.00563509
0.011213117 0.0021666677 -0.001314573 0.0038627004 0.0139438715 0.0033424038 0.007600028 0.0053026434
0.022038477 0.008301956 0.00867727 0.0071950257 -0.01704076 0.0037495224 -0.0029451763 -0.0069571063
-0.011005866 0.000563166 -0.0021729444 -0.0049734334 0.0132851 0.0015946197 0.007560325 0.005378006
0.01505265 0.0027726216 0.008376139 0.005684975 0.011238634 0.0023692783 -0.0012880994 0.003866004
0.011540984 0.003181232 0.006101365 0.003922418 0.014267902 0.0025649574 0.008117162 0.0054666954
0.01450066 0.0030514055 0.007973097 0.0053732716 -0.013832884 0.0030908235 -0.002406633 -0.005759186
0.0059204954 -0.006859584 -0.002300398 0.0031577752 0.015545736 0.0029977271 0.008608177 0.0058159656
00000000: c7f7 703c a7f3 363b 661e 013c c8b5 b03b
00000010: e926 713c 4685 e13a 4e17 0a3c aa90 bd3b
00000020: 05d2 6a3c fdc1 b73a 7a8b 073c 06a5 ba3b
00000030: 7b83 893c d70e 0a3b b3ec 1c3c f41e d73b
00000040: a20c 853c 7b74 183b 7dae 163c b3f0 cd3b
00000050: 4e5d 813c 432f 4a3b 2a48 0f3c c11d c23b
00000060: 3bd1 8a3c a426 b53b 7907 113c 82ba bf3b
00000070: b608 053c 5493 d9bb ec84 30bb 87ee 6c3b
00000080: 33ab a2bc 9a36 983b 14cd 56bb 31a8 0abc
00000090: ecf0 713c c29a 333b 29e6 063c 3a83 b73b
000000a0: 1aba 8dbc 7e2e 2fba 2275 6bbb 3419 f8bb
000000b0: fd2f 943c fcf4 7d3b 09cd 223c 63da db3b
000000c0: 08d6 7f3c 302d 8d3b 67bc 083c 0790 b63b
000000d0: 3696 883c 6f48 833b 1f57 143c 9e5f c73b
000000e0: cd47 603c 897d 2f3a b05f 02bb c199 a13b
000000f0: c994 6ebc 4efb 563b 589b 25bb bd12 c6bb
00000100: da2c 833b e1a1 98bb 7555 cdba 2f6c 0c3b
00000110: 55fc b13c 4e78 f93b 5db7 0d3c 3b9f ec3b
00000120: 3abc 863c d8a4 1b3b 3286 183c 836e d03b
00000130: bef7 823c c260 823b d1ae 0d3c 6a19 be3b
00000140: af9c 603c ae3d 583b 32e9 f33b 59ec a33b
00000150: fad1 703c 8ce6 4f3b 6c2c 043c ad68 b23b
00000160: e65b 913c 8f8b ab3b 200d 1a3c 12f0 cc3b
00000170: cf64 db3b 8014 e6bb 49d7 24bb ef89 5b3b
00000180: 2268 58bc 30fe 473b 4245 0cbb 4641 abbb
00000190: d703 843c 4a02 433b b4e8 123c 9b6d c73b
000001a0: 4419 78bc f6d4 593b b426 2abb 68a4 c6bb
000001b0: fc67 72bc 12a5 5b3b fe37 28bb c5e1 c9bb
000001c0: b60b 853c 6cbc 923b 0e3a 0e3c 5fe4 bd3b
000001d0: 32b2 703c 14ab 703b 0b28 023c dea6 ae3b
000001e0: be69 923c 7635 a13b 628f 1c3c 5712 d13b
000001f0: 6d5a 753c 47ad 5f3b 73f7 053c cd79 b43b
00000200: 6514 7f3c d8d0 1d3b 89be 0f3c 5e17 c43b
00000210: 3a2e d13b 5776 bdbb 9cd4 1cbb 8a38 023b
00000220: 1b44 313c 826d c5ba 90e6 133c 09f5 e03b
00000230: 79b8 963c da6f b83b c8f0 1e3c 5cf9 d23b
00000240: f491 093c fa54 82bb 2478 0ebb bf26 533b
00000250: c7d8 57bc 8913 373b f323 13bb f95d a8bb
00000260: 7845 913c 1520 8d3b 5299 1d3c 81ba d33b
00000270: 7f8d 693c e404 7a3b ca93 fa3b 5b89 a73b
00000280: c240 733c fcbd 763b 3351 033c ec10 b03b
00000290: e640 9f3c 28cf fb3b cdd5 003c 712c a13b
000002a0: 81f6 6c3c 728f 3d3b 4df3 023c 6b3d b13b
000002b0: 84fa 763c 7161 2e3b dde3 093c db6c bb3b
000002c0: 8235 f33c b41f 263c e76b 423c e0a9 223c
000002d0: 0d4c 6e3c 7a8e 4e3b 27c4 023c 8f8b b03b
000002e0: 0bb0 553c eb09 543b 9f4c e73b 1d3f 9b3b
000002f0: 278c 6c3c 8c88 453b 4640 023c 8015 b03b
00000300: 6f33 893c c335 4e3b 8d75 183c d1d5 ce3b
00000310: 35f4 693c 9dde cd3a 045c 063c 90a6 b83b
00000320: 39b7 373c a7fe 0d3b c04d acba 5c25 7d3b
00000330: d674 643c 3b0c 5b3b a809 f93b ccc1 ad3b
00000340: 098a b43c ed04 083c 1c2b 0e3c 40c4 eb3b
00000350: 1099 8bbc 8cba 753b dc03 41bb 70f8 e3bb
00000360: f351 34bc 6ea1 133a f567 0ebb 2ff8 a2bb
00000370: c0a9 593c 8f02 d13a 9abc f73b fc39 b03b
00000380: 649f 763c dfb4 353b 133c 093c 0749 ba3b
00000390: 3f22 383c e545 1b3b 72d5 a8ba c95c 7d3b
000003a0: 6516 3d3c 377c 503b f6ed c73b a187 803b
000003b0: ebc3 693c d818 283b d8fd 043c f721 b33b
000003c0: 2d94 6d3c 17fa 473b 98a1 023c 4512 b03b
000003d0: 52a3 62bc 6a8f 4a3b 9ab8 1dbb 8eb7 bcbb
000003e0: b700 c23b 5cc6 e0bb 46c2 16bb adf2 4e3b
000003f0: 8bb3 7e3c 8475 443b 5009 0d3c db93 be3b

exp_avg_sq f4 [64, 4]
0.0006442204 0.00052894367 2.9193849e-05 0.00015801903 0.0007434337 0.00064186467 3.3207463e-05 0.00018058659
0.00071559683 0.0006178877 3.1807685e-05 0.0001727521 0.0009767578 0.000844665 4.3634434e-05 0.0002388192
0.0008669693 0.00075435993 3.972674e-05 0.00021497578 0.00080918253 0.0006981088 3.6711586e-05 0.00019921451
0.00085743325 0.0007468237 3.9302548e-05 0.00021292963 0.00022649953 0.00017642039 4.192353e-06 2.7671189e-05
0.00021896433 0.0001409795 8.528579e-06 4.801743e-05 0.00068297045 0.0005897044 3.1899566e-05 0.00017083804
0.00016686876 0.00013888179 8.278742e-06 3.8651895e-05 0.0010643506 0.00092292816 4.836492e-05 0.00026471322
0.00073997607 0.00064033025 3.395342e-05 0.00018316864 0.0008774176 0.00075926987 4.0089453e-05 0.00021765888
0.00046056363 0.00034501584 1.1189552e-05 6.5932545e-05 9.899388e-05 5.8850932e-05 1.6610016e-06 1.1233808e-05
5.559395e-05 4.5361827e-05 1.4010963e-06 9.3723165e-06 0.00081810233 0.0007165431 3.745996e-05 0.00020058114
0.00091078144 0.0007854482 4.100448e-05 0.00022326288 0.0007886969 0.00068032404 3.6130798e-05 0.00019498318
0.0005738018 0.0004861102 2.6314752e-05 0.00013767082 0.0006770306 0.0005804836 3.0953586e-05 0.00016652458
0.000960883 0.00083429524 4.3935604e-05 0.0002374756 0.00017083519 0.00013756525 3.3881684e-06 2.335232e-05
8.337522e-05 4.8346225e-05 1.8515387e-06 1.1862337e-05 0.0008493997 0.00072800205 3.8549304e-05 0.00020820966
0.00010072145 6.1009756e-05 2.0245457e-06 1.323642e-05 0.00010308422 6.118041e-05 1.6791241e-06 1.1290054e-05
0.00080599764 0.00069772423 3.693634e-05 0.00019953516 0.00066797005 0.00057212677 3.0479825e-05 0.00016096639
0.0009833165 0.0008531481 4.504822e-05 0.0002445438 0.0007028913 0.00060506735 3.204454e-05 0.00017234268
0.0007899352 0.00068265485 3.619428e-05 0.00019465612 0.0001604186 0.00013637447 5.2570185e-06 3.741286e-05
0.00078875764 0.0006847593 3.653588e-05 0.00019691428 0.0010415158 0.00090761733 4.762333e-05 0.0002601066
0.00020130137 0.00015493286 4.160441e-06 2.6396292e-05 6.998114e-05 4.511355e-05 1.4708766e-06 1.0621653e-05
0.0010010264 0.0008682148 4.56089e-05 0.0002486228 0.0006144358 0.0005342162 2.8243803e-05 0.00015145802
0.0006804739 0.0005908536 3.1160464e-05 0.00016842643 0.0006664899 0.00050759636 2.9198316e-05 0.0001599775
0.00066140236 0.00056609866 3.0146428e-05 0.00016147122 0.0007220425 0.00062055 3.3270033e-05 0.00017870183
0.0015186191 0.0014086214 7.44406e-05 0.0004051032 0.0006595449 0.0005608754 3.0193412e-05 0.00015921184
0.0005106938 0.00043545876 2.3493092e-05 0.00012287968 0.00065799704 0.0005622686 2.9975063e-05 0.00015864862
0.0009002525 0.0007741631 4.130722e-05 0.00022307747 0.0007029702 0.00060691 3.1363907e-05 0.00017044242
0.00024812692 0.00018452777 6.04299e-06 3.425066e-05 0.00055405626 0.0004555799 2.5554116e-05 0.0001313927
0.00082291214 0.0007265657 3.837882e-05 0.00020702876 0.00013812429 8.2818835e-05 2.5307247e-06 1.6465106e-05
6.041698e-05 4.4639397e-05 2.959674e-06 1.3584504e-05 0.0005804577 0.00049177 2.6277548e-05 0.00014003179
0.0007110748 0.0006083956 3.2970915e-05 0.0001758646 0.00024629664 0.00018439417 5.840954e-06 3.354239e-05
0.00034602985 0.00029181462 1.612802e-05 8.540307e-05 0.00069462456 0.0005913649 3.1330062e-05 0.00016795575
0.0006423543 0.0005485232 2.9843475e-05 0.0001614128 8.8589404e-05 5.1482108e-05 1.4339249e-06 9.602857e-06
0.000144332 0.00011736193 3.819307e-06 2.4477828e-05 0.0007538943 0.0006531676 3.5107885e-05 0.00018903578
00000000: e6e0 283a cfa8 0a3a 50e5 f437 e9b1 2539
00000010: fee2 423a cf42 283a 3e48 0b38 d85b 3d39
00000020: e496 3b3a bef9 213a 3e69 0538 ca24 3539
00000030: 8e06 803a 826c 5d3a 1e04 3738 8a6b 7a39
00000040: 5345 633a 3dc0 453a 43a0 2638 1f6b 6139
00000050: 521f 543a 4a01 373a c4fa 1938 3de4 5039
00000060: 5fc5 603a 7dc6 433a cad8 2438 dd45 5f39
00000070: 8180 6d39 7dfd 3839 0aac 8c36 6d1f e837
00000080: ca99 6539 e5d3 1339 f815 0f37 5366 4938
00000090: 5f09 333a 6496 1a3a e6cb 0538 fd22 3339
000000a0: 7ef9 2e39 cca0 1139 ede4 0a37 281e 2238
000000b0: ae81 8b3a a9f0 713a 70db 4a38 35c9 8a39
000000c0: f4fa 413a d6db 273a 3569 0e38 f510 4039
000000d0: 8002 663a bd09 473a b925 2838 5c3b 6439
000000e0: ce77 f139 3ee3 b439 c3ba 3b37 4445 8a38
000000f0: ef9a cf38 b5d6 7638 95ef de35 d778 3c37
00000100: 8d2d 6938 e442 3e38 4d0d bc35 cb3d 1d37
00000110: eb75 563a 65d6 3b3a 531e 1d38 1753 5239
00000120: 82c1 6e3a 89e6 4d3a 3afc 2b38 ac1b 6a39
00000130: 8ec0 4e3a c657 323a 268b 1738 6674 4c39
00000140: 306b 163a 9bdc fe39 80be dc37 bb5b 1039
00000150: c17a 313a 982b 183a 29d4 0138 1a9d 2e39
00000160: c4e3 7b3a 9bb4 5a3a 7f47 3838 df02 7939
00000170: 3922 3339 643f 1039 4a60 6336 bae4 c337
00000180: bbd9 ae38 5dc7 4a38 6382 f835 5904 4737
00000190: 40aa 5e3a 64d7 3e3a 00b0 2138 db52 5a39
000001a0: 6b3a d338 bae4 7f38 6edd 0736 fe11 5e37
000001b0: eb2e d838 fc4d 8038 445e e135 6a6a 3d37
000001c0: 9649 533a 7be7 363a 18ec 1a38 503a 5139
000001d0: b61a 2f3a c7fa 153a edae ff37 16c9 2839
000001e0: a0e2 803a cda5 5f3a 28f2 3c38 1d36 8039
000001f0: 3d42 383a 629d 1e3a 9067 0638 e3b6 3439
00000200: a713 4f3a 31f4 323a 50cf 1738 9b1c 4c39
00000210: 0a36 2839 beff 0e39 7265 b036 c1eb 1c38
00000220: a1c4 4e3a 6b81 333a 1a3e 1938 c67a 4e39
00000230: 7983 883a 2bed 6d3a 29bf 4738 eb5e 8839
00000240: 6d14 5339 7975 2239 eb99 8b36 9b6d dd37
00000250: d7c2 9238 4e38 3d38 ef6a c535 a733 3237
00000260: df34 833a e998 633a 2f4c 3f38 9659 8239
00000270: 1712 213a a40a 0c3a 1bed ec37 b4d0 1e39
00000280: d561 323a 84e3 1a3a 4bb2 0238 a09b 3039
00000290: 61b7 2e3a 3710 053a e8ee f437 a2bf 2739
000002a0: f661 2d3a 3d66 143a f6e2 fc37 9a50 2939
000002b0: 7447 3d3a 68ac 223a 6d8b 0b38 e861 3b39
000002c0: 670c c73a 7ea1 b83a fe1c 9c38 0864 d439
000002d0: 4fe5 2c3a b607 133a dc47 fd37 1af2 2639
000002e0: 15e0 053a 494e e439 0813 c537 43d9 0039
000002f0: 6f7d 2c3a 3565 133a f572 fb37 ea5a 2639
00000300: ecfe 6b3a 35f1 4a3a 4a41 2d38 e7e9 6939
00000310: 8847 383a 0a19 1f3a bd8c 0338 cab8 3239
00000320: 0817 8239 cc7d 4139 e4c4 ca36 5ea8 0f38
00000330: 163e 113a e6da ee39 0c5d d637 76c6 0939
00000340: b3b8 573a 0077 3e3a f2f8 2038 dc15 5939
00000350: 75d5 1039 06af ad38 85d5 2936 8c1e 8a37
00000360: 3d68 7d38 303b 3b38 d09e 4636 00e9 6337
00000370: db29 183a 20ea 003a 9b6e dc37 7fd5 1239
00000380: 6c67 3a3a bd7c 1f3a 404a 0a38 4b68 3839
00000390: 6021 8139 ef59 4139 6afd c336 deaf 0c38
000003a0: 576b b539 b2fe 9839 a94a 8737 6d1a b338
000003b0: 7717 363a d405 1b3a 6668 0338 471d 3039
000003c0: ab63 283a c5ca 0f3a 6058 fa37 eb40 2939
000003d0: 13c9 b938 7eee 5738 4975 c035 f51b 2137
000003e0: d457 1739 3520 f638 9927 8036 bc55 cd37
000003f0: fda0 453a 5639 2b3a ce40 1338 e837 4639

exp_avg f4 [64]
0.0050793504 0.006569392 0.0067142914 0.007322498 0.00675531 0.0056069894 0.0034375899 0.012025007
-0.021507515 0.0053786305 -0.01170941 0.00602002 0.0040809405 0.0050465004 0.0067061814 -0.015697705
0.007666473 0.0022646985 0.0068164044 0.0046863807 0.004142528 0.0048745843 0.00423939 0.011660146
-0.015103486 0.005918006 -0.016185118 -0.015946947 0.0042485395 0.004278551 0.004681261 0.0047476124
0.0062687756 0.009970085 0.008262324 0.004163615 0.009035568 -0.014088176 0.0053118244 0.003863552
0.004265062 0.0031735753 0.0050645554 0.0056863446 0.003379037 0.004797706 0.003829239 0.0048972196
0.006092871 0.006487898 0.0039137546 0.0050742785 0.0016475768 -0.018468171 -0.008485259 0.005625432
0.0055440227 0.003645015 0.0033574183 0.005213022 0.0049144537 -0.014938139 0.011160858 0.0055939406
00000000: ae70 a63b 0e44 d73b 8f03 dc3b 91f1 ef3b
00000010: a65b dd3b d6ba b73b 3049 613b 8904 453c
00000020: 8730 b0bc 393f b03b d3d8 3fbc 9743 c53b
00000030: 69b9 853b 1d5d a53b 87bf db3b 7998 80bc
00000040: 0937 fb3b 566b 143b 255c df3b 3690 993b
00000050: 0bbe 873b faba 9f3b 95ea 8a3b 320a 3f3c
00000060: 9d74 77bc d5eb c13b a796 84bc 2ca3 82bc
00000070: 5537 8b3b 1633 8c3b 4365 993b dc91 9b3b
00000080: 4d6a cd3b 9159 233c b35e 073c ef6e 883b
00000090: eb09 143c 18d2 66bc d00e ae3b a533 7d3b
000000a0: efc1 8b3b c2fb 4f3b 92f4 a53b 8454 ba3b
000000b0: d572 5d3b 1336 9d3b f8f3 7a3b db78 a03b
000000c0: b5a6 c73b 6f98 d43b f43e 803b 2246 a63b
000000d0: 81f3 d73a 904a 97bc c105 0bbc 8b55 b83b
000000e0: a2aa b53b 34e1 6e3b 2208 5c3b 00d2 aa3b
000000f0: 6d09 a13b 19bf 74bc 08dc 363c 604d b73b

exp_avg_sq f4 [64]
0.0014644475 0.0016146543 0.0015449859 0.0021621857 0.0019408185 0.001777301 0.0018999984 0.00014814355
0.00027847962 0.001525484 0.00023851228 0.0024070486 0.0016257181 0.001957709 0.00033509367 8.30495e-05
4.0744068e-05 0.001795308 0.002003796 0.0017358805 0.0012606431 0.0014802124 0.0021466047 0.0001133091
7.447948e-05 0.0018923909 9.033145e-05 8.443048e-05 0.0017690202 0.00149199 0.0021947762 0.0015389671
0.0017451626 0.00015069367 0.0017558526 0.0023508435 0.00014498987 6.4578104e-05 0.0022520989 0.001353549
0.0015001465 0.0015096564 0.0014454476 0.0015896707 0.0037598982 0.0014491366 0.0011110534 0.001452271
0.0019979966 0.0015227202 0.00017821373 0.0013368516 0.001858077 0.00011942802 7.984637e-05 0.0012752468
0.001574776 0.00017022318 0.0007317376 0.0015257149 0.0014241702 7.231129e-05 0.00011093573 0.0016904678
00000000: b4f2 bf3a cfa2 d33a 2081 ca3a 75b3 0d3b
00000010: 1063 fe3a 53f4 e83a 5e09 f93a fb56 1b39
00000020: e700 9239 c0f2 c73a 2719 7a39 93bf 1d3b
00000030: 0c16 d53a e84c 003b 83af af39 dc2a ae38
00000040: 9ce4 2a38 8a50 eb3a 1e52 033b 7c86 e33a
00000050: 2a3c a53a b003 c23a 0dae 0c3b 5ca0 ed38
00000060: de31 9c38 1a0a f83a 5470 bd38 4510 b138
00000070: 78de e73a e18e c33a 3cd6 0f3b 2bb7 c93a
00000080: f1bd e43a 8603 1e39 a324 e63a 9c10 1a3b
00000090: 6c08 1839 1b6e 8738 f397 133b 9169 b13a
000000a0: 90a0 c43a aadf c53a 2c75 bd3a 7f5c d03a
000000b0: a068 763b f5f0 bd3a c4a0 913a 215a be3a
000000c0: d2f0 023b 0396 c73a e2de 3a39 4c39 af3a
000000d0: b88a f33a 6e75 fa38 3273 a738 2f26 a73a
000000e0: b768 ce3a f07d 3239 14d2 3f3a 7ffa c73a
000000f0: 39ab ba3a d4a5 9738 2ba6 e838 b092 dd3a

exp_avg f4 [2, 64]
0.0017610157 0.0040388745 0.0043665264 0.0034532407 0.0025462315 0.0038020648 0.0031800373 0.0024774317
0.0009828655 0.0030172803 0.0011193664 0.0039755553 0.0041212793 0.0038238377 0.0018414136 0.00093619205
0.0031047738 0.0032278486 0.0028954402 0.0024861891 0.0052073677 0.0027931996 0.003492801 0.002182689
0.0010069498 0.004473709 0.0007956729 0.0010984472 0.0038479117 0.004834037 0.0036422864 0.0048632687
0.0027521984 0.002513461 0.0031549397 0.0033090562 0.0030652543 0.00048560536 0.003909551 0.004347393
0.004534717 0.0012363994 0.0025171328 0.0031000904 0.0031392523 0.005303192 0.005069115 0.0052406434
0.003020335 0.0042407657 0.001894626 0.0015556006 0.0032664482 0.00094730017 0.0005250809 0.0027999927
0.0030800127 0.0018874449 0.0021347506 0.0022167284 0.0026912673 0.0015124698 0.0024147464 0.002599301
-0.0017610161 -0.0040388745 -0.0043665264 -0.0034532412 -0.0025462315 -0.0038020653 -0.0031800375 -0.002477432
-0.0009828653 -0.0030172807 -0.0011193665 -0.0039755553 -0.0041212793 -0.0038238384 -0.001841414 -0.0009361921
-0.0031047738 -0.0032278483 -0.0028954404 -0.0024861891 -0.0052073677 -0.0027931998 -0.0034928015 -0.002182689
-0.0010069499 -0.00447371 -0.00079567294 -0.0010984474 -0.0038479117 -0.0048340373 -0.003642286 -0.004863268
-0.0027521984 -0.0025134615 -0.0031549397 -0.0033090569 -0.0030652545 -0.0004856054 -0.0039095515 -0.004347393
-0.004534717 -0.0012363996 -0.0025171328 -0.0031000904 -0.0031392523 -0.0053031915 -0.005069115 -0.0052406425
-0.0030203348 -0.0042407657 -0.0018946262 -0.001555601 -0.0032664484 -0.0009473002 -0.00052508095 -0.002799993
-0.0030800132 -0.0018874451 -0.002134751 -0.0022167286 -0.0026912673 -0.0015124698 -0.002414747 -0.0025993013
00000000: e2d1 e63a 8958 843b 1415 8f3b c44f 623b
00000010: adde 263b 102c 793b 2c68 503b 685c 223b
00000020: 7ed3 803a 90bd 453b b4b7 923a 6045 823b
00000030: cc0b 873b 5a99 7a3b 965b f13a c96a 753a
00000040: 7679 4b3b 508a 533b 6dc1 3d3b 55ef 223b
00000050: 91a2 aa3b 1d0e 373b 7ae7 643b 720b 0f3b
00000060: a1fb 833a 3198 923b b494 503a c6f9 8f3a
00000070: 3f2d 7c3b d766 9e3b 6db3 6e3b 0e5c 9f3b
00000080: 3a5e 343b e1b8 243b 1bc3 4e3b c0dc 583b
00000090: 6fe2 483b d998 fe39 b11b 803b 9374 8e3b
000000a0: f797 943b ae0e a23a 7bf6 243b e32a 4b3b
000000b0: eabb 4d3b 66c6 ad3b d21a a63b b4b9 ab3b
000000c0: d0f0 453b 1ff6 8a3b 1955 f83a 4be5 cb3a
000000d0: e811 563b 3d54 783a 95a5 093a 1580 373b
000000e0: 0ada 493b 2464 f73a 2ce7 0b3b 8846 113b
000000f0: f95f 303b 113e c63a b940 1e3b 0959 2a3b
00000100: e5d1 e6ba 8958 84bb 1415 8fbb c64f 62bb
00000110: adde 26bb 122c 79bb 2d68 50bb 695c 22bb
00000120: 7dd3 80ba 92bd 45bb b5b7 92ba 6045 82bb
00000130: cc0b 87bb 5d99 7abb 9a5b f1ba ca6a 75ba
00000140: 7679 4bbb 4f8a 53bb 6ec1 3dbb 55ef 22bb
00000150: 91a2 aabb 1e0e 37bb 7ce7 64bb 720b 0fbb
00000160: a2fb 83ba 3398 92bb b594 50ba c7f9 8fba
00000170: 3f2d 7cbb d866 9ebb 6bb3 6ebb 0d5c 9fbb
00000180: 3a5e 34bb e3b8 24bb 1bc3 4ebb c3dc 58bb
00000190: 70e2 48bb da98 feb9 b21b 80bb 9374 8ebb
000001a0: f797 94bb b00e a2ba 7bf6 24bb e32a 4bbb
000001b0: eabb 4dbb 65c6 adbb d21a a6bb b2b9 abbb
000001c0: cff0 45bb 1ff6 8abb 1b55 f8ba 4fe5 cbba
000001d0: e911 56bb 3e54 78ba 96a5 09ba 1680 37bb
000001e0: 0cda 49bb 2664 f7ba 2ee7 0bbb 8946 11bb
000001f0: f95f 30bb 113e c6ba bb40 1ebb 0a59 2abb

exp_avg_sq f4 [2, 64]
2.593122e-05 3.2838994e-05 3.4175133e-05 2.412804e-05 2.2046397e-05 3.152205e-05 2.2374083e-05 1.0457021e-05
3.4194861e-06 2.6649739e-05 3.264259e-06 2.5746207e-05 2.989557e-05 2.6552316e-05 7.963555e-06 3.492025e-06
1.4000797e-05 2.467357e-05 2.1164873e-05 2.3764534e-05 4.5732515e-05 2.7687294e-05 2.1884302e-05 6.6356497e-06
4.7280187e-06 3.150739e-05 2.2951915e-06 3.95553e-06 2.8164979e-05 3.881635e-05 2.0758658e-05 3.7307807e-05
2.3218614e-05 7.4931345e-06 2.5659016e-05 2.194854e-05 2.0670257e-05 1.6455969e-06 2.5024152e-05 3.906086e-05
3.7799116e-05 2.602689e-05 2.8388273e-05 2.727383e-05 1.7179938e-05 3.9899274e-05 4.1179217e-05 4.1425046e-05
2.201985e-05 3.5220648e-05 8.8505585e-06 2.7217478e-05 2.29188e-05 2.6711468e-06 1.340761e-06 2.902538e-05
2.6840686e-05 9.399827e-06 1.9371453e-05 2.574366e-05 2.8727143e-05 6.4508704e-06 7.83913e-06 2.3710378e-05
2.5931218e-05 3.2838994e-05 3.4175133e-05 2.4128043e-05 2.2046397e-05 3.1522042e-05 2.2374083e-05 1.0457021e-05
3.4194857e-06 2.6649739e-05 3.264259e-06 2.5746203e-05 2.989557e-05 2.6552321e-05 7.963554e-06 3.4920254e-06
1.4000798e-05 2.4673578e-05 2.1164875e-05 2.3764533e-05 4.573252e-05 2.7687294e-05 2.1884302e-05 6.6356497e-06
4.7280187e-06 3.150739e-05 2.2951917e-06 3.95553e-06 2.8164979e-05 3.8816346e-05 2.0758658e-05 3.7307807e-05
2.3218616e-05 7.4931336e-06 2.565901e-05 2.194854e-05 2.0670255e-05 1.6455969e-06 2.5024156e-05 3.906086e-05
3.7799116e-05 2.6026892e-05 2.8388273e-05 2.727383e-05 1.7179933e-05 3.9899274e-05 4.1179213e-05 4.1425057e-05
2.2019847e-05 3.522065e-05 8.8505585e-06 2.7217477e-05 2.2918804e-05 2.6711468e-06 1.3407612e-06 2.9025374e-05
2.6840687e-05 9.399827e-06 1.9371453e-05 2.574366e-05 2.8727143e-05 6.4508704e-06 7.83913e-06 2.3710376e-05
00000000: df86 d937 9abc 0938 4557 0f38 9266 ca37
00000010: 47f0 b837 8b36 0438 faaf bb37 9070 2f37
00000020: 537a 6536 e18d df37 8b0f 5b36 8ff9 d737
00000030: 3fc8 fa37 aabc de37 359b 0537 8858 6a36
00000040: f7e4 6a37 17fa ce37 388b b137 f359 c737
00000050: ead0 3f38 0342 e837 2e94 b737 cca7 de36
00000060: 5fa5 9e36 cd26 0438 1707 1a36 beb9 8436
00000070: d543 ec37 bdce 2238 e122 ae37 f47a 1c38
00000080: 98c5 c237 896d fb36 513e d737 211e b837
00000090: 0a65 ad37 47de dc35 f5ea d137 47d5 2338
000000a0: 7e8a 1e38 5254 da37 5a23 ee37 1bca e437
000000b0: a31d 9037 8559 2738 d9b7 2c38 cebf 2d38
000000c0: 45b7 b837 e2b9 1338 dc7c 1437 1751 e437
000000d0: c041 c037 f441 3336 32f4 b335 877b f337
000000e0: ef27 e137 f3b3 1d37 e17f a237 17f4 d737
000000f0: 12fb f037 8e74 d836 cf84 0337 a6e5 c637
00000100: de86 d937 9abc 0938 4557 0f38 9466 ca37
00000110: 47f0 b837 8936 0438 faaf bb37 9070 2f37
00000120: 517a 6536 e18d df37 8b0f 5b36 8df9 d737
00000130: 3fc8 fa37 adbc de37 349b 0537 8a58 6a36
00000140: f8e4 6a37 1bfa ce37 398b b137 f259 c737
00000150: ebd0 3f38 0342 e837 2e94 b737 cca7 de36
00000160: 5fa5 9e36 cd26 0438 1807 1a36 beb9 8436
00000170: d543 ec37 bcce 2238 e122 ae37 f47a 1c38
00000180: 99c5 c237 876d fb36 4e3e d737 211e b837
00000190: 0965 ad37 47de dc35 f7ea d137 47d5 2338
000001a0: 7e8a 1e38 5354 da37 5a23 ee37 1bca e437
000001b0: a01d 9037 8559 2738 d8b7 2c38 d1bf 2d38
000001c0: 43b7 b837 e3b9 1338 dc7c 1437 1651 e437
000001d0: c241 c037 f441 3336 34f4 b335 847b f337
000001e0: f027 e137 f3b3 1d37 e17f a237 17f4 d737
000001f0: 12fb f037 8e74 d836 cf84 0337 a5e5 c637

exp_avg f4 [2]
0.003719334 -0.0037193343
00000000: 12c0 733b 13c0 73bb

exp_avg_sq f4 [2]
3.789e-05 3.789e-05
00000000: 14ec 1e38 14ec 1e38

exp_avg f4 [1, 64]
0.003243962 -0.0020096789 0.00028398653 -0.00054499065 -6.416074e-05 0.0006884327 0.009333286 0.00897078
0.011394174 0.008654819 0.012815969 0.004960929 0.008224117 0.0047762874 0.009646809 0.012117978
0.005970231 0.011288394 0.0022847287 0.006007677 0.008732672 0.005920186 0.010324085 0.006310354
0.012260107 0.00471226 0.01073953 0.014403836 0.0071149194 0.009748301 0.012795923 0.0076678526
0.002787446 0.0034913518 0.007954643 0.0075313817 0.0136201335 0.0068745557 0.007027577 0.00394294
0.0062269205 0.001311163 0.0013616636 0.008425286 0.011546616 0.012119855 0.011572383 0.008928756
0.010352071 -0.00064611033 0.010247705 0.002234714 0.0138274785 0.012599027 0.004742265 0.0012721017
0.008094152 0.010323086 0.003578414 -0.0017669074 0.005559686 0.020132143 0.0056595644 0.004379735
00000000: a798 543b d1b4 03bb 07e4 9439 b4dd 0eba
00000010: 098e 86b8 f077 343a a4ea 183c 2efa 123c
00000020: a1ae 3a3c f1cc 0d3c 12fa 513c 4a8f a23b
00000030: 72be 063c 6782 9c3b a60d 1e3c 7c8a 463c
00000040: eda1 c33b f5f2 383c 63bb 153b 0cdc c43b
00000050: 7b13 0f3c 1ffe c13b 5a26 293c 16c7 ce3b
00000060: 9ede 483c 4d69 9a3b dbf4 2f3c 11fe 6b3c
00000070: 4524 e93b 56b7 1f3c fea5 513c 9c42 fb3b
00000080: 95ad 363b 2acf 643b 3154 023c cfc9 f63b
00000090: fb26 5f3c f443 e13b 9747 e63b c733 813b
000000a0: 320b cc3b 54db ab3a d979 b23a 360a 0a3c
000000b0: 052e 3d3c 5b92 463c 189a 3d3c eb49 123c
000000c0: bc9b 293c bb5f 29ba fde5 273c 4874 123b
000000d0: a68c 623c 266c 4e3c 0165 9b3b a6bc a63a
000000e0: 569d 043c 2922 293c d383 6a3b 9397 e7ba
000000f0: 072e b63b 2aec a43c de73 b93b e183 8f3b

exp_avg_sq f4 [1, 64]
0.0016610668 0.0018496373 0.0019234406 0.0014597126 0.0015888691 0.0018169378 0.0014920026 0.00024412319
0.00021203914 0.0018939119 0.00023998787 0.0013880511 0.0018419764 0.0014939177 0.00023298436 0.00017769293
0.0002959244 0.0018465926 0.0015053746 0.0016963133 0.0022167754 0.0019230262 0.0014012712 0.00014968713
0.00026305314 0.0016073325 0.000113602655 0.00020996969 0.0017736414 0.0017581988 0.001427521 0.0020055748
0.0016746845 0.0001582904 0.001889021 0.0013168822 0.0005156138 7.415888e-05 0.0013985592 0.0020269232
0.0019778216 0.0015855611 0.0019369585 0.0019863995 0.0012488093 0.0019383398 0.0019759848 0.0020161166
0.0016242438 0.0019454929 0.00026963349 0.0016754207 0.0017103343 0.0001409365 0.000100284364 0.0019741838
0.0019472796 0.00029722686 0.0013125234 0.0016426429 0.002008823 0.00035348066 0.00017877594 0.00167416
00000000: 27b8 d93a 876f f23a f51b fc3a d453 bf3a
00000010: 9a41 d03a 5126 ee3a 4d8f c33a 52fb 7f39
00000020: d356 5e39 233d f83a 41a5 7b39 44ef b53a
00000030: 796e f13a 8fcf c33a 434d 7439 1553 3a39
00000040: 4d26 9b39 5e09 f23a fd4f c53a d456 de3a
00000050: 5247 113b 0d0e fc3a dcaa b73a 55f5 1c39
00000060: 65ea 8939 21ad d23a f63d ee38 4f2b 5c39
00000070: 8879 e83a 5d73 e63a a81b bb3a f66f 033b
00000080: 1681 db3a c1fa 2539 0799 f73a 3c9b ac3a
00000090: 422a 073a bf85 9b38 dc4f b73a 21d6 043b
000000a0: 579e 013b 9ad2 cf3a 8be1 fd3a 412e 023b
000000b0: 16af a33a e40f fe3a 867f 013b d320 043b
000000c0: 94e4 d43a e9ff fe3a 985d 8d39 ca99 db3a
000000d0: 4c2d e03a 5bc8 1339 c24f d238 4f61 013b
000000e0: dc3b ff3a 1dd5 9b39 fa08 ac3a f34d d73a
000000f0: 75a6 033b 5f53 b939 cd75 3b39 7d6f db3a
