savedModels/ppo_cartpole_184320.pth (torch, 13659 bytes, 15 tensors)

shared_fc.0.weight f4 [64, 4]
-0.023714084 0.4555509 0.0081935 -0.42725873 -0.06090633 -0.17459399 -0.7972731 -0.28047866
0.012338587 -0.36639795 -0.5243024 -0.5133223 -0.041273896 -0.11919721 -0.5686748 -0.23028246
0.10290268 0.044532444 -0.842519 -0.26215494 -0.093953066 -0.0065232627 -0.5371118 -0.036480468
-0.11923905 0.24517974 0.60045314 0.37406066 -0.1928577 -0.14092673 -0.26279303 -0.10981628
0.33340016 0.038709957 0.013700154 -0.011909158 0.18750833 0.05537797 -0.04221696 -0.34075394
0.46217898 -0.1843769 -0.15157664 -0.20964313 0.009456502 -0.23159993 -0.02937244 0.21546979
0.007595426 0.050963715 0.35553285 0.3356932 -0.08232919 -0.000674345 0.0955087 0.094845936
-0.19461654 -0.089466736 -0.2106118 -0.018986057 0.20795561 0.14236291 0.14052069 0.12160842
-0.019054467 -0.35178146 -0.40159267 -0.097496115 0.19228508 0.19551851 0.06610499 0.3137771
0.014489546 -0.07505484 -0.47096276 -0.30567464 -0.20517619 0.31129158 0.18516128 0.06555459
0.0009374321 -0.16023637 0.35083884 0.44324023 -0.18540409 0.21118519 0.08433711 -0.24711773
0.002751806 0.08718334 0.3603226 0.524195 0.24462783 0.01044485 -0.066426754 -0.038996786
0.25614288 0.12612696 -0.15759915 0.19449663 0.05994708 -0.3953836 -0.1324012 0.09565917
0.05397864 0.14188725 0.31133282 0.14133455 0.27819264 0.10246208 0.2663924 0.080338344
-0.051238786 0.16069484 0.4516258 0.2674745 -0.03797279 -0.30206352 0.61076933 0.43749514
0.15163147 -0.019174747 0.5997717 0.24381019 0.06622865 -0.17452969 0.3142052 0.1830277
0.05982165 0.008550749 -0.55298436 -0.30719376 -0.06408485 -0.29922104 -0.19547856 -0.30711836
0.28037453 -0.14207488 -0.50721645 -0.1512673 -0.12474233 0.16020612 0.53935957 0.29160705
-0.37618193 -0.13677464 0.0027164281 -0.087688364 0.0071807755 0.28151116 0.21607943 0.23334919
-0.0108036045 -0.08867392 0.34539238 0.15031473 -0.20476235 0.10332222 0.20547223 0.4662558
-0.1492879 -0.0038655077 0.53581804 0.19763806 -0.13130863 0.59645754 -0.041557096 -0.39507693
-0.23975645 0.25974768 -0.3299887 -0.22321728 0.12902357 -0.005357364 -0.19332023 -0.24390504
0.3180226 -0.16314645 -0.055775575 0.3437502 0.22162639 -0.48323897 0.38376632 0.35873482
-0.007345694 -0.08261575 0.847319 0.2929052 0.11351757 -0.44115987 0.27644902 0.21767785
0.18951088 -0.0895555 -0.07175221 -0.10683021 -0.061665375 -0.22293104 -0.53306895 -0.40872058
-0.17343189 -0.07734319 0.22136672 0.072361775 0.11843251 0.36849374 -0.16044372 -0.7363424
0.20628028 0.065281816 0.4112351 0.35833308 0.20820576 0.08668856 0.25747102 0.034638226
0.020247186 -0.044087823 -0.56939745 -0.17945942 -0.023065561 0.05947264 -0.32522097 -0.5984445
0.19083619 0.011690479 -0.23117782 -0.23787287 -0.2778762 -0.03480861 -0.07683484 0.20752333
0.16488652 0.22901858 -0.38894135 -0.23524338 -0.31831267 0.33392504 -0.15119098 -0.45316333
-0.009396586 0.20880254 -0.14238393 -0.21014164 0.43747324 0.08346717 0.41962507 0.04242694
0.046849575 -0.11228553 -0.7240329 -0.074110426 0.07016126 0.14993739 -0.2784908 -0.28431043
00000000: 0a44 c2bc f83d e93e 083e 063c a8c1 dabe
00000010: ea78 79bd c4c8 32be 171a 4cbf e69a 8fbe
00000020: c927 4a3c 8398 bbbe af38 06bf 1769 03bf
00000030: d10e 29bd ab1d f4bd ac94 11bf 2acf 6bbe
00000040: a4be d23d a767 363d 53af 57bf 2c39 86be
00000050: 776a c0bd 18c1 d5bb 2980 09bf 8b6c 15bd
00000060: 9a33 f4bd 6610 7b3e 4cb7 193f e184 bf3e
00000070: 7d7c 45be 194f 10be cf8c 86be 5ce7 e0bd
00000080: 6db3 aa3e 558e 1e3d 9c76 603c a11e 43bc
00000090: 2f02 403e 03d4 623d b1eb 2cbd 4d77 aebe
000000a0: b9a2 ec3e 4ccd 3cbe e836 1bbe b0ac 56be
000000b0: 72ef 1a3c 8828 6dbe 799e f0bc 1da4 5c3e
000000c0: 0de3 f83b 54bf 503d 6708 b63e fbdf ab3e
000000d0: 359c a8bd 87c6 30ba 119a c33d 963e c23d
000000e0: 8f49 47be 563a b7bd 9faa 57be a688 9bbc
000000f0: 51f2 543e 95c7 113e a8e4 0f3e d60d f93d
00000100: 1d18 9cbc b31c b4be 8e9d cdbe 0bac c7bd
00000110: 61e6 443e 0136 483e 0e62 873d 64a7 a03e
00000120: 9065 6d3c 5ab6 99bd 0822 f1be 6381 9cbe
00000130: b519 52be 9c61 9f3e eb9a 3d3e 7c41 863d
00000140: 01be 753a 0115 24be 26a1 b33e 62f0 e23e
00000150: 92da 3dbe ee40 583e efb8 ac3d 6e0c 7dbe
00000160: a557 343b 2e8d b23d 347c b83e a531 063f
00000170: b87f 7a3e e020 2b3c c00a 88bd 18bb 1fbd
00000180: 2925 833e 6d27 013e ac61 21be 202a 473e
00000190: 128b 753d b86f cabe 2e94 07be f4e8 c33d
000001a0: b518 5d3d e44a 113e 0467 9f3e 01ba 103e
000001b0: 446f 8e3e a4d7 d13d 9664 883e 6e88 a43d
000001c0: c3df 51bd 308d 243e 7f3b e73e 6bf2 883e
000001d0: 5b89 1bbd 12a8 9abe 615b 1c3f 5dff df3e
000001e0: 4845 1b3e 5c14 9dbc a38a 193f 61a9 793e
000001f0: e3a2 873d e9b7 32be 81df a03e 9d6b 3b3e
00000200: 8c07 753d 7118 0c3c 6290 0dbf 8048 9dbe
00000210: eb3e 83bd 8033 99be 882b 48be 9e3e 9dbe
00000220: 408d 8f3e 147c 11be f0d8 01bf d1e5 1abe
00000230: e878 ffbd 130d 243e 7813 0a3f 854d 953e
00000240: eb9a c0be a70e 0cbe 1a06 323b f595 b3bd
00000250: b64c eb3b 3b22 903e ed43 5d3e 17f3 6e3e
00000260: 9a01 31bc ac9a b5bd 45d7 b03e 1bec 193e
00000270: 39ad 51be 9a9a d33d 5067 523e 15b9 ee3e
00000280: edde 18be 7554 7dbb 5f2b 093f a261 4a3e
00000290: c575 06be 71b1 183f c637 2abd 8647 cabe
000002a0: b782 75be a6fd 843e 47f4 a8be 1293 64be
000002b0: c11e 043e d48c afbb bdf5 45be 3ec2 79be
000002c0: dcd3 a23e dd0f 27be ee74 64bd 0700 b03e
000002d0: 07f2 623e 196b f7be 057d c43e 17ac b73e
000002e0: 26b4 f0bb 7232 a9bd e6e9 583f acf7 953e
000002f0: e67b e83d b5df e1be ba8a 8d3e f1e6 5e3e
00000300: 240f 423e e068 b7bd d3f2 92bd ccc9 dabd
00000310: d594 7cbd 0948 64be 3577 08bf d343 d1be
00000320: 2198 31be 1b66 9ebd f5ad 623e 6932 943d
00000330: be8c f23d 36ab bc3e 5c4b 24be ef80 3cbf
00000340: 233b 533e 79b2 853d 688d d23e 6f77 b73e
00000350: e433 553e c689 b13d 3ed3 833e d0e0 0d3d
00000360: 6ddd a53c 6f95 34bd 08c4 11bf 36c4 37be
00000370: fdf3 bcbc 9599 733d 5d83 a6be a933 19bf
00000380: 906a 433e 6c89 3f3c e1b9 6cbe f294 73be
00000390: ca45 8ebe 7993 0ebd 965b 9dbd ff80 543e
000003a0: 03d8 283e d983 6a3e 5223 c7be a4e3 70be
000003b0: e1f9 a2be 39f8 aa3e cfd1 1abe 0605 e8be
000003c0: 23f4 19bc 55d0 553e 18cd 11be 5f2f 57be
000003d0: 7efc df3e d6f0 aa3d 19d9 d63e dfc7 2d3d
000003e0: 57e5 3f3d f5f5 e5bd 385a 39bf 35c7 97bd
000003f0: b5b0 8f3d 3089 193e 5996 8ebe 2391 91be

shared_fc.0.bias f4 [64]
0.7037517 0.7797116 0.76735705 0.718468 0.72462726 0.7173507 0.7181504 -0.2157281
-0.20877202 0.8089866 -0.14275753 0.7085453 0.76874924 0.7288875 -0.20422553 -0.17316106
0.091048375 0.73748136 0.70736504 0.7618156 0.83105224 0.8111814 0.71360546 -0.13715021
-0.2003341 0.73144865 -0.020251086 -0.17752463 0.6991457 0.7506536 0.7163146 0.80722696
0.73126966 -0.10977726 0.77463067 0.6986325 -0.25792015 -0.05628577 0.7192439 0.836981
0.83068097 0.6664481 0.8203753 0.7953101 0.72019315 0.73628026 0.69068587 0.7829773
0.7402687 0.7884516 -0.17743337 0.68110377 0.80552804 -0.15011792 0.41364166 0.7689964
0.80991626 -0.23111352 0.17296071 0.75147027 0.754058 -0.16294742 0.5593151 0.7599233
00000000: 1229 343f 2e9b 473f 8371 443f 85ed 373f
00000010: 2c81 393f 4ca4 373f b4d8 373f d4e7 5cbe
00000020: 55c8 55be bf19 4f3f 082f 12be 3a63 353f
00000030: c0cc 443f 5f98 3a3f 7f20 51be 2251 31be
00000040: 9277 ba3d 94cb 3c3f e015 353f 5906 433f
00000050: d7bf 543f 96a9 4f3f d9ae 363f 1b71 0cbe
00000060: 6224 4dbe 3840 3b3f 9be5 a5bc 04c9 35be
00000070: 36fb 323f d62a 403f 6560 373f 6da6 4e3f
00000080: 7d34 3b3f e6d2 e0bd 324e 463f 94d9 323f
00000090: 1c0e 84be e88b 66bd 5e20 383f 6344 563f
000000a0: 82a7 543f 589c 2a3f 1e04 523f 7199 4b3f
000000b0: 945e 383f dd7c 3c3f cad0 303f 3371 483f
000000c0: 4082 3d3f f7d7 493f 18b1 35be d15c 2e3f
000000d0: 1637 4e3f 83b8 19be d7c8 d33e f3dc 443f
000000e0: ac56 4f3f 06a9 6cbe 9d1c 313e 5b60 403f
000000f0: f209 413f b0db 26be 462f 0f3f 558a 423f

actor_head.weight f4 [2, 64]
0.008213504 0.24131605 0.23826395 0.24706452 0.16695489 0.11026606 -0.28053135 0.12805165
0.02131716 0.034975618 0.1279476 -0.031436913 -0.19001243 -0.0511218 0.04200865 -0.082132034
0.08868563 -0.11647438 0.17805338 -0.10520048 -0.13088644 0.0050630206 -0.20489512 0.080746405
-0.060199104 0.045539845 -0.16082282 -0.06137758 -0.28390118 -0.11134315 -0.22162332 -0.08956854
0.15096697 0.17574947 0.14802372 -0.2688517 0.064883955 -0.14804587 -0.13507853 -0.1424559
-0.1462923 0.011841661 0.07897939 0.09216226 -0.14205888 -0.0643419 -0.1813274 -0.04688861
0.06717622 0.24144407 -0.046732046 0.08285197 -0.20865035 -0.027768679 0.17452051 0.11508707
0.07497282 -0.021417504 0.042010605 0.080974974 0.027930453 -0.060886733 0.3235071 0.04705277
-0.0038209178 -0.251763 -0.24932384 -0.25014082 -0.19166665 -0.10619432 0.2900372 -0.124663115
-0.037161566 -0.06386442 -0.085506216 0.02056703 0.20069768 0.077811055 -0.058399122 0.0683863
-0.14964792 0.11458733 -0.19001356 0.0987899 0.10441454 -0.024205446 0.21644583 -0.10080167
0.03936705 -0.055856563 0.17987394 0.067116156 0.24926937 0.12027581 0.23984882 0.113782346
-0.157717 -0.17049028 -0.13171712 0.28062794 -0.05170747 0.13419253 0.124012515 0.13082723
0.1330889 -0.00027255632 -0.07591206 -0.10159394 0.11044765 0.08770622 0.16693383 0.04674797
-0.04510694 -0.2438881 0.0473914 -0.060093753 0.22278087 0.02989454 -0.18209173 -0.12457163
-0.074868016 0.021022718 -0.039458074 -0.073923305 -0.016630739 0.06252116 -0.31296214 -0.08110971
00000000: ef91 063c 8e1b 773e 77fb 733e 7bfe 7c3e
00000010: 39f6 2a3e 2cd3 e13d cea1 8fbe f91f 033e
00000020: 53a1 ae3c 9842 0f3d b204 033e fec3 00bd
00000030: 9e92 42be 1865 51bd 4311 2c3d d734 a8bd
00000040: d0a0 b53d 1f8a eebd a053 363e 5973 d7bd
00000050: 1807 06be b2e7 a53b 07d0 51be 5f5e a53d
00000060: 5693 76bd fd87 3a3d bdae 24be 0f67 7bbd
00000070: 7f5b 91be e107 e4bd 39f1 62be b66f b7bd
00000080: 1697 1a3e abf7 333e 8893 173e eea6 89be
00000090: e1e1 843d 5699 17be 0752 0abe f6df 11be
000000a0: a6cd 15be 8703 423c f2bf a13d 91bf bc3d
000000b0: e277 11be b0c5 83bd e4ad 39be 450e 40bd
000000c0: b093 893d 1d3d 773e 1a6a 3fbd 4bae a93d
000000d0: 70a8 55be 247b e3bc 81b5 323e c5b2 eb3d
000000e0: 5a8b 993d c373 afbc 5013 2c3d 35d6 a53d
000000f0: 68ce e43c 5e64 79bd b9a2 a53e 68ba 403d
00000100: 5d68 7abb 14e7 80be c04e 7fbe 7512 80be
00000110: 4344 44be 687c d9bd c27f 943e 604f ffbd
00000120: ba36 18bd 59cb 82bd e21d afbd 307c a83c
00000130: b183 4d3e 675b 9f3d eb33 6fbd 1e0e 8c3d
00000140: 4e3d 19be c3ac ea3d ea92 42be 5c52 ca3d
00000150: 4ad7 d53d 804a c6bc faa3 5d3e 1b71 cebd
00000160: 583f 213d dac9 64bd e030 383e 3274 893d
00000170: 7840 7f3e 2a53 f63d ee9a 753e b806 e93d
00000180: 9180 21be 0195 2ebe dae0 06be 77ae 8f3e
00000190: 36cb 53bd c469 093e 46fa fd3d 93f7 053e
000001a0: 7548 083e e4e5 8eb9 c877 9bbd 7c10 d0bd
000001b0: 6132 e23d 529f b33d b4f0 2a3e cd7a 3f3d
000001c0: 0ec2 38bd cdbd 79be 7c1d 423d de24 76bd
000001d0: ab20 643e 65e5 f43c 4176 3abe 691f ffbd
000001e0: 6754 99bd d637 ac3c ca9e 21bd 1a65 97bd
000001f0: 303d 88bc 180b 803d 933c a0be d91c a6bd

actor_head.bias f4 [2]
-0.031419527 0.031419512
00000000: c3b1 00bd bfb1 003d

critic_head.weight f4 [1, 64]
0.60374814 0.7025329 0.67349297 0.8652785 0.77115405 0.6556019 0.8193651 -0.43448895
-0.43252856 0.5607438 -0.23813228 0.8840974 0.7580306 0.8518026 -0.57221425 -0.32136714
0.036754925 0.39437705 0.85541517 0.7742745 0.6547997 0.718607 0.8942725 -0.3228504
-0.29014733 0.7554526 -0.102306195 -0.30607468 0.74035317 0.65102375 0.8466829 0.7428766
0.76617527 -0.23010156 0.6832506 0.9312181 -0.29916203 -0.056895003 0.90765446 0.6522763
0.7006302 0.6656776 0.70302117 0.7055384 0.93778425 0.70491225 0.56325996 0.6832898
0.79194105 0.66808176 -0.35848686 0.5542598 0.656991 -0.43237725 0.442541 0.660852
0.6459739 -0.3614851 0.033292655 0.6901688 0.5972944 -0.16681361 0.6914893 0.6696782
00000000: 3d8f 1a3f 32d9 333f 096a 2c3f e482 5d3f
00000010: 5a6a 453f 87d5 273f e9c1 513f 5675 debe
00000020: 6274 ddbe e88c 0f3f f3d8 73be 3554 623f
00000030: 4b0e 423f bc0f 5a3f a27c 12bf 3c8a a4be
00000040: 558c 163d caeb c93e 7dfc 5a3f db36 463f
00000050: f4a0 273f a1f6 373f 0bef 643f a64c a5be
00000060: 318e 94be 5765 413f e985 d1bd d2b5 9cbe
00000070: c987 3d3f 7ea9 263f 36c0 583f 292d 3e3f
00000080: 1024 443f be9f 6bbe 83e9 2e3f 4f64 6e3f
00000090: c42b 99be bc0a 69bd 0b5c 683f 94fb 263f
000000a0: 805c 333f d969 2a3f 32f9 333f 2a9e 343f
000000b0: a112 703f 2175 343f ce31 103f 15ec 2e3f
000000c0: a6bc 4a3f 6807 2b3f 978b b7be f8e3 0d3f
000000d0: 9030 283f 8d60 ddbe bc94 e23e 992d 293f
000000e0: 8c5e 253f 9314 b9be e15d 083d e7ae 303f
000000f0: 49e8 183f 30d1 2abe 7105 313f 0870 2b3f

exp_avg f4 [64, 4]
0.006867005 0.00015969567 -0.00015352464 0.0020450866 -0.003646709 -0.008318489 0.00039502725 0.0032113693
-0.0035672176 -0.008009327 0.00038114976 0.0030891194 -0.003969852 -0.009993164 0.00046863154 0.003877077
-0.0031334655 -0.008709581 0.0004037802 0.0033952673 -0.0022522884 -0.0072066435 0.00032890332 0.002824698
0.001158783 -0.0070864647 0.00027405916 0.00293516 -0.00037460803 0.0038324946 -0.00015047888 -0.0015262063
2.3143937e-19 1.6487687e-17 1.8168152e-18 -1.7513961e-17 -0.0006520564 -0.0051711146 0.0002952452 0.0019926915
-2.0171134e-08 -6.955869e-08 2.0940806e-08 1.2615592e-07 -0.001412805 -0.008934965 0.0003875371 0.0035665336
0.00042508115 -0.006869417 0.0002758299 0.002813104 -0.0009886422 -0.008427238 0.0003605672 0.0033796902
0.00055822264 0.005594615 -0.00024014716 -0.0022315346 2.2027757e-17 1.0361115e-17 -4.6907874e-18 3.946891e-18
-0.0013042614 -0.00089354196 5.5848945e-05 0.00029191928 0.0028780072 -0.0019814973 9.702692e-05 0.0016607374
-0.0033399947 -0.00959628 0.00044315698 0.003745274 -0.00048819892 -0.007460481 0.00031362916 0.003009919
-0.00011785078 -0.006169457 0.00025490255 0.0025030966 -0.0014857487 -0.0074227513 0.00032671835 0.0029477987
0.00031527516 -0.00819421 0.00033187342 0.0033467025 8.227073e-18 8.72191e-17 7.4523654e-18 -6.9613806e-17
1.3598463e-17 1.1949229e-17 -3.2829775e-18 -3.593932e-18 -0.0018969341 -0.007968767 0.00035488405 0.0031511798
-1.1683613e-08 7.498875e-08 -2.830536e-10 -1.3958497e-07 1.704403e-17 1.5274553e-17 -4.3631627e-18 -4.7595972e-18
0.0011306253 -0.0063628554 0.0002447228 0.0026398804 -0.0001302995 -0.006140783 0.0002538552 0.0024904483
0.0005963063 -0.007613998 0.0003040035 0.0031241486 -0.000432345 -0.007142884 0.00029958054 0.0028840783
-0.0028903403 -0.008545754 0.00039345695 0.003339616 -0.0010369972 0.0015399563 -4.6202993e-05 -0.000656321
-0.0025949327 -0.0076302653 0.00035149188 0.0029822502 0.00084885594 -0.008280218 0.00032764036 0.00340564
-2.5181416e-05 0.0027577898 -0.000113881695 -0.001101804 -2.353388e-05 2.082548e-05 -8.175624e-07 -1.9485335e-05
-0.00047825786 -0.008702379 0.0003643744 0.0035154845 6.517636e-05 -0.006056498 0.00024762732 0.002465284
3.2698674e-06 -0.0065374533 0.0002683353 0.0026576263 0.0072572287 -0.00027190257 -0.00020748583 0.0022450658
-0.0020499388 -0.0075498763 0.00034019514 0.0029731658 -0.0022330724 -0.0076625524 0.0003475432 0.00301158
-0.006672907 -0.004945637 0.0008110712 0.0011781977 -0.0036100028 -0.0064966762 0.00041490566 0.0017990661
0.00058675534 -0.004974305 0.00019551154 0.0020500233 -0.0008405995 -0.006785248 0.00029075818 0.0027195641
-0.002009401 -0.00836153 0.00037295694 0.003306418 -0.0035462389 -0.007948327 0.00037835934 0.0030653577
0.0014262415 0.0042722994 -0.00013496388 -0.0013261563 0.0047473838 -0.00028597246 -0.00024620176 0.0027389214
0.0012372044 -0.005718797 0.0002422233 0.0025504427 -1.3061292e-17 -3.574958e-17 5.4653446e-19 2.6044285e-17
-0.002513202 -0.0053440076 0.00025620506 0.002055774 -0.0024197947 -0.0074033793 0.00033250925 0.0029017006
-0.0019125721 -0.006951742 0.0003136702 0.0027378958 0.0011988651 0.004186755 -0.0001280323 -0.0012829915
1.5677399e-05 -3.9393626e-06 -1.7715189e-06 -1.277179e-05 -0.002438004 -0.008192527 0.0002978243 0.0032269806
-0.0013269765 -0.0062136995 0.00027476138 0.0024646134 -7.1163705e-18 -4.0120374e-17 -4.8580317e-18 3.1559703e-17
-0.004300055 -0.008531471 0.00041334712 0.0032683818 -0.0019059149 -0.0072370847 0.00031823252 0.0028589661
00000000: 9d04 e13b fb73 2739 75fb 20b9 dc06 063b
00000010: a0fd 6ebb 464a 08bc a91b cf39 d675 523b
00000020: fbc7 69bb 8d39 03bc 0ed5 c739 d372 4a3b
00000030: 8815 82bb 5eba 23bc a9b2 f539 8f16 7e3b
00000040: d45a 4dbb a1b2 0ebc 76b2 d339 2283 5e3b
00000050: 219b 13bb b525 ecbb a870 ac39 921e 393b
00000060: 4ee2 973a 9335 e8bb 99af 8f39 d05b 403b
00000070: 0a67 c4b9 972a 7b3b dec9 1db9 fc0a c8ba
00000080: 219e 8820 7312 9823 ab0e 0622 ac89 a1a3
00000090: c4ee 2aba 7472 a9bb 24cb 9a39 d197 023b
000000a0: cb44 adb2 4b60 95b3 52e1 b332 7a75 0734
000000b0: df2d b9ba f663 12bc 592e cb39 81bc 693b
000000c0: 6ddd de39 d918 e1bb 439d 9039 0e5c 383b
000000d0: 5495 81ba 6612 0abc 830a bd39 cb7d 5d3b
000000e0: b055 123a 0853 b73b 03d0 7bb9 f03e 12bb
000000f0: 922b cb23 fb20 3f23 3c0f ada2 559d 9122
00000100: c0f3 aaba 963c 6aba 593f 6a38 be0c 9939
00000110: f39c 3c3b 02dc 01bb ee7a cb38 1aad d93a
00000120: d0e3 5abb b739 1dbc 8657 e839 4573 753b
00000130: f3f4 ffb9 0d77 f4bb 986e a439 1042 453b
00000140: a826 f7b8 2829 cabb 71a4 8539 fe0a 243b
00000150: 74bd c2ba 8d3a f3bb 654b ab39 db2f 413b
00000160: 844b a539 0241 06bc 4cff ad39 5a54 5b3b
00000170: 41c3 1723 121d c924 cd78 0923 bd84 a0a4
00000180: edd8 7a23 a36c 5c23 b13d 72a2 ba97 84a2
00000190: 8ca2 f8ba 6e8f 02bc bb0f ba39 0684 4e3b
000001a0: 13b9 48b2 8009 a133 419c 9baf d3e0 15b4
000001b0: 1434 9d23 05e2 8c23 e8f8 a0a2 2099 afa2
000001c0: 7d31 943a 807f d0bb 234e 8039 d801 2d3b
000001d0: 01a1 08b9 9f38 c9bb de17 8539 ca36 233b
000001e0: 7051 1c3a d87e f9bb a962 9f39 84be 4c3b
000001f0: 5dac e2b9 db0e eabb 0511 9d39 ce02 3d3b
00000200: dd6b 3dbb 7d03 0cbc e648 ce39 76dd 5a3b
00000210: daeb 87ba 5cd8 c93a 16ca 41b8 f50c 2cba
00000220: bf0f 2abb 4e07 fabb 7148 b839 db71 433b
00000230: c285 5e3a c0a9 07bc 25c7 ab39 2831 5f3b
00000240: ae3c d3b7 09bc 343b c5d3 eeb8 686a 90ba
00000250: 9f6a c5b7 61b2 ae37 7676 5bb5 7074 a3b7
00000260: afbe fab9 6c94 0ebc 8109 bf39 0b64 663b
00000270: 4baf 8838 9675 c6bb fad3 8139 9a90 213b
00000280: e56f 5b36 2238 d6bb 5baf 8c39 922b 2e3b
00000290: 0cce ed3b 258e 8eb9 8e90 59b9 f421 133b
000002a0: 4458 06bb f464 f7bb 385c b239 72d9 423b
000002b0: bd58 12bb 2616 fbbb 7536 b639 ee5d 453b
000002c0: 67a8 dabb 030f a2bb 119e 543a c16d 9a3a
000002d0: cc95 6cbb 12e2 d4bb b287 d939 a4ce eb3a
000002e0: 7cd0 193a 7fff a2bb 3b02 4d39 af59 063b
000002f0: ad5b 5cba c956 debb e770 9839 b73a 323b
00000300: 28b0 03bb ccfe 08bc 6f89 c339 7db0 583b
00000310: 0468 68bb b339 02bc 885e c639 2be4 483b
00000320: b9f0 ba3a a5fe 8b3b 1785 0db9 6cd2 adba
00000330: f18f 9b3b 93ee 95b9 a414 81b9 7a7f 333b
00000340: b129 a23a bf64 bbbb 52fd 7d39 5425 273b
00000350: 35f0 70a3 a8dd 24a4 fa4e 2121 5437 f023
00000360: 88b4 24bb c91c afbb 4353 8639 2aba 063b
00000370: 6b95 1ebb 0c98 f2bb a354 ae39 752a 3e3b
00000380: 45af faba 70cb e3bb 1a74 a439 456e 333b
00000390: 3d23 9d3a 0c31 893b 6940 06b9 0d2a a8ba
000003a0: f582 8337 de2e 84b6 edc4 edb5 6c46 56b7
000003b0: ebc6 1fbb f339 06bc 4d25 9c39 c07b 533b
000003c0: f1ed adba 4a9c cbbb d90d 9039 5a85 213b
000003d0: 1c46 03a3 c705 39a4 d03a b3a2 1f8b 1124
000003e0: 7ae7 8cbb 95c7 0bbc 83b6 d839 5932 563b
000003f0: e4cf f9ba 1125 edbb 72d8 a639 7e5d 3b3b

exp_avg_sq f4 [64, 4]
0.0013544669 0.00023390261 4.729715e-06 7.99131e-05 0.0020404344 0.0004859893 7.2120906e-06 0.00015548467
0.0018870496 0.00044826235 6.605581e-06 0.00014235925 0.0030545502 0.0007338683 1.0933258e-05 0.00023565692
0.0023325959 0.0005619305 8.426638e-06 0.00018134866 0.0016386269 0.00039590348 5.983335e-06 0.00012838365
0.0027576915 0.0006811857 1.0124641e-05 0.00020729548 0.00044260907 9.29884e-05 1.1587226e-06 2.4794454e-05
0.00021318563 4.9305596e-05 7.699192e-07 1.5205415e-05 0.0011476883 0.0002863677 4.195469e-06 9.113814e-05
7.551085e-05 1.7737495e-05 3.0485313e-07 5.4659686e-06 0.0029962203 0.0007296617 1.1137241e-05 0.0002352562
0.002252281 0.00055547984 8.337433e-06 0.00017260178 0.0027786612 0.00068307854 1.0339618e-05 0.00021842626
0.0007763184 0.00016198434 2.0220737e-06 4.552435e-05 0.00010880174 2.656678e-05 3.7440088e-07 8.321292e-06
3.2226584e-05 6.283541e-06 8.343275e-08 1.4821642e-06 0.0005667154 0.00013761746 2.0327811e-06 4.2084925e-05
0.0028933808 0.0006989014 1.0488123e-05 0.0002256359 0.0022968424 0.0005654426 8.547638e-06 0.00017956838
0.001628699 0.00039892242 6.05596e-06 0.00012614223 0.0019485009 0.00047655168 7.2258904e-06 0.00015257124
0.003161252 0.00078098074 1.1717193e-05 0.00024332576 0.00012201443 2.8281778e-05 4.447611e-07 8.404433e-06
8.679091e-05 1.9785997e-05 2.9927028e-07 6.2638346e-06 0.0021832152 0.00051506335 8.051934e-06 0.00016859527
3.301175e-05 8.154583e-06 1.0035121e-07 2.0531074e-06 0.000101533136 2.4213012e-05 3.632908e-07 7.656201e-06
0.0022366524 0.00055168645 8.1995295e-06 0.0001674792 0.0016496263 0.00037257397 5.8334476e-06 0.00011477192
0.0028479772 0.0007034792 1.0527233e-05 0.00021767533 0.0020968898 0.0005156505 7.803202e-06 0.00016380173
0.0022815135 0.0005508932 8.287074e-06 0.0001781448 0.00015383509 3.5963774e-05 3.4230303e-07 7.671118e-06
0.0017926531 0.0004323127 6.4609962e-06 0.00013977473 0.0035292855 0.00087290525 1.3024257e-05 0.0002686378
0.00021339394 4.6617704e-05 5.9490486e-07 1.3466923e-05 1.6817703e-05 4.6609534e-06 4.4154472e-08 9.0145534e-07
0.0031972805 0.00078818685 1.18952075e-05 0.00024970408 0.0016438806 0.0004038322 6.0856773e-06 0.00012624041
0.0018975225 0.00046732934 7.048864e-06 0.00014693353 0.0016371683 0.00028588978 5.7540283e-06 9.3115224e-05
0.0018776308 0.00045805046 6.910047e-06 0.0001436335 0.0018826744 0.0004561954 6.8974728e-06 0.00014787033
0.0029703574 0.00083051523 1.1674913e-05 0.00022145952 0.0018570533 0.00043246557 6.76885e-06 0.00012795982
0.0012325476 0.0003029111 4.543523e-06 9.3289585e-05 0.0017573332 0.00041815307 6.551601e-06 0.0001345317
0.002370389 0.0005777794 8.747941e-06 0.00018694237 0.0018495396 0.00044104585 6.5108793e-06 0.00014005897
0.0002875108 6.136544e-05 7.939304e-07 1.7410084e-05 0.0009967724 0.00014786351 3.1698464e-06 5.2590916e-05
0.0017148198 0.00042094273 6.283563e-06 0.00012851068 0.00020441829 4.9795475e-05 7.402302e-07 1.5627575e-05
0.0007752771 0.00018225257 2.7037001e-06 5.812955e-05 0.0016728891 0.00040237195 6.099589e-06 0.00012596736
0.0015546748 0.0003768803 5.7109296e-06 0.00012222523 0.0003090877 6.59262e-05 8.4052976e-07 1.8918186e-05
3.0125234e-06 7.5505784e-07 1.0312881e-08 2.323329e-07 0.0017546419 0.0004373535 6.477825e-06 0.00012793728
0.0013098632 0.00032010087 4.8358743e-06 0.000103799706 3.0282466e-05 7.2856683e-06 1.07292585e-07 2.310363e-06
0.0020765665 0.00049010926 7.1597533e-06 0.00015414474 0.0016803269 0.00041103244 6.1683204e-06 0.00013329493
00000000: 5e88 b13a c143 7539 f1b3 9e36 0597 a738
00000010: cfb8 053b 61cc fe39 63ff f136 9909 2339
00000020: e156 f73a c104 eb39 82a5 dd36 4546 1539
00000030: d92e 483b 1161 403a fc6d 3737 ac1a 7739
00000040: 77de 183b 844e 133a 2260 0d37 6928 3e39
00000050: 32c7 d63a 4491 cf39 75c4 c836 b99e 0639
00000060: 63ba 343b 9991 323a 01dd 2937 755d 5939
00000070: fc0d e839 c402 c338 6885 9b35 affd cf37
00000080: 958a 5f39 7bcd 4e38 72ac 4e35 c31a 7f37
00000090: 076e 963a 9f23 9639 cec6 8c36 6b21 bf38
000000a0: 945b 9e38 fbca 9437 b2aa a334 5068 b736
000000b0: 3c5c 443b c546 3f3a 16da 3a37 1baf 7639
000000c0: 019b 133b 9f9d 113a 01e1 0b37 70fc 3439
000000d0: 331a 363b a010 333a 5278 2d37 5a09 6539
000000e0: d981 4b3a 57da 2939 f6b2 0736 66f1 3e38
000000f0: 7d2c e438 badb de37 4401 c934 ad9b 0b37
00000100: 082b 0738 35d7 d236 a42b b333 c6ee c635
00000110: a08f 143a 684d 1039 ea6a 0836 5884 3038
00000120: e09e 3d3b 7b36 373a 25f6 2f37 ad98 6c39
00000130: 9f86 163b 363a 143a d367 0f37 854a 3c39
00000140: 127a d53a 7626 d139 4d34 cb36 0c45 0439
00000150: d764 ff3a afd9 f939 ed75 f236 88fb 1f39
00000160: 022d 4f3b bbba 4c3a f694 4437 4325 7f39
00000170: 00e2 ff38 a83e ed37 80c7 ee34 c400 0d37
00000180: 8403 b638 1bfa a537 65ab a034 ee2d d236
00000190: 4614 0f3b 5105 073a cb16 0737 f3c8 3039
000001a0: 1976 0a38 abcf 0837 a980 d733 1ec8 0936
000001b0: 30ee d438 0c1d cb37 4f0a c334 2273 0037
000001c0: cd94 123b 0d9f 103a b690 0937 5b9d 2f39
000001d0: 4638 d83a 0856 c339 efbc c336 b5b1 f038
000001e0: 21a5 3a3b b169 383a 1f9e 3037 c73f 6439
000001f0: f96b 093b b82c 073a 7fea 0237 31c2 2b39
00000200: 7285 153b d169 103a b608 0b37 61cc 3a39
00000210: cb4e 2139 cfd7 1638 c5c5 b734 33b3 0037
00000220: 75f7 ea3a 07a8 e239 89cb d836 7e90 1239
00000230: 964b 673b aed3 643a c282 5a37 f5d7 8c39
00000240: 80c2 5f39 6187 4338 8db1 1f35 feef 6137
00000250: be13 8d37 4965 9c36 5ba4 3d33 8afb 7135
00000260: 7789 513b 539e 4e3a 8791 4737 b7ea 8239
00000270: 7b77 d73a 71b9 d339 9233 cc36 675f 0439
00000280: 4ab6 f83a e203 f539 4885 ec36 2b12 1a39
00000290: 4196 d63a 7ae3 9539 ba12 c136 db46 c338
000002a0: d61a f63a 7e26 f039 dadc e736 539c 1639
000002b0: 12c4 f63a 832d ef39 d770 e736 a40d 1b39
000002c0: 54aa 423b efb6 593a 5fdf 4337 9637 6839
000002d0: 5e68 f33a 8cbc e239 fb1f e336 f42c 0639
000002e0: 6f8d a13a 0ad0 9e39 9174 9836 77a4 c338
000002f0: 5156 e63a 8e3b db39 d3d5 db36 1411 0d39
00000300: 8758 1b3b 1f76 173a 1fc4 1237 f605 4439
00000310: 406c f23a 2c3c e739 0778 da36 cbdc 1239
00000320: 0cbd 9639 52b1 8038 7b1e 5535 df0b 9237
00000330: 22a6 823a cf0b 1b39 8cb9 5436 1195 5c38
00000340: cec3 e03a fab1 dc39 65d7 d236 d3c0 0639
00000350: 1e59 5639 7cdb 5038 3bb4 4635 f617 8337
00000360: f73b 4b3a 0d1b 3f39 3771 3536 21d0 7338
00000370: d844 db3a 73f5 d239 12ab cc36 1b16 0439
00000380: 3bc6 cb3a 0598 c539 83a0 bf36 9629 0039
00000390: 0d0d a239 dc41 8a38 c4a0 6135 7fb2 9e37
000003a0: c22a 4a36 2eaf 4a35 882c 3132 2e77 7934
000003b0: 03fc e53a 984c e539 185c d936 e726 0639
000003c0: b7af ab3a 36d3 a739 d843 a236 0baf d938
000003d0: 1a07 fe37 6a77 f436 b968 e633 bc0b 1b36
000003e0: 0117 083b ad7a 003a d03d f036 eaa1 2139
000003f0: 6a3e dc3a d77f d739 78f9 ce36 16c5 0b39

exp_avg f4 [64]
-0.008294913 -0.0056084986 -0.005338963 -0.007188772 -0.0066215238 -0.0058530634 -0.009455485 0.0046090703
6.036774e-18 -0.005609086 -1.7139206e-07 -0.008769022 -0.008398256 -0.008649346 0.005760798 3.321751e-17
0.00032229364 -0.00555841 -0.0074210055 -0.008082915 -0.0069938293 -0.0069458857 -0.009807641 3.891911e-17
2.0522207e-17 -0.007121522 -3.9719882e-07 2.5288374e-17 -0.008588011 -0.0069478005 -0.009445137 -0.007773702
-0.0066998824 0.0027181667 -0.0059629483 -0.010495244 0.0031324194 1.8145287e-05 -0.009526221 -0.007066011
-0.0075544696 -0.008870013 -0.006473965 -0.0063995225 -0.0058558043 -0.0058285533 -0.006386616 -0.006912192
-0.007451105 -0.0052917334 0.0029849655 -0.0057822233 -0.0076974197 -2.887382e-17 -0.0034140677 -0.0058106384
-0.0059291804 0.0030912235 6.880086e-05 -0.006028994 -0.0057210787 -2.2214236e-17 -0.0051352787 -0.0061804038
00000000: 63e7 07bc 7fc7 b7bb 78f2 aebb ca8f ebbb
00000010: 5ef9 d8bb 0ecb bfbb 2eeb 1abc af07 973b
00000020: b8b7 de22 6ccc b7bb e407 38b4 f2ab 0fbc
00000030: d798 09bc fdb5 0dbc 14c5 bc3b 5030 1924
00000040: 85f9 a839 5323 b6bb e82b f3bb 346e 04bc
00000050: 7e2c e5bb 509a e3bb 3ab0 20bc 937b 3324
00000060: b148 bd23 a85b e9bb 973e d5b4 7c3e e923
00000070: bbb4 0cbc 60aa e3bb c7bf 1abc 8aba febb
00000080: b08a dbbb 4523 323b d664 c3bb 3ef4 2bbc
00000090: 4749 4d3b b536 9837 de13 1cbc ff89 e7bb
000000a0: 7c8b f7bb 8853 11bc 8e23 d4bb 16b3 d1bb
000000b0: 0ce2 bfbb 73fd bebb d146 d1bb ab7f e2bb
000000c0: 6628 f4bb 4766 adbb 699f 433b ce78 bdbb
000000d0: a33a fcbb 3128 05a4 8dbe 5fbb 2b67 bebb
000000e0: 9249 c2bb 2096 4a3b 2e49 9038 de8e c5bb
000000f0: e377 bbbb e2e3 cca3 d745 a8bb fc84 cabb

exp_avg_sq f4 [64]
0.00064665824 0.0010052822 0.0009276696 0.001521269 0.0011667922 0.0008233275 0.001343035 0.00013001762
7.8644814e-05 0.0005803196 2.9061397e-05 0.0015184681 0.0011123081 0.001402244 0.00023065029 3.9583716e-05
1.162113e-05 0.00028041838 0.0014518885 0.0011531623 0.0008126621 0.0009858265 0.0015696266 4.4532007e-05
3.1589723e-05 0.0011013584 1.3639486e-05 3.8512288e-05 0.0010846916 0.00081145175 0.0014048278 0.0010513242
0.0011445044 4.7891608e-05 0.000897672 0.0017376569 7.0354625e-05 5.9174868e-06 0.001605782 0.0008159309
0.00094515935 0.0007637342 0.00095338834 0.0009476061 0.0016218119 0.0009233619 0.00060183223 0.00088024436
0.0011979679 0.0009109685 8.7259556e-05 0.00049001025 0.0008353032 7.63778e-05 0.00037451906 0.0008424825
0.0007826958 9.7729884e-05 1.5461244e-06 0.0008841493 0.00065899873 1.1902001e-05 0.0010017712 0.00084600534
00000000: 8084 293a acc3 833a da2e 733a 5165 c73a
00000010: 0def 983a 93d4 573a c708 b03a 5755 0839
00000020: 1dee a438 9720 183a e0c8 f337 5607 c73a
00000030: deca 913a 80cb b73a b7da 7139 b106 2638
00000040: 60f8 4237 1e05 9339 4b4d be3a b525 973a
00000050: d508 553a d936 813a eebb cd3a e1c7 3a38
00000060: 357f 0438 755b 903a 25d5 6437 4188 2138
00000070: 362c 8e3a 9bb7 543a 3322 b83a 96cc 893a
00000080: 3203 963a 39df 4838 c051 6b3a 17c2 e33a
00000090: 5a8b 9338 d38e c636 1a79 d23a 32e4 553a
000000a0: 92c4 773a 5635 483a cfec 793a c568 783a
000000b0: fa92 d43a c50d 723a 47c4 1d3a 33c0 663a
000000c0: 2205 9d3a 10ce 6e3a 1eff b638 0874 003a
000000d0: 40f8 5a3a 052d a038 195b c439 0bda 5c3a
000000e0: d32d 4d3a 55f4 cc38 6e84 cf35 41c6 673a
000000f0: a8c0 2c3a b4ae 4737 dd4d 833a 75c6 5d3a

exp_avg f4 [2, 64]
0.001102695 0.0023431666 0.0022832684 0.0020409182 0.00093527825 0.002171626 0.0021928675 0.00075266836
-5.3132896e-18 0.0007980792 -7.74472e-09 0.002434669 0.0020990765 0.002327864 0.00075504655 -8.345203e-19
0.0009856313 0.0007725949 0.0016111507 0.0022736955 0.0028462491 0.0022972065 0.0020332583 -1.0474439e-18
-7.008121e-18 0.0025269664 5.1691362e-09 -2.1284679e-18 0.0019165458 0.0031872427 0.0014205191 0.0023201762
0.0012528172 0.00052357034 0.0007833108 0.0022949069 0.0016032221 1.7099768e-07 0.0022461154 0.0032236958
0.0030541397 0.0013981264 0.0024161101 0.0012239302 0.0009940095 0.002238408 0.002325401 0.0026620068
0.0011069609 0.0024316066 0.00082741876 0.0006730993 0.001247241 7.6338604e-18 0.0008401805 0.0014549285
0.0009284546 0.0012157946 0.00023395721 0.002305774 0.0013158092 2.8695656e-17 0.001290047 0.0010148064
-0.001102695 -0.0023431666 -0.0022832681 -0.0020409182 -0.0009352781 -0.002171626 -0.0021928677 -0.0007526682
5.3132896e-18 -0.0007980792 7.744712e-09 -0.002434669 -0.0020990765 -0.002327864 -0.0007550463 8.345203e-19
-0.0009856314 -0.0007725949 -0.0016111506 -0.0022736953 -0.002846249 -0.0022972065 -0.002033258 1.0474439e-18
7.008116e-18 -0.0025269664 -5.1691336e-09 2.1284679e-18 -0.0019165456 -0.003187242 -0.0014205191 -0.002320176
-0.0012528173 -0.0005235703 -0.0007833108 -0.0022949066 -0.001603222 -1.7099697e-07 -0.002246115 -0.0032236956
-0.00305414 -0.0013981264 -0.00241611 -0.0012239304 -0.0009940097 -0.0022384077 -0.0023254007 -0.0026620065
-0.0011069607 -0.0024316066 -0.00082741876 -0.0006730993 -0.0012472409 -7.6338604e-18 -0.0008401806 -0.0014549283
-0.0009284546 -0.0012157945 -0.00023395724 -0.0023057745 -0.0013158092 -2.8695653e-17 -0.0012900467 -0.0010148067
00000000: 4e88 903a d08f 193b e3a2 153b edc0 053b
00000010: 762d 753a d751 0e3b 36b6 0f3b b84e 453a
00000020: 9a06 c4a2 3036 513a a40d 05b2 f88e 1f3b
00000030: a990 093b 148f 183b 51ee 453a 924e 76a1
00000040: 4c30 813a f787 4a3a 3f2d d33a 4802 153b
00000050: 2388 3a3b bb8c 163b 6a40 053b 5093 9aa1
00000060: ea46 01a3 769b 253b 349c b131 9f0d 1da2
00000070: 9b34 fb3a 0fe1 503b b630 ba3a 190e 183b
00000080: 9235 a43a 3640 093a 1957 4d3a 2666 163b
00000090: 3523 d23a 7c9b 3734 9033 133b a444 533b
000000a0: f627 483b 5641 b73a 9a57 1e3b 486c a03a
000000b0: 6d49 823a 41b2 123b c165 183b 1075 2e3b
000000c0: 7217 913a 975b 1f3b 22e7 583a ee72 303a
000000d0: 777a a33a e3d1 0c23 8f3f 5c3a 4db3 be3a
000000e0: 8963 733a 4c5b 9f3a 6952 7539 781c 173b
000000f0: 3b77 ac3a da55 0424 cb16 a93a 4103 853a
00000100: 4e88 90ba d08f 19bb e2a2 15bb edc0 05bb
00000110: 732d 75ba d751 0ebb 37b6 0fbb b54e 45ba
00000120: 9a06 c422 3036 51ba 9b0d 0532 f88e 1fbb
00000130: a990 09bb 148f 18bb 4dee 45ba 924e 7621
00000140: 4d30 81ba f787 4aba 3e2d d3ba 4702 15bb
00000150: 2288 3abb bb8c 16bb 6940 05bb 5093 9a21
00000160: e446 0123 769b 25bb 2e9c b1b1 9f0d 1d22
00000170: 9934 fbba 0ce1 50bb b630 baba 180e 18bb
00000180: 9335 a4ba 3540 09ba 1957 4dba 2566 16bb
00000190: 3423 d2ba 4a9b 37b4 8e33 13bb a344 53bb
000001a0: f727 48bb 5641 b7ba 9957 1ebb 4a6c a0ba
000001b0: 6e49 82ba 40b2 12bb c065 18bb 0f75 2ebb
000001c0: 7017 91ba 975b 1fbb 22e7 58ba ee72 30ba
000001d0: 767a a3ba e3d1 0ca3 913f 5cba 4bb3 beba
000001e0: 8963 73ba 4b5b 9fba 6b52 75b9 7a1c 17bb
000001f0: 3b77 acba d955 04a4 c916 a9ba 4303 85ba

exp_avg_sq f4 [2, 64]
0.00011290082 0.00015478805 0.00015052923 0.00012104404 9.2765134e-05 0.00012582012 0.00011970078 7.4680866e-06
1.057912e-05 0.00012288119 2.2360124e-05 0.00013017001 0.00012155606 0.00012881169 6.221703e-06 5.1152206e-06
2.1700022e-05 0.000117587224 9.9783094e-05 0.00015011163 0.0001760211 0.00016977814 0.000108320346 5.5089567e-06
7.1203876e-06 0.00014551038 1.5444631e-06 8.899747e-06 0.00010155044 0.0001913369 9.6078526e-05 0.00014083406
9.6877186e-05 4.873665e-06 0.00011510625 0.00012049591 3.7934773e-05 1.5356064e-06 0.00011804857 0.0002140155
0.00019644048 0.00011529658 0.00018918533 0.00011209782 0.00012019699 0.00014309262 0.00011406251 0.00016306937
9.773659e-05 0.00016422228 5.1795773e-06 0.00012545323 0.00012682543 4.2638044e-06 3.0191437e-05 0.00012294378
0.00011871258 1.3967285e-05 3.0559364e-05 0.000196765 0.00010752928 3.1059823e-05 6.0214654e-05 0.00010498389
0.00011290082 0.00015478808 0.00015052923 0.00012104404 9.276514e-05 0.00012582011 0.00011970079 7.4680866e-06
1.057912e-05 0.0001228812 2.2360124e-05 0.00013017004 0.00012155606 0.00012881169 6.221702e-06 5.1152206e-06
2.1700016e-05 0.000117587224 9.97831e-05 0.00015011163 0.00017602109 0.00016977814 0.000108320295 5.5089563e-06
7.1203876e-06 0.00014551039 1.5444631e-06 8.8997485e-06 0.0001015504 0.00019133693 9.6078526e-05 0.00014083405
9.6877215e-05 4.8736647e-06 0.00011510624 0.000120495926 3.7934773e-05 1.5356065e-06 0.00011804857 0.00021401551
0.0001964405 0.00011529658 0.00018918529 0.00011209782 0.000120196986 0.0001430926 0.00011406252 0.00016306939
9.773657e-05 0.0001642223 5.179576e-06 0.00012545323 0.00012682544 4.2638044e-06 3.0191444e-05 0.00012294376
0.00011871258 1.3967286e-05 3.0559364e-05 0.00019676503 0.00010752927 3.1059815e-05 6.0214657e-05 0.00010498386
00000000: 2bc5 ec38 9a4e 2239 62d7 1d39 06d9 fd38
00000010: e78a c238 95ee 0339 de07 fb38 6096 fa36
00000020: f97c 3137 abd9 0039 0092 bb37 3f7e 0839
00000030: eaeb fe38 a011 0739 06c4 d036 69a3 ab36
00000040: 7108 b637 2999 f638 a442 d138 4967 1d39
00000050: 4e92 3839 7906 3239 0b2a e338 94d9 b836
00000060: aaeb ee36 2594 1839 594b cf35 1f50 1537
00000070: 7af7 d438 9ca1 4839 c47d c938 dbac 1339
00000080: 8b2a cb38 7788 a336 3365 f138 c0b2 fc38
00000090: 271c 1f38 091b ce35 d890 f738 5969 6039
000000a0: 97fb 4d39 61cb f138 0d60 4639 0f16 eb38
000000b0: 4512 fc38 220b 1639 d834 ef38 9afd 2a39
000000c0: eff7 cc38 1533 2c39 3bcc ad36 188c 0339
000000d0: 71fc 0439 cd11 8f36 9e43 fd37 78ea 0039
000000e0: 55f5 f838 0855 6a37 de2c 0038 b452 4e39
000000f0: 5881 e138 3b46 0238 fe8e 7c38 cc2a dc38
00000100: 2bc5 ec38 9c4e 2239 62d7 1d39 06d9 fd38
00000110: e88a c238 94ee 0339 df07 fb38 6096 fa36
00000120: f97c 3137 acd9 0039 0092 bb37 417e 0839
00000130: eaeb fe38 a011 0739 03c4 d036 69a3 ab36
00000140: 6e08 b637 2999 f638 a542 d138 4967 1d39
00000150: 4d92 3839 7906 3239 042a e338 93d9 b836
00000160: aaeb ee36 2694 1839 594b cf35 2150 1537
00000170: 75f7 d438 9ea1 4839 c47d c938 daac 1339
00000180: 8f2a cb38 7688 a336 3165 f138 c2b2 fc38
00000190: 271c 1f38 0a1b ce35 d890 f738 5a69 6039
000001a0: 98fb 4d39 61cb f138 0a60 4639 0f16 eb38
000001b0: 4412 fc38 210b 1639 d934 ef38 9bfd 2a39
000001c0: ecf7 cc38 1733 2c39 38cc ad36 188c 0339
000001d0: 72fc 0439 cd11 8f36 a243 fd37 77ea 0039
000001e0: 55f5 f838 0955 6a37 de2c 0038 b652 4e39
000001f0: 5681 e138 3946 0238 ff8e 7c38 c82a dc38

exp_avg f4 [2]
0.002543505 -0.0025435055
00000000: efb0 263b f1b0 26bb

exp_avg_sq f4 [2]
0.00022719949 0.00022719952
00000000: 663c 6e39 683c 6e39

exp_avg f4 [1, 64]
-0.011284659 -0.007193561 -0.0060725827 -0.006891846 -0.009149736 -0.007131729 -0.0074890256 0.0033110564
1.0733562e-21 -0.010176158 -5.6256436e-12 -0.0036823105 -0.0064982055 -0.0065085636 0.0030677752 1.6276031e-21
0.0021857864 -0.008174573 -0.0076025315 -0.0098730335 -0.00449652 -0.010685899 -0.0055510546 -6.419057e-22
7.034891e-22 -0.0028578576 -1.7165876e-12 1.59338e-21 -0.00706643 -0.0020927747 -0.00580212 -0.0053155697
-0.008819467 0.002884937 -0.0074583455 -0.0067811958 0.004233779 -1.0618011e-10 -0.005309809 -0.00683909
-0.006730127 -0.011895127 -0.011259292 -0.009013423 -0.005234622 -0.0011256199 -0.0042938036 -0.0023131908
-0.0071142013 -0.007186701 0.003202108 -0.010014217 -0.0072401483 1.1830084e-21 -0.0045884424 -0.010638389
-0.009438555 0.0038501208 -5.53162e-05 -0.012081823 -0.010382936 -7.985361e-21 -0.0050054127 -0.010350999
00000000: 4ae3 38bc f7b7 ebbb 84fc c6bb ffd4 e1bb
00000010: c6e8 15bc 47b1 e9bb 8066 f5bb 4ffe 583b
00000020: 7533 a21c e6b9 26bc 4bef c5ac eb52 71bb
00000030: e6ee d4bb ca45 d5bb ba0c 493b d8f4 f51c
00000040: 693f 0f3b a5ee 05bc a81e f9bb 81c2 21bc
00000050: 8b57 93bb e913 2fbc 9fe5 b5bb 0c01 429c
00000060: d59d 541c e54a 3bbb 9696 f1ab e7c8 f01c
00000070: 838d e7bb ef26 09bb b61f bebb 3b2e aebb
00000080: 877f 10bc 3611 3d3b 2365 f4bb cb34 debb
00000090: 83bb 8a3b 177e e9ae e8fd adbb 721a e0bb
000000a0: 6688 dcbb c7e3 42bc e578 38bc 09ad 13bc
000000b0: 3187 abbb 8989 93ba 09b3 8cbb e798 17bb
000000c0: 3f1e e9bb 6b7e ebbb 75da 513b ac12 24bc
000000d0: c43e edbb 6cc5 b21c a55a 96bb a34c 2ebc
000000e0: 2ba4 1abc 4f52 7c3b 5103 68b8 d7f2 45bc
000000f0: 311d 2abc d6d6 169e 7204 a4bb 3d97 29bc

exp_avg_sq f4 [1, 64]
0.001080175 0.00135675 0.0013124397 0.0010876517 0.0009082685 0.0011224104 0.0011351409 4.2451833e-05
5.7585537e-05 0.0011558521 0.00013116331 0.0011685085 0.0011804946 0.00116614 3.5998866e-05 2.7212642e-05
0.00014384768 0.0010141557 0.0009462834 0.0013559125 0.0016310269 0.0015297801 0.0010682003 3.0595816e-05
3.9356717e-05 0.0012786387 9.433744e-06 4.7995894e-05 0.0009806346 0.0016521623 0.00094102154 0.0013330459
0.0009491226 3.2887536e-05 0.0010618843 0.0011127709 0.00022099497 1.07203805e-05 0.001096112 0.0018690438
0.0017231329 0.0011125761 0.0016648829 0.0010935316 0.0010593851 0.0013403835 0.0010732934 0.0014777085
0.00093869533 0.0014257892 3.2905093e-05 0.0011284422 0.0012048517 2.2999746e-05 0.0002922678 0.0011952539
0.0011340551 8.79512e-05 0.00020396408 0.0016880655 0.0010512125 0.00016969755 0.0005690595 0.0010267164
00000000: a994 8d3a fad4 b13a 2b06 ac3a 898f 8e3a
00000010: de18 6e3a d81d 933a 02c9 943a 4f0e 3238
00000020: 0088 7138 f67f 973a e288 0939 a428 993a
00000030: d3ba 9a3a 2ad9 983a 7dfd 1638 b446 e437
00000040: d1d5 1639 6bed 843a 0110 783a e0b8 b13a
00000050: 2ec8 d53a e782 c83a db02 8c3a 0254 0038
00000060: f412 2538 ff97 a73a 9f45 1e37 334f 4938
00000070: a388 803a 5e8d d83a e3ae 763a 99b9 ae3a
00000080: 8ace 783a b9f0 0938 ed2e 8b3a 65da 913a
00000090: e3ba 6739 afdb 3337 6aab 8f3a b4fa f43a
000000a0: bfda e13a dcd3 913a 3338 da3a d554 8f3a
000000b0: 11db 8a3a cfaf af3a c0ad 8c3a abaf c13a
000000c0: c712 763a 8ce1 ba3a 9303 0a38 3de8 933a
000000d0: 1dec 9d3a 94ef c037 853b 9939 11aa 9c3a
000000e0: 93a4 943a 7172 b838 31df 5539 1442 dd3a
000000f0: d7c8 893a d7f0 3139 f02c 153a e392 863a
