savedModels/ppo_cartpole_20480.pth (torch, 13659 bytes, 15 tensors)

shared_fc.0.weight f4 [64, 4]
000000 e6 6b bc bc a6 3f b8 3e 5f f9 31 3e 8e c3 4d be
       -0.023000669 0.3598606 0.17380284 -0.2009413
000010 db b3 ed bd ea d1 0a be 11 46 1b bf d8 65 5e be
       -0.1160657 -0.13556638 -0.6065379 -0.21718538
000020 5c af 53 bd 30 3b c6 be b9 1e a2 be 81 dc d0 be
       -0.051680908 -0.3871703 -0.31664065 -0.4079323
000030 13 38 ba bd 8d e5 13 be ff 43 cb be f7 5d 42 be
       -0.090927266 -0.14443035 -0.39700314 -0.18981157
000040 9f 24 92 3d 0c 74 2c 3d 2a 89 25 bf a3 83 3a be
       0.07135891 0.04210286 -0.6466242 -0.18214278
000050 f4 78 6f bd 45 1f 4f 3d 61 01 ab be bf 21 c2 bd
       -0.05846496 0.05056693 -0.3339949 -0.09479093
000060 1a ca 29 be 90 5f 27 3e da 83 da 3e 20 a1 9d 3e
       -0.16581002 0.16345048 0.4267872 0.3078699
000070 84 ee 6b bc 60 11 ab bc a4 2d 28 be 0d 6d 0c be
       -0.014400128 -0.020882308 -0.1642366 -0.13713475
000080 6b fb 2c 3e a7 7a 6e bd 5d 2b bc bd 2d 23 f5 3c
       0.16892783 -0.05822244 -0.091879584 0.029924
000090 76 4b 8e 3e 7d 8f f8 3d 4b e7 2a 3e 22 b2 4a be
       0.27791947 0.12136743 0.16689794 -0.19794515
0000a0 ec a9 96 3e 3c 2e c4 be f4 a9 41 be 28 67 93 bd
       0.29426515 -0.38316524 -0.18912488 -0.0719741
0000b0 f8 2f ea bc 78 59 52 be 4e 74 1e be 01 2e 23 3d
       -0.028587326 -0.20541942 -0.15474054 0.039838795
0000c0 28 50 5d bc 1a 10 53 3d 34 08 b5 3e 75 c9 6a 3e
       -0.01350788 0.051529028 0.3535782 0.22928412
0000d0 eb 17 d4 bd 77 a6 67 bc 68 99 4e 3e 3c 7e 3a 3d
       -0.103561245 -0.014138809 0.20175707 0.045530543
0000e0 a4 1f 8c 3a 75 76 a5 3d b5 4b 29 be f3 a1 82 bd
       0.0010690582 0.080792345 -0.16532786 -0.063785456
0000f0 3a d3 86 3d 48 ef 88 3d 23 30 29 3d 3a 93 ff 3d
       0.06583257 0.06686264 0.041305672 0.12479253
000100 0a 52 65 bd c7 05 9b be ae 1b 44 be 10 e3 ed bd
       -0.05598644 -0.30277845 -0.19151184 -0.11615574
000110 ff 8b 8e 3e 76 68 51 3e bc 03 aa bd 55 7f b9 3d
       0.27841184 0.20450005 -0.083014935 0.0905749
000120 d3 35 85 3b 57 25 80 bd 0f e6 80 be a0 87 67 be
       0.0040652542 -0.06257122 -0.2517552 -0.2261033
000130 ea 58 4d be 64 da 72 3e c7 3b 9a 3e 70 e1 08 3e
       -0.2005345 0.23716122 0.30123731 0.13367248
000140 b3 09 b3 bd a1 8b 02 be 31 03 95 3e 32 b7 65 3e
       -0.08742084 -0.12748577 0.29103997 0.22433165
000150 e5 2f 4b be d3 5e 4b 3e ed 51 ef 3e ed 86 ef bd
       -0.19842489 0.19860391 0.46742192 -0.11695657
000160 fa 5f 1a 3d 43 e1 df 3d 8f 50 41 3e 08 88 dd 3e
       0.037689187 0.10931637 0.18878387 0.43267846
000170 46 11 96 3d b3 47 d3 bd 97 75 b7 bd b9 50 82 3b
       0.073275134 -0.1031641 -0.08957975 0.003976908
000180 5d be 10 3d 7b bd 17 bd 56 5b 45 be 4a e4 ab 3e
       0.035337795 -0.037045937 -0.19273123 0.33572608
000190 4f eb 18 3d de 63 9e be 0c 31 7c be bf 7d ec bd
       0.037333783 -0.30935568 -0.24628085 -0.11547422
0001a0 67 cd 02 bc fc 74 e5 3d c1 56 16 3e 26 11 9f 3d
       -0.007983542 0.112039536 0.14681531 0.07766943
0001b0 a1 31 16 3e 2b f5 08 3d 18 6d ce 3d db cd 91 3d
       0.1466737 0.033436935 0.10079402 0.07119342
0001c0 58 10 98 bd 2e a1 58 3d cf 58 bb 3e 16 38 54 3e
       -0.07424992 0.052888088 0.36591193 0.2072452
0001d0 0a 43 23 be 63 d1 8b be b9 63 02 3f 7b 10 45 3e
       -0.15943542 -0.27308187 0.50933415 0.19244568
0001e0 21 cd 0f 3e 91 b2 91 bc 0a 92 f9 3e 5f 1e 1b 3e
       0.14043094 -0.017785342 0.4874423 0.15148304
0001f0 09 08 7e 3d ac ed 06 be c9 67 77 3e 92 e7 43 bc
       0.06201938 -0.13176602 0.24160685 -0.011957066
000200 95 11 81 3c ac 75 dd bb f6 b3 a8 be cb a2 45 be
       0.015755454 -0.0067584123 -0.329498 -0.19300382
000210 96 38 21 3e c9 b7 3a be 88 c3 2c bd e9 86 a2 be
       0.15744242 -0.18234171 -0.04217866 -0.31743553
000220 1b 16 a2 3e aa 73 87 bd 7b 0f ac be 09 05 d9 bd
       0.3165749 -0.06613858 -0.3360556 -0.105966635
000230 f6 dd 17 be 7f 7d 02 3e ea 01 c8 3e 2c 04 60 3e
       -0.14830765 0.12743185 0.3906396 0.21876591
000240 98 37 83 be 83 6d 00 bc 4d 37 09 3e dd 60 17 be
       -0.25628352 -0.00783861 0.13400002 -0.14783044
000250 ae a4 37 bd 9b 19 8f 3e e4 d9 b1 3d d8 c5 0b 3e
       -0.044834785 0.27949223 0.086841375 0.1364969
000260 ba 7b 61 bd 92 d8 e2 bd 8c fb 99 3e 1f 53 75 3d
       -0.055049635 -0.11076464 0.30074728 0.059893724
000270 51 a8 a6 be 24 33 e6 3c f5 a4 ce 3d 82 2e 9f 3e
       -0.3255029 0.028100558 0.10090057 0.3109017
000280 70 19 7f be 8b 20 6a bd a4 e5 00 3f 3c 63 cb 3d
       -0.24912047 -0.05715994 0.50350404 0.09931037
000290 aa 16 16 be 70 7d e5 3e d2 d1 33 3d 5e 9f 29 be
       -0.14657083 0.44822264 0.043901272 -0.165647
0002a0 46 26 89 be 3a f1 55 3e 3b 1d 6a be f4 a6 09 be
       -0.26787013 0.20892802 -0.22862713 -0.13442594
0002b0 bf 45 e3 3d ce 19 76 bd 36 fa fa bd 2f cd 19 be
       0.110972874 -0.060083203 -0.12254755 -0.15019678
0002c0 06 a0 f7 3e b4 78 ca 3c e5 d3 c2 bd 5b 56 45 3e
       0.48364276 0.024715759 -0.09513072 0.19271223
0002d0 f7 3e 55 3e 51 f5 bc be 9b a4 a2 3e 60 a7 c5 3d
       0.208248 -0.36905912 0.3176621 0.09651065
0002e0 3f 0d 6a bd c0 33 2d be 7e c3 2a 3f 27 61 26 3e
       -0.05714154 -0.16914272 0.6670455 0.16247998
0002f0 fb 5f 9a 3d 35 ed b5 be c9 59 8a 3e e7 bd 08 bd
       0.07537838 -0.35532537 0.27021626 -0.03338423
000300 58 de ec 3d 55 6c 91 bd c5 32 67 3e 7f db 24 bd
       0.11565846 -0.07100741 0.22577961 -0.04024839
000310 4c 5d fb bd a4 d1 69 be b7 1f ac be 2e 00 9f be
       -0.12273654 -0.22833878 -0.33617947 -0.31054825
000320 b9 2e ac bd 3b 1c 8f bc b5 7c 39 3e 74 ce 06 3e
       -0.08407349 -0.017469516 0.18113978 0.13164693
000330 9e fa 59 3e 8b 50 97 3e 97 3e 82 bc 25 b3 e8 be
       0.21287009 0.29553637 -0.015898986 -0.45449176
000340 4e 16 5c 3e 73 93 e0 3d 99 d6 bc 3e b1 82 78 3e
       0.21492884 0.10965624 0.36882475 0.24268605
000350 9d 78 22 3c 63 a2 93 bb ea 36 9f 3e 17 b8 b4 3d
       0.009916452 -0.004505442 0.31096584 0.08824175
000360 dd 1c 1b 3d 6a 9c 68 3c 10 3a 97 be f0 8b 70 be
       0.037869323 0.014197448 -0.29536486 -0.23490882
000370 a6 3a 4b bd d9 80 b6 3c e8 b2 cc bd b1 c6 e5 be
       -0.04961648 0.022278236 -0.09995061 -0.44878152
000380 38 fa 62 3e c6 b8 38 3d 8a 9f 48 bd c7 0b 0c be
       0.22165763 0.04509809 -0.048980273 -0.13676368
000390 a3 f8 52 be ee b4 15 3d 7e 24 68 bd 60 17 90 3e
       -0.2060266 0.0365495 -0.056675427 0.28142834
0003a0 de 14 90 3e 96 bb 84 3e f0 da 70 be cc 13 04 be
       0.2814092 0.25924367 -0.23521018 -0.12898177
0003b0 01 39 cd be 13 a1 56 3e 4a 72 83 bc 98 8c 92 be
       -0.40082553 0.20959882 -0.016045708 -0.2862289
0003c0 c4 e4 08 3d 11 31 3a 3e 24 ec 1b bd e8 13 a0 bd
       0.033421293 0.1818278 -0.038066998 -0.07816297
0003d0 b8 45 bd 3e 96 be 1f 3d e7 6e 87 3e 93 3a 51 bc
       0.36967254 0.039000116 0.264518 -0.012770313
0003e0 78 54 a9 3d f9 03 53 bd ff 13 f8 be c9 c8 f0 3c
       0.08268064 -0.05151746 -0.48452756 0.029392617
0003f0 82 69 87 3d 04 f1 2a 3e bc e5 74 bd 01 fa 40 be
       0.06611921 0.16693503 -0.059789404 -0.18845369

shared_fc.0.bias f4 [64]
000000 a7 8a 59 3e 8d 67 9e 3e dd 90 96 3e 36 0b 87 3e
       0.21244298 0.30938378 0.29407397 0.2637574
000010 ab 87 8e 3e f4 4d 12 be b5 6b 7d 3e ef 3f c0 bd
       0.2783788 -0.1428755 0.24748118 -0.09387194
000020 50 78 cf bd b3 c4 79 3e f4 22 d2 bd be 6a 52 3e
       -0.1013037 0.24391441 -0.10260573 0.20548531
000030 dc d8 77 3e 91 81 6d 3e 2f 09 e6 bd 39 e3 b0 bd
       0.24203819 0.23193957 -0.112322204 -0.08637089
000040 de 4a b6 bd d5 76 a0 bd c4 36 8d 3e e9 2b 85 3e
       -0.089009985 -0.078351654 0.27580845 0.26010063
000050 70 6e 90 3e a0 b7 8c 3e cd e8 6a 3e 36 43 94 bd
       0.28209257 0.27483845 0.22940369 -0.07239382
000060 d6 db ee bd d1 67 68 3e 4c 7b 89 bd d9 f8 be bd
       -0.11663024 0.22695853 -0.0671297 -0.09324808
000070 31 50 36 3e 29 50 64 3e 01 f6 7f 3e 09 d2 8a 3e
       0.17804028 0.22296204 0.24996187 0.2711337
000080 7a b8 99 3e fc 8b d8 bd aa 39 95 3e f2 33 74 3e
       0.30023557 -0.10573575 0.29145557 0.2384794
000090 a3 f5 15 be 68 a6 e0 bd 96 a9 61 3e cc 19 8d 3e
       -0.14644484 -0.109692395 0.22037348 0.27558744
0000a0 39 cd 85 3e 4a b2 5b 3e ce bc 95 3e 23 a5 a0 3e
       0.26133135 0.2145473 0.2924561 0.3137599
0000b0 e2 75 51 3e 89 7b 78 3e 61 c7 2d bd 4b 58 82 3e
       0.20455125 0.24265875 -0.04242647 0.25457987
0000c0 d2 d8 85 3e 91 0f 9a 3e bb f3 cb bd 32 08 58 3e
       0.26141983 0.3009 -0.09958597 0.21096876
0000d0 75 be 8a 3e b1 c1 87 3d c7 77 00 be 3a 25 a1 3e
       0.27098432 0.066287406 -0.12545691 0.31473714
0000e0 74 26 8b 3e a3 51 09 be 3d b9 da bd 25 b0 6f 3e
       0.27177775 -0.13410048 -0.10679863 0.23407038
0000f0 af a2 57 3d e0 73 ea bd 4c 8b 38 3e fe ed 71 3e
       0.05264538 -0.11447883 0.18021888 0.23625943

actor_head.weight f4 [2, 64]
000000 2d 58 a8 3c 4b c3 4b 3e b0 7a 12 3e f9 fe 44 3e
       0.020549858 0.19898717 0.14304614 0.1923789
000010 c6 3b fa 3d 8f c3 37 be 81 95 32 be 13 09 f0 bc
       0.12218432 -0.17945693 -0.17439844 -0.029301202
000020 15 af 83 3d a0 78 da 3c cb ef e8 3d 05 0f 47 bc
       0.064298786 0.026668847 0.11373862 -0.012149577
000030 49 fd 20 be 16 94 56 bd a9 d8 96 bd 51 f8 96 bb
       -0.1572162 -0.05238732 -0.073655434 -0.0046072383
000040 bc 6a a7 3c 99 94 eb bc 36 05 08 3e b7 36 bd bd
       0.020436637 -0.02875738 0.13283238 -0.09238952
000050 ec 32 88 bd da dc ca bb 4b 7e b7 bd 2c 95 c9 3d
       -0.066503376 -0.0061908783 -0.08959635 0.098429054
000060 d3 55 9d bc f3 8a 4e 3d c6 94 76 bd 4e ef 4a 3c
       -0.019205963 0.05042548 -0.060200475 0.012386156
000070 af 69 5c be 33 dc 8f bd 7f 8b 09 be c5 a7 f6 bc
       -0.2152469 -0.070244215 -0.1343212 -0.030109296
000080 81 9f fa 3d a4 b6 d0 3b 75 24 29 3e 0e 2f 2d be
       0.12237454 0.0063694287 0.16517814 -0.16912481
000090 49 5a 81 bc 1e c2 d6 bd de e2 c0 bd 06 0c a0 bd
       -0.015790122 -0.10486244 -0.094182715 -0.07814793
0000a0 c9 9a f9 bd f5 dc 27 3d 37 48 b8 3d d3 0e df 3d
       -0.12187726 0.040982205 0.08998149 0.10891499
0000b0 63 09 1d bc 84 8f ff bc da 79 66 bd 6c c4 27 bd
       -0.0095847575 -0.031196363 -0.05626855 -0.040958807
0000c0 72 6d 89 3c 2b 82 35 3e d7 94 17 bd 93 42 5d 3d
       0.01677582 0.17725436 -0.03700718 0.05401857
0000d0 3d dc e5 bd 3e a3 7a be 3c d7 6a bc ca da 98 3d
       -0.11223648 -0.24476334 -0.014333542 0.07463606
0000e0 7d 0f 82 3d 88 dd 63 bc 55 76 bf 3c 48 14 8d 3d
       0.063506104 -0.013907798 0.023371855 0.06888634
0000f0 51 df 7a 3c e8 44 4e bd eb 8c 73 3e 3c 38 11 3d
       0.015312032 -0.050358683 0.23784225 0.03545402
000100 29 5c 84 bc d1 75 56 be dd cd 1d be 4c 25 48 be
       -0.016157227 -0.20943381 -0.15410562 -0.19545478
000110 e1 6b 16 be f0 ee 3b 3e 62 51 3c 3e a3 e5 05 3d
       -0.1468959 0.18352866 0.1839042 0.0326897
000120 0d 22 a4 bd 68 90 63 bd 2b 04 92 bd 39 bc a7 3a
       -0.08014307 -0.05555764 -0.07129701 0.0012797184
000130 5a ee 2b 3e 0e f3 a1 3d 79 8e 6a 3d b1 b8 15 bc
       0.16790143 0.07907687 0.05726478 -0.009138272
000140 62 b4 a6 bd 2d 1f dc 3c 88 44 14 be cc 15 b0 3d
       -0.08139874 0.026870335 -0.14479268 0.085979074
000150 0b f8 23 3d 57 33 54 bc 43 26 cf 3d 00 a8 f2 bd
       0.040031474 -0.0129516935 0.1011472 -0.1184845
000160 2d 20 d5 ba d9 cc 78 bd c9 4e a2 3d ab d2 d9 bb
       -0.00162602 -0.060742233 0.07925183 -0.006647428
000170 df f2 38 3e 81 27 a2 3d 2a 35 1c 3e c0 81 5e 3d
       0.18061398 0.07917691 0.15254655 0.054322958
000180 41 39 04 be 08 86 91 ba c0 71 18 be 24 3e 39 3e
       -0.12912466 -0.0011102566 -0.14887142 0.18090111
000190 98 4b ed 3c 02 63 ba 3d ed 38 aa 3d 33 3b 88 3d
       0.02896671 0.091009155 0.08311639 0.06651916
0001a0 e3 90 de 3d ac f3 f0 bc 0b 00 b2 bd cb 5f f2 bd
       0.10867479 -0.029413067 -0.086914144 -0.11834677
0001b0 a6 71 b4 bc 56 7b 5f 3d 01 85 2b 3d f4 30 27 3d
       -0.022026848 0.05456098 0.04187489 0.04081817
0001c0 7d 77 ad 3b de 02 38 be 34 48 1a 3d 21 0b 00 bd
       0.005293785 -0.17969844 0.037666515 -0.031260613
0001d0 5f 66 01 3e 8e d0 7c 3e ce 95 dd 3b 78 47 ac bd
       0.12636708 0.24688932 0.006762243 -0.08412069
0001e0 82 d8 81 bd a1 65 5d 3c 1b 8d aa bc 4e 46 7d bd
       -0.06340124 0.013513 -0.020819237 -0.061834626
0001f0 40 79 83 bb a8 f6 54 3d 90 c0 68 be b9 5b 8e bd
       -0.004012257 0.051993042 -0.22729707 -0.069510885

actor_head.bias f4 [2]
000000 bf 37 9f 3c c1 37 9f bc
       0.019435761 -0.019435765

critic_head.weight f4 [1, 64]
000000 01 87 50 3e b8 10 4e 3e 29 bc 41 3e 03 fa a0 3e
       0.20364 0.20123565 0.18919434 0.31440744
000010 73 27 87 3e 16 4b 4d be 90 b4 91 3e 1d ee 52 be
       0.26397285 -0.20048174 0.2845807 -0.20598646
000020 cb d3 16 be 79 7d 1f 3e 1b 22 9a bd 70 3b c4 3e
       -0.1472923 0.15575208 -0.07526036 0.38326597
000030 7e 36 6a 3e 35 30 94 3e af 19 9e be 1a 39 b5 bd
       0.2287235 0.2894303 -0.3087897 -0.08848782
000040 97 bc 53 bd e5 39 0b 3b 2e ec 8b 3e d2 4d 88 3e
       -0.051693525 0.0021244225 0.27328628 0.26621872
000050 28 90 ee 3d 3c a6 3b 3e df 18 ba 3e dc e4 92 bd
       0.116485894 0.18325132 0.363471 -0.07172558
000060 4d 9d a8 bd 49 22 95 3e eb 5f a9 bd c4 ec af bd
       -0.08233128 0.2912772 -0.08270248 -0.08590081
000070 30 fd 2d 3e e0 5f 55 3e 0f 47 af 3e dd 6b 44 3e
       0.16991115 0.20837355 0.342339 0.19181772
000080 58 28 5d 3e c7 32 7e be c3 93 55 3e 94 70 c5 3e
       0.21597421 -0.24824058 0.20857148 0.38562453
000090 fd 55 04 be f3 a0 da bd c4 fe ad 3e b6 d9 1b 3e
       -0.12923427 -0.1067523 0.33983433 0.15219769
0000a0 57 27 2a 3e 47 be 75 3e e4 3a 1d 3e c6 b9 30 3e
       0.1661657 0.23998366 0.15354496 0.17258367
0000b0 c2 28 19 3f 1e b7 3b 3e 2e 8b b5 bc f1 e2 31 3e
       0.59827816 0.18331572 -0.022161093 0.17371728
0000c0 6b 7f 9a 3e 53 b4 36 3e 7e ee e2 bd c9 05 64 3e
       0.30175337 0.17842226 -0.11080645 0.22267832
0000d0 99 34 81 3e 91 e3 8f 3d 30 48 d5 bd f2 3c 00 3e
       0.2523544 0.07025827 -0.10414159 0.12523249
0000e0 b0 f3 25 3e a2 d3 14 be 3c 90 4b bd be c3 3a 3e
       0.1620624 -0.14533857 -0.0496981 0.18238732
0000f0 2c 01 bd 3c 0c f5 b0 bd 87 30 1c 3e a5 c1 4f 3e
       0.023071848 -0.08640489 0.15252887 0.20288713

exp_avg f4 [64, 4]
000000 4a 49 2a bb 7f 77 f0 b9 54 51 10 b9 fe 9d 86 ba
       -0.0025983625 -0.000458654 -0.00013763207 -0.0010270474
000010 b6 42 5c bc 4b 7c 38 bc 72 78 27 3a 2e 44 37 3b
       -0.0134436395 -0.0112601025 0.0006388492 0.0027964222
000020 d5 16 23 bc a7 e6 12 bc 49 d2 57 39 c8 0d fc 3a
       -0.009954174 -0.008966125 0.00020582335 0.0019230181
000030 43 a3 86 bc 79 2b 4c bc 2a 7f ad 3a 0c ca 85 3b
       -0.016435271 -0.012461537 0.001323675 0.0040829238
000040 5d 67 ba ba de 07 da 3a 5d 6d 42 39 18 8d 23 bb
       -0.0014221478 0.0016634425 0.00018542023 -0.0024955925
000050 47 ac 43 3a 6b 2d 09 3b 16 93 92 b9 9b 6d 84 ba
       0.0007464331 0.0020931612 -0.00027956878 -0.0010103466
000060 cd 81 54 3b 4d ac ba ba 5d 2b 1c ba bd dd 3e 3b
       0.0032426 -0.0014242023 -0.00059573894 0.0029123866
000070 9b 65 46 3a f3 3f 1b 39 f6 28 83 36 6a 7e 79 39
       0.0007568241 0.00014805775 3.9088727e-06 0.00023793583
000080 ec 68 49 b9 f5 77 0f 3b e9 9e bc b8 52 d8 eb ba
       -0.0001920794 0.0021891568 -8.994138e-05 -0.0017993546
000090 cc ad c2 ba d0 96 fc 39 3e 49 45 39 29 5e 16 ba
       -0.0014852821 0.0004817755 0.00018814669 -0.0005736077
0000a0 0d c9 34 bb cc 6c ab b6 fe ce d9 b9 43 af 07 bb
       -0.0027585656 -5.1088628e-06 -0.00041543687 -0.002070383
0000b0 ab ac b4 bb d6 06 a6 bb 61 09 58 3a 8b 9a 66 3b
       -0.0055137477 -0.005066733 0.00082411437 0.003518733
0000c0 a9 27 e7 3b 36 a9 13 bb 11 66 c0 b9 07 77 9d 3b
       0.0070542884 -0.0022531278 -0.0003669714 0.004805449
0000d0 9c 5d 16 bb 02 ae 67 bb b8 d9 8e b8 68 70 11 3b
       -0.002294398 -0.003535152 -6.811641e-05 0.0022192243
0000e0 2b f7 f8 ba bf b9 12 bb e8 d4 4e b9 28 23 9c 39
       -0.001899456 -0.0022388545 -0.00019725005 0.00029780832
0000f0 68 29 d2 39 04 88 00 3a 74 f4 6f b7 91 9e 44 b9
       0.0004008517 0.00049030804 -1.4302426e-05 -0.00018751087
000100 7c 9e 98 ba 8a a8 c6 ba 8f b2 71 37 5e ea 3e 39
       -0.0011643912 -0.001515643 1.4406293e-05 0.0001820712
000110 03 f8 a2 39 92 2f 33 ba 5b de 7b 37 5c 4f 2e 3a
       0.0003108383 -0.00068353966 1.5012537e-05 0.0006649399
000120 f0 e5 be bb 10 54 00 bb 06 3e bc 3a b4 3d e5 3a
       -0.0058257505 -0.0019581355 0.0014361746 0.0017489702
000130 47 a5 1a bb 3c 81 48 bb 53 42 2e b9 fb 18 02 3b
       -0.0023597048 -0.0030594608 -0.00016618641 0.0019851315
000140 a9 18 f4 3a 21 78 26 39 6c 7a 0d 37 64 13 94 3a
       0.0018623072 0.00015875745 8.4327585e-06 0.0011297283
000150 48 ec a9 bb f6 7c 72 bb 38 32 cd 38 e0 9a b6 3a
       -0.0051856376 -0.0037000752 9.784516e-05 0.0013931654
000160 d2 98 ae bb 01 5f 12 bc 0f a8 fb 38 0f b7 b4 3b
       -0.005328276 -0.0089337835 0.00011999916 0.0055149863
000170 4b 3b 71 bb 06 33 34 b9 ca 46 26 ba 50 72 25 bb
       -0.0036809023 -0.00017185145 -0.0006342946 -0.0025245138
000180 7d 41 c5 3a c6 44 a9 3a f5 27 5b b9 e1 6e 3e ba
       0.0015049424 0.0012914173 -0.00020900353 -0.0007264447
000190 60 b4 0d bc 82 ef d2 bb 8f d8 52 3a 9e d2 2a 3b
       -0.008648962 -0.006437243 0.0008043134 0.002606548
0001a0 51 8b a6 3a e5 c7 90 ba 9c 71 fc b9 54 6e ea 39
       0.0012706314 -0.0011045901 -0.0004814983 0.0004471416
0001b0 a3 cf a3 39 dc af 30 3a 8d b7 4d b7 ec 8a b7 b9
       0.00031244484 0.0006740072 -1.2261688e-05 -0.00035007985
0001c0 0e 61 f7 3b f4 94 4a 3a 81 3c 5c ba 05 13 1d 3b
       0.0075494116 0.0007727884 -0.000840135 0.0023967635
0001d0 9f 1f 01 3b 5f fb 65 39 90 f1 3a 39 7a d5 f6 3a
       0.0019702686 0.00021932785 0.00017828331 0.0018831932
0001e0 83 80 31 bb 5c a3 1a bc ee 7b 0f b9 36 bf bc 3b
       -0.0027084656 -0.009438362 -0.0001368371 0.005760099
0001f0 ed 6c 04 bb c1 5e 31 bb 68 f3 de 37 30 65 e9 3a
       -0.0020206526 -0.0027064534 2.6577807e-05 0.0017806645
000200 f6 ae fd bb 18 7a 92 bb e1 26 51 3a 22 6e 51 3a
       -0.0077418042 -0.004470121 0.00079785107 0.00079891284
000210 e9 d4 93 36 5f ce ca 37 27 95 74 36 d4 c8 58 b4
       4.4057274e-06 2.4176376e-05 3.6445651e-06 -2.0189628e-07
000220 7c cc 16 bb da 6d 5e 3b 8c c9 fc b8 64 f2 89 bb
       -0.0023010066 0.0033939988 -0.000120538374 -0.0042098034
000230 81 ff 21 ba 9f cd 8b bb 8b a2 00 ba d3 3e 7d 3b
       -0.00061797356 -0.0042664553 -0.0004907033 0.0038642182
000240 07 d9 66 3b d2 7d 33 3b 95 a8 12 b9 dc 68 74 ba
       0.0035224573 0.0027388227 -0.00013986447 -0.00093234866
000250 38 72 8b 3a d2 8d bb ba 5e 5a 30 ba 85 ef c2 39
       0.0010638898 -0.0014309234 -0.0006727333 0.0003718102
000260 09 a4 9b 3a 1b d9 c9 ba 68 b7 a2 39 66 c0 60 3b
       0.0011874448 -0.0015399785 0.00031035696 0.0034294366
000270 17 14 9a 3a 3a 2e 64 39 3e 61 d8 b8 aa 99 44 3a
       0.0011755255 0.00021760995 -0.000103177954 0.00074997044
000280 89 c9 30 3b 7f 15 bb 3a d1 04 d9 b9 95 4c 0d 39
       0.0026975593 0.0014273374 -0.00041393054 0.00013475337
000290 71 bb 36 bb 93 2b 94 b9 b4 ed ea b7 dd 9c 64 ba
       -0.002788272 -0.00028261225 -2.8005663e-05 -0.0008720884
0002a0 11 c3 89 bb 73 b6 20 bb b0 8f 95 3a b0 ea 0d 3b
       -0.004204162 -0.002452281 0.001141062 0.0021654777
0002b0 d3 30 27 bb 9a c8 c3 3a 54 ea 32 3a 3c 36 c8 ba
       -0.002551128 0.0014937103 0.0006825079 -0.0015274952
0002c0 87 65 3f bb cc 19 3c bb ea ac 0f 39 31 08 8b 3a
       -0.0029204802 -0.00287019 0.00013701958 0.00106073
0002d0 67 74 cf b9 a3 a8 12 bb 4d 5b 59 39 55 18 0c 3b
       -0.00039568843 -0.0022378347 0.00020728745 0.0021376808
0002e0 60 97 a8 3b fd 65 1e 3b 47 81 06 b9 6b a6 3c 39
       0.0051449984 0.0024169676 -0.00012827395 0.00017991073
0002f0 19 a6 02 3b 38 05 8c ba da 48 88 39 77 34 15 3b
       0.0019935428 -0.0010682708 0.0002599422 0.0022766867
000300 4e 57 c5 bb 51 73 b5 bb 01 3f 02 3a b8 13 34 3b
       -0.0060223704 -0.0055374284 0.0004968495 0.0027477574
000310 b4 3c 51 bc 55 e1 23 bc f9 38 98 3a e3 a8 6a 3b
       -0.01277082 -0.010002454 0.0011613659 0.003580623
000320 fd d8 85 3b 18 b3 47 3b c9 ea cb b9 1d 56 a4 ba
       0.004084705 0.0030471738 -0.00038894106 -0.0012537871
000330 1b 24 ec ba 68 ca 0a 39 7b 2d 89 b9 0b 20 b0 ba
       -0.0018016131 0.00013236108 -0.00026164562 -0.0013437284
000340 ed 92 c4 3a 15 03 6b bb 06 bc f7 b9 2e 4e 0c 3b
       0.00149974 -0.0035859991 -0.000472516 0.0021408903
000350 7d 8f 95 3c 05 74 92 3a c2 f4 88 ba da d3 ae 3b
       0.018256897 0.0011173493 -0.001044892 0.0053353133
000360 af 23 9a 38 6f 05 65 b9 b0 22 5f b7 9f 81 2d 39
       7.349939e-05 -0.00021841166 -1.3299912e-05 0.00016546853
000370 7d 1b ec ba 71 60 ed b9 47 5d 08 3a 3f 31 b5 39
       -0.0018013563 -0.00045276017 0.00052018877 0.000345597
000380 53 d4 f5 ba 62 fa 82 3a 99 c8 9d 39 68 01 8e ba
       -0.0018755294 0.0009992833 0.0003009483 -0.0010834159
000390 51 fa 64 3b 02 02 25 3b ea c5 88 b9 d0 81 86 ba
       0.003493924 0.0025178199 -0.000260874 -0.0010262076
0003a0 7d 29 15 39 fa 93 47 3a ff 2d 86 38 f4 ab e2 b9
       0.00014225203 0.0007613298 6.398185e-05 -0.00043234194
0003b0 84 42 e2 bb 05 85 af bb 25 70 24 3a a8 bc 21 3b
       -0.006904902 -0.0053564333 0.00062728144 0.0024679098
0003c0 50 68 3a 38 75 cf 06 39 37 1b 7c b7 85 6a 0d b9
       4.4443004e-05 0.0001285652 -1.5026707e-05 -0.0001348649
0003d0 ac c5 80 3a 64 5d 50 ba 0f d1 a8 37 ac 2e 80 3a
       0.0009824536 -0.00079484866 2.0124511e-05 0.0009779534
0003e0 dd 60 38 bc 4e 4a f4 ba 0d f8 85 ba 26 fc e6 bb
       -0.011253563 -0.0018637867 -0.001022102 -0.0070491014
0003f0 dd 24 c5 ba 85 fe fd 39 58 a3 14 39 df 66 3d ba
       -0.0015040893 0.00048445552 0.0001417523 -0.0007225107

exp_avg_sq f4 [64, 4]
000000 3f 37 04 39 23 d4 67 38 79 1e d1 35 30 c4 14 38
       0.00012609082 5.527226e-05 1.5580582e-06 3.5468664e-05
000010 b2 af c2 3a c0 c5 3d 3a c7 18 1b 37 7f b2 4b 39
       0.0014853387 0.0007239245 9.244489e-06 0.00019426084
000020 bd 77 6c 3a 18 5b e5 39 37 70 b3 36 31 90 01 39
       0.0009020528 0.00043746154 5.3476792e-06 0.00012356114
000030 64 a3 e1 3a c0 b4 5a 3a 8c 2a 39 37 c0 06 7c 39
       0.0017214832 0.0008342974 1.10367655e-05 0.00024035107
000040 c6 9a 1b 3a f1 64 6b 39 71 e2 c7 36 56 1f e1 38
       0.0005935844 0.0002244895 5.9570234e-06 0.00010734673
000050 27 c0 2a 3a 0c 53 0e 39 56 4a 26 36 05 76 b3 38
       0.0006513618 0.00013573113 2.4779197e-06 8.557368e-05
000060 fd bd eb 3a fa f5 73 3a c3 29 7d 37 7a fd 8e 39
       0.0017985698 0.0009306368 1.50896985e-05 0.00027273205
000070 1d bc 11 39 94 8e 3f 38 f8 1a 6f 35 ca 1c f1 37
       0.00013898355 4.5670735e-05 8.907368e-07 2.8742845e-05
000080 7f 01 bf 38 52 f4 3a 38 ea 76 a4 35 ac c0 a5 37
       9.1078684e-05 4.4573397e-05 1.2253561e-06 1.9759253e-05
000090 83 f9 92 38 32 1b 1c 38 a7 e4 a4 35 4d 81 8d 37
       7.008298e-05 3.7218626e-05 1.2285499e-06 1.686872e-05
0000a0 dc 8c 13 39 3d 8e e6 38 67 41 a8 35 de d7 da 37
       0.00014071487 0.000109937486 1.253601e-06 2.6088146e-05
0000b0 bf 6b 59 3a 22 ff e2 39 cc 26 9c 36 d4 ea 11 39
       0.00082939485 0.00043296168 4.653679e-06 0.00013915758
0000c0 87 c6 9a 3a 55 9e 31 3a 2c cb 37 37 92 b9 2d 39
       0.0011808433 0.00067756075 1.0954955e-05 0.00016567696
0000d0 3f af 23 3a bf 69 a2 39 6d 6a a4 36 eb 3d dc 38
       0.000624407 0.00030977835 4.8999705e-06 0.000105019506
0000e0 84 03 ad 38 20 66 96 38 a2 5f a9 35 1b 65 60 38
       8.249938e-05 7.17158e-05 1.2619314e-06 5.3499924e-05
0000f0 4f 6a 80 37 63 be ee 36 98 3a 88 34 21 fe 98 36
       1.5308293e-05 7.1151167e-06 2.5374607e-07 4.5595375e-06
000100 9f e9 eb 38 cd 82 74 38 59 0c 07 35 22 d8 66 37
       0.000112491885 5.829595e-05 5.030939e-07 1.3759391e-05
000110 bc ea 27 37 94 45 06 37 1c 2b 5e 34 b7 00 64 36
       1.0008629e-05 8.003222e-06 2.0691044e-07 3.3975064e-06
000120 3a 89 84 3a 46 3b f1 39 00 ec dc 36 76 d8 f6 38
       0.0010111697 0.00046011264 6.583985e-06 0.00011770513
000130 2b 1c 5c 3a d8 1b e0 39 4f 2d fc 36 33 e5 1b 39
       0.00083965313 0.00042745355 7.51546e-06 0.00014867335
000140 37 12 2d 39 e6 7b a6 38 37 43 ab 35 65 d7 de 37
       0.00016505351 7.938575e-05 1.2760055e-06 2.6564763e-05
000150 b3 93 38 39 e6 2e a7 38 c1 ed c3 35 cb 8b df 37
       0.0001760263 7.971916e-05 1.4597828e-06 2.6648768e-05
000160 5d 47 29 3a 98 31 d8 39 f6 54 07 37 e7 a7 34 39
       0.00064574723 0.0004123568 8.066409e-06 0.00017228686
000170 7c 3a 50 39 da 0d 29 39 93 39 c2 35 69 a2 14 38
       0.00019858213 0.00016122256 1.4470883e-06 3.5437206e-05
000180 53 ac be 37 aa 69 91 37 b5 62 89 34 b3 a1 28 37
       2.273001e-05 1.733455e-05 2.5590057e-07 1.0051229e-05
000190 f7 ca 18 3a 13 b0 98 39 37 c4 6e 36 4e ed b9 38
       0.0005828584 0.00029122885 3.5578976e-06 8.865689e-05
0001a0 d6 24 7f 38 de 73 20 38 6a fc 97 35 10 73 46 37
       6.0831044e-05 3.8254882e-05 1.1323839e-06 1.182851e-05
0001b0 24 cd 79 37 34 0a d0 36 11 cc 5e 34 87 42 4c 36
       1.488932e-05 6.200071e-06 2.07496e-07 3.0437093e-06
0001c0 7a 6d dc 3a 93 eb 61 3a b8 49 6c 37 9a 11 74 39
       0.0016817295 0.0008618172 1.408386e-05 0.0002327621
0001d0 a3 79 cf 39 97 d7 56 39 0d b0 31 36 2d 31 89 38
       0.00039572743 0.00020488944 2.647753e-06 6.541829e-05
0001e0 79 42 0f 3a 83 23 c5 39 80 ce 28 37 31 ed 38 39
       0.0005464922 0.00037601226 1.006166e-05 0.00017635968
0001f0 11 94 90 39 5e 2d 07 39 6f f3 1f 36 21 ac 3a 38
       0.00027576138 0.00012891504 2.3834543e-06 4.4506163e-05
000200 f5 3a 38 3a 11 8a 8c 39 48 81 a5 36 90 e9 95 38
       0.0007027828 0.00026805748 4.9324335e-06 7.148378e-05
000210 1a 64 47 38 a2 4a ed 37 83 23 87 35 8e 5c 28 38
       4.7538524e-05 2.8287355e-05 1.0068619e-06 4.014052e-05
000220 98 f3 af 39 d1 81 53 39 06 0f c3 36 d7 10 a5 38
       0.00033560093 0.00020170888 5.813202e-06 7.87095e-05
000230 37 0b 11 3b e3 e0 90 3a a2 2d a0 37 97 51 be 39
       0.0022131929 0.001105335 1.9094736e-05 0.00036300413
000240 b4 e3 da 38 09 95 41 38 19 31 08 35 86 cd 90 37
       0.00010437463 4.6153586e-05 5.0735395e-07 1.7261842e-05
000250 b8 70 f9 38 f8 bb aa 38 47 0c 17 36 5f 36 f0 37
       0.00011894241 8.1412436e-05 2.25079e-06 2.8635548e-05
000260 bd 31 71 3a c2 56 eb 39 14 43 e3 36 74 91 24 39
       0.0009200832 0.00044887332 6.772936e-06 0.00015694444
000270 1b 68 9f 39 0f 5d 25 39 da f2 16 36 bb 13 4b 38
       0.00030404408 0.00015770293 2.24931e-06 4.8417347e-05
000280 6b 76 15 3a ea 3c 99 39 7e 35 90 36 cf 46 ba 38
       0.00057015446 0.0002922782 4.2977617e-06 8.88236e-05
000290 31 64 66 39 ce 79 b8 38 da 53 22 36 f3 e0 4f 38
       0.00021971833 8.7964916e-05 2.418869e-06 4.9562146e-05
0002a0 7b 64 a4 39 b7 ab 1a 39 40 8e 0e 36 47 54 29 38
       0.0003135538 0.00014750553 2.124245e-06 4.037123e-05
0002b0 65 44 98 39 80 e7 0c 39 55 ae 96 36 b6 89 89 38
       0.00029042657 0.00013437681 4.4906433e-06 6.55832e-05
0002c0 fa 05 4a 3a 48 6c bc 39 2e de 60 37 39 56 5b 39
       0.0007706579 0.0003593883 1.3403171e-05 0.00020917588
0002d0 d8 68 45 39 59 27 f5 38 2d c0 f1 35 61 5d 1b 38
       0.00018826441 0.000116898394 1.801183e-06 3.7041846e-05
0002e0 de dd 20 38 1e a5 a3 37 b2 54 8c 34 0d b7 94 36
       3.8353603e-05 1.9508003e-05 2.6138656e-07 4.4320536e-06
0002f0 f6 cd 4f 39 70 67 cf 38 1d a1 b1 35 47 92 07 38
       0.00019817785 9.889796e-05 1.3234418e-06 3.232274e-05
000300 63 30 83 39 c0 86 2f 39 6f 20 8f 36 67 cc b2 38
       0.00025022318 0.00016739499 4.265508e-06 8.525774e-05
000310 0b 25 96 3a 87 53 13 3a 10 64 fd 36 9a 9f 22 39
       0.0011455131 0.00056200515 7.5516364e-06 0.0001550898
000320 b7 03 9b 38 7a 71 23 38 90 04 bc 34 c3 15 3d 37
       7.391668e-05 3.896791e-05 3.5021048e-07 1.1270345e-05
000330 0b e5 14 39 db 35 9f 38 b9 08 0a 36 a9 27 49 38
       0.00014199705 7.591742e-05 2.056868e-06 4.795907e-05
000340 e5 fd 92 39 a3 ea 30 39 82 90 cc 36 a7 d3 b2 38
       0.00028036456 0.00016872077 6.0964967e-06 8.527125e-05
000350 39 82 c8 3a b4 b5 78 3a 14 ab 63 37 7c 79 5a 39
       0.0015297598 0.0009487525 1.3570087e-05 0.00020835357
000360 3c 4f 32 37 6b 2a b2 36 ea 3e 19 34 e8 0c e3 36
       1.0628075e-05 5.3097515e-06 1.4272123e-07 6.7666297e-06
000370 8e fd 65 39 81 5c a8 38 f7 2d c9 35 d7 79 c2 37
       0.00021933598 8.0280945e-05 1.4989045e-06 2.3183338e-05
000380 25 c5 ce 38 16 e5 58 38 c9 b9 f1 35 64 b5 c7 37
       9.8595665e-05 5.1711766e-05 1.800997e-06 2.3807115e-05
000390 19 50 e1 38 f8 8b 74 38 c4 0d 08 35 a6 2f 98 37
       0.000107437554 5.830449e-05 5.068398e-07 1.8142e-05
0003a0 e5 25 30 37 fe 5b e8 36 e6 7f 2b 34 5c 33 54 36
       1.04992405e-05 6.924848e-06 1.5972145e-07 3.1620357e-06
0003b0 5e 86 93 39 72 93 04 39 c8 66 da 35 d7 d8 2b 38
       0.00028138136 0.00012643429 1.6272179e-06 4.0971525e-05
0003c0 47 91 3b 36 7e 8a b5 35 0a 32 30 33 44 5e 36 35
       2.7949734e-06 1.3525857e-06 4.1023704e-08 6.793746e-07
0003d0 30 60 2f 38 4c 24 d9 37 16 a7 35 35 46 5e 21 37
       4.1812833e-05 2.5885318e-05 6.7670896e-07 9.618298e-06
0003e0 36 e4 8e 3a 61 9f 37 3a 9a 6a 32 37 ce a9 3d 39
       0.0010901752 0.00070046453 1.0634447e-05 0.00018087702
0003f0 e7 5c 14 39 2c 83 88 38 1e 20 0e 36 10 d3 24 38
       0.00014148989 6.509418e-05 2.1178344e-06 3.9297214e-05

exp_avg f4 [64]
000000 75 70 97 b9 51 3d fc 3a 92 d9 5d 3a 67 d4 5c 3b
       -0.0002888475 0.0019244348 0.00084629015 0.0033695938
000010 40 45 54 ba 13 66 4e 38 41 b2 de ba cd ad 37 b9
       -0.0008097477 4.920929e-05 -0.001699038 -0.00017516986
000020 0a 84 91 b8 9c f6 3a 39 fb 31 29 ba 17 4d 22 3b
       -6.938733e-05 0.00017830211 -0.0006454286 0.0024765187
000030 f6 9c 2d bb 9c 05 f2 39 c0 df 31 ba 64 38 c0 38
       -0.002649126 0.00046162016 -0.00067853555 9.165777e-05
000040 86 06 14 39 51 c7 c7 38 76 09 9a 3b 93 7a 40 ba
       0.0001411681 9.526185e-05 0.004700835 -0.0007342484
000050 a8 04 84 39 04 5c 3d 3a e4 d2 88 b8 2b cb 96 ba
       0.0002518047 0.0007223489 -6.524267e-05 -0.001150464
000060 1c 51 a2 b9 5a 2c 05 3b 16 35 9c ba 91 b1 a1 38
       -0.0003095948 0.0020320625 -0.0011917676 7.7101526e-05
000070 f0 d2 05 bb 1e 03 78 3a 42 c3 57 b9 06 f2 e3 37
       -0.0020419918 0.0009460914 -0.00020576737 2.717321e-05
000080 1a cb 3e 3b 61 3e a1 b7 c7 cc af ba 09 e5 e2 ba
       0.0029112757 -1.9221743e-05 -0.0013412469 -0.001731069
000090 fb 44 39 ba a3 68 bc ba bd 14 c0 3a 79 fa a8 b9
       -0.0007067469 -0.0014374446 0.0014654618 -0.00032230074
0000a0 7a c6 80 ba 2d 5c a5 39 08 44 69 3b 8e 9b 8c 39
       -0.0009824776 0.0003153993 0.0035593528 0.00026818778
0000b0 2f ea 01 ba 15 03 fb b7 07 8b 3b ba 99 18 62 39
       -0.00049558555 -2.9922967e-05 -0.00071542006 0.00021562203
0000c0 27 b4 1a 3a 5f a6 48 3b 91 11 a2 ba 96 dd 84 ba
       0.00059014786 0.0030616743 -0.0012364854 -0.0010136839
0000d0 8b 21 b1 ba c5 3e aa bb 46 2d fa b8 73 45 eb 3a
       -0.0013514025 -0.005195471 -0.00011929362 0.0017949775
0000e0 8a f6 96 39 bd 55 47 ba 44 b6 72 39 8c bd 13 3b
       0.00028793915 -0.00076040236 0.00023146818 0.0022543399
0000f0 ff d1 f7 b8 53 0c 90 39 1b 98 e8 ba 2e 43 61 b9
       -0.000118169926 0.00027475003 -0.0017745526 -0.00021482699

exp_avg_sq f4 [64]
000000 10 6c 8e 38 c7 a4 8f 39 e3 ec 34 39 a0 01 e4 39
       6.791216e-05 0.00027397854 0.00017254385 0.0004348876
000010 2b ab 5f 39 bf 9a 82 38 66 2f d2 39 f8 39 cd 37
       0.00021330702 6.227707e-05 0.00040089636 2.4464898e-05
000020 9d d7 a2 37 09 a6 26 38 b9 8e ee 37 24 1a c5 39
       1.9412308e-05 3.9732116e-05 2.8438271e-05 0.00037594244
000030 5b f6 8c 39 49 30 8a 39 67 7c 0d 38 7c 4b ab 36
       0.0002688643 0.00026357386 3.373288e-05 5.1049847e-06
000040 b4 9b 68 37 8b f6 36 36 29 07 91 39 74 cd 72 39
       1.386453e-05 2.726362e-06 0.0002766189 0.00023155456
000050 9d 1f 1e 38 8c e2 7e 38 61 a9 a0 39 ab 42 db 37
       3.7699578e-05 6.0769307e-05 0.00030643775 2.613788e-05
000060 48 54 2d 37 e5 63 59 39 c7 be 6a 37 fd a3 76 36
       1.0331227e-05 0.00020731946 1.3991906e-05 3.675231e-06
000070 e7 6f 93 39 fa 8c f3 38 e9 54 b1 39 fd 82 b3 38
       0.000281214 0.00011613402 0.00033823334 8.5597836e-05
000080 af bc 32 39 d2 df 29 38 06 86 19 39 da 04 25 3a
       0.00017045693 4.050119e-05 0.00014641145 0.00062949734
000090 62 8d 8c 37 34 a1 0b 38 32 bf bd 39 24 c4 a3 38
       1.6755137e-05 3.3290315e-05 0.0003619134 7.80898e-05
0000a0 fe 13 06 39 e1 aa d5 38 0a ea 93 38 ed df e0 38
       0.00012786684 0.0001018846 7.0530994e-05 0.00010722862
0000b0 77 5b 3e 3a 2e 13 85 38 97 f1 a3 36 dd 6c 84 38
       0.0007261554 6.345507e-05 4.8859033e-06 6.314528e-05
0000c0 a8 3b 60 39 dd ec 59 39 87 a9 40 37 2d 54 b3 38
       0.00021384528 0.00020782971 1.1483563e-05 8.551064e-05
0000d0 31 5a 2b 39 41 37 7c 39 f3 78 b0 36 56 22 46 38
       0.0001634143 0.00024053176 5.259289e-06 4.7238856e-05
0000e0 8a d5 5c 38 9d 63 be 37 22 a9 8c 36 64 19 a5 38
       5.265096e-05 2.2696151e-05 4.192015e-06 7.8725425e-05
0000f0 c5 a7 40 35 04 2a 33 37 52 a4 62 39 1b 64 a9 38
       7.176971e-07 1.0679014e-05 0.00021614254 8.077194e-05

exp_avg f4 [2, 64]
000000 f2 4c 8f 3b 09 29 9c 3b 43 db 05 3c 80 4e 97 3b
       0.0043731863 0.004765634 0.008169952 0.004617512
000010 a7 11 a9 39 6f a3 71 ba fa 57 aa 3b 48 56 13 ba
       0.00032247344 -0.0009217774 0.005198476 -0.0005620462
000020 6b 32 e0 ba 1a f5 27 3b 68 35 2f bb 03 65 b1 3b
       -0.001710487 0.002562827 -0.0026734713 0.005413653
000030 dd 83 af 3a 12 ec b4 3b 0a 00 d0 39 9d 99 64 ba
       0.0013390739 0.005521306 0.0003967288 -0.00087204
000040 f0 5f de 3b 4e 42 46 38 49 0b 96 3a b5 71 b4 3b
       0.006786339 4.726863e-05 0.0011447455 0.005506719
000050 20 5d e5 3b 35 66 c8 3b c0 96 27 bb 92 c6 06 ba
       0.0069996268 0.0061156997 -0.0025572032 -0.00051412836
000060 f2 cc 37 bb 3c 7c 98 3b 5c 76 52 3a 5d 88 8d ba
       -0.002804574 0.0046534818 0.0008028501 -0.0010798086
000070 9a 83 51 3b 23 3f 55 3c e7 91 c1 ba 3b f7 f9 3a
       0.003196931 0.013015541 -0.0014768214 0.0019070873
000080 5d b3 70 3a 38 e7 81 b9 14 b5 d5 ba 5c cd a9 3b
       0.00091820006 -0.0002477707 -0.0016304576 0.0051819514
000090 7e 60 81 3b e4 63 ef 3a d1 f7 b8 3b 1c f0 40 3c
       0.0039482703 0.0018264023 0.0056447764 0.011775997
0000a0 7b b1 3a 3c 70 4d 87 3b 13 1d 71 3b 15 e6 34 b9
       0.011394854 0.0041291043 0.0036791011 -0.0001725185
0000b0 4e 5e b1 bb 29 52 dc ba a3 dc c3 3b 9f 36 b0 3b
       -0.0054128533 -0.0016809154 0.0059772297 0.005377605
0000c0 42 da c8 b9 ae a4 dc 3b d7 08 3f 3b 42 1d dd 3b
       -0.00038309587 0.0067334985 0.0029149556 0.0067478726
0000d0 b6 e6 88 ba 3d d0 54 39 bf 47 04 ba d8 31 9f 3a
       -0.0010444734 0.0002029547 -0.00050460914 0.0012145592
0000e0 08 31 81 3a a0 21 aa 3b c4 e8 42 3b 45 da 9c 3b
       0.0009856531 0.0051919967 0.002974079 0.004786762
0000f0 eb 78 1f 3b a5 7a b0 ba 46 bd d4 ba bf 4b 22 3b
       0.0024333547 -0.0013464285 -0.0016230724 0.0024764386
000100 f1 4c 8f bb 0a 29 9c bb 44 db 05 bc 81 4e 97 bb
       -0.004373186 -0.0047656344 -0.008169953 -0.0046175127
000110 95 11 a9 b9 70 a3 71 3a fa 57 aa bb 48 56 13 3a
       -0.00032247292 0.00092177745 -0.005198476 0.0005620462
000120 6a 32 e0 3a 17 f5 27 bb 65 35 2f 3b 05 65 b1 bb
       0.0017104868 -0.0025628263 0.0026734706 -0.005413654
000130 e1 83 af ba 14 ec b4 bb 07 00 d0 b9 a2 99 64 3a
       -0.0013390743 -0.005521307 -0.00039672872 0.0008720403
000140 f2 5f de bb 97 41 46 b8 4a 0b 96 ba b7 71 b4 bb
       -0.00678634 -4.7267964e-05 -0.0011447456 -0.00550672
000150 23 5d e5 bb 37 66 c8 bb bf 96 27 3b 8e c6 06 3a
       -0.006999628 -0.0061157006 0.002557203 0.0005141281
000160 ee cc 37 3b 3c 7c 98 bb 59 76 52 ba 5e 88 8d 3a
       0.0028045732 -0.0046534818 -0.00080284994 0.0010798087
000170 9c 83 51 bb 26 3f 55 bc e5 91 c1 3a 46 f7 f9 ba
       -0.0031969314 -0.013015544 0.0014768211 -0.0019070886
000180 61 b3 70 ba 38 e7 81 39 17 b5 d5 3a 5c cd a9 bb
       -0.0009182003 0.0002477707 0.0016304579 -0.0051819514
000190 7f 60 81 bb de 63 ef ba d6 f7 b8 bb 1c f0 40 bc
       -0.003948271 -0.0018264016 -0.0056447787 -0.011775997
0001a0 7c b1 3a bc 71 4d 87 bb 1b 1d 71 bb d6 e5 34 39
       -0.011394855 -0.004129105 -0.003679103 0.00017251758
0001b0 4f 5e b1 3b 21 52 dc 3a a3 dc c3 bb a1 36 b0 bb
       0.005412854 0.0016809144 -0.0059772297 -0.005377606
0001c0 3f da c8 39 ae a4 dc bb d7 08 3f bb 3d 1d dd bb
       0.0003830958 -0.0067334985 -0.0029149556 -0.0067478702
0001d0 b7 e6 88 3a 41 d0 54 b9 bf 47 04 3a d9 31 9f ba
       0.0010444735 -0.00020295476 0.00050460914 -0.0012145593
0001e0 0d 31 81 ba a0 21 aa bb c2 e8 42 bb 49 da 9c bb
       -0.0009856537 -0.0051919967 -0.0029740785 -0.004786764
0001f0 e9 78 1f bb b1 7a b0 3a 46 bd d4 3a bc 4b 22 bb
       -0.0024333543 0.0013464299 0.0016230724 -0.002476438

exp_avg_sq f4 [2, 64]
000000 bc 73 de 39 e9 1b 3a 3a ae a3 8f 3a d1 98 0c 3a
       0.00042429368 0.0007099496 0.0010958815 0.00053633476
000010 1d 3f 46 39 11 bf 10 37 5d e2 9f 39 1c 66 12 37
       0.00018906263 8.627555e-06 0.00030495497 8.726052e-06
000020 bd 6d f8 37 5a d2 02 3a 74 d5 a5 38 10 85 e6 39
       2.9615005e-05 0.0004990451 7.907572e-05 0.00043968158
000030 5d 36 47 39 ad 8a 9c 39 1c 34 c2 36 74 47 ef 37
       0.00018998371 0.0002985796 5.787717e-06 2.8524293e-05
000040 ff cb d3 39 1a c2 cb 39 f4 a8 41 39 fc 2f 88 39
       0.00040397045 0.00038863794 0.00018468854 0.00025975693
000050 5a 95 2a 3a 92 10 c6 39 df f7 ac 39 45 8e 05 37
       0.00065072405 0.0003777785 0.00032991075 7.9605425e-06
000060 7f df 9c 38 95 59 eb 39 24 85 85 37 87 3d 7e 38
       7.480289e-05 0.00044889437 1.5916834e-05 6.061562e-05
000070 0b c6 25 39 3d 5a ba 3a 02 bb 86 39 e9 43 22 39
       0.00015809403 0.0014217567 0.00025697803 0.00015474822
000080 61 1f 2f 39 b0 10 84 37 e6 0e b1 39 a8 08 89 39
       0.0001670099 1.5743397e-05 0.0003377117 0.00026137126
000090 f7 ed c5 39 fb 65 84 38 78 7a b1 39 05 e6 ac 3a
       0.00037752066 6.313246e-05 0.00033851317 0.001319111
0000a0 50 16 8b 3a 24 4d f8 39 0f 8b 1f 3a f3 66 0c 39
       0.0010611508 0.0004735972 0.000608609 0.00013389792
0000b0 de ca 6d 3a db 25 e0 39 f7 ef 94 39 69 c1 06 3a
       0.0009071062 0.00042752814 0.00028407548 0.00051405147
0000c0 24 87 ee 38 84 26 7e 3a 37 85 54 38 c1 48 4c 3a
       0.00011373896 0.00096950703 5.0668805e-05 0.00077928236
0000d0 55 4a 0d 3a 33 52 00 38 3b 46 15 38 8f c1 ec 39
       0.00053897995 3.0594132e-05 3.5589776e-05 0.0004515764
0000e0 a1 4c 9c 39 2c 97 7a 39 d1 62 f8 39 68 73 a7 3a
       0.00029811732 0.00023898174 0.0004737587 0.0012775483
0000f0 74 1f d0 38 00 95 b5 39 ca 79 2e 38 0b af 7f 39
       9.9240715e-05 0.00034634024 4.1598258e-05 0.00024383904
000100 b8 73 de 39 ea 1b 3a 3a ae a3 8f 3a d2 98 0c 3a
       0.00042429357 0.00070994964 0.0010958815 0.0005363348
000110 1d 3f 46 39 13 bf 10 37 5b e2 9f 39 1e 66 12 37
       0.00018906263 8.627557e-06 0.0003049549 8.726054e-06
000120 bd 6d f8 37 5c d2 02 3a 74 d5 a5 38 10 85 e6 39
       2.9615005e-05 0.00049904524 7.907572e-05 0.00043968158
000130 5e 36 47 39 af 8a 9c 39 1d 34 c2 36 72 47 ef 37
       0.00018998372 0.00029857966 5.7877173e-06 2.852429e-05
000140 00 cc d3 39 19 c2 cb 39 f4 a8 41 39 fd 2f 88 39
       0.00040397048 0.0003886379 0.00018468854 0.00025975695
000150 5b 95 2a 3a 92 10 c6 39 e1 f7 ac 39 45 8e 05 37
       0.0006507241 0.0003777785 0.0003299108 7.9605425e-06
000160 7e df 9c 38 92 59 eb 39 23 85 85 37 89 3d 7e 38
       7.480288e-05 0.00044889428 1.5916832e-05 6.0615628e-05
000170 0b c6 25 39 3e 5a ba 3a 04 bb 86 39 ea 43 22 39
       0.00015809403 0.0014217568 0.0002569781 0.00015474824
000180 61 1f 2f 39 b0 10 84 37 e7 0e b1 39 a8 08 89 39
       0.0001670099 1.5743397e-05 0.00033771174 0.00026137126
000190 f7 ed c5 39 fc 65 84 38 79 7a b1 39 07 e6 ac 3a
       0.00037752066 6.3132466e-05 0.0003385132 0.0013191112
0001a0 50 16 8b 3a 23 4d f8 39 0e 8b 1f 3a f1 66 0c 39
       0.0010611508 0.00047359717 0.00060860894 0.00013389789
0001b0 de ca 6d 3a db 25 e0 39 f7 ef 94 39 69 c1 06 3a
       0.0009071062 0.00042752814 0.00028407548 0.00051405147
0001c0 23 87 ee 38 85 26 7e 3a 37 85 54 38 c2 48 4c 3a
       0.000113738955 0.0009695071 5.0668805e-05 0.0007792824
0001d0 53 4a 0d 3a 32 52 00 38 3e 46 15 38 91 c1 ec 39
       0.00053897983 3.059413e-05 3.5589786e-05 0.00045157646
0001e0 a0 4c 9c 39 2d 97 7a 39 d1 62 f8 39 68 73 a7 3a
       0.0002981173 0.00023898175 0.0004737587 0.0012775483
0001f0 73 1f d0 38 05 95 b5 39 cb 79 2e 38 09 af 7f 39
       9.924071e-05 0.00034634038 4.159826e-05 0.00024383901

exp_avg f4 [2]
000000 76 8a e5 3b 7a 8a e5 bb
       0.007005031 -0.007005033

exp_avg_sq f4 [2]
000000 e8 a1 e2 3a e7 a1 e2 3a
       0.0017290683 0.0017290682

exp_avg f4 [1, 64]
000000 2e 18 3a ba 5b 1c 73 3b ad fa a5 3b 74 fd 64 3b
       -0.000709894 0.0037095759 0.0050652833 0.003494111
000010 89 ca aa b7 56 32 ea 39 fd d7 97 3b d3 65 a7 39
       -2.0359892e-05 0.0004466946 0.004633902 0.00031928587
000020 b2 99 b0 b9 a0 a0 1f bb 4f 49 6c 39 df 52 99 3b
       -0.00033683848 -0.0024357215 0.00022534023 0.0046790685
000030 c5 f5 20 3b 1b 24 89 3b 2f 71 06 39 37 e4 ad b9
       0.0024560553 0.0041852123 0.000128214 -0.00033167165
000040 2c cc 82 3b 7f 28 06 bb da 58 9b 3a ad 64 3a 3b
       0.0039916243 -0.0020470915 0.0011852041 0.0028441355
000050 95 8c f9 3b ac 2e f0 3a 2a ed 03 3b be ec b6 38
       0.0076156356 0.0018324456 0.0020130374 8.722533e-05
000060 60 3c 2a 3b fe e1 7a 3b 66 41 91 b9 50 e8 22 ba
       0.0025975928 0.0038281674 -0.0002770528 -0.0006214427
000070 d9 01 5f 3b 9b 2f 2f 3c ce bf be 39 04 5d 04 3b
       0.00340282 0.010692502 0.0003638253 0.0020197043
000080 69 b2 27 3a fd 84 f1 a4 e1 b1 d7 ba 99 bf 88 3b
       0.00063971296 -1.0474238e-16 -0.001645621 0.004173231
000090 eb 91 85 3b b5 b3 13 ba 66 f6 a6 3b 53 8b 1c 3c
       0.0040762327 -0.00056343834 0.005095291 0.009554702
0000a0 77 b0 0b 3c f2 19 5d 3a 19 32 41 3b 0c 1f 18 ba
       0.008525959 0.0008434347 0.0029479323 -0.0005802966
0000b0 ba df 11 bb 7e 83 9a 3b ac 26 d4 3b d6 e2 bf 3b
       -0.0022258596 0.004715382 0.0064743366 0.0058558984
0000c0 e7 0f ee b9 10 dd 9f 3b 93 32 2c 3b 49 16 19 bb
       -0.00045406746 0.0048786476 0.0026275262 -0.002335923
0000d0 f8 a0 b1 ba 43 0d ad 3a ca bd 9c 39 89 9e ff 3a
       -0.0013552001 0.0013202805 0.00029896043 0.0019502203
0000e0 a1 ab e6 ba 3c c1 94 3b 2f 22 1d bb b8 2a 95 3b
       -0.0017598757 0.004539637 -0.0023976674 0.0045522116
0000f0 62 f3 50 ba 08 90 e5 ba 1b 39 2d ba ef 0c 82 ba
       -0.0007970837 -0.0017514238 -0.00066079356 -0.0009922067

exp_avg_sq f4 [1, 64]
000000 bf 99 f0 39 38 bd 4b 3a c0 32 97 3a 0e dc 17 3a
       0.00045890917 0.0007772031 0.001153551 0.00057929836
000010 a4 ef 86 39 d2 34 04 37 62 0a d2 39 e6 b4 2d 37
       0.00025737018 7.880111e-06 0.00040062057 1.0353722e-05
000020 54 b6 df 37 60 c3 0b 3a b0 da 4b 38 0b ed e9 39
       2.6668575e-05 0.00053315423 4.860264e-05 0.00044617834
000030 91 51 a0 39 a3 2e b0 39 e3 55 88 36 60 2e fa 37
       0.0003057835 0.00033604083 4.0631144e-06 2.9823917e-05
000040 ea 70 a4 39 45 a1 b3 39 97 df 91 39 e9 db a5 39
       0.00031364645 0.00034261696 0.00027823143 0.00031635098
000050 9b ca 39 3a 80 9b da 39 dd fa f7 39 c7 5b 8c 36
       0.00070873805 0.00041696057 0.0004729842 4.1830094e-06
000060 0e 8a bb 38 ec 87 f7 39 03 7c 6b 37 70 e5 6c 38
       8.9425695e-05 0.0004721278 1.4035965e-05 5.6480465e-05
000070 89 6c 62 39 04 f6 ab 3a 2e 0d b4 39 b1 de 71 39
       0.00021593472 0.0013119583 0.00034342095 0.0002306651
000080 3a 14 87 39 6c 79 95 37 54 3f d3 39 6a d4 ac 39
       0.00025764277 1.7818726e-05 0.0004029224 0.00032964657
000090 10 2c 92 39 d1 d6 56 38 ed ee bf 39 c8 6e a6 3a
       0.0002788012 5.122164e-05 0.00036608372 0.001269781
0000a0 ef d4 85 3a bd cb 00 3a ac d3 21 3a 5f ab 71 39
       0.0010210554 0.0004913172 0.0006173204 0.00023047392
0000b0 a9 0a 77 3a ca de eb 39 b4 f6 79 39 bf 6f 0b 3a
       0.0009423891 0.00044988684 0.00023838395 0.00053190807
0000c0 af c8 3d 39 c9 3a 85 3a 09 60 36 38 c0 d8 52 3a
       0.00018099205 0.0010164614 4.348162e-05 0.00080431625
0000d0 69 6c 2c 3a a7 f4 27 38 d9 ca 18 38 7c 67 19 3a
       0.00065774337 4.0043753e-05 3.642854e-05 0.0005851907
0000e0 35 7c bf 39 07 26 50 39 c6 10 cb 39 71 21 95 3a
       0.000365229 0.00019850592 0.00038731674 0.0011377764
0000f0 c7 5d c3 38 e3 c3 9b 39 ad 28 81 38 b7 fe 98 39
       9.315792e-05 0.0002970985 6.158776e-05 0.00029181477
