savedModels/ppo_cartpole_56320.pth (torch, 13659 bytes, 15 tensors)

shared_fc.0.weight f4 [64, 4]
000000 66 28 ca bc 0f 5c f1 3e 11 86 96 3d a9 ba eb be
       -0.024677467 0.47140548 0.0734979 -0.46040848
000010 f0 0b b9 bd 18 aa 4a be c7 d9 03 bf 6e 6a 57 be
       -0.0903548 -0.19791448 -0.51504177 -0.21036693
000020 c0 9c c9 3c 39 dd a4 be 59 a5 77 be f7 6a f0 be
       0.024610877 -0.3220003 -0.24184169 -0.46956608
000030 c0 1a 7d bd 0e 4e 05 be 57 0f b0 be 78 04 81 be
       -0.06179309 -0.13018057 -0.34386703 -0.25198722
000040 15 01 d4 3d 12 55 de 3d 6b fe 1e bf 73 6d a7 be
       0.10351769 0.108560696 -0.6210696 -0.3270069
000050 d3 09 3e be 34 f0 38 bd 94 d2 8b be c3 ee 07 3d
       -0.18558435 -0.04515095 -0.27309096 0.033186685
000060 01 97 c0 bd 06 70 d8 3d fe 20 99 3e ea 56 ba 3e
       -0.09403802 0.10568242 0.29907984 0.36394435
000070 94 d3 a3 be dd 6c 12 be bd 0a ce bd 41 bd 18 be
       -0.3199736 -0.1429934 -0.10060642 -0.14915945
000080 8b a6 e1 3e c9 00 df 3b 7b 09 be be 2f 0f de bd
       0.44072375 0.0068055135 -0.37116608 -0.1084274
000090 8f 30 3b 3e b9 8b fc 3d 7c bd 4c 3e 18 d9 b3 be
       0.18280242 0.123313375 0.19994158 -0.35126567
0000a0 9c f0 06 3f fa 9b 64 be 64 b8 b1 be 76 6e a9 be
       0.5271089 -0.22325125 -0.3471099 -0.33092088
0000b0 0c 13 07 3d 99 21 84 be 21 4b c0 bd 23 3a 0d 3e
       0.03297715 -0.25806883 -0.0938933 0.13791709
0000c0 70 f1 9c 3c 1b ce ff bd 89 fd 4d 3d 78 9d 9b 3e
       0.019158095 -0.124904834 0.050290618 0.30393577
0000d0 1d 23 9d bd dd d5 09 be a8 01 9e 3c 26 9b f4 3d
       -0.07672713 -0.13460489 0.0192879 0.11943655
0000e0 46 b8 ab be 53 31 a9 3c 48 d5 66 3e 86 ce 0f 3e
       -0.33539027 0.020653402 0.22542298 0.14043626
0000f0 c4 cf 9a 3e d0 c6 30 3e 6b b1 b7 bc e9 af 36 3e
       0.30236638 0.17263341 -0.022423467 0.17840542
000100 ed cf 79 be c1 13 ab be e8 7a 41 be 81 6f 7a be
       -0.24395724 -0.3341351 -0.18894541 -0.24456598
000110 fd dc 9a 3e 1e 67 e9 3c 6c 67 2a be 38 3a 9d 3e
       0.30246726 0.028491553 -0.16641015 0.3070848
000120 97 08 77 3d 18 f6 a8 3a 7e 42 6d be 58 93 b9 be
       0.060310926 0.0012890724 -0.23169896 -0.36245227
000130 25 90 8b bd ac 85 8f 3e e3 4c 10 3d 8f 36 84 bc
       -0.06814603 0.2803167 0.035229575 -0.016139297
000140 cf 24 e2 3c 45 7e d1 be cf bb 83 3c 2e 83 ed 3e
       0.027605442 -0.40916649 0.016080765 0.46389145
000150 12 4e dc bd 8f 96 83 3e 61 67 85 3e 92 f9 8f be
       -0.10757078 0.25700805 0.26055434 -0.28120095
000160 3b 2a 0f 3d 94 d2 48 bd ee cc 11 3e ac d5 0b 3f
       0.034952383 -0.049028948 0.1423833 0.5462291
000170 c9 1e 38 be 02 10 1e be 48 2f 1d be 92 01 2b be
       -0.17980494 -0.15435794 -0.15350068 -0.16699818
000180 50 91 df 3e 35 fa 0b 3e 02 41 0b bf b5 e0 56 3e
       0.43665552 0.13669665 -0.5439607 0.20984156
000190 f4 51 99 3d e2 a8 c0 be 6c 3c d5 bd 07 a2 a0 3c
       0.074863344 -0.37628847 -0.10411915 0.01960851
0001a0 39 27 3b 3e 51 3d 3d 3e 37 67 fb 3d 94 b7 3d 3e
       0.18276681 0.18480422 0.12275546 0.18527061
0001b0 85 fe c0 3e 4b 3c 03 3e c4 65 c9 3d c4 33 0d 3e
       0.37694183 0.12815969 0.098338634 0.13789278
0001c0 eb 0b 36 bd 6b 92 45 bd df 1c a2 3d c2 22 54 3e
       -0.04444496 -0.04823534 0.07915663 0.20716384
0001d0 90 14 c7 bc 57 4d d3 be 53 09 ad 3e 71 5d b1 3e
       -0.024301797 -0.41269943 0.33796176 0.34641603
0001e0 4f d4 4c 3e 68 5b 0f be e0 f3 b3 3e 4f 71 7f 3e
       0.20002864 -0.13999712 0.35147 0.24945568
0001f0 ff d3 b7 3d 72 fe b0 be 86 f3 cc 3c 41 f2 32 3e
       0.08975982 -0.34569126 0.025018465 0.17475225
000200 6d 06 c5 3d 05 1b bb 3d 06 89 98 be 24 3a b2 be
       0.09620366 0.09136013 -0.2979204 -0.34809983
000210 74 87 98 bd d1 20 a6 be 88 e2 ec bc 76 81 ae be
       -0.07447711 -0.32446912 -0.028916612 -0.34083146
000220 c7 d1 97 3e a3 cc bd bc f4 eb 41 be 59 d6 32 be
       0.29652235 -0.023168867 -0.18937665 -0.1746458
000230 e6 5e 03 be 95 84 6b 3c 72 10 8c 3e 77 e2 97 3e
       -0.1282917 0.014374872 0.27356297 0.29664966
000240 11 ec 0e bf 20 58 e7 bd c2 43 70 3e 0d bb 7b bd
       -0.5582896 -0.112961054 0.23463348 -0.061457682
000250 ea 0c 24 3d 7a b4 98 3e 6e 7d b3 3d dc e3 9a 3e
       0.04005138 0.29825193 0.08764158 0.30251968
000260 96 bf 32 3a 3e 2f 49 be 6c b3 2c 3e 1a 9a 08 3e
       0.00068187097 -0.19646928 0.16865319 0.13340035
000270 77 d5 46 be 0c 26 ea bd 83 5f 1f be 7e 47 d5 3e
       -0.19417368 -0.11433038 -0.15563779 0.41656107
000280 f8 50 ef bd 97 a6 3d be d6 b9 3b 3e 34 fe 1e 3e
       -0.116853654 -0.1852058 0.1833261 0.15526658
000290 2e 91 04 be a8 b4 15 3f 1a e7 24 bc 60 86 de be
       -0.12946007 0.58478785 -0.0100648645 -0.43461895
0002a0 42 80 48 be e5 4a ac 3e fc 0a fb bd ed c8 8e be
       -0.19580176 0.3365089 -0.122579545 -0.2788767
0002b0 e6 ff 2d 3e e0 8b bf 3d 16 0a bf 3d ee e9 83 be
       0.16992149 0.09352851 0.093280956 -0.25764412
0002c0 93 9f ad 3e 84 be f5 bd c2 06 0a 3c af 38 85 3e
       0.33910808 -0.119992286 0.008424463 0.2601981
0002d0 e9 81 70 3e c9 ad 0b bf 89 cf 85 3e ee 02 90 3e
       0.23487057 -0.5456205 0.261349 0.28127235
0002e0 75 4a b8 3b a5 7b c3 be 65 74 ea 3e cd b2 bc 3e
       0.0056241103 -0.3818027 0.45791927 0.36855164
0002f0 f4 2e 13 3e 82 1b 02 bf 16 c7 08 3e fa 9d 0b 3e
       0.1437338 -0.50823224 0.13357195 0.13634482
000300 c1 fc 85 3e 01 67 29 bc eb 6d 17 3e cc 05 10 be
       0.26169398 -0.010339499 0.14788024 -0.14064711
000310 62 02 bf bd 33 4d 69 be f4 14 83 be f1 1e b7 be
       -0.09326626 -0.22783355 -0.25601923 -0.35765794
000320 55 e2 b1 be 3e ba c0 3c 77 f9 ae 3e b5 42 41 3e
       -0.3474299 0.023526307 0.34174702 0.18873103
000330 fc 18 cf 3d d7 72 ea 3e 1c 49 81 3c 32 24 3d bf
       0.10112187 0.4579074 0.015781932 -0.73883355
000340 9a ed 94 3e ca 4c 00 3c 86 c8 41 3e 47 61 96 3e
       0.29087526 0.007830808 0.1892415 0.29371092
000350 b4 52 8b 3e e4 a6 f6 3d a2 26 2d 3e b3 15 02 3e
       0.27211535 0.120435506 0.16909268 0.1270359
000360 ea 55 33 3e d1 28 93 bc 96 ec d1 be 65 54 63 be
       0.17513242 -0.017963799 -0.41000813 -0.22200163
000370 60 e7 c4 bc ee 93 60 3e 24 73 2c bd 9f f9 34 bf
       -0.02403611 0.2193143 -0.042101994 -0.7069339
000380 95 bd 4c 3e f9 c5 ac 3d 58 30 0d 3d fa b5 8c be
       0.19994195 0.08436198 0.034469932 -0.27482587
000390 48 a0 d6 be 12 c6 cc 3d 2e 6a fe 3d 4f 9e 9a 3e
       -0.4191916 0.099987164 0.12422596 0.30198905
0003a0 20 7c 74 3d 51 c4 a9 3e 59 c7 88 bd 9b 5e a0 be
       0.059688687 0.3315759 -0.066786475 -0.31322178
0003b0 64 a5 9d be 9d 48 ac 3e 40 f8 9b bd f1 26 f7 be
       -0.30790246 0.3364915 -0.07615709 -0.48271897
0003c0 10 e7 7d 3c 08 55 9a 3e 3b d8 b0 3c 31 03 92 be
       0.015496984 0.30143 0.021587482 -0.2851806
0003d0 39 4f 15 3f 05 9d ae 3d f6 fe 4c 3e f8 96 db 3d
       0.5832401 0.08526043 0.20019135 0.107221544
0003e0 12 dc 74 be f0 fa 0f be 19 68 b6 be ae a9 29 be
       -0.23912075 -0.14060569 -0.35626295 -0.16568634
0003f0 7b 79 91 3d 37 a7 46 3e fb ed b9 bd 28 09 ad be
       0.07103249 0.19399725 -0.09078594 -0.33796048

shared_fc.0.bias f4 [64]
000000 e2 31 39 3f b0 3f 47 3f 5b 8d 48 3f d4 70 31 3f
       0.7234174 0.77831554 0.7834069 0.6931279
000010 00 2a 37 3f 08 4e 4b 3f 11 3d 39 3f 8e ab 87 bd
       0.7154846 0.7941594 0.72358805 -0.06624518
000020 3a f3 82 bd 29 8f 4d 3f 2d 22 89 bd a8 a9 2b 3f
       -0.06394048 0.8029657 -0.06695972 0.6705575
000030 da 10 4d 3f 26 4e 36 3f 86 4c 39 bd 3e 4c 46 bd
       0.8010384 0.71212995 -0.045238994 -0.048412554
000040 d3 eb a1 bd 32 f2 4a 3f f2 20 35 3f c9 d4 46 3f
       -0.07906308 0.7927581 0.70753396 0.77668434
000050 10 e6 55 3f a9 6e 53 3f 23 bb 2e 3f 3f a6 6c bd
       0.8355417 0.8259073 0.682543 -0.057775732
000060 7e 55 02 be 10 80 36 3f e6 b8 29 bd b5 b8 3d bd
       -0.12727925 0.7128916 -0.0414361 -0.04631873
000070 de 71 4b 3f 7c d9 3a 3f 51 49 32 3f f5 27 51 3f
       0.7947062 0.72988105 0.6964312 0.81701595
000080 6b 2b 3f 3f 30 7f cb bd 45 07 4b 3f 7f e1 2b 3f
       0.74675626 -0.099363685 0.7930797 0.67140955
000090 1b 67 d5 bd de 88 4d bd da 50 2f 3f 8e 80 52 3f
       -0.104200564 -0.050179355 0.68482745 0.8222741
0000a0 f6 59 52 3f a4 40 32 3f 48 bc 52 3f 4a 6f 54 3f
       0.8216852 0.69629884 0.82318544 0.82982314
0000b0 99 7b 21 3f 9d 2a 45 3f ac 1a 4b 3f c9 a8 4b 3f
       0.6307922 0.7701815 0.79337573 0.7955442
0000c0 bc 43 3d 3f 92 9d 4c 3f d2 d0 69 bd be c3 2f 3f
       0.7393148 0.79927933 -0.057083912 0.68658054
0000d0 6e 24 43 3f 77 6b 19 bd c9 1f 35 bd 54 5a 4c 3f
       0.7622746 -0.037456002 -0.044219766 0.7982533
0000e0 9a f8 50 3f d7 17 99 bd c0 8b 22 3f 20 21 3c 3f
       0.81629336 -0.0747525 0.6349449 0.73488045
0000f0 0e fa 55 3f 4f 00 6e bd e8 89 7a bd 3d 10 40 3f
       0.8358468 -0.058105763 -0.061166674 0.7502478

actor_head.weight f4 [2, 64]
000000 21 9d 45 bb 66 97 3b 3e 37 66 51 3e d2 e8 45 3e
       -0.003015347 0.18319473 0.20449148 0.19327095
000010 1c 77 e8 3d b1 96 5d 3d 9c 6a 67 be 3a e7 de 3d
       0.11350843 0.05409879 -0.22599262 0.10883947
000020 59 a3 3a 3d a4 85 99 3c 57 0d 79 3e 2e b4 db bb
       0.045565937 0.018740483 0.24321495 -0.0067048287
000030 87 db f0 bd d6 cc 13 bd f5 be ad bd 6b f3 c4 bd
       -0.117606215 -0.03608402 -0.08483688 -0.09616741
000040 4e ee e1 3d cc 7b e4 bd 5c e6 03 3e eb 59 8a bd
       0.11031781 -0.11156425 0.12880844 -0.06755432
000050 f2 3d 5d bd 35 38 69 ba 79 b5 2c be 0a 84 34 3e
       -0.054014154 -0.000889662 -0.16866101 0.17628494
000060 b5 b4 86 bc 6c 35 55 3d b5 b5 11 be 0c b0 9b bd
       -0.01644359 0.0520529 -0.14229472 -0.07601938
000070 7d a3 11 be 17 35 5b bd 1c 3f 0e be 4d cd 8d bc
       -0.14222522 -0.053517427 -0.13891262 -0.01730981
000080 23 4f cd 3d d0 59 30 3e e9 2b c4 3d c5 2b 4a be
       0.1002486 0.17221761 0.09578688 -0.19743259
000090 8b 87 87 3c cf 96 40 be ac ea 89 bd 67 05 b8 bd
       0.016544124 -0.18807529 -0.06734213 -0.089854054
0000a0 cb 39 92 bd a6 83 81 ba 26 68 25 3d 5c fe 77 3d
       -0.071399294 -0.0009881153 0.040382527 0.06054531
0000b0 fd b4 04 be 69 ce e8 3a 8a bd 4b bd 1f 25 ab 3b
       -0.12959667 0.001776171 -0.049741305 0.005222931
0000c0 5a 5d 53 3d c0 6f 49 3e e7 29 d0 bd fa 29 8e 3d
       0.0516027 0.19671535 -0.10164242 0.069416
0000d0 f8 5b 3a be a7 5f 01 be 17 33 05 3e 82 79 b8 3d
       -0.18199146 -0.12634145 0.1300777 0.09007551
0000e0 a9 bc 35 3d fb 88 e2 bd 3b 3b 53 bc 90 66 74 3d
       0.044369373 -0.11061283 -0.01289254 0.059668124
0000f0 d3 b4 87 3c af 7e a1 bd 5b fb 5f 3e 38 d5 b9 3c
       0.016565716 -0.07885491 0.21873228 0.022684678
000100 98 be f2 3b eb 49 46 be 6b b9 5c be 2d 0f 49 be
       0.0074079745 -0.19364135 -0.21555106 -0.19634695
000110 9a 89 0d be 2f e9 4c bd 80 26 71 3e b4 f6 d7 bd
       -0.13822022 -0.05002707 0.23549843 -0.10545102
000120 4c 89 7b bd 06 17 43 bd 7f 97 4d be 5b 7a 88 bb
       -0.061410233 -0.04762938 -0.20077322 -0.0041649765
000130 d6 5e 03 3e 5b 8f 80 3d 8d 2d 8c 3d d9 cc a8 3d
       0.12829146 0.06277343 0.068446256 0.082421966
000140 ce 63 2f be 6f 9e e0 3d aa 25 10 be ec 71 7a 3d
       -0.17127916 0.10967719 -0.14076868 0.0611438
000150 40 a0 e1 3c 4a 87 95 bc 62 89 38 3e 6a 0d 49 be
       0.027542233 -0.018252987 0.18021157 -0.19634023
000160 08 cc 8f bb 56 77 7f bd eb 37 25 3e c9 70 a7 3d
       -0.004388336 -0.062369667 0.16134612 0.08175809
000170 75 59 dc 3d b5 cb 7f 3d d2 e8 20 3e bc 14 2a 3d
       0.1075925 0.06245013 0.15713814 0.04152368
000180 17 22 db bd 25 f7 2a be 5a c6 a2 bd d2 3a 56 3e
       -0.106998615 -0.1669584 -0.07947989 0.20920876
000190 f2 b1 5c bb 3c 67 32 3e 53 81 66 3d 96 34 a0 3d
       -0.00336754 0.17422193 0.056275677 0.0782253
0001a0 e2 5f 6e 3d 3b bd 4d 3c d4 d7 18 bd 1c 50 8f bd
       0.05819691 0.012557323 -0.037315205 -0.069977015
0001b0 59 ac c8 3d 45 da b0 3c bb c8 10 3d c4 c0 af bb
       0.09798498 0.021588454 0.03534768 -0.0053635556
0001c0 2f ef f1 bc 71 f0 4b be 99 83 d1 3d 8c 1c 3f bd
       -0.029532997 -0.1991594 0.102301784 -0.046658084
0001d0 38 d4 48 3e f6 8c 03 3e df f3 0c be 2a e6 cb bd
       0.19612205 0.12846741 -0.13764904 -0.0995601
0001e0 be 4e 35 bd fe b9 e1 3d 97 0d 7d 3c 7b 84 57 bd
       -0.044264548 0.11021803 0.015445135 -0.052616578
0001f0 b5 8e ac bb 8e d7 a4 3d ff 2e 55 be e3 69 68 bd
       -0.0052660354 0.08048926 -0.20818709 -0.056741606

actor_head.bias f4 [2]
000000 05 95 9e bc 04 95 9e 3c
       -0.019358167 0.019358166

critic_head.weight f4 [1, 64]
000000 27 bd 39 3f be 81 42 3f 0a 13 3e 3f 5f 93 62 3f
       0.7255425 0.7597922 0.742478 0.8850612
000010 87 3d 54 3f 1a b0 4d 3f b0 86 53 3f bd f9 bb be
       0.82906383 0.80346835 0.8262739 -0.36713973
000020 3e 86 db be c3 db 3a 3f 7f 29 a3 be 09 41 70 3f
       -0.42875856 0.7299158 -0.31867597 0.93849236
000030 9a 16 43 3f 44 c8 57 3f 62 17 09 bf b0 ce 8a be
       0.7620636 0.84289956 -0.53551304 -0.27110815
000040 2a 7f 04 be e7 cb 4b 3f b1 e3 58 3f 73 26 49 3f
       -0.12939134 0.79608005 0.8472243 0.78574294
000050 cd 39 2b 3f 6c 33 39 3f 40 bf 61 3f a6 bc 99 be
       0.6688507 0.7234409 0.8818245 -0.3002674
000060 25 83 56 be 30 06 54 3f b8 ae 94 be d8 aa 8c be
       -0.20948465 0.8282194 -0.2903955 -0.27474093
000070 93 a4 4c 3f 6d dd 3b 3f 56 ba 63 3f 2d 12 3e 3f
       0.7993862 0.73384744 0.889562 0.74246484
000080 88 ff 48 3f f1 76 aa be 2a fb 48 3f b6 30 6d 3f
       0.7851491 -0.3329387 0.78508246 0.9265245
000090 8f 11 a2 be 1a c5 81 be 2b 19 68 3f 71 a3 31 3f
       -0.3165402 -0.2534569 0.90663403 0.69390017
0000a0 f3 ea 3b 3f 41 91 3f 3f 2b c3 36 3f 8e 5f 3f 3f
       0.7340538 0.74831015 0.7139155 0.7475518
0000b0 e6 ff 95 3f 6b f0 38 3f 49 f1 1f 3f 60 67 38 3f
       1.1718719 0.7224185 0.62477547 0.7203274
0000c0 e1 fd 57 3f 96 ca 3c 3f b8 9f a3 be 96 d8 34 3f
       0.84371763 0.7374662 -0.31957793 0.70642984
0000d0 5a 08 4f 3f 76 e3 b0 be a2 bc c6 bd f8 f5 2a 3f
       0.8087212 -0.3454854 -0.097039476 0.6678157
0000e0 9f 1c 3e 3f e2 64 a4 be a5 f8 f6 3e 55 ca 3d 3f
       0.7426242 -0.32108217 0.48236576 0.7413686
0000f0 cd 80 34 3f e0 8c 77 be 6b c1 88 be cd be 45 3f
       0.70509034 -0.24174833 -0.26710066 0.77244264

exp_avg f4 [64, 4]
000000 f7 69 24 bc 14 e6 80 bb 54 b4 4a bb ce 87 32 bb
       -0.01003503 -0.0039336774 -0.0030930238 -0.002724159
000010 99 cc 41 bc e4 fb 48 bb 54 d7 41 bb 58 d0 41 bb
       -0.011828565 -0.0030667717 -0.0029577808 -0.0029573645
000020 c4 fa 3f bc 28 6b 3c bb 6d d9 3a bb 84 74 3c bb
       -0.011717502 -0.0028750394 -0.0028510944 -0.0028755972
000030 41 29 5f bc 0f 91 71 bb 03 38 64 bb c1 ab 62 bb
       -0.013620676 -0.0036860143 -0.0034823425 -0.0034587237
000040 65 75 4a bc 96 86 70 bb 73 5c 5b bb f5 0f 57 bb
       -0.012357091 -0.0036701313 -0.0033471852 -0.0032815908
000050 89 dc 3d bc e4 e1 80 bb 3e 97 5b bb db 77 52 bb
       -0.011588224 -0.0039331783 -0.0033506895 -0.0032114896
000060 62 fe 25 bc 2a 33 b0 bb aa 09 7e bb 95 26 63 bb
       -0.01013145 -0.005377193 -0.0038763084 -0.0034660448
000070 e7 d3 86 3b d8 6f d9 3a 95 1d f8 3a 3b df 3b 3b
       0.004114616 0.0016589118 0.0018929715 0.0028666991
000080 8d 32 28 3a be c4 f7 3a dc 15 e6 3a c8 62 a8 3b
       0.0006416224 0.0018903238 0.0017554122 0.005138729
000090 19 f5 22 bc a5 d3 49 bb c0 8a 48 bb 13 19 47 bb
       -0.009946131 -0.0030796316 -0.003060028 -0.0030379936
0000a0 96 b6 83 3a 46 61 e2 3b ba 31 24 3b 89 64 78 3b
       0.0010048922 0.0069085686 0.0025054053 0.003790172
0000b0 ee 3e 57 bc f0 08 a0 bb df 51 83 bb fa 28 78 bb
       -0.013137562 -0.004883878 -0.0040075625 -0.003786622
0000c0 fe 49 22 bc e6 bc 94 bb d6 65 61 bb 4b 26 4e bb
       -0.009905336 -0.00453912 -0.0034392974 -0.003145593
0000d0 30 6f 3c bc 59 31 97 bb b3 b2 70 bb 16 b8 60 bb
       -0.011501119 -0.004614037 -0.0036727607 -0.0034289411
0000e0 99 0d cd 3b 77 04 04 bc 24 11 d9 ba 5b 16 83 bb
       0.0062577245 -0.008057705 -0.0016560894 -0.0040004677
0000f0 5d 28 c0 37 91 ae c2 b7 cd 18 33 b7 00 fb 2a 38
       2.290698e-05 -2.3207891e-05 -1.0675006e-05 4.076492e-05
000100 04 0c 3f 3a 78 2a a6 3a f4 f5 52 3a b9 77 38 3a
       0.0007287862 0.0012677452 0.0008047514 0.0007036883
000110 e6 2c 2b bc f5 8a 98 bb 70 a9 69 bb ce bb 56 bb
       -0.010447716 -0.004655237 -0.003565397 -0.003276575
000120 8b 37 50 bc 2a 0c 77 bb f7 96 5f bb 67 fc 5a bb
       -0.012708555 -0.003769646 -0.0034117082 -0.0033414604
000130 33 bc 2d bc 38 aa 8f bb f5 28 62 bb 6a 35 52 bb
       -0.010603952 -0.0043843053 -0.0034509276 -0.0032075294
000140 15 72 15 bc f7 91 72 bb 6f 8b 3e bb 25 a4 2d bb
       -0.009121438 -0.0037013271 -0.0029074808 -0.0026495543
000150 c1 f4 26 bc 18 ad 73 bb d8 7a 49 bb c5 ff 3e bb
       -0.01019019 -0.003718203 -0.0030743387 -0.002914415
000160 ab 94 38 bc be db b2 bb 46 70 83 bb e8 f5 66 bb
       -0.011265914 -0.005458324 -0.004011187 -0.0035241786
000170 1e 76 33 3b 65 06 fb 3a 3f ec e0 3a 29 fc 16 3b
       0.0027383636 0.0019151686 0.001716025 0.0023038483
000180 2f 77 ca 35 cc 22 b0 b6 b9 e1 5e b5 3f 4e f6 36
       1.508486e-06 -5.2492596e-06 -8.3029914e-07 7.3404804e-06
000190 08 f2 43 bc 5b 4d 84 bb 13 01 62 bb c2 d6 58 bb
       -0.01195956 -0.004037542 -0.0034485504 -0.003308699
0001a0 91 6a 20 36 2c 4b da b6 7a ea 01 b6 c3 a9 fb 36
       2.3903888e-06 -6.5056574e-06 -1.9358981e-06 7.500146e-06
0001b0 e6 4a be 37 f7 e5 ba b7 47 2b 32 b7 58 5d 27 38
       2.2684642e-05 -2.2280014e-05 -1.0619703e-05 3.9902836e-05
0001c0 e6 ac 2a bc 5d 62 9b bb f0 06 6c bb bb 15 58 bb
       -0.010417199 -0.0047419504 -0.0036014877 -0.0032971937
0001d0 89 9d 22 bc 81 14 87 bb 9f 5b 52 bb 2b fb 3e bb
       -0.009925255 -0.0041223173 -0.0032098067 -0.0029141407
0001e0 90 d3 3c bc a5 37 ae bb 8f c1 83 bb e0 cd 70 bb
       -0.01152505 -0.005316692 -0.0040208767 -0.0036743805
0001f0 76 60 27 bc e8 09 83 bb ea a1 52 bb df 73 45 bb
       -0.010215869 -0.0039989837 -0.0032139965 -0.003012888
000200 1e c1 3e bc a5 7b 6b bb 3a 53 51 bb f0 c5 4b bb
       -0.011642722 -0.0035931852 -0.0031940476 -0.0031093322
000210 ae 9e 17 bc 3c bf a5 3b ee 7a 4b 3b 2c 48 86 3b
       -0.009254141 0.0050581973 0.0031048614 0.004097959
000220 8a 9a 3b bc 06 b3 6e bb c8 4c 53 bb 88 ac 4d bb
       -0.011450419 -0.0036422624 -0.003224181 -0.0031383354
000230 97 d5 3f bc 38 0d bd bb d9 ac 8b bb 2f 96 7c bb
       -0.011708639 -0.005769398 -0.0042625484 -0.0038541665
000240 ae 2f 70 3b b8 c7 ec ba 7f 5a b8 b9 b0 90 04 bb
       0.0036649513 -0.0018064892 -0.0003516264 -0.0020227842
000250 e8 66 3a 3c cd b3 29 bb fd 24 94 ba fa 16 db ba
       0.011377074 -0.0025894523 -0.0011302527 -0.0016715222
000260 d8 bb 49 bc 3d eb a3 bb a6 de 81 bb ac 06 72 bb
       -0.012312852 -0.005002408 -0.0039633093 -0.0036930246
000270 3f c5 16 bc 5d 34 83 bb d9 7b 4a bb 21 a1 3a bb
       -0.009202301 -0.004004045 -0.0030896573 -0.0028477388
000280 62 e8 21 bc eb 0d 87 bb 74 ca 53 bb f2 88 44 bb
       -0.009882065 -0.004121532 -0.0032316716 -0.0029988852
000290 b5 f9 29 bc 73 68 46 bb 51 9c 41 bb cd 8c 54 bb
       -0.010374476 -0.003027466 -0.0029542635 -0.0032432557
0002a0 73 ec 27 bc 51 42 67 bb fe d4 43 bb 17 4f 3b bb
       -0.010249245 -0.003528733 -0.0029881592 -0.0028581077
0002b0 4f 28 32 bc e5 6f 6a bb ea 99 4a bb c0 46 43 bb
       -0.010873868 -0.003577226 -0.0030914494 -0.002979681
0002c0 40 24 af bb e0 c8 40 bc 28 5b d9 bb f6 f6 b8 bb
       -0.0053448975 -0.011766642 -0.006633181 -0.0056446744
0002d0 e4 f0 e9 bb 6b 9a a1 bb c2 a5 5e bb 6f f4 27 bb
       -0.007139312 -0.004931738 -0.003397331 -0.0025627872
0002e0 7b 18 0b bc f3 1e 62 bb c2 04 33 bb 67 d1 26 bb
       -0.008489723 -0.003450331 -0.0027316068 -0.0025454403
0002f0 0f d9 25 bc da e2 73 bb 6a fe 48 bb e6 4a 3e bb
       -0.010122552 -0.0037214071 -0.003066922 -0.0029036342
000300 98 9d 45 bc e6 5c 89 bb 00 f1 67 bb 79 9f 5d bb
       -0.012061499 -0.0041919826 -0.003539145 -0.0033816977
000310 3c a6 3d bc 99 71 3e bb 38 a5 3a bb 71 8f 3b bb
       -0.011575278 -0.0029059409 -0.0028479826 -0.0028619433
000320 ce 50 85 3b f6 02 a3 bb 14 8a 87 ba 02 13 1b bb
       0.0040684706 -0.004974718 -0.0010340833 -0.0023662453
000330 d0 5f 23 bc ad bc 58 bb fe e6 39 bb 4b 85 54 bb
       -0.009971574 -0.0033071444 -0.0028366442 -0.0032428082
000340 3d 04 26 bc 76 be a6 bb e8 fa 74 bb ad 05 5d bb
       -0.010132846 -0.0050886227 -0.0037380997 -0.0033725307
000350 a9 9f c0 37 b1 1f e1 b7 5b 24 3a b7 74 4b 3e 38
       2.2962531e-05 -2.6836848e-05 -1.1094929e-05 4.53698e-05
000360 7b 18 ae 39 65 56 ee 3a 5b a0 3d 3a 8f a3 b0 3a
       0.00033206106 0.0018183707 0.00072336727 0.0013476479
000370 7a fd 22 bc fd 92 49 bb 62 e9 30 bb 70 a4 27 bb
       -0.009948129 -0.0030757778 -0.0026994576 -0.002558019
000380 59 b9 2d bc 99 c7 69 bb 0c 4b 4b bb 43 34 44 bb
       -0.010603272 -0.0035671948 -0.0031020073 -0.0029938377
000390 54 63 88 3b a7 5b a2 bb 24 0c 89 ba 73 e8 1b bb
       0.0041622315 -0.0049547735 -0.0010455889 -0.0023789674
0003a0 35 f3 d6 bb dc 2a 29 bb 48 f4 07 bb 85 d1 f4 ba
       -0.0065597543 -0.00258129 -0.0020744968 -0.0018678164
0003b0 18 72 30 bc c5 6b 70 bb 37 df 49 bb ff 55 3e bb
       -0.01076939 -0.003668533 -0.0030803212 -0.0029042957
0003c0 ae f1 1b bc 3e 91 4d bb e9 d7 43 bb 1a 3e 3f bb
       -0.00951807 -0.0031367089 -0.002988333 -0.0029181303
0003d0 36 68 c7 37 6c e3 ac b7 7c 8b 3a b7 0c 19 19 38
       2.3771176e-05 -2.06099e-05 -1.111894e-05 3.650137e-05
0003e0 d5 d6 0b 3b 05 9d ff 3a 67 30 ce 3a 42 4d 00 3b
       0.0021337767 0.0019501752 0.0015730978 0.00195773
0003f0 59 41 2d bc 3d f7 54 bb 1f b8 53 bb b3 0d 52 bb
       -0.010574662 -0.0032495998 -0.003230579 -0.0032051622

exp_avg_sq f4 [64, 4]
000000 c7 47 7c 39 6b ab 8e 39 22 eb 31 37 86 ea c8 38
       0.00024059332 0.00027212067 1.0604768e-05 9.5804266e-05
000010 81 2d b8 39 02 3d e8 39 89 74 65 37 8c 45 f8 38
       0.00035129118 0.00044295943 1.3676597e-05 0.00011838516
000020 cd 09 ae 39 32 a6 db 39 a4 fb 57 37 a2 79 e5 38
       0.00033195168 0.0004189476 1.2873588e-05 0.00010942227
000030 8d 73 00 3a 9c 96 21 3a 3c e9 a0 37 e1 f6 31 39
       0.0004900031 0.0006164105 1.9182095e-05 0.00016972005
000040 69 73 c9 39 2b 3a 07 3a f1 48 89 37 61 32 16 39
       0.00038423695 0.0005158509 1.6365639e-05 0.00014323882
000050 ee 01 cf 39 ab 25 01 3a 93 4a 80 37 0c 5b 0c 39
       0.00039483554 0.00049265724 1.5293515e-05 0.00013385358
000060 0e 00 e0 39 19 e1 0c 3a d3 34 8a 37 7d 53 19 39
       0.0004272465 0.00053741183 1.647548e-05 0.00014622319
000070 36 16 67 38 9a 6f 5e 38 43 aa a7 35 07 e2 2f 37
       5.5095377e-05 5.303286e-05 1.2492022e-06 1.0483439e-05
000080 dd 9f 2a 38 86 6d 1e 38 ad 73 8b 35 e7 53 51 37
       4.0680043e-05 3.7772137e-05 1.0389973e-06 1.2476906e-05
000090 b9 4e 9a 39 fa de d6 39 4a 33 4b 37 a7 f0 df 38
       0.00029431822 0.0004098339 1.2111685e-05 0.000106782936
0000a0 9e 3f ce 37 ef 26 06 38 05 8b 87 35 0b 74 10 37
       2.4586738e-05 3.198435e-05 1.0098744e-06 8.610087e-06
0000b0 dc 6f 0e 3a 23 be 36 3a fc 2c b3 37 37 e7 4d 39
       0.00054335385 0.00069710816 2.135941e-05 0.00019636458
0000c0 5b af b9 39 b1 29 e8 39 30 c3 64 37 62 38 fb 38
       0.000354166 0.0004428155 1.3635305e-05 0.00011979115
0000d0 22 7e e2 39 92 30 0f 3a 42 33 8f 37 71 42 1e 39
       0.00043200055 0.00054622546 1.7070797e-05 0.00015092806
0000e0 cb 35 dc 38 bc 92 b0 38 56 ec 20 36 1e 59 99 37
       0.00010500437 8.4196654e-05 2.3979424e-06 1.828052e-05
0000f0 f5 25 8b 37 e3 72 92 37 4f 6e f3 34 4b 09 8e 36
       1.6587766e-05 1.7458055e-05 4.5342537e-07 4.2330116e-06
000100 f0 ca e9 36 93 42 02 37 18 84 3f 34 e8 24 bb 35
       6.967566e-06 7.764104e-06 1.7836317e-07 1.3943327e-06
000110 6c ee bf 39 97 53 f2 39 96 89 70 37 84 bc 03 39
       0.00036607997 0.00046220116 1.4337149e-05 0.00012563361
000120 61 85 e8 39 a3 41 11 3a f5 d2 90 37 b8 37 1f 39
       0.00044349863 0.00055410917 1.7264372e-05 0.00015184178
000130 65 97 c3 39 3b 2b f6 39 07 fc 73 37 8d 96 05 39
       0.00037306096 0.00046952986 1.4542608e-05 0.00012739953
000140 46 ba 82 39 5c 42 9b 39 ec f8 22 37 15 d7 a9 38
       0.00024934317 0.00029613345 9.713909e-06 8.09861e-05
000150 3d 99 a1 39 b2 be ca 39 e5 7c 4b 37 e4 ae d9 38
       0.00030822484 0.00038670521 1.2128822e-05 0.00010379942
000160 cc d8 00 3a 3a 77 20 3a 04 0f 9b 37 aa ae 25 39
       0.0004915118 0.0006121282 1.8484432e-05 0.00015800694
000170 7d cc 1d 38 65 51 24 38 8c b1 7f 35 be 43 fb 36
       3.762216e-05 3.917645e-05 9.525327e-07 7.488269e-06
000180 1c f9 fb 36 22 5d ea 36 c3 77 d9 33 c9 29 06 36
       7.509383e-06 6.9845855e-06 1.01266345e-07 1.9991878e-06
000190 32 7f d5 39 da ec 02 3a 74 d2 85 37 ff 71 14 39
       0.00040721294 0.00049944 1.5952835e-05 0.00014156847
0001a0 43 42 b4 37 91 fa cc 37 6d 6e 4e 35 2e af d9 36
       2.1488528e-05 2.4435374e-05 7.690167e-07 6.4874976e-06
0001b0 c1 a7 89 37 85 9e 8e 37 2b b8 f3 34 5b a6 83 36
       1.640979e-05 1.7001536e-05 4.5396277e-07 3.9234706e-06
0001c0 27 ca cc 39 08 f6 ff 39 b9 af 7b 37 2a 0c 0a 39
       0.00039060527 0.00048820698 1.50016795e-05 0.00013165237
0001d0 87 2b a0 39 d0 36 b9 39 a1 61 4a 37 8f 70 d6 38
       0.00030550009 0.00035326788 1.2062869e-05 0.00010225281
0001e0 0d f7 00 3a 36 8c 22 3a 0b a0 a0 37 32 75 34 39
       0.0004919626 0.00062007026 1.9148012e-05 0.00017209796
0001f0 31 c5 af 39 9f 20 d9 39 16 26 54 37 78 ad e5 38
       0.0003352552 0.0004141377 1.2645052e-05 0.00010951882
000200 ac 2d bd 39 7f c0 f4 39 34 a9 73 37 f7 30 03 39
       0.00036082917 0.00046682727 1.4523324e-05 0.00012511374
000210 6b a0 56 38 39 b7 71 38 87 45 de 35 bb c1 5f 37
       5.1170977e-05 5.7629517e-05 1.6560524e-06 1.3336942e-05
000220 30 38 ba 39 69 32 ef 39 f3 02 70 37 71 e2 02 39
       0.00035518548 0.0004562319 1.4305801e-05 0.00012482122
000230 bc cb 0f 3a 68 ef 35 3a 27 26 b3 37 93 e4 4b 39
       0.0005485376 0.00069402764 2.1356229e-05 0.00019444739
000240 67 93 11 38 5e 25 f6 37 60 16 26 35 69 dc b8 36
       3.4707973e-05 2.9342886e-05 6.187238e-07 5.5092864e-06
000250 26 3d bc 37 20 6a c0 37 a4 51 5f 35 95 9c ce 36
       2.243982e-05 2.2937602e-05 8.3192776e-07 6.157507e-06
000260 1d 96 07 3a 8f 01 2c 3a 01 86 a7 37 7d 85 3c 39
       0.000517221 0.00065615115 1.9970352e-05 0.00017978805
000270 b6 7d 95 39 68 87 c3 39 17 31 35 37 9c fb c7 38
       0.00028513157 0.00037294184 1.079987e-05 9.535925e-05
000280 08 97 a7 39 61 6c dd 39 b7 de 4f 37 fa 73 e6 38
       0.0003196525 0.00042233153 1.2390016e-05 0.00010988857
000290 86 b9 84 39 49 cb 8b 39 12 dd 38 37 c2 19 d8 38
       0.00025315228 0.00026663605 1.1018727e-05 0.000103044804
0002a0 f2 eb 9c 39 15 5c c4 39 7a 91 45 37 2f 87 d3 38
       0.00029930432 0.0003745264 1.1775986e-05 0.00010086444
0002b0 5d 41 a6 39 c8 33 d4 39 b2 35 58 37 aa a2 e8 38
       0.00031710687 0.0004047437 1.2887105e-05 0.000110929206
0002c0 78 77 57 3a 21 4a 91 3a da e4 12 38 6d 48 ab 39
       0.00082194014 0.0011084714 3.5022247e-05 0.00032669623
0002d0 15 3f 9c 39 6f 6d b0 39 a0 96 44 37 d4 b6 d0 38
       0.00029801638 0.0003365087 1.17175805e-05 9.952267e-05
0002e0 f7 b8 66 39 50 10 88 39 a3 99 09 37 20 0a 8e 38
       0.00022003414 0.00025952095 8.201608e-06 6.7729736e-05
0002f0 dc 8c 98 39 3f 9a b0 39 fb ab 44 37 b6 9c d3 38
       0.00029096648 0.00033684258 1.1722553e-05 0.00010090454
000300 b8 b0 de 39 a4 f4 0c 3a a9 92 8d 37 c5 f4 1a 39
       0.00042474805 0.00053770305 1.6876804e-05 0.00014777768
000310 9d d8 aa 39 7f 50 d8 39 47 40 57 37 db 85 e6 38
       0.00032586316 0.00041258705 1.2829964e-05 0.00010992187
000320 71 69 f3 37 e0 3b bb 37 f9 da 39 35 fe 44 a6 36
       2.9016957e-05 2.2320019e-05 6.923652e-07 4.9552173e-06
000330 da 30 5f 39 cb 02 79 39 66 6e 1d 37 05 9c ae 38
       0.00021285136 0.00023747531 9.383633e-06 8.3260275e-05
000340 29 e0 cb 39 22 b1 00 3a 14 97 7f 37 1b 7a 0d 39
       0.0003888619 0.00049092073 1.523436e-05 0.00013492296
000350 58 f2 f1 37 62 a2 03 38 54 d2 73 35 d0 0a ef 36
       2.8842289e-05 3.1384065e-05 9.083062e-07 7.124014e-06
000360 79 ea da 35 f9 75 df 35 99 30 6e 33 36 41 31 35
       1.6310506e-06 1.6649129e-06 5.5457893e-08 6.603253e-07
000370 94 05 7b 39 0b 68 98 39 f1 f1 20 37 eb 20 9f 38
       0.00023939303 0.00029069217 9.5930745e-06 7.587842e-05
000380 f7 b4 9b 39 11 85 ce 39 47 cd 52 37 e2 c0 e3 38
       0.00029698733 0.00039390524 1.256477e-05 0.00010860131
000390 4a ea 00 38 83 96 dc 37 9e f7 47 35 72 c6 d7 36
       3.0735777e-05 2.6296131e-05 7.449361e-07 6.4306014e-06
0003a0 e6 a3 c9 38 2e 15 e8 38 97 ce 84 36 c6 21 0e 38
       9.614955e-05 0.00011066567 3.957957e-06 3.3886892e-05
0003b0 d3 11 ad 39 3e 30 d0 39 ee 4a 54 37 ea 33 e2 38
       0.0003301041 0.00039708795 1.2653631e-05 0.000107861895
0003c0 6e 25 92 39 31 47 bd 39 ce 27 3a 37 7a 1c ca 38
       0.00027875177 0.0003610193 1.1095732e-05 9.637415e-05
0003d0 52 cd 42 37 44 d0 42 37 8e 5a 96 34 22 7c 22 36
       1.1611106e-05 1.1611792e-05 2.8005564e-07 2.4212136e-06
0003e0 0d bc f7 37 bc d1 ff 37 5c 4c 4a 35 fd d8 b8 36
       2.9532262e-05 3.0496034e-05 7.536198e-07 5.508888e-06
0003f0 30 33 af 39 ed 47 e6 39 46 74 68 37 e5 4e 00 39
       0.0003341674 0.00043922607 1.385535e-05 0.00012236422

exp_avg f4 [64]
000000 8c 70 c2 3c 1c 16 c9 3c 7d 7b c4 3c 0d 36 ea 3c
       0.023735307 0.024546675 0.023984665 0.028590227
000010 4b 54 db 3c 9c c9 d4 3c a6 1a db 3c e1 97 93 bc
       0.026773592 0.025975041 0.026746105 -0.018016757
000020 e6 5e 0c bc f5 73 bf 3c f9 ba 49 bc bf 8a f8 3c
       -0.008567547 0.023370722 -0.012312644 0.030339597
000030 ee 01 ca 3c 7d 52 df 3c 3e a1 14 bb dc bf 45 39
       0.024659123 0.027261013 -0.0022679116 0.00018858857
000040 77 73 c3 bb af f7 d2 3c da 41 e0 3c ce 32 d0 3c
       -0.005964692 0.02575287 0.02737515 0.02541485
000050 ad cd b0 3c 0e a5 bf 3c 4a df e8 3c c1 39 74 bc
       0.021582449 0.023394134 0.028426785 -0.014906348
000060 e3 cf 62 37 b5 50 db 3c 64 6e a3 37 9f d7 43 39
       1.3519052e-05 0.026771883 1.9482519e-05 0.00018676974
000070 69 e4 d3 3c 89 f8 c1 3c b4 bd eb 3c 51 b9 c4 3c
       0.02586575 0.023678081 0.028776981 0.024014147
000080 6a dd cf 3c 9a 03 11 bc 6e 8c cf 3c 18 99 f5 3c
       0.025374133 -0.008850956 0.025335517 0.029980227
000090 71 d1 87 bb 22 fc d5 bb 50 2f f0 3c 17 f1 b7 3c
       -0.0041448404 -0.0065303007 0.029319435 0.022453828
0000a0 9d 8b c2 3c aa 77 bf 3c 21 1a bd 3c 33 f2 c5 3c
       0.023748213 0.02337249 0.023083748 0.024163341
0000b0 05 e2 03 3d a6 31 b2 3c ff 9b a5 3c 97 d3 be 3c
       0.03219797 0.02175219 0.020215986 0.023294253
0000c0 52 67 df 3c d4 2b c3 3c a0 b8 c6 ba 3c 6e b5 3c
       0.027270947 0.02382461 -0.0015161224 0.02214729
0000d0 f5 63 d6 3c e8 0b 46 39 ec 8a 6e bb 01 88 b1 3c
       0.02617071 0.00018887187 -0.0036398722 0.021671297
0000e0 b2 68 c4 3c 0e a6 da ba 6e c7 80 3c a3 d9 c4 3c
       0.023975704 -0.0016681568 0.015720095 0.024029559
0000f0 b3 42 b9 3c fc 1b 4b 39 bd d5 55 bc ff a9 ca 3c
       0.022614812 0.00019370014 -0.013051447 0.024739264

exp_avg_sq f4 [64]
000000 36 a7 d3 3a b6 5c 00 3b ee 56 f1 3a 5a 5a 3b 3b
       0.0016147855 0.001958651 0.0018412748 0.002858779
000010 1a 8f 1c 3b 84 52 0e 3b a7 5d 1d 3b 39 02 96 38
       0.0023889006 0.0021716664 0.002401212 7.1529714e-05
000020 e7 cb 65 38 68 81 e4 3a ab d8 5b 38 fa b1 59 3b
       5.4787753e-05 0.0017433586 5.2415457e-05 0.0033217655
000030 1a 4a ff 3a 06 83 25 3b 29 dc cc 38 c0 3a cc 37
       0.001947704 0.0025255098 9.768486e-05 2.4346053e-05
000040 c2 00 2b 37 22 60 04 3b 73 23 25 3b 4a e2 08 3b
       1.0192571e-05 0.0020198901 0.0025198131 0.0020886832
000050 6e 9b b7 3a d9 34 e0 3a da f4 37 3b 0a 8c 55 38
       0.0014008114 0.0017105594 0.0028069527 5.091358e-05
000060 89 04 0c 37 fe 9e 1e 3b 36 75 27 38 1f 07 ca 37
       8.345706e-06 0.0024203653 3.9925064e-05 2.4083593e-05
000070 18 59 0a 3b 6c 2e eb 3a ac 2b 3a 3b 05 63 ee 3a
       0.0021110233 0.0017942912 0.0028407378 0.0018187469
000080 1d 02 08 3b 62 96 a5 38 12 61 06 3b b0 60 53 3b
       0.0020753213 7.895824e-05 0.0020504636 0.0032253675
000090 c9 19 04 38 90 64 26 38 8d 3c 47 3b 39 43 d1 3a
       3.1495267e-05 3.967114e-05 0.0030401081 0.0015965468
0000a0 39 d0 ed 3a be d8 dc 3a fb 7c d9 3a 2d 06 f0 3a
       0.001814372 0.0016849262 0.0016593033 0.0018312387
0000b0 8d 9e b7 3b 51 68 da 3a 97 88 96 3a 74 4c dd 3a
       0.0056036175 0.0016663169 0.0011484799 0.0016883747
0000c0 ef 43 21 3b 69 2f ef 3a 55 4a d1 37 9f d8 bb 3a
       0.0024607142 0.0018248382 2.4949355e-05 0.0014331526
0000d0 ca 74 11 3b a1 74 48 38 f5 69 62 36 86 d4 b2 3a
       0.0022194856 4.7792335e-05 3.37383e-06 0.0013643659
0000e0 17 33 ec 3a 59 13 f0 37 b4 03 0d 3a 17 a2 ed 3a
       0.0018020597 2.8619239e-05 0.0005379275 0.0018129972
0000f0 2e ad cd 3a a1 ed 87 37 7b e5 26 38 cd 5a 03 3b
       0.001569187 1.6203909e-05 3.9791204e-05 0.0020043135

exp_avg f4 [2, 64]
000000 4f a3 82 3a 17 88 33 ba de d9 9d ba f7 d2 00 ba
       0.0009966883 -0.0006848587 -0.0012043079 -0.0004914249
000010 d7 d3 32 ba fe c0 6b 39 b2 9a 58 3a 75 c8 1f 3a
       -0.0006821728 0.00022483242 0.00082627975 0.0006095239
000020 1a 5d df b6 9c 43 96 b9 cc 96 54 b9 65 dd 4d ba
       -6.6567563e-06 -0.00028660602 -0.00020274072 -0.000785312
000030 55 8e 93 b9 e7 30 9b b8 3d c8 93 3a 11 3f 98 34
       -0.0002814407 -7.400085e-05 0.0011274886 2.8358093e-07
000040 d0 ad 20 b9 c1 c2 7e ba 85 85 06 ba c0 ba 5c 3a
       -0.00015323539 -0.00097183516 -0.00051315903 0.0008420162
000050 c8 fb 7a ba c2 58 83 3a 93 09 96 b6 a8 56 cb 38
       -0.00095742615 0.0010020959 -4.471463e-06 9.695935e-05
000060 a1 c6 37 34 25 65 a2 ba f8 19 28 34 ad 4b dd 34
       1.7115464e-07 -0.0012389763 1.5655667e-07 4.121952e-07
000070 6c bf c1 38 9e 69 19 ba 96 e9 2d ba 15 61 8d ba
       9.238612e-05 -0.0005852225 -0.0006634233 -0.0010786379
000080 c7 b3 f2 b9 36 08 8a b9 4e 4d a1 ba 98 59 33 3a
       -0.00046291781 -0.0002632753 -0.0012306364 0.00068416586
000090 0f f8 d0 3a 61 f2 ef 38 33 a2 b3 b9 ff 59 96 39
       0.0015943068 0.00011441555 -0.00034262388 0.00028677282
0000a0 86 9c 7b 38 0d df c5 3a 8d 11 9a 3a 37 df c2 b9
       5.9988837e-05 0.0015096382 0.0011754498 -0.00037168871
0000b0 6a b5 a2 ba e6 b2 e8 ba 5c 9e 06 ba 18 03 cc ba
       -0.0012413685 -0.0017753511 -0.0005135292 -0.0015564887
0000c0 35 6e 57 ba ba 88 1b ba 18 91 9b 3a e3 d4 9d 39
       -0.0008218021 -0.00059331546 0.0011868803 0.00030103987
0000d0 cd b2 3b ba 57 03 98 34 e2 9d df b8 c7 96 9d 39
       -0.0007160127 2.8314636e-07 -0.000106628766 0.0003005771
0000e0 e6 81 0c ba 0f 9b b6 3a 09 9f c8 39 31 d6 c5 3a
       -0.00053599325 0.0013931709 0.00038265463 0.0015093741
0000f0 09 b9 0c 3a b4 e7 35 35 25 66 34 39 24 fd 88 37
       0.00053681486 6.7764927e-07 0.0001720419 1.6330341e-05
000100 50 a3 82 ba 11 88 33 3a dc d9 9d 3a f0 d2 00 3a
       -0.0009966884 0.00068485836 0.0012043077 0.00049142446
000110 cd d3 32 3a 0a c1 6b b9 b9 9a 58 ba 75 c8 1f ba
       0.0006821722 -0.00022483259 -0.00082628016 -0.0006095239
000120 08 5d df 36 8f 43 96 39 cd 96 54 39 61 dd 4d 3a
       6.656748e-06 0.00028660565 0.00020274073 0.00078531174
000130 51 8e 93 39 da 30 9b 38 3e c8 93 ba 11 3f 98 b4
       0.0002814406 7.400075e-05 -0.0011274887 -2.8358093e-07
000140 ce ad 20 39 be c2 7e 3a 7f 85 06 3a c8 ba 5c ba
       0.00015323536 0.000971835 0.0005131587 -0.00084201666
000150 c4 fb 7a 3a c3 58 83 ba 2d 09 96 36 aa 56 cb b8
       0.0009574259 -0.001002096 4.4714166e-06 -9.695937e-05
000160 a3 c6 37 b4 21 65 a2 3a f8 19 28 b4 ad 4b dd b4
       -1.7115467e-07 0.0012389758 -1.5655667e-07 -4.121952e-07
000170 7c bf c1 b8 98 69 19 3a 90 e9 2d 3a 11 61 8d 3a
       -9.238624e-05 0.00058522215 0.000663423 0.0010786374
000180 bb b3 f2 39 34 08 8a 39 4c 4d a1 3a 9a 59 33 ba
       0.00046291747 0.00026327523 0.0012306361 -0.000684166
000190 10 f8 d0 ba 62 f2 ef b8 37 a2 b3 39 06 5a 96 b9
       -0.0015943069 -0.000114415554 0.000342624 -0.00028677302
0001a0 e0 9c 7b b8 10 df c5 ba 8f 11 9a ba 2b df c2 39
       -5.9989165e-05 -0.0015096385 -0.00117545 0.00037168837
0001b0 6a b5 a2 3a e7 b2 e8 3a 58 9e 06 3a 18 03 cc 3a
       0.0012413685 0.0017753512 0.00051352894 0.0015564887
0001c0 31 6e 57 3a bb 88 1b 3a 18 91 9b ba e5 d4 9d b9
       0.0008218019 0.0005933155 -0.0011868803 -0.00030103992
0001d0 cd b2 3b 3a 58 03 98 b4 e0 9d df 38 cb 96 9d b9
       0.0007160127 -2.831464e-07 0.00010662875 -0.00030057723
0001e0 e5 81 0c 3a 10 9b b6 ba 17 9f c8 b9 34 d6 c5 ba
       0.0005359932 -0.001393171 -0.00038265504 -0.0015093745
0001f0 05 b9 0c ba b2 e7 35 b5 24 66 34 b9 0a fd 88 b7
       -0.0005368146 -6.7764915e-07 -0.00017204188 -1.6330294e-05

exp_avg_sq f4 [2, 64]
000000 3f 52 ec 37 36 8c fa 37 b1 bf 06 38 41 e3 ad 37
       2.8171691e-05 2.9867613e-05 3.2126616e-05 2.072903e-05
000010 04 c9 a8 37 04 21 e4 37 2f 8c b7 37 d4 7b 10 36
       2.0120766e-05 2.7195092e-05 2.1880578e-05 2.152975e-06
000020 ff 72 be 35 1e 19 e4 37 59 32 a4 35 36 be bf 37
       1.4189571e-06 2.7191414e-05 1.2233605e-06 2.2857548e-05
000030 bb bd e5 37 a5 f3 be 37 34 36 a4 35 c9 57 c2 35
       2.7387277e-05 2.276322e-05 1.2234727e-06 1.4479675e-06
000040 22 19 93 36 6c 2d c5 37 4a 23 99 37 5a 33 c1 37
       4.3838672e-06 2.3505381e-05 1.8255454e-05 2.3031305e-05
000050 97 da 37 38 1a e6 df 37 e2 4f b1 37 45 28 78 35
       4.3834178e-05 2.6690821e-05 2.1137243e-05 9.24458e-07
000060 89 12 d7 35 00 67 ec 37 7d 6b 5b 35 80 e8 e8 35
       1.6024143e-06 2.8181355e-05 8.1740274e-07 1.7353013e-06
000070 cd a0 d0 37 dc f4 1a 38 da ff 99 37 a5 87 0d 38
       2.4870411e-05 3.6944504e-05 1.8358161e-05 3.374335e-05
000080 62 9c ae 37 ba 75 d0 35 00 17 c6 37 88 01 a6 37
       2.0815238e-05 1.5531471e-06 2.361415e-05 1.9789455e-05
000090 1f ed b2 36 e8 3f 68 35 8b 71 b4 37 25 0e 21 38
       5.332418e-06 8.651973e-07 2.1510545e-05 3.8398564e-05
0000a0 c3 c4 14 38 8a 56 e9 37 79 64 e1 37 2d 15 dd 37
       3.54692e-05 2.7816062e-05 2.6868876e-05 2.6355114e-05
0000b0 b9 2c 80 37 4a 85 11 38 60 12 1c 38 fb 14 1d 38
       1.5279615e-05 3.469483e-05 3.721041e-05 3.7451257e-05
0000c0 a9 4a a4 37 b2 58 07 38 89 ed b0 35 9c 77 04 38
       1.958509e-05 3.2269112e-05 1.3182154e-06 3.1582647e-05
0000d0 61 34 c0 37 5c 41 78 35 75 76 ae 34 5a bb e7 37
       2.2912574e-05 9.248231e-07 3.2496214e-07 2.7624588e-05
0000e0 32 12 db 37 a2 cb c2 35 2f 93 8d 37 59 0c bb 37
       2.6115307e-05 1.4513391e-06 1.6877048e-05 2.2297887e-05
0000f0 aa 48 f4 37 04 30 6f 36 68 ab b1 35 7d 4f bf 37
       2.9120903e-05 3.5641724e-06 1.3237413e-06 2.2805989e-05
000100 3d 52 ec 37 33 8c fa 37 b1 bf 06 38 44 e3 ad 37
       2.8171688e-05 2.9867608e-05 3.2126616e-05 2.0729036e-05
000110 04 c9 a8 37 02 21 e4 37 2f 8c b7 37 d3 7b 10 36
       2.0120766e-05 2.7195088e-05 2.1880578e-05 2.1529747e-06
000120 fe 72 be 35 1e 19 e4 37 5a 32 a4 35 37 be bf 37
       1.418957e-06 2.7191414e-05 1.2233606e-06 2.285755e-05
000130 bc bd e5 37 a5 f3 be 37 35 36 a4 35 c9 57 c2 35
       2.738728e-05 2.276322e-05 1.2234729e-06 1.4479675e-06
000140 21 19 93 36 6c 2d c5 37 4a 23 99 37 5c 33 c1 37
       4.383867e-06 2.3505381e-05 1.8255454e-05 2.3031309e-05
000150 98 da 37 38 1a e6 df 37 e1 4f b1 37 45 28 78 35
       4.383418e-05 2.6690821e-05 2.113724e-05 9.24458e-07
000160 86 12 d7 35 ff 66 ec 37 7d 6b 5b 35 80 e8 e8 35
       1.6024139e-06 2.8181354e-05 8.1740274e-07 1.7353013e-06
000170 cd a0 d0 37 db f4 1a 38 d9 ff 99 37 a5 87 0d 38
       2.4870411e-05 3.69445e-05 1.835816e-05 3.374335e-05
000180 63 9c ae 37 ba 75 d0 35 00 17 c6 37 88 01 a6 37
       2.081524e-05 1.5531471e-06 2.361415e-05 1.9789455e-05
000190 20 ed b2 36 e8 3f 68 35 8b 71 b4 37 24 0e 21 38
       5.3324184e-06 8.651973e-07 2.1510545e-05 3.839856e-05
0001a0 c3 c4 14 38 88 56 e9 37 78 64 e1 37 2d 15 dd 37
       3.54692e-05 2.7816059e-05 2.6868875e-05 2.6355114e-05
0001b0 b7 2c 80 37 4a 85 11 38 61 12 1c 38 f9 14 1d 38
       1.5279611e-05 3.469483e-05 3.7210415e-05 3.745125e-05
0001c0 a9 4a a4 37 b0 58 07 38 89 ed b0 35 9c 77 04 38
       1.958509e-05 3.2269105e-05 1.3182154e-06 3.1582647e-05
0001d0 61 34 c0 37 5c 41 78 35 74 76 ae 34 57 bb e7 37
       2.2912574e-05 9.248231e-07 3.2496212e-07 2.7624583e-05
0001e0 32 12 db 37 a3 cb c2 35 2f 93 8d 37 5b 0c bb 37
       2.6115307e-05 1.4513392e-06 1.6877048e-05 2.229789e-05
0001f0 aa 48 f4 37 04 30 6f 36 67 ab b1 35 7e 4f bf 37
       2.9120903e-05 3.5641724e-06 1.3237412e-06 2.280599e-05

exp_avg f4 [2]
000000 cd 75 94 b8 d6 75 94 38
       -7.079132e-05 7.0791386e-05

exp_avg_sq f4 [2]
000000 a9 d3 94 38 aa d3 94 38
       7.096615e-05 7.0966154e-05

exp_avg f4 [1, 64]
000000 78 2f bc 3c 8b 82 fa 3c 4b f7 f2 3c d4 32 d9 3c
       0.022971854 0.030579826 0.029658934 0.026513495
000010 92 36 ce 3c a0 9f f2 3c 34 1c b0 3c 33 5c 35 3b
       0.025172506 0.02961713 0.021497823 0.0027673363
000020 ff cf 51 3a 77 ef bf 3c 8d d2 df 3b 36 2d b8 3c
       0.0008003711 0.023429615 0.0068305195 0.022482496
000030 bb 1b cc 3c a8 2b c7 3c 81 c5 b0 3b eb 0f b9 b6
       0.024915567 0.02431281 0.005394638 -5.5152827e-06
000040 69 df 44 3b c6 69 aa 3c 72 28 c9 3c ff 8e c9 3c
       0.003004039 0.02080239 0.024555419 0.024604319
000050 25 4f dc 3c 87 fb dc 3c 4c 91 9c 3c ef fb e9 3a
       0.026893208 0.026975406 0.019112252 0.0017851571
000060 16 3b 8a b5 7e e2 c7 3c c5 c5 9e 35 f2 ae d1 b6
       -1.0298997e-06 0.024399992 1.1829476e-06 -6.2490517e-06
000070 2c a8 d0 3c 03 17 bf 3c 77 9a 93 3c 60 c7 d6 3c
       0.025470816 0.023326403 0.01801799 0.026218116
000080 19 73 cd 3c 44 1d 8c 3b cc 17 be 3c 46 37 ad 3c
       0.025079297 0.0042759497 0.023204707 0.02114452
000090 8f 81 8f 3b 29 ba 02 3b 80 01 b4 3c 54 39 ed 3c
       0.0043794583 0.0019947386 0.021973372 0.028958
0000a0 48 fe e3 3c 9a 37 be 3c d5 50 f0 3c c0 3a ca 3c
       0.027831212 0.023219872 0.029335419 0.024686217
0000b0 51 4a 7e 3c d7 5f b7 3c 85 3a c6 3c d8 52 cf 3c
       0.015520648 0.022384567 0.024197826 0.025308058
0000c0 4a 63 a6 3c 5c 7a fd 3c 67 a3 cb 3b bd a6 ae 3c
       0.020311017 0.030942135 0.0062145474 0.021319741
0000d0 0f 8c 98 3c f9 a2 74 b3 85 f5 76 3b 0b 54 e6 3c
       0.018621473 -5.69589e-08 0.0037682962 0.028116247
0000e0 93 3e c6 3c bb 5c 07 3c de 81 a1 3c 05 e6 ea 3c
       0.02419976 0.008261855 0.019715246 0.028674135
0000f0 ba 57 d8 3c 27 d9 44 b7 5a 97 59 3b f5 76 c5 3c
       0.026409019 -1.173307e-05 0.0033201785 0.024104575

exp_avg_sq f4 [1, 64]
000000 c8 fd fd 3a a6 60 13 3b 56 90 18 3b f8 35 de 3a
       0.0019378001 0.0022488027 0.002327939 0.001695334
000010 96 2d e4 3a c8 c7 0f 3b eb ca e3 3a 68 b7 60 38
       0.0017408605 0.0021939147 0.00173792 5.3576572e-05
000020 03 b3 42 38 99 9c 0e 3b b6 4e 71 38 22 cb d5 3a
       4.6419922e-05 0.002176082 5.7532183e-05 0.0016311149
000030 b4 13 14 3b df 36 e7 3a e1 24 1b 38 ae e0 1d 38
       0.0022594752 0.0017640254 3.6989226e-05 3.7640966e-05
000040 14 10 d2 38 38 64 03 3b 78 c6 de 3a 93 70 02 3b
       0.00010016575 0.0020048749 0.0016996404 0.0019903525
000050 fd bd 38 3b 7c ad 18 3b f6 03 d2 3a 7f 14 bb 37
       0.0028189414 0.0023296764 0.0016022909 2.2301681e-05
000060 0a b0 5a 38 45 90 fb 3a 04 87 b6 37 47 6c 41 38
       5.21392e-05 0.0019192776 2.1758962e-05 4.6115627e-05
000070 54 18 0a 3b 38 83 0f 3b fa 3f d2 3a ab ba 22 3b
       0.002107163 0.002189828 0.0016040795 0.00248305
000080 4b 99 f7 3a e7 3d 24 38 d1 5d 0c 3b f2 16 c7 3a
       0.0018890289 3.9158298e-05 0.0021418224 0.0015189333
000090 2d ce 13 39 8d a9 cd 37 c6 b7 d6 3a b1 05 28 3b
       0.00014095819 2.4516858e-05 0.0016381673 0.0025638158
0000a0 13 51 23 3b ea fd f1 3a ec fe 18 3b 5d d3 19 3b
       0.002492015 0.0018462513 0.0023345305 0.002347193
0000b0 56 ee aa 3a 10 f1 19 3b 3b c3 19 3b 7c 28 24 3b
       0.0013041 0.0023489632 0.0023462314 0.0025048545
0000c0 a8 f0 ec 3a 39 19 1d 3b e7 9d 31 38 e2 5f 04 3b
       0.0018077092 0.0023971333 4.2347147e-05 0.0020198752
0000d0 8f 30 fb 3a 51 92 cf 37 07 2d 94 37 4e bd 17 3b
       0.0019164252 2.4744457e-05 1.7663942e-05 0.0023153606
0000e0 74 23 14 3b c7 f3 61 38 c4 3e 9b 3a a6 91 f7 3a
       0.002260414 5.3871216e-05 0.0011844267 0.0018888011
0000f0 2e fb 18 3b af a5 c9 38 1a 3d 0a 38 44 68 f7 3a
       0.0023343074 9.615288e-05 3.295867e-05 0.0018875678
