savedModels/ppo_cartpole_102400.pth (torch, 13659 bytes, 15 tensors)

shared_fc.0.weight f4 [64, 4]
0.05980509 0.4858179 0.049660686 -0.30398834 -0.13394327 -0.13946898 -0.91332746 -0.29821652
-0.081533924 -0.36773673 -0.6192168 -0.5125953 -0.06925236 -0.116121754 -0.6964225 -0.24171408
0.046088837 0.012795145 -0.963442 -0.22074293 -0.11656679 0.034731 -0.1375021 -0.036060374
-0.1602208 0.18252994 0.6544371 0.3390543 -0.11753885 -0.057825357 -0.110239334 -0.13000092
0.17688255 -0.036807373 -0.1123861 0.027564019 0.29652804 0.14265954 -0.06869294 -0.31831047
0.3256253 -0.35810333 -0.34133098 -0.07476444 -0.036334403 -0.23874958 -0.0046825986 0.17710511
-0.019605402 0.07615392 0.54001915 0.28507376 -0.09052143 -0.0035623284 0.12610266 0.09239957
-0.04990063 -0.012399605 -0.22647882 -0.057540532 0.084764495 0.07279231 -0.048030652 0.16296418
-0.09887948 -0.33275953 -0.41651165 -0.14766975 0.3046664 0.30618948 0.056948125 0.04061788
0.0223321 -0.06855957 -0.6116901 -0.2793818 -0.20775346 0.3243619 0.40872076 0.09940877
-0.052893765 -0.11848004 0.48691818 0.32985222 -0.1263506 0.17677689 0.0077346433 -0.15214334
0.024760326 0.114639975 0.40810186 0.4716878 0.06142497 -0.14681754 -0.26323316 0.028605297
0.16736388 0.07403165 -0.26923484 0.22569904 0.012622402 -0.3683962 -0.2299917 0.02608584
-0.118621595 0.034028348 -0.077903815 0.08358337 0.13966256 0.028988319 0.04247796 0.13326119
-0.08912755 0.096704 0.5716784 0.23497114 -0.116209395 -0.30589336 0.6786577 0.32669786
0.10635364 -0.0073148995 0.7108868 0.19102529 0.043766703 -0.14153403 0.4654438 0.1133367
0.039839007 -0.006599338 -0.6996251 -0.27568626 0.08892557 -0.18180165 -0.19605675 -0.29656634
0.23082258 -0.1433839 -0.6154173 -0.1986372 -0.13862352 0.13635004 0.6149355 0.27563286
-0.2537284 -0.011766896 0.28507754 -0.12691687 -0.11541633 0.3071392 0.24566592 0.058846578
-0.047778532 -0.10225821 0.48880327 0.1348148 -0.30183586 0.054888215 0.28544736 0.41632107
-0.18131058 -0.0040524574 0.6969752 0.19002464 -0.06724731 0.5753556 -0.05715553 -0.27349547
-0.21557975 0.20984161 -0.5069307 -0.17924415 0.10731725 -0.05520728 -0.3593471 -0.23020285
0.38499588 -0.030215422 0.0034853541 0.24227148 0.15874642 -0.4264417 0.51966834 0.24706365
-0.03232422 -0.18724935 0.8379608 0.219465 0.076577604 -0.36967528 0.4461175 0.11892529
0.15898065 -0.10885952 -0.19853796 -0.13155718 -0.12975264 -0.2292497 -0.6319092 -0.4103944
-0.11841274 -0.010814846 0.041013002 0.046738844 0.25846648 0.40628833 -0.14681405 -0.5820114
0.15864694 0.052888334 0.5611979 0.30644384 0.0042970125 0.0064940546 0.24107666 0.10679071
-0.016518114 -0.065275624 -0.34876007 -0.17825863 -0.0078609595 0.016230404 -0.49047032 -0.518425
0.16638964 -0.020954447 -0.3553775 -0.25352222 -0.23409182 0.057029825 -0.18161947 0.16933198
0.26017582 0.29983762 -0.33831528 -0.1309275 -0.32286114 0.251869 -0.33702594 -0.3536989
0.013045255 0.19609292 -0.16091858 -0.07671042 0.37762755 0.042079538 0.42005914 -0.047430944
0.007935527 -0.028963601 -0.794953 -0.12559932 0.10521638 0.17538486 -0.31958267 -0.24053869
00000000: 2ff6 743d 20bd f83e 0169 4b3d 5ca4 9bbe
00000010: 6d28 09be f5d0 0ebe d4cf 69bf d6af 98be
00000020: 42fb a6bd fd47 bcbe fe84 1ebf 7239 03bf
00000030: 2ed4 8dbd 3ed1 edbd bf48 32bf e583 77be
00000040: a6c7 3c3d baa2 513c 23a4 76bf 6f0a 62be
00000050: 92ba eebd 1842 0e3d 5acd 0cbe 0bb4 13bd
00000060: ec10 24be 21e9 3a3e 3189 273f 8698 ad3e
00000070: 35b8 f0bd 48da 6cbd 29c5 e1bd f61e 05be
00000080: b320 353e 54c3 16bd af2a e6bd f0cd e13c
00000090: 86d2 973e 5815 123e e2ae 8cbd 97f9 a2be
000000a0: 5cb8 a63e 5259 b7be efc2 aebe 191e 99bd
000000b0: 62d3 14bd c57a 74be 7c70 99bb 0b5b 353e
000000c0: 829b a0bc 96f6 9b3d b23e 0a3f 30f5 913e
000000d0: 4d63 b9bd f475 69bb 0e21 013e fc3b bd3d
000000e0: 9a64 4cbd b627 4bbc 10ea 67be 9faf 6bbd
000000f0: 0299 ad3d 2214 953d cabb 44bd 15e0 263e
00000100: 5381 cabd 755f aabe 0441 d5be bd36 17be
00000110: 3cfd 9b3e dec4 9c3e 7042 693d ef5e 263d
00000120: cff1 b63c f668 8cbd b997 1cbf 220b 8fbe
00000130: 53bd 54be c312 a63e d943 d13e d396 cb3d
00000140: 22a7 58bd aaa5 f2bd 574d f93e 64e2 a83e
00000150: 0d62 01be 0005 353e e472 fd3b 77cb 1bbe
00000160: 2bd6 ca3c 5dc8 ea3d baf2 d03e 1081 f13e
00000170: c098 7b3d 5657 16be 7fc6 86be a855 ea3c
00000180: 7061 2b3e e89d 973d 26d9 89be a61d 673e
00000190: 31ce 4e3c 6d9e bcbe f282 6bbe f9b1 d53c
000001a0: e1ef f2bd 4f61 0b3d 098c 9fbd c22d ab3d
000001b0: b403 0f3e e978 ed3c 5ffd 2d3d 9f75 083e
000001c0: 8188 b6bd bf0c c63d 8459 123f 469c 703e
000001d0: 31ff edbd 0e9e 9cbe 83bc 2d3f f144 a73e
000001e0: f0cf d93d d3b1 efbb adfc 353f 229c 433e
000001f0: b744 333d 4cee 10be a64e ee3e 121d e83d
00000200: 3a2e 233d 423f d8bb a11a 33bf c026 8dbe
00000210: 9c1e b63d 362a 3abe 1ac3 48be 8bd7 97be
00000220: c15c 6c3e 3bd3 12be fd8b 1dbf 8d67 4bbe
00000230: 53f3 0dbe 589f 0b3e 6a6c 1d3f c01f 8d3e
00000240: b0e8 81be f0c9 40bc aff5 913e 7ff6 01be
00000250: 665f ecbd 5941 9d3e d98f 7b3e 1c09 713d
00000260: 6cb3 43bd c16c d1bd 6c44 fa3e e40c 0a3e
00000270: 3b8a 9abe 77d2 603d 2826 923e 0928 d53e
00000280: 7ba9 39be 7aca 84bb f76c 323f d295 423e
00000290: f5b8 89bd 814a 133f eb1b 6abd 9907 8cbe
000002a0: f0c0 5cbe b8e0 563e 36c6 01bf c78b 37be
000002b0: 25c9 db3d 0721 62bd 58fc b7be 4cba 6bbe
000002c0: 2e1e c53e 5586 f7bc 8a6a 643b 0416 783e
000002d0: 6c8e 223e 9156 dabe fc08 053f 41fe 7c3e
000002e0: 6766 04bd 4bbe 3fbe 9984 563f 6fbb 603e
000002f0: b8d4 9c3d 1446 bdbe 8369 e43e 1a8f f33d
00000300: d3cb 223e bdf1 debd 894d 4bbe edb6 06be
00000310: e0dd 04be 6fc0 6abe cdc4 21bf 371f d2be
00000320: 6182 f2bd c030 31bc 40fd 273d 3b71 3f3d
00000330: b855 843e 0605 d03e 6c56 16be b3fe 14bf
00000340: 5874 223e 70a1 583d aaaa 0f3f 35e6 9c3e
00000350: f4cd 8c3b 14cc d43b cddc 763e 16b5 da3d
00000360: ff50 87bc 3aaf 85bd ae90 b2be 6e89 36be
00000370: 41cb 00bc a0f5 843c ed1e fbbe 80b7 04bf
00000380: 0c62 2a3e a9a8 abbc 0af4 b5be aacd 81be
00000390: c4b5 6fbe 1b98 693d 74fa 39be 5d65 2d3e
000003a0: c435 853e 5184 993e a937 adbe dc11 06be
000003b0: 0e4e a5be f9f4 803e aa8e acbe 0618 b5be
000003c0: c4bb 553c 95cc 483e d7c7 24be 5a1a 9dbd
000003d0: 6658 c13e 985b 2c3d fe11 d73e f346 42bd
000003e0: 0304 023c 1345 edbc 0a82 4bbf 1c9d 00be
000003f0: af7b d73d 1798 333e 57a0 a3be c64f 76be

shared_fc.0.bias f4 [64]
0.49410692 0.43022734 0.44522995 0.45612472 0.4955463 -0.15036547 0.48894307 -0.1405027
-0.14021577 0.52974457 -0.07115733 0.49903065 0.46552894 0.5234818 -0.07720196 -0.122931875
-0.045538317 0.28160533 0.4645695 0.51099616 0.5553156 0.57069075 0.51859313 -0.007805568
-0.18017769 0.50734574 -0.08138099 -0.15189278 0.38794386 0.53113824 0.49088603 0.5187675
0.4784977 -0.12996596 0.50414085 0.48205918 -0.22291519 0.010430635 0.49933988 0.5469679
0.51298606 0.48102963 0.5297515 0.4944292 0.5389282 0.5246588 0.38279638 0.5472263
0.5276859 0.42637435 -0.1364221 0.48454556 0.53201616 -0.09493923 -0.11834665 0.51525223
0.54806423 -0.17146744 0.11845597 0.5055469 0.5002446 -0.05743771 0.26012167 0.52161646
00000000: 95fb fc3e c246 dc3e 2ef5 e33e 2e89 e93e
00000010: 3fb8 fd3e 68f9 19be bf56 fa3e f1df 0fbe
00000020: b994 0fbe 579d 073f efba 91bd f280 ff3e
00000030: cf59 ee3e e702 063f 101c 9ebd b5c3 fbbd
00000040: 6386 3abd 932e 903e 0edc ed3e a5d0 023f
00000050: 2a29 0e3f ca18 123f 85c2 043f dac5 ffbb
00000060: 8080 38be 69e1 013f 14ab a6bd c889 1bbe
00000070: 94a0 c63e adf8 073f 6a55 fb3e f2cd 043f
00000080: a7fd f43e cc15 05be 600f 013f 76d0 f63e
00000090: e143 64be 41e5 2a3c 7aa9 ff3e 1706 0c3f
000000a0: 0e53 033f 8449 f63e cb9d 073f d325 fd3e
000000b0: 33f7 093f 0a50 063f e3fd c33e 0617 0c3f
000000c0: 6c16 073f bd4d da3e 3cb2 0bbe 5b16 f83e
000000d0: 3632 083f 806f c2bd ba5f f2bd 92e7 033f
000000e0: f04d 0c3f 2995 2fbe 0b99 f23d 866b 013f
000000f0: 0810 003f ce43 6bbd ab2e 853e a888 053f

actor_head.weight f4 [2, 64]
0.024979375 0.29237172 0.23449104 0.28382856 0.2161182 -0.11190773 -0.22649147 0.0156139145
0.05730137 0.027853234 0.10579203 -0.04167389 -0.18882464 -0.0076132235 -0.12861845 0.10388038
0.09081354 -0.06639963 0.20003666 -0.090373 -0.11395031 0.04115036 -0.16069095 0.16626374
0.025584912 0.030010223 0.18071164 0.10167467 -0.2483919 -0.11657035 -0.24772564 -0.0940135
0.19332546 0.06680305 0.1573252 -0.22579637 -0.03307192 -0.116117865 -0.13788377 -0.10753187
-0.15263759 0.04429871 0.14554963 0.11914739 -0.12074618 -0.10011892 -0.114378676 -0.08768311
0.07400207 0.26349273 0.02240264 0.06359823 -0.22359514 0.2758227 -0.022282884 0.13725822
0.08163123 0.049531072 0.025524413 0.12975653 0.033041947 -0.084021814 0.38822776 0.05735404
-0.020586593 -0.30281815 -0.24555062 -0.2869046 -0.24082986 0.11597948 0.2359973 -0.012225425
-0.07314525 -0.056741763 -0.063349925 0.03080404 0.19950987 0.034302585 0.112227075 -0.11762592
-0.15177609 0.064512566 -0.21199694 0.08396243 0.087478176 -0.060292944 0.1722417 -0.1863192
-0.046416704 -0.04032699 -0.16166057 -0.09593597 0.21375969 0.1255034 0.2659512 0.11822713
-0.20007545 -0.061543953 -0.14101815 0.23757263 0.04624864 0.10226445 0.12681791 0.095902964
0.13943516 -0.032729417 -0.14248239 -0.12857899 0.08913524 0.12348362 0.0999852 0.08754243
-0.051932473 -0.2659366 -0.021743312 -0.040840104 0.23772557 -0.273697 0.014711475 -0.14674298
-0.08152638 -0.04992587 -0.022971807 -0.12270537 -0.021742053 0.0856562 -0.3776827 -0.091410816
00000000: 8ca1 cc3c bfb1 953e 6b1e 703e fa51 913e
00000010: 174e 5d3e e12f e5bd 61ed 67be 81d1 7f3c
00000020: d7b4 6a3d 772c e43c 7ea9 d83d 3eb2 2abd
00000030: 3f5b 41be 5978 f9bb 8eb4 03be 3dbf d43d
00000040: 73fc b93d 87fc 87bd 69d6 4c3e 7b15 b9bd
00000050: c85e e9bd 488d 283d 2b8c 24be 0b41 2a3e
00000060: 7397 d13c 00d8 f53c 790c 393e cf3a d03d
00000070: 725a 7ebe 70bc eebd caab 7dbe 268a c0bd
00000080: 1cf7 453e 0ad0 883d db19 213e 2a37 67be
00000090: 6c76 07bd 34cf edbd 6731 0dbe ab39 dcbd
000000a0: 074d 1cbe 9072 353d f60a 153e 8c03 f43d
000000b0: c649 f7bd 260b cdbd 5e3f eabd 3493 b3bd
000000c0: 668e 973d 85e8 863e be85 b73c ca3f 823d
000000d0: 20f6 64be a238 8d3e 988a b6bc 6b8d 0c3e
000000e0: 462e a73d 18e1 4a3d 9318 d13c e5de 043e
000000f0: fe56 073d a113 acbd cac5 c63e 12ec 6a3d
00000100: 37a5 a8bc fb0a 9bbe 9f71 7bbe 29e5 92be
00000110: 1a9c 76be a686 ed3d 47a9 713e 264d 48bc
00000120: 2dcd 95bd 0d6a 68bd 9bbd 81bd c158 fc3c
00000130: 514c 4c3e de80 0c3d 4fd7 e53d dce5 f0bd
00000140: 316b 1bbe 2a1f 843d ba15 59be 7ff4 ab3d
00000150: c227 b33d bcf5 76bd 2160 303e 76ca 3ebe
00000160: 711f 3ebd ea2d 25bd 598a 25be 147a c4bd
00000170: d2e3 5a3e f783 003e c12a 883e 1121 f23d
00000180: 94e0 4cbe 8315 7cbd 1067 10be 3d46 733e
00000190: 376f 3d3d 0670 d13d 8edc 013e c668 c43d
000001a0: 17c8 0e3e 480f 06bd e7e6 11be 36aa 03be
000001b0: 898c b63d fbe4 fc3d 0ac5 cc3d 7249 b33d
000001c0: 25b7 54bd d828 88be 081f b2bc f447 27bd
000001d0: 556e 733e 0322 8cbe 6608 713c cb43 16be
000001e0: 4df7 a6bd 127f 4cbd 5f2f bcbc f44c fbbd
000001f0: 641c b2bc 856c af3d a05f c1be 9835 bbbd

actor_head.bias f4 [2]
-0.011773229 0.011773255
00000000: 80e4 40bc 9ce4 403c

critic_head.weight f4 [1, 64]
0.4559715 0.41446662 0.4014111 0.5688554 0.59886485 -0.16778937 0.59573525 -0.24363062
-0.19127332 0.38861716 0.013074533 0.6744335 0.5392795 0.5971489 -0.3362994 -0.15357235
0.030172484 0.17208973 0.5847851 0.5591682 0.44213364 0.49229643 0.6980113 0.12046092
-0.10605947 0.5614753 -0.19110005 -0.16327411 0.47966802 0.47797036 0.6542194 0.49875927
0.53588724 -0.17227122 0.46814662 0.6984989 -0.16940467 0.12949157 0.6538748 0.40270275
0.4220644 0.5044642 0.45547506 0.4802259 0.81428105 0.4989784 0.29020727 0.48183155
0.5739287 0.37869233 -0.1506111 0.436554 0.5399196 -0.19778395 -0.116511375 0.43224543
0.4481437 -0.1518639 0.059852164 0.4444654 0.37917197 -0.015874885 0.37175524 0.48284453
00000000: 1975 e93e f834 d43e c185 cd3e 82a0 113f
00000010: 354f 193f fad0 2bbe 1b82 183f 4e7a 79be
00000020: 27dd 43be d4f8 c63e 9136 563c ada7 2c3f
00000030: 390e 0a3f c0de 183f 6f2f acbe 1242 1dbe
00000040: 492c f73c 4a38 303e 7ab4 153f a625 0f3f
00000050: 575f e23e 470e fc3e deb0 323f 37b4 f63d
00000060: b535 d9bd d8bc 0f3f bbaf 43be 5431 27be
00000070: 0c97 f53e 88b8 f43e ec7a 273f 605d ff3e
00000080: e82f 093f de67 30be eab0 ef3e d3d0 323f
00000090: 6b78 2dbe 7099 043e 5764 273f 0e2f ce3e
000000a0: d318 d83e 9124 013f 0734 e93e 2be0 f53e
000000b0: b974 503f 197a ff3e 0c96 943e a0b2 f63e
000000c0: feec 123f f6e3 c13e cc39 1abe 0284 df3e
000000d0: 2c38 0a3f e087 4abe 849d eebd 464f dd3e
000000e0: 1773 e53e 3682 1bbe 8b27 753d f890 e33e
000000f0: d422 c23e 0c0c 82bc b456 be3e 6637 f73e

exp_avg f4 [64, 4]
-0.015929641 -0.015304175 -0.0008448559 0.00022024848 -0.013695645 -0.011578409 -0.0007355808 -0.00052221626
-0.010499719 -0.008596305 -0.0006227155 0.00018420063 -0.019991325 -0.016733875 -0.0010791483 -0.0011060712
-0.02112004 -0.01768054 -0.0011334067 -0.0011644679 -0.00031219935 0.00014948587 1.1435291e-05 -0.00010820088
-0.021557279 -0.017977342 -0.0011149915 -0.0011605993 -0.0004121532 0.00017794187 2.0996693e-05 -0.00015521636
0.00505562 0.0015727414 -9.0618894e-05 0.00043751945 -0.014008722 -0.011753527 -0.0007215467 -0.0005757828
-0.00030091373 8.5264386e-05 6.026972e-06 -8.93091e-05 -0.023174444 -0.018464224 -0.0012482466 -0.0019414427
-0.01946767 -0.016254526 -0.0010107142 -0.001056517 -0.021338847 -0.017837128 -0.0011239869 -0.0011660523
-0.00015259376 7.959474e-05 5.8170444e-06 -7.377785e-05 0.0038726316 0.0021392007 -2.2763097e-05 0.00050677394
-5.5009805e-05 0.0002235175 1.9097503e-07 -9.211554e-05 -0.006652578 -0.0055231736 -0.0002834782 -0.00016280003
-0.020642677 -0.017279094 -0.0011063355 -0.0011374283 -0.019985193 -0.016836891 -0.001054751 -0.0010441664
-0.015863828 -0.013226487 -0.00083391287 -0.00089789234 -0.01751564 -0.014648486 -0.00092831487 -0.0009599618
-0.02510252 -0.020968203 -0.0013103134 -0.0013658145 -0.0024562492 0.00088685146 5.051131e-05 -0.0012016586
0.0029573196 0.001356497 -4.425335e-05 0.0004021469 -0.018227354 -0.012646843 -0.000954826 -0.0022568316
-0.0013223968 0.0003220772 5.0949566e-05 0.00014458963 0.003977208 0.0017100145 -3.9636918e-05 0.00052500016
-0.01738127 -0.014506392 -0.0008975426 -0.00094088505 -0.013120571 -0.0089664245 -0.0009207516 -0.0026956669
-0.02364083 -0.019736683 -0.0012256057 -0.0012821199 -0.017922439 -0.014972003 -0.0009365939 -0.00097568
-0.01890772 -0.01582768 -0.0010140236 -0.0010421638 0.0007313778 -0.00018846273 -3.893049e-05 -0.00014944897
-0.016543074 -0.013845809 -0.00088528026 -0.0009108737 -0.025193155 -0.021037085 -0.0013096137 -0.0013680563
-0.00085255475 0.00031193637 5.3334898e-05 -0.0001511801 -0.0024020995 -0.0050017554 -0.00028347233 0.00088589586
-0.023488758 -0.019622695 -0.0012280454 -0.0012789851 -0.013136825 -0.011382845 -0.00078889704 -0.0011013333
-0.015159361 -0.012722445 -0.00079666 -0.0008327306 -0.0171276 -0.017451543 -0.0009523377 0.0005794463
-0.015920563 -0.013607556 -0.0008645506 -0.0007521015 -0.017002663 -0.014227352 -0.0009073991 -0.0009349533
-0.030323543 -0.023839405 -0.0014863474 -0.0020319049 -0.017138941 -0.010139449 -0.000789672 -0.002776075
-0.009552975 -0.007304168 -0.00056093355 -0.0011335005 -0.01650555 -0.012358213 -0.00087407226 -0.001675746
-0.02041577 -0.017074293 -0.0010823426 -0.0011190665 -0.010596682 -0.009436079 -0.0006426142 -5.5464574e-05
-0.00032330584 2.7193075e-05 1.5135695e-05 3.242903e-05 -0.015802981 -0.0148284035 -0.00076121296 0.0008101166
-0.019531494 -0.016304027 -0.0010110142 -0.0010584885 7.447616e-05 -0.00015422193 1.9344903e-05 0.00025856763
4.628344e-06 2.9856576e-06 -2.14294e-06 -1.4537926e-05 -0.015228313 -0.013030915 -0.00080839754 -0.00056175113
-0.015904961 -0.013305207 -0.00084593514 -0.00087316515 -0.0009767497 0.00021251243 3.203179e-05 0.00012045434
-0.002406826 -0.0020940327 -7.379825e-05 0.00022388276 -0.012233737 -0.014162985 -0.0009076039 0.0006555049
-0.013503842 -0.011292145 -0.0007147083 -0.0007396038 0.0006342805 0.0003706784 1.3410196e-05 -1.9107218e-05
-0.012839879 -0.010774616 -0.0007095632 -0.000718093 -0.017179277 -0.014469469 -0.00090821984 -0.0008566364
00000000: e17e 82bc 5dbe 7abc 5279 5dba 80f2 6639
00000010: b363 60bc 5eb3 3dbc fed3 40ba 57e5 08ba
00000020: 0307 2cbc 84d7 0cbc bb3d 23ba fb25 4139
00000030: d9c4 a3bc 7b15 89bc 3572 8dba 97f9 90ba
00000040: ef03 adbc c8d6 90bc d18e 94ba 0fa1 98ba
00000050: b0ae a3b9 4fbf 1c39 33da 3f37 e8e9 e2b8
00000060: e498 b0bc 3845 93bc e824 92ba 401f 98ba
00000070: 4416 d8b9 e895 3a39 0e22 b037 93c1 22b9
00000080: 9da9 a53b 7224 ce3a a60a beb8 de62 e539
00000090: d784 65bc de91 40bc 2e26 3dba 21f0 16ba
000000a0: f5c3 9db9 f8cf b238 4c3b ca36 754b bbb8
000000b0: 55d8 bdbc 4942 97bc 359c a3ba 0278 feba
000000c0: aa7a 9fbc 3628 85bc f179 84ba d47a 8aba
000000d0: cece aebc 2b1f 92bc be52 93ba 39d6 98ba
000000e0: 9301 20b9 1aec a638 0830 c336 2eb9 9ab8
000000f0: facb 7d3b d531 0c3b 61f3 beb7 06d9 043a
00000100: 54ba 66b8 0660 6a39 d10e 4d34 272e c1b8
00000110: defd d9bb bdfb b4bb cd9f 94b9 4db5 2ab9
00000120: d51a a9bc e38c 8dbc 7602 91ba c315 95ba
00000130: fdb7 a3bc 85ed 89bc 923f 8aba 69dc 88ba
00000140: dcf4 81bc e8b3 58bc f29a 5aba 8960 6bba
00000150: f67c 8fbc 3400 70bc 285a 73ba f2a5 7bba
00000160: cda3 cdbc 82c5 abbc d2be abba 2105 b3ba
00000170: 06f9 20bb 987b 683a 1bdc 5338 f980 9dba
00000180: 97cf 413b 7dcc b13a ac9c 39b8 3ed7 d239
00000190: 8851 95bc b434 4fbc 4a4d 7aba 5ae7 13bb
000001a0: 4654 adba 78dc a839 aeb2 5538 fc9c 1739
000001b0: 3d53 823b 9122 e03a d13f 26b8 2aa0 093a
000001c0: 2a63 8ebc 38ac 6dbc 1049 6bba baa5 76ba
000001d0: aaf7 56bc e9e7 12bc 985e 71ba c9a9 30bb
000001e0: 6aaa c1bc d3ae a1bc 81a4 a0ba ce0c a8ba
000001f0: 14d2 92bc 224d 75bc c185 75ba c7c4 7fba
00000200: 5de4 9abc 0da9 81bc fce8 84ba 3799 88ba
00000210: efb9 3f3a 149e 45b9 4c49 23b8 67b5 1cb9
00000220: 5785 87bc 88d9 62bc 2712 68ba b3c7 6eba
00000230: e061 cebc f755 acbc 58a7 abba 5a50 b3ba
00000240: fb7d 5fba 648b a339 e9b3 5f38 1986 1eb9
00000250: 8b6c 1dbb c4e5 a3bb 039f 94b9 773b 683a
00000260: 7f6b c0bc c6bf a0bc 5ef6 a0ba 9ea3 a7ba
00000270: d63b 57bc 1d7f 3abc fccd 4eba 9d5a 90ba
00000280: f85e 78bc cd71 50bc f3d6 50ba 9b4b 5aba
00000290: 2e4f 8cbc 8af6 8ebc 4da6 79ba fce5 173a
000002a0: d76b 82bc 3af2 5ebc 02a3 62ba ad28 45ba
000002b0: 2b49 8bbc d719 69bc 86de 6dba a717 75ba
000002c0: 1469 f8bc db4a c3bc 8bd1 c2ba b529 05bb
000002d0: f766 8cbc ee1f 26bc fe01 4fba cfee 35bb
000002e0: 1584 1cbc cd57 efbb 9d0b 13ba f791 94ba
000002f0: a636 87bc 1a7a 4abc ff21 65ba b5a4 dbba
00000300: f93e a7bc 63df 8bbc 64dd 8dba a4ad 92ba
00000310: b59d 2dbc c999 1abc 1c75 28ba a2a2 68b8
00000320: 6081 a9b9 af1c e437 51ef 7d37 6804 0838
00000330: 4175 81bc d5f2 72bc 238c 47ba 015e 543a
00000340: 8300 a0bc 0690 85bc 0284 84ba fbbc 8aba
00000350: 1530 9c38 a2b6 21b9 dd46 a237 5c90 8739
00000360: 2c4d 9b36 355d 4836 6ecf 0fb6 ebe7 73b7
00000370: 2d80 79bc 9e7f 55bc a4ea 53ba 7b42 13ba
00000380: 1f4b 82bc 15fe 59bc bfc1 5dba 1fe5 64ba
00000390: 4806 80ba dfd5 5e39 df59 0638 6e9c fc38
000003a0: d7bb 1dbb 0a3c 09bb 22c4 9ab8 12c2 6a39
000003b0: 0370 48bc dd0b 68bc 44ec 6dba 30d6 2b3a
000003c0: 383f 5dbc b002 39bc 435b 3bba f9e1 41ba
000003d0: d845 263a 9d57 c239 5afc 6037 7048 a0b7
000003e0: 5b5e 52bc 0488 30bc fb01 3aba 683e 3cba
000003f0: 8ebb 8cbc 5a11 6dbc 9a15 6eba e58f 60ba

exp_avg_sq f4 [64, 4]
0.00041395376 0.00018390131 1.0028157e-06 2.6466862e-05 0.00048250984 0.00017382533 1.3357775e-06 3.5386027e-05
0.00030561656 0.00010359696 9.938636e-07 2.8436583e-05 0.0009081397 0.00030803218 2.3041312e-06 6.264197e-05
0.00089640095 0.00031913043 2.3063812e-06 6.464526e-05 1.3160575e-05 1.5492626e-06 2.9020745e-08 5.251457e-07
0.00092157745 0.00033853293 2.2797476e-06 6.4622196e-05 1.9561547e-05 1.8704369e-06 3.5017017e-08 7.44489e-07
8.180075e-05 1.2615524e-05 8.1353654e-08 2.676949e-06 0.0003015998 0.00012368815 7.107222e-07 2.1792792e-05
1.904811e-05 2.9485468e-06 2.687232e-08 5.85646e-07 0.00086626736 0.00029474517 2.3077062e-06 5.860773e-05
0.0007289495 0.00027060343 1.827598e-06 5.177499e-05 0.0007329172 0.00029114206 1.8803377e-06 5.641564e-05
2.4187262e-05 2.3684445e-06 3.3444326e-08 1.3348025e-06 7.0750546e-05 1.2483621e-05 7.237752e-08 2.1539372e-06
7.238772e-06 1.3458031e-06 2.16584e-08 5.154254e-07 7.4865406e-05 2.8945704e-05 1.3900329e-07 4.351562e-06
0.0008297794 0.0002993925 2.1383582e-06 6.0381157e-05 0.00066285074 0.00026265308 1.7017715e-06 4.9611663e-05
0.00042302243 0.00015820903 1.0770048e-06 2.8431738e-05 0.0004971175 0.00019562161 1.2831186e-06 3.819499e-05
0.0011134422 0.00042775023 2.8155744e-06 8.197112e-05 7.141459e-05 7.551742e-06 1.192581e-07 3.7622813e-06
2.4655175e-05 4.210785e-06 2.4276991e-08 8.277642e-07 0.0005762308 0.00016212887 1.5062984e-06 4.0494124e-05
3.4505185e-05 5.0516423e-06 9.4717564e-08 1.9892611e-06 7.324262e-05 1.1632088e-05 7.163722e-08 2.269013e-06
0.00065306964 0.00023177003 1.6221314e-06 4.4257456e-05 0.0003157367 7.574849e-05 1.0582527e-06 2.6319622e-05
0.0011206012 0.00040993193 2.7995725e-06 7.880418e-05 0.000546815 0.00021287423 1.3866586e-06 4.071073e-05
0.00070398964 0.00025264904 1.8131776e-06 5.091268e-05 1.3740202e-05 2.2132308e-06 1.8465444e-08 1.26611e-06
0.00049495656 0.00018605357 1.2836456e-06 3.7159512e-05 0.0012022805 0.00044959498 3.0178044e-06 8.6439286e-05
1.4174239e-05 1.3340439e-06 2.9119468e-08 4.8296494e-07 3.3435816e-05 2.4433615e-05 1.3890167e-07 2.8078616e-06
0.0009465285 0.00036720885 2.3998205e-06 7.073351e-05 0.00018805727 9.2041504e-05 7.689577e-07 1.981241e-05
0.00039726673 0.00015217997 1.0407731e-06 2.8551236e-05 0.0004976388 0.00023377169 1.2624434e-06 3.1691357e-05
0.0004439013 0.00017690676 1.1551206e-06 3.225959e-05 0.0005132221 0.00019292535 1.3251231e-06 3.8345795e-05
0.0013708994 0.00054381066 3.2713344e-06 0.000104841434 0.000521185 0.00013127903 1.1936764e-06 3.182673e-05
0.00017349595 4.9836337e-05 4.591184e-07 1.058078e-05 0.0004835057 0.00015542988 1.2021193e-06 3.2681564e-05
0.0006866595 0.00026859393 1.769619e-06 5.2791456e-05 0.00029766545 0.00011516977 1.0062295e-06 2.7610911e-05
8.335923e-06 8.0035613e-07 2.1751429e-08 4.668723e-07 0.00039456759 0.00017651035 7.910581e-07 2.3380426e-05
0.0007847868 0.00028457996 1.9595425e-06 5.4368153e-05 3.5182413e-06 6.6840386e-07 3.3640795e-08 1.4833e-06
4.014944e-07 1.05885896e-07 2.5186224e-09 1.7031877e-07 0.00043330673 0.00016028309 1.0634276e-06 2.8699842e-05
0.00042308006 0.00016368096 1.0930544e-06 3.214683e-05 1.2579023e-05 1.4175884e-06 3.1739017e-08 7.2651756e-07
8.459842e-06 3.4623229e-06 1.1903317e-08 4.0437143e-07 0.00026528226 0.00016787015 1.0085452e-06 2.6370022e-05
0.0002881893 0.000114614035 7.437933e-07 2.2165199e-05 2.0520085e-05 4.37151e-06 4.0734395e-08 8.1218747e-07
0.00074373645 0.00020324749 1.8525262e-06 4.2833304e-05 0.000484779 0.00018921169 1.2269428e-06 3.5832632e-05
00000000: ef07 d939 a2d5 4039 7c98 8635 2705 de37
00000010: 60f9 fc39 e244 3639 f748 b335 756b 1438
00000020: 293b a039 3242 d938 e564 8535 198b ee37
00000030: 3910 6e3a 617f a139 aca0 1a36 a75e 8338
00000040: 73fc 6a3a f650 a739 54c7 1a36 2992 8738
00000050: 3dcc 5c37 42f0 cf35 4b49 f932 bdf7 0c35
00000060: 0496 713a 1f7d b139 c4fd 1836 c785 8738
00000070: 1a18 a437 b90b fb35 9e65 1633 e5d8 4735
00000080: 718c ab38 43a7 5337 a5b4 ae33 a2a5 3336
00000090: 0a20 9e39 49b2 0139 75c8 3e35 aacf b637
000000a0: 81c9 9f37 a6df 4536 dbd4 e632 4935 1d35
000000b0: 3816 633a 0788 9a39 17de 1a36 92d1 7538
000000c0: f916 3f3a c7df 8d39 ca4b f535 f928 5938
000000d0: 3e21 403a 6da4 9839 e95f fc35 d59f 6c38
000000e0: c0e5 ca37 91f1 1e36 6da4 0f33 7727 b335
000000f0: e95f 9438 be70 5137 f66d 9b33 5c8c 1036
00000100: 94e4 f236 71a1 b435 530b ba32 c45b 0a35
00000110: 0f01 9d38 6dd0 f237 ef40 1534 a203 9236
00000120: 8e85 593a c8f7 9c39 b780 0f36 c641 7d38
00000130: 29c3 2d3a b3b4 8939 6c68 e435 1e16 5038
00000140: 1cc9 dd39 eae4 2539 9a8d 9035 b180 ee37
00000150: fe50 023a c71f 4d39 9f37 ac35 8f33 2038
00000160: ecf0 913a aa43 e039 33f3 3c36 e9e7 ab38
00000170: 6bc4 9538 f864 fd36 6b0d 0034 807b 7c36
00000180: 96d2 ce37 5e4a 8d36 ab89 d032 8633 5e35
00000190: 320e 173a 2301 2a39 052c ca35 3cd8 2938
000001a0: a9b9 1038 4781 a936 8867 cb33 3f7f 0536
000001b0: d599 9938 7027 4337 fad6 9933 5945 1836
000001c0: c332 2b3a 4b07 7339 03b8 d935 15a1 3938
000001d0: 7689 a539 29db 9e38 4909 8e35 f5c8 dc37
000001e0: 23e1 923a 22ec d639 4ae0 3b36 ac43 a538
000001f0: 2258 0f3a fe36 5f39 3a1d ba35 d0c0 2a38
00000200: f28b 383a fb75 8439 4f5c f335 138b 5538
00000210: b885 6637 0487 1436 f19d 9e32 35ef a935
00000220: f9bf 013a 6017 4339 ba49 ac35 b9db 1b38
00000230: d795 9d3a 9eb7 eb39 7c85 4a36 bd46 b538
00000240: e5cd 6d37 660d b335 6322 fa32 19a5 0135
00000250: 6f3d 0c38 caf6 cc37 0025 1534 b26e 3c36
00000260: 7420 783a f085 c039 9a0c 2136 c456 9438
00000270: 3d31 4539 6806 c138 5f6a 4e35 d432 a637
00000280: 3d48 d039 8092 1f39 b1b0 8b35 5081 ef37
00000290: f973 023a 9c20 7539 3a71 a935 56ec 0438
000002a0: 6dbb e839 0c80 3939 a409 9b35 794e 0738
000002b0: c189 063a 014c 4a39 e2da b135 7cd5 2038
000002c0: c0af b33a 848e 0e3a 1989 5b36 51de db38
000002d0: 22a0 083a f2a7 0939 6936 a035 b17d 0538
000002e0: 77ec 3539 5c07 5138 c17c f634 1b84 3137
000002f0: 097f fd39 e4fa 2239 8158 a135 9013 0938
00000300: f000 343a 11d2 8c39 a583 ed35 656c 5d38
00000310: fb0f 9c39 4d87 f138 c80d 8735 fb9d e737
00000320: 84da 0b37 0ed8 5635 e6d7 ba32 71a6 fa34
00000330: f7dd ce39 a315 3939 1959 5435 1521 c437
00000340: 27ba 4d3a ad33 9539 af80 0336 5c09 6438
00000350: ed1a 6c36 5d6c 3335 727c 1033 cd15 c735
00000360: f88c d734 6363 e333 1314 2d31 dee0 3634
00000370: 722d e339 aa11 2839 18bb 8e35 71c0 f037
00000380: d8d0 dd39 c6a1 2b39 10b5 9235 65d5 0638
00000390: 7e0a 5337 f743 be35 6b51 0833 e805 4335
000003a0: bfee 0d37 415a 6836 587f 4c32 6318 d934
000003b0: 9515 8b39 4d06 3039 595d 8735 3135 dd37
000003c0: 1d18 9739 f15c f038 16a9 4735 67ef b937
000003d0: 8c22 ac37 fcae 9236 f1f3 2e33 1905 5a35
000003e0: 4ff7 423a d51e 5539 51a4 f835 e9a7 3338
000003f0: f029 fe39 2067 4639 6fad a435 ff4a 1638

exp_avg f4 [64]
-0.042485625 -0.039453693 -0.03513298 -0.055151224 -0.05809468 0.00026211204 -0.05803249 0.0003451912
0.0039162836 -0.037514366 -0.0004633871 -0.06454041 -0.052512955 -0.05805172 0.00012213372 0.0031485604
-0.00038942913 -0.01616287 -0.056737315 -0.054323122 -0.042988826 -0.04782475 -0.067927524 -0.0043209046
0.0024657657 -0.05190585 0.0014399345 0.003002242 -0.04673719 -0.04236017 -0.06371592 -0.048530787
-0.051989198 0.00082343677 -0.045428578 -0.0680073 0.0007995304 -0.008217009 -0.063620634 -0.03841283
-0.041063063 -0.046219546 -0.044038925 -0.046615217 -0.07825773 -0.04488385 -0.027262164 -0.045559276
-0.055753123 -0.03454453 0.0002560396 -0.039747268 -0.052593287 0.00029440667 2.306983e-05 -0.041674633
-0.043517902 0.001040211 -0.004879079 -0.040119354 -0.03684093 0.00101774 -0.035943534 -0.04680935
00000000: 6805 2ebd 329a 21bd 9ae7 0fbd 40e6 61bd
00000010: b0f4 6dbd 156c 8939 7ab3 6dbd c7fa b439
00000020: 2b54 803b aaa8 19bd c4f2 f2b9 c32d 84bd
00000030: d317 57bd a4c7 6dbd 0511 0039 1458 4e3b
00000040: 4b2c ccb9 ff67 84bc 6365 68bd ec81 5ebd
00000050: 0d15 30bd e3e3 43bd 961d 8bbd 6096 8dbb
00000060: af98 213b 3b9b 54bd 2fbc bc3a 43c1 443b
00000070: 7f6f 3fbd dc81 2dbd 7e7d 82bd 38c8 46bd
00000080: a0f2 54bd e8db 573a 5113 3abd 6947 8bbd
00000090: 9497 513a a2a0 06bc 894b 82bd c656 1dbd
000000a0: be31 28bd b550 3dbd 2962 34bd 99ef 3ebd
000000b0: 9745 a0bd 21d8 37bd e754 dfbc 5d9c 3abd
000000c0: 635d 64bd 917e 0dbd 0e3d 8639 08ce 22bd
000000d0: 0f6c 57bd 985a 9a39 1586 c137 05b3 2abd
000000e0: d43f 32bd b057 883a aee0 9fbb 3154 24bd
000000f0: 84e6 16bd b065 853a 8739 13bd 29bb 3fbd

exp_avg_sq f4 [64]
0.0014676058 0.0014179025 0.0011484527 0.0026763792 0.0029262672 4.4521944e-06 0.0028893063 8.151651e-06
2.9672276e-05 0.001128519 5.66509e-06 0.0035355983 0.0023553276 0.0028351012 8.0052305e-06 2.1600283e-05
4.122544e-06 0.00018658649 0.0027776293 0.0024876124 0.0015509162 0.0019238018 0.003921943 4.0132007e-05
9.17433e-06 0.002347982 1.7754326e-05 2.3265591e-05 0.0018869834 0.0015570435 0.0034957605 0.0019844691
0.0023336466 5.9880826e-06 0.0017480837 0.003956707 6.937092e-06 5.5964454e-05 0.003425446 0.0011917838
0.0014250162 0.0017351372 0.0016456386 0.0018497676 0.0049913 0.001780492 0.000627565 0.0017790064
0.002628362 0.0010953855 3.4991167e-06 0.0012198368 0.0023843492 1.9967147e-06 3.1179562e-07 0.0014877662
0.0016004433 6.8203512e-06 1.6112424e-05 0.0013566243 0.0011342249 7.583266e-06 0.0012773444 0.0018491609
00000000: ae5c c03a ead8 b93a ae87 963a 3166 2f3b
00000010: 9ec6 3f3b 0f64 9536 845a 3d3b 13c3 0837
00000020: bae8 f837 d0ea 933a c116 be36 7fb5 673b
00000030: d75b 1a3b 1bcd 393b 344e 0637 4132 b537
00000040: 6254 8a36 6ea6 4339 e308 363b 3607 233b
00000050: 1d48 cb3a 1428 fc3a a483 803b 6a53 2838
00000060: 73eb 1937 9ae0 193b 20ef 9437 7a2a c337
00000070: a854 f73a b615 cc3a 2119 653b de0d 023b
00000080: 18f0 183b 3ded c836 f51f e53a 44a7 813b
00000090: 2bc5 e836 60bb 6a38 737d 603b a135 9c3a
000000a0: 9cc7 ba3a 8b6d e33a 78b2 d73a e773 f23a
000000b0: 0f8e a33b 665f e93a 2d83 243a 8d2d e93a
000000c0: 9940 2c3b 0a93 8f3a 5ed2 6a36 eee2 9f3a
000000d0: be42 1c3b 4cff 0536 dd64 a734 2601 c33a
000000e0: f7c5 d13a 5fda e436 2b29 8737 c2d0 b13a
000000f0: 46aa 943a c273 fe36 916c a73a 8b5f f23a

exp_avg f4 [2, 64]
0.00035563266 -3.7201592e-06 -1.3964561e-05 3.212657e-05 0.000163973 -1.4742913e-07 0.00010272572 -2.670435e-07
4.4320364e-05 0.00035523376 7.281178e-06 1.42775e-05 0.00013238486 7.69824e-05 -2.289191e-09 4.3640037e-05
-2.7306219e-06 0.00036733097 0.00010411716 0.00014124771 5.613276e-05 0.00014275218 0.0001899755 -7.3108517e-06
7.5095064e-05 -8.0387135e-06 6.737215e-07 4.6772202e-05 8.176918e-05 -2.0229641e-05 0.0001715748 8.972942e-05
0.00014433828 -5.232675e-07 0.00020066346 9.3722265e-05 5.0082406e-07 5.0146347e-05 4.979626e-05 2.0413854e-08
1.8384582e-05 0.00032089752 0.00010240902 0.00016215682 0.00033922328 4.212856e-05 4.290483e-06 2.4378945e-05
0.00017604827 -9.629525e-06 1.2908983e-07 0.00043251133 0.00023921591 -4.6278107e-08 -5.9900684e-09 0.00013114094
0.00022262016 1.3530164e-06 0.00030023724 2.6394146e-05 0.0002144068 0.00020401036 6.557554e-05 0.00026318358
-0.00035563268 3.7201678e-06 1.396457e-05 -3.212656e-05 -0.000163973 1.4742918e-07 -0.00010272568 2.6704353e-07
-4.432037e-05 -0.00035523367 -7.2811804e-06 -1.4277493e-05 -0.00013238484 -7.698238e-05 2.2891913e-09 -4.3640037e-05
2.730622e-06 -0.00036733094 -0.00010411717 -0.00014124767 -5.6132743e-05 -0.00014275218 -0.00018997547 7.3108517e-06
-7.509506e-05 8.038723e-06 -6.737212e-07 -4.6772206e-05 -8.176917e-05 2.0229649e-05 -0.00017157478 -8.9729416e-05
-0.00014433825 5.2326766e-07 -0.00020066343 -9.3722265e-05 -5.0082366e-07 -5.014634e-05 -4.979627e-05 -2.0401666e-08
-1.8384568e-05 -0.00032089747 -0.00010240904 -0.00016215681 -0.0003392232 -4.2128573e-05 -4.290474e-06 -2.4378936e-05
-0.00017604824 9.6295325e-06 -1.290898e-07 -0.00043251127 -0.00023921583 4.6278085e-08 5.99007e-09 -0.00013114093
-0.00022262015 -1.3530162e-06 -0.00030023724 -2.639415e-05 -0.00021440678 -0.00020401036 -6.557553e-05 -0.00026318355
00000000: 3574 ba39 d9a7 79b6 5549 6ab7 a4bf 0638
00000010: 2bf0 2b39 034d 1eb4 736e d738 2e5e 8fb4
00000020: a1e4 3938 ab3e ba39 d850 f436 6589 6f37
00000030: cad0 0a39 9c71 a138 e04f 1db1 220a 3738
00000040: ba3f 37b6 5496 c039 7a59 da38 e51b 1439
00000050: 1870 6b38 bfaf 1539 2934 4739 bd4f f5b6
00000060: 5b7c 9d38 03de 06b7 cad9 3435 452d 4438
00000070: 7f7b ab38 d3b2 a9b7 c2e8 3339 1e2d bc38
00000080: 8359 1739 ab76 0cb5 3069 5239 c28c c438
00000090: 5e70 0635 3b54 5238 54dc 5038 8a5a af32
000000a0: 9738 9a37 233e a839 6dc4 d638 a408 2a39
000000b0: c7d9 b139 32b3 3038 f8f6 8f36 6381 cc37
000000c0: 9999 3839 7f8e 21b7 f19b 0a34 b0c2 e239
000000d0: 08d6 7a39 51c3 46b3 33d1 cdb1 e182 0939
000000e0: 256f 6939 4a99 b535 2969 9d39 ff68 dd37
000000f0: 63d2 6039 9deb 5539 9a85 8938 e7fb 8939
00000100: 3674 bab9 ffa7 7936 5f49 6a37 a2bf 06b8
00000110: 2bf0 2bb9 064d 1e34 6e6e d7b8 2f5e 8f34
00000120: a3e4 39b8 a83e bab9 dd50 f4b6 5e89 6fb7
00000130: c9d0 0ab9 9a71 a1b8 e14f 1d31 220a 37b8
00000140: bb3f 3736 5396 c0b9 7b59 dab8 e21b 14b9
00000150: 1370 6bb8 bfaf 15b9 2734 47b9 bd4f f536
00000160: 5a7c 9db8 0dde 0637 c5d9 34b5 462d 44b8
00000170: 7d7b abb8 d7b2 a937 c1e8 33b9 1d2d bcb8
00000180: 8159 17b9 ae76 0c35 2e69 52b9 c28c c4b8
00000190: 5770 06b5 3954 52b8 56dc 50b8 bd3f afb2
000001a0: 8f38 9ab7 213e a8b9 6fc4 d6b8 a308 2ab9
000001b0: c4d9 b1b9 36b3 30b8 e4f6 8fb6 5e81 ccb7
000001c0: 9799 38b9 878e 2137 ef9b 0ab4 aec2 e2b9
000001d0: 03d6 7ab9 4bc3 4633 37d1 cd31 e082 09b9
000001e0: 246f 69b9 4899 b5b5 2969 9db9 0169 ddb7
000001f0: 62d2 60b9 9deb 55b9 9885 89b8 e6fb 89b9

exp_avg_sq f4 [2, 64]
0.00021980859 3.521758e-05 3.471751e-05 4.1077812e-05 9.019324e-05 2.0650386e-07 6.5965e-05 5.355651e-07
7.208012e-06 0.00028560212 2.4864925e-05 5.279248e-05 6.9081434e-05 6.23726e-05 2.0497401e-08 2.076063e-06
2.8609722e-06 0.00021162846 6.25352e-05 8.361219e-05 7.472704e-05 9.5341406e-05 0.0001061394 7.310286e-07
8.575561e-06 5.380141e-05 8.494978e-07 4.3852115e-06 4.011161e-05 6.590191e-05 0.00010707447 7.642111e-05
8.0405654e-05 7.872668e-08 0.00014833447 6.125171e-05 3.4422924e-06 6.077793e-06 5.6720663e-05 8.042242e-05
6.130497e-05 0.00017749215 7.826916e-05 0.00010067624 0.00030022327 9.697112e-05 3.4551293e-05 7.870685e-05
0.00012481616 3.4078716e-05 5.3090105e-07 0.00034506514 0.00015978437 1.2623905e-09 3.027892e-09 9.0411646e-05
0.00015710901 2.8419122e-06 0.00012365181 8.564752e-05 0.000109734785 9.127885e-05 1.8980038e-05 0.00016075473
0.00021980853 3.521758e-05 3.4717516e-05 4.107781e-05 9.019324e-05 2.0650386e-07 6.5965e-05 5.355651e-07
7.208012e-06 0.00028560212 2.4864925e-05 5.279248e-05 6.908145e-05 6.237261e-05 2.0497401e-08 2.0760635e-06
2.8609718e-06 0.0002116285 6.2535204e-05 8.361219e-05 7.472704e-05 9.534139e-05 0.000106139414 7.310286e-07
8.575561e-06 5.380141e-05 8.494978e-07 4.3852115e-06 4.011161e-05 6.59019e-05 0.00010707446 7.642108e-05
8.040565e-05 7.8726686e-08 0.00014833448 6.125171e-05 3.4422924e-06 6.077793e-06 5.6720655e-05 8.042242e-05
6.130497e-05 0.00017749218 7.826914e-05 0.00010067624 0.0003002233 9.697114e-05 3.4551285e-05 7.8706864e-05
0.00012481616 3.4078723e-05 5.3090105e-07 0.0003450651 0.00015978437 1.262391e-09 3.027892e-09 9.0411646e-05
0.00015710901 2.8419122e-06 0.00012365181 8.564752e-05 0.000109734785 9.1278875e-05 1.898003e-05 0.00016075473
00000000: 6b7c 6639 97b6 1338 a49d 1138 f74a 2c38
00000010: 2126 bd38 59bb 5d34 b156 8a38 c1c3 0f35
00000020: 5adc f136 debc 9539 0595 d037 7e6d 5d38
00000030: d0df 9038 09ce 8238 4312 b032 7e52 0b36
00000040: 21ff 3f36 95e8 5d39 5425 8338 f458 af38
00000050: c6b6 9c38 07f2 c738 2897 de38 e73b 4435
00000060: c1df 0f37 d3a8 6138 0b09 6435 ae24 9336
00000070: 833d 2838 d234 8a38 2b8d e038 4544 a038
00000080: 759f a838 7310 a933 3b8a 1b39 4374 8038
00000090: 2202 6736 d8ef cb36 59e7 6d38 75a8 a838
000000a0: db90 8038 301d 3a39 6f24 a438 2522 d338
000000b0: 4967 9d39 f95c cb38 2beb 1038 6b0f a538
000000c0: 15e1 0239 beef 0e38 3e83 0e35 dce9 b439
000000d0: ca8b 2739 6b80 ad30 3d13 5031 629b bd38
000000e0: a1bd 2439 aeb7 3e36 88a8 0139 aa9d b338
000000f0: 6a21 e638 f66c bf38 5237 9f37 4590 2839
00000100: 677c 6639 97b6 1338 a69d 1138 f64a 2c38
00000110: 2126 bd38 59bb 5d34 b156 8a38 c1c3 0f35
00000120: 5adc f136 debc 9539 0595 d037 7e6d 5d38
00000130: d2df 9038 0ace 8238 4312 b032 8052 0b36
00000140: 1fff 3f36 98e8 5d39 5525 8338 f458 af38
00000150: c6b6 9c38 05f2 c738 2a97 de38 e73b 4435
00000160: c1df 0f37 d3a8 6138 0b09 6435 ae24 9336
00000170: 833d 2838 d034 8a38 2a8d e038 4144 a038
00000180: 749f a838 7410 a933 3c8a 1b39 4374 8038
00000190: 2202 6736 d8ef cb36 57e7 6d38 75a8 a838
000001a0: db90 8038 321d 3a39 6d24 a438 2522 d338
000001b0: 4a67 9d39 fc5c cb38 29eb 1038 6d0f a538
000001c0: 15e1 0239 c0ef 0e38 3e83 0e35 dbe9 b439
000001d0: ca8b 2739 6f80 ad30 3d13 5031 629b bd38
000001e0: a1bd 2439 aeb7 3e36 88a8 0139 aa9d b338
000001f0: 6a21 e638 f96c bf38 4e37 9f37 4590 2839

exp_avg f4 [2]
0.00024821312 -0.00024821312
00000000: 9a22 8239 9a22 82b9

exp_avg_sq f4 [2]
0.00032299827 0.0003229983
00000000: 1858 a939 1958 a939

exp_avg f4 [1, 64]
-0.06470858 -0.030629767 -0.028218245 -0.03661328 -0.047947608 -2.662302e-05 -0.04914558 -3.0887717e-05
-0.0015877826 -0.065619774 -0.007048573 -0.040469877 -0.0483943 -0.047961414 -3.7421069e-07 -0.001113048
-0.001226904 -0.04790625 -0.042208947 -0.052897196 -0.05011405 -0.055952374 -0.056399975 -0.0024277223
-0.0023417803 -0.03872644 -0.00030626231 -0.0012742648 -0.03894669 -0.041303914 -0.05300244 -0.04885928
-0.045878235 -0.0002571733 -0.051415022 -0.04767161 -0.00040642894 -0.010435111 -0.044961203 -0.045576785
-0.04495236 -0.06194848 -0.04876093 -0.04911443 -0.0657705 -0.04615908 -0.03265683 -0.046098314
-0.053085353 -0.028405124 -3.446452e-05 -0.068201005 -0.06060675 -1.8552626e-05 -2.8931247e-06 -0.048385147
-0.057420313 -0.0005060516 -0.030925022 -0.044620488 -0.054487012 -0.014980803 -0.022959929 -0.058620606
00000000: ef85 84bd 47eb fabc f329 e7bc cff7 15bd
00000010: b664 44bd 8054 dfb7 e04c 49bd 6f8d 01b8
00000020: 251d d0ba a963 86bd b7f7 e6bb bec3 25bd
00000030: 1a39 46bd 3073 44bd 20e7 c8b4 b2e3 91ba
00000040: 11d0 a0ba 5839 44bd 4ae3 2cbd bbaa 58bd
00000050: 6444 4dbd 512e 65bd a903 67bd 6c1a 1fbb
00000060: 8e78 19bb 9e9f 1ebd d591 a0b9 3b05 a7ba
00000070: 9086 1fbd 4b2e 29bd 1619 59bd ab20 48bd
00000080: d1ea 3bbd 37d5 86b9 8f98 52bd 4e43 43bd
00000090: f815 d5b9 07f8 2abc 3d29 38bd b9ae 3abd
000000a0: f71f 38bd b0bd 7dbd 8ab9 47bd 362c 49bd
000000b0: afb2 86bd 4e11 3dbd 2bc3 05bd 96d1 3cbd
000000c0: 0770 59bd ddb1 e8bc ff8d 10b8 f8ac 8bbd
000000d0: c93e 78bd 76a1 9bb7 8127 42b6 812f 46bd
000000e0: 9031 6bbd 8ca8 04ba 7956 fdbc f9c3 36bd
000000f0: c62d 5fbd 0b72 75bc 7616 bcbc 291c 70bd

exp_avg_sq f4 [1, 64]
0.003146687 0.0010341251 0.0010128157 0.001305833 0.0019540233 3.7592915e-07 0.0019823133 1.0010519e-06
1.6143547e-05 0.0034106656 9.0946996e-05 0.0016503533 0.0018844316 0.0020162624 4.575854e-08 4.807193e-06
1.7699924e-05 0.001783481 0.0015764214 0.0022326557 0.002295485 0.0026001022 0.0025123083 7.776876e-06
2.026738e-05 0.0016058531 2.1434587e-06 9.584464e-06 0.0012407468 0.0018830055 0.0022486013 0.0020896876
0.0017992757 6.6851794e-07 0.0022649493 0.0018848535 7.888365e-06 7.463927e-05 0.0018223473 0.002072018
0.001875945 0.002867266 0.0020747683 0.0020325053 0.0034912664 0.0021087949 0.0010480306 0.002105135
0.00237629 0.00096522475 9.685905e-07 0.003704042 0.0028760547 3.0041758e-08 2.9099851e-08 0.00204735
0.002719621 6.988702e-06 0.00082099886 0.001871528 0.002320614 0.0003197529 0.0004708754 0.0027058825
00000000: a638 4e3b 7b8b 873a 75c0 843a 7c28 ab3a
00000010: 120f 003b 4fd3 c934 b3e9 013b e25b 8635
00000020: 016c 8737 7985 5f3b ccba be38 ab50 d83a
00000030: 08ff f63a 4523 043b 0c88 4433 794d a136
00000040: 4c7a 9437 b1c3 e93a ed9f ce3a bf51 123b
00000050: d96f 163b 7a66 2a3b 8aa5 243b 6e79 0237
00000060: de03 aa37 7d7b d23a 57d8 0f36 f6cc 2037
00000070: 8ea0 a23a 2ecf f63a 455d 133b 24f3 083b
00000080: add5 eb3a 3474 3335 8b6f 143b 300d f73a
00000090: 4558 0437 a787 9c38 d4db ee3a b2ca 073b
000000a0: 45e2 f53a bee8 3b3b d6f8 073b c833 053b
000000b0: bbcd 643b b533 0a3b 125e 893a 4ef6 093b
000000c0: 88bb 1b3b 2307 7d3a 8400 8235 83bf 723b
000000d0: 317c 3c3b 4307 0133 40f7 f932 d52c 063b
000000e0: ab3b 323b 7e80 ea36 4d38 573a 0f4e f53a
000000f0: 7115 183b 82a4 a739 d4df f639 2d55 313b
