savedModels/ppo_cartpole_61440.pth (torch, 13659 bytes, 15 tensors)

shared_fc.0.weight f4 [64, 4]
0	0x3d81bd90	0.06334984
1	0x3eea03e0	0.4570608
2	0x3d0a3616	0.033742987
3	0xbe90c630	-0.28276205
4	0xbe0c0cfa	-0.13676825
5	0xbe17e1a5	-0.1483217
6	0xbf60e14b	-0.8784377
7	0xbea0418e	-0.31300014
8	0xbda5e638	-0.08100551
9	0xbebb2167	-0.3654892
10	0xbf150c47	-0.5822186
11	0xbf078c74	-0.5294869
12	0xbd9a167b	-0.07523819
13	0xbe047380	-0.12934685
14	0xbf2b4668	-0.66904306
15	0xbe840bc0	-0.25790215
16	0x3d37bfa8	0.044860512
17	0x3b45897e	0.0030141766
18	0xbf717019	-0.9431167
19	0xbe713845	-0.23556621
20	0xbde5639f	-0.11200642
21	0x3d32ba24	0.04363455
22	0xbe27854e	-0.16359445
23	0xbd0d7fca	-0.034545697
24	0xbe1f39e7	-0.15549432
25	0x3e3d8e35	0.18511279
26	0x3f1e9a23	0.61953944
27	0x3eaf63d1	0.3425584
28	0xbe000594	-0.12502128
29	0xbd97072f	-0.07374417
30	0xbdd38228	-0.1032756
31	0xbe0bfeae	-0.13671371
32	0x3e39a2f1	0.18128563
33	0xbd1161a0	-0.035493493
34	0xbdda041f	-0.10645317
35	0x3d16df87	0.036834266
36	0x3e976451	0.29568723
37	0x3e07e2d6	0.13270125
38	0xbdae0d26	-0.084986016
39	0xbea36af0	-0.31917524
40	0x3ea8cdda	0.32969552
41	0xbeb2ebb9	-0.34945467
42	0xbeb0aee4	-0.3450843
43	0xbdbf1265	-0.0932968
44	0xbd0f942b	-0.035053413
45	0xbe689f51	-0.22717024
46	0xbbc5779b	-0.006026221
47	0x3e232531	0.15932156
48	0xbc56d958	-0.013113342
49	0x3da2ef48	0.079557955
50	0x3f0168f8	0.50550795
51	0x3e92839b	0.28616032
52	0xbdb3505c	-0.08755562
53	0xbbd59e26	-0.006519097
54	0x3dec049b	0.11524316
55	0x3db08b37	0.08620303
56	0xbd37a8c3	-0.044838678
57	0xba1633e4	-0.0005729778
58	0xbe61b4ca	-0.22041622
59	0xbd824e92	-0.06362642
60	0x3da3cd87	0.079981856
61	0x3d928c2f	0.07155644
62	0xbd33346b	-0.04375116
63	0x3e40b063	0.18817286
64	0xbdda10cb	-0.10647734
65	0xbeae8161	-0.34083083
66	0xbec661de	-0.38746542
67	0xbe1fbb0b	-0.15598695
68	0x3e9a24aa	0.30106097
69	0x3e926630	0.28593588
70	0x3cec6bcc	0.028859995
71	0x3d548dce	0.051893048
72	0x3ca4b149	0.020104067
73	0xbda0f001	-0.07858277
74	0xbf173322	-0.590624
75	0xbe959f01	-0.29222873
76	0xbe504e38	-0.20342338
77	0x3ea3f108	0.3201983
78	0x3ec5c144	0.38624012
79	0x3dcee49e	0.10102199
80	0xbd4e544a	-0.050373353
81	0xbdf277b6	-0.11839239
82	0x3eef4b45	0.46737114
83	0x3ea8b248	0.32948518
84	0xbe006bfe	-0.12541196
85	0x3e2ebf06	0.17065057
86	0x3c2064d0	0.009789661
87	0xbe24f126	-0.16107616
88	0x3cf0b219	0.029381799
89	0x3def7236	0.11691706
90	0x3ec295fd	0.38005057
91	0x3eeed8ea	0.46649867
92	0x3d724c71	0.05915493
93	0xbdf97cbf	-0.121819966
94	0xbe78aff6	-0.24285874
95	0xbc8cd7a8	-0.017192677
96	0x3e29d12f	0.16583703
97	0x3d9256ba	0.07145448
98	0xbe839d59	-0.25705984
99	0x3e84bdf1	0.25926164
100	0x3c716255	0.014732917
101	0xbeb19189	-0.34681347
102	0xbe60bf44	-0.21947962
103	0x3b8dba75	0.004325206
104	0xbe095bb7	-0.13413893
105	0x3c31f3ef	0.010861381
106	0xbd3d06f2	-0.0461492
107	0x3db5eb52	0.088827744
108	0x3e108a34	0.1411522
109	0x3ceaa44d	0.028642798
110	0x3d41b7ee	0.04729455
111	0x3e191b3a	0.14951792
112	0xbdab9589	-0.08378131
113	0x3dd0b98a	0.10191639
114	0x3f08c43c	0.5342443
115	0x3e750c95	0.23930581
116	0xbdf1d83e	-0.11808823
117	0xbe8f2edc	-0.27965438
118	0x3f2a9c7f	0.66645044
119	0x3e9c2caa	0.30502826
120	0x3de835fe	0.11338423
121	0xbb80316c	-0.0039121415
122	0x3f2d1fc7	0.67626613
123	0x3e460bea	0.19340482
124	0x3d4970e3	0.049179923
125	0xbe100627	-0.14064847
126	0x3ee0dda8	0.4391911
127	0x3de3e567	0.111277394
128	0x3d1c1bc9	0.038112435
129	0xbc8d20f8	-0.017227635
130	0xbf2db5ef	-0.67855734
131	0xbe93d00a	-0.2886966
132	0x3da03a88	0.07823664
133	0xbe537abb	-0.20652287
134	0xbe4ab3bc	-0.19795126
135	0xbea357da	-0.31902963
136	0x3e77e7a3	0.24209456
137	0xbe15e95a	-0.14639798
138	0xbf1ce2bb	-0.61283463
139	0xbe5b9ac7	-0.21445762
140	0xbe090ff7	-0.13384996
141	0x3e0eca43	0.13944344
142	0x3f158fb8	0.5842242
143	0x3e8d66d9	0.2761753
144	0xbe8628b1	-0.2620292
145	0xbc26c6e8	-0.010179259
146	0x3e90a1cd	0.28248444
147	0xbe07903e	-0.13238618
148	0xbdd8b21b	-0.10580846
149	0x3e98d6d9	0.29851416
150	0x3e3c6673	0.18398456
151	0x3db3b61c	0.08774969
152	0xbd331e40	-0.04373002
153	0xbdd5a1f5	-0.104312815
154	0x3eee940b	0.46597323
155	0x3e09ede1	0.1346965
156	0xbe9c5f38	-0.30541396
157	0x3d628c0e	0.055309348
158	0x3e84057a	0.25785428
159	0x3ecfd8af	0.40595004
160	0xbe42ab95	-0.19010766
161	0xbc788a1e	-0.015169648
162	0x3f2c6505	0.67341644
163	0x3e49e79e	0.19717261
164	0xbd816f63	-0.063200735
165	0x3f0ab1fe	0.54177845
166	0xbd904e76	-0.07046215
167	0xbe7fcc2a	-0.24980226
168	0xbe5ea94e	-0.21744272
169	0x3e4871d3	0.1957467
170	0xbefb43a6	-0.4907505
171	0xbe40bfd5	-0.18823178
172	0x3dda88ce	0.10670625
173	0xbd82eb9d	-0.06392596
174	0xbeb0d01c	-0.34533775
175	0xbe793b35	-0.24338992
176	0x3ec9b76a	0.39397746
177	0xbcd7890b	-0.026310464
178	0xbc4fa7e4	-0.012674306
179	0x3e6a359c	0.22872013
180	0x3e28ebad	0.16496153
181	0xbecb113b	-0.39661583
182	0x3f03ce0e	0.5148629
183	0x3e5eec0c	0.21769732
184	0xbcef9f0a	-0.02925064
185	0xbe2f9cc7	-0.1714965
186	0x3f51dc7c	0.8197706
187	0x3e5828f2	0.2110937
188	0x3da8d130	0.08243024
189	0xbeb56d95	-0.35435167
190	0x3eddfaa1	0.43355277
191	0x3ddcc346	0.10779433
192	0x3e262744	0.16225916
193	0xbdec4133	-0.11535873
194	0xbe4b9ecc	-0.19884795
195	0xbe1118ec	-0.14169663
196	0xbe0ac5b7	-0.13551985
197	0xbe732808	-0.2374574
198	0xbf17c927	-0.5929131
199	0xbed84e41	-0.42247203
200	0xbe0323ce	-0.12806627
201	0xbd024b42	-0.031810053
202	0x3d46189c	0.048363313
203	0x3d718454	0.05896409
204	0x3e854cf8	0.26035285
205	0x3ebdaff6	0.3704831
206	0xbe28d8db	-0.16488974
207	0xbf0d8472	-0.5528022
208	0x3e28ec95	0.16496499
209	0x3d70fa7f	0.05883264
210	0x3f06641a	0.5249649
211	0x3e9c9ef7	0.3059003
212	0x3bd3823d	0.0064547346
213	0x3bc88d83	0.006120385
214	0x3e63bde6	0.2224041
215	0x3dd20b51	0.10256065
216	0xbc67cbe4	-0.014147732
217	0xbd6d0e5a	-0.057875015
218	0xbeb1a7f2	-0.34698445
219	0xbe4e8a03	-0.20169835
220	0xbc156f6c	-0.009120803
221	0x3b643971	0.0034824277
222	0xbef1a613	-0.47197017
223	0xbf0696cf	-0.52573866
224	0x3e2fb90a	0.1716043
225	0xbce48790	-0.027896672
226	0xbeb41e8e	-0.3517956
227	0xbe88541e	-0.26626676
228	0xbe7e41b6	-0.24829754
229	0x3d0835ba	0.033254363
230	0xbe28442e	-0.16432258
231	0x3e3eb308	0.18622983
232	0x3e80eff6	0.25183076
233	0x3e833508	0.25626397
234	0xbeaa5e5f	-0.33275124
235	0xbde402bf	-0.11133336
236	0xbea6b303	-0.3255845
237	0x3e686142	0.22693351
238	0xbea742b3	-0.32668075
239	0xbeb22cec	-0.34799898
240	0x3c6bf018	0.0144005045
241	0x3e42ff7e	0.19042775
242	0xbe26d216	-0.16291079
243	0xbdad89d2	-0.08473553
244	0x3ec2b289	0.38026837
245	0x3d4ff1d6	0.050767742
246	0x3ecf2733	0.40459594
247	0xbd32ab6a	-0.043620504
248	0x3b8dee92	0.0043314183
249	0xbd2e2798	-0.04251823
250	0xbf422b00	-0.7584686
251	0xbe139145	-0.14410885
252	0x3dde06b2	0.10841121
253	0x3e2e5294	0.17023689
254	0xbea47a1c	-0.32124412
255	0xbe7d3c0e	-0.2472994

shared_fc.0.bias f4 [64]
0	0x3ec8d210	0.39222765
1	0x3eb6d80d	0.3571171
2	0x3ebd4e1c	0.36973655
3	0x3ebc639f	0.36794755
4	0x3ecd6820	0.40118504
5	0xbe12db38	-0.14341438
6	0x3ec919ae	0.39277405
7	0xbdf14054	-0.11779848
8	0xbde2f2ff	-0.11081504
9	0x3ed71693	0.4200941
10	0xbd96e555	-0.0736796
11	0x3ecab790	0.39593172
12	0x3ebd08a5	0.36920658
13	0x3ed5fd37	0.4179475
14	0xbd9ad57c	-0.0756025
15	0xbddf9b5f	-0.109183066
16	0xbd2cb83f	-0.0421679
17	0x3e412b9f	0.18864296
18	0x3ebd80c2	0.37012297
19	0x3ed0c1e5	0.4077293
20	0x3ee6678c	0.45000875
21	0x3eeeb2a7	0.46620676
22	0x3ed63221	0.4183512
23	0xbd05df26	-0.032683514
24	0xbe1e0257	-0.1543058
25	0x3ed11ffc	0.40844715
26	0xbd6622bf	-0.05618548
27	0xbe063981	-0.13107873
28	0x3e97f7fb	0.29681382
29	0x3eda693f	0.4265842
30	0x3eca6a7a	0.3953436
31	0x3ed4d75b	0.41570553
32	0x3ec4babd	0.3842372
33	0xbdc5980c	-0.09648141
34	0x3ecabc28	0.39596677
35	0x3ec4859e	0.38383192
36	0xbe470873	-0.19436817
37	0xbcc3dc2a	-0.023908693
38	0x3eca95bc	0.39567363
39	0x3edf607f	0.43628308
40	0x3eceb604	0.40373242
41	0x3ec4df61	0.38451675
42	0x3edde27d	0.4333686
43	0x3ec9f9c9	0.39448383
44	0x3ed815ae	0.4220404
45	0x3ed9df7d	0.4255332
46	0x3e900273	0.2812687
47	0x3ee382f9	0.44435862
48	0x3ed825b5	0.42216268
49	0x3eb41072	0.35168797
50	0xbde9b666	-0.11411743
51	0x3ec4cf0e	0.3843922
52	0x3ee080b7	0.43848202
53	0xbdd2c124	-0.10290745
54	0xbdca40fb	-0.09875675
55	0x3ed75d55	0.42063394
56	0x3ee1fd24	0.44138443
57	0xbe0fdb34	-0.14048463
58	0x3cd9fe3b	0.026610484
59	0x3ed01024	0.40637314
60	0x3ec98b3d	0.39364043
61	0xbd0c8bec	-0.034313127
62	0x3e4a673d	0.19765945
63	0x3ed45b1f	0.4147577

actor_head.weight f4 [2, 64]
0	0x3c9d9474	0.019235827
1	0x3e96713d	0.2938327
2	0x3e78b63b	0.24288265
3	0x3e925d1d	0.28586665
4	0x3e568e84	0.20952803
5	0xbdd43d7a	-0.10363288
6	0xbe63420b	-0.22193162
7	0x3cfda2c6	0.030961405
8	0x3d757e65	0.059934992
9	0x3cc7ca1b	0.024388364
10	0x3ddf82f4	0.10913649
11	0xbd10b09e	-0.035324685
12	0xbe3ee3a5	-0.18641527
13	0xbb43d19e	-0.002987958
14	0xbdfbe3bb	-0.122992955
15	0x3dcbf14c	0.09958133
16	0x3dd0e9fd	0.1020088
17	0xbd93402b	-0.071899734
18	0x3e4ccdb2	0.20000342
19	0xbdb2cfdd	-0.08731053
20	0xbddb6d1b	-0.107141696
21	0x3d37191c	0.04470168
22	0xbe282364	-0.1641975
23	0x3e2396b8	0.15975463
24	0x3cb9f846	0.022701394
25	0x3d14be78	0.036314458
26	0x3e3f4b55	0.1868108
27	0x3dcf542b	0.10123476
28	0xbe787373	-0.2426279
29	0xbdd4fec4	-0.10400155
30	0xbe7b50b6	-0.24542508
31	0xbdb21a6f	-0.08696448
32	0x3e42fec5	0.190425
33	0x3dacf552	0.08445229
34	0x3e1e5fe9	0.15466274
35	0xbe61a385	-0.22035034
36	0xbc8d409d	-0.017242724
37	0xbdfbeb8d	-0.12300787
38	0xbe042072	-0.12903002
39	0xbdcacf8a	-0.09902866
40	0xbe111362	-0.1416755
41	0x3d2203fb	0.039554577
42	0x3e15b648	0.14620316
43	0x3df1a302	0.117986694
44	0xbdfccbcf	-0.12343561
45	0xbdbde6c8	-0.09272534
46	0xbdca8931	-0.098894484
47	0xbd9ee1c7	-0.07757907
48	0x3d94f243	0.0727277
49	0x3e8a0bcc	0.26962125
50	0x3d113da5	0.03545918
51	0x3d71c4dd	0.059025634
52	0xbe683bb1	-0.2267902
53	0x3e88d63b	0.26725945
54	0xbcfb2988	-0.030659452
55	0x3e0f95b1	0.14021946
56	0x3da05de4	0.07830408
57	0x3d5f0cc2	0.054455526
58	0x3ca462ec	0.0200667
59	0x3e080ab5	0.13285334
60	0x3cf2b0f8	0.0296254
61	0xbda8aeca	-0.08236463
62	0x3ec1cd2e	0.37851852
63	0x3d541013	0.051773142
64	0xbc73306a	-0.014843086
65	0xbe9bca7a	-0.30427915
66	0xbe8204b6	-0.2539422
67	0xbe93f04b	-0.28894266
68	0xbe6fdc88	-0.2342397
69	0x3ddc9441	0.10770465
70	0x3e6cfdf1	0.23143746
71	0xbce1e099	-0.027572917
72	0xbd9b320c	-0.07577905
73	0xbd5a38dd	-0.053276885
74	0xbd88971d	-0.066694476
75	0x3cc85580	0.024454832
76	0x3e49d4b8	0.19710052
77	0x3cf31db7	0.029677255
78	0x3dda5248	0.10660225
79	0xbde817ea	-0.11332686
80	0xbe26e1f1	-0.16297127
81	0x3d8f62cd	0.07001267
82	0xbe590d04	-0.21196371
83	0x3da5aee2	0.08089997
84	0x3da53618	0.08066958
85	0xbd82c0ca	-0.06384428
86	0x3e33f759	0.17574824
87	0xbe382022	-0.17981008
88	0xbd324ff7	-0.04353329
89	0xbd3f005f	-0.046631213
90	0xbe2bc934	-0.16775972
91	0xbdc39370	-0.09549606
92	0x3e54fcac	0.20799512
93	0x3de74a0f	0.112934224
94	0x3e86fd47	0.2636511
95	0x3de3b15a	0.111178115
96	0xbe49e83c	-0.19717497
97	0xbda22ff8	-0.079193056
98	0xbe0dad1f	-0.13835572
99	0x3e6db297	0.23212658
100	0x3cf93243	0.030419474
101	0x3ddf8c85	0.10915474
102	0x3df1971e	0.117964014
103	0x3db2fea6	0.087399766
104	0x3e038e72	0.12847307
105	0xbce54193	-0.02798537
106	0xbe129239	-0.14313592
107	0xbe027a0e	-0.12741873
108	0x3dbc0e7e	0.09182452
109	0x3dedc09f	0.11609005
110	0x3dad0edb	0.08450099
111	0x3d9e9809	0.07743842
112	0xbd4f7f02	-0.050658233
113	0xbe8b4c1f	-0.27206513
114	0xbd0e8a48	-0.034799844
115	0xbd148d17	-0.036267366
116	0x3e76b3e7	0.24092065
117	0xbe87bf9c	-0.26513374
118	0x3cbd2337	0.02308808
119	0xbe194c11	-0.14970423
120	0xbda026ea	-0.07819922
121	0xbd60aaba	-0.054850318
122	0xbc8f79b2	-0.017514084
123	0xbe00d234	-0.12580186
124	0xbc961f85	-0.018325577
125	0x3dac07ae	0.08399902
126	0xbebc6703	-0.36797342
127	0xbdafc792	-0.08582987

actor_head.bias f4 [2]
0	0xbc24ded8	-0.010062896
1	0x3c24deea	0.0100629125

critic_head.weight f4 [1, 64]
0	0x3ec186a3	0.37798032
1	0x3ea5cc87	0.32382604
2	0x3e9ec0f6	0.31006593
3	0x3ef06ad1	0.46956494
4	0x3f0097aa	0.5023142
5	0xbe1b7fa6	-0.15185413
6	0x3efdc0de	0.49561208
7	0xbe742fad	-0.23846312
8	0xbe349df5	-0.17638381
9	0x3ea18b42	0.31551558
10	0xbaf6b370	-0.0018821787
11	0x3f12154c	0.57063746
12	0x3edd7d53	0.43259677
13	0x3efbfb55	0.4921519
14	0xbea45781	-0.3209801
15	0xbe155c5b	-0.14586012
16	0xbc540bcb	-0.012942265
17	0x3df2ccd6	0.118554756
18	0x3ef86708	0.48516107
19	0x3eed2f3d	0.46325102
20	0x3ead27bc	0.33819377
21	0x3ec9be17	0.3940284
22	0x3f17b2d0	0.5925722
23	0x3d41f9ac	0.047357246
24	0xbdc5dda3	-0.096614145
25	0x3ee92dc6	0.45542735
26	0xbe47cc69	-0.1951157
27	0xbe18082f	-0.14846872
28	0x3ec0b25d	0.3763608
29	0x3ec4e75e	0.3845777
30	0x3f0c869e	0.5489291
31	0x3ec7c353	0.39016208
32	0x3ee0c5ba	0.43900853
33	0xbe44cc27	-0.19218503
34	0x3ec212e6	0.37905043
35	0x3f18cbc1	0.59685904
36	0xbe2b817f	-0.16748618
37	0x3d8beffa	0.06832881
38	0x3f0c34bc	0.54767966
39	0x3ea33808	0.31878686
40	0x3ea822cd	0.3283905
41	0x3ed8e5b9	0.42362764
42	0x3eb99dbe	0.3625316
43	0x3ec36430	0.38162374
44	0x3f3cb03c	0.7370641
45	0x3ec927a2	0.3928805
46	0x3e4469ab	0.19180934
47	0x3ebfe41f	0.3747873
48	0x3ef2641c	0.47342002
49	0x3e9458ba	0.28973943
50	0xbe159a30	-0.14609599
51	0x3ebe6da7	0.37193033
52	0x3ee0ebbc	0.4392985
53	0xbe4fc05e	-0.20288226
54	0xbe013e3a	-0.12621394
55	0x3eae1451	0.33999875
56	0x3eb5948c	0.35464895
57	0xbe1d372a	-0.15353075
58	0x3cb7d50d	0.022440458
59	0x3eb8e6b2	0.36113507
60	0x3e908804	0.28228772
61	0xbceea8ef	-0.029133288
62	0x3e8cbcbd	0.27487746
63	0x3eca2842	0.3948384

exp_avg f4 [64, 4]
0	0xbb8ecd83	-0.004357995
1	0xb936819a	-0.00017405153
2	0xb94a7f7e	-0.00019311716
3	0xba936e36	-0.0011248055
4	0xbbcf37db	-0.006323797
5	0x3b1831a1	0.002322294
6	0xb94957da	-0.00019201581
7	0xbb929e06	-0.0044744043
8	0xbbdcc422	-0.006737248
9	0x397f3969	0.00024340082
10	0xb8d87a03	-0.00010322409
11	0xbaabb0ac	-0.0013098917
12	0xbc00dbc6	-0.007864898
13	0x3b3aa8d2	0.0028481972
14	0xb9ad2a27	-0.00033028537
15	0xbbc40305	-0.0059818053
16	0xbc189533	-0.009312916
17	0xb9afc332	-0.00033524033
18	0xb977a291	-0.00023616316
19	0xbac6bd84	-0.0015162681
20	0x3b3cef66	0.0028829216
21	0x38ef831b	0.000114208284
22	0x38eca883	0.00011284745
23	0x39a46b9b	0.0003136069
24	0xbacbf780	-0.0015561432
25	0x3b0a0736	0.0021061427
26	0xba7e8ea1	-0.00097105844
27	0xbbc2eac7	-0.005948398
28	0x3b68b7be	0.003550991
29	0x3a6346b0	0.0008669896
30	0x38eb07fa	0.00011207159
31	0x39769513	0.00023515923
32	0xba4139e6	-0.0007370993
33	0xb98c89b7	-0.00026805486
34	0x38c5ec3a	9.437693e-05
35	0xb8366b54	-4.349214e-05
36	0xbad587f8	-0.0016291132
37	0x385b9d33	5.2360072e-05
38	0xb8577de1	-5.137723e-05
39	0xba5ef0c9	-0.0008504508
40	0xba129b0a	-0.00055925606
41	0xba089a80	-0.00052110106
42	0x38b02242	8.398715e-05
43	0xb8886a1e	-6.504751e-05
44	0xbba148be	-0.0049220016
45	0x3b8172d0	0.0039504543
46	0xba494400	-0.00076776743
47	0xbbf5eee5	-0.007505285
48	0xbb50296c	-0.003176297
49	0x3a8370bb	0.0010028103
50	0xb9f471b4	-0.00046624022
51	0xbb80cc6f	-0.0039306204
52	0xbbb1620e	-0.0054133004
53	0x3af36c7d	0.0018571761
54	0xb9f08803	-0.00045877704
55	0xbba96ad5	-0.005170206
56	0x3bb6656c	0.0055662896
57	0x3a580b0a	0.0008241391
58	0x39020315	0.00012398914
59	0x386d0d5f	5.6517656e-05
60	0xba50f090	-0.0007970417
61	0xba6b90d1	-0.0008986118
62	0x38aec637	8.333887e-05
63	0x3a9b82da	0.0011864558
64	0xb884cfba	-6.3329426e-05
65	0x393b97fc	0.00017890328
66	0xb6c43580	-5.8474834e-06
67	0x399712d1	0.00028814984
68	0x3a0347a2	0.00050079275
69	0x390bb4be	0.00013323405
70	0xb87e9db5	-6.0705195e-05
71	0x393e4474	0.00018145313
72	0xbc122b68	-0.008921482
73	0xb9b98614	-0.00035385846
74	0xb9723cc5	-0.00023101557
75	0xbabc28ea	-0.0014355455
76	0xbb92e451	-0.004482784
77	0x3ac5530b	0.0015054656
78	0xb9ef3e3e	-0.00045632006
79	0xbb97b624	-0.004629867
80	0xbb664890	-0.0035138465
81	0x3a3a8b12	0.000711606
82	0xb93577a4	-0.00017306075
83	0xbb423d76	-0.0029638684
84	0xbba1a75a	-0.00493328
85	0x3ae28114	0.00172809
86	0xb9b4299a	-0.0003436327
87	0xbb8f560d	-0.0043742717
88	0xbb900319	-0.0043949005
89	0x3b37d3a0	0.0028049722
90	0xba573868	-0.00082100043
91	0xbbdf7c5c	-0.0068202447
92	0x39989e16	0.00029109482
93	0x37f30d14	2.8973947e-05
94	0x38834485	6.2593295e-05
95	0xb98fb6ab	-0.00027411184
96	0xba31cf1a	-0.00067828747
97	0xba43cc0b	-0.00074690644
98	0x3899ed48	7.3398056e-05
99	0x3a67bde7	0.00088402483
100	0xbbb28acd	-0.0054486752
101	0x3b03a10b	0.0020085003
102	0xb9d58cba	-0.00040731375
103	0xbba4118f	-0.005006976
104	0x3ad43758	0.001619081
105	0x398bce81	0.00026666003
106	0x39019ed3	0.00012361565
107	0x3b01a5a4	0.0019782567
108	0xb9f6c005	-0.00047063842
109	0x3863049c	5.412531e-05
110	0x38a20b45	7.726861e-05
111	0xb92b1104	-0.0001631417
112	0xbae2c88d	-0.00173022
113	0x3ab1bdfe	0.001356065
114	0xba13b420	-0.00056344457
115	0xbb806875	-0.0039187022
116	0xbba444d5	-0.005013088
117	0x39cb2e56	0.000387537
118	0xb7ba57f1	-2.2213879e-05
119	0xbb408b97	-0.0029380077
120	0xbb848e72	-0.004045301
121	0x3aaa14b1	0.0012976137
122	0xba1c70db	-0.00059677445
123	0xbba42356	-0.005009095
124	0xbb6813c1	-0.0035412165
125	0x3a9ac298	0.0011807261
126	0xb9ceb019	-0.00039422585
127	0xbb79f195	-0.003813838
128	0xbc0554da	-0.008137906
129	0xb999985d	-0.00029295954
130	0xb9588a8d	-0.0002065098
131	0xbaadb672	-0.0013253225
132	0x3a9eacd3	0.0012105949
133	0xb936444d	-0.00017382317
134	0xb7e7fde4	-2.7655573e-05
135	0x398e0b6a	0.00027092855
136	0xbb4e32ee	-0.0031463462
137	0x3b260790	0.0025334097
138	0xb955d1d7	-0.00020391434
139	0xbba6eef3	-0.005094403
140	0xbb9ad77d	-0.0047253952
141	0x3ac71aec	0.0015190518
142	0xba2507d6	-0.0006295418
143	0xbbb60b54	-0.0055555496
144	0x3b292761	0.0025810825
145	0x39c55e7d	0.00037645167
146	0x38d0fc46	9.9652025e-05
147	0x39688499	0.0002217464
148	0x3ad065e3	0.0015899505
149	0xb954b2d9	-0.00020284521
150	0xb8623d45	-5.393966e-05
151	0x39a42ba1	0.00031313024
152	0xbb85a9cd	-0.0040790797
153	0x3b49297d	0.0030694895
154	0xba4c5613	-0.00077948085
155	0xbbdc80f0	-0.0067292377
156	0xbb43ecf2	-0.002989587
157	0x396caa05	0.00022570051
158	0xb95fc65b	-0.0002134083
159	0xbb38f451	-0.0028221796
160	0xbb366821	-0.0027833062
161	0x3799ab14	1.8318686e-05
162	0xb972adae	-0.00023143619
163	0xbb2e32b5	-0.0026580517
164	0xbbb1e718	-0.00542916
165	0xb8e1a25f	-0.0001075908
166	0xb96efeb5	-0.00022792334
167	0xbaa9105f	-0.0012898556
168	0xbbb032f5	-0.0053771683
169	0x3af605c3	0.0018770028
170	0xb994571f	-0.0002829367
171	0xbb8d5baa	-0.0043139057
172	0xbbb0b52d	-0.0053926916
173	0x3afc4a45	0.0019248208
174	0xb9a1b970	-0.00030846475
175	0xbb92dd69	-0.0044819606
176	0x3b66e9b6	0.0035234517
177	0x3ba208c7	0.004944894
178	0xb9c23f7a	-0.00037049857
179	0xbbdb17cc	-0.0066861864
180	0xbb595c74	-0.0033166679
181	0x3a935ec4	0.0011243452
182	0xb927646e	-0.00015963774
183	0xbb4515af	-0.003007274
184	0xba96e073	-0.0011510983
185	0x38b8c035	8.809605e-05
186	0xb9311fcf	-0.00016891885
187	0xbad51c7f	-0.0016259103
188	0xbb2a4417	-0.0025980526
189	0x3b425edf	0.0029658598
190	0xba168755	-0.0005742212
191	0xbba67fe6	-0.0050811647
192	0xbbc0d84a	-0.0058851587
193	0x3b074723	0.0020641766
194	0xb9d9574e	-0.00041454512
195	0xbbabda5b	-0.005244536
196	0xbbb9fe9f	-0.005676105
197	0x3b097481	0.0020973983
198	0xb933c51c	-0.00017144199
199	0xbb833b39	-0.0040048626
200	0x3adf97ad	0.0017058753
201	0xb9b1896e	-0.00033862464
202	0x38e08a82	0.000107069514
203	0x3ac8839a	0.0015298009
204	0xbb509e2c	-0.003183256
205	0x39713de8	0.00023006613
206	0xb8ef51fb	-0.00011411678
207	0xbaacf5ec	-0.0013195849
208	0xbad9938d	-0.001659976
209	0x3a87c4c0	0.0010358319
210	0xb9e65e8c	-0.00043939461
211	0xbb51088d	-0.0031895966
212	0xba317b7a	-0.00067704136
213	0xbaa416e1	-0.0012519025
214	0x387cb0cd	6.024614e-05
215	0x3af4756a	0.0018650715
216	0x3a9b968c	0.0011870428
217	0xb96dcc4c	-0.00022678188
218	0x385b4dd3	5.228615e-05
219	0x39954bf1	0.00028476075
220	0xbbcc019f	-0.006225779
221	0xb9865036	-0.00025618233
222	0xb92d7c4b	-0.00016544868
223	0xba856f7e	-0.0010180322
224	0xbba9405e	-0.005165144
225	0xb9762535	-0.00023474249
226	0xb93754b9	-0.00017483802
227	0xba8e1a83	-0.0010841641
228	0x3acdee4a	0.0015711274
229	0xb922a340	-0.0001551034
230	0x38e47fd1	0.00010895695
231	0x3ac7c853	0.0015242196
232	0xb905a004	-0.00012743479
233	0x38eebb2b	0.00011383587
234	0x35e7c5e6	1.7268437e-06
235	0xb8d62366	-0.00010210909
236	0xbbc90002	-0.006134034
237	0xb8e49b60	-0.00010900828
238	0xb973990b	-0.00023231299
239	0xba8d7d07	-0.0010794707
240	0xbb5ec1e3	-0.0033990077
241	0x3a9b9952	0.0011871255
242	0xb983facc	-0.00025173125
243	0xbb4a1863	-0.003083729
244	0x3a1003c0	0.0005493723
245	0xb9519bf0	-0.00019989884
246	0xb8653e36	-5.4655793e-05
247	0x39db3424	0.00041809783
248	0xbbf009ad	-0.007325372
249	0x3a3dad17	0.000723557
250	0xb83ff6af	-4.576769e-05
251	0xbae23fff	-0.0017261504
252	0xbbb5edb5	-0.0055520185
253	0xb99dfffb	-0.00030136094
254	0xb951d401	-0.00020010771
255	0xba97c456	-0.0011578898

exp_avg_sq f4 [64, 4]
0	0x39da5231	0.00041641438
1	0x38e237aa	0.00010786888
2	0x360fec2f	2.1446137e-06
3	0x385455cf	5.0624654e-05
4	0x3ac74680	0.0015203506
5	0x39b47e19	0.00034426225
6	0x36b10ef0	5.27675e-06
7	0x38d7499b	0.00010265709
8	0x3a940bc3	0.0011295009
9	0x39815aec	0.0002467254
10	0x3687e7a2	4.050279e-06
11	0x38a55f8e	7.8856116e-05
12	0x3b12e63c	0.0022415062
13	0x3a0d1e8a	0.0005383274
14	0x36f40251	7.2720363e-06
15	0x3923bcb4	0.00015615189
16	0x3afca8f9	0.0019276432
17	0x3a039696	0.00050196925
18	0x36e05e28	6.6866814e-06
19	0x39164fbf	0.00014334822
20	0x39575f17	0.00020539422
21	0x38019a0c	3.0899464e-05
22	0x34b45862	3.359192e-07
23	0x36fb7b12	7.49471e-06
24	0x3b044eb2	0.0020188508
25	0x3a09fed3	0.0005264107
26	0x36c55ce8	5.881873e-06
27	0x39148bf4	0.00014166516
28	0x393b3dd7	0.00017856747
29	0x37da0989	2.5992065e-05
30	0x349a258b	2.871205e-07
31	0x371b0685	9.240238e-06
32	0x3896813c	7.176629e-05
33	0x37c8ad9c	2.3922701e-05
34	0x34b34ec2	3.3398652e-07
35	0x366c0c2d	3.5173828e-06
36	0x395ac1c4	0.00020862283
37	0x38a8bb0a	8.045703e-05
38	0x35c14597	1.4399874e-06
39	0x381433f3	3.533433e-05
40	0x3829ea40	4.0510902e-05
41	0x3773e67b	1.4537592e-05
42	0x34202eb1	1.4918147e-07
43	0x36130591	2.1907947e-06
44	0x3aa98197	0.0012932298
45	0x396b2e22	0.00022428532
46	0x36a2bdcc	4.8500715e-06
47	0x38d12d7b	9.974368e-05
48	0x3ac441be	0.0014973206
49	0x39ca3681	0.0003856905
50	0x36aa4498	5.07438e-06
51	0x38ec930a	0.00011280745
52	0x3a8ee199	0.0010900974
53	0x3993e912	0.00028211676
54	0x368f99b1	4.279624e-06
55	0x38e28759	0.0001080173
56	0x3995b5a7	0.00028554836
57	0x3802800a	3.111366e-05
58	0x352092b2	5.9818115e-07
59	0x379158e0	1.7326733e-05
60	0x38b082a3	8.416667e-05
61	0x37ef07a4	2.8494578e-05
62	0x3440604a	1.7916423e-07
63	0x364ddf8c	3.0677502e-06
64	0x393c7b8a	0.00017975099
65	0x380af052	3.312558e-05
66	0x34cedd78	3.853163e-07
67	0x36fba3ba	7.499443e-06
68	0x38558eac	5.091603e-05
69	0x37b7bc99	2.1903123e-05
70	0x349d5c4e	2.931069e-07
71	0x36b2ab6c	5.3247695e-06
72	0x3ae67a9c	0.0017584148
73	0x39ee9539	0.00045506077
74	0x36ce7156	6.1524725e-06
75	0x390c07fa	0.00013354412
76	0x3a8ee703	0.0010902587
77	0x39953ef8	0.0002846641
78	0x368967c7	4.0949994e-06
79	0x38d379b3	0.00010083932
80	0x3a24efda	0.0006291844
81	0x3904f61f	0.00012680188
82	0x36010ab7	1.9228735e-06
83	0x3824caa2	3.9289363e-05
84	0x3a3bd313	0.00071649364
85	0x3942610e	0.00018537437
86	0x363d395e	2.8196587e-06
87	0x3892a5b0	6.992684e-05
88	0x3b051160	0.0020304546
89	0x3a069119	0.00051333156
90	0x36e9ddcb	6.969761e-06
91	0x391ccbcb	0.00014953238
92	0x38bd798b	9.0348614e-05
93	0x381132e9	3.4618108e-05
94	0x34f8e12d	4.6357437e-07
95	0x36ec5c01	7.0440587e-06
96	0x3791fc2e	1.7402777e-05
97	0x36c69701	5.918439e-06
98	0x33613435	5.2434377e-08
99	0x355cdab8	8.2274664e-07
100	0x3a5e496b	0.0008479568
101	0x392956ba	0.00016149404
102	0x3665942e	3.420991e-06
103	0x38a04767	7.642694e-05
104	0x39e39876	0.00043410406
105	0x388f9008	6.845599e-05
106	0x3544e5b3	7.3349946e-07
107	0x379a0dbf	1.8364632e-05
108	0x38a340f3	7.7845434e-05
109	0x37da1e2f	2.600168e-05
110	0x3444465a	1.8279516e-07
111	0x362e9172	2.601268e-06
112	0x3acb5ce1	0.0015515351
113	0x39d05c60	0.00039741676
114	0x36a04885	4.776814e-06
115	0x38ccc9ae	9.765044e-05
116	0x3a2e9579	0.00066598464
117	0x38f1bdf6	0.000115271585
118	0x36006ef9	1.913808e-06
119	0x383b67db	4.4680997e-05
120	0x3b1908a6	0.0023351102
121	0x3a23861a	0.0006237939
122	0x36feac82	7.5898724e-06
123	0x39353336	0.00017280583
124	0x3a5c549e	0.0008404943
125	0x3961a82d	0.00021520322
126	0x3650e1ff	3.1125962e-06
127	0x389ba55d	7.421777e-05
128	0x3abfe673	0.0014640823
129	0x39c7dce0	0.00038120802
130	0x36ab8e76	5.1127818e-06
131	0x38e3fe2f	0.00010871549
132	0x3821387b	3.8437993e-05
133	0x378f3ef0	1.7076236e-05
134	0x34f6b29e	4.5951032e-07
135	0x372215b0	9.661002e-06
136	0x3a1d38e9	0.0005997555
137	0x395db0dd	0.00021142089
138	0x36558e48	3.1822292e-06
139	0x388cfea1	6.7231485e-05
140	0x3b27112b	0.002549241
141	0x3a2e5ed5	0.00066517043
142	0x371249ad	8.719432e-06
143	0x39534fb0	0.00020152214
144	0x38db47e6	0.00010456126
145	0x378658a8	1.6015329e-05
146	0x344ff588	1.9367701e-07
147	0x36aca614	5.1453335e-06
148	0x39461fbc	0.00018894573
149	0x3831bc0b	4.2375217e-05
150	0x34d2fe5c	3.930062e-07
151	0x36ff4be0	7.608425e-06
152	0x3acf1514	0.0015799128
153	0x39b9fed3	0.0003547581
154	0x36bd72af	5.64599e-06
155	0x38ff5b57	0.00012176361
156	0x39ec15a1	0.00045029543
157	0x38b581a2	8.6548986e-05
158	0x3595c36a	1.1158238e-06
159	0x3800da4e	3.072089e-05
160	0x3a200dd8	0.00061055785
161	0x3901d3e1	0.0001238133
162	0x35e20943	1.6841008e-06
163	0x3834a93c	4.3072956e-05
164	0x3a25ced7	0.0006325072
165	0x391b160b	0.00014790164
166	0x3640ae72	2.871177e-06
167	0x38884c39	6.499183e-05
168	0x3a64083e	0.0008698738
169	0x396f31e0	0.00022811396
170	0x36548d2b	3.1672632e-06
171	0x389396fd	7.03763e-05
172	0x3a6674ad	0.000879119
173	0x39725422	0.0002311026
174	0x365a2947	3.2508558e-06
175	0x389ca925	7.470165e-05
176	0x3a8203e7	0.0009919376
177	0x39f0cb30	0.00045927754
178	0x36f88088	7.405939e-06
179	0x392c98df	0.00016460147
180	0x3a33d6cc	0.00068603153
181	0x391e1e09	0.00015079243
182	0x36132179	2.192419e-06
183	0x38272a7d	3.9855473e-05
184	0x39831eb5	0.00025009146
185	0x384a0cf6	4.8172624e-05
186	0x3522d6fd	6.066255e-07
187	0x376282d7	1.3501113e-05
188	0x3a2a249d	0.0006490441
189	0x3905bc57	0.0001275403
190	0x36181d6e	2.2666895e-06
191	0x383764c6	4.3724453e-05
192	0x3a89ac6f	0.001050366
193	0x3990c7a9	0.0002761458
194	0x368a58a7	4.123041e-06
195	0x38d69ddf	0.00010233721
196	0x3a9c826c	0.0011940724
197	0x398c0f43	0.00026714252
198	0x368f781f	4.275716e-06
199	0x38ac722c	8.222865e-05
200	0x3898d014	7.2866824e-05
201	0x3736ec18	1.0903015e-05
202	0x3403fbd8	1.2291946e-07
203	0x368099ea	3.832615e-06
204	0x39b2448f	0.00034001886
205	0x38eab1b9	0.00011191093
206	0x36070b6b	2.0123214e-06
207	0x3850edea	4.981264e-05
208	0x3abe94ec	0.0014540232
209	0x39dbb01e	0.00041902153
210	0x36a65204	4.9567334e-06
211	0x38e3444c	0.00010836925
212	0x37664cb5	1.3726928e-05
213	0x36c0083c	5.7230045e-06
214	0x338b84e2	6.496863e-08
215	0x36427f4f	2.8982356e-06
216	0x37c2d72a	2.3226796e-05
217	0x36b74497	5.46181e-06
218	0x3436948a	1.7004109e-07
219	0x36979bc3	4.5182837e-06
220	0x3a5a9b11	0.0008339147
221	0x3961197f	0.0002146717
222	0x36436a11	2.9119003e-06
223	0x387de09f	6.0529095e-05
224	0x3a1065db	0.0005508342
225	0x39179b71	0.00014458389
226	0x361d30ab	2.3423152e-06
227	0x385cd0d5	5.2646577e-05
228	0x38ca806b	9.65603e-05
229	0x3774df35	1.4595503e-05
230	0x34325a99	1.6610501e-07
231	0x36ac4618	5.1341594e-06
232	0x362fa571	2.6173332e-06
233	0x35a08792	1.1960385e-06
234	0x32643627	1.32836595e-08
235	0x34673a95	2.1534863e-07
236	0x3a37b3ae	0.00070076704
237	0x3942b94e	0.00018570313
238	0x363b7d9c	2.7938286e-06
239	0x38811a29	6.156072e-05
240	0x39b15254	0.0003382141
241	0x38b2a7bb	8.518944e-05
242	0x35b7bb35	1.3689047e-06
243	0x380fdd60	3.430003e-05
244	0x3829fff7	4.0531126e-05
245	0x3781c20e	1.5468362e-05
246	0x3426d0f3	1.553597e-07
247	0x3611e05d	2.173728e-06
248	0x3b2bf617	0.002623921
249	0x3a316251	0.00067666644
250	0x36fb6bac	7.4929176e-06
251	0x390f2036	0.00013649542
252	0x3a1b4278	0.00059226854
253	0x391b1fcc	0.00014793797
254	0x3633a867	2.6771102e-06
255	0x388056f5	6.1197126e-05

exp_avg f4 [64]
0	0x3b6e16a5	0.0036329415
1	0x3aaad9b0	0.0013034847
2	0x3b5ddc44	0.0033853212
3	0x3b0aad64	0.0021160478
4	0x3bb8f615	0.0056445696
5	0xbad14dd3	-0.0015968628
6	0x3ba91c58	0.0051608495
7	0xbb0ee77e	-0.002180546
8	0xba816219	-0.0009871154
9	0x3af53f52	0.0018710888
10	0xba09ea6d	-0.00052610674
11	0x3b98da7b	0.004664717
12	0x3b2e3bf8	0.0026586037
13	0x3b31a436	0.0027105934
14	0xbb20e35b	-0.0024549577
15	0x3a091a04	0.0005230012
16	0xb6ca079a	-6.020954e-06
17	0x39f0f57b	0.00045959264
18	0x3bb312fc	0.0054649096
19	0x3b2e4273	0.00265899
20	0x3aadcaa5	0.0013259245
21	0x3b0781fa	0.0020676837
22	0x3b93c2b8	0.0045092963
23	0x38023d4d	3.1051506e-05
24	0x396368be	0.00021687426
25	0x3b22ee12	0.002486114
26	0xb92b4317	-0.00016332824
27	0xba11a4ed	-0.0005555887
28	0x3b47640c	0.0030424623
29	0x3a34a7e4	0.0006891473
30	0x3b6207de	0.0034489552
31	0x3b164dce	0.0022934559
32	0x3ba1afa9	0.0049342704
33	0xb90467c4	-0.00012627157
34	0x3a1072e5	0.00055102847
35	0x3b6c5ea0	0.0036067143
36	0xbac109c7	-0.0014727645
37	0x3a03524f	0.00050095184
38	0x3b8f8596	0.0043799384
39	0x3ac458a7	0.0014980034
40	0x3ab90071	0.0014114511
41	0x3b84f6ce	0.0040577417
42	0x3aeae174	0.0017919973
43	0x3af7e5d4	0.0018913099
44	0xbb26543c	-0.0025379797
45	0x3a868f88	0.0010266164
46	0x3a893f73	0.001047118
47	0x3b73bad1	0.0037190209
48	0x3b22e723	0.0024857007
49	0x3a9abd46	0.0011805675
50	0xb9e9401c	-0.00044488988
51	0x3b2fd758	0.0026831236
52	0x3af596ac	0.001873692
53	0x3aad186e	0.0013206133
54	0xba0023f5	-0.00048881705
55	0x3b79c712	0.003811304
56	0x3b74eda0	0.003737308
57	0xb9931887	-0.000280563
58	0xb908eac3	-0.00013057426
59	0x3b86412a	0.0040971236
60	0x3ac57f04	0.0015067761
61	0x3a29756d	0.0006464336
62	0x3b2e91d9	0.0026637225
63	0x3b88b006	0.0041713743

exp_avg_sq f4 [64]
0	0x399d8d14	0.00030050485
1	0x3a45992c	0.0007537778
2	0x3a16d1bd	0.00057532993
3	0x3a92df95	0.0011205549
4	0x3a87257a	0.0010310852
5	0x385baae1	5.2372812e-05
6	0x3a8d043f	0.0010758712
7	0x38527635	5.017799e-05
8	0x37c353ae	2.3284778e-05
9	0x39504f9c	0.00019866083
10	0x37943694	1.766839e-05
11	0x3a669ef5	0.000879749
12	0x3a546e6f	0.0008103614
13	0x3a3b63af	0.0007148338
14	0x38999576	7.323448e-05
15	0x37b6c7ab	2.1789068e-05
16	0x3888b306	6.518331e-05
17	0x381400c0	3.528665e-05
18	0x3a77c512	0.0009451668
19	0x3a326e5a	0.0006806605
20	0x39c042cd	0.00036670864
21	0x39f06029	0.00045848012
22	0x3a9fa671	0.0012180341
23	0x38573188	5.1306124e-05
24	0x36af91cf	5.2323808e-06
25	0x3a13d06c	0.0005638662
26	0x390fd2e7	0.0001371611
27	0x37a7805d	1.9967725e-05
28	0x3a49dceb	0.0007700461
29	0x39d6cf00	0.00040971488
30	0x3aab4040	0.0013065413
31	0x3a059ccc	0.0005096912
32	0x3a4cd5bb	0.0007813831
33	0x380104b2	3.076037e-05
34	0x39e709f6	0.00044067175
35	0x3abc5224	0.0014367742
36	0x37f8985b	2.963485e-05
37	0x3888ff2d	6.5325155e-05
38	0x3a8053bb	0.0009790579
39	0x3994f717	0.00028412856
40	0x39c3048a	0.0003719668
41	0x39d7d711	0.00041168233
42	0x39fd6dc3	0.000483377
43	0x3a044aa2	0.00050465215
44	0x3a899891	0.0010497739
45	0x39dc3ab8	0.0004200542
46	0x390ba7df	0.0001331861
47	0x39d4f7ff	0.00040620563
48	0x3a302934	0.0006720007
49	0x3a1d25e5	0.00059947214
50	0x37ad90d8	2.0690655e-05
51	0x398328f9	0.00025016794
52	0x3a5f3692	0.00085149065
53	0x36957a0e	4.454755e-06
54	0x372d45e9	1.0327881e-05
55	0x39e76466	0.00044134556
56	0x39c0d09a	0.00036776514
57	0x37f9528f	2.9721557e-05
58	0x35a4b9dc	1.2273044e-06
59	0x39db455e	0.00041822618
60	0x396810bc	0.00022131478
61	0x378a23e7	1.64676e-05
62	0x3a8cf960	0.0010755472
63	0x39db2910	0.0004180153

exp_avg f4 [2, 64]
0	0x3a3f8a2b	0.00073066604
1	0x39eee59d	0.00045565973
2	0x3976c5f8	0.00023534137
3	0x391b19cd	0.00014791563
4	0xb98bd145	-0.00026668064
5	0x398c0e7b	0.0002671367
6	0x39747826	0.00023314412
7	0x38cde086	9.8169825e-05
8	0xb93f8c37	-0.00018267414
9	0xba4cb7d8	-0.0007809377
10	0x389b04c3	7.391863e-05
11	0xba4ca289	-0.0007806202
12	0xba01b0b2	-0.0004947289
13	0xb89f3e5c	-7.593326e-05
14	0x38dc2d17	0.00010498816
15	0xb85f690b	-5.3265172e-05
16	0xb9801b5d	-0.0002443445
17	0xbaa36beb	-0.0012468075
18	0xb8f42e48	-0.00011643447
19	0x3a89a070	0.0010500085
20	0xba4f8f71	-0.0007917798
21	0x3a4c322e	0.000778946
22	0xba8118ba	-0.0009849288
23	0x38013dc3	3.0813517e-05
24	0xb99d4a6c	-0.00030000822
25	0xba84c62a	-0.0010129858
26	0x39713c81	0.0002300609
27	0xb8aada5f	-8.1469065e-05
28	0x3638b192	2.7521496e-06
29	0xb95e0f9e	-0.00021177388
30	0xba8729d1	-0.0010312145
31	0xba6de777	-0.00090753235
32	0xb8fc4b90	-0.00012030371
33	0x39153954	0.00014231104
34	0xbaab6bd2	-0.0013078398
35	0x3931f4aa	0.0001697118
36	0x39d4898c	0.0004053827
37	0x3a8dd1c5	0.0010819962
38	0xb9eb4a3f	-0.0004487801
39	0x3a1457b7	0.00056588225
40	0x39a16399	0.0003078252
41	0x3ada2568	0.0016643228
42	0x3a9ebe9d	0.001211125
43	0xba0c8842	-0.000536088
44	0xbae35cee	-0.0017346421
45	0xbac7c70d	-0.0015241817
46	0xb98c8db0	-0.00026808446
47	0xbab1c5eb	-0.0013563012
48	0xba893bd8	-0.0010470105
49	0x3a0c48a3	0.00053514
50	0x38aae019	8.147973e-05
51	0x3983f141	0.00025166015
52	0xbab2bdb3	-0.0013636857
53	0x348ada14	2.5863176e-07
54	0x38890877	6.534246e-05
55	0x3a0cec67	0.0005375803
56	0xba4a4687	-0.0007716198
57	0x39e3fd90	0.00043485733
58	0xb9f52d14	-0.00046763627
59	0x3b09eba3	0.0021044991
60	0x38b10e1d	8.4426465e-05
61	0xba5e0eb9	-0.0008470822
62	0xb90a3cd5	-0.00013183367
63	0xb92994f4	-0.00016172585
64	0xba3f8a1a	-0.00073066505
65	0xb9eee5ac	-0.00045566016
66	0xb976c5b0	-0.00023534033
67	0xb91b19e2	-0.00014791594
68	0x398bd14a	0.00026668078
69	0xb98c0e7b	-0.0002671367
70	0xb974783f	-0.00023314448
71	0xb8cde094	-9.816993e-05
72	0x393f8c32	0.00018267406
73	0x3a4cb7e6	0.00078093854
74	0xb89b04b7	-7.391854e-05
75	0x3a4ca278	0.0007806192
76	0x3a01b0ae	0.0004947287
77	0x389f3d69	7.593149e-05
78	0xb8dc2d18	-0.00010498817
79	0x385f6909	5.3265165e-05
80	0x39801b58	0.00024434435
81	0x3aa36bef	0.001246808
82	0x38f42efe	0.0001164358
83	0xba89a06e	-0.0010500082
84	0x3a4f8f59	0.0007917784
85	0xba4c3228	-0.0007789456
86	0x3a8118b8	0.0009849286
87	0xb8013dc6	-3.0813528e-05
88	0x399d4a6c	0.00030000822
89	0x3a84c62d	0.0010129862
90	0xb9713c83	-0.00023006093
91	0x38aada5d	8.146905e-05
92	0xb638af2b	-2.7520098e-06
93	0x395e0f51	0.00021177276
94	0x3a8729cd	0.001031214
95	0x3a6de782	0.000907533
96	0x38fc4bce	0.00012030416
97	0xb915394e	-0.00014231095
98	0x3aab6bdb	0.0013078408
99	0xb931f4b9	-0.00016971202
100	0xb9d4898f	-0.0004053828
101	0xba8dd1c5	-0.0010819962
102	0x39eb4a49	0.0004487804
103	0xba1457bc	-0.00056588254
104	0xb9a163ab	-0.0003078257
105	0xbada2567	-0.0016643227
106	0xba9ebea3	-0.0012111258
107	0x3a0c8844	0.00053608813
108	0x3ae35cee	0.0017346421
109	0x3ac7c70b	0.0015241815
110	0x398c8dab	0.00026808432
111	0x3ab1c5e6	0.0013563007
112	0x3a893bdb	0.0010470109
113	0xba0c48b8	-0.0005351412
114	0xb8aae021	-8.147979e-05
115	0xb983f118	-0.00025165896
116	0x3ab2bdb3	0.0013636857
117	0xb48ada20	-2.586321e-07
118	0xb8890876	-6.534245e-05
119	0xba0cec58	-0.0005375794
120	0x3a4a4685	0.00077161967
121	0xb9e3fd94	-0.00043485744
122	0x39f52d18	0.0004676364
123	0xbb09eba3	-0.0021044991
124	0xb8b10e27	-8.442654e-05
125	0x3a5e0eba	0.00084708224
126	0x390a3cda	0.00013183375
127	0x3929950f	0.00016172625

exp_avg_sq f4 [2, 64]
0	0x3a081ef0	0.00051925983
1	0x39e49b33	0.0004360318
2	0x39f0ea5c	0.00045950979
3	0x39ab99a6	0.0003273014
4	0x3988a231	0.00026060783
5	0x36bd7eb7	5.6473905e-06
6	0x39cd76a6	0.00039189047
7	0x37a6f2b1	1.9901754e-05
8	0x377e70d6	1.5165851e-05
9	0x3a0d79d6	0.0005396878
10	0x3826e14a	3.97873e-05
11	0x39c72bd9	0.00037988907
12	0x3969a396	0.00022281552
13	0x39bc888a	0.00035959884
14	0x34acf290	3.2213984e-07
15	0x36c9b2f7	6.011101e-06
16	0x38d16693	9.9850025e-05
17	0x39d76ad9	0.00041087603
18	0x3961e9cb	0.00021544767
19	0x39f3e576	0.00046519533
20	0x39e900a7	0.0004444171
21	0x39f347dc	0.0004640211
22	0x3996e28d	0.00028779023
23	0x35bf0f98	1.4235147e-06
24	0x37abd35c	2.048321e-05
25	0x39c64352	0.0003781566
26	0x37c11668	2.3017827e-05
27	0x374009fe	1.1446418e-05
28	0x394a8085	0.00019312098
29	0x3a2da806	0.0006624464
30	0x3968bfab	0.00022196646
31	0x39869e82	0.0002567657
32	0x3973d777	0.00023254553
33	0x355f9ae2	8.329936e-07
34	0x39903e3c	0.00027512189
35	0x39b7939f	0.00035014466
36	0x38b26992	8.5073654e-05
37	0x37e5942e	2.7367929e-05
38	0x39a45787	0.0003134573
39	0x3a6f6957	0.00091328233
40	0x3a138a2e	0.00056281954
41	0x3a084e0b	0.00051996176
42	0x3a18b96e	0.0005825971
43	0x39610504	0.0002145954
44	0x3a0f3a24	0.0005463681
45	0x39aff349	0.00033559863
46	0x3960ceef	0.00021439393
47	0x39bfabdd	0.00036558407
48	0x397b5f6c	0.00023972773
49	0x39f3ad46	0.0004647767
50	0x378043eb	1.5290416e-05
51	0x3a40bf86	0.0007352758
52	0x39ab40e0	0.00032663997
53	0x3238c5e6	1.07552065e-08
54	0x34d61b41	3.9880436e-07
55	0x39ad36b8	0.000330379
56	0x39a2c52c	0.00031045952
57	0x38a83caf	8.0221675e-05
58	0x396ebe0e	0.0002276825
59	0x3a4fb5c9	0.00079235114
60	0x398e4f5d	0.0002714348
61	0x3966bd16	0.0002200495
62	0x3894d6aa	7.097174e-05
63	0x39b573c5	0.00034609265
64	0x3a081ef0	0.00051925983
65	0x39e49b30	0.00043603173
66	0x39f0ea58	0.00045950967
67	0x39ab99a8	0.00032730144
68	0x3988a233	0.0002606079
69	0x36bd7eb8	5.647391e-06
70	0x39cd76a3	0.00039189038
71	0x37a6f2b1	1.9901754e-05
72	0x377e70d6	1.5165851e-05
73	0x3a0d79d6	0.0005396878
74	0x3826e148	3.9787294e-05
75	0x39c72bda	0.0003798891
76	0x3969a397	0.00022281554
77	0x39bc8886	0.00035959872
78	0x34acf28d	3.2213975e-07
79	0x36c9b2f7	6.011101e-06
80	0x38d16691	9.985001e-05
81	0x39d76ada	0.00041087606
82	0x3961e9cb	0.00021544767
83	0x39f3e577	0.00046519536
84	0x39e900a7	0.0004444171
85	0x39f347d9	0.00046402102
86	0x3996e290	0.00028779032
87	0x35bf0f98	1.4235147e-06
88	0x37abd35e	2.0483214e-05
89	0x39c64353	0.00037815663
90	0x37c11668	2.3017827e-05
91	0x374009fe	1.1446418e-05
92	0x394a8085	0.00019312098
93	0x3a2da807	0.00066244643
94	0x3968bfa9	0.00022196643
95	0x39869e85	0.00025676578
96	0x3973d779	0.00023254556
97	0x355f9ae1	8.329935e-07
98	0x39903e3c	0.00027512189
99	0x39b793a1	0.00035014472
100	0x38b26994	8.507367e-05
101	0x37e5942c	2.7367925e-05
102	0x39a45786	0.00031345728
103	0x3a6f6958	0.0009132824
104	0x3a138a2e	0.00056281954
105	0x3a084e0b	0.00051996176
106	0x3a18b96d	0.00058259704
107	0x39610504	0.0002145954
108	0x3a0f3a24	0.0005463681
109	0x39aff348	0.0003355986
110	0x3960ceef	0.00021439393
111	0x39bfabe0	0.00036558416
112	0x397b5f6b	0.00023972771
113	0x39f3ad46	0.0004647767
114	0x378043eb	1.5290416e-05
115	0x3a40bf86	0.0007352758
116	0x39ab40e0	0.00032663997
117	0x3238c5ed	1.0755213e-08
118	0x34d61b3f	3.988043e-07
119	0x39ad36b9	0.00033037903
120	0x39a2c52c	0.00031045952
121	0x38a83caf	8.0221675e-05
122	0x396ebe0f	0.00022768251
123	0x3a4fb5ca	0.0007923512
124	0x398e4f5d	0.0002714348
125	0x3966bd16	0.0002200495
126	0x3894d6ab	7.097175e-05
127	0x39b573c8	0.00034609274

exp_avg f4 [2]
0	0xba4bf388	-0.00077801244
1	0x3a4bf38e	0.0007780128

exp_avg_sq f4 [2]
0	0x3adaaff6	0.001668452
1	0x3adaaff7	0.0016684522

exp_avg f4 [1, 64]
0	0x3b6b3760	0.003589116
1	0x3be72be6	0.0070547936
2	0x3bf7f930	0.0075675473
3	0x3bbb58da	0.005717379
4	0x3ba6213b	0.0050698793
5	0x39d28ad3	0.00040157753
6	0x3989a85f	0.00026256123
7	0x3aa44b21	0.0012534597
8	0x36fc6836	7.522317e-06
9	0x3b065b2b	0.0020501118
10	0xb98389fc	-0.00025089073
11	0xb9497a1e	-0.00019214346
12	0xba859fcd	-0.0010194719
13	0x3b129e05	0.002237202
14	0x3960fed6	0.00021457238
15	0xb9a6e7e2	-0.00031834753
16	0x3b2423b0	0.0025045685
17	0x3a69a072	0.0008912153
18	0x3ba7620e	0.0051081246
19	0x3b8ea818	0.0043535344
20	0xbac78aff	-0.0015223919
21	0x3bcfb721	0.0063389693
22	0xbb40063a	-0.0029300586
23	0xb931e7a5	-0.0001696633
24	0xb9aa7b75	-0.0003251691
25	0x3a64d317	0.00087289646
26	0x3a1bad49	0.0005938602
27	0xb7c03342	-2.2912052e-05
28	0xb904ca63	-0.00012663896
29	0xb9f03c50	-0.00045821304
30	0xbaec360b	-0.0018021477
31	0xb9d4e45d	-0.00040605935
32	0x3ba1630b	0.004925137
33	0xb966f484	-0.00022025598
34	0x3aedd251	0.0018144344
35	0x3a350f41	0.0006906875
36	0x3b12cac4	0.002239869
37	0x39d7a6f1	0.00041132377
38	0x39cf2065	0.00039506253
39	0x3ac7807e	0.0015220789
40	0x3ac91aa8	0.0015343027
41	0x3ba045a0	0.0048911124
42	0x3c03c729	0.008043089
43	0x3b6ccdce	0.0036133411
44	0xbb174433	-0.0023081421
45	0xbb864c8f	-0.004098482
46	0xba946302	-0.001132101
47	0xbad781d8	-0.0016441895
48	0x3ae1fc30	0.0017241295
49	0x3bf7dcaa	0.007564147
50	0x39ed9a2e	0.00045319035
51	0x3b31fbff	0.0027158258
52	0xbb3775d1	-0.0027993808
53	0xb995a3e3	-0.000285416
54	0x3956c3dd	0.00020481595
55	0x3bcbf419	0.006224167
56	0x3b656b08	0.0035006423
57	0x3a6953ba	0.0008900721
58	0x3a68380d	0.000885845
59	0x3c20e1bf	0.009819447
60	0x3b786fec	0.0037908508
61	0x3939dca6	0.00017725173
62	0x3b49e3a8	0.003080586
63	0x3b70de56	0.0036753616

exp_avg_sq f4 [1, 64]
0	0x3a841c2d	0.0010079198
1	0x3a433afd	0.00074474496
2	0x3a52b1af	0.0008037341
3	0x3a1fb959	0.00060929876
4	0x3a25b496	0.000632116
5	0x36d95e56	6.478086e-06
6	0x3a14273d	0.0005651599
7	0x37cb2db5	2.422077e-05
8	0x3791c0d4	1.737514e-05
9	0x3a888a1a	0.0010417134
10	0x3857cedb	5.1452644e-05
11	0x3a134b10	0.000561879
12	0x39bd6b35	0.00036128765
13	0x3a18bcf4	0.0005826496
14	0x355d9fe4	8.2561587e-07
15	0x36e04150	6.6833236e-06
16	0x38eccac6	0.000112911264
17	0x3a179408	0.0005782251
18	0x3a07ee33	0.0005185336
19	0x3a37cc67	0.00070113543
20	0x3a2e9e93	0.00066612026
21	0x3a61679f	0.00085985096
22	0x39ec62ed	0.00045087133
23	0x35cdd8ca	1.5336784e-06
24	0x37be38fa	2.2676297e-05
25	0x3a190326	0.0005836956
26	0x37da6c2a	2.6037993e-05
27	0x37524e80	1.2535253e-05
28	0x39976baf	0.00028881195
29	0x3a6c2467	0.000900811
30	0x39c64e12	0.0003782367
31	0x39e7dd03	0.0004422442
32	0x3a179265	0.00057820074
33	0x36a5ad50	4.9375594e-06
34	0x3a1d30c2	0.000599634
35	0x3a076db8	0.00051661907
36	0x38ca512e	9.6472315e-05
37	0x37f572b4	2.9259689e-05
38	0x3a009a16	0.0004905773
39	0x3a9c7416	0.0011936452
40	0x3a4c074f	0.00077830715
41	0x3a81d285	0.0009904659
42	0x3a81265f	0.0009853354
43	0x3a08c6cc	0.00052176113
44	0x3a522658	0.0008016578
45	0x3a038b7c	0.0005018038
46	0x399fea87	0.0003050158
47	0x3a15a12a	0.0005707914
48	0x3a09426c	0.0005236033
49	0x3a4b3b2b	0.0007752652
50	0x3794b097	1.7725206e-05
51	0x3ac2a2b0	0.001484951
52	0x3a08b79d	0.0005215349
53	0x3313ceb6	3.4414107e-08
54	0x361d7d27	2.3467671e-06
55	0x3a5c60bd	0.0008406749
56	0x3a3b3625	0.0007141552
57	0x38ba0c8a	8.871507e-05
58	0x39b6c943	0.00034863697
59	0x3aa2fc67	0.0012434841
60	0x3a114b03	0.00055424887
61	0x398d8436	0.0002699212
62	0x3932f711	0.00017067442
63	0x3a467e80	0.00075719506
