savedModels/ppo_cartpole_30720.pth (torch, 13659 bytes, 15 tensors)

shared_fc.0.weight f4 [64, 4]
000000 2b b8 eb 3d ef 81 08 3f 67 f9 18 3d bb 11 e6 be
       0.115097366 0.5332326 0.037347224 -0.44935402
000010 c5 0b 32 be c6 40 52 be 9d 49 ef be 23 f8 51 be
       -0.17387302 -0.20532522 -0.4673585 -0.20504813
000020 43 f7 80 bd ed 4b a9 be 62 17 4c be 25 17 f3 be
       -0.062971614 -0.3306574 -0.19930795 -0.47478595
000030 49 91 e5 bd 0b f9 ec bd 61 07 99 be 5b c9 80 be
       -0.112093516 -0.11570939 -0.29888442 -0.25153622
000040 79 9e 2d 3e b2 c1 52 3e d1 62 19 bf 70 22 bd be
       0.16954984 0.20581701 -0.59916407 -0.36940336
000050 7b 41 6e be e9 f4 0d bd 4a 46 77 be 71 6d df 3c
       -0.23267166 -0.034657393 -0.24147907 0.027273865
000060 52 2c 0a be 0b 62 d0 3d 64 51 97 3e 8f e0 af 3e
       -0.1349347 0.1017495 0.29554284 0.34351012
000070 f0 49 ed bd f5 ea b2 bd bb 27 cb bd 17 92 e5 bd
       -0.11586368 -0.08736221 -0.09919687 -0.11209505
000080 4c 1d 55 3e 11 45 4f bd 6c eb 08 be fb 37 87 3b
       0.20811957 -0.050602976 -0.13371056 0.0041265464
000090 8f 25 ad 3e 3b ef 85 3e af 0d 55 3e 1b bd ca be
       0.33817717 0.2615908 0.20806001 -0.395974
0000a0 47 c0 9f 3e 09 18 ad be 50 02 18 be 1b 5f 20 be
       0.31201383 -0.338074 -0.14844632 -0.1566128
0000b0 70 fd da bd d5 9d a1 be 45 3d 67 bd 1b 81 1c 3e
       -0.106928706 -0.3156573 -0.056454916 0.15283625
0000c0 b6 ff d2 bc 9e dc 01 be bd 9b 69 3d 4b e7 93 3e
       -0.025756698 -0.12681815 0.05703329 0.288874
0000d0 66 b4 2e be 53 d1 29 be 3e 60 31 3d 27 13 fb 3d
       -0.17061004 -0.16583757 0.043304674 0.122595124
0000e0 ec c4 60 bd 52 6e 62 3d 1b a6 91 bd 3d ca 8a 3c
       -0.0548753 0.05528099 -0.0711176 0.016942138
0000f0 22 fe d7 3d 27 ec f9 3d 9f 02 be bc c2 ab 0f 3e
       0.10546519 0.122032456 -0.02319461 0.14030364
000100 fe 5b 90 bd 93 01 9a be c9 2f 0d be b2 93 10 be
       -0.07048796 -0.30079326 -0.1378776 -0.14118841
000110 76 2f aa 3e c3 7d 99 3d bc 6e 1d be e1 6e 95 3e
       0.33239335 0.0749469 -0.15374273 0.29186156
000120 43 33 5f 3c b9 db 78 3c 62 57 45 be 97 cc ba be
       0.013623062 0.015189105 -0.19271615 -0.36484215
000130 23 fd d0 bd 58 1a 98 3e b2 f4 56 3d 2a b6 0e bd
       -0.10204532 0.297076 0.052479453 -0.034841694
000140 24 16 11 be 85 25 ec be 0f 87 a9 3d 19 8b f4 3e
       -0.14168602 -0.46122375 0.082777135 0.47762373
000150 3b dc 08 be 15 4d 92 3e 7b d6 92 3e 9f 27 99 be
       -0.13365261 0.28574434 0.2867926 -0.2991304
000160 a4 41 d5 bc 1a cb 8c bd 63 e9 24 3e b1 97 0e 3f
       -0.026032276 -0.06874676 0.16104655 0.5570021
000170 43 46 0b 3c 1d fe ca bd b5 1a f4 bd 15 1e b0 bd
       0.008500638 -0.099117495 -0.119191565 -0.08599488
000180 0a fd 42 3e 3f 8c 3e 3d 98 50 da be ab a2 89 3e
       0.19041839 0.046520468 -0.42639613 0.26881918
000190 f0 0d 7d bd ee 62 d8 be 14 4c 6c bd 47 86 09 3d
       -0.06178087 -0.42262977 -0.05768974 0.033575322
0001a0 af ce b3 3c cc 51 07 3e dd 7c c7 3d e4 13 08 3e
       0.02194914 0.13214797 0.09740613 0.13288838
0001b0 74 02 34 3e fd 2f 9a 3d 84 42 c7 3d fd 51 c3 3d
       0.17579061 0.07528684 0.09729484 0.095371224
0001c0 c3 ca b3 bd 58 41 44 bd 32 0a b1 3d c4 65 43 3e
       -0.08778908 -0.04791388 0.08644523 0.1908179
0001d0 b5 fe 58 be 8a df ed be 99 d3 d5 3e 60 f3 b9 3e
       -0.21190913 -0.4645961 0.41763 0.36318493
0001e0 2b 65 21 3e 36 69 0f be 97 11 b7 3e a4 8e 6f 3e
       0.15761249 -0.14004979 0.35755607 0.23394257
0001f0 dd 34 c5 bc 22 47 cb be 7c 00 58 3d 0f 8e 3d 3e
       -0.024073059 -0.39702708 0.052734837 0.18511222
000200 68 3b d1 3d ff b5 1b 3e c3 c1 88 be 0d aa c1 be
       0.10216409 0.15206145 -0.26710328 -0.3782505
000210 c0 6e 92 3d 84 00 8e be 04 95 85 3c 2d 92 8b be
       0.0715003 -0.27734768 0.016306408 -0.2725996
000220 4e b5 a7 3e b7 5d 1f 3d 87 eb 29 be 67 12 4f be
       0.32755512 0.038907733 -0.16593753 -0.20221864
000230 9b 66 44 be 9b 6f 21 bb 6a ca 8f 3e 3f bb 93 3e
       -0.19179766 -0.0024633172 0.28084117 0.28853795
000240 d8 7e a0 be c8 c5 35 bd 1c 87 03 3e 4a cd e7 bd
       -0.31346774 -0.044378072 0.12844509 -0.11318453
000250 b9 c7 69 bd 86 40 82 3e 69 45 fc 3c 90 be 6c 3e
       -0.057075236 0.25439852 0.030794816 0.23119569
000260 7d 0a d8 bd 7a 58 78 be 4d db 44 3e df 4a 12 3e
       -0.105488755 -0.24252501 0.19224282 0.14286374
000270 3d 49 c7 be db db 57 be d3 62 d6 bd 0c 9a e7 3e
       -0.38923064 -0.21079962 -0.10468068 0.45234716
000280 38 67 95 be 3c cc 8b be 5a 03 61 3e ec f3 3a 3e
       -0.29180312 -0.27304256 0.21973935 0.18257111
000290 8c 1d e7 bb 7d 9c 20 3f 74 11 3b bd aa ac d1 be
       -0.007053083 0.6273878 -0.04567094 -0.40952045
0002a0 ed a0 65 be 86 04 ba 3e e0 13 bf bd c3 c6 95 be
       -0.2242467 0.36331576 -0.09329963 -0.29253206
0002b0 8e 6a 3c 3e 97 4c 25 3e 98 68 00 3e fc 3b 93 be
       0.18400022 0.16142498 0.125399 -0.28756702
0002c0 bf 85 c2 3e 17 49 a9 bd 71 76 72 3c 79 5d 7f 3e
       0.37992665 -0.08265894 0.014798746 0.24938
0002d0 aa 2d e9 3d 74 89 11 bf 2e df a2 3e e0 6d 91 3e
       0.11385663 -0.5685036 0.31810898 0.2840414
0002e0 b7 72 3e be e2 d1 e5 be 7b 94 08 3f 5f 20 c8 3e
       -0.18598448 -0.4488669 0.53351563 0.39087197
0002f0 25 31 63 3c 0b c5 0a bf ae f6 3c 3e c1 69 13 3e
       0.013866697 -0.54206914 0.18453476 0.1439581
000300 6f f4 70 3e b3 88 79 3c 98 5f 34 3e fc cb 1e be
       0.23530744 0.015230346 0.17614591 -0.15507501
000310 a1 3e 38 be a4 20 70 be 26 11 54 be 7c ba b5 be
       -0.17992641 -0.23449951 -0.20709667 -0.3549384
000320 c7 0a 04 bd 94 b1 99 3c 60 f4 3f 3b 00 94 b5 3d
       -0.03223684 0.018761434 0.0029289946 0.088661194
000330 75 a7 91 3e 7c 1a fb 3e e7 0a 83 bd 72 77 36 bf
       0.28448072 0.49043643 -0.06398564 -0.7127601
000340 8a a5 9b 3e a5 80 28 3d f0 f6 47 3e 52 8e 8e 3e
       0.30399734 0.04113831 0.19527793 0.27842957
000350 9a a1 a2 3d ae ec 86 3d 1d 41 27 3e 22 66 a1 3d
       0.07940979 0.06588112 0.16333432 0.078808084
000360 ae e6 d5 3c 8e fa 64 3c 8d 8e 47 be fa 68 46 be
       0.026110973 0.0139757525 -0.19487973 -0.19375983
000370 fe d9 89 3c 69 9a 8d 3e 36 85 17 bd 9b 46 39 bf
       0.01682758 0.27656868 -0.036992274 -0.7237336
000380 0b f9 8a 3e 79 b6 3d 3e 99 be 72 3d b2 b4 a0 be
       0.2714313 0.18526639 0.0592638 -0.3138786
000390 43 b7 f7 bd 55 2d e6 3d 8e 65 3b be c1 3d 6e 3e
       -0.12095501 0.11239115 -0.18300459 0.23265745
0003a0 6b 10 83 3e bd 8c d4 3e 6f 44 00 be 74 63 a0 be
       0.25598463 0.41513625 -0.12526105 -0.31325877
0003b0 c7 ee b0 be 80 f8 ad 3e 34 f4 53 bd f4 a4 f2 be
       -0.34557173 0.33978653 -0.051746562 -0.47391474
0003c0 b1 6e ca 3d 8a ce cf 3e c1 bf 17 3d 56 36 a3 be
       0.09884394 0.40587264 0.037048105 -0.31877393
0003d0 9a f6 c3 3e 3e fa e0 3c a4 47 4b 3e c6 a0 40 3d
       0.3827408 0.027463075 0.19851547 0.047028325
0003e0 2d 43 24 bd 75 29 8e bd be b0 a1 be e8 37 96 bd
       -0.040103126 -0.06941501 -0.31580156 -0.07334882
0003f0 8f 73 27 3e 28 be 9a 3e 34 60 99 bd 9a 13 bf be
       0.16352676 0.30223203 -0.074890524 -0.37319642

shared_fc.0.bias f4 [64]
000000 69 a5 fb 3e e0 1b 0e 3f 9d 61 0e 3f b1 47 f8 3e
       0.49149635 0.55511284 0.55617696 0.48492196
000010 e2 9a f8 3e 74 cc 11 3f 38 26 02 3f be 80 26 bd
       0.48555666 0.56952596 0.5083957 -0.040650122
000020 99 0a 7a bd ef 75 0d 3f 43 74 bc bd ee f5 e9 3e
       -0.061045263 0.5525808 -0.09201863 0.45695442
000030 4a 30 14 3f 13 12 fd 3e e4 24 21 bd 18 a5 30 bd
       0.57886183 0.49427852 -0.039341822 -0.043126196
000040 5a 63 5c bd 2d f7 0c 3f 71 d8 fc 3e 48 d8 0d 3f
       -0.053805687 0.5506466 0.49383882 0.55408144
000050 83 7f 17 3f 75 c5 18 3f 5c 0a ee 3e e2 77 be bc
       0.5917894 0.59676296 0.4649228 -0.023250524
000060 87 7e fa bd d2 e7 fb 3e 53 bc 12 bd af a6 20 bd
       -0.122311644 0.49200302 -0.03582413 -0.03922146
000070 6b 0f 11 3f a1 3c fe 3e d5 d1 f8 3e fc 50 15 3f
       0.5666415 0.4965563 0.4859759 0.583267
000080 e9 e8 04 3f 85 c9 8e bd 52 10 10 3f 74 75 ed 3e
       0.5191789 -0.069720306 0.562749 0.46378672
000090 2d 5c 9f bd 99 d9 6e bd 3a 1b f1 3e 20 63 13 3f
       -0.07781253 -0.058312986 0.47091085 0.5757313
0000a0 11 f6 14 3f 6f e5 f1 3e c7 04 18 3f 43 c8 18 3f
       0.5818797 0.47245356 0.5938229 0.59680575
0000b0 6f 06 dc 3e b2 59 0a 3f 7a 56 07 3f af c2 10 3f
       0.42973658 0.54043114 0.5286633 0.56547064
0000c0 77 70 05 3f 74 db 12 3f 50 51 8a bd bd 6c ea 3e
       0.5212473 0.5736611 -0.067537904 0.45786086
0000d0 7d 76 09 3f 81 ad f7 bc 89 e3 46 bd a1 82 0e 3f
       0.53696424 -0.0302341 -0.04855684 0.55668074
0000e0 35 a1 13 3f 42 a7 cd bd ac 61 a7 3e f7 53 03 3f
       0.5766786 -0.100416675 0.32691705 0.51299995
0000f0 10 df 15 3f 9b f3 24 bd 93 18 b5 bc ce 28 03 3f
       0.5854349 -0.040271383 -0.022106444 0.5123414

actor_head.weight f4 [2, 64]
000000 f9 ab 4c 3c 72 3b 14 3e e3 08 1d 3e dc 93 21 3e
       0.012492173 0.14475802 0.15335421 0.1577906
000010 43 56 a4 3d f9 d8 51 3d f3 2f 33 be 07 e0 70 3d
       0.080242656 0.051232312 -0.1749876 0.0588074
000020 af f5 92 bc 8c 2c 97 3c fa 17 f1 3d b8 f8 d1 bc
       -0.017939417 0.018453859 0.11772151 -0.025631294
000030 4f 21 db bd cc 94 11 bd aa 6b 82 bb b2 2d 96 bd
       -0.106997125 -0.035542294 -0.0039801197 -0.073329344
000040 a6 52 4e 3d 1c 8e d3 bd 63 4b c6 3d 58 7e 1a bd
       0.05037179 -0.103298396 0.096823476 -0.037718147
000050 d3 1a 71 bd 11 32 a9 3c c0 72 05 be 5b 07 95 3d
       -0.058863472 0.020653756 -0.13032055 0.072767936
000060 ea a3 5f bd 3f eb 97 3c a1 f1 a7 bd 0c 76 7d bd
       -0.05459968 0.018544791 -0.08200384 -0.061880156
000070 d0 bb 01 be 1a 44 5a bd 13 25 ff bd 90 c2 0c bd
       -0.12669301 -0.053287603 -0.12458243 -0.034365237
000080 2b b0 9c 3d e7 93 aa 3d 6d 5b 92 3d 4f a4 1f be
       0.07650789 0.083289914 0.07146344 -0.15590023
000090 e3 7f d4 3c 22 82 d6 bd 88 af 8c bd 40 f0 a0 bd
       0.025939887 -0.104740396 -0.068694174 -0.07858324
0000a0 b3 8d 8b bd af cc be 3c c8 96 68 3d c4 17 6b 3d
       -0.06814136 0.02329096 0.05678442 0.05739571
0000b0 21 cd 06 be 29 83 9a bc 30 40 31 bd 27 e3 ad bc
       -0.13164188 -0.01886137 -0.043274105 -0.021226479
0000c0 6e 2d 2d 3d 12 6c 23 3e 73 02 e1 bc c8 8c 7b 3d
       0.042279653 0.15959194 -0.027466988 0.061413556
0000d0 88 71 26 be f9 96 b1 bd 57 31 2f 3d 2a 20 97 3d
       -0.16254246 -0.08671374 0.042771664 0.07379182
0000e0 06 47 1d 3d b9 7c 04 bd 52 be 23 bb 35 fc 90 3d
       0.03839781 -0.032345507 -0.0024985266 0.07079355
0000f0 92 02 fe 3c 21 44 aa bd d6 32 f0 3d c6 f0 aa 3c
       0.031007085 -0.08313776 0.11728446 0.020866763
000100 fc b3 04 bc f7 ed 1e be 16 5c 28 be 38 ba 24 be
       -0.008099552 -0.15520464 -0.16441378 -0.16086662
000110 51 f2 d6 bd 78 2b 41 bd d7 eb 3c 3e f4 fe 62 bd
       -0.10495437 -0.047160596 0.18449341 -0.055418923
000120 37 4e 09 3b 66 ea 41 bd 43 2c 9a bd 27 da 71 3c
       0.002095116 -0.04734268 -0.075279735 0.014761484
000130 7a 03 f1 3d aa e6 7e 3d 5f 55 4b bc 37 0e 74 3d
       0.11768241 0.062231697 -0.012410491 0.05958387
000140 f5 02 e4 bd be b0 cf 3d fc c9 de bd 66 3c 00 3d
       -0.111333765 0.10141133 -0.10878369 0.0313076
000150 f1 ac 04 3d 8a 01 23 bd a9 46 11 3e 1c 1a be bd
       0.032391492 -0.03979639 0.14187111 -0.09282324
000160 11 50 0a 3d 10 6f ec bc 00 f6 ce 3d c4 7b 8a 3d
       0.033767764 -0.028861552 0.101055145 0.06761888
000170 2c 8a bc 3d b6 da 7e 3d 3b 3c 12 3e a2 f0 6f 3d
       0.09206042 0.062220298 0.14280789 0.058579095
000180 1f 83 aa bd 8e ce 9f bd e2 eb 61 bd 5d b3 2b 3e
       -0.083257906 -0.07803069 -0.055156596 0.1676764
000190 ed 1c 51 bc 01 23 ba 3d 26 0b 6c 3d 70 1f 89 3d
       -0.012763244 0.09088708 0.05762782 0.06695449
0001a0 ba 07 61 3d a1 0c 40 bc 76 06 5c bd d2 dc 88 bd
       0.05493901 -0.011721761 -0.0537171 -0.06682743
0001b0 be dc cc 3d 27 f5 2c 3d d2 96 ec 3c 3e bc ac 3c
       0.10003041 0.042225983 0.02888051 0.021085855
0001c0 75 8f a5 bc c3 ec 25 be 33 69 e6 3c 55 55 1e bd
       -0.020210007 -0.16203599 0.028126335 -0.038655598
0001d0 c8 e9 34 3e 94 f1 b5 3d 73 34 4e bd d0 8c aa bd
       0.17667305 0.08883968 -0.05034299 -0.08327639
0001e0 18 d9 1c bd ba de 02 3d fa 83 a5 3b 21 8b 82 bd
       -0.038292974 0.03195069 0.005051133 -0.06374193
0001f0 5d 71 a1 bc fe 9c ad 3d 1a 9a da bd ab f7 60 bd
       -0.019707376 0.084772095 -0.10673924 -0.054923695

actor_head.bias f4 [2]
000000 72 47 9b bc 71 47 9b 3c
       -0.018954966 0.018954964

critic_head.weight f4 [1, 64]
000000 b5 8f 09 3f 9b a7 0c 3f 94 7e 08 3f 58 62 2b 3f
       0.53734905 0.54943246 0.5331814 0.66946936
000010 5f 07 1d 3f 0d b3 15 3f 11 f1 1b 3f 39 dd 35 be
       0.6133937 0.58476335 0.60914713 -0.17760171
000020 7e 81 1e be 31 b3 05 3f 90 a5 e5 bd 36 0b 3b 3f
       -0.15479085 0.5222655 -0.11213219 0.7306398
000030 1e b8 0b 3f 29 c0 20 3f 0b 28 69 be d6 d4 ed bd
       0.54577816 0.62793213 -0.22769181 -0.11612861
000040 47 71 03 bd 79 93 0e 3f 0f 79 20 3f a3 2d 11 3f
       -0.03209045 0.55693775 0.6268472 0.5671026
000050 06 03 f3 3e 5a bc 02 3f c3 17 2b 3f 19 fb 0f be
       0.47463244 0.5106865 0.6683313 -0.1406063
000060 34 40 51 bd cf 32 1f 3f b9 85 2e be 90 2d cf bd
       -0.05108662 0.621869 -0.17043199 -0.10116112
000070 25 f3 12 3f 15 2c 0d 3f 4b 01 2a 3f c4 1b 08 3f
       0.5740226 0.5514539 0.6640822 0.53167367
000080 90 d4 10 3f f2 80 6c be ef 32 0f 3f df 26 36 3f
       0.56574345 -0.23096064 0.55937093 0.7115306
000090 7e db b6 bd 4c 36 3b be 29 63 31 3f 5b 85 00 3f
       -0.089285836 -0.18282431 0.6929193 0.50203484
0000a0 d2 7d 08 3f 3b b2 0f 3f d5 cf 00 3f bf 1a 07 3f
       0.53316987 0.56131333 0.50317127 0.52775186
0000b0 d7 24 71 3f 1e 34 04 3f c8 e5 d8 3e 36 55 04 3f
       0.9419684 0.51642025 0.4236281 0.5169252
0000c0 9f a4 1d 3f 3d 96 07 3f 03 72 61 bd 95 9d 0a 3f
       0.61579317 0.5296362 -0.05504037 0.541467
0000d0 ad f5 14 3f 3d 29 34 be 7b 38 06 3c f6 a8 ee 3e
       0.5818737 -0.17593856 0.008192177 0.46613282
0000e0 a9 4c 06 3f 79 d9 b3 bd c8 c1 89 3e ff 2a 09 3f
       0.52460724 -0.08781714 0.26905656 0.5358123
0000f0 ae 5f fb 3e 9b 15 6e bd 88 5a c6 bd 03 bc 0f 3f
       0.49096435 -0.058126073 -0.09685236 0.5614626

exp_avg f4 [64, 4]
000000 5c 03 cd bb af 72 86 bb 12 14 a0 3a a9 33 77 3a
       -0.006256504 -0.004103027 0.0012213013 0.000943
000010 5d c7 1a bc c1 e7 1a bc 40 3a 18 3a 06 95 b9 b8
       -0.009446946 -0.0094546685 0.000580702 -8.849245e-05
000020 0e 8d 23 bc 32 50 2d bc 7b 84 0b 3a 89 7d 4b 3a
       -0.0099823605 -0.010578202 0.00053221703 0.00077625416
000030 1b c8 47 bc bc 8d 55 bc 9b 7b f5 39 82 f7 a6 b8
       -0.012193705 -0.01303428 0.00046822135 -7.961599e-05
000040 97 4d 2a bc f5 42 43 bc 48 43 d9 39 14 58 20 3a
       -0.010394475 -0.011917819 0.00041439594 0.000611664
000050 b2 3d 2a bc a0 a9 42 bc a1 61 15 39 da 96 b9 b9
       -0.010390686 -0.011881262 0.00014246117 -0.00035398343
000060 b8 e1 34 bc 4d 5e 6c bc 99 f0 1e ba fa c8 c5 ba
       -0.011040144 -0.01442678 -0.00060630735 -0.0015089803
000070 fb d8 2d 3b 13 30 9a 3b 8c ec 4b 3a ab b5 bd 3a
       0.0026527036 0.004705438 0.00077790837 0.0014473697
000080 4c 65 dc b9 18 c7 09 ba ac dc ad b8 27 34 ec b8
       -0.00042037142 -0.00052558025 -8.290386e-05 -0.00011263071
000090 72 08 09 bc 1d bb 05 bc b5 c9 e2 39 08 d5 15 ba
       -0.00836383 -0.008162287 0.00043256363 -0.0005715643
0000a0 cf 7a ed 3a cd ad 55 3b 76 c1 0c 3a 1a ca 81 3a
       0.0018118265 0.0032604814 0.0005369404 0.000990215
0000b0 88 83 77 bc 8e 64 9b bc 59 2b 17 ba 91 8e 05 ba
       -0.015107043 -0.018968847 -0.0005766652 -0.00050947914
0000c0 2e 04 21 bc 8b a1 4c bc 85 a5 c9 b9 ac ab 90 ba
       -0.009827657 -0.012489687 -0.0003846103 -0.001103749
0000d0 9f 51 3b bc 93 62 5e bc d0 86 25 b9 ee a1 83 ba
       -0.011433034 -0.013573307 -0.00015785848 -0.0010042766
0000e0 b7 a6 10 37 a5 59 92 37 1a 89 73 35 09 33 db b6
       8.621885e-06 1.74463e-05 9.0724063e-07 -6.53265e-06
0000f0 15 ae dd 39 46 94 f0 b9 1b 8b 19 ba 5a eb a1 ba
       0.00042282106 -0.0004588684 -0.0005857215 -0.0012353465
000100 82 be 2f 3a 15 5f a0 3a e6 ea 42 39 60 ab 85 39
       0.0006704108 0.0012235368 0.00018588788 0.0002549542
000110 26 86 23 bc 17 64 4e bc dc 7a b7 b9 f1 c1 8a ba
       -0.009980714 -0.0125971055 -0.00034996017 -0.0010586363
000120 96 95 32 bc 66 4c 47 bc 4b cc a4 39 c3 45 e4 b8
       -0.010899922 -0.012164211 0.00031432728 -0.00010884881
000130 35 d3 24 bc b1 a4 47 bc 1b 97 08 b9 1c da 40 ba
       -0.010060121 -0.012185262 -0.00013026262 -0.00073567196
000140 7f 17 1f bc 0e f4 49 bc ab 15 fe b9 41 c0 3a ba
       -0.009710192 -0.012326254 -0.000484628 -0.0007123985
000150 15 d9 12 bc f0 b8 2a bc ef df ab 38 0a 08 af b9
       -0.008962889 -0.010420069 8.195626e-05 -0.0003338459
000160 e2 71 31 bc 6f 59 69 bc a9 30 64 b9 4f ab 4f b5
       -0.010830374 -0.014242514 -0.00021761902 -7.7362796e-07
000170 09 3f 10 3b 7b 6f 7c 3b ee dc 22 3a 32 ad 98 3a
       0.0022010228 0.0038518596 0.00062127307 0.0011648296
000180 d5 17 4f 38 4e ab ec b8 0c 7b c2 b7 7d 81 24 39
       4.937484e-05 -0.00011285265 -2.31839e-05 0.00015688497
000190 b2 98 61 bc 24 3e 8c bc ea 67 18 ba b4 73 30 ba
       -0.013769316 -0.017119475 -0.0005813824 -0.00067311083
0001a0 68 82 3c 3a a6 76 38 ba 39 88 69 ba f2 ff f8 ba
       0.0007191063 -0.0007036723 -0.00089085434 -0.0018997176
0001b0 8f 68 0a 39 a1 fa dc b9 ed 04 c5 b9 b2 56 08 ba
       0.00013199657 -0.00042148403 -0.00037578438 -0.0005200907
0001c0 04 e9 28 bc a2 9e 55 bc e5 26 c5 b9 71 01 93 ba
       -0.0103094615 -0.013038309 -0.00037603747 -0.001121564
0001d0 0d 0a 47 bc 02 e1 79 bc b9 f6 3d ba 39 95 c2 ba
       -0.012148392 -0.0152514 -0.00072465424 -0.0014845497
0001e0 ea 8f 43 bc 21 33 78 bc b8 49 f0 b9 63 bc ae ba
       -0.011936167 -0.015148909 -0.00045831292 -0.001333129
0001f0 b6 05 2e bc f7 57 60 bc 54 61 fd b9 2b fb 0a ba
       -0.010621479 -0.013692847 -0.00048328436 -0.0005301709
000200 02 b1 21 bc f4 46 36 bc db 9c 83 39 00 30 af b8
       -0.009868862 -0.011125315 0.00025103134 -8.353591e-05
000210 d6 ef 65 3b c2 22 ca 3b 41 7b 84 3a 54 3d fa 3a
       0.003508558 0.0061686942 0.0010107533 0.0019091764
000220 e0 fa 1f bc 2e 04 36 bc 84 3c 46 39 50 bf 77 b9
       -0.009764403 -0.011109395 0.00018905295 -0.00023627025
000230 6f 0b 53 bc 3a c3 86 bc 21 ba 0f ba 30 02 c7 ba
       -0.012881144 -0.016450513 -0.00054827525 -0.0015183147
000240 ff 1c ac 3a 0f 6c 18 3b 0c 62 d1 39 6d f4 49 3a
       0.00131312 0.0023257767 0.00039936637 0.0007703964
000250 b0 ce 50 3a c3 02 59 ba 16 b9 7f ba 7c 57 04 bb
       0.0007965369 -0.00082783046 -0.0009755058 -0.0020193746
000260 8d db 55 bc b3 8a 84 bc 58 1c bf b9 79 82 61 ba
       -0.013052833 -0.016179418 -0.00036451477 -0.0008602511
000270 4c 61 21 bc c0 48 4d bc 81 e8 d6 b9 3e 40 14 ba
       -0.009849858 -0.012529552 -0.0004099049 -0.0005655325
000280 55 2d 3f bc 31 42 78 bc a5 4e 32 ba 8e b7 42 ba
       -0.011668523 -0.0151525 -0.000680188 -0.00074278645
000290 d7 0b d4 bb 8c 4b 87 bb f1 02 a3 3a c6 4b 59 3a
       -0.006471138 -0.004128879 0.001243679 0.0008289184
0002a0 92 04 10 bc 31 51 24 bc c3 ce 2b 39 2f 01 53 b9
       -0.008790152 -0.010029123 0.00016384856 -0.00020122969
0002b0 a5 dd 16 bc 83 56 2b bc 31 90 43 39 6b 99 5c b9
       -0.009208118 -0.010457638 0.00018650365 -0.00021037988
0002c0 7f 60 7a bc 52 c3 a1 bc 2c 5b 6c b8 45 c8 31 3a
       -0.0152817955 -0.019746456 -5.6351695e-05 0.00067818566
0002d0 31 31 20 bc 32 6b 48 bc ce 65 a1 b9 56 f7 f5 b9
       -0.009777353 -0.012232589 -0.00030784163 -0.0004691432
0002e0 33 bf 0f bc 74 6c 34 bc 62 8b d8 b9 fe 4b 29 ba
       -0.008773613 -0.011012185 -0.0004130258 -0.0006458162
0002f0 42 b2 2c bc d7 66 5b bc 61 57 e2 b9 5d 33 b6 b9
       -0.010540547 -0.013391218 -0.00043171181 -0.00034752014
000300 76 2b 31 bc 05 4e 4e bc ee c5 ac 38 89 27 ee b9
       -0.010813585 -0.0125918435 8.2384664e-05 -0.00045424353
000310 86 2c 16 bc 76 3f 14 bc 82 a0 1d 3a a6 fa 97 b7
       -0.009165889 -0.009048333 0.0006012992 -1.811732e-05
000320 5a 9e 86 38 a7 0b e2 34 64 4d 63 b8 ba 99 76 b9
       6.419113e-05 4.2104259e-07 -5.4193093e-05 -0.00023517656
000330 34 25 b3 bb b8 2c 84 bb cc 9e 0f 3a 38 5e ce ba
       -0.0054670814 -0.004033651 0.00054786797 -0.0015744632
000340 14 68 1d bc af de 56 bc 1d 22 bb b9 2e 09 c0 b8
       -0.009607334 -0.013114615 -0.00035692836 -9.156983e-05
000350 2b 1d 2a 3a 4a b1 2f ba 87 9a 63 ba dc 8f ee ba
       0.0006489332 -0.00067021383 -0.0008682389 -0.0018200832
000360 9c d0 d1 b7 42 f5 09 b8 37 d1 ff b5 cb 2b 80 b6
       -2.5011883e-05 -3.289176e-05 -1.905987e-06 -3.8197954e-06
000370 90 2d fa bb 71 c2 11 bc 3c a3 9e b8 72 90 a5 ba
       -0.007634826 -0.008896456 -7.564432e-05 -0.0012631549
000380 f2 8e 16 bc e5 dd 2d bc b0 f6 e4 38 8d ea aa b9
       -0.009189354 -0.010611986 0.00010917836 -0.0003259968
000390 84 9d 2d 39 6a c4 12 b9 c3 2d 5b b9 25 43 36 ba
       0.00016557245 -0.00013996815 -0.00020902515 -0.00069527543
0003a0 99 bb 11 bb 23 83 76 ba fb 85 1a 3a 41 5f d6 38
       -0.002223706 -0.0009403696 0.00058945984 0.000102220576
0003b0 61 f6 1a bc 60 a9 33 bc dd b5 c1 39 85 5e 85 3a
       -0.009458155 -0.010965675 0.00036947327 0.0010175264
0003c0 ef 26 01 bc b1 30 fe bb fb 08 c5 39 a0 0d 1f ba
       -0.007882818 -0.0077572693 0.0003758146 -0.0006067399
0003d0 d9 0a 85 38 e0 fb ae b9 ed 83 91 b9 47 85 e5 b9
       6.343955e-05 -0.00033375528 -0.00027754848 -0.00043777583
0003e0 a2 a6 d9 3a 56 47 43 3b 8a fd ee 39 25 4b 3a 3a
       0.0016605447 0.0029797158 0.000455838 0.00071065343
0003f0 31 d4 13 bc b9 84 10 bc 45 94 f4 39 ee b3 1a ba
       -0.009022758 -0.008820706 0.00046649776 -0.00059014454

exp_avg_sq f4 [64, 4]
000000 88 b1 18 38 55 8e b8 38 70 2b 99 36 de 9d 89 38
       3.6404963e-05 8.800315e-05 4.564812e-06 6.562074e-05
000010 57 63 42 38 c1 86 e9 38 11 0e a5 36 17 de a2 38
       4.634572e-05 0.00011135406 4.9190207e-06 7.7661294e-05
000020 25 ab 29 38 4c 0f c4 38 bf 3c 85 36 eb 09 87 38
       4.045213e-05 9.3488576e-05 3.9707807e-06 6.439149e-05
000030 b8 2b b4 38 98 12 55 39 66 a6 07 37 16 4e 08 39
       8.591212e-05 0.0002032019 8.08537e-06 0.0001299906
000040 5c 7c 7f 38 bc fe 1b 39 c6 82 db 36 45 dd c1 38
       6.0912556e-05 0.00014876848 6.5419326e-06 9.244172e-05
000050 47 d3 83 38 a1 68 12 39 bf 8c bb 36 3b 22 b3 38
       6.28592e-05 0.00013962622 5.5894193e-06 8.541761e-05
000060 67 80 9e 38 21 d8 31 39 14 9e e6 36 44 53 c9 38
       7.557944e-05 0.0001696055 6.872937e-06 9.599936e-05
000070 52 03 33 36 56 3b d2 36 93 c4 82 34 52 e8 b7 36
       2.6675011e-06 6.2653953e-06 2.4357414e-07 5.4808706e-06
000080 4d c9 cf 35 09 56 aa 36 d0 77 7e 33 6a 20 be 36
       1.5481288e-06 5.0764106e-06 5.9247952e-08 5.6662147e-06
000090 44 19 1b 38 c1 0f bf 38 07 d7 94 36 74 46 7b 38
       3.697841e-05 9.110524e-05 4.435776e-06 5.9908678e-05
0000a0 b2 fa a1 35 c2 a0 0e 37 51 63 6a 34 f4 cd d4 36
       1.2068397e-06 8.501289e-06 2.182908e-07 6.3420684e-06
0000b0 af d2 b7 38 8d 6e 61 39 97 54 23 37 52 00 34 39
       8.765363e-05 0.00021498855 9.735252e-06 0.00017166257
0000c0 6c ef 77 38 4f 20 08 39 72 80 af 36 3b 91 9d 38
       5.9112368e-05 0.00012982007 5.2303594e-06 7.513395e-05
0000d0 4d 65 8c 38 d9 97 29 39 41 81 f0 36 a2 45 e2 38
       6.694589e-05 0.00016173664 7.1676045e-06 0.0001078949
0000e0 f6 92 65 34 67 51 d2 36 fa 4c 3e 33 a9 f4 f0 36
       2.1380751e-07 6.267964e-06 4.4307832e-08 7.1810396e-06
0000f0 74 ef a4 35 b7 17 3a 36 f9 12 00 34 dd 46 4e 36
       1.2288642e-06 2.7729964e-06 1.1927831e-07 3.073764e-06
000100 3f 81 6d 34 bd ca b4 35 b2 7a d1 32 13 67 97 35
       2.2119364e-07 1.347005e-06 2.4386598e-08 1.1280375e-06
000110 2c 3c 30 38 e5 29 ea 38 e5 e6 99 36 35 71 92 38
       4.201771e-05 0.00011165793 4.586635e-06 6.982909e-05
000120 30 40 ae 38 ed c9 3a 39 78 fa ec 36 f8 aa e6 38
       8.3089224e-05 0.00017813566 7.0625065e-06 0.000109991
000130 32 2e 86 38 a8 cf 0f 39 ab ad b6 36 a1 d0 ac 38
       6.3982225e-05 0.000137149 5.4442403e-06 8.240459e-05
000140 0c d0 11 38 40 10 96 38 43 d5 56 36 86 89 41 38
       3.4764453e-05 7.155584e-05 3.201262e-06 4.6142864e-05
000150 07 c8 56 38 e1 e5 dc 38 b3 83 8c 36 cb 79 81 38
       5.1207866e-05 0.00010533236 4.187657e-06 6.173885e-05
000160 fe 39 b5 38 26 8e 50 39 15 da f5 36 9d 0c 00 39
       8.6415545e-05 0.0001988938 7.326957e-06 0.0001221173
000170 20 a6 94 35 81 5c 70 36 d0 b5 0c 34 1e f9 10 36
       1.1075208e-06 3.5816631e-06 1.3104659e-07 2.1602677e-06
000180 ee e3 9c 34 dc 6c 4a 36 91 85 24 33 c2 c7 b4 36
       2.9223105e-07 3.016371e-06 3.8305703e-08 5.387673e-06
000190 0a 5f 6f 38 21 be 0b 39 c0 7b d5 36 77 9b e1 38
       5.7070552e-05 0.00013326902 6.362301e-06 0.00010757794
0001a0 0c 1a 39 36 58 ff b5 36 01 d2 b3 34 82 97 94 36
       2.758231e-06 5.4239463e-06 3.3494146e-07 4.4283815e-06
0001b0 35 b9 6d 35 74 d5 f9 35 16 a4 a2 33 f4 7d ff 35
       8.855889e-07 1.8614069e-06 7.57356e-08 1.9035638e-06
0001c0 c1 e9 87 38 70 1c 12 39 da a2 b7 36 e1 66 a4 38
       6.480842e-05 0.00013934239 5.4727834e-06 7.839292e-05
0001d0 63 4b 3a 38 d8 31 dc 38 c1 9f 98 36 41 22 99 38
       4.4416065e-05 0.000104997016 4.548551e-06 7.301989e-05
0001e0 79 da bd 38 70 aa 58 39 e4 a3 0b 37 22 af 06 39
       9.052916e-05 0.00020662858 8.323204e-06 0.00012844478
0001f0 35 a5 63 38 96 2f dd 38 5a 7b 99 36 55 9b 90 38
       5.427488e-05 0.00010546965 4.5741153e-06 6.895388e-05
000200 1e dd 7d 38 47 86 0a 39 cf a3 b7 36 3d cd a2 38
       6.0525832e-05 0.00013210728 5.472895e-06 7.7629906e-05
000210 95 d6 9a 36 be d2 6f 37 e2 4d 5f 35 2c cd 70 37
       4.6145383e-06 1.4294577e-05 8.318731e-07 1.4352885e-05
000220 0f 6c 53 38 bf 9c 02 39 ad 7f b1 36 be 64 ae 38
       5.0406958e-05 0.00012456159 5.2898745e-06 8.315731e-05
000230 8d 22 d8 38 81 80 7b 39 23 f5 27 37 e9 9c 21 39
       0.00010306118 0.00023985097 1.0011051e-05 0.0001541261
000240 8e 93 33 35 ea e1 0e 36 dc 90 0c 33 56 de 1f 36
       6.6897417e-07 2.1291148e-06 3.272804e-08 2.3822263e-06
000250 22 c4 63 36 5a 1e 11 37 d3 4e 06 35 12 9b 97 36
       3.39398e-06 8.64974e-06 5.0033594e-07 4.5182032e-06
000260 43 49 c3 38 25 90 5e 39 2a f7 18 37 0e 71 1b 39
       9.311971e-05 0.00021225268 9.117453e-06 0.00014824068
000270 20 1d 1e 38 92 b5 b8 38 07 a7 88 36 20 dc 70 38
       3.769726e-05 8.807624e-05 4.0725604e-06 5.7425466e-05
000280 13 bf 39 38 1a 4c df 38 b8 b8 a0 36 97 d2 92 38
       4.428539e-05 0.00010647644 4.7898757e-06 7.001048e-05
000290 1a 36 29 38 af 82 d0 38 30 e4 a6 36 60 51 a0 38
       4.0343126e-05 9.9425546e-05 4.97375e-06 7.644552e-05
0002a0 c9 7d 51 38 74 7f d3 38 65 63 88 36 cb e6 74 38
       4.994663e-05 0.00010085004 4.064687e-06 5.8389076e-05
0002b0 9f 37 45 38 94 b4 e4 38 8b ac 99 36 c3 e8 8f 38
       4.702026e-05 0.000109055225 4.579842e-06 6.8621266e-05
0002c0 9d da 0a 39 b0 83 d5 39 c5 a7 95 37 53 1a a7 39
       0.00013242145 0.0004072464 1.7840308e-05 0.00031872335
0002d0 ba a4 50 38 52 07 c4 38 e0 a4 87 36 63 a1 82 38
       4.9744478e-05 9.347372e-05 4.0425075e-06 6.228944e-05
0002e0 41 a0 cc 37 d5 94 55 38 2a fd 0d 36 e0 55 ed 37
       2.439332e-05 5.0921768e-05 2.1157998e-06 2.829259e-05
0002f0 85 f5 31 38 60 0e b7 38 a4 ad 8a 36 af 91 88 38
       4.2428746e-05 8.7287975e-05 4.132935e-06 6.512121e-05
000300 0c 2f 8f 38 39 40 29 39 87 f2 dd 36 8f 30 da 38
       6.8275345e-05 0.00016141021 6.614547e-06 0.00010404095
000310 9b 8b 2c 38 01 75 d0 38 4a 06 92 36 ae 36 92 38
       4.1138013e-05 9.9400066e-05 4.351871e-06 6.9720074e-05
000320 df 06 a5 33 59 05 a1 35 84 4d aa 32 e1 ed 20 36
       7.684661e-08 1.1996991e-06 1.9825855e-08 2.3980322e-06
000330 a8 68 14 38 37 f6 c6 38 1c ca 8b 36 ce 76 92 38
       3.538342e-05 9.487237e-05 4.1660514e-06 6.9839516e-05
000340 95 92 48 38 51 94 0c 39 f0 90 c6 36 61 e5 b7 38
       4.782023e-05 0.00013406693 5.917733e-06 8.768845e-05
000350 1e 2b 35 36 6f bb 98 36 c6 f2 75 34 16 e5 0d 36
       2.69962e-06 4.551773e-06 2.2905724e-07 2.1143983e-06
000360 10 28 0d 33 3f 41 fe 34 54 7f 33 32 65 35 74 35
       3.2865557e-08 4.735866e-07 1.0448122e-08 9.097478e-07
000370 10 5f 1c 38 28 6c a0 38 f9 eb 49 36 36 94 18 38
       3.7281832e-05 7.64954e-05 3.0088688e-06 3.6377656e-05
000380 b3 e1 2f 38 c1 8f dc 38 87 81 96 36 b7 20 87 38
       4.193345e-05 0.00010517194 4.4854273e-06 6.443395e-05
000390 e0 db c5 34 22 05 81 36 57 b5 b4 33 c9 bc 01 37
       3.685409e-07 3.845097e-06 8.414889e-08 7.732954e-06
0003a0 de 66 ea 36 6c 9b 74 37 27 7d 19 35 1c 33 06 37
       6.9857188e-06 1.457972e-05 5.717906e-07 7.998922e-06
0003b0 34 7f 59 38 c7 2f e9 38 99 56 97 36 a0 60 81 38
       5.18553e-05 0.00011119205 4.510232e-06 6.169197e-05
0003c0 9b 50 0f 38 88 ed a0 38 20 52 72 36 6c d3 49 38
       3.4168927e-05 7.673638e-05 3.6108613e-06 4.8119036e-05
0003d0 fe 53 d7 34 c5 c5 47 35 ea 1a 06 33 7f c0 a4 34
       4.0107983e-07 7.442107e-07 3.1223784e-08 3.068744e-07
0003e0 65 2d 05 35 52 1a ab 35 70 05 7a 33 1f 60 fb 34
       4.961242e-07 1.2748153e-06 5.8212606e-08 4.682233e-07
0003f0 69 e6 41 38 b2 9a e8 38 91 ee b0 36 94 8b 97 38
       4.6229372e-05 0.00011091436 5.2729815e-06 7.2262395e-05

exp_avg f4 [64]
000000 39 9d 55 3a c9 ea f6 3b 6d e8 e8 3b f8 a1 04 3c
       0.0008148733 0.007535313 0.0071077854 0.008095257
000010 26 4f f8 3b a2 e2 c8 3b a3 cf 59 3b c5 5f 8d bb
       0.0075777946 0.0061305324 0.0033235333 -0.004314395
000020 a3 c8 d9 b9 f4 1d 78 3b 9e 51 55 bb 39 80 83 3b
       -0.0004153895 0.003785965 -0.0032549868 0.004013088
000030 f7 3d 6e 3b f0 15 ab 3b 33 3b 0d 37 14 36 db ba
       0.0036352852 0.005221121 8.418038e-06 -0.001672449
000040 fc ba 8e ba 54 4c 7f 3b a1 52 ef 3b c9 9a a0 3b
       -0.0010889466 0.0038955407 0.0073035513 0.0049012643
000050 69 e5 2b 3b 50 a4 ac 3b 0a 5d 52 3b 46 55 64 bb
       0.0026229268 0.005268611 0.0032098913 -0.0034840866
000060 e0 2d b8 39 c5 7e 3b 3b 68 3d 35 bb 7c 62 19 ba
       0.00035129394 0.0028609496 -0.002765501 -0.0005851162
000070 c2 82 81 3b 06 d9 1d 3b ca ef 91 3b e8 d3 3f 3b
       0.003952355 0.0024085655 0.004453634 0.0029270593
000080 0d f9 d4 3b c5 19 ba bb 85 88 c9 3b 5c 23 93 3b
       0.0064994157 -0.0056793415 0.0061503076 0.004490299
000090 bd c6 15 bb 5e 53 51 bb 86 36 a2 3b 9f 8b 3a 3b
       -0.0022854053 -0.003194056 0.0049503474 0.0028464568
0000a0 1f d9 ed 3a 76 c2 28 3a 52 6a b5 3b 5a 66 bf 3b
       0.0018146372 0.00064376683 0.005536356 0.0058410587
0000b0 9e 72 a8 3b a3 34 7c 3b ab b4 1b 3b e7 a7 3a 3b
       0.0051406166 0.0038483522 0.002375881 0.0028481425
0000c0 12 82 cc 3b 0a d0 f2 3b 75 fe ac b9 59 93 04 bb
       0.0062410915 0.007410054 -0.00032995982 -0.0020229428
0000d0 5d be fa 3a 3f 9d 1a bb d4 c7 de b8 e0 45 6d 3b
       0.0019130219 -0.002359226 -0.00010623006 0.0036204979
0000e0 c2 eb b3 3b a9 d8 95 ba e4 99 e9 ba 79 12 e7 3b
       0.005490751 -0.0011432368 -0.0017822352 0.0070517627
0000f0 49 02 65 3b b7 31 52 ba af 04 1f bb 97 24 88 3b
       0.003494399 -0.00080182723 -0.0024264266 0.0041547525

exp_avg_sq f4 [64]
000000 da 5c c0 3a 70 77 f4 3a bb 52 df 3a 3c 64 53 3b
       0.001467611 0.0018651318 0.0017038205 0.003225579
000010 51 55 1c 3b ce e3 fb 3a cc a0 1f 3b 3f a5 a6 37
       0.0023854563 0.0019217671 0.0024357317 1.986569e-05
000020 7f b5 a1 37 22 5e c2 3a 7d d6 08 38 88 b7 83 3b
       1.9277211e-05 0.0014829079 3.2624685e-05 0.0040196814
000030 68 cd ea 3a c1 b4 2f 3b 95 82 c7 37 0a 9b 2d 37
       0.0017913999 0.0026810619 2.3783456e-05 1.0347701e-05
000040 05 32 b7 36 11 f8 c9 3a 3e d6 2b 3b fa e6 fe 3a
       5.459648e-06 0.0015409013 0.0026220228 0.0019447498
000050 c1 de 93 3a 40 11 bf 3a 7f 32 46 3b 14 cb 1b 37
       0.0011281596 0.0014577284 0.00302425 9.286003e-06
000060 39 85 94 37 2e 8b 29 3b b4 62 ad 37 f6 b2 e0 36
       1.7705011e-05 0.002587031 2.066917e-05 6.696554e-06
000070 93 af e7 3a 7d f8 e6 3a 0d d3 4a 3b 2e 70 d2 3a
       0.0017676227 0.0017621663 0.003094855 0.0016055161
000080 86 62 fd 3a 01 80 84 38 c8 90 f7 3a 89 1a 78 3b
       0.001933173 6.318093e-05 0.0018887753 0.0037857613
000090 8f c5 27 37 2a 27 0d 38 d6 fe 66 3b 01 9f b8 3a
       9.999973e-06 3.3653494e-05 0.003524711 0.0014085473
0000a0 9e d0 d8 3a 99 6c d5 3a fa de b6 3a 05 c8 cf 3a
       0.0016541665 0.0016282975 0.001395195 0.0015852457
0000b0 57 fc 00 3c b7 4a c1 3a a4 f7 3c 3a 95 b1 c6 3a
       0.0078726625 0.0014746998 0.0007208532 0.0015159125
0000c0 24 6f 21 3b 76 a4 dc 3a c7 44 d5 36 49 82 ba 3a
       0.0024632895 0.0016833681 6.3559014e-06 0.0014229502
0000d0 12 fa 0a 3b e4 f3 54 37 7e e8 6c 36 7c 36 88 3a
       0.0021206182 1.269297e-05 3.5302069e-06 0.0010392214
0000e0 60 43 cd 3a 51 c2 c1 37 2b 1f 23 39 66 b3 d0 3a
       0.0015660338 2.3097879e-05 0.00015556502 0.0015922606
0000f0 4e bc 96 3a 4e 06 a4 36 6f 03 57 36 87 c2 ed 3a
       0.0011500211 4.888315e-06 3.2039495e-06 0.0018139639

exp_avg f4 [2, 64]
000000 10 d4 8b 3b 30 2d b4 3a 2f 5e 24 3a ab 26 c7 3a
       0.004267223 0.0013746377 0.0006270138 0.0015194019
000010 52 5d 22 3b f1 b3 4f 3b 53 9a a8 3b 84 0e c2 b9
       0.0024774862 0.0031692947 0.00514535 -0.00037013378
000020 82 bc de b4 f1 22 93 3b eb 62 b4 b9 ac 13 ef 3a
       -4.148788e-07 0.0044902493 -0.00034405975 0.0018240116
000030 5b d6 86 3b 42 8d 37 3b c2 42 b4 31 4a 79 1e 39
       0.0041149086 0.002800778 5.246279e-09 0.00015113238
000040 a4 cc 7a ba 27 fd 9d 3b 9d 35 0f 3b b4 61 a5 3b
       -0.0009567237 0.004821438 0.0021852024 0.0050470475
000050 21 21 49 3b a7 0a a3 3b 8f 58 92 3b e3 55 83 b9
       0.0030689912 0.004975635 0.0044661234 -0.00025050258
000060 08 c5 2c b8 13 45 a5 3a a0 13 b3 39 38 45 04 39
       -4.1191495e-05 0.0012609087 0.00034156162 0.00012614287
000070 71 0d 88 3b a6 cf 28 3b f4 a9 80 3b 40 3b 2c 3b
       0.004151993 0.0025758534 0.00392651 0.0026280433
000080 3a 07 3f 3b 41 c7 0b ba 1d 6a 63 3b be f1 87 3b
       0.0029148594 -0.00053321203 0.00347007 0.004148691
000090 4e 0a bc b9 e4 28 13 3a 3a 96 2c 3b 73 22 69 3b
       -0.00035865832 0.0005613698 0.002633466 0.0035573512
0000a0 58 5d 54 3b d0 5a 8f 3b 38 18 98 3b 1e c6 90 3b
       0.003240427 0.0043748394 0.004641559 0.0044181487
0000b0 b4 24 64 3b 2a 4e 18 3b d0 8c 50 3b 85 ea 00 3b
       0.0034811916 0.0023239949 0.0031822212 0.0019671035
0000c0 80 38 71 3b 55 a8 b7 3a 9e 88 75 37 21 36 50 3b
       0.0036807358 0.0014011959 1.4634947e-05 0.0031770545
0000d0 75 ac a6 3b ea 03 52 39 0a 84 d3 b7 65 61 4f 3b
       0.0050864764 0.00020028619 -2.5214646e-05 0.0031643745
0000e0 97 92 8c 3b d0 a8 0f 39 8e 6f 2f 3b 82 a8 63 3b
       0.004289936 0.0001370043 0.0026769373 0.003473789
0000f0 65 e3 a6 3b df 25 e4 38 65 e6 a3 b9 d5 15 7f 3b
       0.0050930255 0.00010878941 -0.0003126144 0.0038922925
000100 12 d4 8b bb 33 2d b4 ba 31 5e 24 ba ac 26 c7 ba
       -0.004267224 -0.001374638 -0.0006270139 -0.001519402
000110 55 5d 22 bb f3 b3 4f bb 54 9a a8 bb 83 0e c2 39
       -0.0024774869 -0.0031692951 -0.0051453505 0.00037013376
000120 4d bd de 34 f3 22 93 bb ea 62 b4 39 a9 13 ef ba
       4.1488457e-07 -0.0044902503 0.00034405972 -0.0018240112
000130 5b d6 86 bb 44 8d 37 bb cb 42 b4 b1 4a 79 1e b9
       -0.0041149086 -0.0028007785 -5.246283e-09 -0.00015113238
000140 a4 cc 7a 3a 26 fd 9d bb 9e 35 0f bb b5 61 a5 bb
       0.0009567237 -0.0048214374 -0.0021852027 -0.005047048
000150 23 21 49 bb a7 0a a3 bb 91 58 92 bb e3 55 83 39
       -0.0030689917 -0.004975635 -0.0044661243 0.00025050258
000160 0a c5 2c 38 16 45 a5 ba a0 13 b3 b9 36 45 04 b9
       4.1191503e-05 -0.001260909 -0.00034156162 -0.00012614284
000170 72 0d 88 bb a7 cf 28 bb f6 a9 80 bb 40 3b 2c bb
       -0.0041519934 -0.0025758536 -0.003926511 -0.0026280433
000180 3a 07 3f bb 40 c7 0b 3a 1e 6a 63 bb bf f1 87 bb
       -0.0029148594 0.000533212 -0.0034700702 -0.0041486914
000190 4e 0a bc 39 e4 28 13 ba 3c 96 2c bb 76 22 69 bb
       0.00035865832 -0.0005613698 -0.0026334664 -0.0035573519
0001a0 59 5d 54 bb d0 5a 8f bb 3a 18 98 bb 1f c6 90 bb
       -0.0032404272 -0.0043748394 -0.00464156 -0.004418149
0001b0 b5 24 64 bb 2d 4e 18 bb d0 8c 50 bb 88 ea 00 bb
       -0.0034811918 -0.0023239956 -0.0031822212 -0.0019671042
0001c0 82 38 71 bb 5b a8 b7 ba 9f 88 75 b7 23 36 50 bb
       -0.0036807363 -0.0014011966 -1.4634948e-05 -0.003177055
0001d0 75 ac a6 bb eb 03 52 b9 01 84 d3 37 66 61 4f bb
       -0.0050864764 -0.0002002862 2.521463e-05 -0.0031643747
0001e0 97 92 8c bb d0 a8 0f b9 8f 6f 2f bb 84 a8 63 bb
       -0.004289936 -0.0001370043 -0.0026769375 -0.0034737894
0001f0 67 e3 a6 bb df 25 e4 b8 64 e6 a3 39 d5 15 7f bb
       -0.0050930264 -0.00010878941 0.00031261437 -0.0038922925

exp_avg_sq f4 [2, 64]
000000 e8 84 2a 38 03 f4 39 38 71 54 62 38 81 ef 01 38
       4.0654937e-05 4.433469e-05 5.396124e-05 3.0979052e-05
000010 e3 74 07 38 61 c9 0c 38 0b 6f fe 37 32 21 41 34
       3.2295367e-05 3.356615e-05 3.0330868e-05 1.7986602e-07
000020 0f 4a 30 33 ed f6 32 38 76 96 3e 35 c4 41 ed 37
       4.104555e-08 4.2668475e-05 7.0999465e-07 2.8283226e-05
000030 d8 62 1d 38 72 d4 e6 37 98 d6 ea 30 a5 ca 86 34
       3.7523772e-05 2.7517064e-05 1.7086732e-09 2.5106888e-07
000040 52 d1 1a 36 a7 f1 09 38 33 c8 fe 37 64 d2 13 38
       2.3069629e-06 3.28884e-05 3.0372385e-05 3.5243473e-05
000050 f9 10 57 38 4c c6 36 38 5e c6 f5 37 a8 64 44 33
       5.12758e-05 4.357686e-05 2.9298648e-05 4.5726352e-08
000060 9f 78 61 34 03 93 18 38 1c e5 51 34 db cc a1 34
       2.099864e-07 3.637654e-05 1.9547991e-07 3.013764e-07
000070 b7 72 03 38 fe 87 21 38 6e 16 dd 37 8f aa 38 38
       3.133967e-05 3.8512044e-05 2.6355698e-05 4.4027864e-05
000080 2e 69 0e 38 41 ec 30 35 ce 57 1c 38 a6 24 cb 37
       3.3953394e-05 6.5908904e-07 3.7275073e-05 2.4216552e-05
000090 b4 c2 1f 35 78 e0 15 35 f5 32 db 37 4b d7 3c 38
       5.9515446e-07 5.583347e-07 2.6130563e-05 4.50232e-05
0000a0 64 d3 35 38 f3 72 26 38 a8 2b 37 38 bc c1 35 38
       4.3350636e-05 3.968454e-05 4.3671258e-05 4.3334192e-05
0000b0 ff e7 bf 37 20 f4 30 38 8a 73 13 38 e9 cf 44 38
       2.2877006e-05 4.218903e-05 3.5155135e-05 4.6923673e-05
0000c0 fc 6b fb 37 3c f6 4e 38 cc 4b 66 32 1d 33 35 38
       2.9971816e-05 4.934355e-05 1.3404996e-08 4.3201366e-05
0000d0 64 a0 16 38 95 04 f4 33 20 a0 99 34 34 25 4a 38
       3.5912162e-05 1.1362969e-07 2.8614977e-07 4.81952e-05
0000e0 e6 b7 30 38 d8 5d aa 33 61 c9 51 37 20 8a 15 38
       4.213294e-05 7.933312e-08 1.2504258e-05 3.5653007e-05
0000f0 ff dc 3b 38 d9 de 6b 35 f8 9f 91 33 d1 6f 14 38
       4.4790093e-05 8.786861e-07 6.781187e-08 3.5390087e-05
000100 e7 84 2a 38 03 f4 39 38 71 54 62 38 82 ef 01 38
       4.0654933e-05 4.433469e-05 5.396124e-05 3.0979056e-05
000110 e2 74 07 38 61 c9 0c 38 0c 6f fe 37 33 21 41 34
       3.2295364e-05 3.356615e-05 3.033087e-05 1.7986603e-07
000120 0e 4a 30 33 ed f6 32 38 75 96 3e 35 c6 41 ed 37
       4.1045546e-08 4.2668475e-05 7.099946e-07 2.828323e-05
000130 d6 62 1d 38 75 d4 e6 37 98 d6 ea 30 a4 ca 86 34
       3.7523765e-05 2.751707e-05 1.7086732e-09 2.5106885e-07
000140 52 d1 1a 36 a8 f1 09 38 33 c8 fe 37 67 d2 13 38
       2.3069629e-06 3.2888405e-05 3.0372385e-05 3.5243484e-05
000150 f9 10 57 38 4c c6 36 38 5e c6 f5 37 a7 64 44 33
       5.12758e-05 4.357686e-05 2.9298648e-05 4.572635e-08
000160 9e 78 61 34 03 93 18 38 1b e5 51 34 d9 cc a1 34
       2.0998638e-07 3.637654e-05 1.954799e-07 3.0137633e-07
000170 b6 72 03 38 fe 87 21 38 6c 16 dd 37 8b aa 38 38
       3.1339667e-05 3.8512044e-05 2.6355694e-05 4.402785e-05
000180 2e 69 0e 38 41 ec 30 35 ce 57 1c 38 a6 24 cb 37
       3.3953394e-05 6.5908904e-07 3.7275073e-05 2.4216552e-05
000190 b6 c2 1f 35 78 e0 15 35 f3 32 db 37 4c d7 3c 38
       5.951546e-07 5.583347e-07 2.613056e-05 4.5023204e-05
0001a0 65 d3 35 38 f2 72 26 38 a8 2b 37 38 bd c1 35 38
       4.335064e-05 3.9684535e-05 4.3671258e-05 4.3334196e-05
0001b0 ff e7 bf 37 20 f4 30 38 8a 73 13 38 e8 cf 44 38
       2.2877006e-05 4.218903e-05 3.5155135e-05 4.692367e-05
0001c0 f8 6b fb 37 3c f6 4e 38 cc 4b 66 32 1b 33 35 38
       2.9971809e-05 4.934355e-05 1.3404996e-08 4.320136e-05
0001d0 64 a0 16 38 93 04 f4 33 1f a0 99 34 32 25 4a 38
       3.5912162e-05 1.13629675e-07 2.8614974e-07 4.8195194e-05
0001e0 e4 b7 30 38 d8 5d aa 33 61 c9 51 37 21 8a 15 38
       4.213293e-05 7.933312e-08 1.2504258e-05 3.565301e-05
0001f0 fe dc 3b 38 d6 de 6b 35 f8 9f 91 33 d1 6f 14 38
       4.479009e-05 8.786859e-07 6.781187e-08 3.5390087e-05

exp_avg f4 [2]
000000 22 ca dd 3b 23 ca dd bb
       0.006768481 -0.0067684813

exp_avg_sq f4 [2]
000000 f9 de 48 39 f9 de 48 39
       0.0001915655 0.0001915655

exp_avg f4 [1, 64]
000000 95 9f b3 bb a4 57 55 3c bb 9d 65 3c 67 b0 19 3c
       -0.00548167 0.013021383 0.014014657 0.0093804365
000010 1b 52 15 bb 74 e6 28 3c bd b8 9d 3b 56 b8 85 3b
       -0.0022784534 0.010308851 0.0048132823 0.0040808124
000020 18 7e 14 39 55 7b b0 bb 21 80 68 3b 65 6b 57 3c
       0.00014161353 -0.005385796 0.0035476761 0.013148163
000030 44 8f 09 3c a7 c8 36 3c cb 2d 95 b3 55 fc 29 3a
       0.008395974 0.011156238 -6.946683e-08 0.0006484439
000040 d5 19 0f 3c 88 6c 1c bb 4a 65 96 3b 53 7e 7a 3a
       0.008734186 -0.00238684 0.0045897113 0.0009555567
000050 46 46 94 3c ee c5 1d 3b 2b 92 c4 3b 95 c8 3a 3b
       0.018099915 0.0024074274 0.00599887 0.0028500904
000060 23 22 4e b9 d5 39 7c 3c f5 7b bd 3a 80 96 08 3a
       -0.00019658408 0.015394648 0.0014456498 0.00052104145
000070 85 47 00 3c 8d c5 9a 3c 14 f8 96 3b f1 24 6a 3c
       0.007829552 0.018893028 0.00460721 0.014291034
000080 c0 56 d9 39 9f 2d d0 3b 5f df 7b ba b9 52 fa 3b
       0.000414541 0.0063530947 -0.0009608175 0.007639256
000090 de c0 81 3b e0 18 21 3b 11 16 3a 3c cd a1 8a 3c
       0.003959759 0.0024581477 0.0113578 0.016922856
0000a0 d1 5b 87 3c f0 ff a0 bb 6e af 1a 3b 14 20 1d ba
       0.016523274 -0.0049133226 0.00236031 -0.0005993855
0000b0 c5 84 72 ba 50 ec 7a 3c c4 31 94 3c c2 ef 8a 3c
       -0.00092513516 0.01531513 0.018090136 0.016960029
0000c0 c9 b7 3a 3a 6d 28 68 3c 66 ec d5 b5 33 66 dd bb
       0.0007122723 0.0141697945 -1.5938538e-06 -0.006756568
0000d0 61 fd a8 ba a1 39 6e 3a ac c5 67 3a 8d 3e 78 b9
       -0.0012892896 0.0009087567 0.0008841406 -0.00023674425
0000e0 a7 3f 37 bb f5 45 d1 39 fc bd c5 bb d8 7f 89 3b
       -0.0027961524 0.00039915708 -0.006034611 0.0041961484
0000f0 f5 10 7e bb b5 ab 6c 39 c1 1e 64 3b 73 dc 71 bb
       -0.0038767431 0.0002257068 0.003480837 -0.003690508

exp_avg_sq f4 [1, 64]
000000 1b 32 e5 3a a3 e0 02 3b bc db 05 3b e2 00 bf 3a
       0.0017486246 0.001997032 0.0020425161 0.0014572407
000010 3d 77 c1 3a 10 3f f0 3a 3a aa d4 3a 34 3e 94 36
       0.0014760267 0.0018329341 0.0016225048 4.417985e-06
000020 d5 8a 24 36 10 40 fd 3a ae 24 a7 37 b3 f6 b8 3a
       2.4518715e-06 0.001932146 1.9925032e-05 0.0014111608
000030 7f 5c 0e 3b 9e 81 c9 3a 01 d9 31 35 1c 11 dd 36
       0.0021722612 0.0015373712 6.625342e-07 6.588305e-06
000040 97 72 13 38 1f b8 ca 3a 7a 91 c1 3a ba fc f1 3a
       3.515425e-05 0.0015466249 0.0014768087 0.0018462159
000050 8a fe 28 3b fe 0e 12 3b 87 fa c8 3a bc 58 ab 35
       0.0025786483 0.0022286768 0.0015333452 1.2766318e-06
000060 b8 34 29 38 7d 90 d6 3a b0 dc 94 36 99 ff d8 36
       4.0341838e-05 0.0016369965 4.436435e-06 6.467057e-06
000070 c3 d5 e5 3a 40 d4 fb 3a bd 02 c1 3a 76 32 13 3b
       0.001753502 0.0019213036 0.0014725548 0.0022460497
000080 d8 7e d7 3a 69 51 7c 37 0f 19 f9 3a 39 2c b3 3a
       0.0016441001 1.5039325e-05 0.001900466 0.0013669796
000090 d1 cc 37 37 0a 05 3e 37 02 4f bc 3a 99 f1 1b 3b
       1.09553375e-05 1.1326056e-05 0.0014366808 0.0023795126
0000a0 2f 39 15 3b 9d 21 dd 3a 05 92 11 3b 77 7a 0e 3b
       0.002276968 0.001687098 0.0022212279 0.0021740475
0000b0 c5 15 98 3a f7 8c 0a 3b 17 d1 de 3a bf 75 13 3b
       0.0011603168 0.002114115 0.001699957 0.0022500602
0000c0 cb 0f d1 3a 4b 68 0d 3b fa 49 c6 36 bf 62 f3 3a
       0.0015950141 0.0021577056 5.909472e-06 0.0018568857
0000d0 93 8f e9 3a 72 8c 14 36 ca 09 8d 37 bc 43 0e 3b
       0.0017819278 2.2135468e-06 1.6813068e-05 0.0021707853
0000e0 20 1d 06 3b b0 76 c3 37 bf ca 00 3a da b0 e0 3a
       0.0020464137 2.330108e-05 0.0004913024 0.001714255
0000f0 02 91 01 3b 9f 00 78 37 2a 57 eb 35 3c 1d d8 3a
       0.001977027 1.47820965e-05 1.7534232e-06 0.0016488205
