savedModels/ppo_cartpole_204800.pth (torch, 13659 bytes, 15 tensors)

shared_fc.0.weight f4 [64, 4]
-0.023156077 0.46761146 0.015287226 -0.4283232 -0.045442235 -0.1646996 -0.8079409 -0.2717915
0.027753485 -0.3565603 -0.5350471 -0.5045859 -0.02568367 -0.109017 -0.5789079 -0.22181113
0.11885813 0.055179715 -0.85255873 -0.25369796 -0.077736706 0.0045606205 -0.54674286 -0.028217943
-0.10310798 0.25814247 0.59465533 0.3804764 -0.22921482 -0.15623651 -0.25972396 -0.11126194
0.35284328 0.04305298 0.022929404 -0.01485762 0.20093618 0.060181353 -0.05194912 -0.3271558
0.47821593 -0.17543338 -0.16481905 -0.23514183 0.025769968 -0.21970996 -0.037525766 0.22301297
0.023993097 0.06377715 0.34897387 0.34251115 -0.0659539 0.01140607 0.08767099 0.10224351
-0.23242368 -0.10266171 -0.20847781 -0.023520578 0.22937419 0.14614971 0.16844383 0.12831599
0.0076256064 -0.35422865 -0.41980582 -0.078428365 0.20044956 0.19822942 0.058657326 0.3182966
0.030374086 -0.064406246 -0.48079905 -0.29735503 -0.18874015 0.32363096 0.17771003 0.07278899
0.017491044 -0.14758503 0.34365642 0.45036992 -0.16899532 0.22292438 0.07575405 -0.23931916
0.019048076 0.099824496 0.35366675 0.5310295 0.2616499 0.013354129 -0.0628297 -0.046819147
0.27764967 0.13439527 -0.13347936 0.19596326 0.07620247 -0.38378397 -0.14128211 0.10359354
0.08124751 0.14351523 0.31956723 0.14623092 0.29822963 0.107683465 0.2869436 0.08490227
-0.035032358 0.1737665 0.44585398 0.27390358 -0.022467276 -0.2912383 0.6038304 0.44706514
0.16794081 -0.006375486 0.5933435 0.25055864 0.08273559 -0.16210134 0.30673265 0.19028427
0.0758649 0.019372419 -0.56281745 -0.29883614 -0.099133864 -0.3131431 -0.19360043 -0.30957827
0.29657182 -0.13116616 -0.51725286 -0.14286081 -0.108608946 0.17295824 0.5332166 0.29817238
-0.41070998 -0.15261301 -0.007577235 -0.0904691 0.044696543 0.27980095 0.21361297 0.24261817
0.0055327523 -0.07636187 0.33806872 0.1574625 -0.18830203 0.1160056 0.19855595 0.47324395
-0.13285163 0.008752144 0.52885497 0.20463431 -0.13015361 0.6217303 -0.029831562 -0.40363705
-0.22380845 0.27145296 -0.33891535 -0.2155719 0.14533721 0.005898539 -0.20281327 -0.23567243
0.32051143 -0.1663547 -0.06644238 0.3526994 0.24395503 -0.47525623 0.37536424 0.3771862
0.009184594 -0.06947696 0.8410431 0.29961997 0.13017672 -0.4291068 0.26852873 0.22563939
0.20587441 -0.07802952 -0.080750234 -0.098845504 -0.046226464 -0.21310134 -0.5438204 -0.39998087
-0.21344444 -0.09745339 0.2318939 0.07466484 0.08966678 0.35358858 -0.14875874 -0.7389157
0.22266197 0.078389056 0.40507373 0.36496642 0.22541176 0.09065436 0.28498197 0.041553866
0.03609811 -0.034005478 -0.5807669 -0.1702848 -0.0072248536 0.069692306 -0.33482876 -0.58897054
0.20729686 0.023136316 -0.24059749 -0.22963892 -0.31800035 -0.053909257 -0.06673348 0.20588624
0.11710436 0.22548826 -0.37730917 -0.25765115 -0.30438232 0.35137448 -0.15712295 -0.44729394
0.006964608 0.21977209 -0.15140592 -0.20148593 0.460279 0.08847407 0.42258337 0.03954752
0.06191152 -0.10302487 -0.735342 -0.065122195 0.08423475 0.15624471 -0.2877485 -0.27217883
00000000: d0b1 bdbc c56a ef3e 4677 7a3c 2e4d dbbe
00000010: a321 3abd 03a7 28be 37d5 4ebf 4128 8bbe
00000020: 475b e33c 128f b6be d9f8 08bf 8b2c 01bf
00000030: 8f66 d2bc 4e44 dfbd 4f33 14bf 7522 63be
00000040: e46b f33d 2004 623d 4a41 5abf b3e4 81be
00000050: 6c34 9fbd 4271 953b 57f7 0bbf 5129 e7bc
00000060: 472a d3bd 402b 843e 553b 183f cdcd c23e
00000070: 4ab7 6abe 77fc 1fbe 8afa 84be 4ddd e3bd
00000080: e0a7 b43e 5258 303d 72d6 bb3c 606d 73bc
00000090: 37c2 4d3e b980 763d 9ac8 54bd f780 a7be
000000a0: b8d8 f43e cfa4 33be 53c6 28be 05c9 70be
000000b0: 8a1b d33c a6fb 60be 9eb4 19bd 835d 643e
000000c0: 2c8d c43c 989d 823d b4ac b23e 9f5d af3e
000000d0: d712 87bd 86e0 3a3c d98c b33d 0c65 d13d
000000e0: 7900 6ebe 4d40 d2bd 357b 55be 3aae c0bc
000000f0: 11e1 6a3e 45a8 153e 8a7c 2c3e 4465 033e
00000100: 39e0 f93b 755d b5be caf0 d6be 0d9f a0bd
00000110: a642 4d3e a7fc 4a3e aa42 703d c6f7 a23e
00000120: 13d3 f83c 6ce7 83bd 4b2b f6be eb3e 98be
00000130: 1945 41be f5b2 a53e 9ef9 353e 6512 953d
00000140: 6149 8f3c 8820 17be bcf3 af3e e396 e63e
00000150: 1c0d 2dbe 4a46 643e f024 9b3d 1510 75be
00000160: b60a 9c3c c970 cc3d cf13 b53e 8df1 073f
00000170: faf6 853e 47cb 5a3c dcac 80bd 6fc5 3fbd
00000180: 1928 8e3e ea9e 093e d0ae 08be 98aa 483e
00000190: 0a10 9c3d 557f c4be 42ac 10be da28 d43d
000001a0: 1865 a63d a8f5 123e 519e a33e 8fbd 153e
000001b0: 8eb1 983e 2689 dc3d 46ea 923e 3ee1 ad3d
000001c0: 177e 0fbd d8ef 313e f946 e43e 173d 8c3e
000001d0: 4b0d b8bc 301d 95be a194 1a3f b9e5 e43e
000001e0: adf8 2b3e 74e9 d0bb 5ce5 173f 3949 803e
000001f0: 4771 a93d e5fd 25be 100c 9d3e e1d9 423e
00000200: 0f5f 9b3d e8b2 9e3c ce14 10bf 0d01 99be
00000210: b206 cbbd 4b54 a0be 313f 46be 0b81 9ebe
00000220: 43d8 973e 6c50 06be af6a 04bf 1b4a 12be
00000230: 5e6e debd f71b 313e e280 083f 0daa 983e
00000240: 9448 d2be 9646 1cbe 744a f8bb dd47 b9bd
00000250: b913 373d 1242 8f3e 5cbd 5a3e e670 783e
00000260: 174c b53b 9d63 9cbd 5817 ad3e d93d 213e
00000270: 3fd2 40be 5894 ed3d 4052 4b3e 084d f23e
00000280: 420a 08be 2765 0f3c 0a63 073f a88b 513e
00000290: fd46 05be b829 1f3f 5261 f4bc 84a9 cebe
000002a0: 0b2e 65be e2fb 8a3e 5086 adbe e1be 5cbe
000002b0: 47d3 143e 8848 c13b 48ae 4fbe 1d54 71be
000002c0: 131a a43e e358 2abe f112 88bd 0495 b43e
000002d0: 59cf 793e c954 f3be be2f c03e 8d1e c13e
000002e0: fb7a 163c f049 8ebd 9a4e 573f ca67 993e
000002f0: 0c4d 053e e3b3 dbbe 997c 893e 030e 673e
00000300: bed0 523e f1cd 9fbd 6160 a5bd 836f cabd
00000310: f657 3dbd 3d37 5abe d037 0bbf 4bca ccbe
00000320: 2e91 5abe a595 c7bd 9875 6d3e e1e9 983d
00000330: 37a3 b73d 9009 b53e 3654 18be 9429 3dbf
00000340: 8001 643e 718a a03d d365 cf3e e1dc ba3e
00000350: 57d2 663e fea8 b93d 28e9 913e 6334 2a3d
00000360: 9ddb 133d 5449 0bbd 24ad 14bf 235f 2ebe
00000370: 77be ecbb d7ba 8e3d ad6e abbe c6c6 16bf
00000380: a145 543e 5f88 bd3c 305f 76be 7726 6bbe
00000390: f1d0 a2be f4cf 5cbd 90ab 88bd d8d3 523e
000003a0: 69d4 ef3d 65e6 663e ab2e c1be daea 83be
000003b0: 00d8 9bbe 5be7 b33e d7e4 20be b603 e5be
000003c0: 5e37 e43b ef0b 613e 270a 1bbe 5452 4ebe
000003d0: b0a9 eb3e e531 b53d d95c d83e 95fc 213d
000003e0: ef96 7d3d b4fe d2bd 603f 3cbf c95e 85bd
000003f0: 4583 ac3d 9dfe 1f3e c553 93be 065b 8bbe

shared_fc.0.bias f4 [64]
0.75512654 0.83319783 0.82076764 0.77198803 0.77927345 0.7723125 0.7720513 -0.26880512
-0.22496572 0.8674982 -0.14406967 0.76310086 0.82353616 0.78356475 -0.2551045 -0.19310315
0.12099407 0.8006041 0.7615247 0.81659806 0.8862814 0.8661538 0.76802117 -0.15230127
-0.21861403 0.7862012 -0.030778386 -0.19868244 0.7533914 0.80460364 0.7709264 0.8623785
0.7859854 -0.15675177 0.82992846 0.75242895 -0.31107002 -0.056566857 0.7737413 0.89181685
0.88541 0.7111897 0.8748585 0.8507077 0.78225297 0.7866504 0.7459438 0.8381463
0.7955706 0.8418834 -0.22538766 0.744539 0.8607002 -0.17359413 0.46911845 0.82422405
0.8658024 -0.27630633 0.21369945 0.80357844 0.8103843 -0.18519469 0.6123761 0.8171078
00000000: f94f 413f 744c 553f d41d 523f 02a1 453f
00000010: 777e 473f 46b6 453f 27a5 453f d3a0 89be
00000020: 6a5d 66be 5d14 5e3f 0087 13be 945a 433f
00000030: 44d3 523f b397 483f 0f9d 82be d5bc 45be
00000040: bdcb f73d 64f4 4c3f 48f3 423f 920c 513f
00000050: 56e3 623f 41bc 5d3f 099d 443f ddf4 1bbe
00000060: 5bdc 5fbe 7b44 493f f422 fcbc 6973 4bbe
00000070: 42de 403f 81fa 4d3f 6f5b 453f d6c4 5c3f
00000080: 5736 493f 8983 20be 3176 543f 2f9f 403f
00000090: 9244 9fbe a6b2 67bd e913 463f 1c4e 643f
000000a0: 3baa 623f 8710 363f baf6 5f3f fbc7 593f
000000b0: bb41 483f ec61 493f 2cf6 3e3f c290 563f
000000c0: 84aa 4b3f ac85 573f 06cc 66be 1c9a 3e3f
000000d0: d956 5c3f a9c2 31be 4b30 f03e 5900 533f
000000e0: 3aa5 5d3f 0678 8dbe 07d4 5a3e 51b7 4d3f
000000f0: 5875 4f3f ada3 3dbe aec4 1c3f fa2d 513f

actor_head.weight f4 [2, 64]
0.004253772 0.2421112 0.23932889 0.24751006 0.16687085 0.110452816 -0.2821399 0.11937162
-5.352431e-07 0.033787698 0.107394025 -0.029717844 -0.19003697 -0.051312607 0.032895025 -0.10175729
0.095958374 -0.11696244 0.17798954 -0.107457876 -0.12963535 0.0028622325 -0.20462821 0.058773417
-0.08101998 0.04791787 -0.17311236 -0.08178469 -0.28506368 -0.109667696 -0.22149006 -0.08862649
0.1505405 0.17102505 0.1491348 -0.27006757 0.055596035 -0.15162727 -0.13478617 -0.14248455
-0.1466459 0.007263164 0.07704707 0.091711976 -0.1403054 -0.061234877 -0.18126291 -0.04449235
0.0676252 0.2419137 -0.054314848 0.08041963 -0.20853278 -0.048239447 0.17507176 0.1131561
0.074532874 -0.0294306 0.038210936 0.07786098 0.025839573 -0.08045605 0.3251268 0.045480862
0.00013881504 -0.25255844 -0.25038844 -0.25058627 -0.1915826 -0.1063811 0.29164577 -0.115983136
-0.01584389 -0.0626763 -0.064952604 0.01884797 0.20072223 0.078001894 -0.049285494 0.08801156
-0.15692064 0.115075395 -0.18994972 0.10104729 0.10316325 -0.022004677 0.21617892 -0.07882878
0.06018791 -0.058234584 0.1921635 0.08752327 0.25043157 0.11860037 0.23971556 0.11284028
-0.15729053 -0.16576587 -0.13282819 0.2818438 -0.04241964 0.13777393 0.12372056 0.13085593
0.1334425 0.004305952 -0.07397974 -0.10114365 0.10869418 0.08459928 0.16686936 0.044351716
-0.045555927 -0.24435759 0.054974213 -0.057661396 0.2226633 0.050365295 -0.18264298 -0.12264073
-0.07442807 0.029035818 -0.035658404 -0.0708093 -0.014539854 0.08209048 -0.31458184 -0.07953775
00000000: 3a63 8b3b 00ec 773e a212 753e 4773 7d3e
00000010: 31e0 2a3e 1635 e23d a474 90be 1c79 f43d
00000020: a0ad 0fb5 f864 0a3d 66f1 db3d d672 f3bc
00000030: 0d99 42be 2b2d 52bd efbc 063d 2066 d0bd
00000040: d385 c43d 018a efbd e442 363e e012 dcbd
00000050: 21bf 04be 4b94 3b3b 0f8a 51be 65bc 703d
00000060: ceed a5bd 8745 443d 5e44 31be bb7e a7bd
00000070: def3 91be 7599 e0bd 4ace 62be ce81 b5bd
00000080: 4a27 1a3e 3121 2f3e cbb6 183e 4c46 8abe
00000090: abb8 633d 2e44 1bbe 6305 0abe 78e7 11be
000000a0: 582a 16be d6ff ed3b dbca 9d3d 7dd3 bb3d
000000b0: 38ac 0fbe 6cd1 7abd fc9c 39be 9c3d 36bd
000000c0: 157f 8a3d 3ab8 773e 3f79 5ebd 0cb3 a43d
000000d0: 9e89 55be ba96 45bd 0346 333e 63be e73d
000000e0: b1a4 983d 7118 f1bc 1283 1c3d 9475 9f3d
000000f0: 83ad d33c 24c6 a4bd 0577 a63e 244a 3a3d
00000100: e18e 1139 574f 81be ea32 80be d84c 80be
00000110: 3b2e 44be 56de d9bd 9852 953e 9188 edbd
00000120: 0ccb 81bc 6f5c 80bd df05 85bd 0f67 9a3c
00000130: 218a 4d3e 75bf 9f3d 96df 49bd 683f b43d
00000140: ceaf 20be a6ac eb3d 2e82 42be e2f1 ce3d
00000150: 4147 d33d 2743 b4bc 025e 5d3e fc70 a1bd
00000160: 9987 763d 6387 6ebd 82c6 443e 663f b33d
00000170: 9138 803e c0e4 f23d ff77 753e ce18 e73d
00000180: c510 21be 87be 29be 1d04 08be d54d 903e
00000190: 37c0 2dbd 9c14 0d3e 3461 fd3d 19ff 053e
000001a0: 27a5 083e f218 8d3b b182 97bd 6724 cfbd
000001b0: 0e9b de3d 6342 ad3d cddf 2a3e 25aa 353d
000001c0: da98 3abd e038 7abe a42c 613d 5b2e 6cbd
000001d0: d901 643e d74b 4e3d c306 3bbe 102b fbbd
000001e0: be6d 98bd 86dc ed3c 8c0e 12bd 7704 91bd
000001f0: 9138 6ebc 0e1f a83d df10 a1be b0e4 a2bd

actor_head.bias f4 [2]
-0.03157228 0.03157228
00000000: ef51 01bd ef51 013d

critic_head.weight f4 [1, 64]
0.65668887 0.7493594 0.71898156 0.9145251 0.833224 0.7047241 0.8721007 -0.5375127
-0.4712143 0.6242153 -0.2696496 0.9326122 0.8144875 0.901421 -0.6784632 -0.3626345
0.045712586 0.46198678 0.90945417 0.8228318 0.7044208 0.7656823 0.95085853 -0.35994104
-0.32882386 0.80241233 -0.12576011 -0.34298354 0.79619765 0.6931407 0.90948176 0.7967673
0.82494736 -0.2964576 0.748244 0.9813807 -0.3709502 -0.07410651 0.95925486 0.6969219
0.7458428 0.717497 0.7481607 0.7672206 1.0017751 0.7565332 0.6139691 0.7314381
0.8556324 0.71316856 -0.45630375 0.60118073 0.7223209 -0.47384992 0.50065684 0.7129469
0.7100636 -0.44787464 0.03750049 0.7296199 0.6557755 -0.19412318 0.74839354 0.7308854
00000000: c31c 283f 05d6 3f3f 2d0f 383f 511e 6a3f
00000010: 2b4e 553f cc68 343f fe41 5f3f 6f9a 09bf
00000020: 0043 f1be 93cc 1f3f 830f 8abe acbf 6e3f
00000030: 4182 503f 87c3 663f c4af 2dbf 3bab b9be
00000040: 1f3d 3b3d 8889 ec3e fdd1 683f 1ba5 523f
00000050: ec54 343f c103 443f 776b 733f 314a b8be
00000060: 9a5b a8be e56a 4d3f 42c7 00be 8a9b afbe
00000070: 9cd3 4b3f ab71 313f ccd3 683f f1f8 4b3f
00000080: c02f 533f 4ac9 97be eb8c 3f3f c43b 7b3f
00000090: 2fed bdbe 27c5 97bd ba91 753f 7969 323f
000000a0: 8eef 3e3f e2ad 373f 7687 3f3f 9268 443f
000000b0: 2b3a 803f 29ac 413f 142d 1d3f 873f 3b3f
000000c0: ba0a 5b3f 3792 363f a5a0 e9be fbe6 193f
000000d0: 06ea 383f 759c f2be 0c2b 003f b083 363f
000000e0: bac6 353f d34f e5be 1d9a 193d 5fc8 3a3f
000000f0: e7e0 273f 3ac8 46be b896 3f3f 4e1b 3b3f

exp_avg f4 [64, 4]
0.013576956 0.005490112 -0.00023467254 0.0025780469 0.0028101983 0.0021033324 0.00058617094 0.0020424253
0.0026392152 0.0020391345 0.00056842656 0.0019555704 0.003833665 0.0024156494 0.000672792 0.0025211766
0.003859124 0.002064216 0.00057434797 0.0023226247 0.0035914418 0.0016215801 0.0004510617 0.0019878873
0.007662822 0.00079786585 0.00021846629 0.0026877513 0.0014735034 -0.0017394219 -0.0011521396 -0.0034004545
-0.004778846 0.00090394524 0.00082003407 0.0015076367 0.004000784 0.0019622557 0.00037203834 0.0015162835
-0.002921139 0.0005781356 0.0005033908 0.0008985366 0.0060373424 0.0016630475 0.00046145523 0.00272184
0.006603459 0.0009526734 0.00026245593 0.0024711064 0.0061488277 0.0014901215 0.0004128799 0.0026527992
0.0023813208 -0.0024450254 -0.0015035616 -0.0041781687 -6.845916e-05 -6.1271453e-06 8.73678e-06 4.046245e-07
-0.00047959163 0.0005338583 8.898193e-05 -1.96828e-05 0.0040723695 0.0008488543 0.00013723363 0.0013163052
0.004299896 0.002219332 0.0006175959 0.0025415372 0.005956708 0.0012315449 0.00034051112 0.0024456787
0.0053091086 0.0009741486 0.00026939597 0.002108939 0.0047064014 0.0014603112 0.0004051678 0.0022165454
0.0075741503 0.0011632033 0.00032072075 0.002875395 -0.0037888095 0.0007413874 0.00065111683 0.0011761354
-0.00097319396 0.00022499663 0.00014615098 4.2742495e-06 0.0046295268 0.0016426445 0.0004566547 0.0023019356
-6.1394065e-05 1.7986644e-05 1.7924469e-05 -4.496693e-06 -0.0010996477 0.00019067827 0.00016305782 6.8805915e-05
0.0070409626 0.0007113177 0.0001946731 0.002456966 0.0052206772 0.000959253 0.000265432 0.002075124
0.007470678 0.0010278362 0.0002829325 0.00276609 0.00576952 0.0011909107 0.00032963292 0.0023685659
0.0039998675 0.0019760553 0.00054969743 0.0023122767 -0.0017621022 -0.00083202537 -0.00037071068 -0.0013597583
0.003621452 0.0017954352 0.0004994012 0.002096439 0.008265108 0.0010322804 0.00028366328 0.0029992342
0.0011402452 -0.0012844153 -0.000808312 -0.0023138472 1.025789e-05 2.4445271e-05 3.576708e-06 -1.4876202e-05
0.007006368 0.0014116077 0.00039052434 0.00285581 0.00541506 0.0009030255 0.00024931575 0.0020979075
0.0057481616 0.0009841473 0.00027180294 0.0022417603 0.0107332915 0.00042834505 -0.00034127594 0.0029615874
0.004113966 0.0016091107 0.00044706266 0.0021315366 0.0040776343 0.0017033691 0.00047348786 0.0021757863
0.005987456 0.0045876354 0.0004227667 -0.0006489781 -0.0011336405 0.0032739488 0.000338706 -0.0003190862
0.0051817666 0.000640554 0.00017622627 0.001877338 0.0031021647 0.0021903832 0.00030299957 0.0011419232
0.004938003 0.0017528284 0.00048689058 0.002454267 0.0026150383 0.0020239393 0.0005641177 0.0019395625
0.0030351 -0.0024062428 -0.0010273979 -0.0021360335 0.0133026615 0.005642763 -8.638355e-05 0.0029670426
0.0061819246 0.000723035 0.00019844751 0.0022143943 -0.00019644442 -4.484458e-05 2.6134689e-05 8.017287e-05
0.0017741056 0.0014439808 0.0004024415 0.0013570162 0.0035710083 0.0016647895 0.00046292171 0.0020062623
0.0038874673 0.0015339956 0.0004262362 0.0020216524 0.0018378235 -0.0017556837 -0.0010186009 -0.002695483
0.0010255019 -0.00011267521 -5.0652245e-05 0.00011035698 0.0044574984 0.0022803622 0.00044849512 0.0018016775
0.0043712915 0.0019233605 0.00036536786 0.0016415365 -0.0017787119 0.00030182925 0.00030349565 0.00058487005
0.002251291 0.0023096085 0.00064410665 0.0020005223 0.0046252217 0.0023239425 0.00043813564 0.0017884371
00000000: e171 5e3c 66e6 b33b 6e12 76b9 73f4 283b
00000010: 4e2b 383b 10d8 093b 44a9 193a 36da 053b
00000020: aff6 2c3b 00a3 053b 7602 153a 0729 003b
00000030: 3a3e 7b3b df4f 1e3b 4f5e 303a 533a 253b
00000040: 5be9 7c3b cc47 073b d78f 163a 2d37 183b
00000050: 655e 6b3b 338b d43a 7a7c ec39 3747 023b
00000060: 6918 fb3b df27 513a 1914 6539 fc24 303b
00000070: 9222 c13a 50fd e3ba 6403 97ba 29da 5ebb
00000080: de97 9cbb bdf6 6c3a 8ef7 563a e59b c53a
00000090: 0219 833b 3099 003b 240e c339 08be c63a
000000a0: 9470 3fbb 068e 173a fcf5 033a c58b 6b3a
000000b0: e6d4 c53b 9dfa d93a 79ef f139 e660 323b
000000c0: d461 d83b d4bc 793a 3d9a 8939 49f2 213b
000000d0: 1b7c c93b 2e50 c33a cd77 d839 96da 2d3b
000000e0: ef0f 1c3b b83c 20bb 2813 c5ba 05e9 88bb
000000f0: bb91 8fb8 c797 cdb6 2f94 1237 2b3b d934
00000100: b371 fbb9 a0f2 0b3a cf9b ba38 7e1c a5b7
00000110: 8371 853b a685 5e3a 5fe6 0f39 e087 ac3a
00000120: 24e6 8c3b 3672 113b 29e6 213a eb8f 263b
00000130: 7d30 c33b ca6b a13a a186 b239 ae47 203b
00000140: 08f8 ad3b 025e 7f3a b73d 8d39 2036 0a3b
00000150: 2838 9a3b ea67 bf3a b46c d439 7643 113b
00000160: 9430 f83b a076 983a 6926 a839 1f71 3c3b
00000170: ad4d 78bb ab59 423a b6af 2a3a 8e28 9a3a
00000180: f11d 7fba 13ed 6b39 1b40 1939 866b 8f36
00000190: 49b3 973b 014e d73a 286b ef39 12dc 163b
000001a0: b0c0 80b8 06e2 9637 815c 9637 4ce2 96b6
000001b0: 0e22 90ba cff0 4739 80fa 2a39 e54b 9038
000001c0: e0b7 e63b b977 3a3a 2a21 4c39 0d05 213b
000001d0: 3712 ab3b 6176 7b3a ae29 8b39 cefe 073b
000001e0: 97cc f43b 76b8 863a 8f56 9439 4a47 353b
000001f0: 3e0e bd3b 5518 9c3a 95d2 ac39 f139 1b3b
00000200: 5211 833b b580 013b 9219 103a 9189 173b
00000210: 57f6 e6ba 471c 5aba f25b c2b9 eb39 b2ba
00000220: e255 6d3b cf54 eb3a 3fea 023a 6964 093b
00000230: 606a 073c 954d 873a a4b8 9439 cd8e 443b
00000240: 4874 953a d359 a8ba e6e4 53ba eaa3 17bb
00000250: 4d19 2c37 d20f cd37 6007 7036 cd94 79b7
00000260: ad95 e53b b205 b93a 4abf cc39 8b28 3b3b
00000270: d170 b13b 04b9 6c3a 98b6 8239 0c7d 093b
00000280: 135b bc3b 81fe 803a c680 8e39 7fea 123b
00000290: b0da 2f3c 8093 e039 48ed b2b9 3117 423b
000002a0: 73ce 863b cce8 d23a bc63 ea39 40b1 0b3b
000002b0: ad9d 853b 9543 df3a 773e f839 a397 0e3b
000002c0: 6c32 c43b e053 963b c9a6 dd39 2f20 2aba
000002d0: aa96 94ba bf8f 563b 5a94 b139 064b a7b9
000002e0: cfcb a93b daea 273a 61c9 3839 0311 f63a
000002f0: b04d 4b3b 888c 0f3b eadb 9e39 96ac 953a
00000300: f9ce a13b 29bf e53a 5945 ff39 c5d7 203b
00000310: 1061 2b3b 11a4 043b 4ce1 133a eb38 fe3a
00000320: 87e8 463b 0eb2 1dbb c1a9 86ba b2fc 0bbb
00000330: 68f3 593c ede6 b83b d128 b5b8 b772 423b
00000340: be91 ca3b 0f8a 3d3a 5916 5039 5f1f 113b
00000350: a6fc 4db9 8017 3cb8 d13b db37 7b22 a838
00000360: 1b89 e83a f543 bd3a c9fe d239 e8dd b13a
00000370: 9407 6a3b 1135 da3a 4db4 f239 7f7b 033b
00000380: e1c4 7e3b 5a10 c93a 7478 df39 b37d 043b
00000390: 20e3 f03a f81e e6ba 9382 85ba b3a6 30bb
000003a0: 226a 863a 0b4c ecb8 6f73 54b8 746f e738
000003b0: 3510 923b 2172 153b ff23 eb39 4426 ec3a
000003c0: 0d3d 8f3b 4519 fc3a d88e bf39 d328 d73a
000003d0: ab23 e9ba d63e 9e39 7f1e 9f39 f751 193a
000003e0: 658a 133b cd5c 173b 44d9 283a 321b 033b
000003f0: 2c8f 973b 494d 183b 92b5 e539 fe69 ea3a

exp_avg_sq f4 [64, 4]
0.0014454724 0.00027217952 4.5434667e-06 6.789971e-05 0.0020678965 0.0005364102 6.87368e-06 0.00013552055
0.0019107307 0.00049477775 6.3303482e-06 0.00012463708 0.0030524123 0.0007977586 1.0205467e-05 0.00020269486
0.002426153 0.0006384048 8.135359e-06 0.00016234994 0.0017088834 0.00045237693 5.7546413e-06 0.00011539054
0.0027288513 0.0007329922 8.988212e-06 0.00018319691 0.00061265443 0.00016906367 1.616018e-06 3.648763e-05
0.00021484644 3.1672753e-05 5.1627495e-07 1.000471e-05 0.0012729372 0.0003377799 4.266978e-06 8.5277534e-05
7.203728e-05 1.1379281e-05 2.1322855e-07 3.830641e-06 0.0030053828 0.00080426346 1.0148808e-05 0.00020595067
0.0022943951 0.0006177688 7.629572e-06 0.00015567591 0.0027972101 0.00075146934 9.43025e-06 0.00019192931
0.0009980556 0.00027595184 2.6769087e-06 6.150218e-05 0.00012010834 1.7698247e-05 1.9207887e-07 5.0502595e-06
2.8378541e-05 6.085316e-06 7.970396e-08 1.1281603e-06 0.0006709245 0.0001793553 2.2066279e-06 4.485437e-05
0.0029326347 0.0007725626 9.852898e-06 0.0001969916 0.0023247127 0.00062556035 7.814088e-06 0.00015924452
0.0016846309 0.00045321838 5.6396734e-06 0.00011490447 0.0020000597 0.0005352214 6.756389e-06 0.00013653199
0.0031597014 0.00085070374 1.0534378e-05 0.00021501 0.00012402251 1.8512157e-05 3.1970703e-07 5.732449e-06
9.777737e-05 1.3609239e-05 1.6642439e-07 4.1231233e-06 0.0022194125 0.0005870856 7.4936906e-06 0.00015052376
3.0391711e-05 4.810431e-06 5.6490148e-08 1.2610321e-06 0.000110216904 1.5901329e-05 1.9244878e-07 4.770512e-06
0.0022512255 0.00060465076 7.4002937e-06 0.00015076892 0.001655779 0.0004351373 5.468206e-06 0.00010931239
0.0028816324 0.0007756634 9.564823e-06 0.00019525673 0.00215716 0.00058056216 7.2427833e-06 0.0001476305
0.0023666485 0.0006245633 7.952618e-06 0.00015912401 0.0002096613 6.0977763e-05 5.611006e-07 1.214983e-05
0.0019119426 0.00050481904 6.4052597e-06 0.00012832099 0.0034507022 0.0009279886 1.1442651e-05 0.00023346182
0.0002879507 8.2046594e-05 7.937114e-07 1.8627929e-05 1.5021583e-05 2.561083e-06 2.1312195e-08 5.5762473e-07
0.0031920054 0.0008588593 1.0723392e-05 0.00021869036 0.0016710612 0.0004497155 5.5801156e-06 0.00011367263
0.0019201894 0.00051697885 6.4228184e-06 0.0001310012 0.001711956 0.0003046864 5.3106983e-06 7.931086e-05
0.0019265361 0.00051279896 6.5075046e-06 0.0001299149 0.001994683 0.000529567 6.715859e-06 0.00013505874
0.0031773779 0.0009239579 1.06632715e-05 0.00020120335 0.0019294856 0.00051222346 6.3806388e-06 0.0001225821
0.0012909381 0.000347333 4.265238e-06 8.6947584e-05 0.0018123363 0.00048432458 6.1055457e-06 0.00012347168
0.0024792259 0.0006614254 8.3612495e-06 0.00016900903 0.0018785094 0.0004868812 6.2333816e-06 0.00012263295
0.00042369013 0.00012030054 1.309481e-06 2.7356124e-05 0.0011944746 0.00018185341 3.2499117e-06 4.4469503e-05
0.0017915965 0.00048151554 5.898016e-06 0.000120209304 0.00020973284 3.127959e-05 3.619915e-07 9.133207e-06
0.0008715311 0.0002252205 2.877917e-06 5.6253153e-05 0.0017504886 0.0004620289 5.8903747e-06 0.000116353825
0.001680782 0.00044715297 5.658891e-06 0.00011394581 0.0004180363 0.000117891235 1.27679e-06 2.6963775e-05
2.8008894e-06 4.2285882e-07 7.0778565e-09 1.6005671e-07 0.0017911084 0.00048210984 6.106541e-06 0.000116400086
0.0014186105 0.0003758789 4.7714952e-06 9.5959214e-05 3.560683e-05 5.2019577e-06 7.5329154e-08 1.6268913e-06
0.002125242 0.0005442161 6.97583e-06 0.00013582893 0.0017910263 0.0004731721 6.0211587e-06 0.00012068947
00000000: 0176 bd3a 51b3 8e39 1574 9836 6165 8e38
00000010: 8c85 073b e19d 0c3a 76a4 e636 851a 0e39
00000020: 7c71 fa3a f9b3 013a 4769 d436 03b1 0239
00000030: fb0a 483b ac20 513a 2638 2b37 7d8a 5439
00000040: 1800 1f3b 9f5a 273a 1a7d 0837 7b3c 2a39
00000050: 9dfc df3a 012d ed39 fe17 c136 d3fd f138
00000060: 87d6 323b 4626 403a 14cc 1637 8c18 4039
00000070: 8b9a 203a af46 3139 f5e5 d835 4b0a 1938
00000080: 6748 6139 5cd8 0438 2596 0a35 e7d9 2737
00000090: afd8 a63a 0d18 b139 102d 8f36 07d7 b238
000000a0: b812 9738 a4e9 3e37 d1f3 6434 f588 8036
000000b0: f5f5 443b 35d5 523a cc44 2a37 76f4 5739
000000c0: 905d 163b c3f1 213a c300 0037 ef3c 2339
000000d0: 6651 373b 41fe 443a 9e36 1e37 a240 4939
000000e0: 30d1 823a a1ad 9039 f1a4 3336 bbfa 8038
000000f0: ade2 fb38 b276 9437 3d3e 4e34 6675 a936
00000100: 740e ee37 7730 cc36 b729 ab33 4b6b 9735
00000110: fbe0 2f3a 5211 3c39 9415 1436 0322 3c38
00000120: 7231 403b cc85 4a3a e04d 2537 888f 4e39
00000130: 355a 183b a5fc 233a 4119 0337 e0fa 2639
00000140: d5ce dc3a f19d ed39 6d3c bd36 def8 f038
00000150: 6f13 033b 1a4e 0c3a f1b4 e236 072a 0f39
00000160: fe12 4f3b c301 5f3a cfbc 3037 4f74 6139
00000170: 0a0c 0239 8e4a 9b37 33a4 ab34 5d59 c036
00000180: d30d cd38 3d53 6437 63b2 3234 5c59 8a36
00000190: 9073 113b a6e6 193a 5072 fb36 ead5 1d39
000001a0: b4f1 fe37 4a69 a136 939f 7233 bc40 a935
000001b0: 4024 e738 d863 8537 eba3 4e34 6312 a036
000001c0: 4c89 133b 6d81 1e3a 0a50 f836 b917 1e39
000001d0: b906 d93a 2423 e439 887b b736 a43e e538
000001e0: c5d9 3c3b e455 4b3a 9a78 2037 d4bd 4c39
000001f0: 245f 0d3b de30 183a 0907 f336 43cd 1a39
00000200: c619 1b3b bcb9 233a 3c6c 0537 87da 2639
00000210: 87d8 5b39 60c2 7f38 8a9e 1635 1fd7 4b37
00000220: 269a fa3a d555 043a c3ec d636 e78d 0639
00000230: 2d25 623b 4344 733a d0f9 3f37 6ecd 7439
00000240: 17f8 9639 6e10 ac38 6f0f 5535 2c43 9c37
00000250: 3505 7c37 12df 2b36 0312 b732 aeaf 1535
00000260: f730 513b 1225 613a 9ee8 3337 3f50 6539
00000270: 8207 db3a cbc7 eb39 d43c bb36 8763 ee38
00000280: ddae fb3a dd85 073a 9783 d736 5e5d 0939
00000290: b663 e03a 51be 9f39 8d32 b236 b253 a638
000002a0: d383 fc3a 5b6d 063a 0a5b da36 c439 0839
000002b0: 3ab9 023b a4d2 0a3a ca58 e136 8e9e 0d39
000002c0: 8e3b 503b c435 723a 67e6 3237 1dfa 5239
000002d0: cbe6 fc3a bc46 063a 4519 d636 6289 0039
000002e0: b234 a93a 3f1a b639 1e1e 8f36 a157 b638
000002f0: ea8b ed3a f2ec fd39 3dde cc36 2d78 0139
00000300: 827a 223b 8263 2d3a 4b47 0c37 0438 3139
00000310: 5138 f63a 1744 ff39 5728 d136 0897 0039
00000320: ba22 de39 dc49 fc38 6dc1 af35 d47a e537
00000330: eb8f 9c3a e7af 3e39 0f19 5a36 c484 3a38
00000340: 01d4 ea3a ec73 fc39 92e7 c536 e118 fc38
00000350: bbeb 5b39 3432 0338 bc57 c234 d33a 1937
00000360: 7677 643a 2b29 6c39 3d22 4136 5df1 6b38
00000370: a770 e53a 783c f239 efa5 c536 fc02 f438
00000380: af4d dc3a db6f ea39 81e1 bd36 31f6 ee38
00000390: e22b db39 603c f738 2c5e ab35 4430 e237
000003a0: eaf6 3b36 4605 e334 7c31 f331 0edc 2b34
000003b0: a0c3 ea3a b0c3 fc39 cae6 cc36 d21b f438
000003c0: abf0 b93a 9d11 c539 d51a a036 b63d c938
000003d0: 8b58 1538 7a8c ae36 a4c4 a133 8f5b da35
000003e0: a547 0b3b b9a9 0e3a ec11 ea36 4d6d 0e39
000003f0: dfc0 ea3a 1614 f839 5c09 ca36 aa1a fd38

exp_avg f4 [64]
-0.004470262 -0.005164324 -0.004961402 -0.00625727 -0.0056595746 -0.004748694 -0.005511453 0.00963316
-0.0051553003 -0.0044125896 -0.0031738773 -0.0061394055 -0.0052102613 -0.005898149 0.011940451 -7.6048236e-05
-0.00044060047 -0.0030783305 -0.0061672153 -0.005344502 -0.004551571 -0.005068195 -0.0060984604 -0.0040892037
-0.0010265805 -0.0053462614 1.2303002e-05 -0.0011632892 -0.005026476 -0.0044791154 -0.005807618 -0.0051753577
-0.0055827773 0.0057272124 -0.0050656763 -0.0062430003 0.006612653 3.5974957e-05 -0.006224233 -0.004484348
-0.004804634 -0.0012018962 -0.005007217 -0.0051515363 -0.0044905306 -0.0016032842 -0.0039037853 -0.0037690608
-0.0057012597 -0.0049215327 0.0072742887 -0.0038966779 -0.004584075 -0.00020773616 -0.0034612948 -0.0048113074
-0.0047549224 0.0077657164 -0.0001167251 -0.0051378002 -0.0045797876 -0.0019198827 -0.005221059 -0.005164902
00000000: 477b 92bb 7d39 a9bb 4293 a2bb c909 cdbb
00000010: f473 b9bb ef9a 9bbb 6b99 b4bb 67d4 1d3c
00000020: cbed a8bb 7c97 90bb d300 50bb 112d c9bb
00000030: d7ba aabb 4345 c1bb e2a1 433c 167c 9fb8
00000040: 6500 e7b9 d1bd 49bb 5a16 cabb ef20 afbb
00000050: 5825 95bb 1a13 a6bb 98d5 c7bb bafe 85bb
00000060: 538e 86ba b12f afbb fe68 4e37 8279 98ba
00000070: 23b5 a4bb 8bc5 92bb d54d bebb 0c96 a9bb
00000080: bbef b6bb 57ab bb3b f9fd a5bb 1592 ccbb
00000090: f4ae d83b d1e3 1638 a7f4 cbbb 70f1 92bb
000000a0: 3170 9dbb f288 9dba 9513 a4bb 38ce a8bb
000000b0: 4d25 93bb 4a25 d2ba a6d6 7fbb 5902 77bb
000000c0: a2d1 babb cf44 a1bb 285d ee3b 685f 7fbb
000000d0: 0236 96bb c0d3 59b9 e4d6 62bb 2ca8 9dbb
000000e0: 2ecf 9bbb 8d77 fe3b 50ca f4b8 fe5a a8bb
000000f0: 0b12 96bb 93a4 fbba 6b15 abbb 573e a9bb

exp_avg_sq f4 [64]
0.0006789121 0.0009826433 0.00090641057 0.0014642931 0.0011699746 0.0008291621 0.0013217689 0.0001854493
8.03028e-05 0.00062350935 2.9641273e-05 0.0014768698 0.0011189407 0.0013741368 0.00030502587 4.1228745e-05
9.883074e-06 0.00032713855 0.0014181489 0.0011408259 0.00082482427 0.000980371 0.001544523 4.6615194e-05
3.4365592e-05 0.0010848846 1.2477257e-05 3.972852e-05 0.0010884025 0.0008063237 0.0014044653 0.0010578306
0.001145035 6.754395e-05 0.000924096 0.0016803193 9.3415794e-05 5.4511434e-06 0.0015669848 0.0008169103
0.00093985174 0.00078075414 0.00094181154 0.00096991024 0.0016439727 0.0009338692 0.00062648236 0.0008864649
0.0012116936 0.0008914802 0.00013386815 0.000544204 0.0008682553 7.3806455e-05 0.00040929916 0.0008488767
0.0008180501 0.00013344926 1.50236e-06 0.00088343205 0.0006931882 1.374478e-05 0.000992347 0.00087517005
00000000: 05f9 313a 0acc 803a 2f9c 6d3a 86ed bf3a
00000010: d559 993a 205c 593a 343f ad3a 2b75 4239
00000020: 3d68 a838 0173 233a 26a6 f837 8793 c13a
00000030: 6ba9 923a 611c b43a e1eb 9f39 07ed 2c38
00000040: 7bcf 2537 cb83 ab39 2ee1 b93a c487 953a
00000050: 0539 583a cb7f 803a 9871 ca3a af84 4338
00000060: c623 1038 b032 8e3a 6955 5137 2ca2 2638
00000070: baa8 8e3a 785f 533a 0916 b83a e8a6 8a3a
00000080: 0015 963a 62a6 8d38 083f 723a 293e dc3a
00000090: 39e8 c338 f7e8 b636 4963 cd3a ec25 563a
000000a0: 6260 763a 86ab 4c3a e7e3 763a 9341 7e3a
000000b0: 927a d73a e7ce 743a 853a 243a a761 683a
000000c0: b1d1 9e3a 39b2 693a f55e 0c39 eaa8 0e3a
000000d0: a09b 633a 8ac8 9a38 3497 d639 2787 5e3a
000000e0: 6a72 563a 83ee 0b39 b2a4 c935 1f96 673a
000000f0: 13b7 353a 6199 6637 a411 823a ab6b 653a

exp_avg f4 [2, 64]
0.0005581629 -0.00067637506 -0.0010533764 -0.0005664851 -0.0009882096 -0.00024408691 0.00056629186 9.587113e-05
-9.896798e-05 -0.0009909302 -0.00052047265 -0.00082090835 -0.00030991624 -6.4015454e-05 0.00014890888 -4.101384e-07
-0.00072796526 -0.00089192815 -0.00065228157 0.00088381016 -0.00064714986 0.00068569055 -0.00026407043 -0.00012066072
-1.009158e-05 -0.0012688491 -6.9548014e-06 7.1053074e-07 0.0001616344 -0.0005594302 -0.0008146465 -0.00085152086
-0.0007491589 -0.00013378602 -0.0018519588 0.00047101825 0.0005727448 -8.362195e-06 -0.0003731655 0.0004510438
0.000293693 0.0011576078 0.0007876086 -0.00093413383 -0.0018111778 -0.0018889465 -0.00020096723 -0.0014306728
-0.0012500627 -0.00060541416 0.00019412271 -0.00012260629 -0.0010481005 8.9880683e-07 -0.0005775556 -0.0002054685
-0.0011697096 0.0003152711 -0.000469633 0.0013735939 -7.0000126e-05 -0.00015774196 -0.00092838466 -0.000496338
-0.0005581627 0.0006763752 0.0010533762 0.0005664855 0.0009882094 0.00024408674 -0.0005662921 -9.587116e-05
9.896798e-05 0.0009909299 0.00052047265 0.00082090887 0.00030991613 6.40158e-05 -0.00014890882 4.1013897e-07
0.00072796515 0.0008919281 0.00065228215 -0.0008838102 0.0006471498 -0.0006856907 0.0002640703 0.000120660734
1.0091584e-05 0.0012688494 6.9547996e-06 -7.105284e-07 -0.00016163445 0.00055943045 0.0008146465 0.0008515209
0.00074915885 0.00013378594 0.0018519588 -0.00047101823 -0.00057274493 8.3621935e-06 0.00037316524 -0.00045104374
-0.0002936931 -0.0011576075 -0.000787609 0.0009341336 0.001811178 0.0018889456 0.000200967 0.001430673
0.0012500626 0.0006054144 -0.00019412268 0.00012260649 0.0010481006 -8.988066e-07 0.00057755556 0.00020546862
0.0011697096 -0.00031527114 0.00046963306 -0.0013735935 7.0000075e-05 0.00015774199 0.00092838425 0.00049633795
00000000: ae51 123a c34e 31ba 7211 8aba 2c80 14ba
00000010: d086 81ba 95f1 7fb9 3473 143a 6c0e c938
00000020: 088d cfb8 1ae2 81ba 5470 08ba 3a32 57ba
00000030: 417c a2b9 0940 86b8 6c24 1c39 fe30 dcb4
00000040: ecd4 3eba 49d0 69ba e0fd 2aba 7faf 673a
00000050: 7ea5 29ba eabf 333a ef72 8ab9 3b0b fdb8
00000060: 024f 29b7 834f a6ba 4a5d e9b6 4dbb 3e35
00000070: 677c 2939 baa6 12ba 008e 55ba 9938 5fba
00000080: 3463 44ba e948 0cb9 6dbd f2ba 00f3 f639
00000090: 4124 163a 5b4b 0cb7 6da5 c3b9 137a ec39
000000a0: cffa 9939 dfba 973a 8577 4e3a a9e0 74ba
000000b0: 0b65 edba 8796 f7ba bbba 52b9 6a85 bbba
000000c0: 25d9 a3ba a8b4 1eba 6b8d 4b39 e08f 00b9
000000d0: 6b60 89ba 8945 7135 1a67 17ba 0873 57b9
000000e0: f150 99ba f94a a539 1339 f6b9 2a0a b43a
000000f0: 08cd 92b8 8967 25b9 d75e 73ba ae1c 02ba
00000100: aa51 12ba c54e 313a 7111 8a3a 3380 143a
00000110: ce86 813a 89f1 7f39 3873 14ba 700e c9b8
00000120: 088d cf38 17e2 813a 5470 083a 4332 573a
00000130: 3d7c a239 3940 8638 6824 1cb9 1231 dc34
00000140: ead4 3e3a 48d0 693a eafd 2a3a 80af 67ba
00000150: 7da5 293a edbf 33ba ea72 8a39 3d0b fd38
00000160: 064f 2937 854f a63a 465d e936 24bb 3eb5
00000170: 6b7c 29b9 bea6 123a 008e 553a 9a38 5f3a
00000180: 3363 443a e448 0c39 6dbd f23a fff2 f6b9
00000190: 4324 16ba 594b 0c37 64a5 c339 117a ecb9
000001a0: d2fa 99b9 ddba 97ba 8c77 4eba a5e0 743a
000001b0: 0d65 ed3a 7f96 f73a abba 5239 6b85 bb3a
000001c0: 24d9 a33a acb4 1e3a 698d 4bb9 ee8f 0039
000001d0: 6c60 893a 8545 71b5 1967 173a 1073 5739
000001e0: f150 993a fa4a a5b9 1539 f639 260a b4ba
000001f0: 01cd 9238 8b67 2539 d05e 733a ad1c 023a

exp_avg_sq f4 [2, 64]
8.379552e-05 0.00012556392 0.00012484127 9.975394e-05 7.7910074e-05 0.000102081125 9.564238e-05 6.967621e-06
7.802775e-06 0.00010137897 1.6914104e-05 0.00010824005 0.00010102032 0.000105379986 6.143154e-06 3.7114685e-06
1.6795899e-05 9.320383e-05 8.3978775e-05 0.000116540425 0.00014374657 0.00013260706 8.960815e-05 4.261017e-06
5.2523064e-06 0.000121404955 1.20631e-06 6.5321265e-06 8.357766e-05 0.00015258593 8.34157e-05 0.00011891733
8.140902e-05 5.6770004e-06 9.9770084e-05 9.694483e-05 3.2613956e-05 9.566098e-07 9.897574e-05 0.00016672595
0.00015681707 8.293697e-05 0.00014492731 9.49613e-05 0.00010219764 0.00012152784 9.583372e-05 0.00013679339
8.5544416e-05 0.00013343769 5.8285095e-06 8.971563e-05 0.00010661334 3.290667e-06 2.817304e-05 9.901962e-05
0.00010012333 1.3097126e-05 1.8908317e-05 0.00014773072 8.708192e-05 2.091442e-05 5.3009357e-05 8.6149645e-05
8.3795516e-05 0.00012556392 0.00012484127 9.975394e-05 7.7910074e-05 0.00010208113 9.564239e-05 6.967622e-06
7.802774e-06 0.00010137899 1.6914108e-05 0.000108240056 0.00010102032 0.000105379986 6.143154e-06 3.7114685e-06
1.6795899e-05 9.320383e-05 8.397879e-05 0.00011654042 0.00014374651 0.00013260708 8.960814e-05 4.261016e-06
5.252307e-06 0.000121404955 1.2063101e-06 6.5321274e-06 8.357765e-05 0.00015258593 8.3415696e-05 0.00011891731
8.140904e-05 5.6769995e-06 9.977008e-05 9.694483e-05 3.2613956e-05 9.5661e-07 9.897574e-05 0.00016672595
0.00015681707 8.293697e-05 0.00014492731 9.496131e-05 0.00010219767 0.000121527795 9.583373e-05 0.00013679342
8.5544416e-05 0.00013343766 5.8285095e-06 8.971563e-05 0.00010661334 3.290667e-06 2.817304e-05 9.901963e-05
0.00010012333 1.3097126e-05 1.8908315e-05 0.00014773075 8.708192e-05 2.091442e-05 5.3009342e-05 8.6149645e-05
00000000: 61bb af38 cfa9 0339 d3e7 0239 fd32 d138
00000010: a763 a338 6314 d638 9d93 c838 69cb e936
00000020: aae8 0237 6c9b d438 c3e2 8d37 effe e238
00000030: dfda d338 73ff dc38 4b21 ce36 8b12 7936
00000040: ebe4 8c37 6d76 c338 c31d b038 2a67 f438
00000050: adba 1639 700c 0b39 02ec bb38 dbf9 8e36
00000060: f83c b036 ca9a fe38 7fe8 a135 8a2e db36
00000070: 6a46 af38 79ff 1f39 77ef ae38 4163 f938
00000080: 23ba aa38 107d be36 a83b d138 dc4e cb38
00000090: f8ca 0838 dd64 8035 3291 cf38 28d3 2e39
000000a0: 436f 2439 72ee ad38 a1f7 1739 f625 c738
000000b0: f152 d638 c3dc fe38 56fa c838 3270 0f39
000000c0: 4f66 b338 68eb 0b39 8492 c336 b625 bc38
000000d0: 9a95 df38 3bd5 5c36 2555 ec37 c1a8 cf38
000000e0: 4ef9 d138 babb 5b37 4d9d 9e37 2ae8 1a39
000000f0: c09f b638 6071 af37 5d56 5e38 3dab b438
00000100: 60bb af38 cfa9 0339 d3e7 0239 fd32 d138
00000110: a763 a338 6414 d638 9e93 c838 6bcb e936
00000120: a9e8 0237 6e9b d438 c5e2 8d37 f0fe e238
00000130: dfda d338 73ff dc38 4b21 ce36 8b12 7936
00000140: ebe4 8c37 6d76 c338 c51d b038 2967 f438
00000150: a9ba 1639 710c 0b39 01ec bb38 d9f9 8e36
00000160: f93c b036 ca9a fe38 80e8 a135 8c2e db36
00000170: 6946 af38 79ff 1f39 76ef ae38 3f63 f938
00000180: 25ba aa38 0e7d be36 a73b d138 dc4e cb38
00000190: f8ca 0838 df64 8035 3291 cf38 28d3 2e39
000001a0: 436f 2439 72ee ad38 a1f7 1739 f725 c738
000001b0: f552 d638 bddc fe38 58fa c838 3470 0f39
000001c0: 4f66 b338 66eb 0b39 8492 c336 b625 bc38
000001d0: 9a95 df38 3bd5 5c36 2555 ec37 c2a8 cf38
000001e0: 4ef9 d138 babb 5b37 4c9d 9e37 2ce8 1a39
000001f0: c09f b638 6071 af37 5956 5e38 3dab b438

exp_avg f4 [2]
-0.0004347698 0.00043476975
00000000: d1f1 e3b9 cff1 e339

exp_avg_sq f4 [2]
0.00016745202 0.000167452
00000000: 0f96 2f39 0e96 2f39

exp_avg f4 [1, 64]
-0.003378105 -0.0072968705 -0.0076475437 -0.0064015235 -0.005470849 -0.005940195 -0.0038507474 0.0037005495
0.0010058228 -0.005323596 0.004601933 -0.0046547735 -0.003991688 -0.00522191 0.0043253987 1.2484782e-06
-0.0021495286 -0.0027227288 -0.006066366 -0.005669118 -0.0045296503 -0.0070188637 -0.0030389035 0.0011828297
0.00010386202 -0.005196356 1.833253e-06 6.3741456e-05 -0.0038434425 -0.004383263 -0.003012138 -0.004763608
-0.0058332407 -0.0002731467 -0.004541949 -0.004184756 0.005845407 -7.809436e-09 -0.0045821443 -0.005375938
-0.005794803 -0.004411839 -0.0074750325 -0.00548078 -0.003051549 -0.0044369926 -0.0036904402 -0.004759701
-0.004432345 -0.0076852236 0.0053140083 -0.0031005542 -0.0028691336 2.8814525e-06 -0.0037238793 -0.00723875
-0.005161555 0.006926672 0.0025108475 -0.007899206 -0.0055488315 0.0015747385 -0.0044114613 -0.0054932297
00000000: 3263 5dbb 961a efbb 3f98 fabb dfc3 d1bb
00000010: cf44 b3bb f8a5 c2bb d25c 7cbb eb84 723b
00000020: d0d5 833a 8f71 aebb d0cb 963b 1287 98bb
00000030: b5cc 82bb 8e1c abbb 13bc 8d3b 6291 a735
00000040: 1bdf 0cbb cf6f 32bb 5ec8 c6bb 02c4 b9bb
00000050: 766d 94bb 7ffe e5bb 5728 47bb 2e09 9b3a
00000060: 7fd0 d938 3246 aabb 180e f635 efac 8538
00000070: 44e2 7bbb 7aa1 8fbb 4a67 45bb 0a18 9cbb
00000080: c524 bfbb 2135 8fb9 a1d4 94bb 4720 89bb
00000090: d48a bf3b 432a 06b2 d025 96bb a328 b0bb
000000a0: 55e2 bdbb 3091 90bb 1ef1 f4bb 1d98 b3bb
000000b0: 7ffc 47bb 3164 91bb 50db 71bb 44f7 9bbb
000000c0: 343d 91bb 54d4 fbbb 2221 ae3b ab32 4bbb
000000d0: 1308 3cbb fa5e 4136 540c 74bb 0933 edbb
000000e0: 4322 a9bb 23f9 e23b 088d 243b ac6b 01bc
000000f0: f9d2 b5bb 7567 ce3a 058e 90bb 8d00 b4bb

exp_avg_sq f4 [1, 64]
0.00097129744 0.0013608846 0.0013648861 0.0010966292 0.0009082034 0.0011052393 0.0010511425 5.8362577e-05
5.6393732e-05 0.0011354869 0.00012760043 0.0011782655 0.0011368465 0.0011388737 5.1496263e-05 2.701273e-05
0.00015791098 0.0009746535 0.0009594385 0.001245209 0.0015813672 0.0014284377 0.0010171739 3.116734e-05
3.8683163e-05 0.001317473 9.552475e-06 4.721173e-05 0.0009348998 0.0016162323 0.0009322778 0.0013266758
0.0009499431 5.4544435e-05 0.0010797825 0.0010472987 0.00025061925 8.47574e-06 0.0010884987 0.0017356197
0.001642097 0.00096934586 0.0015370097 0.0010883587 0.0010605125 0.0013616324 0.0010561375 0.0015054768
0.0009567287 0.0014370405 5.1773965e-05 0.0009939364 0.001162573 2.4074534e-05 0.0003298629 0.0011607062
0.0011242266 0.000112417896 0.00015989682 0.0015261726 0.0010086569 0.00014811997 0.0006043233 0.0010004753
00000000: ab9e 7e3a b65f b23a fae5 b23a c5bc 8f3a
00000010: 8014 6e3a addd 903a 7dc6 893a 57ca 7438
00000020: 4f88 6c38 9ed4 943a 7bcc 0539 0870 9a3a
00000030: 3d02 953a 4346 953a b1fd 5738 6599 e237
00000040: e894 2539 e47f 7f3a d482 7b3a 4836 a33a
00000050: e145 cf3a 6a3a bb3a b152 853a adb9 0238
00000060: bb3f 2238 0faf ac3a 9143 2037 3605 4638
00000070: 1014 753a c2d7 d33a 1b64 743a dae3 ad3a
00000080: 9a05 793a a4c6 6438 7d87 8d3a 8345 893a
00000090: 8c65 8339 0733 0e37 f5ab 8e3a bc7d e33a
000000a0: a23b d73a b31b 7e3a 7d75 c93a 42a7 8e3a
000000b0: e500 8b3a cd78 b23a 186e 8a3a 6b53 c53a
000000c0: facc 7a3a 145b bc3a df27 5938 f946 823a
000000d0: 7a61 983a abf3 c937 73f1 ac39 d622 983a
000000e0: c95a 933a e6c1 eb38 faa9 2739 db09 c83a
000000f0: e934 843a a750 1b39 736b 1e3a 6122 833a
