savedModels/ppo_cartpole_66560.pth (torch, 13659 bytes, 15 tensors)

shared_fc.0.weight f4 [64, 4]
-0.07543726 0.42244336 0.06705244 -0.44741666 -0.06118868 -0.19024558 -0.5492731 -0.22586612
0.0542719 -0.3145256 -0.27719888 -0.48587316 -0.033263594 -0.12244745 -0.3769389 -0.26670688
0.10899845 0.09036798 -0.6485554 -0.3190104 -0.15834235 -0.036339045 -0.30257136 0.020813948
-0.070498556 0.11644794 0.27858037 0.35733885 -0.4317793 -0.17151469 -0.0070471955 -0.106549226
0.54720956 -0.004264356 -0.5060023 -0.15778221 0.17492072 0.09355612 0.17426439 -0.33523598
0.6408954 -0.21926701 -0.45820883 -0.38328853 0.05940607 -0.24903043 -0.12142461 0.1268868
0.044205148 -0.11471647 0.026408546 0.29518527 -0.05068513 -0.12508617 -0.006919148 0.109156616
-0.45307982 0.009837802 0.371999 0.20147824 0.40725225 0.20267369 -0.065869704 0.14820851
-0.35128585 -0.36423978 -0.12016327 -0.23146802 0.31852064 0.031751525 -0.19028907 0.2943919
0.08720485 0.0076662307 -0.2631208 -0.37443703 -0.043693885 0.28771722 0.008832145 -0.024937665
0.069393024 -0.39297298 -0.015890032 0.45189402 -0.08520383 0.2591856 0.23235197 -0.28689602
0.0591515 -0.039188396 0.119904995 0.539227 -0.28870246 -0.18681875 -0.07955363 -0.1332445
0.5611293 0.1592785 -0.66410804 0.13828096 0.103754945 -0.3675025 -0.13442981 0.00723783
0.27257335 0.22160292 0.107409194 0.17341782 0.4846847 0.15818657 0.047492657 0.097140044
-0.019388473 -0.038089313 0.055186205 0.19835573 0.030300438 -0.38976875 0.30337122 0.33144063
0.22478792 -0.12991664 0.3280076 0.24096285 0.115936995 -0.33686596 -0.0025283936 0.16444837
0.11251096 0.08406186 -0.32693335 -0.34817296 -0.16032635 -0.36550722 0.01029806 -0.3295843
0.32118994 -0.018452426 -0.22010355 -0.1841076 -0.10440567 0.02465678 0.25184932 0.2892484
-0.6823714 -0.14613895 0.37015873 0.01324432 0.10302655 0.33361685 0.09628449 0.30734012
0.026264424 -0.18704222 0.14282723 0.12338722 -0.1611349 -0.098906845 -0.18223445 0.4024156
-0.09082501 -0.17554033 0.15745173 0.14530954 -0.17124575 0.54594165 -0.015100012 -0.4278695
-0.17745972 0.33242986 -0.15125178 -0.28079155 0.18859287 0.08995038 0.06373213 -0.260464
0.3550654 -0.11368506 -0.013074307 0.24905689 0.26422036 -0.5448769 0.2292084 0.27586144
0.0484215 -0.36220893 0.4269356 0.35472313 0.17762908 -0.50065076 0.10227879 0.12720835
0.28999147 -0.0005838239 0.11853345 -0.15348054 -0.06372573 -0.22024971 -0.29082003 -0.3735673
-0.47946656 0.017024135 0.5086759 0.25577196 0.024743259 0.40474752 0.027177935 -0.723052
0.31051916 0.014827619 0.16734688 0.28413546 0.37191626 0.14825727 0.1352883 0.10649173
0.3126008 -0.053579733 -0.570996 -0.25508997 -0.038195994 0.18156295 -0.06595766 -0.6856561
0.2089637 0.07091265 0.0067762258 -0.27027485 -0.5526189 0.08467643 0.28901756 0.36000004
0.0039566667 0.2608884 -0.08666347 -0.28775552 -0.29144943 0.33330896 -0.10269302 -0.48489803
0.0092365 0.27010605 -0.004462133 -0.26858333 0.6956192 0.11711633 0.14103179 0.059232414
-0.34766838 -0.17315643 -0.28381562 -0.13024303 0.06634239 0.16504452 -0.11670886 -0.32245705
00000000: da7e 9abd 7f4a d83e ca52 893d cc13 e5be
00000010: fba0 7abd bdcf 42be 299d 0cbf 7349 67be
00000020: 364c 5e3d 8009 a1be 03ed 8dbe 5ec4 f8be
00000030: 683f 08bd bbc5 fabd 23fe c0be ce8d 88be
00000040: 943a df3d d912 b93d ba07 26bf 5555 a3be
00000050: 7f24 22be 40d8 14bd a2ea 9abe 0382 aa3c
00000060: 8c61 90bd 427c ee3d 16a2 8e3e 1ef5 b63e
00000070: 2d12 ddbe 8ca1 2fbe 29ec e6bb 7b36 dabd
00000080: ed15 0c3f 03bc 8bbb 5e89 01bf a991 21be
00000090: 6b1e 333e 5a9a bf3d 5d72 323e 0da4 abbe
000000a0: b911 243f 8887 60be 599a eabe 653e c4be
000000b0: c753 733d d501 7fbe 77ad f8bd 9dee 013e
000000c0: 7510 353d 78f0 eabd bc56 d83c 8622 973e
000000d0: 369b 4fbd 9716 00be 05ba e2bb 818d df3d
000000e0: 14fa e7be bb2e 213c a776 be3e 5050 4e3e
000000f0: 5e83 d03e b189 4f3e b2e6 86bd f9c3 173e
00000100: bddb b3be a37d babe 2918 f6bd f405 6dbe
00000110: 2315 a33e e30d 023d 23db 42be 89ba 963e
00000120: 7598 b23d 0135 fb3b c5b7 86be 36b6 bfbe
00000130: 5cf8 32bd ac4f 933e b3b4 103c 134a ccbc
00000140: ee1d 8e3d c133 c9be d02b 82bc a75e e73e
00000150: 587f aebd fab3 843e aded 6d3e 09e4 92be
00000160: d848 723d 0384 20bd c090 f53d c80a 0a3f
00000170: cfd0 93be 6a4d 3fbe 03ed a2bd 3f71 08be
00000180: 2ba6 0f3f e719 233e fc02 2abf 8699 0d3e
00000190: 797d d43d 4a29 bcbe f8a7 09be 522b ed3b
000001a0: bc8e 8b3e e0eb 623e 5af9 db3d 7194 313e
000001b0: 9828 f83e a9fb 213e a987 423d 5cf1 c63d
000001c0: 93d4 9ebc 8a03 1cbd ee0a 623d c41d 4b3e
000001d0: a038 f83c c58f c7be 7953 9b3e 96b2 a93e
000001e0: ce2e 663e de08 05be 9df0 a73e f7be 763e
000001f0: 6070 ed3d b279 acbe 68b3 25bb 2765 283e
00000200: 256c e63d a028 ac3d cf63 a7be ba43 b2be
00000210: 972c 24be c323 bbbe 32b9 283c 46bf a8be
00000220: 0273 a43e 8b29 97bc d362 61be b486 3cbe
00000230: a4d2 d5bd 04fd c93c 65f2 803e 5e18 943e
00000240: e4af 2ebf 73a5 15be 7285 bd3e b4fe 583c
00000250: 95ff d23d d4cf aa3e cd30 c53d af5b 9d3e
00000260: 7d28 d73c ff87 3fbe 4d41 123e 70b2 fc3d
00000270: 8c00 25be ac8f cabd ab9b 3abe 6b09 ce3e
00000280: 7602 babd d8c0 33be 073b 213e 06cc 143e
00000290: 0c5b 2fbe d5c2 0b3f 0a66 77bc b611 dbbe
000002a0: 00b8 35be 3f34 aa3e bfe1 1abe e9c3 8fbe
000002b0: 7d1e 413e e837 b83d fe85 823d 8a5b 85be
000002c0: 22cb b53e b6d3 e8bd 9e35 56bc c508 7f3e
000002d0: e447 873e 0d7d 0bbf 9bb5 6a3e b63d 8d3e
000002e0: 9f55 463d 7373 b9be 4e97 da3e 459e b53e
000002f0: 66e4 353e a62a 00bf 8b77 d13d e842 023e
00000300: c379 943e c20b 19ba aac1 f23d 012a 1dbe
00000310: a382 82bd 2489 61be 5de6 94be 3744 bfbe
00000320: a47c f5be 3376 8b3c 9538 023f 8bf4 823e
00000330: 60b2 ca3c 113b cf3e 43a4 de3c f019 39bf
00000340: 5efc 9e3e 8bef 723c fb5c 2b3e 347a 913e
00000350: cf6b be3e c1d0 173e 0489 0a3e 5618 da3d
00000360: 360d a03e 6c76 5bbd cb2c 12bf 279b 82be
00000370: 6773 1cbd a3eb 393e cf14 87bd 2887 2fbf
00000380: 95fa 553e a73a 913d 1a0b de3b 7761 8abe
00000390: 6f78 0dbf d66a ad3d 1cfa 933e ed51 b83e
000003a0: eda6 813b 2a93 853e 9e7c b1bd b154 93be
000003b0: dc38 95be 79a7 aa3e b850 d2bd 8e44 f8be
000003c0: b054 173c 574b 8a3e 1637 92bb c183 89be
000003d0: 1a14 323f b0da ef3d a36a 103e b09d 723d
000003e0: 9701 b2be eb4f 31be 4850 91be 6e5e 05be
000003f0: 85de 873d 6e01 293e 0e05 efbd 1719 a5be

shared_fc.0.bias f4 [64]
0.803004 0.84688944 0.8524202 0.75961846 0.78881866 0.8630579 0.7916725 -0.09837273
-0.04849036 0.88077664 -0.049917337 0.7362945 0.8704069 0.7796394 -0.074255 -0.040496904
-0.10580985 0.86559486 0.77564424 0.8461557 0.90755165 0.897161 0.7495271 -0.07868379
-0.07344042 0.7803308 -0.04012367 -0.037631866 0.86440414 0.80186945 0.76386344 0.8865167
0.8187752 -0.0935951 0.86336064 0.737465 -0.12521042 -0.053975698 0.7512028 0.8933311
0.89082074 0.77287656 0.89557815 0.9020196 0.69624734 0.83773905 0.86818737 0.8643766
0.8075672 0.8681611 -0.08108084 0.7689134 0.8324424 -0.032856476 -0.027290303 0.8794304
0.8905475 -0.09318442 0.7315341 0.8063408 0.9147156 -0.04348756 -0.086011305 0.8267635
00000000: ac91 4d3f bfcd 583f 3638 5a3f 5b76 423f
00000010: 05f0 493f 5df1 5c3f 0dab 4a3f a477 c9bd
00000020: d49d 46bd 947a 613f 1f76 4cbd cc7d 3c3f
00000030: fdd2 5e3f 7396 473f 0113 98bd 15e0 25bd
00000040: d6b2 d8bd a097 5d3f 9f90 463f a99d 583f
00000050: 4e55 683f 58ac 653f 02e1 3f3f f824 a1bd
00000060: ee67 96bd c2c3 473f b858 24bd df23 1abd
00000070: 9749 5d3f 5147 4d3f 8e8c 433f c2f2 623f
00000080: 409b 513f caae bfbd 3405 5d3f 82ca 3c3f
00000090: 2937 00be 9f15 5dbd d44e 403f 59b1 643f
000000a0: d40c 643f 3ddb 453f 9c44 653f c2ea 663f
000000b0: 443d 323f 1176 563f 8741 5e3f c947 5d3f
000000c0: b9bc 4e3f ce3f 5e3f b60d a6bd 82d7 443f
000000d0: f21a 553f 8394 06bd ea8f dfbc 5a22 613f
000000e0: ecfa 633f 79d7 bebd d245 3b3f 5a6c 4e3f
000000f0: cd2a 6a3f 0320 32bd b226 b0bd c6a6 533f

actor_head.weight f4 [2, 64]
-0.008012759 0.19168428 0.21972197 0.202098 0.1278865 0.049156755 -0.24857907 0.09724923
0.06897298 0.022488248 0.28844845 -0.006783223 -0.1267326 -0.042713482 -0.118494146 -0.103754684
0.10918642 -0.11374209 0.14065316 -0.078980856 -0.0602593 -0.008817054 -0.18733247 0.17141442
-0.008440669 0.05763515 -0.1616759 -0.08033436 -0.15271413 -0.062130995 -0.14671077 -0.017612478
0.110541575 0.18295911 0.10728774 -0.21748532 -0.0041374406 -0.21837889 -0.0731781 -0.102334075
-0.07997693 -0.010008735 0.033654362 0.064175636 -0.12822011 0.0028395723 -0.059862673 0.008045581
0.057209387 0.20537746 -0.1378042 0.072802 -0.18871108 -0.136882 0.17838308 0.09749997
0.049954314 -0.14926074 -0.014089067 0.054081265 0.0133984685 -0.07773963 0.21409956 0.026216432
0.012405384 -0.2021309 -0.23078154 -0.20517397 -0.15259838 -0.04508504 0.2580848 -0.09386078
-0.08481729 -0.05137713 -0.24600677 -0.0040865797 0.1374178 0.06940297 0.10210352 0.09000926
-0.17014788 0.11185504 -0.1526134 0.07257037 0.033787426 -0.010325591 0.19888301 -0.19146971
-0.012391261 -0.067952 0.1807273 0.08607308 0.118081406 0.07106378 0.16493627 0.041826386
-0.117291585 -0.17769991 -0.09098074 0.2292615 0.017314034 0.20452553 0.062111486 0.09070532
0.06677456 0.021577938 -0.03058703 -0.07360733 0.09660841 0.020525027 0.045469046 -0.008186201
-0.03513968 -0.2078215 0.13846357 -0.05004413 0.20284167 0.13900791 -0.18595442 -0.10698457
-0.049849488 0.14886594 0.01664167 -0.047029726 -0.0020987852 0.07937399 -0.20355435 -0.060273297
00000000: f247 03bc e248 443e ccfe 603e c7f2 4e3e
00000010: aef4 023e 9858 493d 838b 7ebe 9b2a c73d
00000020: b541 8d3d 4639 b83c 84af 933e cc45 debb
00000030: 31c6 01be 55f4 2ebd 0fad f2bd 567d d4bd
00000040: 219d df3d 9df1 e8bd 6207 103e b7c0 a1bd
00000050: 75d2 76bd 6875 10bc 15d4 3fbe 4387 2f3e
00000060: bb4a 0abc d612 6c3d 5e8e 25be 5786 a4bd
00000070: 1861 1cbe 127d 7ebd 593b 16be 0b48 90bc
00000080: 9f63 e23d a259 3b3e adb9 db3d 79b4 5ebe
00000090: 5e93 87bb b79e 5fbe 66de 95bd 8794 d1bd
000000a0: f2ca a3bd adfb 23bc 28d9 093d 846e 833d
000000b0: 224c 03be 1e18 3a3b 9032 75bd 9dd1 033c
000000c0: 6454 6a3d 784e 523e 8b1c 0dbe 3719 953d
000000d0: 7a3d 41be cc2a 0cbe 0eaa 363e 10ae c73d
000000e0: e59c 4c3d cfd7 18be d4d5 66bc 5184 5d3d
000000f0: 4085 5b3c f535 9fbd ea3c 5b3e d8c3 d63c
00000100: f43f 4b3c 67fb 4ebe ff51 6cbe 2019 52be
00000110: c042 1cbe 17ab 38bd b123 843e 153a c0bd
00000120: b0b4 adbd d370 52bd 33e9 7bbe b7e8 85bb
00000130: 40b7 0c3e 2523 8e3d a61b d13d c656 b83d
00000140: 3f3b 2ebe 4114 e53d b046 1cbe c69f 943d
00000150: af64 0a3d ab2c 29bc fda7 4b3e a310 44be
00000160: b704 4bbc 6b2a 8bbd 9410 393e 1547 b03d
00000170: aad4 f13d e389 913d 0ee5 283e 2552 2b3d
00000180: 9236 f0bd f7f6 35be 1c54 babd 87c3 6a3e
00000190: 29d6 8d3c 246f 513e 9d68 7e3d b6c3 b93d
000001a0: 1ac1 883d 37c4 b03c a791 fabc 71bf 96bd
000001b0: a1da c53d 1a24 a83c c03d 3a3d 6a1f 06bc
000001c0: a0ee 0fbd 29cf 54be 65c9 0d3e 13fb 4cbd
000001d0: bab5 4f3e 1758 0e3e d66a 3ebe ba1a dbbd
000001e0: fa2e 4cbd 5070 183e 1d54 883c 3ea2 40bd
000001f0: c68b 09bb d58e a23d 8d70 50be 22e1 76bd

actor_head.bias f4 [2]
-0.022900863 0.022900866
00000000: 979a bbbc 999a bb3c

critic_head.weight f4 [1, 64]
0.78727186 0.82555836 0.80843955 0.95295316 0.9025769 0.8692564 0.8928346 -0.4749204
-0.5509071 0.80180645 -0.4529616 1.00387 0.82817644 0.9084143 -0.6855031 -0.35841078
-0.20354247 0.8704911 0.9192052 0.8563669 0.7289267 0.79235524 0.9479538 -0.4008019
-0.31429416 0.8927104 -0.36601284 -0.3668915 0.8668194 0.79121524 0.9594824 0.8069789
0.85788214 -0.3994204 0.858842 0.99150115 -0.437341 -0.30252573 0.97223145 0.75525486
0.7966869 0.8087244 0.78275955 0.8195623 1.2455695 0.7854083 0.68557686 0.78273034
0.91740733 0.8024573 -0.47423124 0.758728 0.88119775 -0.43580127 -0.2240009 0.7352977
0.8151988 -0.4741464 0.55365944 0.8083686 0.7759429 -0.33659372 -0.36464137 0.84427893
00000000: a68a 493f cb57 533f e5f5 4e3f bdf4 733f
00000010: 480f 673f 9687 5e3f cf90 643f c428 f3be
00000020: 3f08 0dbf 3043 4d3f 95ea e7be d07e 803f
00000030: 5f03 543f d78d 683f 227d 2fbf 9e81 b7be
00000040: 706d 50be 81d8 5e3f 0851 6b3f dc3a 5b3f
00000050: f19a 3a3f cbd7 4a3f 1aad 723f e835 cdbe
00000060: 2aeb a0be ab88 643f 0966 bbbe 34d9 bbbe
00000070: e0e7 5d3f 158d 4a3f a3a0 753f 2b96 4e3f
00000080: 2a9e 5b3f d580 ccbe 12dd 5b3f 05d3 7d3f
00000090: 29eb dfbe a7e4 9abe 29e4 783f 6258 413f
000000a0: acf3 4b3f 9008 4f3f ee62 483f d6ce 513f
000000b0: d26e 9f3f 8510 493f f781 2f3f 0461 483f
000000c0: 35db 6a3f d76d 4d3f 70ce f2be 003c 423f
000000d0: 2d96 613f 5821 dfbe 7e60 65be 783c 3c3f
000000e0: deb0 503f 51c3 f2be a0bc 0d3f 3ff1 4e3f
000000f0: 32a4 463f 0356 acbe 46b2 babe aa22 583f

exp_avg f4 [64, 4]
-0.011337855 0.004908036 0.0037492756 0.004693932 -0.013943087 0.0037973868 0.0042149527 0.0059192707
-0.013826619 0.0036549894 0.004156398 0.0058436254 -0.015963158 0.004429748 0.004843447 0.0067962995
-0.014827479 0.0043001547 0.0045383195 0.0063545774 -0.013814328 0.0043106084 0.0042927703 0.005993725
-0.012550359 0.0050147222 0.004134349 0.0057038465 0.017709889 0.0056175813 -0.002260704 -0.0032779505
-0.012441245 -0.013196106 0.0014814103 0.00068830553 -0.012699965 0.003988997 0.0039524334 0.005515892
-0.010874759 -0.014980117 0.0010952398 0.0006108142 -0.015641762 0.005085637 0.0049052164 0.006835122
-0.012197921 0.004450324 0.003928123 0.0054440023 -0.01386173 0.0047090435 0.004389639 0.0061046267
0.027042119 0.010905306 -0.0050241095 -0.0056382087 -0.0081506055 -0.005447577 0.0010482726 0.0014045584
0.0072321477 0.0016032591 -0.0010383604 -0.0011634877 -0.012954841 0.004627503 0.0041512707 0.0057584415
-0.015124158 0.0043698684 0.004625873 0.006479387 -0.01294389 0.004485378 0.004117473 0.0057207174
-0.016492452 0.0026130646 0.004407451 0.0065064793 -0.012363141 0.0040122885 0.0038745906 0.0053999806
-0.013733535 0.005176345 0.004458264 0.006168942 0.014759853 0.0036715302 -0.0020030004 -0.0024459844
-0.007187872 -0.0053967163 0.0011437982 0.0011401023 -0.015142883 0.00757681 0.0046179304 0.005723098
-0.0079074325 -0.0063894596 0.0005594388 0.0013317287 -0.008354729 -0.005399213 0.0011257017 0.0013120152
-0.012782904 0.0046527707 0.0041140737 0.0057023675 -0.01790291 0.0064357845 0.0048744 0.0066830004
-0.014109815 0.0051613604 0.0045473813 0.0063007292 -0.012782907 0.0036513119 0.003973301 0.005764618
-0.013990973 0.004123158 0.004296365 0.006012716 0.014760496 0.0039756065 -0.0021606933 -0.003181867
-0.013922373 0.004156405 0.004287143 0.005996208 -0.014249785 0.005455943 0.0046436805 0.00642035
0.016877264 0.0066191624 -0.002443945 -0.0044802427 -0.007094552 -0.0047674864 0.00032229404 0.00070316304
-0.014790917 0.005054556 0.004690601 0.006521048 -0.011259594 0.0040124063 0.0036050682 0.00500281
-0.012028573 0.0041768802 0.003828194 0.005318609 -0.01065345 0.0058454373 0.0037284505 0.004621711
-0.012385161 0.0039029373 0.003856421 0.0053820247 -0.013150496 0.004016841 0.0040684724 0.005685062
-0.018795917 0.0065287016 0.005983669 0.008309554 -0.018715996 0.012231757 0.005088318 0.0068872147
-0.015156182 -0.00038082397 0.004043949 0.006595189 -0.01480638 0.01483949 0.004480902 0.0044642542
-0.0145481 0.00455618 0.0045253183 0.0063159717 -0.013635947 0.003661516 0.0041109417 0.0057765488
0.019082328 0.0070951628 -0.0036325988 -0.0035300248 -0.005082664 0.008942584 0.0028276646 0.0021891135
-0.012671092 0.0048429873 0.004127991 0.005706857 -0.0096121915 -0.007228244 0.0009717381 0.0015316589
-0.0053306473 -0.006794294 0.0005432058 6.667861e-05 -0.011176573 0.004639298 0.0036247259 0.004416349
-0.012978203 0.0040314514 0.004029542 0.005626253 0.018901262 0.010351439 -0.0033341153 -0.00414455
-0.008555293 0.002835296 0.0026929504 0.0037491221 -0.012787523 0.0039657946 0.0039884644 0.0056294375
-0.012141661 0.003917091 0.0038001407 0.0052965344 -0.007400561 -0.0060853213 0.0011932016 0.0012972013
0.013258053 0.0028629748 -0.0019066107 -0.0021574667 -0.0133959325 0.0041938485 0.0041657775 0.0058136377
00000000: 69c2 39bc 97d3 a03b 68b6 753b 8ecf 993b
00000010: 8c71 64bc 94dd 783b 961d 8a3b 71f6 c13b
00000020: 0b89 62bc 8c88 6f3b 6532 883b e27b bf3b
00000030: 2bc5 82bc 6b27 913b c7b5 9e3b 7eb3 de3b
00000040: f4ee 72bc 50e8 8c3b 2fb6 943b 0f3a d03b
00000050: 7e55 62bc 0140 8d3b 5eaa 8c3b 0267 c43b
00000060: 05a0 4dbc 8a52 a43b 6f79 873b 55e7 ba3b
00000070: 5414 913c b013 b83b 5228 14bb e2d2 56bb
00000080: 5dd6 4bbc 7b34 58bc e22b c23a 676f 343a
00000090: 8413 50bc 22b6 823b 6a83 813b a8be b43b
000000a0: 0c2c 32bc 2a6f 75bc 268e 8f3a 0c1f 203a
000000b0: 2723 80bc 6aa5 a63b f0bb a03b 29f9 df3b
000000c0: cad9 47bc 06d4 913b 7cb7 803b 9a63 b23b
000000d0: 4f1c 63bc 524e 9a3b f6d6 8f3b 5209 c83b
000000e0: 6f87 dd3c 2bac 323c 49a1 a4bb b9c0 b8bb
000000f0: 1e8a 05bc 9781 b2bb 3166 893a 2919 b83a
00000100: a7fb ec3b 7324 d23a 9819 88ba 2b80 98ba
00000110: 8b40 54bc 4fa2 973b 6207 883b 4fb1 bc3b
00000120: 51cb 77bc 1d31 8f3b a394 973b 0a51 d43b
00000130: 9c12 54bc 14fa 923b deeb 863b db74 bb3b
00000140: 2e1b 87bc f33f 2b3b 616c 903b 4e34 d53b
00000150: c68e 4abc 8479 833b d8ec 7d3b 52f2 b03b
00000160: 9f02 61bc 549e a93b a116 923b d624 ca3b
00000170: 4fd3 713c 0e9e 703b c544 03bb cf4c 20bb
00000180: 3e88 ebbb f0d6 b0bb 80eb 953a 7c6f 953a
00000190: db19 78bc e446 f83b 0252 973b d388 bb3b
000001a0: 2d8e 01bc ac5e d1bb 4da7 123a 668d ae3a
000001b0: 46e2 08bc e2eb b0bb 488c 933a edf7 ab3a
000001c0: 636f 51bc 4576 983b 5acf 863b edda ba3b
000001d0: 20a9 92bc 46e3 d23b 6eb9 9f3b 12fd da3b
000001e0: da2c 67bc a120 a93b 3302 953b 5976 ce3b
000001f0: 666f 51bc d94a 6f3b 7732 823b 1fe5 bc3b
00000200: 653a 65bc 8e1b 873b 86c8 8c3b 5106 c53b
00000210: 02d6 713c ce45 823b 6b9a 0dbb df86 50bb
00000220: aa1a 64bc 7432 883b 297b 8c3b d77b c43b
00000230: ee77 69bc c4c7 b23b 042a 983b cd61 d23b
00000240: 3042 8a3c 8fe5 d83b 982a 20bb 00cf 92bb
00000250: 6a79 e8bb 9338 9cbb 93f9 a839 7954 383a
00000260: 9a55 72bc b0a0 a53b 9db3 993b 84ae d53b
00000270: 297a 38bc 817a 833b 0243 6c3b 9dee a33b
00000280: 7e13 45bc 36de 883b 70e2 7a3b ba47 ae3b
00000290: cf8b 2ebc 158b bf3b 0559 743b b971 973b
000002a0: 21eb 4abc 6cc8 7f3b 02bc 7c3b b25b b03b
000002b0: 2e75 57bc b49f 833b d250 853b c249 ba3b
000002c0: e5f9 99bc b8ee d53b a712 c43b cc24 083c
000002d0: 4a52 99bc b567 483c e8bb a63b 25ae e13b
000002e0: a351 78bc 54a9 c7b9 1a83 843b 751c d83b
000002f0: 7596 72bc 5521 733c 88d4 923b e148 923b
00000300: 275b 6ebc 024c 953b 1f49 943b 36f6 ce3b
00000310: 4f69 5fbc 0bf6 6f3b 14b5 863b 3449 bd3b
00000320: 8b52 9c3c 8a7e e83b e510 6ebb fd57 67bb
00000330: 7a8c a6bb ea83 123c 5750 393b 3b77 0f3b
00000340: 699a 4fbc ecb1 9e3b 1944 873b 9600 bb3b
00000350: 747c 1dbc e8da ecbb 3dbc 7e3a f2c1 c83a
00000360: b6ac aebb aba2 debb ed65 0e3a ced5 8b38
00000370: f21d 37bc 4105 983b cf8c 6d3b 05b7 903b
00000380: 87a2 54bc 441a 843b 400a 843b 6e5c b83b
00000390: d2d6 9a3c 1599 293c 2c81 5abb 01cf 87bb
000003a0: 802b 0cbc 60d0 393b 367c 303b d5b3 753b
000003b0: c282 51bc 7ff3 813b aab1 823b 2577 b83b
000003c0: d1ed 46bc f15a 803b c80b 793b 8d8e ad3b
000003d0: 6880 f2bb 6067 c7bb 3465 9c3a da06 aa3a
000003e0: 4e38 593c bfa0 3b3b 3de7 f9ba 4964 0dbb
000003f0: 9d7a 5bbc 8d6c 893b 1381 883b 5480 be3b

exp_avg_sq f4 [64, 4]
0.0004296102 0.0003846079 1.554998e-05 0.00012184499 0.0005089385 0.0005054884 1.8999308e-05 0.00014289285
0.0004861864 0.00048191237 1.8109513e-05 0.00013511181 0.0006916364 0.0006895573 2.5898811e-05 0.00019715945
0.0005663743 0.00059179467 2.2374192e-05 0.00017269728 0.00056486507 0.0005614941 2.1065962e-05 0.00015863543
0.00060439785 0.0006092069 2.2387554e-05 0.00016871901 0.00010401175 9.3382594e-05 2.2614097e-06 1.6268817e-05
9.1312795e-05 6.7443565e-05 2.7020783e-06 2.2052367e-05 0.00043480255 0.0004621975 1.7145574e-05 0.00013216183
6.159425e-05 6.689899e-05 2.566099e-06 1.6456523e-05 0.0007659611 0.00077453733 2.8734432e-05 0.0002216503
0.00051013153 0.0005096087 1.8932451e-05 0.0001419934 0.0006181718 0.0006200216 2.3211427e-05 0.00017538146
0.00021880683 0.000177052 6.3193547e-06 4.384817e-05 3.704045e-05 3.0535262e-05 9.0092186e-07 8.204777e-06
1.6459071e-05 1.6650329e-05 3.9633443e-07 2.7815984e-06 0.00053928583 0.0005559556 2.0478365e-05 0.00015061241
0.0006305538 0.0006248248 2.3699027e-05 0.0001796863 0.0005384904 0.0005340655 2.0159841e-05 0.00015102461
0.0003759651 0.0003583978 1.4235589e-05 9.9436584e-05 0.00045208505 0.0004424024 1.7108223e-05 0.00012666475
0.0006865552 0.000688521 2.5260824e-05 0.0001879488 7.215032e-05 6.8986046e-05 1.639012e-06 1.1760689e-05
2.4331717e-05 1.7532037e-05 5.334733e-07 4.429364e-06 0.0005908604 0.0005769125 2.2258972e-05 0.00016593882
3.8921968e-05 3.6905312e-05 1.2774841e-06 1.3144939e-05 3.7772606e-05 3.1190113e-05 9.246627e-07 6.966244e-06
0.0005606113 0.00056023494 2.078881e-05 0.00015589764 0.00045082957 0.00043043518 1.725016e-05 0.00012026663
0.00069621985 0.0007002039 2.5957093e-05 0.00019723496 0.0004835228 0.00047824593 1.7851353e-05 0.00013255831
0.00052232895 0.0005240089 2.026061e-05 0.0001512589 8.774911e-05 8.787325e-05 2.373095e-06 1.7470984e-05
0.000530782 0.0005289781 2.0227475e-05 0.00015325777 0.0007583362 0.00076822523 2.8254564e-05 0.00021646376
8.070498e-05 6.528755e-05 1.8575596e-06 1.2746494e-05 2.9297327e-05 2.8803315e-05 1.0660342e-06 9.778129e-06
0.0007216423 0.00072806707 2.6869156e-05 0.0002049417 0.00041407198 0.00042599917 1.5403974e-05 0.000113725895
0.0004674677 0.00047710727 1.7406048e-05 0.00013113172 0.00044815106 0.00036594062 1.6183061e-05 0.00012539608
0.00043871257 0.00042815803 1.6636588e-05 0.00012510504 0.00047468423 0.00046526903 1.82669e-05 0.00013564328
0.001157718 0.0012357507 4.545343e-05 0.0003498213 0.00044670005 0.000410254 1.6924276e-05 0.00012117422
0.00033453922 0.00032165457 1.2459909e-05 8.799917e-05 0.00044116648 0.0004214904 1.678679e-05 0.000121185636
0.00061959826 0.0006171263 2.3366052e-05 0.0001753432 0.00047785864 0.00047443464 1.7904256e-05 0.00013406463
8.818792e-05 6.866434e-05 2.7653798e-06 1.8770997e-05 0.00034926 0.00031476212 1.3307312e-05 9.923031e-05
0.00056885055 0.0005828599 2.1281143e-05 0.00015839908 5.818939e-05 5.0318755e-05 1.6127757e-06 1.6034644e-05
1.0231561e-05 9.574981e-06 3.8365852e-07 2.3844254e-06 0.00035767094 0.00035718255 1.3931765e-05 0.00010164586
0.00045166563 0.0004533863 1.7933178e-05 0.00013423683 9.100961e-05 7.2337025e-05 2.6918867e-06 1.9658424e-05
0.00018749863 0.0001866471 6.937653e-06 5.355919e-05 0.00047610034 0.00044812838 1.7831455e-05 0.00013161683
0.00041117988 0.00041861605 1.5968872e-05 0.000121539946 3.0334599e-05 2.4702638e-05 7.224146e-07 5.1589946e-06
5.8588685e-05 5.6705197e-05 1.3686055e-06 9.493809e-06 0.00048398928 0.0005115533 1.9240217e-05 0.00014974216
00000000: 4e3d e139 33a5 c939 5471 8237 0887 ff38
00000010: 496a 053a c182 043a b460 9f37 82d5 1539
00000020: d6e6 fe39 2fa9 fc39 e2e9 9737 cdac 0d39
00000030: ef4e 353a 68c3 343a 4641 d937 96bc 4e39
00000040: bc78 143a ab22 1b3a 36b0 bb37 1316 3539
00000050: 7413 143a 3b31 133a cfb6 b037 6057 2639
00000060: 7470 1e3a 2fb3 1f3a e8cc bb37 2aea 3039
00000070: e220 da38 66d6 c338 b9c2 1736 0579 8837
00000080: 2f7f bf38 7d70 8d38 5a55 3536 19fd b837
00000090: 36f6 e339 1953 f239 d7d3 8f37 ec94 0a39
000000a0: 292c 8138 1f4c 8c38 3f35 2c36 1d0c 8a37
000000b0: c7ca 483a 520a 4b3a b90a f137 cd6a 6839
000000c0: 59ba 053a 4397 053a 21d1 9e37 10e4 1439
000000d0: cf0c 223a f288 223a 29b6 c237 9ae6 3739
000000e0: 836f 6539 09a7 3939 d80a d436 9de9 3738
000000f0: e15b 1b38 fd12 0038 e1d6 7135 40a7 0937
00000100: 9611 8a37 4fac 8b37 cac7 d434 7fab 3a36
00000110: dc5e 0d3a 8cbd 113a f4c8 ab37 b6ed 1d39
00000120: c04b 253a 48cb 233a 46cd c637 2d6a 3c39
00000130: 7b29 0d3a 8700 0c3a ee1c a937 5c5c 1e39
00000140: 2e1d c539 57e7 bb39 64d5 6e37 9c88 d038
00000150: d405 ed39 3ff2 e739 a183 8f37 4fd1 0439
00000160: f1f9 333a dd7d 343a 35e7 d337 1f14 4539
00000170: 684f 9738 9aac 9038 06fc db35 c64f 4537
00000180: f71b cc37 c311 9337 0234 0f35 f29f 9436
00000190: f8e3 1a3a f13b 173a c7b8 ba37 ddff 2d39
000001a0: 2540 2338 c7ca 1a38 0576 ab35 1589 5c37
000001b0: 076e 1e38 21d2 0238 5636 7835 95bf e936
000001c0: fdf5 123a bbdc 123a a163 ae37 7478 2339
000001d0: 525d ec39 08ac e139 70b4 9037 a837 fc38
000001e0: 8682 363a e38d 373a 6fbe d937 dbd0 4e39
000001f0: 5581 fd39 15bd fa39 7dbf 9537 5aff 0a39
00000200: e7ec 083a a45d 093a 54f5 a937 409b 1e39
00000210: f205 b838 9848 b838 7641 1f36 a78e 9237
00000220: 2d24 0b3a 1fab 0a3a 2cae a937 d2b3 2039
00000230: 15cb 463a b962 493a 3704 ed37 8cfa 6239
00000240: 2840 a938 fdea 8838 4351 f935 c6d9 5537
00000250: 88c3 f537 a69e f137 a814 8f35 bf0c 2437
00000260: 982c 3d3a c1db 3e3a 1365 e137 9ee5 5639
00000270: cd17 d939 a458 df39 c837 8137 2080 ee38
00000280: 7416 f539 4124 fa39 3403 9237 6780 0939
00000290: d1f5 ea39 b8db bf39 dcc0 8737 c17c 0339
000002a0: 0103 e639 667a e039 cd8e 8b37 a12e 0339
000002b0: 0adf f839 5aef f339 de3b 9937 773b 0e39
000002c0: 92be 973a eaf8 a13a 40a5 3e38 3868 b739
000002d0: 1133 ea39 5c17 d739 9bf8 8d37 ea1e fe38
000002e0: 1865 af39 bfa3 a839 e70a 5137 328c b838
000002f0: 5d4c e739 7cfb dc39 5bd1 8c37 0b25 fe38
00000300: 896c 223a a5c6 213a 3702 c437 55dc 3739
00000310: 1a89 fa39 8abd f839 1931 9637 b393 0c39
00000320: 87f1 b838 e3ff 8f38 dd94 3936 6976 9d37
00000330: e21c b739 a806 a539 7842 5f37 de19 d038
00000340: ea1e 153a 11cb 183a e884 b237 ee17 2639
00000350: 6210 7438 5a0d 5338 8d76 d835 2382 8637
00000360: 38a8 2b37 3ba4 2037 a0f9 cd34 1e04 2036
00000370: c885 bb39 3b44 bb39 7abc 6937 b52a d538
00000380: 89cd ec39 7bb4 ed39 356f 9637 edc1 0c39
00000390: 6adc be38 a5b3 9738 43a6 3436 25e8 a437
000003a0: 489b 4439 b3b6 4339 fcc9 e836 bea4 6038
000003b0: 1b9d f939 c6f2 ea39 c294 9537 a002 0a39
000003c0: a193 d739 b279 db39 e4f4 8537 43e3 fe38
000003d0: 0e77 fe37 8338 cf37 f4eb 4135 6d1b ad36
000003e0: 1fbd 7538 bed6 6d38 edb0 b735 9947 1f37
000003f0: f1bf fd39 c319 063a 0d66 a137 1b04 1d39

exp_avg f4 [64]
0.005838302 0.007927806 0.007949782 0.00900869 0.00822015 0.007413992 0.0058516115 -0.008642971
-0.0029237 0.0067945826 -0.0024436032 0.008226056 0.0060275327 0.007129393 -0.020617517 -0.0030624059
-0.0028400733 0.006479801 0.008396064 0.006588267 0.00495681 0.006512344 0.006651716 -0.006640074
-0.0036167013 0.009268529 -0.004821874 -0.0026956068 0.0063255574 0.007145564 0.006958752 0.006284845
0.0077028805 -0.005654163 0.0076208273 0.006833783 -0.011044492 -0.005169055 0.0075818356 0.0056426
0.0061150044 0.005588499 0.0066183307 0.0071267816 0.009547245 0.0108178 0.0031461976 0.012254687
0.007791555 0.007795436 -0.014722027 0.0020215458 0.006082566 -0.004211176 -0.0005426642 0.005907456
0.0069791186 -0.012253632 0.004464423 0.0070021846 0.006415607 -0.0017911451 -0.0050877766 0.0071794647
00000000: 3a4f bf3b a1e3 013c cd3f 023c 2f99 133c
00000010: cfad 063c 13f1 f23b e0be bf3b 3f9b 0dbc
00000020: 8c9b 3fbb 17a5 de3b dc24 20bb 94c6 063c
00000030: 9c82 c53b af9d e93b 11e6 a8bc a5b2 48bb
00000040: 8620 3abb 8354 d43b a58f 093c 64e2 d73b
00000050: bc6c a23b 8065 d53b a3f6 d93b fa94 d9bb
00000060: 2e06 6dbb 07db 173c d000 9ebb c7a8 30bb
00000070: 9f46 cf3b 5625 ea3b 3e06 e43b 1af1 cd3b
00000080: 7268 fc3b 8f46 b9bb 22b8 f93b eded df3b
00000090: f5f3 34bc 2d61 a9bb 0c71 f83b 8fe5 b83b
000000a0: 6060 c83b ba1f b73b 95de d83b c787 e93b
000000b0: 0c6c 1c3c 243d 313c 7030 4e3b e2c7 483c
000000c0: 4d50 ff3b db70 ff3b a834 71bc e97b 043b
000000d0: 4350 c73b e8fd 89bb 9441 0eba 5593 c13b
000000e0: 17b1 e43b 75c3 48bc 4b4a 923b 9572 e53b
000000f0: 033a d23b dbc4 eaba 5db7 a6bb b741 eb3b

exp_avg_sq f4 [64]
0.0015953435 0.0018632864 0.0017676612 0.0026219033 0.0022593862 0.002064103 0.002234524 9.0609734e-05
0.00011278998 0.001702079 0.00011299082 0.0029891687 0.0018564755 0.0023372392 0.00018303913 4.0817667e-05
1.5740861e-05 0.001983932 0.0023579544 0.001987472 0.0013813565 0.0016602017 0.0025779617 6.477591e-05
2.2971735e-05 0.002253162 5.4274657e-05 4.1606276e-05 0.002023342 0.0017156797 0.0026196984 0.0017492292
0.0019924878 8.833672e-05 0.0019752167 0.0029046154 5.897155e-05 4.7750447e-05 0.0027602538 0.0015324261
0.0017251772 0.0016551554 0.0016159842 0.0017795578 0.004884818 0.0016252946 0.0011744435 0.0016375681
0.0023188968 0.0017466457 7.34466e-05 0.0014263196 0.0021124599 7.144975e-05 1.57203e-05 0.0013740762
0.0017591312 7.327272e-05 0.0006438902 0.0017451759 0.0015582462 3.1849875e-05 5.43773e-05 0.001925515
00000000: d81a d13a 8439 f43a deb0 e73a 3dd4 2b3b
00000010: 3612 143b e745 073b 1871 123b bb05 be38
00000020: a989 ec38 4b18 df3a 7cf5 ec38 eee5 433b
00000030: fb54 f33a 5e2c 193b 31ee 3f39 a333 2b38
00000040: 3e0b 8437 db04 023b e987 1a3b 3f40 023b
00000050: a20e b53a 209b d93a 05f3 283b 4dd8 8738
00000060: 6db3 c037 c9a9 133b f8a4 6338 6682 2e38
00000070: 0c9a 043b a8e0 e03a 3faf 2b3b 6446 e53a
00000080: 6694 023b 6a41 b938 a372 013b 5c5b 3e3b
00000090: 3858 7738 a747 4838 60e5 343b b0db c83a
000000a0: 571f e23a cdf1 d83a 6fcf d33a 0d40 e93a
000000b0: d310 a03b d607 d53a c9ef 993a aba3 d63a
000000c0: a2f8 173b b4ef e43a 5807 9a38 58f3 ba3a
000000d0: 3271 0a3b 4bd7 9538 16df 8337 591a b43a
000000e0: a692 e63a fea9 9938 bdca 283a 63be e43a
000000f0: 113e cc3a 8b96 0538 2e13 6438 9061 fc3a

exp_avg f4 [2, 64]
0.0018421181 0.0024145618 0.002165449 0.0020652337 0.0013930337 0.0028757716 0.00279867 0.001009051
-0.00013423621 0.0018440331 -0.00015448182 0.0022810337 0.0027791087 0.002626353 0.0011665658 -6.0237377e-05
0.0009778553 0.0017763897 0.0016286303 0.002307462 0.0031523353 0.002502378 0.002538161 0.00070552924
-0.00013875694 0.0023092276 2.0778294e-05 -8.535866e-05 0.0028004206 0.0030365125 0.0020874548 0.0027389855
0.0016025001 0.0005003984 0.0014370278 0.0027578168 0.0016825949 0.00010029269 0.0024729755 0.0033754848
0.003212597 0.0018817624 0.0025068864 0.0018783346 0.0013683623 0.0025578851 0.0032185463 0.0026522805
0.001519304 0.0025197912 0.0012978179 0.0013603063 0.00187328 -4.2674135e-05 -8.6646556e-05 0.0019592831
0.0017742716 0.0013673862 0.0016269248 0.002423084 0.0021915277 -0.00015865751 0.00075377786 0.0017885427
-0.0018421178 -0.002414562 -0.002165449 -0.0020652337 -0.0013930337 -0.0028757714 -0.0027986702 -0.0010090509
0.00013423625 -0.001844033 0.00015448182 -0.0022810337 -0.0027791085 -0.0026263527 -0.0011665658 6.0237417e-05
-0.0009778552 -0.0017763893 -0.0016286303 -0.0023074618 -0.0031523358 -0.0025023783 -0.0025381607 -0.00070552924
0.000138757 -0.0023092274 -2.0778245e-05 8.535873e-05 -0.0028004206 -0.0030365118 -0.0020874545 -0.002738985
-0.0016025001 -0.0005003984 -0.0014370277 -0.0027578168 -0.0016825949 -0.000100292695 -0.0024729755 -0.0033754846
-0.003212597 -0.0018817623 -0.0025068868 -0.0018783344 -0.0013683622 -0.0025578854 -0.0032185463 -0.0026522805
-0.001519304 -0.0025197912 -0.0012978179 -0.0013603062 -0.0018732799 4.267417e-05 8.664658e-05 -0.0019592831
-0.0017742715 -0.0013673861 -0.0016269247 -0.002423084 -0.0021915282 0.00015865757 -0.00075377786 -0.0017885426
00000000: 3a73 f13a a03d 1e3b 35ea 0d3b df58 073b
00000010: 7496 b63a 7177 3c3b e469 373b 2242 843a
00000020: c2c1 0cb9 7cb3 f13a 66fc 21b9 657d 153b
00000030: b521 363b e41e 2c3b 74e7 983a 64a7 7cb8
00000040: 612b 803a bfd5 e83a c477 d53a ca38 173b
00000050: 6997 4e3b f0fe 233b 4657 263b 44f3 383a
00000060: 487f 11b9 6956 173b 0c4d ae37 9502 b3b8
00000070: 4387 373b 3a00 473b aecd 083b 8d80 333b
00000080: fb0a d23a 2b2d 033a a75a bc3a 7dbc 343b
00000090: 848a dc3a 3a54 d238 a511 223b 3d37 5d3b
000000a0: 6f8a 523b 78a5 f63a 934a 243b 7332 f63a
000000b0: 9f5a b33a 31a2 273b 3fee 523b e2d1 2d3b
000000c0: 6223 c73a 1523 253b 8b1b aa3a 4e4c b23a
000000d0: d988 f53a 01fd 32b8 04b6 b5b8 5167 003b
000000e0: ad8e e83a de39 b33a 8a3e d53a 9bcc 1e3b
000000f0: bc9f 0f3b 4d5d 26b9 2d99 453a 896d ea3a
00000100: 3773 f1ba a13d 1ebb 35ea 0dbb df58 07bb
00000110: 7496 b6ba 7077 3cbb e569 37bb 2142 84ba
00000120: c5c1 0c39 7bb3 f1ba 66fc 2139 657d 15bb
00000130: b421 36bb e31e 2cbb 74e7 98ba 6fa7 7c38
00000140: 602b 80ba bcd5 e8ba c477 d5ba c938 17bb
00000150: 6b97 4ebb f1fe 23bb 4557 26bb 44f3 38ba
00000160: 4c7f 1139 6856 17bb f14c aeb7 9f02 b338
00000170: 4387 37bb 3700 47bb adcd 08bb 8b80 33bb
00000180: fb0a d2ba 2b2d 03ba a65a bcba 7dbc 34bb
00000190: 848a dcba 3b54 d2b8 a511 22bb 3c37 5dbb
000001a0: 6f8a 52bb 77a5 f6ba 954a 24bb 7232 f6ba
000001b0: 9e5a b3ba 32a2 27bb 3fee 52bb e2d1 2dbb
000001c0: 6223 c7ba 1523 25bb 8b1b aaba 4d4c b2ba
000001d0: d888 f5ba 0bfd 3238 07b6 b538 5167 00bb
000001e0: ac8e e8ba dd39 b3ba 893e d5ba 9bcc 1ebb
000001f0: be9f 0fbb 515d 2639 2d99 45ba 886d eaba

exp_avg_sq f4 [2, 64]
2.2226017e-05 2.7425302e-05 2.8984312e-05 1.9350256e-05 1.7431827e-05 2.581205e-05 1.9638837e-05 3.6806664e-06
1.641297e-06 2.2360617e-05 1.8117142e-06 2.1023776e-05 2.5015632e-05 2.1559388e-05 2.4834026e-06 1.3802272e-06
5.749066e-06 1.963414e-05 1.6417845e-05 1.9515368e-05 4.024303e-05 2.289445e-05 1.8940042e-05 1.830052e-06
1.7890738e-06 2.5853024e-05 7.852341e-07 1.6581816e-06 2.315868e-05 3.442423e-05 1.6372662e-05 3.087818e-05
1.8176353e-05 2.2666445e-06 2.0138154e-05 1.8601206e-05 8.398717e-06 7.041766e-07 2.0196547e-05 3.4910052e-05
3.252942e-05 2.1954946e-05 2.3191762e-05 2.2159575e-05 1.3008365e-05 3.2302665e-05 3.5247183e-05 3.455468e-05
1.6821787e-05 2.9574585e-05 2.7921617e-06 2.4344316e-05 1.881706e-05 9.362573e-07 5.16627e-07 2.3827744e-05
2.186831e-05 3.049525e-06 1.4444775e-05 2.0109268e-05 2.4054465e-05 3.2364892e-06 2.3645064e-06 1.9209867e-05
2.2226013e-05 2.7425298e-05 2.8984316e-05 1.935027e-05 1.7431827e-05 2.5812047e-05 1.9638836e-05 3.680666e-06
1.6412968e-06 2.2360613e-05 1.8117147e-06 2.102378e-05 2.5015634e-05 2.1559388e-05 2.4834028e-06 1.3802273e-06
5.749066e-06 1.9634143e-05 1.6417845e-05 1.9515372e-05 4.0243034e-05 2.2894448e-05 1.8940042e-05 1.8300523e-06
1.7890736e-06 2.5853024e-05 7.852341e-07 1.6581818e-06 2.315868e-05 3.442423e-05 1.637266e-05 3.087818e-05
1.8176355e-05 2.2666445e-06 2.013815e-05 1.8601208e-05 8.398718e-06 7.0417656e-07 2.0196547e-05 3.491005e-05
3.2529424e-05 2.1954947e-05 2.3191762e-05 2.2159575e-05 1.3008364e-05 3.2302665e-05 3.5247187e-05 3.455468e-05
1.6821788e-05 2.9574581e-05 2.7921617e-06 2.4344317e-05 1.8817063e-05 9.362574e-07 5.166269e-07 2.3827743e-05
2.186831e-05 3.0495253e-06 1.4444774e-05 2.0109268e-05 2.4054465e-05 3.236489e-06 2.3645066e-06 1.9209867e-05
00000000: 0272 ba37 630f e637 5623 f337 5c52 a237
00000010: 903a 9237 f586 d837 15be a437 5e01 7736
00000020: 894a dc35 0f93 bb37 072a f335 375c b037
00000030: a9d8 d137 6fda b437 88a8 2636 3f40 b935
00000040: 1ae8 c036 ffb3 a437 0eb9 8937 efb4 a337
00000050: a0ca 2838 750d c037 6ee1 9e37 1ca0 f535
00000060: 1c20 f035 f2de d837 e0c8 5235 b08e de35
00000070: e344 c237 bc62 1038 0658 8937 3183 0138
00000080: 6c79 9837 a81c 1836 5bee a837 c909 9c37
00000090: 37e8 0c37 a606 3d35 c16b a937 626c 1238
000000a0: 3370 0838 e32b b837 ee8b c237 53e3 b937
000000b0: 813e 5a37 b97c 0738 60d6 1338 ceee 1038
000000c0: 831c 8d37 f016 f837 f960 3b36 0537 cc37
000000d0: 54d9 9d37 1d53 7b35 56ae 0a35 b1e1 c737
000000e0: d771 b737 71a6 4c36 d657 7237 53b0 a837
000000f0: 92c8 c937 7632 5936 e9ad 1e36 e024 a137
00000100: 0072 ba37 610f e637 5823 f337 6352 a237
00000110: 903a 9237 f386 d837 14be a437 5c01 7736
00000120: 874a dc35 0d93 bb37 0b2a f335 395c b037
00000130: aad8 d137 6fda b437 89a8 2636 4040 b935
00000140: 1ae8 c036 00b4 a437 0eb9 8937 f1b4 a337
00000150: a1ca 2838 740d c037 6ee1 9e37 1ea0 f535
00000160: 1a20 f035 f2de d837 e0c8 5235 b18e de35
00000170: e344 c237 bc62 1038 0558 8937 3183 0138
00000180: 6d79 9837 a81c 1836 59ee a837 ca09 9c37
00000190: 38e8 0c37 a506 3d35 c16b a937 616c 1238
000001a0: 3470 0838 e42b b837 ee8b c237 53e3 b937
000001b0: 7f3e 5a37 b97c 0738 61d6 1338 ceee 1038
000001c0: 841c 8d37 ee16 f837 f960 3b36 0637 cc37
000001d0: 56d9 9d37 1e53 7b35 55ae 0a35 b0e1 c737
000001e0: d771 b737 72a6 4c36 d557 7237 53b0 a837
000001f0: 92c8 c937 7532 5936 eaad 1e36 e024 a137

exp_avg f4 [2]
0.0029270067 -0.0029270067
00000000: 06d3 3f3b 06d3 3fbb

exp_avg_sq f4 [2]
5.023345e-05 5.023345e-05
00000000: c2b1 5238 c2b1 5238

exp_avg f4 [1, 64]
0.0074252184 0.0027780617 -4.3366283e-05 0.0025355574 -4.3686654e-05 0.0080840625 0.012031141 0.015847553
0.013423616 0.0036069702 0.009141464 0.0041845976 0.00806556 0.007319931 0.019261813 0.011608515
0.0132276695 0.0034351365 0.0012733007 0.00901118 0.0076122074 0.009241083 0.009342964 0.010328453
0.016649349 0.0023204884 0.008352735 0.012602393 0.008876425 0.008649146 0.0054091434 0.004963106
0.001487165 0.0059425966 -0.00027871775 0.0110564325 0.027410462 0.0057121376 0.0064029493 0.011241774
0.009647838 0.009144205 0.009203703 0.003518184 0.0012982487 0.00082961016 0.009608942 0.0020343629
0.0017025156 0.0030974024 0.021368936 0.0044930056 0.004877915 0.009636771 0.00690084 0.0038619554
0.0026662783 0.021909723 0.0049514165 0.009093781 0.0069387225 0.016526148 0.011288231 0.0038831925
00000000: 3f4f f33b 2410 363b 31e4 35b8 982b 263b
00000010: 303c 37b8 0473 043c 431e 453c bad2 813c
00000020: baee 5b3c eb62 6c3b 14c6 153c f31e 893b
00000030: 6925 043c 08dc ef3b f3ca 9d3c a431 3e3c
00000040: deb8 583c 0720 613b e2e4 a63a a1a3 133c
00000050: d36f f93b e967 173c 3b13 193c ac38 293c
00000060: 3764 883c 5613 183b e9d9 083c 447a 4e3c
00000070: 6d6e 113c 26b5 0d3c 2f3f b13b 8da1 a23b
00000080: faec c23a 1dba c23b dd20 92b9 0a26 353c
00000090: e88b e03c e22c bb3b d5cf d13b 6b2f 383c
000000a0: f711 1e3c 93d1 153c 21cb 163c 5591 663b
000000b0: ff29 aa3a 327a 593a d36e 1d3c f252 053b
000000c0: f226 df3a cafd 4a3b e80d af3c 103a 933b
000000d0: ebd6 9f3b 8ce3 1d3c 7120 e23b dc18 7d3b
000000e0: babc 2e3b 057c b33c 7e3f a23b 15fe 143c
000000f0: 395e e33b d861 873c 46f2 383c 297d 7e3b

exp_avg_sq f4 [1, 64]
0.001833052 0.0021378065 0.0022304314 0.0016373248 0.001707933 0.0020971664 0.00167856 0.0001024238
0.00010736449 0.0020987326 0.00014175182 0.001575005 0.002142352 0.0017006238 9.844675e-05 6.87878e-05
0.00014369952 0.001987614 0.001652395 0.0018975735 0.0026512244 0.0021976435 0.0015546893 4.795118e-05
0.000111980735 0.0018504682 3.810208e-05 8.443217e-05 0.0020302327 0.0020753725 0.0015659762 0.0023602333
0.0018332063 5.9458533e-05 0.0020857502 0.00147726 0.00026546692 3.2558582e-05 0.0015842918 0.00240759
0.0023478107 0.0017463119 0.0022018817 0.0022378091 0.001309118 0.0022605434 0.0022803652 0.0023859523
0.0017660816 0.0022709463 0.00011814986 0.0018824507 0.0018622644 4.8368307e-05 4.318643e-05 0.0022026452
0.0021729292 0.000138093 0.0012579617 0.0018125152 0.0022378599 0.00016370605 6.265648e-05 0.0018274997
00000000: 0543 f03a 711a 0c3b 6e2c 123b 819b d63a
00000010: b9dc df3a 9d70 093b 2103 dc3a 5ccc d638
00000020: df28 e138 e48a 093b 37a3 1439 6670 ce3a
00000030: b466 0c3b 77e7 de3a 3275 ce38 2b42 9038
00000040: 0cae 1639 a142 023b 2d95 d83a 00b8 f83a
00000050: 2ac0 2d3b 5706 103b b7c6 cb3a 301f 4938
00000060: 33d7 ea38 698b f23a cccf 1f38 2d11 b138
00000070: a70d 053b f902 083b 7141 cd3a 25ae 1a3b
00000080: 3248 f03a 1d63 7938 15b1 083b 9fa0 c13a
00000090: 5e2e 8b39 838f 0838 03a8 cf3a a8c8 1d3b
000000a0: badd 193b 81e4 e43a 724d 103b 35a8 123b
000000b0: b696 ab3a a025 143b 2e72 153b a35d 1c3b
000000c0: dd7b e73a 28d4 143b 39c7 f738 90bc f63a
000000d0: 3917 f43a 13df 4a38 1323 3538 415a 103b
000000e0: b467 0e3b 0fcd 1039 31e2 a43a eb91 ed3a
000000f0: 0fa9 123b 82a8 2b39 7166 8338 b788 ef3a
