savedModels/ppo_cartpole_61440.pth (torch, 13659 bytes, 15 tensors)

shared_fc.0.weight f4 [64, 4]
0	0xbc657ef6	-0.014007321
1	0x3ecada2b	0.39619574
2	0x3e44c894	0.1921714
3	0xbe65ffd1	-0.22460867
4	0xbdcaa354	-0.098944336
5	0xbdc9bce9	-0.09850485
6	0xbf2c68bc	-0.6734731
7	0xbe3dedd9	-0.18547763
8	0xbd66b61e	-0.056326024
9	0xbec3c045	-0.38232628
10	0xbec843b3	-0.3911415
11	0xbec5d833	-0.3864151
12	0xbd76b127	-0.06022754
13	0xbdb6a2d0	-0.08917773
14	0xbee08976	-0.43854874
15	0xbe2401b4	-0.16016275
16	0x3d3a09a8	0.045419365
17	0x3caf6497	0.02141027
18	0xbf364067	-0.7119202
19	0xbe058d71	-0.13042237
20	0xbc67a980	-0.014139533
21	0x3d914c95	0.07094685
22	0xbebc0c6f	-0.36728236
23	0xbe10b9af	-0.14133333
24	0xbe2ee911	-0.17081095
25	0x3e2e76ee	0.17037556
26	0x3ef5b2c4	0.4798795
27	0x3e95aa96	0.2923171
28	0xbce8595c	-0.028362922
29	0xbcb6e5d7	-0.022326393
30	0xbe685fa7	-0.22692738
31	0xbe16abb0	-0.14713931
32	0x3e2fa3d3	0.17152338
33	0xbd6c17cf	-0.057639893
34	0xbd9304d9	-0.07178659
35	0x3da41b10	0.08012974
36	0x3e8a986e	0.2706942
37	0x3e082ce5	0.13298376
38	0x3e161ace	0.14658663
39	0xbe6a1b9d	-0.22862096
40	0x3e9f8153	0.31153354
41	0xbeaf2dfd	-0.34214774
42	0xbe7903ac	-0.24317807
43	0xbd95a0a8	-0.073060334
44	0xba3d36c8	-0.0007217941
45	0xbe28699f	-0.16446541
46	0xbe1fea80	-0.15616798
47	0x3da8f114	0.08249107
48	0xbc7ea568	-0.015542366
49	0x3d730e94	0.059340075
50	0x3ed68aae	0.4190268
51	0x3e54e1b7	0.20789228
52	0xbdb7466e	-0.0894898
53	0x3c152d70	0.009105071
54	0x3e5b2792	0.21401814
55	0x3d38dc17	0.04513177
56	0x3d1e0041	0.03857446
57	0x3dba8fc9	0.09109456
58	0xbe2d37a4	-0.16915756
59	0xbd857da4	-0.06518105
60	0x3d97b3c9	0.07407338
61	0x3d9685f3	0.073497675
62	0x3e163901	0.14670183
63	0x3e1619bd	0.14658256
64	0xbd8fa08d	-0.070130445
65	0xbe955d12	-0.2917257
66	0xbe4a930a	-0.19782653
67	0xbe00220a	-0.12512985
68	0x3e91e381	0.28493884
69	0x3e6407f0	0.22268653
70	0x3cf82cf3	0.030294871
71	0x3d78bdd5	0.060727913
72	0xba1fa520	-0.0006089974
73	0xbd758879	-0.059944604
74	0xbea77267	-0.3270447
75	0xbe22aeed	-0.15887041
76	0xbe4c2f35	-0.19939883
77	0x3e7fe3e3	0.24989276
78	0x3ea7eb72	0.32796818
79	0x3e0039ca	0.12522045
80	0xbd70c6b9	-0.058783267
81	0xbda698c3	-0.08134606
82	0x3ea6cdb0	0.32578802
83	0x3e79b662	0.2438598
84	0xbe48624f	-0.19568752
85	0x3e60ef3d	0.21966262
86	0x3eee1844	0.46502888
87	0xbdc3d297	-0.09561651
88	0x3d3549c3	0.044259798
89	0x3e0c1265	0.13678892
90	0x3e414048	0.18872178
91	0x3ed6849c	0.41898048
92	0x3d297c0c	0.041378066
93	0xbdc13537	-0.09433978
94	0xbdab0b37	-0.083517484
95	0xbc3dbc51	-0.011580543
96	0x3dabec9c	0.08394739
97	0x3c452447	0.012032575
98	0xbd91c85a	-0.07118292
99	0x3e985342	0.2975102
100	0x3d6cbc0b	0.05779652
101	0xbe98d07b	-0.29846558
102	0xbe9c6d96	-0.30552357
103	0xbdb8e6fc	-0.09028432
104	0x3c9f5b81	0.019452812
105	0x3dd74ea1	0.10513044
106	0x3e907e95	0.28221574
107	0x3dccef4e	0.10006581
108	0x3e1669e3	0.1468883
109	0x3d14de17	0.036344614
110	0x3e435c7a	0.19078246
111	0x3dd578d4	0.10423437
112	0xbd812bc0	-0.06307173
113	0x3d8705af	0.06592881
114	0x3ee25c32	0.44210964
115	0x3e3e26d2	0.18569496
116	0xbe01a867	-0.12661897
117	0xbe8ad510	-0.2711568
118	0x3f069bf0	0.5258169
119	0x3e81289a	0.2522629
120	0x3e07f284	0.13276106
121	0x3b051657	0.0020307505
122	0x3f0ee98f	0.5582513
123	0x3e0a0938	0.13480079
124	0x3d53559d	0.05159532
125	0xbdf7b8ba	-0.12095781
126	0x3e7f9167	0.2495781
127	0xbcad1e97	-0.02113275
128	0xbbe2ec2c	-0.0069251265
129	0xbcb6950a	-0.022287864
130	0xbed633d6	-0.41836423
131	0xbdf8ced1	-0.12148822
132	0x3e18bb42	0.14915183
133	0xbe24faad	-0.1611125
134	0xbdd01f51	-0.10162223
135	0xbe9e07c8	-0.30865312
136	0x3e984df6	0.2974698
137	0xbd9a9bc5	-0.07549242
138	0xbede5986	-0.43427676
139	0xbdf7a59f	-0.120921366
140	0xbe1a1adb	-0.15049307
141	0x3e0a8ff6	0.13531479
142	0x3ed9af9e	0.42516798
143	0x3e5535fb	0.20821373
144	0xbe6eb0b6	-0.23309597
145	0xbc3bf74f	-0.011472537
146	0x3e0d31c6	0.13788518
147	0xbe260fd3	-0.16216974
148	0xbcdfb46b	-0.02730771
149	0x3e8bb19c	0.27283943
150	0x3e55c35c	0.20875305
151	0x3e0f2ffe	0.13983151
152	0xbcd49853	-0.02595154
153	0xbd8160b5	-0.063172735
154	0x3ea92b4c	0.33040845
155	0x3d334315	0.043765146
156	0xbe9c1d24	-0.30490983
157	0x3d573feb	0.05255119
158	0x3deffc26	0.117180154
159	0x3ead0efb	0.33800492
160	0xbe73659f	-0.23769234
161	0xbcac407c	-0.021026842
162	0x3f128035	0.5722688
163	0x3ded5bc5	0.11589769
164	0xbe352ad4	-0.17692119
165	0x3eed3f8b	0.46337542
166	0x3d67a21c	0.056551084
167	0xbe3a0c34	-0.18168718
168	0xbe80e0ae	-0.25171417
169	0x3e6de613	0.23232298
170	0xbe871af9	-0.26387766
171	0xbdc3aba1	-0.0955422
172	0x3da002b6	0.07813017
173	0xbd9775cb	-0.07395514
174	0xbe6592b8	-0.2241925
175	0xbe089ac9	-0.13340296
176	0x3efa5b95	0.48897997
177	0x3d0aa2bd	0.033846606
178	0xbde90f7e	-0.11379908
179	0x3e4140cd	0.18872376
180	0x3e5a0950	0.21292615
181	0xbeb87648	-0.3602774
182	0x3e962245	0.2932302
183	0x3db13cf6	0.086542055
184	0xbccb5ecf	-0.024825482
185	0xbdf44836	-0.11927836
186	0x3f53be96	0.82712686
187	0x3e39cb4b	0.18143956
188	0x3dce2fe9	0.10067732
189	0xbea91f6a	-0.3303178
190	0x3e9a8e66	0.30186766
191	0xbcc72f18	-0.024314448
192	0x3dc11297	0.09427374
193	0xbd94d6e6	-0.07267551
194	0x3e573cc5	0.21019275
195	0xbd477909	-0.048699412
196	0xbdcbeab7	-0.09956878
197	0xbe451fa4	-0.19250351
198	0xbed0c6ef	-0.40776774
199	0xbe9e1f60	-0.30883312
200	0xbd3c2612	-0.045934744
201	0x39a18ddc	0.00030814006
202	0x3ea76287	0.32692358
203	0x3e160bb3	0.146529
204	0x3e57d26b	0.21076362
205	0x3ea74a59	0.3267391
206	0xbc499ebe	-0.0123059135
207	0xbefb742b	-0.49112067
208	0x3e4a98f9	0.19784917
209	0x3ddbfa17	0.1074106
210	0x3eea8c15	0.4581
211	0x3e7f5873	0.24936084
212	0x3d0546fd	0.032538403
213	0x3cb1d32f	0.021707145
214	0x3ed9628b	0.42457995
215	0x3d50882a	0.050911106
216	0x3d32ccd9	0.04365239
217	0x3ce98033	0.028503513
218	0xbed6ae3e	-0.4192981
219	0xbe733221	-0.23749591
220	0xbd1c975c	-0.038230285
221	0x3d4c3976	0.049859487
222	0xbe1be11b	-0.1522259
223	0xbed29480	-0.41128922
224	0x3e56a93f	0.20963
225	0x3ce6f8a1	0.028194727
226	0xbdb4beec	-0.08825478
227	0xbe075d90	-0.13219285
228	0xbe3cc692	-0.18435124
229	0x3d743fef	0.059631284
230	0x3ce41193	0.027840411
231	0x3e85a003	0.26098642
232	0x3e8262e7	0.25466082
233	0x3e6ea7c3	0.23306184
234	0xbe993de8	-0.29930043
235	0xbdc6b9fc	-0.097034425
236	0xbecb35ab	-0.39689383
237	0x3e75bc5b	0.23997633
238	0xbd5e4f73	-0.054274987
239	0xbe9ebb15	-0.31002107
240	0x3b42a3c4	0.0029699663
241	0x3e50ebfa	0.20402518
242	0xbd900785	-0.07032684
243	0xbdf32449	-0.11872155
244	0x3ec1270f	0.37725112
245	0x3d1e98a5	0.038719792
246	0x3ec53727	0.3851864
247	0x3b27613a	0.002554013
248	0x3d7321bd	0.059358347
249	0xbd4fb720	-0.05071175
250	0xbf1d068c	-0.61338115
251	0x3d15f4f4	0.03661056
252	0x3d460701	0.048346523
253	0x3e35fd89	0.17772497
254	0xbda6b04f	-0.08139097
255	0xbe4771fd	-0.19477077

shared_fc.0.bias f4 [64]
0	0x3edd4af7	0.43221256
1	0x3f02eee7	0.51145786
2	0x3ef5c32e	0.48000473
3	0x3efac811	0.48980764
4	0x3f0276b1	0.5096236
5	0xbe269d28	-0.16270888
6	0x3ee74ace	0.4517426
7	0xbe05d021	-0.13067676
8	0xbe492a1d	-0.19644971
9	0x3ef46358	0.47732043
10	0xbde9c245	-0.11414007
11	0x3ee5cddd	0.44883624
12	0x3ee5f936	0.44916695
13	0x3ef267e2	0.4734488
14	0xbe3a656b	-0.1820275
15	0xbe434c14	-0.1907199
16	0xbdfec812	-0.12440504
17	0xbcd808ce	-0.026371386
18	0x3f01a5c4	0.50643563
19	0x3efcd386	0.4938013
20	0x3f091f92	0.535638
21	0x3f08fa02	0.5350648
22	0x3eeed555	0.46647134
23	0xbe04f588	-0.12984288
24	0xbe4a3f3a	-0.19750682
25	0x3ee91424	0.4552318
26	0xbde72c84	-0.112877876
27	0xbe53ff58	-0.20702875
28	0x3eb7813f	0.35840794
29	0x3ee77fee	0.4521479
30	0x3ef8c98e	0.48591274
31	0x3f05771c	0.5213487
32	0x3f078c4d	0.52948457
33	0xbe2e1ced	-0.17003222
34	0x3ef6b3e4	0.4818412
35	0x3ee7fadd	0.4530858
36	0xbe7c231a	-0.24622765
37	0xbe23727f	-0.15961646
38	0x3eeed05d	0.46643344
39	0x3efa1801	0.4884644
40	0x3ee98326	0.4560787
41	0x3edd726c	0.4325136
42	0x3f0927d2	0.53576386
43	0x3f093b91	0.53606516
44	0x3edc32e1	0.43007568
45	0x3f011e8c	0.50437236
46	0x3c94ae89	0.018149631
47	0x3f019bc4	0.50628304
48	0x3f02b4e3	0.5105726
49	0x3efc4a32	0.49275357
50	0xbe00e57d	-0.12587543
51	0x3edba4c3	0.4289914
52	0x3f043da4	0.51656556
53	0x3e347658	0.1762327
54	0xbe31695a	-0.17325345
55	0x3f0c0c86	0.5470661
56	0x3f01e359	0.5073753
57	0xbe551fa3	-0.2081285
58	0xbe73f2a8	-0.23823035
59	0x3ee8aaa6	0.45442694
60	0x3ea521f6	0.32252473
61	0xbe42184e	-0.18954584
62	0x3eb4c1f1	0.35304216
63	0x3ef0dc1c	0.4704293

actor_head.weight f4 [2, 64]
0	0x3b401369	0.0029308444
1	0x3e648c0d	0.2231905
2	0x3e1c6646	0.15273389
3	0x3e4f02be	0.2021589
4	0x3e2cb0b9	0.1686429
5	0xbe4fe9b8	-0.20304
6	0xbe53c240	-0.20679569
7	0xbcb58b34	-0.022161104
8	0x3dba46e6	0.09095554
9	0x3a6f332e	0.0009124753
10	0x3dce88d2	0.1008469
11	0xbd240967	-0.04004803
12	0xbe4339f6	-0.19065079
13	0xbdb277f5	-0.08714286
14	0xbe0456dd	-0.1292376
15	0x3bc17768	0.005904127
16	0x3ceeb549	0.029139178
17	0xbd2741c3	-0.0408342
18	0x3e0454bd	0.1292295
19	0xbdf63c4f	-0.12023222
20	0xbde4f768	-0.111800015
21	0xbd478c0d	-0.048717547
22	0xbde430a2	-0.111420885
23	0x3d9b01ff	0.0756874
24	0x3bca20a5	0.0061684423
25	0x3d11bb8e	0.035579257
26	0xbd97f6a3	-0.07420089
27	0x3c025eaa	0.00795714
28	0xbe8304bf	-0.25589558
29	0xbde04815	-0.109512486
30	0xbe41910c	-0.18902987
31	0xbd997694	-0.0749332
32	0x3e0a7e55	0.13524754
33	0xbd672615	-0.056432802
34	0x3e24f808	0.16110241
35	0xbe51978f	-0.20467971
36	0xbbc1e102	-0.0059167156
37	0xbddec6ec	-0.10877785
38	0xbe0e9756	-0.13924918
39	0xbdd7cf74	-0.105376154
40	0xbe214a0a	-0.157509
41	0x3cc2c591	0.023775848
42	0x3db4ff65	0.08837775
43	0x3ddf4da7	0.10903483
44	0xbcd26c14	-0.025686301
45	0xbd7d39e7	-0.061822798
46	0xbdc316a4	-0.09525803
47	0xbdac8656	-0.0842406
48	0xbcb91722	-0.022594038
49	0x3e4206fd	0.18947978
50	0xbd26f0cb	-0.04075698
51	0x3d2a8420	0.04162991
52	0xbe1d9e75	-0.15392478
53	0xbe9f9f61	-0.31176284
54	0xbd654fba	-0.055984236
55	0x3d604905	0.054757137
56	0x3d416701	0.047217373
57	0x3b8e94aa	0.004351218
58	0x3c987d4c	0.018614434
59	0x3d972c8c	0.073815435
60	0x3b9a267d	0.004704295
61	0xbd8c83e9	-0.06861097
62	0x3e93ab8e	0.28841823
63	0x3cf23e0f	0.029570607
64	0x3abf9929	0.0014617789
65	0xbe6f3e93	-0.23363714
66	0xbe27b974	-0.16379339
67	0xbe522910	-0.20523477
68	0xbe45feb9	-0.1933545
69	0x3e541518	0.20711172
70	0x3e5d7e22	0.21630147
71	0x3cd14d61	0.025549592
72	0xbddab9d5	-0.10679976
73	0xbcf42195	-0.02980117
74	0xbd6f3aa0	-0.05840552
75	0x3cef0706	0.029178154
76	0x3e4e2b06	0.201336
77	0x3de9210c	0.11383256
78	0x3de71c76	0.11284725
79	0xbca0f81f	-0.019649563
80	0xbdb88714	-0.09010139
81	0x3d1f870c	0.03894715
82	0xbe10940a	-0.14118972
83	0x3de91b59	0.11382169
84	0x3daec094	0.08532825
85	0x3cf24756	0.029575031
86	0x3dfbd89b	0.122971736
87	0xbdc414d0	-0.09574282
88	0xbcdd3008	-0.027000442
89	0xbd3bfd7a	-0.04589603
90	0x3dbefb0a	0.09325226
91	0xbb1162e1	-0.002218418
92	0x3e6292b9	0.22126283
93	0x3df2935a	0.11844511
94	0x3e543ab9	0.20725526
95	0x3dcb0d93	0.099146985
96	0xbe1167d2	-0.1419976
97	0x3d7cb0b5	0.06169196
98	0xbe144552	-0.14479569
99	0x3e5da6a7	0.21645604
100	0x3c9c69a7	0.019093348
101	0x3dc267d0	0.09492457
102	0x3e034260	0.12818289
103	0x3dbffe8b	0.09374722
104	0x3e13c500	0.14430618
105	0xbc47ff42	-0.012206854
106	0xbdaeb73c	-0.08531043
107	0xbdf29ecf	-0.118466966
108	0xbbc2294d	-0.0059253336
109	0x3dae76c6	0.08518748
110	0x3da59c3c	0.0808644
111	0x3dac3c95	0.084099926
112	0x3d36f12c	0.044663593
113	0xbe4487b1	-0.19192387
114	0x3d29a426	0.04141631
115	0xbc9a996c	-0.018871985
116	0x3e2c169e	0.16805503
117	0x3ea0b60d	0.31388894
118	0x3d464c9d	0.048412908
119	0xbd83913c	-0.06424186
120	0xbd40f909	-0.0471125
121	0xbb9b8464	-0.004746007
122	0xbc83941d	-0.016061837
123	0xbd88bb6d	-0.06676374
124	0x3bd81e18	0.0065953843
125	0x3d8fdcc5	0.0702453
126	0xbe8e456f	-0.2778735
127	0xbd824f00	-0.06362724

actor_head.bias f4 [2]
0	0x3b8ee59b	0.004360867
1	0xbb8ee57a	-0.004360852

critic_head.weight f4 [1, 64]
0	0x3ea0b809	0.31390408
1	0x3ec562ee	0.3855204
2	0x3ea99ef7	0.33129093
3	0x3f016a84	0.50553155
4	0x3ef2ca0e	0.4741978
5	0xbe9b756e	-0.3036303
6	0x3ee212fd	0.44155112
7	0xbe8c9ff8	-0.27465796
8	0xbe593f79	-0.21215619
9	0x3e840990	0.25788546
10	0xbd1e6376	-0.038669072
11	0x3f0caa37	0.5494723
12	0x3ec938ba	0.3930109
13	0x3effad01	0.4993668
14	0xbeca8aa8	-0.3955891
15	0xbe27c854	-0.16385013
16	0xbd14c8a1	-0.036324147
17	0x3b56c92f	0.0032773723
18	0x3f0a2227	0.5395836
19	0x3ee8e326	0.454858
20	0x3e8ac9fe	0.27107233
21	0x3ebfcd1a	0.37461168
22	0x3efadd20	0.4899683
23	0xbda127de	-0.07868932
24	0xbdbfc466	-0.09363632
25	0x3ef3b3d7	0.47598144
26	0xbe1e2c09	-0.15446486
27	0xbe137491	-0.14399935
28	0x3ea4a7fb	0.3215941
29	0x3e9a0e72	0.30089146
30	0x3ef4f162	0.4784041
31	0x3ed3d1b5	0.4137093
32	0x3efa085c	0.48834503
33	0xbe70397d	-0.2345943
34	0x3eb03592	0.3441587
35	0x3f0eb1dc	0.5574014
36	0xbe0f2b27	-0.13981305
37	0xbe09c966	-0.13455734
38	0x3f0617a2	0.5237981
39	0x3e869ecc	0.26293027
40	0x3e8d85c0	0.27641106
41	0x3eba07a7	0.36333963
42	0x3eb27296	0.34853047
43	0x3ed4b505	0.41544357
44	0x3f2a7846	0.6658977
45	0x3eaad27b	0.3336371
46	0xbcd2bc42	-0.025724534
47	0x3eac93b2	0.33706433
48	0x3f031e9a	0.5121857
49	0x3ea926a7	0.33037302
50	0xbe1bbc5e	-0.15208575
51	0x3e9f9186	0.31165713
52	0x3eb811b9	0.3595102
53	0x3e27e400	0.16395569
54	0xbe34b52e	-0.1764724
55	0x3ea32406	0.3186342
56	0x3e98d906	0.29853076
57	0xbe11ffa3	-0.14257674
58	0xbd4503d0	-0.04809934
59	0x3ea22e69	0.31676033
60	0x3e0cffaf	0.1376941
61	0xbde2201a	-0.11041279
62	0x3edb8630	0.42875814
63	0x3eb03928	0.34418607

exp_avg f4 [64, 4]
0	0xba3d1e49	-0.00072142907
1	0x385dc99c	5.287827e-05
2	0xb9b9807f	-0.00035381687
3	0x39e5f3e3	0.00043859993
4	0x3c19ebeb	0.009394626
5	0x3c243d71	0.010024414
6	0xb9f184a9	-0.00046065942
7	0xbb8db0ea	-0.0043240683
8	0x3ba682b2	0.005081498
9	0x3b731ea8	0.003709713
10	0xb9822b6a	-0.00024827878
11	0xb9a5c159	-0.00031615308
12	0x3c10ccd6	0.008837899
13	0x3c1d3563	0.009595248
14	0xba0ba421	-0.00053268863
15	0xbb6f8db0	-0.0036552958
16	0x3c02fa1d	0.007994202
17	0x3c0da1ab	0.008644502
18	0xba00b928	-0.0004910403
19	0xbb518b8f	-0.0031974053
20	0xbc1c0bd2	-0.009524303
21	0xbbd91ab7	-0.006625499
22	0x3aaa88dd	0.0013010759
23	0x3b88e787	0.004177991
24	0xbbc7bc29	-0.0060954285
25	0xbbb64b3b	-0.0055631674
26	0x38f6b807	0.00011764472
27	0x3b872bd1	0.0041250964
28	0x3b5d0ac0	0.0033728331
29	0x3acca160	0.0015612058
30	0xb9d79051	-0.0004111552
31	0xba922b1b	-0.0011151762
32	0x3a42f898	0.0007437556
33	0x3a45fd85	0.0007552731
34	0x39000103	0.00012207408
35	0xba9870bc	-0.0011630277
36	0x3b9bc3a5	0.0047535473
37	0x3b0b1267	0.0021220685
38	0xb899eb5d	-7.339448e-05
39	0x3ad71267	0.0016408683
40	0x3b09dbc9	0.0021035543
41	0x3ada2856	0.0016644101
42	0x373f5564	1.1404369e-05
43	0xbaad4088	-0.0013218084
44	0x3b1d5eba	0.002401276
45	0x3b7280ec	0.0037003113
46	0xb997cea3	-0.0002895492
47	0xb936337c	-0.00017376052
48	0xbac41757	-0.0014960569
49	0xbb86379c	-0.0040959846
50	0xb970a65c	-0.00022950157
51	0x3babf506	0.005247715
52	0xba056b3f	-0.0005089528
53	0xbaa9629f	-0.0012923068
54	0xb99255a1	-0.0002791109
55	0x3b51f5b6	0.0032037324
56	0xbc58135f	-0.013188212
57	0xbbcf00be	-0.006317227
58	0x3a3f0a03	0.00072875636
59	0x3a91c84d	0.0011122316
60	0xb7baa3f2	-2.224927e-05
61	0x39c83e2d	0.00038193297
62	0x38b3ff62	8.582954e-05
63	0xb7dc13c4	-2.6235248e-05
64	0x39f18856	0.0004606868
65	0x39a37bf2	0.0003118213
66	0x3791ceec	1.7381702e-05
67	0xb7ae79dd	-2.0799163e-05
68	0xbaaaaafb	-0.0013020927
69	0xba8fa8d8	-0.0010960354
70	0x3876fc53	5.8885966e-05
71	0x3a586d1a	0.00082560035
72	0x3be2e185	0.0069238567
73	0x3bef8632	0.0073096985
74	0xba0359f3	-0.0005010657
75	0xbb05e727	-0.0020431967
76	0xbbca938f	-0.006182141
77	0xbb79b5f1	-0.003810283
78	0xb9b2848b	-0.00034049558
79	0x3b6f2807	0.0036492364
80	0xbb8f76ab	-0.00437816
81	0xba9937db	-0.001168962
82	0x39bf6067	0.00036502184
83	0x3a6bc1df	0.00089934276
84	0xb922be02	-0.00015520307
85	0x39794aac	0.00023774308
86	0xb93fe728	-0.00018301292
87	0x3b27a74c	0.0025581894
88	0x3b480563	0.003052079
89	0x3acf35e5	0.0015808909
90	0x38ad5b62	8.266304e-05
91	0x3b35341f	0.0027649475
92	0xb8f6a49d	-0.00011760856
93	0x380f339c	3.414192e-05
94	0x3797c730	1.8093357e-05
95	0xb86ce0c3	-5.647611e-05
96	0xb95a68d4	-0.00020829152
97	0xb935c824	-0.00017336063
98	0xb836faf1	-4.362589e-05
99	0xb83178b5	-4.2312506e-05
100	0x3bc0f36a	0.005888392
101	0x3babf855	0.0052481093
102	0xb9c65793	-0.0003783075
103	0xba805976	-0.0009792286
104	0xba2d679e	-0.00066148664
105	0xbacb5ed2	-0.001551593
106	0xb90e0df0	-0.00013547367
107	0x39f5ac12	0.00046858244
108	0xbb0f8af5	-0.0021902893
109	0xba9b589f	-0.0011851973
110	0x399fe975	0.00030500782
111	0x3a331efe	0.00068329263
112	0xbbc6d3c1	-0.0060677235
113	0xbbf91d27	-0.007602352
114	0x362a4916	2.5374516e-06
115	0x3bae4245	0.0053179585
116	0xbb405927	-0.0029350014
117	0xba83fce7	-0.0010069878
118	0x38897681	6.554742e-05
119	0x39862956	0.0002558927
120	0x3b8be689	0.0042694253
121	0xba7ede48	-0.00097224535
122	0x3981b30c	0.00024738198
123	0x3bd9e02d	0.0066490383
124	0xba0aa19c	-0.0005288364
125	0xba9d8396	-0.0012017365
126	0xb96f24e4	-0.00022806559
127	0x3b339290	0.002740059
128	0x3bddb291	0.0067656715
129	0x3bebd2b4	0.0071967486
130	0xb9f4bb61	-0.00046678915
131	0xbb113f06	-0.002216281
132	0xbbbbdb67	-0.005732942
133	0xbb2f714a	-0.0026770406
134	0x39f3f386	0.0004653001
135	0x3a5d027c	0.0008430851
136	0x3c33a143	0.010963741
137	0x3bff65c8	0.0077941157
138	0xb8312dcf	-4.224275e-05
139	0xb94df399	-0.0001964107
140	0xbbd65442	-0.006540806
141	0xbbbdc5bb	-0.0057913936
142	0x36aa39f9	5.0731437e-06
143	0x3b9855fc	0.004648922
144	0x3a7f64d4	0.00097425026
145	0x3a5983aa	0.00082975125
146	0x38285b37	4.013927e-05
147	0xb9ac0d8c	-0.0003281649
148	0xbba1fa54	-0.0049431715
149	0xbb811dcc	-0.0039403196
150	0x39a6c133	0.00031805932
151	0x3acf078c	0.0015795096
152	0xbab26beb	-0.0013612484
153	0xbb18d163	-0.0023318164
154	0xb99007c2	-0.000274716
155	0x3b82575f	0.0039777006
156	0xbb090c6e	-0.002091195
157	0xbac95f4a	-0.0015363481
158	0x38f40749	0.000116361836
159	0x3aa1c034	0.0012340606
160	0xbb0c703f	-0.0021429209
161	0xbb41adc8	-0.0029553045
162	0x393f40b3	0.00018239282
163	0x3b17b879	0.0023150726
164	0x3b1fe3a2	0.0024397154
165	0x3b165977	0.0022941509
166	0xb99367f4	-0.00028115476
167	0x39d09865	0.00039786394
168	0x3b8450a1	0.004037932
169	0x3b94b86d	0.004538587
170	0xb9925b35	-0.00027915245
171	0xba368922	-0.00069631834
172	0x3bb89115	0.0056325295
173	0x3bc3ccdd	0.0059753493
174	0xb9ce5cb7	-0.0003936046
175	0xbaeab137	-0.0017905597
176	0x3c05b62d	0.00816111
177	0x3ba37b5d	0.0049890713
178	0xb941025d	-0.00018406795
179	0x3afba32c	0.0019198409
180	0x3ae3f179	0.001739069
181	0x3ab66f79	0.001391872
182	0x37f489a2	2.9151157e-05
183	0x3af8a9df	0.0018971524
184	0xb8c12afc	-9.2109636e-05
185	0xba4f8c48	-0.0007917327
186	0xb9197cc5	-0.00014637697
187	0xb8b6b082	-8.7113134e-05
188	0xbb121081	-0.002228767
189	0xba92bf0b	-0.0011195851
190	0x3963be19	0.00021719224
191	0x3ae95bd6	0.0017803858
192	0x3ad405ec	0.0016176081
193	0x3a97a091	0.0011568238
194	0xb9b3b223	-0.00034274263
195	0x3ae1a7ef	0.0017216186
196	0x3c007553	0.007840472
197	0x3be817d8	0.0070829205
198	0xba096c53	-0.0005242277
199	0xbb14d5c7	-0.002271043
200	0xb95eef35	-0.00021260681
201	0xb9953d7d	-0.00028465307
202	0xb918e400	-0.00014580786
203	0xba281616	-0.00064119825
204	0x3bc0b6fa	0.0058811875
205	0x3b47642e	0.0030424702
206	0xb9499d43	-0.00019227438
207	0x3a2d8122	0.00066186686
208	0x3a43fd87	0.0007476438
209	0xbb1d2d11	-0.002398316
210	0xb7a1a004	-1.9267209e-05
211	0x3b9cef8f	0.0047893
212	0xbbd5eb6d	-0.006528309
213	0xbc206cf8	-0.009791605
214	0x3900394c	0.00012228376
215	0x3c00e863	0.007867905
216	0xbb9fcf8e	-0.0048770374
217	0xbb152d19	-0.0022762476
218	0x3a09fab0	0.00052634906
219	0x3a754942	0.00093569246
220	0x3b66bc41	0.0035207423
221	0x3b6ec9bd	0.0036436163
222	0xb9951e72	-0.00028442178
223	0xba4ba476	-0.0007768342
224	0x3be753e1	0.0070595597
225	0x3b7fcb18	0.0039030965
226	0x37eaaa56	2.7974293e-05
227	0x3ad0f20c	0.0015941276
228	0x3adc124a	0.0016790119
229	0x3994d2a3	0.00028385696
230	0xb76a2f49	-1.3958496e-05
231	0x39288255	0.00016070281
232	0xb8f1cb33	-0.00011529624
233	0x39308d90	0.00016837404
234	0x3811374f	3.4622204e-05
235	0xb9a06144	-0.00030590047
236	0xbabef6de	-0.0014569422
237	0x3aadd3b0	0.001326194
238	0x39071a65	0.00012884436
239	0x3ab0b706	0.001348228
240	0x38a081fc	7.653606e-05
241	0x39598e26	0.00020747687
242	0xb9043661	-0.00012608759
243	0x39963e9e	0.00028656883
244	0xbb8233b2	-0.0039734477
245	0xbb370b8a	-0.0027930462
246	0x397805b2	0.00023653245
247	0x3ae43415	0.0017410541
248	0x3c3268b0	0.010889217
249	0x3c45e626	0.012078797
250	0xba0dec7d	-0.00054139626
251	0xbbb6fb58	-0.0055841617
252	0x3aa95dbd	0.0012921613
253	0x3b057d51	0.0020368884
254	0xb9bdfcd3	-0.00036237258
255	0xb9d265bb	-0.00040130116

exp_avg_sq f4 [64, 4]
0	0x3a93bd4e	0.0011271627
1	0x3a08792e	0.00052060455
2	0x36dd8596	6.6018647e-06
3	0x38d21a41	0.000100184705
4	0x3af17f23	0.001842473
5	0x3a56ba2f	0.00081911957
6	0x374dc3b4	1.2264518e-05
7	0x394aff45	0.00019359317
8	0x39e40924	0.0004349436
9	0x38e729ad	0.00011022701
10	0x36aee346	5.212062e-06
11	0x38996927	7.315195e-05
12	0x3b46c716	0.0030331067
13	0x3aaa96da	0.0013014928
14	0x379c0024	1.8596715e-05
15	0x399cb445	0.0002988895
16	0x3b57e95a	0.0032945485
17	0x3ac3a5ff	0.001492679
18	0x379ef2f7	1.8948207e-05
19	0x39a07352	0.00030603498
20	0x3a63701b	0.0008676068
21	0x3a112285	0.0005536455
22	0x36a0a479	4.7875187e-06
23	0x38cb419c	9.692015e-05
24	0x3b1bbef8	0.002376495
25	0x3a98cd3c	0.0011657844
26	0x3725285a	9.8441615e-06
27	0x393f2458	0.00018228719
28	0x38eefe5c	0.000113961025
29	0x385c5fd4	5.2541334e-05
30	0x35988370	1.1363136e-06
31	0x37f6ae87	2.9406756e-05
32	0x3a22fe11	0.00062176684
33	0x3988eb82	0.00026115408
34	0x365517e1	3.1753373e-06
35	0x3837b02d	4.3794676e-05
36	0x3a4a19c1	0.0007709526
37	0x39b98fcb	0.00035393084
38	0x369001d7	4.2917486e-06
39	0x388d2509	6.730302e-05
40	0x38e781a8	0.00011039089
41	0x38173ff3	3.6060763e-05
42	0x350b6355	5.192608e-07
43	0x36ea8b10	6.9899324e-06
44	0x3b1fd6f4	0.0024389597
45	0x3a13bcbe	0.000563573
46	0x37826cb4	1.5547826e-05
47	0x39558e8c	0.00020366366
48	0x3b1fe80f	0.0024399792
49	0x3a99151e	0.0011679267
50	0x376ec6e8	1.4232217e-05
51	0x39753444	0.00023384491
52	0x3b402068	0.002931619
53	0x3aaf3e41	0.0013369994
54	0x379465e4	1.7690421e-05
55	0x399aa854	0.00029498583
56	0x3ae10786	0.001716838
57	0x3a622988	0.00086274045
58	0x37045a13	7.888785e-06
59	0x38f84956	0.000118392214
60	0x398b8751	0.00026612965
61	0x38eb1684	0.00011209867
62	0x357d74de	9.441991e-07
63	0x378cf3d7	1.6802847e-05
64	0x36f281bd	7.2272655e-06
65	0x362e5092	2.5974919e-06
66	0x32f890fd	2.8936933e-08
67	0x3518f573	5.698159e-07
68	0x380b992c	3.3282835e-05
69	0x37922b80	1.7424813e-05
70	0x3430019d	1.6391864e-07
71	0x3631f0c5	2.6515202e-06
72	0x3b7412f9	0.0037242754
73	0x3ada9ae9	0.0016678247
74	0x37b73249	2.1838716e-05
75	0x39ba3da5	0.00035522613
76	0x3b1549bb	0.0022779542
77	0x3a994d6f	0.0011696051
78	0x374d2ab7	1.22288975e-05
79	0x3976325c	0.00023479149
80	0x3a3542da	0.0006914564
81	0x394ff2f0	0.0001983156
82	0x3682367d	3.880645e-06
83	0x3831d503	4.239847e-05
84	0x3ab422ca	0.0013743278
85	0x3a38a30b	0.0007043338
86	0x37057a8b	7.9559495e-06
87	0x390b1c70	0.00013266667
88	0x3b455030	0.003010761
89	0x3aba3040	0.0014205053
90	0x378d81be	1.6868926e-05
91	0x398d11b0	0.00026906794
92	0x37758315	1.4633658e-05
93	0x363f2a96	2.8486006e-06
94	0x337e04a7	5.9143215e-08
95	0x362c9a61	2.5719858e-06
96	0x389179ba	6.936812e-05
97	0x37a9f528	2.026053e-05
98	0x34883a26	2.5374283e-07
99	0x368afb60	4.1419844e-06
100	0x3aed8b9f	0.0018123275
101	0x39e45684	0.00043552008
102	0x3752fe00	1.2576114e-05
103	0x3945eeb0	0.00018876302
104	0x39b4e959	0.00034506133
105	0x3936f972	0.00017449798
106	0x35ac6797	1.2845147e-06
107	0x37ccd433	2.4417508e-05
108	0x396c059e	0.00022508806
109	0x38cc0c9b	9.729826e-05
110	0x35850476	9.91057e-07
111	0x378b930e	1.6638569e-05
112	0x3b046c27	0.0020206065
113	0x3a7d5832	0.0009664326
114	0x372cabce	1.0292e-05
115	0x39271b2a	0.0001593648
116	0x3922d729	0.00015529677
117	0x38142796	3.5322817e-05
118	0x35a65fc7	1.2395839e-06
119	0x381a0e62	3.6729856e-05
120	0x3b597557	0.0033181512
121	0x3ad346e2	0.0016119147
122	0x379ca9cf	1.8675722e-05
123	0x39a50b24	0.00031479553
124	0x3b04c627	0.002025971
125	0x3a72a701	0.0009256453
126	0x374c71b1	1.2185818e-05
127	0x3955e68a	0.00020399145
128	0x3b4d5921	0.0031333643
129	0x3ab832ee	0.0014053264
130	0x379a641e	1.8404851e-05
131	0x399d1d9a	0.00029967428
132	0x39eabf25	0.00044774372
133	0x392fb744	0.00016757572
134	0x36207f24	2.3915863e-06
135	0x3815599e	3.560783e-05
136	0x3aef2a46	0.0018246851
137	0x3a5f12ad	0.0008509558
138	0x372715b5	9.95903e-06
139	0x392b22c8	0.00016320788
140	0x3b6b4d9d	0.0035904415
141	0x3ae828ca	0.0017712351
142	0x377fb016	1.5240183e-05
143	0x39984273	0.00029041208
144	0x37947424	1.7697057e-05
145	0x366e887f	3.5544215e-06
146	0x33aa62eb	7.934235e-08
147	0x362ce433	2.5762827e-06
148	0x39b33559	0.00034181288
149	0x394768df	0.00019017186
150	0x35c8ddae	1.4965678e-06
151	0x37dc426e	2.6256977e-05
152	0x3b59a54e	0.0033210102
153	0x3abfa2cc	0.0014620661
154	0x37a50411	1.9671426e-05
155	0x39a9f1bd	0.000324143
156	0x38c0c180	9.1913156e-05
157	0x37f91262	2.9691673e-05
158	0x3561f688	8.417778e-07
159	0x37d4ff13	2.5391148e-05
160	0x3903dc5f	0.00012575228
161	0x3841d548	4.621342e-05
162	0x359d0d63	1.1701308e-06
163	0x38052d6a	3.1751966e-05
164	0x3ac0230f	0.0014658886
165	0x3a38ab09	0.0007044529
166	0x370f52a2	8.542704e-06
167	0x39066ff9	0.00012820949
168	0x3a97ecfe	0.0011591015
169	0x3a2ab26b	0.00065115717
170	0x36f4c8dc	7.2951498e-06
171	0x38f45160	0.00011649984
172	0x3b1412ee	0.002259429
173	0x3a84fb9e	0.0010145789
174	0x375fe2e2	1.3344661e-05
175	0x3964da46	0.00021825088
176	0x3bae2d9b	0.005315495
177	0x3b219f83	0.0024661727
178	0x37f837c7	2.9589877e-05
179	0x39fc5275	0.0004812662
180	0x3aa2b976	0.0012414891
181	0x39e703c6	0.00044062565
182	0x36e64b32	6.863288e-06
183	0x38c940aa	9.5964715e-05
184	0x37a383df	1.9492521e-05
185	0x36d4e09f	6.3442417e-06
186	0x3418703c	1.4196934e-07
187	0x36589357	3.2272271e-06
188	0x3a86a115	0.0010271395
189	0x3985c29c	0.00025512732
190	0x36ce9d80	6.157614e-06
191	0x38b7f70f	8.772138e-05
192	0x3b4978e3	0.003074222
193	0x3ab6b19d	0.0013938431
194	0x379a8157	1.841846e-05
195	0x39a13a7e	0.00030751893
196	0x3a214698	0.0006152182
197	0x397d93bf	0.00024183
198	0x36ed914f	7.0800666e-06
199	0x38d539aa	0.00010167372
200	0x36bc7550	5.6164936e-06
201	0x363f505e	2.8507998e-06
202	0x33f35104	1.1330306e-07
203	0x369947a6	4.5680963e-06
204	0x3a979d69	0.0011567298
205	0x3a0b61e9	0.0005317019
206	0x36ced450	6.163995e-06
207	0x38c06f74	9.176033e-05
208	0x3afe09e0	0.0019381605
209	0x3a78cd5a	0.0009491049
210	0x3736212b	1.0855768e-05
211	0x393ec4b2	0.00018193087
212	0x3b04a39e	0.0020239125
213	0x3a8af9ca	0.0010603007
214	0x37352cc9	1.0798868e-05
215	0x3941c4e7	0.00018479266
216	0x3983d315	0.00025143535
217	0x390571f2	0.00012726316
218	0x35ba0c4e	1.3861661e-06
219	0x37be4580	2.2682128e-05
220	0x3a975cdb	0.0011548059
221	0x3a0c6774	0.0005355992
222	0x36e79815	6.902041e-06
223	0x38cb9407	9.7073666e-05
224	0x3a8b2d07	0.0010618278
225	0x39ff80f2	0.00048733462
226	0x36c85530	5.9703816e-06
227	0x38ce3cff	9.834207e-05
228	0x376eae0e	1.4226431e-05
229	0x3686e37f	4.0199952e-06
230	0x33f7b2b2	1.1534338e-07
231	0x3684387c	3.940482e-06
232	0x37f09fc2	2.8684623e-05
233	0x3763b0ef	1.357145e-05
234	0x34231a78	1.5190187e-07
235	0x36160b0e	2.2358176e-06
236	0x39c002dc	0.00036623224
237	0x3995bb9c	0.00028559275
238	0x36617f6c	3.3601782e-06
239	0x3896afc8	7.185299e-05
240	0x39550be1	0.00020317688
241	0x38be0f72	9.062783e-05
242	0x35a36e8c	1.217662e-06
243	0x379a69ed	1.8407556e-05
244	0x39792884	0.00023761584
245	0x38e56454	0.000109382585
246	0x3593a758	1.1001057e-06
247	0x379014d3	1.7175835e-05
248	0x3b731787	0.003709288
249	0x3ae20ed0	0.0017246846
250	0x37b03d36	2.1009339e-05
251	0x39b32c02	0.0003417433
252	0x3abd0581	0.0014421196
253	0x3a29ab6a	0.0006472381
254	0x370d1f0d	8.4114845e-06
255	0x390a3567	0.000131806

exp_avg f4 [64]
0	0x3b27524d	0.0025531233
1	0x3c0a6b72	0.0084484685
2	0x3bbb4142	0.0057145664
3	0x3c084773	0.008317816
4	0x3bf6c667	0.0075309756
5	0xbb98189f	-0.004641607
6	0xbb4608b7	-0.0030217597
7	0x3ae523f6	0.0017482031
8	0x3a339eb4	0.0006851957
9	0x3ac18c2b	0.0014766505
10	0x3a07ce18	0.00051805517
11	0x3b4b5c3e	0.0031030322
12	0xbb432051	-0.00297739
13	0x39084629	0.00012996107
14	0xbb08eb55	-0.0020892222
15	0x390730e8	0.00012892822
16	0xb89e2559	-7.540984e-05
17	0xb9bd6d65	-0.00036130394
18	0x3bdab41c	0.0066743027
19	0xba75ca47	-0.000937615
20	0xba58bdfc	-0.0008268056
21	0x3a87f666	0.0010373115
22	0x39903183	0.0002750271
23	0xb8877589	-6.459194e-05
24	0xb99d3847	-0.00029987303
25	0x3b8cd950	0.0042983666
26	0xba8a8cc5	-0.0010570517
27	0xba095052	-0.0005238104
28	0xbb8cff14	-0.0043028686
29	0x38f040d4	0.00011456167
30	0xbb83fdcf	-0.004028059
31	0x36f11b9a	7.185573e-06
32	0x3bd439eb	0.006476631
33	0xba8d6173	-0.0010786488
34	0x3ba58f06	0.00505245
35	0xbb18a6a6	-0.002329269
36	0x39e1ad2e	0.00043044373
37	0xbb14f88e	-0.0022731158
38	0xba206a1b	-0.00061193266
39	0xb9e8621c	-0.00044323585
40	0xbae66ff7	-0.0017580976
41	0x3b2a0513	0.0025942966
42	0x3b8ca33e	0.004291921
43	0x3bb0e3e6	0.0053982614
44	0x3b94fc7e	0.004546701
45	0xb8aad70c	-8.146287e-05
46	0xba7d7346	-0.0009668361
47	0xb9c2a620	-0.00037126336
48	0x3b02969b	0.0019926194
49	0x3bef1333	0.00729599
50	0xba329bba	-0.0006813366
51	0x3a94e00f	0.0011358279
52	0xbb1886a2	-0.0023273607
53	0xbbf99b69	-0.0076174033
54	0xbac0930f	-0.0014692264
55	0x3b5e319f	0.0033904088
56	0x3b06df93	0.0020580038
57	0xba765245	-0.00093964144
58	0x391e1ac0	0.0001507802
59	0x3b2935e2	0.002581947
60	0x3a7b8ea2	0.0009596144
61	0xba72ac0b	-0.0009257204
62	0x3c23fcce	0.010009004
63	0x3b77417e	0.0037728245

exp_avg_sq f4 [64]
0	0x39443b31	0.00018714067
1	0x39c48fbc	0.00037491124
2	0x3918234d	0.00014509
3	0x3a1a9371	0.0005896604
4	0x3a18cef0	0.0005829176
5	0x38c20e20	9.253272e-05
6	0x39e459dc	0.000435545
7	0x3777dfce	1.4774456e-05
8	0x38754b22	5.8482525e-05
9	0x390aea97	0.00013248097
10	0x37356d8a	1.0813945e-05
11	0x3a07ee67	0.0005185366
12	0x39d6e083	0.00040984535
13	0x3a0a6686	0.00052795594
14	0x3928a63d	0.00016083657
15	0x37d1c2c2	2.5005433e-05
16	0x35717966	8.9956154e-07
17	0x367bc9c9	3.751937e-06
18	0x3a30750c	0.00067313085
19	0x39db85fd	0.00041870764
20	0x390bc5df	0.00013329786
21	0x3986e9c5	0.00025732644
22	0x3a08db89	0.00052207016
23	0x35cb17a9	1.5131565e-06
24	0x36ecdf43	7.059339e-06
25	0x39c469da	0.000374629
26	0x381d6932	3.7529688e-05
27	0x37b7a87f	2.1893762e-05
28	0x39ab0979	0.0003262272
29	0x38a5280b	7.875272e-05
30	0x3a12939a	0.00055914524
31	0x39be8b39	0.00036343353
32	0x3a13b29f	0.00056342216
33	0x382c2fa1	4.1052353e-05
34	0x39a379f4	0.00031180645
35	0x3a2fc416	0.00067049393
36	0x360486e7	1.9748056e-06
37	0x38264432	3.9640996e-05
38	0x3a1cc19b	0.0005979777
39	0x3887848f	6.4619926e-05
40	0x38ac4dda	8.2161e-05
41	0x39801e42	0.00024436606
42	0x3971ef0c	0.00023072603
43	0x39d57796	0.00040715624
44	0x3a6fb3eb	0.00091439363
45	0x39579427	0.00020559189
46	0x36cfec5e	6.1965975e-06
47	0x3949fd57	0.0001926323
48	0x3a13b4f9	0.0005634572
49	0x3949876a	0.000192193
50	0x36518077	3.1218203e-06
51	0x39374f7d	0.00017481852
52	0x39a93971	0.0003227699
53	0x39940ac1	0.00028236772
54	0x37d3c30e	2.524399e-05
55	0x39561c16	0.00020419093
56	0x3947da19	0.00019059367
57	0x36469191	2.958903e-06
58	0x364f69f3	3.0907074e-06
59	0x38eb8bb6	0.000112316964
60	0x381473a4	3.539365e-05
61	0x37cd9eef	2.4511914e-05
62	0x3a230536	0.0006218733
63	0x398623cf	0.0002558515

exp_avg f4 [2, 64]
0	0x3c703df3	0.014663207
1	0x3bc2f922	0.005950109
2	0x3b6b780d	0.003592971
3	0x3bc62216	0.006046544
4	0x3c1e9140	0.009678185
5	0x3aacadf3	0.00131744
6	0x3b878bfa	0.0041365596
7	0x3926b603	0.00015898798
8	0x39edd5ed	0.0004536355
9	0x3c75c5a1	0.015000732
10	0x3a93c12a	0.0011272777
11	0x3b1e3f2c	0.002414654
12	0x3b8d980c	0.004321104
13	0x3b9495a1	0.0045344387
14	0x3adbb019	0.0016760855
15	0xb8997b2b	-7.31855e-05
16	0xb9e8eb72	-0.0004442591
17	0x3becb243	0.007223399
18	0x3bfa579a	0.0076398375
19	0x3bd8561b	0.0066020614
20	0x3b3fc226	0.0029260009
21	0x3c10a99a	0.008829499
22	0x3b9ef061	0.0048504327
23	0xb63133d5	-2.6405226e-06
24	0xb9ee661b	-0.00045470972
25	0x3b3fd4b8	0.0029271077
26	0x395eb99a	0.00021240712
27	0x3a5772c8	0.0008218703
28	0x3b41ee98	0.0029591676
29	0x3b2d44be	0.0026438679
30	0x3be37778	0.006941732
31	0x3bbc60f5	0.005748863
32	0x3c055e08	0.008140095
33	0x3b1d4c6f	0.0024001857
34	0x3c33d7b5	0.0109767215
35	0x3b8c03b1	0.004272901
36	0xb804358b	-3.152112e-05
37	0x3a888d28	0.0010418044
38	0x3b86077b	0.004090247
39	0x3b8d3605	0.004309418
40	0x3b84266c	0.0040329006
41	0x3c57c856	0.013170322
42	0x3c08ceca	0.008350084
43	0x3c0df260	0.008663744
44	0x3c3d0eea	0.0115392
45	0x3b472699	0.0030387996
46	0x3915f773	0.0001430193
47	0x3b457c02	0.003013373
48	0x3bf4245d	0.007450624
49	0x3ba8f142	0.0051557133
50	0xb6f002f4	-7.152901e-06
51	0x3c9f0584	0.01941181
52	0x3c114f1e	0.008868961
53	0x3b25a4f1	0.0025275315
54	0x3b37e7fd	0.002806186
55	0x3c4a8275	0.012360205
56	0x3c40e61f	0.011773615
57	0xb988a183	-0.00026060277
58	0x3bf78bfe	0.00755453
59	0x3bedb852	0.0072546387
60	0x3c17941c	0.009251621
61	0x3bbe979c	0.005816413
62	0x3b9646a2	0.004586057
63	0x3c49f53b	0.012326534
64	0xbc703df5	-0.014663209
65	0xbbc2f924	-0.00595011
66	0xbb6b780f	-0.0035929715
67	0xbbc62217	-0.0060465443
68	0xbc1e9141	-0.009678186
69	0xbaacadf3	-0.00131744
70	0xbb878bf9	-0.004136559
71	0xb926b609	-0.00015898807
72	0xb9edd5f1	-0.0004536356
73	0xbc75c5a3	-0.015000734
74	0xba93c12a	-0.0011272777
75	0xbb1e3f2e	-0.0024146545
76	0xbb8d980e	-0.004321105
77	0xbb9495a3	-0.0045344396
78	0xbadbb018	-0.0016760854
79	0x38997b2d	7.318552e-05
80	0x39e8eb6c	0.0004442589
81	0xbbecb246	-0.0072234003
82	0xbbfa579c	-0.0076398384
83	0xbbd8561d	-0.0066020624
84	0xbb3fc22a	-0.0029260018
85	0xbc10a99a	-0.008829499
86	0xbb9ef062	-0.004850433
87	0x363133d3	2.640522e-06
88	0x39ee6619	0.00045470966
89	0xbb3fd4b7	-0.0029271075
90	0xb95eb99a	-0.00021240712
91	0xba5772cb	-0.00082187046
92	0xbb41ee99	-0.0029591678
93	0xbb2d44bf	-0.002643868
94	0xbbe37778	-0.006941732
95	0xbbbc60f5	-0.005748863
96	0xbc055e08	-0.008140095
97	0xbb1d4c6f	-0.0024001857
98	0xbc33d7b7	-0.010976723
99	0xbb8c03b1	-0.004272901
100	0x3804356a	3.1520998e-05
101	0xba888d28	-0.0010418044
102	0xbb86077c	-0.0040902477
103	0xbb8d3606	-0.0043094186
104	0xbb84266d	-0.004032901
105	0xbc57c857	-0.013170323
106	0xbc08cecb	-0.008350085
107	0xbc0df260	-0.008663744
108	0xbc3d0eeb	-0.011539201
109	0xbb47269a	-0.0030387999
110	0xb915f772	-0.00014301928
111	0xbb457c01	-0.0030133727
112	0xbbf4245f	-0.007450625
113	0xbba8f144	-0.005155714
114	0x36f002d2	7.1528857e-06
115	0xbc9f0584	-0.01941181
116	0xbc114f1f	-0.008868962
117	0xbb25a4f2	-0.0025275317
118	0xbb37e7fe	-0.0028061862
119	0xbc4a8276	-0.012360206
120	0xbc40e620	-0.011773616
121	0x3988a182	0.00026060274
122	0xbbf78bfe	-0.00755453
123	0xbbedb854	-0.0072546396
124	0xbc17941c	-0.009251621
125	0xbbbe979c	-0.005816413
126	0xbb9646a2	-0.004586057
127	0xbc49f53c	-0.012326535

exp_avg_sq f4 [2, 64]
0	0x3a5eabf7	0.00084942527
1	0x3908bd45	0.00013040479
2	0x390d06b8	0.00013449311
3	0x38e6a045	0.00010997107
4	0x39ac0daf	0.00032816592
5	0x36b9f369	5.5417663e-06
6	0x38f8897c	0.0001185117
7	0x35186c7f	5.6782295e-07
8	0x37ec3899	2.8159748e-05
9	0x3aa4b582	0.00125663
10	0x38953566	7.11482e-05
11	0x38bd1e77	9.017897e-05
12	0x3917ee10	0.00014489167
13	0x38ba63f3	8.887788e-05
14	0x3782b8c6	1.558325e-05
15	0x37807cb7	1.5316864e-05
16	0x37bee9bc	2.2758606e-05
17	0x3a519a31	0.00079956936
18	0x39244cae	0.00015668824
19	0x39271512	0.0001593421
20	0x390be9e0	0.00013343198
21	0x395a6437	0.00020827433
22	0x39b316c5	0.00034158505
23	0x346a05fc	2.1795125e-07
24	0x37518ac6	1.24896815e-05
25	0x38cc42cb	9.739919e-05
26	0x373a90bb	1.1120162e-05
27	0x384ca3e8	4.879004e-05
28	0x389114c0	6.918004e-05
29	0x391e9361	0.00015122957
30	0x39bdcea8	0.0003620286
31	0x3915608d	0.00014245715
32	0x394a4641	0.00019290393
33	0x375197e3	1.2492735e-05
34	0x3a5292da	0.0008032747
35	0x38dbb3ba	0.000104762104
36	0x37a03fa8	1.9103129e-05
37	0x38747806	5.8285914e-05
38	0x38b5ba38	8.6654385e-05
39	0x3935391b	0.00017282779
40	0x390a4a87	0.00013188469
41	0x3a15b628	0.00057110423
42	0x39576e5e	0.00020545113
43	0x3986ef77	0.00025736887
44	0x3aedcdfa	0.0018143051
45	0x3964259e	0.00021757788
46	0x376363a6	1.3553456e-05
47	0x38f7a9e7	0.000118095246
48	0x39721c7b	0.00023089528
49	0x3901c8a2	0.0001237714
50	0x359013d8	1.0734611e-06
51	0x3aeabaef	0.0017908494
52	0x3a49a92f	0.0007692752
53	0x383b1889	4.4607124e-05
54	0x379d200c	1.8730781e-05
55	0x39a9b3cc	0.0003236815
56	0x3a411118	0.0007364913
57	0x36e15958	6.7159235e-06
58	0x3a1abe00	0.0005902946
59	0x394d7a83	0.00019595963
60	0x39a6d823	0.00031823022
61	0x3a0f470f	0.00054656056
62	0x39099f2e	0.00013124637
63	0x3a0fbb18	0.0005482896
64	0x3a5eabf7	0.00084942527
65	0x3908bd44	0.00013040478
66	0x390d06ba	0.00013449314
67	0x38e6a046	0.00010997108
68	0x39ac0db3	0.00032816603
69	0x36b9f36b	5.541767e-06
70	0x38f8897c	0.0001185117
71	0x35186c7e	5.678229e-07
72	0x37ec3899	2.8159748e-05
73	0x3aa4b582	0.00125663
74	0x38953567	7.1148206e-05
75	0x38bd1e76	9.017896e-05
76	0x3917ee11	0.00014489169
77	0x38ba63f3	8.887788e-05
78	0x3782b8c6	1.558325e-05
79	0x37807cb8	1.5316866e-05
80	0x37bee9ba	2.2758602e-05
81	0x3a519a32	0.0007995694
82	0x39244cb0	0.00015668827
83	0x39271513	0.00015934212
84	0x390be9df	0.00013343197
85	0x395a6436	0.00020827432
86	0x39b316c6	0.00034158508
87	0x346a05fc	2.1795125e-07
88	0x37518ac5	1.2489681e-05
89	0x38cc42cd	9.739921e-05
90	0x373a90bd	1.1120163e-05
91	0x384ca3e7	4.8790036e-05
92	0x389114c2	6.918005e-05
93	0x391e9362	0.00015122959
94	0x39bdcea6	0.00036202854
95	0x3915608e	0.00014245717
96	0x394a4641	0.00019290393
97	0x375197e3	1.2492735e-05
98	0x3a5292da	0.0008032747
99	0x38dbb3ba	0.000104762104
100	0x37a03fa7	1.9103127e-05
101	0x38747808	5.828592e-05
102	0x38b5ba36	8.665437e-05
103	0x39353918	0.00017282774
104	0x390a4a87	0.00013188469
105	0x3a15b629	0.0005711043
106	0x39576e5e	0.00020545113
107	0x3986ef76	0.00025736884
108	0x3aedcdfa	0.0018143051
109	0x3964259d	0.00021757786
110	0x376363a6	1.3553456e-05
111	0x38f7a9e6	0.00011809524
112	0x39721c78	0.00023089524
113	0x3901c8a2	0.0001237714
114	0x359013d8	1.0734611e-06
115	0x3aeabaec	0.001790849
116	0x3a49a92b	0.00076927495
117	0x383b1889	4.4607124e-05
118	0x379d200f	1.8730787e-05
119	0x39a9b3cd	0.00032368154
120	0x3a411115	0.0007364911
121	0x36e15958	6.7159235e-06
122	0x3a1abe03	0.0005902948
123	0x394d7a82	0.00019595961
124	0x39a6d824	0.00031823025
125	0x3a0f470f	0.00054656056
126	0x39099f2e	0.00013124637
127	0x3a0fbb19	0.0005482897

exp_avg f4 [2]
0	0x3c5b7d63	0.013396594
1	0xbc5b7d64	-0.013396595

exp_avg_sq f4 [2]
0	0x3a359fb3	0.0006928399
1	0x3a359fb2	0.00069283985

exp_avg f4 [1, 64]
0	0x3b449b99	0.002999997
1	0x3b08a3ec	0.0020849658
2	0x39c09342	0.0003673081
3	0x3b080d87	0.0020760016
4	0x3b64a33f	0.0034887341
5	0x39a7889c	0.00031954504
6	0x3b815494	0.00394685
7	0x39a5c978	0.00031621358
8	0x3a93dd81	0.0011281223
9	0x3bb4268a	0.0054977583
10	0x3ac27956	0.0014837186
11	0x3aecc0bf	0.0018062814
12	0x3b3daa52	0.002894063
13	0x3b101f51	0.0021991322
14	0x3aa2ae0d	0.001241149
15	0xb8bed5bc	-9.099717e-05
16	0x3aea80f3	0.0017891213
17	0x3bb9ef09	0.005674247
18	0x3b25dceb	0.002530868
19	0x3b76fc54	0.003768702
20	0x3b48bc59	0.0030629842
21	0x3b2e0670	0.002655413
22	0x3bbad378	0.0057014786
23	0x3559cdde	8.1138376e-07
24	0xb9fc69b0	-0.0004814393
25	0x3ac268dc	0.0014832276
26	0x38958a90	7.130683e-05
27	0x3a7384a7	0.0009289481
28	0x3b18c012	0.0023307842
29	0x3b984f3f	0.0046481187
30	0x3ba417f5	0.0050077387
31	0x3b207177	0.0024481693
32	0x3b407b9f	0.002937056
33	0x3a93f600	0.0011288524
34	0x3baa5a3f	0.0051987465
35	0x3b61b85a	0.0034442157
36	0x3b055e23	0.00203503
37	0x3a1253e2	0.00055819575
38	0x3b078a8c	0.0020681946
39	0x3bcaad0b	0.006185179
40	0x3ba0cfcc	0.004907584
41	0x3b561de8	0.0032671634
42	0x3b403b31	0.0029332156
43	0x3b456df4	0.0030125352
44	0x3c256c85	0.010096674
45	0x3ab11176	0.0013509232
46	0x3aa5d40b	0.0012651695
47	0x3abf6de8	0.0014604898
48	0x3b37d132	0.0028048274
49	0x3a9eb9f9	0.0012109868
50	0x399f311b	0.0003036343
51	0x3b7eb744	0.003886656
52	0x3bf8bcb6	0.0075908555
53	0x3addfa40	0.0016935542
54	0x3a819327	0.0009885774
55	0x3b219347	0.0024654435
56	0x3b8f2ae7	0.004369128
57	0x39b9714b	0.0003537036
58	0x3bba1fbe	0.0056800535
59	0x3afeb922	0.0019433836
60	0x3b21a814	0.0024666833
61	0x3b9d73dd	0.0048050717
62	0x3b29e13d	0.0025921606
63	0x3b5c129b	0.0033580426

exp_avg_sq f4 [1, 64]
0	0x3b0c6b03	0.0021426089
1	0x39db0e10	0.00041781412
2	0x39c87e9d	0.00038241307
3	0x39be4c47	0.00036296455
4	0x3a873b52	0.0010317361
5	0x3787824a	1.6153925e-05
6	0x39b9695b	0.00035364446
7	0x3680fd60	3.844194e-06
8	0x38a1c75e	7.714213e-05
9	0x3b5f7d5b	0.0034101817
10	0x394bfc04	0.00019453472
11	0x398f57b9	0.00027340444
12	0x3a0084e1	0.0004902613
13	0x399269ad	0.00027926025
14	0x3819a04e	3.6627338e-05
15	0x3841ae48	4.6177098e-05
16	0x380dd2f4	3.3813485e-05
17	0x3b076c2f	0.0020663848
18	0x3a0ba60d	0.00053271727
19	0x39e30c6e	0.00043306075
20	0x39d18866	0.0003996521
21	0x3a0f56ee	0.00054679706
22	0x3a93280f	0.0011227148
23	0x345a190e	2.0311947e-07
24	0x38335991	4.276034e-05
25	0x399fa14d	0.00030447022
26	0x380641ff	3.2009553e-05
27	0x390b68c1	0.00013295097
28	0x396ebdc5	0.00022768143
29	0x39a9889e	0.0003233598
30	0x3a948cd6	0.0011333476
31	0x3a000c71	0.00048846664
32	0x3a28cbd5	0.0006439065
33	0x382cf3a0	4.123489e-05
34	0x3b197cd8	0.002342036
35	0x39a3f42a	0.000312717
36	0x381fb8ed	3.808078e-05
37	0x39106c4f	0.00013773258
38	0x3994ba9a	0.0002836779
39	0x39c04f9b	0.00036680404
40	0x399189ab	0.00027759126
41	0x3ab68b3e	0.0013926995
42	0x3a0ee3fc	0.00054508424
43	0x3a5d35c7	0.00084384944
44	0x3ba73f8e	0.005104012
45	0x3a355ebb	0.0006918718
46	0x37fe9012	3.0346248e-05
47	0x39c21a70	0.0003702226
48	0x3a44535d	0.0007489229
49	0x39c37ae1	0.0003728485
50	0x35ee6e63	1.7764509e-06
51	0x3b967519	0.004591596
52	0x3b16c725	0.0023006883
53	0x390f78dc	0.00013682566
54	0x387220ea	5.772795e-05
55	0x3a7e0ade	0.00096909504
56	0x3b0aa749	0.0021156839
57	0x36bf5179	5.7017282e-06
58	0x3abf878a	0.0014612537
59	0x39ff7d48	0.00048730732
60	0x3a5b1fe3	0.00083589385
61	0x3aba5638	0.0014216369
62	0x39e28564	0.00043205463
63	0x3ac55c5e	0.0015057435
