savedModels/ppo_cartpole_15360.pth (torch, 13659 bytes, 15 tensors)

shared_fc.0.weight f4 [64, 4]
0.14603221 0.48907745 0.034983434 -0.38030005 -0.1789766 -0.19315961 -0.46123505 -0.21637498
-0.09332139 -0.3411142 -0.22489919 -0.5143271 -0.10883089 -0.100374036 -0.29487744 -0.26415917
0.1840266 0.20063008 -0.6035132 -0.35651228 -0.21569459 -0.017771665 -0.24743171 0.013185599
-0.12354456 0.09448939 0.25265443 0.3160683 -0.080365285 -0.035485808 0.0060158744 -0.0756289
0.1721701 -0.067378886 -0.13649699 0.005459057 0.37874767 0.2685528 0.21776904 -0.37048942
0.34278825 -0.32966354 -0.083992295 -0.11449202 -0.11143544 -0.31002885 -0.07809596 0.12609422
-0.013192636 -0.13031708 0.020124104 0.26387963 -0.16781142 -0.16653855 0.019430261 0.1019452
-0.048298083 0.054426722 -0.074963026 0.01538827 0.053140286 0.07859795 -0.10743428 0.10798653
-0.046157844 -0.2798117 -0.073572956 -0.123106964 0.39366305 0.093911104 -0.17544794 0.27537242
0.034395713 0.03361317 -0.19379681 -0.37298813 -0.08289768 0.30563658 0.034507025 -0.05074511
-0.13392662 -0.42134538 0.061553784 0.41337746 -0.114125185 0.29338014 0.27942705 -0.30387342
0.00039863537 -0.03961913 0.14781831 0.5273526 0.09737784 -0.060903423 -0.017680017 -0.026378594
0.14329669 0.008270095 -0.4678183 0.28192425 -0.07684179 -0.42603844 -0.08383332 0.00389195
-0.03559733 0.08081007 0.012531203 0.0800033 0.12761171 0.032727353 0.014212783 0.061901905
-0.07345005 -0.05043105 0.049618855 0.16542742 -0.21449196 -0.43360603 0.3921558 0.30115113
0.17140132 -0.14092006 0.3247987 0.21269837 -0.016226366 -0.39107218 0.023962878 0.15509635
0.11957366 0.15701354 -0.2692975 -0.37404165 0.12820807 -0.22352469 0.09511103 -0.23970824
0.36762288 0.06951235 -0.16013063 -0.21031141 -0.18223806 -0.0069977245 0.24678591 0.26716453
-0.2887254 -0.012166083 0.2181833 -0.101091325 -0.11625347 0.22622097 -0.043370374 0.15113224
-0.10111665 -0.2412118 0.16773884 0.12194879 -0.38954747 -0.20177048 -0.13640724 0.4078847
-0.29494745 -0.27885175 0.1875458 0.15505923 0.029117635 0.5825085 -0.045809332 -0.33577764
-0.20500681 0.3671596 -0.09538544 -0.28797242 0.21808971 0.1879844 0.12970853 -0.29420248
0.4368355 -0.061732277 0.003532678 0.24000408 0.1254789 -0.53288233 0.298617 0.23139703
-0.17683247 -0.39773047 0.51095986 0.31200632 0.011812978 -0.52975553 0.15763633 0.10312765
0.26515263 0.038534228 0.17247324 -0.16674435 -0.19215769 -0.224414 -0.20250578 -0.37111562
-0.04248394 0.0123029025 -0.006525305 0.089696325 0.30871406 0.42696035 -0.07829722 -0.6351465
0.35688958 0.052697133 0.16610645 0.26107767 0.020167444 -0.005915153 0.063143015 -0.0017064994
0.017622652 0.0031989585 -0.18740818 -0.18251131 0.026894944 0.2285721 -0.049121995 -0.66537684
0.3091407 0.20607606 0.063719705 -0.31203422 -0.14743823 0.08466599 -0.22022022 0.23468238
0.2909998 0.33248663 -0.10796635 -0.17399126 -0.3308491 0.311038 -0.062828876 -0.44183433
0.13979328 0.4097981 0.0446424 -0.29129893 0.3458889 -0.017565558 0.13222972 0.0029234425
0.04243336 0.004265603 -0.23123428 0.018240714 0.19602819 0.29626825 -0.074500225 -0.3466563
00000000: 7889 153e 5c68 fa3e ca4a 0f3d b0b6 c2be
00000010: a445 37be a2cb 45be 0027 ecbe 6791 5dbe
00000020: 491f bfbd 85a6 aebe f94b 66be f1aa 03bf
00000030: bbe2 debd e790 cdbd 2dfa 96be df3f 87be
00000040: 7871 3c3e f971 4d3e d77f 1abf c788 b6be
00000050: 0bdf 5cbe e295 91bc bd5e 7dbe 6908 583c
00000060: ee04 fdbd a783 c13d ec5b 813e b4d3 a13e
00000070: 8e96 a4bd 9159 11bd d020 c53b 53e3 9abd
00000080: 5c4d 303e f1fd 89bd dec5 0bbe e4e1 b23b
00000090: 37eb c13e c17f 893e d9fe 5e3e cab0 bdbe
000000a0: f181 af3e a9c9 a8be 2704 acbd cb7a eabd
000000b0: 4438 e4bd 1abc 9ebe c6f0 9fbd d81e 013e
000000c0: ed25 58bc d771 05be 4edb a43c 3b1b 873e
000000d0: c2d6 2bbe 1589 2abe 362c 9f3c a5c8 d03d
000000e0: 36d4 45bd 8eee 5e3d 3786 99bd 151f 7c3c
000000f0: a1a9 593d f6f7 a03d 8106 dcbd 0b28 dd3d
00000100: 0210 3dbd 7b43 8fbe 6bad 96bd 811f fcbd
00000110: 348e c93e 7754 c03d a0a8 33be 9dfd 8c3e
00000120: 85e2 0c3d f7ad 093d ac72 46be 4df8 bebe
00000130: 42c6 a9bd 667c 9c3e 3d57 0d3d 1bda 4fbd
00000140: 0f24 09be 95ba d7be d21f 7c3d 36a6 d33e
00000150: 77ba e9bd ec35 963e 1011 8f3e 4c95 9bbe
00000160: efff d039 ab47 22bd af5d 173e 9400 073f
00000170: 086e c73d de75 79bd afd5 90bc ec17 d8bc
00000180: 5ebc 123e 4b7f 073c e185 efbe 6058 903e
00000190: 3a5f 9dbd b621 dabe ceb0 abbd 1610 7f3b
000001a0: 82ce 11bd c07f a53d ad4f 4d3c c5d8 a33d
000001b0: a5ac 023e 1e0d 063d bcdc 683c da8c 7d3d
000001c0: fb6c 96bd ca90 4ebd 243d 4b3d ce65 293e
000001d0: c8a3 5bbe 9c01 debe a5c8 c83e 7b30 9a3e
000001e0: d483 2f3e 594d 10be 044c a63e 9acd 593e
000001f0: 28ed 84bc 9d3a c8be cc4d c43c 94d1 1e3e
00000200: 09e3 f43d 28c8 203e 5de1 89be 6382 bfbe
00000210: fa48 033e a8e3 64be 92c9 c23d 1476 75be
00000220: 1139 bc3e 7e5c 8e3d 49f9 23be e05b 57be
00000230: 9d9c 3abe 2b4d e5bb 72b5 7c3e cac9 883e
00000240: d1d3 93be 4054 47bc 716b 5f3e f808 cfbd
00000250: 4d16 eebd 78a6 673e 22a5 31bd 69c2 1a3e
00000260: 3f16 cfbd 3a00 77be bbc3 2b3e 4ac0 f93d
00000270: c472 c7be ec9c 4ebe 57ae 0bbe 43d6 d03e
00000280: 5a03 97be a8c5 8ebe 020c 403e d9c7 1e3e
00000290: 1b88 ee3c 471f 153f 91a2 3bbd 0ceb abbe
000002a0: 4eed 51be 58fc bb3e 7159 c3bd 1f71 93be
000002b0: e952 5f3e fc7e 403e 50d2 043e b5a1 96be
000002c0: e7a8 df3e fcda 7cbd 8084 673b a1c3 753e
000002d0: 8a7d 003e fa6a 08bf 54e4 983e 58f3 6c3e
000002e0: 9213 35be 54a3 cbbe 44ce 023f 4bbf 9f3e
000002f0: 398b 413c 0f9e 07bf 6b6b 213e 9734 d33d
00000300: 16c2 873e 11d6 1d3d d39c 303e 08bf 2abe
00000310: fcc4 44be c9cc 65be ad5d 4fbe de02 bebe
00000320: a403 2ebd 1d92 493c 3ad2 d5bb b5b2 b73d
00000330: c50f 9e3e 8c9a da3e 4b5a a0bd f698 22bf
00000340: 3bba b63e f3d8 573d cf17 2a3e f9ab 853e
00000350: 3236 a53c e6d3 c1bb 2051 813d 9eac dfba
00000360: 615d 903c 9ea5 513b eee7 3fbe 3fe4 3abe
00000370: c952 dc3c ce0e 6a3e 2534 49bd 2356 2abf
00000380: b147 9e3e 9a05 533e 7a7f 823d f3c2 9fbe
00000390: 0cfa 16be 5d65 ad3d 6981 61be 9450 703e
000003a0: edfd 943e b03b aa3e 761d ddbd c42a 32be
000003b0: 0e65 a9be 5f40 9f3e 6dac 80bd 1c38 e2be
000003c0: f825 0f3e 0ed1 d13e f3da 363d 2225 95be
000003d0: 5a18 b13e a5e5 8fbc 3a67 073e 3a97 3f3b
000003e0: 9ace 2d3d 79c6 8b3b aec8 6cbe 8d6d 953c
000003f0: 9dbb 483e 79b0 973e 9393 98bd ef7c b1be

shared_fc.0.bias f4 [64]
0.3010437 0.35898834 0.34711152 0.30730954 0.29976663 0.35448447 0.32004783 -0.05675767
-0.06461933 0.34670022 -0.09915651 0.2855657 0.37848458 0.3111717 -0.040136546 -0.062040687
-0.0639086 0.30671123 0.30875453 0.3559473 0.37637278 0.38936916 0.28306276 -0.04166619
-0.109446004 0.30631483 -0.05450212 -0.057204895 0.3411328 0.30562308 0.30562738 0.37520245
0.32472795 -0.087288365 0.3642284 0.29045662 -0.0763806 -0.078273386 0.29622716 0.36898223
0.37612116 0.287516 0.3867264 0.38980007 0.2706501 0.3400201 0.2711481 0.36169922
0.3327195 0.37153393 -0.066633865 0.27647933 0.33987838 -0.020072985 -0.062840775 0.35100842
0.37115803 -0.09963982 0.033293813 0.31723368 0.35417107 -0.047472 -0.03846866 0.31697214
00000000: 6622 9a3e 52cd b73e 9ab8 b13e ad57 9d3e
00000010: 037b 993e fd7e b53e 4fdd a33e bb7a 68bd
00000020: 2457 84bd b182 b13e 9112 cbbd ab35 923e
00000030: bbc8 c13e e651 9f3e 3866 24bd 601e 7ebd
00000040: 83e2 82bd 4109 9d3e 1315 9e3e b93e b63e
00000050: efb3 c03e 655b c73e 9aed 903e 2baa 2abd
00000060: 3a25 e0bd 4cd5 9c3e 9d3d 5fbd ae4f 6abd
00000070: f5a8 ae3e a17a 9c3e 317b 9c3e 891a c03e
00000080: be42 a63e 3ec4 b2bd 257c ba3e bbb6 943e
00000090: 6f6d 9cbd cc4d a0bd 16ab 973e 3deb bc3e
000000a0: f492 c03e 4c35 933e 0101 c63e e093 c73e
000000b0: a692 8a3e 1d17 ae3e ecd3 8a3e a430 b93e
000000c0: 365a aa3e b239 be3e 5677 88bd b38e 8d3e
000000d0: 8a04 ae3e 1a70 a4bc aab2 80bd 60b7 b33e
000000e0: 6d08 be3e f60f ccbd 185f 083d 746c a23e
000000f0: e955 b53e 0072 42bd 5091 1dbd 2c4a a23e

actor_head.weight f4 [2, 64]
0.048590288 0.11423115 0.113513455 0.1332754 0.07647443 0.05243187 -0.12215889 0.026796557
-0.022569792 0.0508601 0.060940687 -0.04132101 -0.087384395 -0.034365334 -0.004566046 -0.024660276
0.0005782464 -0.05709637 0.087465756 0.0053594583 -0.06048209 0.053598672 -0.08472805 -0.0020260958
-0.058512494 -0.0092703765 -0.008833701 -0.009495488 -0.1029043 -0.054764003 -0.09117895 -0.04395478
0.07942706 0.041458305 0.084691636 -0.11640264 0.013862938 -0.045264777 -0.06750911 -0.07403817
-0.06885852 0.0622272 0.08214464 0.083277896 -0.09505332 -0.026804753 -0.03734372 -0.039109495
0.06639689 0.12955773 -0.028667962 0.07751943 -0.11241983 -0.0024808876 0.024460983 0.07491618
0.06414947 -0.031770848 0.04101924 0.08140256 0.069121666 -0.032252576 0.016474335 0.04579659
-0.044197664 -0.12467779 -0.12457298 -0.13635142 -0.101186134 -0.048360147 0.13166465 -0.023408085
0.006725487 -0.07974898 -0.018498944 0.030451156 0.09806968 0.06105481 -0.011824558 0.010914799
-0.061540313 0.055209316 -0.09942597 -0.011770023 0.03401015 -0.07274133 0.09627887 -0.018029228
0.037680566 -0.0010463918 0.02788497 0.015234191 0.06827166 0.06369673 0.109404415 0.06816865
-0.08617706 -0.036199078 -0.06838475 0.12817883 -0.0006863309 0.0314115 0.05644276 0.06240946
0.055656172 -0.05065801 -0.07907723 -0.09270957 0.06344185 0.050169356 0.02295007 0.038968872
-0.044327233 -0.13200177 0.029327307 -0.054761417 0.12655045 0.0046068365 -0.032032315 -0.08440075
-0.064044625 0.031376038 -0.038466636 -0.07435096 -0.05782193 0.033886936 -0.0059291064 -0.07985349
00000000: 9c06 473d 05f2 e93d be79 e83d 5979 083e
00000010: a09e 9c3d cdc2 563d 712e fabd 7484 db3c
00000020: 49e4 b8bc ae52 503d f19c 793d 3840 29bd
00000030: 97f6 b2bd aac2 0cbd c59e 95bb 5904 cabc
00000040: 7695 173a e2dd 69bd 3f21 b33d 659e af3b
00000050: 11bc 77bd 488a 5b3d e685 adbd 3fc8 04bb
00000060: ccaa 6fbd c7e2 17bc 3abb 10bc f792 1bbc
00000070: 7dbf d2bd 3850 60bd 08bc babd ed09 34bd
00000080: a8aa a23d 2fd0 293d cf72 ad3d 8264 eebd
00000090: 6021 633c 8f67 39bd 3742 8abd 53a1 97bd
000000a0: b205 8dbd f3e1 7e3d 733b a83d 9a8d aa3d
000000b0: 51ab c2bd a495 dbbc bbf5 18bd 4731 20bd
000000c0: 18fb 873d c8aa 043e 13d9 eabc 82c2 9e3d
000000d0: 5e3c e6bd 6396 22bb 6662 c83c a76d 993d
000000e0: cc60 833d 2622 02bd ca03 283d 63b6 a63d
000000f0: a98f 8d3d 471b 04bd 2ff5 863c 3595 3b3d
00000100: 9c08 35bd 1257 ffbd 1e20 ffbd b59f 0bbe
00000110: ad3a cfbd 4a15 46bd 19d3 063e 50c2 bfbc
00000120: 7961 dc3b 6f53 a3bd 198b 97bc b474 f93c
00000130: c2d8 c83d 9c14 7a3d cabb 41bc fcd3 323c
00000140: b211 7cbd 2a23 623d d89f cbbd 0ed7 40bc
00000150: 3a4e 0b3d 68f9 94bd db2d c53d 08b2 93bc
00000160: f056 1a3d 1527 89ba 056f e43c d498 793c
00000170: 03d2 8b3d 6e73 823d 6c0f e03d 019c 8b3d
00000180: 997d b0bd 7c45 14bd 4e0d 8cbd 5041 033e
00000190: e3ea 33ba 58a9 003d 8630 673d 10a1 7f3d
000001a0: baf7 633d c67e 4fbd 3ef3 a1bd 84de bdbd
000001b0: cded 813d 627e 4d3d c901 bc3c d39d 1f3d
000001c0: 7990 35bd 792b 07be d23f f03c 824d 60bd
000001d0: 7196 013e f2f4 963b 5134 03bd 4dda acbd
000001e0: d429 83bd 2984 003d 318f 1dbd 5145 98bd
000001f0: b0d6 6cbd 07cd 0a3d f348 c2bb 3a8a a3bd

actor_head.bias f4 [2]
-0.0045361114 0.0045361137
00000000: a9a3 94bb aea3 943b

critic_head.weight f4 [1, 64]
0.36381802 0.36323398 0.35549775 0.4805128 0.4327318 0.36986923 0.41276875 -0.113373466
-0.14065072 0.3359273 -0.09219452 0.5462475 0.35355207 0.43425897 -0.22705974 -0.06580467
-5.241626e-05 0.3209193 0.4390268 0.36893693 0.29163283 0.319754 0.4907008 -0.0865959
-0.05264216 0.4386124 -0.09033425 -0.045815747 0.34975225 0.3781544 0.4694732 0.3395356
0.3787949 -0.16112614 0.36524454 0.51792705 -0.059737243 -0.11557674 0.5028133 0.31980598
0.3430479 0.3909792 0.31422728 0.33378115 0.75226927 0.33607227 0.21157381 0.33427396
0.41741166 0.3457181 -0.054955985 0.38582557 0.3865568 -0.063172564 0.0026984438 0.29333204
0.33414534 -0.08666957 0.0708676 0.35518667 0.28529957 -0.009071272 -0.017908616 0.37625346
00000000: 5b46 ba3e cef9 b93e cd03 b63e c605 f63e
00000010: 068f dd3e 805f bd3e 6d56 d33e 5930 e8bd
00000020: be06 10be aafe ab3e 7bd0 bcbd e0d6 0b3f
00000030: c704 b53e 3157 de3e 5982 68be 99c4 86bd
00000040: 88d9 5bb8 894f a43e 1fc8 e03e 4de5 bc3e
00000050: e650 953e ccb6 a33e 233d fb3e 3159 b1bd
00000060: 4e9f 57bd ce91 e03e 2a01 b9bd 4ba9 3bbd
00000070: ba12 b33e 749d c13e cb5e f03e 9cd7 ad3e
00000080: 68f1 c13e 40fe 24be 5501 bb3e de96 043f
00000090: 0aaf 74bd 7fb3 ecbd 5fb8 003f 9cbd a33e
000000a0: f9a3 af3e 6d2e c83e 66e2 a03e 5de5 aa3e
000000b0: b894 403f aa11 ac3e cea6 583e f525 ab3e
000000c0: fbb6 d53e f601 b13e 8719 61bd ee8a c53e
000000d0: c6ea c53e 9e60 81bd 60d8 303b 9e2f 963e
000000e0: 1915 ab3e d17f b1bd 0823 913d 07db b53e
000000f0: c912 923e ac9f 14bc 17b5 92bc 4ba4 c03e

exp_avg f4 [64, 4]
-0.0005214805 -0.0032720726 0.00012862383 0.0047123493 -0.0004290172 -0.003031957 0.0005088597 0.0056934934
-0.0009582336 -0.0040444443 -0.00028656164 0.0031356649 -0.0006725313 -0.0041398695 0.0006119051 0.0073331594
-0.0008369109 -0.0037673963 2.9681814e-05 0.0046659294 -0.00075060053 -0.0035079282 0.0003428162 0.005288924
-0.0016663703 -0.005060426 -5.1613908e-05 0.004706684 0.0006199487 0.0012803205 0.00037731993 0.000663821
1.5352032e-07 -9.49202e-06 -2.109128e-06 4.9215337e-06 -0.0003298485 -0.0026751452 0.00045718782 0.0051721376
0.0003633913 0.0006611865 0.0002020615 0.00049304904 -0.0016712166 -0.0049652834 0.00030795144 0.005920229
-0.0013526405 -0.0042214454 -1.1040717e-05 0.004107777 -0.0013538876 -0.0047782436 0.00014277098 0.005499294
-7.846907e-11 -1.5168564e-09 -2.696473e-10 -5.885199e-10 -9.558047e-05 -0.00016707262 -0.00010386787 -0.00032981267
8.95252e-05 0.00016487473 1.1765008e-05 -5.2121453e-05 -0.00044182074 -0.0030098816 0.00035578132 0.005034171
-0.00073249126 -0.003715853 0.00024178276 0.005464335 -0.0009285772 -0.0037337886 0.00024085406 0.004976182
-0.0011711554 -0.00160357 0.000103614824 0.0010501802 -0.0005772348 -0.0028742447 0.00026825414 0.0043876856
-0.0010104005 -0.0013361818 0.0007258382 0.0036035578 7.399916e-07 4.747591e-06 8.785259e-07 -7.5203536e-07
-7.149576e-05 -0.00014466951 -0.00012880866 -0.00036435784 -0.001159496 -0.0044791643 0.0002537811 0.00573544
-0.00012222753 -0.00040024793 -0.0001742923 -0.0004017843 -6.703053e-05 -0.00014151553 -6.3353684e-05 -0.0001702099
-0.0012972825 -0.004104399 -4.701757e-06 0.004047448 -0.0015065213 -0.0020586646 0.00013936595 0.0013723093
-0.0017881634 -0.0051335082 5.8840884e-05 0.005049093 -0.0012209341 -0.0035616162 9.0396235e-05 0.0037197287
-0.00062778377 -0.0030674988 7.950873e-05 0.0041189664 0.0008559965 0.0018012966 0.00050841307 0.0008121537
-0.00062088674 -0.003300784 0.00040567783 0.005415888 -0.0019369437 -0.0061469767 3.5560355e-05 0.0062040812
0.00024957335 0.0005419981 0.00015011958 0.000131399 -0.00013265556 -0.00052259327 -0.00028586903 -0.00070336286
-0.001621339 -0.005608695 0.00016487826 0.0063830526 -0.0011961911 -0.0032064132 6.9127454e-05 0.0031539265
-0.0011971558 -0.003951809 6.228061e-05 0.0042120754 -0.00017629887 -0.0030913365 0.00030516996 0.005603765
-0.0004903611 -0.0027538957 0.00032357327 0.0045369472 -0.00050424243 -0.0030243078 0.00041590727 0.0052021514
-0.0011291902 -0.0058818683 0.0010435581 0.010633772 -0.0011847715 -0.0028086205 0.00014117484 0.0028770526
-0.00082770037 -0.001093314 6.1032802e-05 0.00066209823 -0.001102307 -0.0031540978 0.00014370152 0.0035008634
-0.0008494489 -0.003958955 0.00038460703 0.0059600538 -0.00037046423 -0.0028518518 0.0004842234 0.0054073613
1.5839347e-06 1.9918816e-05 -1.4991328e-05 -5.412701e-05 -0.0007207505 -0.004121478 2.8027587e-05 0.0050805123
-0.00081030774 -0.0039710593 0.00027146845 0.005582422 1.1694918e-23 1.4215778e-23 3.6340964e-24 7.158108e-24
-1.9420363e-06 -7.598539e-05 -3.415771e-05 -7.478268e-05 -0.00058523845 -0.0029222455 -4.2872598e-05 0.0033767177
-0.00063054595 -0.003059966 0.0002798351 0.0046163076 -6.106415e-05 -5.9221555e-05 -0.00013183801 -0.0005009904
0.00017318783 -0.00042410032 0.00016812496 0.0015826023 -0.0006862262 -0.0035838122 -6.4692376e-06 0.00436232
-0.0002479516 -0.0022288556 0.0003985904 0.0043931343 -5.8546604e-05 -0.0001228266 -4.7777587e-05 -0.00013422269
5.521653e-08 4.380909e-06 8.8008426e-07 -2.3074676e-06 -0.00078968203 -0.0037386438 1.1646198e-05 0.0045088883
00000000: f7b3 08ba 4570 56bb 32df 0639 0d6a 9a3b
00000010: b7ed e0b9 ccb3 46bb ff64 053a 7c90 ba3b
00000020: f831 7bba 4287 84bb a73d 96b9 ba7f 4d3b
00000030: d04c 30ba bea7 87bb 4268 203a 004b f03b
00000040: 2464 5bba 6ce6 76bb 36fd f837 a7e4 983b
00000050: f3c3 44ba 45e5 65bb 03bc b339 b64e ad3b
00000060: 1c6a daba eed1 a5bb 037c 58b8 873a 9a3b
00000070: 0e84 223a 6dd0 a73a 06d3 c539 4604 2e3a
00000080: 58d7 2434 ea3f 1fb7 8b8a 0db6 a723 a536
00000090: 84ef acb9 7d51 2fbb b6b2 ef39 097b a93b
000000a0: 8e85 be39 7a53 2d3a 79e0 5339 f63f 013a
000000b0: b90c dbba d1b3 a2bb 8b74 a139 7bfe c13b
000000c0: 154b b1ba 0d54 8abb 853b 39b7 889a 863b
000000d0: ee74 b1ba d092 9cbb cbb4 1539 6c33 b43b
000000e0: 298e acae a479 d0b0 7c3d 94af 68c5 21b0
000000f0: 6072 c8b8 3730 2fb9 a3d3 d9b8 b5ea acb9
00000100: 7abf bb38 39e2 2c39 5362 4537 fc9c 5ab8
00000110: 2da4 e7b9 6f41 45bb 2988 ba39 b0f5 a43b
00000120: a804 40ba ab85 73bb 1187 7d39 2a0e b33b
00000130: c36b 73ba 94b2 74bb c58d 7c39 3d0f a33b
00000140: 7481 99ba e12e d2ba c94b d938 33a6 893a
00000150: 9251 17ba d35d 3cbb 76a4 8c39 93c6 8f3b
00000160: 6a6f 84ba d222 afba 2d46 3e3a ab29 6c3b
00000170: d6a3 4635 7f4d 9f36 d7d3 6b35 7adf 49b5
00000180: feef 95b8 6db2 17b9 d010 07b9 4807 bfb9
00000190: 3bfa 97ba f4c5 92bb ec0d 8539 5cf0 bb3b
000001a0: 342a 00b9 5ed8 d1b9 3cc2 36b9 93a6 d2b9
000001b0: be92 8cb8 c963 14b9 c0dc 84b8 5f7a 32b9
000001c0: 9409 aaba 327e 86bb c9c3 9db6 74a0 843b
000001d0: 7776 c5ba a9ea 06bb c322 1239 0fdf b33a
000001e0: cf60 eaba fd36 a8bb ebcb 7638 dd72 a53b
000001f0: c007 a0ba 016a 69bb 1c93 bd38 b1c6 733b
00000200: db91 24ba 1708 49bb edbd a638 65f8 863b
00000210: f464 603a 7c19 ec3a 0647 053a b6e6 543a
00000220: 01c3 22ba f751 58bb 28b1 d439 c377 b13b
00000230: 0ce1 fdba 946c c9bb a426 1538 9b4b cb3b
00000240: 2bd9 8239 e014 0e3a 6b69 1d39 27c8 0939
00000250: 7519 0bb9 a4fe 08ba b1e0 95b9 e261 38ba
00000260: 1c83 d4ba 25c9 b7bb 2ce3 2c39 ed28 d13b
00000270: 83c9 9cba b022 52bb 85f8 9038 1bb2 4e3b
00000280: e2e9 9cba 2d7e 81bb a69c 8238 7305 8a3b
00000290: dedc 38b9 0598 4abb 38ff 9f39 ca9f b73b
000002a0: 948b 00ba b47a 34bb 45a5 a939 acaa 943b
000002b0: 232f 04ba 7733 46bb 210e da39 cf76 aa3b
000002c0: 5601 94ba b0bc c0bb 00c8 883a 4639 2e3c
000002d0: 564a 9bba d510 38bb 5508 1439 ef8c 3c3b
000002e0: 08fa 58ba 884d 8fba 79fd 7f38 a990 2d3a
000002f0: 497b 90ba fbb4 4ebb 95ae 1639 be6e 653b
00000300: 8dad 5eba 1fba 81bb 15a5 c939 8e4c c33b
00000310: de3a c2b9 22e6 3abb 5ddf fd39 3c30 b13b
00000320: 9597 d435 5517 a737 4383 7bb7 6f06 63b8
00000330: bff0 3cba 770d 87bb c91c eb37 6d7a a63b
00000340: d56a 54ba a91f 82bb e153 8e39 c0ec b63b
00000350: 6e36 6219 907c 8919 5996 8c18 3c75 0a19
00000360: ee53 02b6 585a 9fb8 9044 0fb8 a5d4 9cb8
00000370: b06a 19ba 2583 3fbb 1ad2 33b8 ec4b 5d3b
00000380: 394b 25ba b689 48bb d5b6 9239 6544 973b
00000390: 910f 80b8 a964 78b8 ff3d 0ab9 e654 03ba
000003a0: c199 3539 c859 deb9 b34a 3039 526f cf3a
000003b0: dce3 33ba 64de 6abb 5412 d9b6 cbf1 8e3b
000003c0: 80ff 81b9 fe11 12bb e6f9 d039 48f4 8f3b
000003d0: f08f 75b8 04cb 00b9 cb64 48b8 21be 0cb9
000003e0: 3727 6d33 b9ff 9236 ee3e 6c35 fed9 1ab6
000003f0: aa02 4fba 0904 75bb 0a64 4337 4cbf 933b

exp_avg_sq f4 [64, 4]
2.8541451e-06 2.9186587e-05 1.3966068e-06 4.549464e-05 4.758577e-06 2.1481954e-05 1.6696682e-06 3.0395204e-05
4.164603e-06 1.9100371e-05 1.3186839e-06 2.823456e-05 1.0069825e-05 4.940265e-05 3.3737695e-06 7.222224e-05
5.206226e-06 3.989366e-05 2.4625742e-06 6.687591e-05 3.5678966e-06 1.787756e-05 1.5600366e-06 2.6940912e-05
5.327182e-06 3.1396678e-05 2.53795e-06 4.3268443e-05 6.117196e-07 4.8491224e-06 1.15148325e-07 9.1340235e-06
2.9743438e-07 9.271201e-06 7.014012e-08 1.39057665e-05 2.492464e-06 1.6807378e-05 1.2785717e-06 2.787138e-05
7.255162e-07 1.4347235e-05 1.5099825e-07 1.4117896e-05 1.3320837e-05 0.00010273772 4.5704965e-06 0.00012954487
3.945109e-06 2.1126367e-05 1.824058e-06 2.9000095e-05 6.8111567e-06 3.7900398e-05 2.8254292e-06 5.2623298e-05
1.4218946e-07 1.476684e-05 7.160103e-08 1.8704153e-05 8.440592e-08 1.8541599e-06 5.2459722e-08 5.5840774e-06
1.3263508e-07 2.4277467e-06 1.7493635e-08 2.6943928e-06 1.0853554e-06 9.200277e-06 8.7704865e-07 1.3349653e-05
6.7900187e-06 3.941004e-05 2.565886e-06 6.3205014e-05 3.4727766e-06 2.1476719e-05 1.7278305e-06 3.328647e-05
2.0991702e-06 1.34584125e-05 9.585641e-07 1.5745863e-05 2.7335395e-06 1.4260366e-05 1.1904929e-06 2.3125678e-05
6.8912645e-06 6.8422196e-05 3.009758e-06 0.0001171753 8.345646e-08 2.2174943e-06 1.7875152e-08 3.1266698e-06
1.810349e-07 6.914644e-06 6.3911855e-08 1.3150001e-05 7.2837183e-06 4.65101e-05 2.659191e-06 5.83011e-05
7.8274454e-08 1.4623987e-06 1.5252256e-07 4.9908035e-06 7.7455475e-08 1.1165056e-06 3.2699116e-08 3.3895344e-06
2.9451273e-06 1.5736261e-05 1.5849264e-06 2.419186e-05 4.9645805e-06 4.1763804e-05 1.8681465e-06 5.1164254e-05
7.730286e-06 5.0659703e-05 3.3993788e-06 7.502633e-05 3.133988e-06 1.7671904e-05 1.5226038e-06 2.4903833e-05
3.9246333e-06 2.5356234e-05 1.7605316e-06 4.0916548e-05 1.6237428e-06 1.1621969e-05 6.308255e-07 2.4565124e-05
3.5176224e-06 2.0671881e-05 1.7096302e-06 3.2554384e-05 1.0815658e-05 6.92815e-05 4.5285574e-06 0.00010101382
2.7680855e-07 3.384442e-06 2.4905555e-08 5.558207e-06 1.8919725e-07 6.373795e-06 3.0625276e-07 2.8629665e-06
1.0649659e-05 7.390763e-05 3.9853717e-06 9.732578e-05 2.923907e-06 1.8448018e-05 1.3113086e-06 2.3183573e-05
3.2670532e-06 1.8715236e-05 1.590546e-06 2.5905998e-05 3.3003867e-06 3.9343595e-05 1.6055006e-06 5.9543123e-05
2.6413334e-06 1.3845009e-05 1.1270411e-06 2.1461141e-05 2.7672756e-06 1.568773e-05 1.3262467e-06 2.4861998e-05
1.6998158e-05 0.00014497021 8.936045e-06 0.00027391163 3.5150908e-06 2.3951634e-05 1.3798735e-06 3.0540275e-05
7.871575e-07 5.283146e-06 3.7415907e-07 6.0582875e-06 3.32074e-06 1.9477395e-05 1.4099752e-06 2.6678825e-05
4.9996856e-06 3.0489626e-05 2.3389096e-06 4.6861915e-05 4.1804024e-06 1.9140745e-05 1.3977234e-06 2.5898744e-05
1.1329037e-07 2.92605e-06 3.7448533e-08 5.761368e-06 3.299052e-06 4.0476498e-05 1.4439927e-06 6.7452966e-05
3.0933911e-06 2.1881706e-05 2.0111686e-06 3.4064582e-05 5.3383022e-09 1.0883742e-07 1.0897988e-08 8.963681e-08
2.5481805e-08 1.1069303e-06 1.8592704e-08 2.2670633e-06 2.0514683e-06 1.2726331e-05 8.580893e-07 2.0926384e-05
2.6671935e-06 1.5916256e-05 1.3344724e-06 2.6195898e-05 3.743294e-07 8.880229e-06 1.2269525e-07 1.8009521e-05
4.9906365e-08 1.4107675e-06 2.9059308e-08 2.0055504e-06 3.3622596e-06 2.335797e-05 1.3712889e-06 3.6624762e-05
1.3545388e-06 8.081215e-06 7.6741657e-07 1.3970975e-05 1.02739016e-07 4.172449e-07 1.7140502e-08 2.636196e-07
8.663378e-09 6.188578e-08 1.0716209e-08 1.7942692e-07 3.359294e-06 2.6801237e-05 1.7454058e-06 4.3436972e-05
00000000: d789 3f36 b8d5 f437 0b73 bb35 7fd1 3e38
00000010: ddab 9f36 2534 b437 5d19 e035 34f9 fe37
00000020: abbd 8b36 bc39 a037 a2fd b035 42d9 ec37
00000030: 92f1 2837 b135 4f38 eb68 6236 0576 9738
00000040: 24b1 ae36 7e53 2738 b442 2536 bb3f 8c38
00000050: ff6f 6f36 c5f7 9537 7362 d135 2bff e137
00000060: 25c0 b236 edaf 0338 a651 2a36 237b 3538
00000070: 0d35 2435 a5b5 a236 7647 f733 553e 1937
00000080: 12af 9f34 818b 1b37 f09f 9633 d04c 6937
00000090: 3544 2736 92fd 8c37 649b ab35 55cd e937
000000a0: 18c1 4235 e8b4 7037 1522 2234 e7db 6c37
000000b0: 8f7c 5f37 e574 d738 445c 9936 70d6 0739
000000c0: 3a60 8436 8738 b137 28d2 f435 3b45 f337
000000d0: 648b e436 3ef7 1e38 819c 3d36 d6b7 5c38
000000e0: beac 1834 18bf 7737 15c3 9933 dde6 9c37
000000f0: a542 b533 73dc f835 1350 6133 dc5e bb36
00000100: 746a 0e34 5fec 2236 e944 9632 51d1 3436
00000110: 87ac 9135 e45a 1a37 536e 6b35 53f8 5f37
00000120: d1d5 e336 354c 2538 9631 2c36 ef8c 8438
00000130: d90d 6936 e728 b437 cee7 e735 139d 0b38
00000140: 78df 0c36 71cb 6137 03a8 8035 fc15 8437
00000150: da71 3736 ce3f 6f37 06c9 9f35 04fe c137
00000160: 833b e736 e37d 8f38 40fb 4936 03bc f538
00000170: ad38 b333 43d0 1436 e08b 9932 c7d3 5136
00000180: 7f62 4234 5704 e836 ea3f 8933 d39e 5c37
00000190: aa66 f436 d713 4338 8e74 3236 5488 7438
000001a0: d617 a833 a347 c435 15c5 2334 ad76 a736
000001b0: 9955 a633 d7da 9535 0f71 0c33 c277 6336
000001c0: e7a4 4536 5d01 8437 a8b9 d435 a0ef ca37
000001d0: 6c95 a636 8b2b 2f38 06bd fa35 3399 5638
000001e0: 53b1 0137 717b 5438 e220 6436 7457 9d38
000001f0: 8151 5236 203e 9437 455c cc35 93e8 d037
00000200: 58b0 8336 19b4 d437 684b ec35 cf9d 2b38
00000210: 61ef d935 fafb 4237 0056 2935 3411 ce37
00000220: 4b10 6c36 8768 ad37 7276 e535 018b 0838
00000230: e674 3537 394b 9138 03f4 9736 62d7 d338
00000240: 479c 9434 4520 6336 e5ef d532 a280 ba36
00000250: 2526 4b34 7bde d536 0f6b a434 6421 4036
00000260: f0ab 3237 dbfe 9a38 15ba 8536 611b cc38
00000270: 5738 4436 d1c0 9a37 3800 b035 587a c237
00000280: 8c3f 5b36 aafe 9c37 bf7a d535 b550 d937
00000290: 367c 5d36 dd04 2538 957c d735 f1bd 7938
000002a0: c341 3136 dc47 6837 d644 9735 7307 b437
000002b0: 6fb5 3936 2599 8337 7d01 b235 bc8e d037
000002c0: 4497 8e37 2503 1839 05ec 1537 cc9b 8f39
000002d0: cde4 6b36 beeb c837 1834 b935 5f18 0038
000002e0: 0d4d 5335 e145 b136 08e0 c834 4b48 cb36
000002f0: e1d9 5e36 6363 a337 613e bd35 57cc df37
00000300: f9c2 a736 f9c3 ff37 29f6 1c36 998d 4438
00000310: 6245 8c36 7090 a037 6999 bb35 2141 d937
00000320: 0a4a f333 285d 4436 19d7 2033 c651 c136
00000330: 4865 5d36 4fc5 2938 36cf c135 8975 8d38
00000340: 0e98 4f36 9b8e b737 9df7 0636 91e0 0e38
00000350: 346c b731 01ba e933 dc39 3b32 5c7e c033
00000360: 15e3 da32 d691 9435 cab5 9f32 da23 1836
00000370: f5ab 0936 2d83 5537 7357 6635 118b af37
00000380: 09fe 3236 e683 8537 1f1c b335 43bf db37
00000390: 71f7 c834 4bfc 1437 37be 0334 2713 9737
000003a0: a158 5633 9a59 bd35 189e f932 1897 0636
000003b0: 2ea3 6136 dcf0 c337 210d b835 8a9d 1938
000003c0: 99cd b535 8e94 0737 7700 4e35 e164 6a37
000003d0: 5fa1 dc33 b401 e034 5d3c 9332 9a87 8d34
000003e0: f0d5 1432 11e6 8433 631a 3832 7fa8 4034
000003f0: 3b70 6136 38d3 e037 b043 ea35 1830 3638

exp_avg f4 [64]
-0.01793335 -0.016325941 -0.020487722 -0.02201118 -0.022169923 -0.017422292 -0.021864215 -0.0017604372
1.3422737e-05 -0.015910339 -0.0007863207 -0.025933888 -0.01845382 -0.02190792 -1.435975e-09 -0.000608281
-0.00019418482 -0.017845394 -0.021575805 -0.017948672 -0.010849566 -0.015103163 -0.021405183 -4.8473894e-06
-0.00043263097 -0.021508638 -0.0009847799 -0.000367491 -0.018043704 -0.014143416 -0.023780162 -0.016813906
-0.019389635 -0.0021779411 -0.016943546 -0.027111746 -0.0004567119 -0.0015455658 -0.025568275 -0.015673844
-0.017582648 -0.019373003 -0.014510254 -0.01508744 -0.04000846 -0.015150682 -0.0074325707 -0.015975717
-0.019789776 -0.015524823 -5.5688328e-05 -0.01761821 -0.022173353 1.4983558e-23 6.124597e-05 -0.014425315
-0.015746828 -0.00066836306 -0.0030289968 -0.01710479 -0.013373885 -0.00032655062 -5.3942554e-06 -0.018381149
00000000: f6e8 92bc fbbd 85bc ded5 a7bc ca50 b4bc
00000010: b39d b5bc 32b9 8ebc 951c b3bc 78be e6ba
00000020: 3732 6137 6656 82bc 1721 4eba 4e73 d4bc
00000030: 772c 97bc 3d78 b3bc e15b c5b0 0c75 1fba
00000040: 179e 4bb9 8130 92bc bebf b0bc 1809 93bc
00000050: 61c2 31bc 4273 77bc ec59 afbc c2a6 a2b6
00000060: bfd2 e2b9 e232 b0bc bb13 81ba cfab c0b9
00000070: 64d0 93bc c9b9 67bc 9dce c2bc 51bd 89bc
00000080: 03d7 9ebc cabb 0ebb 31cd 8abc 7419 debc
00000090: d572 efb9 9594 caba 8f74 d1bc 6f66 80bc
000000a0: 7c09 90bc 22b4 9ebc 6bbc 6dbc 4f31 77bc
000000b0: e9df 23bd 913a 78bc ec8c f3bb 82df 82bc
000000c0: 2b1e a2bc d45b 7ebc e392 69b8 1054 90bc
000000d0: e4a4 b5bc 7ee9 9019 2e71 8038 2858 6cbc
000000e0: 7eff 80bc 1635 2fba 2282 46bb 581f 8cbc
000000f0: 241e 5bbc e234 abb9 4d00 b5b6 1094 96bc

exp_avg_sq f4 [64]
0.0009043264 0.0011062147 0.0010007835 0.0024867496 0.0016308278 0.0008090066 0.0016014954 2.9806371e-05
4.6817233e-05 0.0007552487 6.923795e-05 0.003445605 0.0009807657 0.0019258145 6.091019e-05 1.4913065e-05
1.2177992e-05 0.00043008663 0.0018025943 0.0010933256 0.00047219903 0.0006892909 0.002311378 1.0804723e-05
4.419548e-05 0.0019050481 1.9370607e-05 9.183329e-06 0.00062792754 0.0011299754 0.0022950692 0.00078216946
0.0011395301 0.000105711675 0.0010686461 0.0030972695 2.2967079e-05 4.4038698e-05 0.0028432505 0.0007095022
0.0008600769 0.0010904536 0.0006517104 0.0007672595 0.008104618 0.0007930405 0.00013524985 0.0008117455
0.0016074406 0.0009397986 1.5976788e-05 0.0010086353 0.0013129866 1.5311401e-06 8.8043225e-06 0.00049216364
0.00078545214 5.647715e-05 1.1328367e-05 0.00089037186 0.0003655313 9.667036e-06 1.3608396e-06 0.0010603926
00000000: 5110 6d3a 68fe 903a b92c 833a bcf8 223b
00000010: 80c1 d53a 8413 543a 45e9 d13a b208 fa37
00000020: 9f5d 4438 e2fb 453a d733 9138 a9cf 613b
00000030: 098d 803a 9d6b fc3a d279 7f38 2033 7a37
00000040: 1450 4c37 407d e139 0745 ec3a eb4d 8f3a
00000050: 7b91 f739 87b1 343a 7d7a 173b ef45 3537
00000060: 895e 3938 cfb2 f93a 107e a237 1912 1a37
00000070: 819b 243a af1b 943a df68 163b 810a 4d3a
00000080: 495c 953a 86b1 dd38 d011 8c3a 8ffb 4a3b
00000090: 6da9 c037 31b6 3838 d455 3a3b e3fd 393a
000000a0: c976 613a 8ded 8e3a 8bd7 2a3a ea21 493a
000000b0: 3bc9 043c 0ce4 4f3a dbd1 0d39 52cb 543a
000000c0: c2b0 d23a d15c 763a e405 8637 2f34 843a
000000d0: 8518 ac3a 9381 cd35 47b6 1337 8b04 013a
000000e0: cde6 4d3a e1e1 6c38 f70e 3e37 d867 693a
000000f0: c8a4 bf39 9a2f 2237 18a6 b635 dffc 8a3a

exp_avg f4 [2, 64]
0.001796898 -0.00013646086 -0.0011912676 1.1762441e-05 0.0007652418 0.0013606469 0.0033849403 2.1225602e-05
-3.0091958e-06 0.002571594 -2.5939178e-05 0.00091628404 0.0028412063 0.0014106298 1.5831978e-11 3.0719533e-05
-0.00055303815 0.0038529492 0.00032172402 0.0027327905 0.002282174 0.0022660436 0.003985539 -3.06997e-08
1.9736937e-05 0.00034033632 -6.1041123e-06 2.9808743e-05 0.0024078116 0.0016451447 0.002968426 0.0016566007
0.00090459414 0.00016243772 0.0022675695 0.0025918595 -5.149591e-06 9.592284e-05 0.0014972168 0.002055766
0.0015847886 0.0017342502 0.0018508564 0.0024993026 0.0033916864 0.0019478485 0.0018232227 0.0012073432
0.002326682 -0.0004285418 -2.2078737e-05 0.001290392 0.0042009233 -1.6574826e-24 0.00027780834 0.0005071243
0.0025012507 -1.698887e-05 0.00031087457 0.0003518844 0.0025865817 0.00011352592 -8.30789e-07 0.0018413309
-0.0017968987 0.00013646118 0.0011912681 -1.1762837e-05 -0.0007652419 -0.0013606469 -0.0033849394 -2.1225595e-05
3.009196e-06 -0.002571594 2.5939193e-05 -0.00091628404 -0.0028412058 -0.0014106297 -1.5831992e-11 -3.071953e-05
0.00055303826 -0.0038529492 -0.0003217245 -0.0027327912 -0.0022821745 -0.002266044 -0.0039855386 3.0699702e-08
-1.9736914e-05 -0.00034033533 6.104119e-06 -2.9808738e-05 -0.0024078113 -0.0016451436 -0.0029684256 -0.0016566005
-0.00090459443 -0.00016243766 -0.0022675695 -0.002591859 5.14962e-06 -9.592283e-05 -0.0014972169 -0.002055766
-0.0015847886 -0.0017342505 -0.0018508564 -0.0024993033 -0.0033916854 -0.0019478482 -0.001823222 -0.0012073428
-0.0023266824 0.00042854052 2.2078735e-05 -0.0012903926 -0.0042009233 1.6574826e-24 -0.00027780837 -0.0005071248
-0.0025012514 1.698887e-05 -0.00031087498 -0.0003518851 -0.0025865824 -0.00011352592 8.30789e-07 -0.0018413313
00000000: e485 eb3a ef16 0fb9 4f24 9cba 4d57 4537
00000010: 829a 483a bc57 b23a e0d5 5d3b a20d b237
00000020: 97f1 49b6 3088 283b f697 d9b7 c832 703a
00000030: 8833 3a3b e2e4 b83a 7242 8b2d d9d8 0038
00000040: c3f9 10ba c381 7c3b 11ad a839 9e18 333b
00000050: 8790 153b e781 143b 2099 823b adda 03b3
00000060: c090 a537 2b6f b239 edd1 ccb6 ca0d fa37
00000070: 60cc 1d3b e5a1 d73a ed89 423b 4c22 d93a
00000080: 4922 6d3a 0b54 2a39 819b 143b 30dc 293b
00000090: a6ca acb6 2f2a c938 423e c43a 08ba 063b
000000a0: aeb8 cf3a c84f e33a 6f98 f23a 57cb 233b
000000b0: 0e47 5e3b f34e ff3a 34f9 ee3a b73f 9e3a
000000c0: 3f7b 183b e8ad e0b9 ba35 b9b7 5f22 a93a
000000d0: e6a7 893b d33d 0098 cea6 9139 89f0 043a
000000e0: 06ec 233b 5283 8eb7 e1fc a239 207d b839
000000f0: a483 293b c414 ee38 6303 5fb5 d058 f13a
00000100: ea85 ebba 0517 0f39 5324 9c3a 0059 45b7
00000110: 849a 48ba bc57 b2ba dcd5 5dbb 9e0d b2b7
00000120: 98f1 4936 3088 28bb fe97 d937 c832 70ba
00000130: 8633 3abb e1e4 b8ba 7a42 8bad d8d8 00b8
00000140: c5f9 103a c381 7cbb 22ad a8b9 a118 33bb
00000150: 8990 15bb e981 14bb 1f99 82bb aeda 0333
00000160: b390 a5b7 096f b2b9 fcd1 cc36 c70d fab7
00000170: 5fcc 1dbb dca1 d7ba eb89 42bb 4a22 d9ba
00000180: 4e22 6dba 0754 2ab9 819b 14bb 2edc 29bb
00000190: e6ca ac36 2d2a c9b8 433e c4ba 08ba 06bb
000001a0: aeb8 cfba ca4f e3ba 6f98 f2ba 5acb 23bb
000001b0: 0a47 5ebb f14e ffba 2ef9 eeba b43f 9eba
000001c0: 417b 18bb bcad e039 b935 b937 6422 a9ba
000001d0: e6a7 89bb d33d 0018 cfa6 91b9 92f0 04ba
000001e0: 09ec 23bb 5283 8e37 effc a2b9 387d b8b9
000001f0: a783 29bb c414 eeb8 6303 5f35 d358 f1ba

exp_avg_sq f4 [2, 64]
2.0326497e-05 2.9419149e-05 3.9527713e-05 2.0687381e-05 2.0601497e-05 1.68968e-05 1.3818064e-05 4.7246633e-08
1.3861807e-08 2.0421445e-05 4.0151122e-07 1.5883788e-05 1.9126812e-05 1.456315e-05 3.7841765e-09 1.943853e-08
1.6416352e-06 1.1030118e-05 1.995169e-05 1.6416898e-05 2.7084865e-05 2.2971828e-05 1.4574371e-05 2.4260507e-09
2.1867572e-07 2.1430602e-05 9.527625e-09 1.4968588e-08 1.30852595e-05 2.0339881e-05 1.2176106e-05 2.410536e-05
2.081528e-05 3.3234662e-07 1.9792506e-05 1.1604063e-05 3.4405622e-07 1.6750127e-07 1.3799246e-05 2.4620065e-05
2.3832676e-05 1.9870167e-05 2.441236e-05 2.2532431e-05 1.0409547e-05 2.2180742e-05 1.352023e-05 2.6502157e-05
1.4582892e-05 3.4016997e-05 3.3530824e-08 2.7085718e-05 1.5420272e-05 2.531173e-11 3.6682474e-07 3.259272e-05
2.155701e-05 1.5154578e-07 2.0996677e-06 2.2414133e-05 1.947725e-05 7.387388e-08 1.7212821e-09 1.8317982e-05
2.0326497e-05 2.9419145e-05 3.9527713e-05 2.068738e-05 2.0601494e-05 1.68968e-05 1.3818063e-05 4.7246623e-08
1.3861805e-08 2.0421443e-05 4.0151122e-07 1.588379e-05 1.912681e-05 1.4563151e-05 3.7841765e-09 1.9438533e-08
1.6416351e-06 1.1030118e-05 1.995169e-05 1.6416905e-05 2.7084861e-05 2.297183e-05 1.4574371e-05 2.4260502e-09
2.1867572e-07 2.1430602e-05 9.527625e-09 1.4968586e-08 1.3085258e-05 2.0339883e-05 1.2176105e-05 2.410536e-05
2.081528e-05 3.3234667e-07 1.9792506e-05 1.1604064e-05 3.4405625e-07 1.6750127e-07 1.3799243e-05 2.4620069e-05
2.3832677e-05 1.9870165e-05 2.4412358e-05 2.2532431e-05 1.0409547e-05 2.2180746e-05 1.352023e-05 2.6502157e-05
1.4582893e-05 3.4017005e-05 3.3530824e-08 2.7085718e-05 1.5420272e-05 2.5311732e-11 3.668248e-07 3.2592718e-05
2.155701e-05 1.5154578e-07 2.0996674e-06 2.2414131e-05 1.9477251e-05 7.387387e-08 1.7212821e-09 1.8317984e-05
00000000: d282 aa37 24c9 f637 8fca 2538 d089 ad37
00000010: 61d1 ac37 9abd 8d37 22d4 6737 39ec 4a33
00000020: df24 6e32 b84e ab37 488f d734 2d3e 8537
00000030: 8472 a037 4154 7437 f805 8231 c8f9 a632
00000040: 2856 dc35 ff0d 3937 ee5d a737 05b7 8937
00000050: 4e34 e337 a0b3 c037 7284 7437 89b7 2631
00000060: 20cd 6a34 dec5 b337 f0ae 2332 4694 8032
00000070: c388 5b37 909f aa37 fa47 4c37 de35 ca37
00000080: 799c ae37 5f6d b234 1508 a637 12af 4237
00000090: bab6 b834 66da 3334 4f83 6737 3087 ce37
000000a0: 48ec c737 dcae a637 25c9 cc37 0704 bd37
000000b0: aaa4 2e37 c810 ba37 f2d4 6237 f350 de37
000000c0: 0ba9 7437 79ad 0e38 8803 1033 2336 e337
000000d0: c85a 8137 f3a4 de2d 02f0 c434 2bb4 0838
000000e0: 54d5 b437 96b8 2234 04e8 0c36 fc05 bc37
000000f0: 1363 a337 98a4 9e33 3b92 ec30 91a9 9937
00000100: d282 aa37 22c9 f637 8fca 2538 cf89 ad37
00000110: 5fd1 ac37 9abd 8d37 21d4 6737 36ec 4a33
00000120: dd24 6e32 b74e ab37 488f d734 2e3e 8537
00000130: 8372 a037 4254 7437 f805 8231 c9f9 a632
00000140: 2756 dc35 ff0d 3937 ee5d a737 09b7 8937
00000150: 4c34 e337 a1b3 c037 7284 7437 87b7 2631
00000160: 20cd 6a34 dec5 b337 f0ae 2332 4594 8032
00000170: c188 5b37 919f aa37 f947 4c37 de35 ca37
00000180: 799c ae37 616d b234 1508 a637 13af 4237
00000190: bbb6 b834 66da 3334 4c83 6737 3287 ce37
000001a0: 49ec c737 dbae a637 24c9 cc37 0704 bd37
000001b0: aaa4 2e37 ca10 ba37 f2d4 6237 f350 de37
000001c0: 0ca9 7437 7bad 0e38 8803 1033 2336 e337
000001d0: c85a 8137 f4a4 de2d 04f0 c434 2ab4 0838
000001e0: 54d5 b437 96b8 2234 03e8 0c36 fb05 bc37
000001f0: 1463 a337 97a4 9e33 3b92 ec30 92a9 9937

exp_avg f4 [2]
0.0060313735 -0.006031374
00000000: d4a2 c53b d5a2 c5bb

exp_avg_sq f4 [2]
0.00016805885 0.00016805885
00000000: f438 3039 f438 3039

exp_avg f4 [1, 64]
-0.024748212 -0.018234804 -0.019387033 -0.017374901 -0.02155588 -0.016459668 -0.011863354 0.00037927393
-1.8046038e-07 -0.0252931 0.00093825575 -0.008845519 -0.013566771 -0.011654681 3.4093502e-11 5.624614e-05
0.0027203923 -0.012876982 -0.020307377 -0.020933725 -0.008949322 -0.025654549 -0.0065639433 9.074706e-08
8.503404e-05 -0.010370608 9.459031e-05 6.120756e-05 -0.013601034 -0.006409391 -0.010891431 -0.012162299
-0.022534348 0.0016188516 -0.022343908 -0.009873266 0.00040404513 0.00058874296 -0.009964201 -0.009724447
-0.012513263 -0.024135444 -0.025960328 -0.025377844 -0.010295178 -0.008731346 -0.005172209 -0.010889855
-0.019435517 -0.020384675 3.901183e-05 -0.026515476 -0.01420527 -1.2513991e-24 -9.034468e-05 -0.027531175
-0.02514929 0.00021737342 -0.0071256906 -0.023308476 -0.025498709 0.00019825855 -1.0287123e-07 -0.023541164
00000000: c3bc cabc 2861 95bc 8ed1 9ebc cf55 8ebc
00000010: f595 b0bc 6dd6 86bc 835e 42bc 49d9 c639
00000020: 92c4 41b4 7a33 cfbc 47f5 753a ccec 10bc
00000030: 2947 5ebc 46f3 3ebc dff1 152e d5e9 6b38
00000040: 9c48 323b faf9 52bc a85b a6bc 347d abbc
00000050: 2da0 12bc 7d29 d2bc 5916 d7bb b9e0 c233
00000060: 4d54 b238 7ce9 29bc c95e c638 8f5c 8038
00000070: dfd6 5ebc de05 d2bb f971 32bc 6144 47bc
00000080: f499 b8bc a52f d43a 920a b7bc 7bc3 21bc
00000090: 05d6 d339 df55 1a3a e340 23bc 4953 1fbc
000000a0: 6e04 4dbc b2b7 c5bc c1aa d4bc 32e5 cfbc
000000b0: 1bad 28bc eb0d 0fbc a27b a9bb 5d6b 32bc
000000c0: 3c37 9fbc c3fd a6bc a2a0 2338 fc36 d9bc
000000d0: 39bd 68bc 07a5 c197 6e77 bdb8 0f89 e1bc
000000e0: e205 cebc bcee 6339 a07e e9bb 6bf1 bebc
000000f0: abe2 d0bc a0e3 4f39 0fea dcb3 66d9 c0bc

exp_avg_sq f4 [1, 64]
0.0011818218 0.0011953462 0.0012655132 0.00086713134 0.0009702318 0.0007418064 0.0008635204 3.290077e-06
5.0188437e-06 0.0011516125 3.8431725e-05 0.00083303073 0.0012592988 0.0008464968 1.7278878e-06 4.6556274e-06
3.345543e-05 0.00038865244 0.00091114844 0.0010160854 0.0014966154 0.0013525339 0.0009758373 8.2828603e-07
9.744241e-05 0.0009530858 1.4796678e-06 2.523648e-06 0.0005946463 0.0012247751 0.00082221173 0.0012244994
0.0010231744 1.5410991e-05 0.0011088442 0.0007521592 1.0238981e-05 6.5164654e-06 0.0008198225 0.0014169576
0.0012542736 0.0011821644 0.0013760335 0.0012606464 0.00066624087 0.0013258811 0.00053647556 0.0013570017
0.0008863329 0.0013168862 1.5403795e-05 0.0015464962 0.0009553196 1.0739061e-08 3.6770733e-05 0.0015703464
0.001217306 5.97237e-05 0.00013449664 0.0011392708 0.0008767864 2.3684067e-06 2.6270277e-07 0.0010190494
00000000: 5ce7 9a3a 2aad 9c3a 94df a53a 3350 633a
00000010: 2757 7e3a c975 423a e05d 623a 18cb 5c36
00000020: 8a67 a836 b4f1 963a c031 2138 bf5f 5a3a
00000030: 0e0f a53a 70e7 5d3a c6e9 e735 8937 9c36
00000040: 7f52 0c38 0cc4 cb39 23da 6e3a 2b2e 853a
00000050: 142a c43a 8247 b13a 55cf 7f3a 6257 5e35
00000060: ff59 cc38 81d8 793a 0099 c635 f15b 2936
00000070: 0ae2 1b3a a288 a03a b289 573a 627f a03a
00000080: 091c 863a da46 8137 a356 913a 8d2c 453a
00000090: 17c8 2b37 03a8 da36 5be9 563a 35b9 b93a
000000a0: 7066 a43a dbf2 9a3a 065c b43a 463c a53a
000000b0: aba6 2e3a 30c9 ad3a 44a2 0c3a 6cdd b13a
000000c0: cb58 683a 5e9b ac3a 6637 8137 cdb3 ca3a
000000d0: 6a6e 7a3a e47e 3832 463a 1a38 15d4 cd3a
000000e0: 038e 9f3a d67f 7a38 ab07 0d39 9653 953a
000000f0: 24d8 653a ebf0 1e36 9809 8d34 a091 853a
