savedModels/ppo_cartpole_35840.pth (torch, 13659 bytes, 15 tensors)

shared_fc.0.weight f4 [64, 4]
000000 df 20 dc 3d c6 c5 04 3f d9 e5 90 3c 32 ff e9 be
       0.10748457 0.5186428 0.017687725 -0.4570251
000010 a4 d8 11 be a4 c1 56 be b7 47 fb be 5a 68 4e be
       -0.14242798 -0.20972306 -0.49078152 -0.20156994
000020 0c 8c dd bc 4b 3a a9 be 30 d3 5f be f5 f4 ee be
       -0.027044319 -0.33052287 -0.21857905 -0.46671262
000030 d9 fd bc bd ec 08 fa bd a2 9e a3 be 79 8a 7e be
       -0.09228105 -0.12208733 -0.31956965 -0.2485751
000040 90 f4 25 3e 1b 89 3e 3e cb b0 1d bf 90 42 b9 be
       0.16206574 0.18606989 -0.6159789 -0.36183596
000050 6b dc 58 be 43 6b 1f bd 9c eb 84 be a1 9c 02 3d
       -0.21177833 -0.038920652 -0.25961006 0.031887654
000060 5b 51 e7 bd 61 b4 d3 3d 79 90 92 3e 80 0c b4 3e
       -0.11294814 0.10337139 0.2862585 0.35165787
000070 8d a4 20 be 4e b2 f0 bd 6c 2a 04 be ee b1 05 be
       -0.15687771 -0.11752759 -0.12906808 -0.13056156
000080 a4 74 63 3e f1 bc 19 bd 70 ac f1 bd b7 42 9a 3b
       0.22212464 -0.037533704 -0.11800468 0.00470766
000090 02 bd a5 3e 36 80 74 3e e6 b4 43 3e f3 1a c7 be
       0.32370764 0.23877034 0.19111976 -0.38887748
0000a0 b5 73 95 3e 95 42 b2 be 1d 5a 34 be eb 09 3a be
       0.2918984 -0.34816423 -0.176125 -0.18167846
0000b0 16 fd 9c bd 24 de a0 be 28 de 8f bd b4 c9 22 3e
       -0.0766546 -0.3141948 -0.07024795 0.15897256
0000c0 a1 b9 80 bb c7 9e 01 be 1d 50 3a 3d e4 a5 97 3e
       -0.0039283787 -0.12658225 0.04548656 0.29618752
0000d0 a4 5d 14 be ec 20 2a be 9b b2 ee 3c 4c a3 03 3e
       -0.14488846 -0.16614121 0.0291379 0.12855262
0000e0 d0 cc 04 be 29 19 f5 3c d0 b1 2f bd 63 c6 cf 3c
       -0.12968755 0.029919224 -0.042894185 0.025363153
0000f0 5e 48 03 3e 99 88 22 3e 6e d2 bd 3c 59 a2 1a 3e
       0.12820575 0.1587242 0.02317163 0.15100993
000100 f9 45 d2 bd e9 60 a3 be a8 b8 2c be 1b 6e 28 be
       -0.102672525 -0.31909874 -0.16867316 -0.16448252
000110 d8 a5 a6 3e 79 4b 6b 3d 62 7d 2b be 00 99 99 3e
       0.32548404 0.057445023 -0.16747048 0.29999542
000120 d3 d3 05 3d 79 d5 1a 3c 1c fb 58 be c8 d1 b8 be
       0.032672714 0.00945031 -0.2118954 -0.3609755
000130 65 b5 ac bd 14 70 95 3e ce b0 1a 3d 38 c4 dc bc
       -0.08433036 0.2918707 0.03776627 -0.026949033
000140 e3 ce e0 bd dc f2 ea be ba 1e 89 3d dd 3a f8 3e
       -0.109769605 -0.45888412 0.06695314 0.4848241
000150 fb 3e f3 bd 15 f2 8d 3e a3 ef 89 3e 5f 73 95 be
       -0.11877247 0.27723756 0.2694064 -0.29189584
000160 25 9e a3 bb 8e 4f 8c bd fa 8a 14 3e a7 fd 0e 3f
       -0.0049932175 -0.06851111 0.1450614 0.5585579
000170 59 1b b7 bc 32 a3 fc bd 57 d9 1c be 55 cf f7 bd
       -0.022351908 -0.123358145 -0.15317284 -0.12100092
000180 c6 2d 59 3e f9 1f 7c 3d ea 52 d3 be 78 06 88 3e
       0.21208867 0.06155393 -0.41274196 0.26567435
000190 60 e1 ec bc 1c cf d6 be 5c 38 93 bd 7d 71 21 3d
       -0.02891606 -0.41954887 -0.07188484 0.03941487
0001a0 21 a3 22 3d 96 f0 2c 3e 77 61 0a 3e ee cf 15 3e
       0.039706353 0.16888651 0.13513742 0.146301
0001b0 85 27 4a 3e 2b 2d e7 3d ef 45 17 3e 24 ac df 3d
       0.19741638 0.11287912 0.14772771 0.10921505
0001c0 82 19 87 bd 39 29 44 bd 2a 5f 98 3d 93 f2 4a 3e
       -0.06596662 -0.047890875 0.07440026 0.19819097
0001d0 22 7c 32 be dd fe ea be 5a 3f ce 3e 49 9e bd 3e
       -0.17430165 -0.4589757 0.40282708 0.37034824
0001e0 b2 5d 37 3e 0b 3d 0f be 98 52 b1 3e 4f 98 76 3e
       0.17906836 -0.1398813 0.34633327 0.24081539
0001f0 8d 2b 68 ba b0 9a cb be b6 0d 1f 3d ca 80 44 3e
       -0.0008856587 -0.39766455 0.038831435 0.19189754
000200 16 fa d8 3d 64 a8 0a 3e 97 1a 92 be 7b c1 bc be
       0.10594575 0.13540798 -0.2853591 -0.36866364
000210 36 09 38 3d fb c7 99 be aa 59 37 bc 82 60 96 be
       0.04493066 -0.30035385 -0.011190811 -0.29370505
000220 54 58 9f 3e 95 8e 60 3c 29 94 39 be c3 1a 43 be
       0.31122077 0.013705869 -0.18122925 -0.19053178
000230 57 04 2e be b8 ee e0 ba ae 71 8a 3e f0 44 97 3e
       -0.16993843 -0.0017160987 0.27039856 0.29544783
000240 0c 57 b8 be 8d 7d a9 bd 52 3b c0 3d d2 8e f8 bd
       -0.36003911 -0.082759 0.093863145 -0.12136616
000250 b8 70 51 bd 6f e0 91 3e 7a 26 8e 3d 04 4b 80 3e
       -0.051132888 0.28491542 0.069409326 0.25057232
000260 1f 8d a8 bd fe 41 79 be 53 e8 36 3e 9c 53 18 3e
       -0.08230042 -0.2434158 0.17862062 0.14875644
000270 12 45 b5 be d9 52 53 be 74 a1 f3 bd b7 d5 ea 3e
       -0.3540426 -0.20637073 -0.11896029 0.45866176
000280 97 e1 83 be 6a 7a 8a be 5e 2a 53 3e 3f 5f 43 3e
       -0.2575805 -0.2704652 0.2062163 0.19079302
000290 c3 0e 49 bc ae 6f 1d 3f d4 55 87 bd 34 70 d7 be
       -0.012271586 0.61498535 -0.06608167 -0.42077792
0002a0 d9 d9 55 be 49 e9 b5 3e d5 57 e4 bd 46 d2 92 be
       -0.20883884 0.35529545 -0.11149565 -0.2867605
0002b0 47 f0 3b 3e 29 9d 10 3e 99 6b db 3d 36 e4 8d be
       0.18353377 0.14122452 0.10713882 -0.27713174
0002c0 f0 d6 bc 3e fc e1 c2 bd fc 76 a8 3b 02 77 82 3e
       0.36882734 -0.09515759 0.005141137 0.2548142
0002d0 75 05 0d 3e 58 a6 11 bf f2 c1 9a 3e 65 4f 94 3e
       0.13771613 -0.56894445 0.30226094 0.28966823
0002e0 9c fe 17 be 8d e6 e3 be b7 c9 03 3f 2c ce cb 3e
       -0.1484322 -0.44511834 0.5147967 0.39805734
0002f0 db 8b 28 3d d5 2a 0a bf 14 72 2f 3e fc 9b 19 3e
       0.041149 -0.53971606 0.17133361 0.1500091
000300 7a 3e 76 3e e0 ad 51 ba d7 05 23 3e 9a db 14 be
       0.2404727 -0.00079986267 0.15920196 -0.14536896
000310 44 8d 16 be 6d c4 73 be 8e ed 6b be ce bd b3 be
       -0.14702326 -0.23805399 -0.23039839 -0.35105747
000320 74 0e ce bd 4c 22 64 3b 1a 15 b7 3c 54 1c be 3d
       -0.100613505 0.0034810482 0.02234893 0.09282747
000330 bd 79 8a 3e d8 2e f8 3e f8 39 a0 bd 4e 98 3a bf
       0.27046004 0.4847324 -0.07823557 -0.7288865
000340 cb 07 9d 3e 62 ae f6 3c d5 a6 3b 3e 2b 02 92 3e
       0.30670008 0.03011245 0.1832536 0.2851728
000350 f7 a5 d4 3d 5b b2 d7 3d b6 d5 52 3e 35 88 c3 3d
       0.10383218 0.105320655 0.20589337 0.09547464
000360 e2 82 94 3c d4 38 73 3c 6b 35 4d be d7 2b 4c be
       0.018128816 0.014845092 -0.20039909 -0.19938599
000370 a0 16 a1 3c 35 d3 88 3e 9f dc 5a bd 65 57 39 bf
       0.019664109 0.26723638 -0.053433057 -0.7239898
000380 b0 47 87 3e 8b d6 28 3e c0 5f 31 3d 2c 94 9b be
       0.2642188 0.16488092 0.043304205 -0.30386484
000390 d0 93 2e be 74 e9 e1 3d c1 8b 1c be 64 ef 73 3e
       -0.17048573 0.11030856 -0.15287687 0.23821789
0003a0 5f 1d 73 3e 32 a6 cc 3e 6e 88 15 be 56 03 a7 be
       0.23741673 0.39970547 -0.14602825 -0.32619733
0003b0 b6 dd a6 be 16 f7 ac 3e db 5f 8e bd 8c 1f f3 be
       -0.32591027 0.33782262 -0.06951877 -0.47485006
0003c0 9c b4 c1 3d b9 92 c4 3e de 84 92 3c 02 79 9f be
       0.09458277 0.3839319 0.017885622 -0.3114701
0003d0 64 47 cd 3e 20 72 89 3d 46 e3 81 3e 44 c9 96 3d
       0.4009353 0.06711221 0.25368708 0.07362607
0003e0 c2 20 ae bd cf 42 dc bd cd 90 b2 be 20 fd df bd
       -0.08502342 -0.1075493 -0.348761 -0.10936952
0003f0 22 97 22 3e 46 b8 90 3e 02 6f bd bd 7d cb bb be
       0.15877965 0.2826559 -0.09249689 -0.36678687

shared_fc.0.bias f4 [64]
000000 38 b8 0b 3f 03 66 1b 3f e8 35 1c 3f a1 5d 08 3f
       0.5457797 0.6070253 0.61019754 0.53267866
000010 ce c2 09 3f b7 73 1f 3f 26 f4 0e 3f c1 20 31 bd
       0.53812873 0.6228594 0.5584129 -0.043244127
000020 36 5c 84 bd f1 1b 1c 3f 6c 3f b0 bd d7 24 01 3f
       -0.064629 0.60980135 -0.08605847 0.5044684
000030 0c 81 21 3f 88 2e 0b 3f 9f dd 09 bd 6d c9 02 bd
       0.63087535 0.54367876 -0.03365862 -0.031930376
000040 64 48 66 bd fb 3d 1c 3f 79 17 0b 3f 95 34 1b 3f
       -0.05622138 0.61032075 0.5433269 0.6062711
000050 c4 20 26 3f 89 9b 26 3f 4e e7 03 3f 7b 9c 1a bd
       0.64893746 0.6508108 0.5152482 -0.037746888
000060 89 ec fe bd a0 ea 0a 3f a0 71 db bc e2 4b f1 bc
       -0.12447459 0.5426426 -0.026787579 -0.029455129
000070 76 05 1f 3f a3 09 0d 3f 74 d4 08 3f e4 fc 22 3f
       0.6211771 0.5509283 0.5344918 0.6366713
000080 40 8a 12 3f 0e 5f 95 bd c2 43 1e 3f 98 c8 02 3f
       0.572422 -0.07293521 0.6182214 0.5108733
000090 4a 1a 95 bd a9 b3 2c bd 9c b7 04 3f 63 78 21 3f
       -0.07280405 -0.042163525 0.51842666 0.6307432
0000a0 65 a7 22 3f 74 67 06 3f dd de 25 3f c2 ee 26 3f
       0.63536674 0.52501607 0.6479319 0.65208066
0000b0 01 cc f3 3e 4e 3f 18 3f 92 9c 17 3f 90 a2 1e 3f
       0.4761658 0.59471595 0.5922328 0.619668
0000c0 a2 aa 12 3f a9 60 20 3f 5d 36 7b bd 72 64 02 3f
       0.57291615 0.6264749 -0.06133114 0.5093452
0000d0 eb 1b 17 3f 70 5c bb bc ea f4 1f bd 89 d8 1c 3f
       0.59026974 -0.022871226 -0.039051928 0.61267906
0000e0 86 e0 21 3f 3f 2a bc bd 16 bd cf 3e 9d ad 10 3f
       0.6323322 -0.09187745 0.4057395 0.5651491
0000f0 77 1e 25 3f 60 73 0b bd c9 d3 1d bd df 23 11 3f
       0.6449961 -0.034045577 -0.038532052 0.5669536

actor_head.weight f4 [2, 64]
000000 18 a4 04 3b fb d0 1e 3e a5 28 2a 3e c9 8d 2a 3e
       0.002023941 0.15509407 0.16617067 0.16655649
000010 de 51 a6 3d a5 b7 5b 3d 53 e9 3e be c4 75 a8 3d
       0.08121084 0.053641934 -0.18643694 0.08225587
000020 ac 1f cb bc ec 83 33 3c a3 b3 0f 3e 32 05 99 bc
       -0.024795376 0.010956746 0.1403337 -0.018679235
000030 ca 41 df bd da 1e 07 bd 8a 07 0b bd 71 43 c0 bd
       -0.1090122 -0.032988407 -0.033942737 -0.093878634
000040 da 42 90 3d 47 93 e5 bd 99 72 d0 3d de 56 41 bd
       0.07044001 -0.112097315 0.10178108 -0.047201984
000050 2a c4 61 bd 9c 4d 65 3c dc 5a 0e be 64 1e ed 3d
       -0.055118717 0.013995554 -0.13901848 0.11578062
000060 43 58 75 bd a9 b6 e9 3c b6 cb dc bd 5f 0a a6 bd
       -0.059898626 0.028529482 -0.10781042 -0.08107447
000070 f5 d0 04 be 25 d6 4b bd 14 8a 04 be dc bb e8 bc
       -0.12970336 -0.04976477 -0.12943298 -0.02840989
000080 7b 07 9e 3d ea 34 e4 3d 61 f5 90 3d 33 52 27 be
       0.077162705 0.11142905 0.07078052 -0.1633995
000090 eb b6 ed 3c f9 ba 02 be 6c 6e 86 bd 22 2c 9f bd
       0.029017886 -0.12766637 -0.0656403 -0.077720895
0000a0 bb 87 85 bd a9 0c 3a 3c 52 1b 52 3d 0e b6 59 3d
       -0.06520029 0.0113555575 0.051295586 0.053152137
0000b0 fc 49 0d be 6c 0b 4c bc c0 50 28 bd dd 2b 54 bc
       -0.13797754 -0.012453895 -0.041092634 -0.012949911
0000c0 7b 0b 22 3d 9f 11 2e 3e 0a 6f 31 bd 11 f1 60 3d
       0.03956173 0.1699891 -0.043318786 0.0549174
0000d0 28 79 30 be 55 1c e7 bd b6 80 4d 3d f7 a5 96 3d
       -0.17233717 -0.11284701 0.050171576 0.07355874
0000e0 d8 19 08 3d f0 ec 34 bd 8a c3 82 bc 9b 24 8c 3d
       0.03322777 -0.044171274 -0.01596238 0.068429194
0000f0 3c 2e b2 3c d6 d4 c8 bd bd 50 23 3e cf 3e 6e 3c
       0.021750562 -0.0980622 0.15948768 0.014541342
000100 e0 3b 1b 3b 80 83 29 be d8 7b 35 be 25 b4 2d be
       0.0023686811 -0.1655407 -0.17723024 -0.16963251
000110 ec ed d8 bd 24 0a 4b bd 37 a5 48 3e 3b 85 a1 bd
       -0.10592255 -0.049570218 0.19594274 -0.0788674
000120 8a a7 12 3c 1c 35 23 bd 91 7b c8 bd 42 e6 ff 3b
       0.008951077 -0.03984557 -0.097891934 0.0078094313
000130 f5 23 f5 3d ba 70 74 3d 79 c9 8f 3c de 1c a4 3d
       0.11969749 0.059677817 0.017552124 0.080133185
000140 39 8e 06 be e9 b5 e1 3d 32 f1 e8 bd e9 14 27 3d
       -0.13140191 0.11021025 -0.11374129 0.040791426
000150 97 ac ea 3c f6 bb 07 bd c5 2e 1a 3e 91 18 0b be
       0.02864675 -0.033138238 0.15056904 -0.1358359
000160 6a 04 20 3d 40 1d 1f bd 0d e8 01 3e 1e cb b1 3d
       0.03906671 -0.038846254 0.12686177 0.0868132
000170 7a b4 c2 3d c8 6c 70 3d cc 33 17 3e 04 8c 57 3d
       0.095070794 0.058697492 0.14765853 0.052623764
000180 6f da ab bd 90 6f d9 bd c2 1f 5f bd 41 61 33 3e
       -0.08391272 -0.10616982 -0.054473646 0.17517568
000190 87 c5 81 bc cf 16 e9 3d ef 88 5f 3d 4d 5b 87 3d
       -0.015841259 0.113813035 0.05457395 0.06609211
0001a0 be fb 54 3d 0d 05 60 39 ff 8a 45 bd f3 2b 80 bd
       0.051997893 0.00021364186 -0.04822826 -0.06258383
0001b0 6a d6 d9 3d 6e b6 12 3d e2 b7 da 3c 07 de 51 3c
       0.10636599 0.03581851 0.02669901 0.012809283
0001c0 90 4b 8f bc 50 92 30 be 69 22 34 3d 9b b9 03 bd
       -0.017492086 -0.17243314 0.04397813 -0.03215943
0001d0 68 f1 3e 3e f0 76 eb 3d d1 83 6c bd 9d 12 aa bd
       0.18646777 0.11497295 -0.057742897 -0.083043315
0001e0 eb ab 07 bd f1 4e 33 3d c0 ac 97 3c 0e 67 7b bd
       -0.033122938 0.043776456 0.01851499 -0.061377577
0001f0 1f 3a 2b bc b3 2d cc 3d 60 84 18 be f7 0e 47 bd
       -0.010450869 0.09969654 -0.14894247 -0.048598256

actor_head.bias f4 [2]
000000 4c b3 a2 bc 4a b3 a2 3c
       -0.019860886 0.019860882

critic_head.weight f4 [1, 64]
000000 3e dd 14 3f 6c 28 19 3f 43 d7 14 3f 24 2b 38 3f
       0.5815009 0.59827304 0.58140963 0.7194083
000010 a8 e7 29 3f b8 f2 22 3f ab d0 28 3f d7 5a 69 be
       0.66369104 0.6365161 0.659434 -0.22788559
000020 7e dc 2b be 09 28 12 3f 48 e8 02 be b5 93 47 3f
       -0.1678333 0.5709234 -0.12783921 0.7795976
000030 d1 af 18 3f f4 7e 2d 3f 09 3f 84 be 40 8e 18 be
       0.59643275 0.6777184 -0.25829342 -0.14898014
000040 2f 8c 76 bd 92 94 1d 3f c8 8c 2d 3f 2b 2a 1e 3f
       -0.060192283 0.61554825 0.6779294 0.61783093
000050 7c 9b 05 3f 2e 30 0f 3f 3c ae 37 3f dd db 41 be
       0.52190375 0.5593289 0.71750236 -0.18931527
000060 89 b1 67 bd 0d b4 2b 3f 48 da 56 be 0a 9c 09 be
       -0.056565795 0.6707161 -0.20981705 -0.1343843
000070 56 b5 20 3f ed 91 18 3f 68 86 37 3f a3 eb 14 3f
       0.62776697 0.59597665 0.7168946 0.58172053
000080 89 dd 1d 3f 3c 30 8a be d8 c5 1c 3f c6 cc 42 3f
       0.6166616 -0.26989925 0.61239386 0.7609371
000090 58 1d 0b be 48 c4 61 be ed 13 3e 3f 98 48 0c 3f
       -0.13585413 -0.22047532 0.74249154 0.5479827
0000a0 9b 8e 14 3f f1 af 1a 3f ab 2c 0d 3f 60 2e 14 3f
       0.580301 0.60424715 0.5514628 0.5788326
0000b0 7d 0e 7f 3f 67 c5 10 3f 17 8e f2 3e 42 ca 10 3f
       0.9963148 0.5655121 0.4737403 0.5655862
0000c0 20 5b 2b 3f 10 d2 13 3f 26 b6 86 bd 89 1e 15 3f
       0.6693592 0.57742405 -0.06577711 0.5824972
0000d0 97 b0 22 3f d2 fe 60 be 1b 8d 05 3c c4 21 03 3f
       0.63550705 -0.21972206 0.008151318 0.512234
0000e0 64 3c 13 3f f9 50 c7 bd b5 a8 a5 3e 13 f6 14 3f
       0.57514024 -0.09732241 0.32355276 0.5818798
0000f0 71 9d 0a 3f b3 39 ac bd 7a da 16 be 39 49 1c 3f
       0.54146487 -0.08409443 -0.1473178 0.6104923

exp_avg f4 [64, 4]
000000 46 e2 de ba 02 15 79 ba ff 6a ef ba 51 29 f7 bb
       -0.0017004691 -0.00095017266 -0.001826614 -0.007542767
000010 53 7e 66 bc 69 31 88 bc 2b 2c 53 bb 1c d4 ff bb
       -0.014068204 -0.016625123 -0.003222237 -0.007807268
000020 58 7f 5f bc a1 ff 83 bc 8c fe 4b bb c2 ed f5 bb
       -0.013641201 -0.016113104 -0.0031127064 -0.0075051496
000030 1f f6 8a bc fc 50 a4 bc e3 d7 7f bb 63 ed 1b bc
       -0.016963063 -0.020058148 -0.003903859 -0.009517047
000040 e3 9a 0b bc 88 e9 3c bc 7e 4e 4f bb 7b a1 2c bc
       -0.008520815 -0.011530288 -0.0031632478 -0.010536547
000050 c6 15 79 bc 04 a8 93 bc 28 14 6a bb 02 5e 12 bc
       -0.015202945 -0.018024452 -0.003571758 -0.008933546
000060 ad 02 85 bc c7 a9 9e bc 1a f0 82 bb 3a c8 2c bc
       -0.016236627 -0.019368066 -0.0039959075 -0.010545785
000070 56 15 ae 3b 09 55 cf 3b 02 df b1 3a ea 1e 73 3b
       0.005312602 0.0063272757 0.001357049 0.0037097284
000080 7c 6c 04 39 3a d9 a3 b8 5f 15 54 b8 2b 36 2d b8
       0.00012628915 -7.812907e-05 -5.0564642e-05 -4.1296862e-05
000090 32 1e f0 ba e4 26 4a bb 64 0f 08 bb 35 06 04 bc
       -0.0018319546 -0.0030845935 -0.0020761127 -0.0080581205
0000a0 85 3f a7 3a 5f 95 25 3b 73 42 19 3a d6 8a a5 3a
       0.0012760019 0.0025266034 0.00058463885 0.0012629877
0000b0 e1 d3 99 bc e0 af b6 bc 22 68 92 bb 72 e5 39 bc
       -0.01877779 -0.02230066 -0.00446798 -0.011346208
0000c0 4b b8 6e bc a6 29 8e bc b3 41 68 bb 53 3b 17 bc
       -0.014570306 -0.017353844 -0.003543955 -0.009230453
0000d0 41 49 86 bc 76 9c 9f bc 82 a6 80 bb 45 a0 24 bc
       -0.016392352 -0.019483786 -0.0039260993 -0.010047977
0000e0 28 61 a6 3b f9 6b d5 3b 9a 64 18 3a ed 3b 27 39
       0.0050775 0.0065131155 0.00058133306 0.00015948685
0000f0 d7 03 2a 39 6d be 57 39 49 c4 53 37 24 b4 d3 b7
       0.00016213894 0.00020574937 1.2622281e-05 -2.5237045e-05
000100 b3 ae c7 3a 07 4d 09 3b e6 0c c7 39 9b 77 3e 3a
       0.001523456 0.0020950453 0.00037965848 0.00072657474
000110 4f 49 82 bb 55 ac 09 bc 11 3f 3e bb aa 5a 1d bc
       -0.003976024 -0.008402904 -0.002902929 -0.0096041355
000120 5b c3 83 bc 74 03 9c bc ab 14 75 bb d9 46 17 bc
       -0.016084364 -0.019044615 -0.0037396352 -0.0092332
000130 b1 a2 74 bc f0 61 91 bc 09 95 6a bb 8b 39 16 bc
       -0.014931367 -0.017746896 -0.0035794398 -0.009168993
000140 4f c4 4d bc b7 e1 8a bc d9 17 2d bb 5f 58 6e bb
       -0.012559011 -0.016953332 -0.002641192 -0.0036368591
000150 f8 20 37 bc 39 b4 5c bc 76 f0 45 bb 18 be 0e bc
       -0.011177294 -0.013470703 -0.003020314 -0.008712314
000160 9d b2 8e bc 9f be c1 bc 07 1b 74 bb 14 bb ab bb
       -0.017419154 -0.023650466 -0.0037247555 -0.0052408073
000170 56 20 9a 3b 75 ab ab 3b 76 7d 98 3a 08 52 6e 3b
       0.004703562 0.005238945 0.001163407 0.0036364812
000180 67 24 8b 36 9e 14 01 b8 5f 0f 45 b6 12 fe f7 37
       4.1467606e-06 -3.0775198e-05 -2.9364235e-06 2.9563005e-05
000190 85 9d 83 bc cf 22 9c bc 14 60 78 bb 81 0c 1c bc
       -0.016066322 -0.019059567 -0.0037899064 -0.009524466
0001a0 d5 e8 28 39 c8 50 63 39 63 e3 22 38 07 c0 56 38
       0.00016108465 0.000216785 3.883558e-05 5.1200415e-05
0001b0 93 20 4f 39 b0 0b 6a 39 65 21 ba b4 8b f5 92 b8
       0.00019753193 0.00022320333 -3.4669497e-07 -7.0075585e-05
0001c0 fc ff 7a bc 70 71 95 bc c3 d2 73 bb 04 7d 1e bc
       -0.0153198205 -0.018242568 -0.0037204481 -0.009673361
0001d0 06 32 6b bc 6c d2 9e bc 57 1f 46 bb 96 ab 88 bb
       -0.014355188 -0.019387446 -0.0030231082 -0.0041708453
0001e0 9d 74 8f bc 3d e9 aa bc d7 93 8b bb 10 ab 35 bc
       -0.01751166 -0.02086317 -0.0042595672 -0.011088148
0001f0 4d 91 66 bc 90 0a 89 bc 1d f4 5c bb 97 60 0d bc
       -0.014072728 -0.01672867 -0.0033714839 -0.008628986
000200 39 82 18 bc 51 d2 41 bc af 61 47 bb 1f ee 20 bc
       -0.009308391 -0.0118299285 -0.0030423214 -0.0098223975
000210 59 95 db 3b 02 74 f1 3b 12 48 d5 3a 17 d8 a1 3b
       0.0067011532 0.0073685655 0.0016272089 0.00493909
000220 38 30 de bb c2 0a 21 bc f3 19 3e bb e1 e7 21 bc
       -0.0067806505 -0.009829225 -0.0029007166 -0.009881944
000230 17 ac 98 bc 1e eb b5 bc b5 12 95 bb 49 f5 42 bc
       -0.018636746 -0.02220684 -0.004549349 -0.011899301
000240 9a 48 49 3b b9 a9 77 3b 3f 8f 27 3a 4c a5 d4 3a
       0.003071344 0.0037790372 0.000639189 0.0016223579
000250 a0 e8 38 39 42 9f 8b 37 44 22 a7 37 0e ce 2b 39
       0.00017634267 1.6644251e-05 1.9923908e-05 0.00016384592
000260 9d 45 93 bc 2a 15 af bc 42 50 8d bb 45 2a 35 bc
       -0.01797753 -0.021372396 -0.004312546 -0.011057441
000270 41 e0 58 bc 92 62 8f bc 59 0d 43 bb 4b c8 a4 bb
       -0.01323706 -0.017503057 -0.0029762594 -0.0050287596
000280 8e a2 66 bc 7f 23 89 bc 8a db 5d bb 82 9f 0e bc
       -0.014076842 -0.016740559 -0.003385278 -0.008705022
000290 ac c1 ef ba af 03 9c ba 46 72 f9 ba e7 0e fc bb
       -0.0018291972 -0.0011902953 -0.0019031249 -0.007692206
0002a0 07 7e 57 bc 40 6f 7f bc d0 50 4a bb b1 a6 fc bb
       -0.013152606 -0.015590489 -0.0030870922 -0.007710301
0002b0 43 6d f4 bb ee 9a 23 bc 69 f3 35 bb 59 4b 19 bc
       -0.007459314 -0.009985669 -0.0027763492 -0.009356343
0002c0 4e 1b 3d bc 14 81 a7 bc 8a 63 a3 bb 94 3e 44 bc
       -0.0115421545 -0.020447291 -0.004986231 -0.01197781
0002d0 e9 7e 5e bc a6 19 95 bc 62 c7 3a bb 44 50 85 bb
       -0.013580062 -0.018200707 -0.002850019 -0.0040684063
0002e0 0d e1 3a bc 76 5e 7a bc fb 8a 1d bb 2a b4 64 bb
       -0.011406195 -0.01528131 -0.0024039138 -0.0034897425
0002f0 70 f3 5e bc ef a6 88 bc 20 13 51 bb d2 ee ef bb
       -0.013607845 -0.016681163 -0.0031902269 -0.007322171
000300 9a c5 26 bc 26 00 54 bc 68 7d 5d bb 59 a5 34 bc
       -0.010178948 -0.0129394885 -0.0033796672 -0.01102575
000310 81 ed 5d bc b3 10 83 bc 32 83 4a bb f9 12 f4 bb
       -0.013545395 -0.015999174 -0.0030900952 -0.007448551
000320 a9 ce 8f 3a 4f fd 7f 3a 5e 12 a4 38 da 44 c7 b7
       0.0010971624 0.0009765224 7.8235505e-05 -2.375471e-05
000330 a8 3c 8e ba c3 46 97 ba eb 32 f1 ba f5 63 df bb
       -0.0010851817 -0.0011541474 -0.0018402016 -0.0068173357
000340 21 83 8d bb 08 d7 10 bc 23 c7 48 bb 6b 45 27 bc
       -0.0043186103 -0.00884033 -0.0030636273 -0.010209422
000350 50 68 7b 39 eb 3c b6 39 6d 16 20 38 ca 09 21 b8
       0.00023976085 0.00034759133 3.816786e-05 -3.8394508e-05
000360 d5 b1 0b 38 13 74 65 b8 b6 09 58 37 e3 9f ff 38
       3.33058e-05 -5.4705957e-05 1.2876864e-05 0.00012189129
000370 67 89 ff bb 6d a7 22 bc db 47 24 bb 3a 03 01 bc
       -0.007798362 -0.009927613 -0.0025067243 -0.007874304
000380 68 40 d8 bb 57 39 1c bc 26 27 30 bb 36 c1 15 bc
       -0.0065994747 -0.009535155 -0.0026878803 -0.009140303
000390 41 43 ac 3a 0a c4 90 3a 28 0e a7 38 f3 bf ea b8
       0.0013142602 0.0011044752 7.965817e-05 -0.00011193743
0003a0 99 5d 4a b9 1a bc e8 b8 f0 aa 85 ba c1 3e 80 bb
       -0.00019299089 -0.00011097659 -0.0010198038 -0.003913731
0003b0 32 36 61 bc 0b 62 84 bc 93 1e 53 bb b4 34 04 bc
       -0.013745831 -0.016160032 -0.0032214269 -0.008069206
0003c0 61 e2 90 bb a1 9e 8f bb 8c 7f 07 bb 42 1f 0b bc
       -0.0044215177 -0.0043829237 -0.002067539 -0.008491339
0003d0 ba 42 2d 39 16 1c e7 38 c9 43 c3 b7 b2 fa c3 b8
       0.00016523423 0.0001102017 -2.3277376e-05 -9.34502e-05
0003e0 9d de 71 3b cc 5c 8b 3b 39 c6 76 3a 9b d9 3f 3b
       0.003690637 0.0042530056 0.0009413693 0.002927399
0003f0 75 37 be bb bf fe dc bb 8b 58 24 bb 24 9d 1e bc
       -0.005804951 -0.0067442353 -0.002507719 -0.00968102

exp_avg_sq f4 [64, 4]
000000 ba 40 63 38 f4 cb ca 38 f1 0b af 36 5e 86 8f 38
       5.41813e-05 9.6701e-05 5.2167966e-06 6.843799e-05
000010 68 0b cf 38 9d 8e 2b 39 d5 9c d3 36 b6 02 b8 38
       9.872654e-05 0.00016360958 6.3065477e-06 8.774309e-05
000020 22 e7 be 38 ca 26 1c 39 56 9d b7 36 05 61 a0 38
       9.102958e-05 0.0001489177 5.4721413e-06 7.647466e-05
000030 d4 65 32 39 69 c1 92 39 a9 61 26 37 3e 5c 13 39
       0.00017013337 0.00027991392 9.917109e-06 0.00014053375
000040 95 9b bc 38 70 9a 40 39 0a 0c 05 37 0e 4c d4 38
       8.993518e-05 0.0001836808 7.930221e-06 0.00010123114
000050 35 3e 05 39 1a bf 55 39 f4 75 f0 36 ce f3 cc 38
       0.00012707042 0.00020384454 7.166289e-06 9.77289e-05
000060 e2 70 11 39 df 73 78 39 5e 8a 0d 37 55 ab e4 38
       0.0001387033 0.00023694288 8.436471e-06 0.000109038
000070 9a f0 1d 37 2b a8 5e 37 0f 6a e6 34 9b df e5 36
       9.413949e-06 1.3271386e-05 4.2918006e-07 6.850763e-06
000080 82 86 f8 35 fa bf 8b 36 a8 75 64 33 c1 f3 8c 36
       1.8516587e-06 4.164872e-06 5.3192394e-08 4.200702e-06
000090 a7 29 4a 38 6e 57 e8 38 61 54 b0 36 83 d2 8d 38
       4.8199345e-05 0.00011078907 5.2550317e-06 6.762615e-05
0000a0 60 b9 01 36 99 07 14 37 13 c6 8b 34 74 91 b4 36
       1.93304e-06 8.823256e-06 2.6034886e-07 5.381351e-06
0000b0 3e 99 35 39 5f f2 9f 39 76 df 46 37 cf a6 3b 39
       0.00017318592 0.00030507424 1.1853748e-05 0.00017895851
0000c0 9d fb e9 38 eb 76 42 39 49 e1 db 36 fa ac b4 38
       0.000111571724 0.00018545582 6.5529352e-06 8.615288e-05
0000d0 f2 3a 0c 39 52 79 72 39 95 03 13 37 69 26 fa 38
       0.00013373399 0.00023124114 8.762717e-06 0.000119280834
0000e0 2a 89 09 37 a4 94 2d 37 83 b0 b7 33 81 17 bf 36
       8.197772e-06 1.0346212e-05 8.553709e-08 5.69498e-06
0000f0 8a 60 d7 35 38 69 68 36 5b 19 29 34 c1 05 32 36
       1.6046845e-06 3.463194e-06 1.5748576e-07 2.6527416e-06
000100 9b 75 43 35 27 8d 04 36 bb 59 3c 33 59 66 88 35
       7.28143e-07 1.9751694e-06 4.385377e-08 1.0162577e-06
000110 1a 83 8f 38 48 9a 1b 39 59 c5 c5 36 4b 97 ab 38
       6.843191e-05 0.00014839426 5.894032e-06 8.182096e-05
000120 f7 ae 20 39 1e 5e 80 39 cf 89 11 37 49 ad fb 38
       0.00015323969 0.00024484185 8.67476e-06 0.000120008895
000130 f9 39 f6 38 dd b3 49 39 8b 16 e7 36 1f 7d c1 38
       0.00011740992 0.00019235858 6.886961e-06 9.226263e-05
000140 6e 9d 99 38 e4 7d f4 38 2c 38 90 36 68 4b 62 38
       7.324932e-05 0.000116582756 4.2980737e-06 5.3952826e-05
000150 94 40 c1 38 06 a7 19 39 96 c7 b5 36 3c ce 92 38
       9.214986e-05 0.00014653438 5.417455e-06 7.000237e-05
000160 80 08 2a 39 57 50 92 39 dc 0c 1a 37 d2 d0 01 39
       0.0001621563 0.00027907148 9.182109e-06 0.0001238019
000170 57 71 a4 36 61 d3 19 37 c6 bb 9c 34 39 74 80 36
       4.9007754e-06 9.168726e-06 2.9193887e-07 3.8282274e-06
000180 00 b9 ab 34 ac 4c 1c 36 51 cd 02 33 bb e8 84 36
       3.1985837e-07 2.329044e-06 3.0454718e-08 3.961e-06
000190 a3 0d 00 39 eb 52 56 39 02 67 07 37 ee b1 f5 38
       0.00012212111 0.0002043952 8.07061e-06 0.00011715652
0001a0 9c 35 75 36 87 0c ec 36 68 ae da 34 4e 99 8a 36
       3.653905e-06 7.0348065e-06 4.0732562e-07 4.1305675e-06
0001b0 45 d4 a2 35 0c c3 27 36 36 84 f0 33 00 38 e5 35
       1.2131719e-06 2.4998471e-06 1.119992e-07 1.7078128e-06
0001c0 70 33 01 39 0b da 53 39 c2 8f eb 36 42 af c0 38
       0.0001232156 0.00020203755 7.0202814e-06 9.187918e-05
0001d0 0a a3 c3 38 e2 e4 29 39 f5 6b c7 36 2f 09 ac 38
       9.328693e-05 0.00016202361 5.94323e-06 8.20331e-05
0001e0 1c 8c 2d 39 4e 51 94 39 01 e1 28 37 b9 43 12 39
       0.0001655076 0.00028289336 1.0065968e-05 0.00013948874
0001f0 85 4d da 38 f7 19 28 39 a0 a4 c5 36 c7 c8 a6 38
       0.00010409489 0.00016031401 5.8902224e-06 7.9528945e-05
000200 38 2d d2 38 87 f6 34 39 17 e2 e4 36 01 7d b4 38
       0.00010022003 0.00017257976 6.82125e-06 8.606353e-05
000210 77 67 41 37 4c 1c c2 37 c5 d1 86 35 3c 98 79 37
       1.1527786e-05 2.3139779e-05 1.0044829e-06 1.4877001e-05
000220 69 e6 96 38 1a dd 28 39 58 7a d8 36 dc e9 bb 38
       7.1954746e-05 0.00016104095 6.4515443e-06 8.9604146e-05
000230 13 6a 44 39 56 62 aa 39 50 01 47 37 c2 99 2c 39
       0.00018731532 0.00032498193 1.186163e-05 0.00016460477
000240 d9 6a 38 36 03 ff 82 36 f3 3b 9a 33 30 f7 1a 36
       2.748033e-06 3.903989e-06 7.1820885e-08 2.309167e-06
000250 96 07 b0 36 62 ac 23 37 b8 a3 1a 35 5e a2 94 36
       5.246092e-06 9.755693e-06 5.760771e-07 4.4296457e-06
000260 b6 13 34 39 97 8c 99 39 71 77 37 37 9e 84 24 39
       0.0001717348 0.00029287182 1.093546e-05 0.00015689663
000270 d0 69 a4 38 84 bc 0d 39 9f cc ae 36 85 37 89 38
       7.8398385e-05 0.00013517035 5.209425e-06 6.5430104e-05
000280 e6 b2 bb 38 8f e1 24 39 ab 22 cc 36 16 31 a9 38
       8.950177e-05 0.00015724286 6.0837096e-06 8.067691e-05
000290 88 04 81 38 23 dc e4 38 c7 59 c1 36 3a be a2 38
       6.152043e-05 0.00010912891 5.7622997e-06 7.7601944e-05
0002a0 c5 71 bf 38 69 06 15 39 34 df b0 36 b4 bb 8b 38
       9.128781e-05 0.00014212135 5.271193e-06 6.662999e-05
0002b0 d6 a7 a8 38 1a e6 16 39 51 66 c3 36 92 aa 9f 38
       8.042126e-05 0.00014390834 5.823364e-06 7.613482e-05
0002c0 e3 08 44 39 7e dc 00 3a 5e 36 a3 37 f7 20 a5 39
       0.00018695327 0.00049156684 1.945643e-05 0.00031495813
0002d0 6b 88 cc 38 a4 a1 19 39 9a f6 af 36 9c 71 91 38
       9.752888e-05 0.00014651433 5.2441146e-06 6.9353e-05
0002e0 ed 55 6a 38 10 ae bb 38 cc 89 53 36 ee 7c 20 38
       5.5869972e-05 8.9492765e-05 3.1521658e-06 3.8263322e-05
0002f0 83 87 be 38 48 7d 15 39 e3 86 b5 36 a4 17 9b 38
       9.085147e-05 0.00014256418 5.4099232e-06 7.395379e-05
000300 ee 1f f9 38 6d 4e 5e 39 33 be 09 37 29 e7 eb 38
       0.000118791926 0.00021200786 8.2101205e-06 0.0001124873
000310 49 c7 bd 38 3b 8a 1e 39 23 53 c1 36 6e 19 a7 38
       9.049342e-05 0.00015119549 5.7615266e-06 7.967917e-05
000320 c3 11 13 35 0f a0 9f 35 d6 5a 9e 32 08 e8 f3 35
       5.4787614e-07 1.1893006e-06 1.8434928e-08 1.8172441e-06
000330 bd 35 39 38 14 f3 d4 38 2c f5 a1 36 d8 5d 93 38
       4.4157485e-05 0.000101542246 4.8267157e-06 7.026986e-05
000340 f5 a0 b1 38 52 c4 37 39 1c 01 f3 36 a5 e4 cd 38
       8.469998e-05 0.00017525375 7.2420935e-06 9.81775e-05
000350 a8 cf 6d 36 cd e3 da 36 4b 1a af 34 c6 8d 26 36
       3.5436624e-06 6.523426e-06 3.261542e-07 2.481845e-06
000360 cf 92 2d 33 00 a6 c6 34 76 07 13 32 1c b9 34 35
       4.0413223e-08 3.7001155e-07 8.558223e-09 6.7324595e-07
000370 fc 35 82 38 a4 53 d1 38 cd d9 89 36 59 dc 33 38
       6.2089384e-05 9.981476e-05 4.1082735e-06 4.288214e-05
000380 e7 27 88 38 c4 15 0c 39 be 7a bc 36 de 2f 97 38
       6.492418e-05 0.00013359549 5.6171257e-06 7.209157e-05
000390 26 a3 af 35 eb 2a 6f 36 b0 84 ac 33 3b e6 c5 36
       1.3085998e-06 3.5638757e-06 8.03351e-08 5.89786e-06
0003a0 2a 53 1e 37 f1 e4 9f 37 5d 64 6a 35 1a 35 3d 37
       9.436897e-06 1.9060886e-05 8.731784e-07 1.12776415e-05
0003b0 0d cb c7 38 c8 61 1e 39 ec a9 c5 36 d0 86 93 38
       9.5268806e-05 0.0001510448 5.890839e-06 7.034617e-05
0003c0 81 74 6a 38 7f 8f cf 38 29 7c 9b 36 90 88 6b 38
       5.589845e-05 9.8972574e-05 4.633814e-06 5.615555e-05
0003d0 b9 64 13 35 cc 06 8f 35 eb 21 49 33 d4 a6 b8 34
       5.490834e-07 1.0656308e-06 4.6829808e-08 3.4394054e-07
0003e0 5a 7e 66 36 2c ab ba 36 fa c0 41 34 34 45 ec 35
       3.4346217e-06 5.563159e-06 1.804473e-07 1.7603511e-06
0003f0 0e 71 96 38 10 35 10 39 38 b4 d7 36 63 11 a8 38
       7.1736154e-05 0.00013752677 6.4284795e-06 8.014103e-05

exp_avg f4 [64]
000000 c1 39 da bb b6 ef 96 b8 0e 94 46 b9 7f d2 b2 38
       -0.006659717 -7.197207e-05 -0.00018937906 8.5269094e-05
000010 85 d3 26 bb 64 5e 57 3a f3 6e 30 3b b8 10 e5 bb
       -0.0025455665 0.00082156644 0.00269216 -0.0069905184
000020 1e 86 ec 39 a3 fb c3 bb 5d a8 4f bb 71 b1 cb 3a
       0.00045113353 -0.005980925 -0.0031686046 0.0015540553
000030 93 16 03 3b b9 89 d5 3a da 88 10 bb e8 28 94 3a
       0.002000247 0.0016291655 -0.0022054226 0.0011303695
000040 39 7a f6 ba 94 be 42 bb 33 b3 f7 39 78 a5 c5 3a
       -0.0018804736 -0.0029715644 0.00047245025 0.0015079221
000050 7a 64 02 bb ee 31 66 b8 64 dc 15 bb 74 89 e4 bb
       -0.0019896314 -5.4882774e-05 -0.0022866959 -0.0069743935
000060 ea 80 6e 38 d9 20 84 3a eb a6 c2 3a 2a 49 a5 3a
       5.6863682e-05 0.001008059 0.0014850771 0.0012610306
000070 67 1c 06 3b cf 97 13 bb e0 ad 1c 3b bf 4a b9 3a
       0.0020463706 -0.0022520905 0.0023907349 0.0014136656
000080 1e 08 e4 ba 7c b5 1f bc 7a 6d 35 bb 47 32 31 3b
       -0.0017397439 -0.009747859 -0.0027683661 0.0027038024
000090 ff 92 4c bb 51 a1 35 3a c2 ee f1 3a 24 dc 5e ba
       -0.0031215546 0.000692864 0.0018457996 -0.00085014314
0000a0 05 a7 ca 3a 0b 7b d9 bb 07 72 33 3a 1d d7 08 bb
       0.0015461153 -0.0066369823 0.00068452995 -0.002088017
0000b0 9d a7 87 bb f2 3e 08 bb dc 39 d2 ba 4c f2 17 3a
       -0.004139854 -0.0020789471 -0.0016038972 0.0005796298
0000c0 e8 2b c4 ba e2 ec 48 b9 b9 10 e2 b9 0d 1d d0 bb
       -0.0014966698 -0.00019161732 -0.00043118538 -0.0063511194
0000d0 91 85 27 bb 56 93 01 3b 08 f9 a8 b9 08 2e 9f ba
       -0.002556179 0.0019771657 -0.00032229 -0.0012144456
0000e0 1b 47 0e bb 09 f8 ef b9 f5 6e 7f bb 29 69 0a 3a
       -0.0021709863 -0.00045770433 -0.0038976048 0.00052799523
0000f0 db 13 90 bb 28 76 76 3a b8 aa b0 bb 74 6a 84 bb
       -0.004396898 0.0009401762 -0.005391445 -0.0040410105

exp_avg_sq f4 [64]
000000 7f dc cc 3a e1 76 00 3b 0c f0 ec 3a c3 f4 53 3b
       0.0015629678 0.0019602107 0.0018076911 0.0032341934
000010 4c 3d 22 3b 1b a3 08 3b c6 ea 24 3b 29 76 f8 37
       0.0024755774 0.0020849172 0.002516435 2.9618926e-05
000020 7d 8c 73 37 fe 93 d1 3a 6a 0c ed 37 7b bb 81 3b
       1.4516639e-05 0.001598954 2.8258382e-05 0.003959117
000030 6e a8 f9 3a ac 08 33 3b 76 84 ae 37 7a 12 34 37
       0.0019047388 0.0027318401 2.0804098e-05 1.0733138e-05
000040 70 08 b6 36 81 28 e6 3a 91 40 30 3b ff 3d 07 3b
       5.425005e-06 0.0017559679 0.0026893953 0.0020636318
000050 30 c8 a5 3a ec 64 d0 3a 42 f3 48 3b 70 6b 9e 37
       0.0012648162 0.0015899218 0.003066257 1.8885097e-05
000060 b4 f0 59 37 79 0f 2d 3b 1d 5b bd 37 80 04 ff 36
       1.2990251e-05 0.0026406927 2.2572984e-05 7.600116e-06
000070 1b e4 ff 3a a3 92 f4 3a 36 1b 4d 3b aa 5c e3 3a
       0.0019522937 0.0018659424 0.0031296737 0.0017346342
000080 b0 6e 06 3b 14 d8 8b 38 cb 71 03 3b c2 00 76 3b
       0.0020512752 6.668284e-05 0.002005684 0.0037537073
000090 11 20 26 37 e3 6b 0b 38 01 f7 65 3b 5f a8 c7 3a
       9.901837e-06 3.324066e-05 0.0035089853 0.0015232674
0000a0 f2 0d e8 3a 82 7e e0 3a f8 3d c8 3a 13 cb e1 3a
       0.0017704351 0.0017127546 0.0015277257 0.0017226659
0000b0 91 c6 f2 3b d7 a7 d1 3a 66 f6 67 3a ef 64 d6 3a
       0.007408925 0.0015995455 0.0008848667 0.0016356985
0000c0 6a d1 27 3b ad 6b ea 3a f0 a5 a2 36 c0 b7 c1 3a
       0.0025606998 0.0017884873 4.847294e-06 0.0014779493
0000d0 a6 0c 12 3b 08 7b 8f 37 11 78 30 36 a5 ca 99 3a
       0.002228537 1.710422e-05 2.6295932e-06 0.0011733366
0000e0 98 ca dd 3a 98 8b 93 37 b4 66 80 39 9f 7b e1 3a
       0.001692134 1.7588769e-05 0.00024490582 0.001720298
0000f0 c9 b7 ac 3a e8 83 a0 36 56 5c 41 37 b6 01 fd 3a
       0.0013177331 4.7837275e-06 1.1525195e-05 0.0019302878

exp_avg f4 [2, 64]
000000 8b 51 28 bb 09 4a 6a bb 30 05 89 bb fa 99 4d bb
       -0.002568337 -0.0035749695 -0.0041815266 -0.0031372295
000010 ad 16 3a bb 90 e8 30 bb 83 e2 7e ba 1b a2 00 ba
       -0.0028394863 -0.0026994087 -0.0009723084 -0.0004906968
000020 46 fd 19 b7 a7 0a 20 bb ab ea c9 b9 47 1b 07 bb
       -9.1784805e-06 -0.0024420412 -0.0003851255 -0.0020615624
000030 1b cd e6 ba 61 a7 08 bb d3 b3 b1 b7 e5 5f 0d 38
       -0.0017608734 -0.0020851719 -2.1183781e-05 3.370633e-05
000040 9e 76 52 ba 30 43 a7 ba 02 bf 4a bb bd 72 03 bb
       -0.00080285396 -0.0012761112 -0.0030936603 -0.0020057403
000050 ef 3f 09 bb 82 59 37 bb ad d3 31 ba 6c 2c bc b9
       -0.0020942648 -0.0027976935 -0.00067835563 -0.0003589125
000060 52 c4 f3 36 6a 2e 2c bb 1c 07 18 38 37 c1 1c 38
       7.264819e-06 -0.0026272782 3.6246245e-05 3.7373244e-05
000070 24 0f fb ba a6 78 f4 ba c6 93 9c ba 1e a4 20 bb
       -0.0019154293 -0.0018651679 -0.0011945895 -0.0024511884
000080 35 b1 45 bb 97 30 34 ba c5 4c 27 bb 5c 1a 98 ba
       -0.0030165438 -0.00068736955 -0.0025527936 -0.0011604535
000090 71 e4 f2 b9 92 59 31 38 78 2e f8 ba 3e 04 fd ba
       -0.0004632804 4.2283507e-05 -0.0018934747 -0.0019303632
0000a0 f5 d2 1e bb 6c b0 20 bb 61 0e 43 bb d1 90 2f bb
       -0.0024234627 -0.0024519218 -0.002976321 -0.0026789198
0000b0 42 68 80 ba 24 b4 09 bb a0 24 ef ba 89 e4 28 bb
       -0.0009796696 -0.0021011913 -0.0018245168 -0.0025770983
0000c0 ba 6e 10 bb 8b d3 80 bb 52 16 e4 37 de 96 4b bb
       -0.0022038654 -0.003931468 2.7190112e-05 -0.0031065266
0000d0 8a 0d 8b ba ec c0 0c 38 df bb b4 b9 52 69 79 bb
       -0.0010608893 3.3558274e-05 -0.0003447225 -0.003805716
0000e0 6e 27 20 bb 93 be bc 38 09 3d 01 bb 10 fb 56 bb
       -0.0024437564 9.000036e-05 -0.0019720218 -0.0032803454
0000f0 f9 57 25 bb 15 6b 0f 38 13 d9 f8 b9 9d ae 1e bb
       -0.0025229438 3.4193585e-05 -0.0004746398 -0.0024212964
000100 8a 51 28 3b 0b 4a 6a 3b 30 05 89 3b fa 99 4d 3b
       0.0025683367 0.00357497 0.0041815266 0.0031372295
000110 ae 16 3a 3b 90 e8 30 3b 82 e2 7e 3a 1d a2 00 3a
       0.0028394866 0.0026994087 0.00097230833 0.0004906969
000120 45 fd 19 37 a8 0a 20 3b ab ea c9 39 48 1b 07 3b
       9.17848e-06 0.0024420414 0.0003851255 0.0020615626
000130 1a cd e6 3a 62 a7 08 3b e3 b3 b1 37 e3 5f 0d b8
       0.0017608732 0.002085172 2.118381e-05 -3.370632e-05
000140 9f 76 52 3a 2e 43 a7 3a 03 bf 4a 3b bd 72 03 3b
       0.000802854 0.001276111 0.0030936606 0.0020057403
000150 ed 3f 09 3b 84 59 37 3b ad d3 31 3a 6d 2c bc 39
       0.0020942644 0.002797694 0.00067835563 0.00035891254
000160 52 c4 f3 b6 6a 2e 2c 3b 1c 07 18 b8 37 c1 1c b8
       -7.264819e-06 0.0026272782 -3.6246245e-05 -3.7373244e-05
000170 24 0f fb 3a a4 78 f4 3a c7 93 9c 3a 1d a4 20 3b
       0.0019154293 0.0018651676 0.0011945897 0.0024511882
000180 33 b1 45 3b 98 30 34 3a c3 4c 27 3b 59 1a 98 3a
       0.0030165433 0.0006873696 0.0025527931 0.0011604532
000190 76 e4 f2 39 8d 59 31 b8 76 2e f8 3a 3f 04 fd 3a
       0.00046328054 -4.228349e-05 0.0018934745 0.0019303634
0001a0 f5 d2 1e 3b 6c b0 20 3b 62 0e 43 3b d1 90 2f 3b
       0.0024234627 0.0024519218 0.0029763211 0.0026789198
0001b0 43 68 80 3a 24 b4 09 3b a3 24 ef 3a 8a e4 28 3b
       0.0009796697 0.0021011913 0.0018245172 0.0025770986
0001c0 b9 6e 10 3b 8b d3 80 3b 44 16 e4 b7 dd 96 4b 3b
       0.0022038652 0.003931468 -2.7190086e-05 0.0031065263
0001d0 89 0d 8b 3a ea c0 0c b8 e0 bb b4 39 53 69 79 3b
       0.0010608892 -3.3558266e-05 0.00034472253 0.0038057163
0001e0 6e 27 20 3b 92 be bc b8 0a 3d 01 3b 0f fb 56 3b
       0.0024437564 -9.000035e-05 0.001972022 0.0032803451
0001f0 fb 57 25 3b 15 6b 0f b8 16 d9 f8 39 9e ae 1e 3b
       0.0025229442 -3.4193585e-05 0.00047463988 0.0024212967

exp_avg_sq f4 [2, 64]
000000 e1 90 12 38 22 d5 40 38 b6 a9 60 38 2c bf 03 38
       3.494404e-05 4.5974863e-05 5.3563817e-05 3.1410877e-05
000010 81 90 ee 37 8d 0a 17 38 66 70 f8 37 69 7d f0 34
       2.84391e-05 3.601103e-05 2.9616243e-05 4.4794731e-07
000020 2d e4 76 33 17 7f 1a 38 e1 18 4f 35 df f2 03 38
       5.7483863e-08 3.6834823e-05 7.714971e-07 3.1459025e-05
000030 e6 c5 20 38 ce eb fc 37 1b 6e f5 32 4c 72 98 34
       3.833128e-05 3.0150546e-05 2.8571824e-08 2.8395368e-07
000040 df 93 3d 36 97 a7 01 38 21 7e ee 37 c8 23 07 38
       2.8249267e-06 3.0912077e-05 2.8430544e-05 3.2219832e-05
000050 92 a9 6f 38 3d c2 24 38 6a 65 f4 37 58 a2 2b 34
       5.7139965e-05 3.9281545e-05 2.9134291e-05 1.5984676e-07
000060 12 c7 5d 34 14 45 27 38 d3 e3 6f 34 ef 49 b5 34
       2.065465e-07 3.9880237e-05 2.2341492e-07 3.376767e-07
000070 e2 89 09 38 c6 15 39 38 5a d5 d8 37 87 27 48 38
       3.279176e-05 4.4127715e-05 2.5848556e-05 4.772053e-05
000080 90 ec fe 37 9b 51 72 35 73 a7 0d 38 74 05 d3 37
       3.0389318e-05 9.0270777e-07 3.377297e-05 2.51557e-05
000090 b4 a8 9f 35 d4 12 15 35 c1 d7 f0 37 58 ae 53 38
       1.1895522e-06 5.5534224e-07 2.8710698e-05 5.046869e-05
0000a0 6d 50 49 38 00 b2 0f 38 27 be 25 38 a6 16 21 38
       4.7997037e-05 3.4259632e-05 3.951616e-05 3.8406484e-05
0000b0 f7 58 b3 37 4b 18 42 38 d8 4b 31 38 66 87 57 38
       2.137989e-05 4.627583e-05 4.2270723e-05 5.1386094e-05
0000c0 33 46 e6 37 f0 0e 53 38 f6 e3 bf 32 4a ac 19 38
       2.7450826e-05 5.0320232e-05 2.2338991e-08 3.66385e-05
0000d0 6e 02 09 38 59 ad 1d 34 20 76 7a 34 83 d8 2e 38
       3.2665608e-05 1.4684828e-07 2.3326038e-07 4.1686475e-05
0000e0 04 fd 1a 38 36 c9 b3 33 80 39 4c 37 a8 f4 08 38
       3.69521e-05 8.371937e-08 1.2172735e-05 3.265278e-05
0000f0 f9 84 24 38 61 fc 74 35 c8 ad 94 34 f3 15 01 38
       3.9224487e-05 9.1264343e-07 2.769359e-07 3.077644e-05
000100 e0 90 12 38 21 d5 40 38 b5 a9 60 38 2d bf 03 38
       3.4944038e-05 4.597486e-05 5.3563814e-05 3.141088e-05
000110 7f 90 ee 37 8c 0a 17 38 66 70 f8 37 6b 7d f0 34
       2.8439097e-05 3.6011028e-05 2.9616243e-05 4.4794737e-07
000120 2d e4 76 33 17 7f 1a 38 df 18 4f 35 e0 f2 03 38
       5.7483863e-08 3.6834823e-05 7.71497e-07 3.145903e-05
000130 e4 c5 20 38 d0 eb fc 37 1b 6e f5 32 4b 72 98 34
       3.8331273e-05 3.015055e-05 2.8571824e-08 2.8395365e-07
000140 e0 93 3d 36 98 a7 01 38 21 7e ee 37 ca 23 07 38
       2.824927e-06 3.091208e-05 2.8430544e-05 3.221984e-05
000150 92 a9 6f 38 3d c2 24 38 68 65 f4 37 57 a2 2b 34
       5.7139965e-05 3.9281545e-05 2.9134288e-05 1.5984675e-07
000160 12 c7 5d 34 14 45 27 38 d1 e3 6f 34 ee 49 b5 34
       2.065465e-07 3.9880237e-05 2.2341489e-07 3.3767668e-07
000170 e1 89 09 38 c6 15 39 38 59 d5 d8 37 85 27 48 38
       3.2791755e-05 4.4127715e-05 2.5848554e-05 4.772052e-05
000180 90 ec fe 37 9d 51 72 35 72 a7 0d 38 76 05 d3 37
       3.0389318e-05 9.027079e-07 3.3772965e-05 2.5155703e-05
000190 b5 a8 9f 35 d3 12 15 35 bf d7 f0 37 58 ae 53 38
       1.1895523e-06 5.553422e-07 2.8710694e-05 5.046869e-05
0001a0 6d 50 49 38 ff b1 0f 38 26 be 25 38 a6 16 21 38
       4.7997037e-05 3.425963e-05 3.9516155e-05 3.8406484e-05
0001b0 f7 58 b3 37 4a 18 42 38 d8 4b 31 38 64 87 57 38
       2.137989e-05 4.6275825e-05 4.2270723e-05 5.1386087e-05
0001c0 30 46 e6 37 f0 0e 53 38 f6 e3 bf 32 49 ac 19 38
       2.745082e-05 5.0320232e-05 2.2338991e-08 3.6638496e-05
0001d0 6d 02 09 38 57 ad 1d 34 1e 76 7a 34 82 d8 2e 38
       3.2665605e-05 1.4684825e-07 2.3326035e-07 4.168647e-05
0001e0 03 fd 1a 38 37 c9 b3 33 80 39 4c 37 a8 f4 08 38
       3.6952097e-05 8.371938e-08 1.2172735e-05 3.265278e-05
0001f0 f8 84 24 38 5d fc 74 35 c7 ad 94 34 f4 15 01 38
       3.9224484e-05 9.126432e-07 2.7693588e-07 3.0776442e-05

exp_avg f4 [2]
000000 fe 65 77 bb fc 65 77 3b
       -0.003775 0.0037749996

exp_avg_sq f4 [2]
000000 3d f3 2a 39 3d f3 2a 39
       0.00016303077 0.00016303077

exp_avg f4 [1, 64]
000000 6d 4e c6 ba bf 3e 86 3c 69 83 9e 3c 34 83 48 3c
       -0.0015129574 0.016387342 0.01934977 0.0122383125
000010 08 7f 0e 3b 9d 74 0b 3c b2 7f bd bb 68 f2 03 3c
       0.0021743197 0.0085116895 -0.0057830447 0.0080534
000020 d2 4c 4a b8 5e 3e 71 bb 46 e0 71 3b d9 9b 23 3c
       -4.8232097e-05 -0.0036810855 0.003690736 0.009985887
000030 05 da f4 39 89 b7 f0 3b 5c a9 c1 3a 81 c4 20 b9
       0.00046701744 0.007346098 0.0014775204 -0.00015331992
000040 45 fc 4d 3c 61 2b 26 bc f4 61 d5 3b 5c 9c 9f bb
       0.012572353 -0.010142178 0.006511921 -0.0048709344
000050 9f 5a 36 3c cb 88 7c ba b9 db 8a bb 64 08 ab 3b
       0.011130004 -0.0009633421 -0.0042376188 0.005219506
000060 44 4b fe b7 2b c7 5f 3c 9b eb 0b b9 f0 dc 6a b9
       -3.0314208e-05 0.013658325 -0.00013343843 -0.00022398285
000070 5b 71 79 3a d3 ea 47 3c 6d 47 98 bb 1b ca 1e 3c
       0.00095154875 0.012201983 -0.0046471865 0.00969174
000080 b8 97 18 3b 42 52 17 3c 38 0e 00 bb 9b 5a 1d ba
       0.002328379 0.00923592 -0.0019539725 -0.0006002576
000090 39 80 1d 3c ed ee c9 b8 37 81 e0 3b 4b 3f 27 3c
       0.00961309 -9.62893e-05 0.006851341 0.010207961
0000a0 79 0b 39 3c 45 6d aa ba 4a ff 82 3a 91 b8 2a bb
       0.011294239 -0.0013002536 0.0009994295 -0.0026049952
0000b0 70 e9 f6 bb b8 d4 15 3c af b2 27 3c 80 25 4f 3c
       -0.007535152 0.009144954 0.010235473 0.012643218
0000c0 b1 02 49 bb 56 99 93 3c 0f 84 96 3a ed 6f 13 3b
       -0.003067177 0.018017452 0.0011483448 0.0022497133
0000d0 03 84 32 bc 3e 19 27 b9 cc a1 2a 3b 0a 30 ba 3b
       -0.010895732 -0.00015935765 0.002603638 0.0056819962
0000e0 08 ea 51 bb 6f bf 6b 3a 13 4a 7b ba ef 73 d9 3b
       -0.0032030363 0.00089930644 -0.0009585928 0.006636135
0000f0 e1 52 87 bb 49 95 f1 b9 16 b9 e9 3b 2a 2b f8 ba
       -0.004129753 -0.00046078328 0.0071326597 -0.0018933762

exp_avg_sq f4 [1, 64]
000000 1c a9 eb 3a 64 92 0f 3b 8f ab 13 3b 07 fc d1 3a
       0.0017979476 0.0021907324 0.0022532677 0.0016020545
000010 da 32 cd 3a 19 1f 06 3b 48 23 df 3a da ec 4f 37
       0.0015655414 0.0020465313 0.0017024064 1.2393308e-05
000020 a4 f2 1c 36 8c fc 03 3b bf e1 9e 37 20 e4 c9 3a
       2.3387047e-06 0.0020139543 1.8940189e-05 0.001540307
000030 dc ff 14 3b d3 7b db 3a 6e 4e 8e 35 22 15 05 37
       0.0022735512 0.0016745277 1.060265e-06 7.932338e-06
000040 64 ce 5a 38 58 b2 df 3a 49 73 d1 3a 43 4c ff 3a
       5.2167466e-05 0.00170667 0.0015979792 0.0019477684
000050 1f 1f 35 3b 93 83 19 3b f3 e3 ce 3a 4c 1c 92 36
       0.0027636958 0.0023424372 0.0015784487 4.3544333e-06
000060 78 7e 00 38 e2 33 ec 3a 4d e5 c4 36 96 51 0a 37
       3.063536e-05 0.0018020833 5.8679493e-06 8.244437e-06
000070 8c 3b fe 3a 58 38 08 3b e3 d4 c9 3a da af 1e 3b
       0.0019396408 0.0020785537 0.0015398528 0.0024213702
000080 5a d4 e5 3a 61 a0 bf 37 fc 50 03 3b 4a b5 be 3a
       0.0017534599 2.2843657e-05 0.0020037284 0.0014549878
000090 07 8c eb 37 23 52 5e 37 ec f0 cb 3a 21 e3 27 3b
       2.8079388e-05 1.3251355e-05 0.0015559471 0.0025617557
0000a0 9c 13 22 3b b5 64 e2 3a 0c 90 19 3b 9e 5b 15 3b
       0.0024730926 0.0017272445 0.0023431806 0.0022790204
0000b0 c2 8b 9d 3a 97 69 13 3b 66 b5 01 3b 18 e4 1e 3b
       0.00120198 0.0022493356 0.001979196 0.0024244841
0000c0 ab b0 dd 3a a2 00 1b 3b 44 25 9c 36 fb 47 f4 3a
       0.0016913613 0.00236515 4.6535006e-06 0.0018637175
0000d0 0b a8 f1 3a 19 6a 74 36 32 93 66 37 f9 7f 14 3b
       0.0018436922 3.642059e-06 1.374334e-05 0.0022659285
0000e0 3f 28 0c 3b 20 84 93 37 96 cd 25 3a ff 83 f1 3a
       0.0021386293 1.7585291e-05 0.0006324885 0.0018426179
0000f0 e5 1f 0b 3b 27 d6 98 37 2a 5a fc 36 a2 0b e3 3a
       0.0021228727 1.8219534e-05 7.5206817e-06 0.0017322192
