savedModels/ppo_cartpole_25600.pth (torch, 13659 bytes, 15 tensors)

shared_fc.0.weight f4 [64, 4]
00000000: c339 0e3e a86c 093f ed54 343d fe3d dabe
00000010: 5057 46be 41c3 52be 8cd2 eebe e89d 55be
00000020: 257e bdbd 44e5 adbe 0f78 54be 5a2c f9be
00000030: c0a4 02be cff8 ecbd 52fa 98be 7243 82be
00000040: 5883 3b3e eb10 5f3e a8ae 18bf 162a bbbe
00000050: aff3 73be de24 f1bc fec5 77be 5d09 d13c
00000060: d662 0cbe 6b4e d53d 85c5 923e 0830 ad3e
00000070: 6f1a c3bd cda1 8cbd c71d 6fbd 830e c2bd
00000080: ff48 263e 5b63 8fbd 14c9 18be 6a9b a63a
00000090: bbde bb3e e972 8f3e 8598 5d3e faa7 c5be
000000a0: 78c2 a03e d825 aebe d906 06be 6155 10be
000000b0: 307f f9bd fce7 a0be 905c 77bd f238 163e
000000c0: 7d0a e2bc c559 fcbd 94a0 4c3d 5bb6 913e
000000d0: 1042 3cbe 580f 2abe 0fbe 1f3d e178 f13d
000000e0: c4b9 41bd 6048 5a3d d64a 9fbd d2cd 7b3c
000000f0: 76a5 9e3d f126 d03d 2499 78bd 6225 fc3d
00000100: e513 75bd cd42 97be 1ad8 e1bd 772d 03be
00000110: 3bcd bb3e 78d5 c33d e16a 1dbe a72c 953e
00000120: bbad 683c bc52 ca3c 5459 43be 70ed babe
00000130: 13da d0bd 6cd0 9b3e afa2 4a3d 9bf3 19bd
00000140: cdfb 1bbe b923 e8be 3094 a43d 00b0 ef3e
00000150: 586f 08be 8067 963e e19f 923e 1167 99be
00000160: bc9a bdbc 7a5a 79bd ceb7 223e a715 0e3f
00000170: 26a5 3e3d 68c9 b6bd f84b aebd 7b71 54bd
00000180: 23db 1b3e f8e4 eb3c fa34 e4be af69 8a3e
00000190: bb90 a4bd de79 d8be c3c3 7fbd 92d4 d43c
000001a0: 2136 63bb 5e21 e03d d65e 873d 49b2 e43d
000001b0: 9c34 163e cf78 5d3d cd56 723d 0fe5 9e3d
000001c0: 46f8 b6bd d107 33bd 75d8 a23d 73f7 3e3e
000001d0: 7313 69be 0b20 ebbe cf42 d33e 683e b33e
000001e0: c30c 203e 4299 0bbe b6b1 b33e b8a2 6b3e
000001f0: e661 fabc c4d2 c8be be28 453d 1214 383e
00000200: 1738 db3d 487d 263e 1e7e 87be 76b1 c0be
00000210: afeb cd3d 5f0e 86be 90f8 2a3d 07c0 83be
00000220: c429 b33e 36a4 713d 6a20 25be 4d6a 4ebe
00000230: 6179 47be 94ab 54b8 b63f 8c3e dab2 913e
00000240: f79b 95be c0e3 ebbc e327 2a3e 2885 d9bd
00000250: 42b4 acbd 40a9 743e 8e27 da39 3e18 4c3e
00000260: ba23 efbd d2b6 77be 7e1f 403e 31be 0d3e
00000270: 6adc cfbe 1015 58be 5c85 e2bd cc82 e33e
00000280: af45 9ebe 65aa 8cbe f125 5a3e 4773 333e
00000290: 2a3e 8a3c c5b8 203f 4876 23bd 36ea c4be
000002a0: 3730 65be 98bc bd3e b1cb bdbd 5902 95be
000002b0: 5d4a 4e3e bdfb 383e 7bc8 043e 3d6d 93be
000002c0: d69f d23e 8c2b 85bd 0d5f 853c 792b 803e
000002d0: 0420 e03d f2db 0ebf b31d a23e e093 8d3e
000002e0: 4fb0 4cbe 56e3 e1be 668a 073f d749 c13e
000002f0: 4aff dc3a 5daa 09bf 695f 383e 5e3e 0b3e
00000300: 22a6 7d3e a990 f33c 2a9a 353e 3cd9 1fbe
00000310: 6cb4 50be cab5 73be 58da 54be 476a b8be
00000320: 0724 0fbd 2e29 883c bab7 1abb 1ba3 b23d
00000330: 6a0a 9e3e b760 f93e d916 82bd d82c 30bf
00000340: f178 ab3e 338b 6e3d 4e33 453e 1beb 8d3e
00000350: 4eaa 473d 31a7 003d 4621 003e 9785 543d
00000360: 3602 c33c 1beb 1f3c 9d53 42be 98bf 40be
00000370: 4747 903c 5194 8c3e e974 25bd 628b 36bf
00000380: a57c 983e ec32 543e 0b10 863d 6e92 9fbe
00000390: 2207 02be 05be d13d 3862 4fbe fbc7 6a3e
000003a0: 794f 933e 1b88 d23e f420 f4bd 7893 8cbe
000003b0: a8b4 b3be 79bb ac3e 92cf 58bd 8eba eebe
000003c0: e626 003e 409c d93e 4d85 343d 7dff 9ebe
000003d0: 3e1d b73e 47d4 883b 1f7c 293e 12b8 9e3c
000003e0: c916 79ba 0b0b 48bd a4c3 90be f183 c6bc
000003f0: 859b 3f3e ef40 a23e 1928 8dbd 8d27 babe
0.13889222 0.5368142 0.044026304 -0.4262542 -0.19369245 -0.20582296 -0.4664501 -0.20861018
-0.09252576 -0.33963978 -0.20748924 -0.4866665 -0.1275816 -0.11570894 -0.2987848 -0.25442082
0.18311822 0.21783797 -0.59641504 -0.36555547 -0.23823427 -0.029436525 -0.24196622 0.02551716
-0.13709578 0.10415348 0.2866632 0.33825707 -0.09526526 -0.068667985 -0.058378007 -0.09475424
0.16238783 -0.070013724 -0.14920455 0.0012711112 0.36693367 0.28017357 0.21640213 -0.38604718
0.31398368 -0.34013247 -0.1308855 -0.1409507 -0.12182462 -0.3142699 -0.06039101 0.1467016
-0.027592892 -0.1232181 0.049957827 0.2845944 -0.18384576 -0.16607416 0.038999613 0.11790634
-0.0472963 0.05329168 -0.07777946 0.015368896 0.07746403 0.101636775 -0.06069292 0.12311818
-0.059833426 -0.29543152 -0.11027546 -0.12810312 0.36680016 0.095622 -0.15372802 0.2913563
0.014201577 0.024697654 -0.19077045 -0.36509275 -0.10197844 0.3043245 0.049471553 -0.037585836
-0.15232773 -0.45339754 0.08036077 0.46813965 -0.13323724 0.2937584 0.28637603 -0.29961446
-0.023145072 -0.0608773 0.15890428 0.5550179 0.046544217 -0.08925134 -0.08510584 -0.051866036
0.15220313 0.028795704 -0.44571668 0.27033755 -0.08035418 -0.42280477 -0.062442552 0.025980268
-0.0034669715 0.10943864 0.066098854 0.11166818 0.14668506 0.05407029 0.05916481 0.07758533
-0.08934073 -0.043708626 0.07951442 0.18649082 -0.22761326 -0.45922884 0.41261908 0.3500855
0.15629868 -0.13632682 0.3509652 0.23011291 -0.03056426 -0.392233 0.048134558 0.17976406
0.10704058 0.16258729 -0.26463407 -0.37635392 0.10054719 -0.2618284 0.041740954 -0.25732443
0.34992802 0.058994494 -0.16125646 -0.20157738 -0.19479896 -5.0704533e-05 0.27392358 0.28456765
-0.29220554 -0.028795123 0.16616778 -0.10621101 -0.08432819 0.23892689 0.0004160967 0.19931123
-0.11676736 -0.24190834 0.18762013 0.13842084 -0.4059785 -0.21101785 -0.110605925 0.44435728
-0.3091254 -0.2747375 0.21303536 0.17524444 0.016875345 0.62781936 -0.039907724 -0.3845994
-0.22381674 0.37057948 -0.09267367 -0.29103354 0.20145555 0.1806478 0.12967102 -0.2879428
0.4113757 -0.065024465 0.016280675 0.25033167 0.109436065 -0.5580436 0.31663284 0.27651882
-0.19989131 -0.44118756 0.52945554 0.37751648 0.001686075 -0.5377558 0.18005146 0.1359801
0.24770406 0.029732065 0.1773459 -0.15610212 -0.20381325 -0.23799816 -0.20786417 -0.36018583
-0.034946468 0.016621199 -0.0023608045 0.08722516 0.3086732 0.487066 -0.06352014 -0.68818426
0.33490708 0.05823822 0.19257852 0.27718434 0.0487464 0.031409446 0.12512693 0.051885214
0.023804765 0.009760643 -0.18977208 -0.18823087 0.017612113 0.27456906 -0.040394697 -0.7130643
0.29782596 0.2072255 0.06546029 -0.31166404 -0.12698033 0.102413215 -0.20252311 0.22927849
0.2877157 0.41119465 -0.11920348 -0.2745626 -0.35098767 0.3373678 -0.05293233 -0.46626705
0.12514839 0.42502022 0.044072438 -0.31054297 0.35764498 0.004175696 0.16551255 0.019374881
-0.00095019914 -0.048838656 -0.28274262 -0.024232836 0.1871167 0.31690165 -0.06892414 -0.363583

shared_fc.0.bias f4 [64]
00000000: 7a39 de3e 595a fe3e 2102 fd3e 07cf dc3e
00000010: 8303 dc3e d145 023f 97e2 e73e b4a9 30bd
00000020: be67 84bd a1d1 fb3e 33bc bcbd 017f cf3e
00000030: cb50 053f a401 e13e b3ed 26bd e1ec 40bd
00000040: 883a 60bd 6483 f73e 70f4 e03e 7117 fe3e
00000050: 4d6e 073f e06f 093f 5df1 d13e f713 b6bc
00000060: b153 f7bd 3c96 df3e 77ce febc a4b9 2ebd
00000070: c123 013f 66b7 e03e 7270 dd3e 3111 063f
00000080: 9883 ec3e 6e45 94bd 160a 013f 32f0 d23e
00000090: 8f41 9fbd e04b 7dbd c83b d63e 4bcc 033f
000000a0: 0da3 053f 0b7d d53e 5cae 083f 224d 093f
000000b0: ccf4 c23e c680 f63e b666 ea3e 6f8c 013f
000000c0: 7633 ee3e 4b7a 033f 0b80 8cbd fdac cd3e
000000d0: ecc2 f43e 3ee1 7fbc 90ca 62bd c056 fd3e
000000e0: 8215 043f 7bb0 d4bd 8402 733e d500 e93e
000000f0: 150e 053f f45d 2abd 934a 7cbc 2078 e83e
0.43403226 0.49678305 0.49415687 0.431267 0.4297143 0.5088778 0.45290062 -0.04313059
-0.064651 0.49183372 -0.09215584 0.40526584 0.52076405 0.43946564 -0.04075403 -0.047100905
-0.05474332 0.4834243 0.4393649 0.4962726 0.5290268 0.5368633 0.41004458 -0.022226317
-0.1207651 0.43669307 -0.03110431 -0.04265751 0.5044518 0.43889922 0.4324985 0.5236998
0.46194148 -0.07239805 0.50406015 0.4119888 -0.07776176 -0.06183994 0.41842484 0.514836
0.5220192 0.41696963 0.5339105 0.5363332 0.3807739 0.4814512 0.45781487 0.5060491
0.46523637 0.5135848 -0.0686036 0.40171042 0.47804964 -0.015617667 -0.05536896 0.49480247
0.5159532 -0.103852235 0.23731428 0.45508447 0.5197461 -0.041593507 -0.015398639 0.45404148

actor_head.weight f4 [2, 64]
00000000: b720 ba3c 739d 0c3e 2de3 123e 7362 1b3e
00000010: f1bc a43d 799b 563d 1993 23be e163 413d
00000020: c6c3 5cbc f5c9 e13c d6ff d33d 1143 eabc
00000030: 492a cdbd aa85 0bbd de0d 85bb 4187 35bd
00000040: d87b 1a3d bc7d b7bd 17da c13d 6872 d5bc
00000050: 3f68 6dbd 8eaa ee3c f59a eebd a5c1 2c3d
00000060: a31c 48bd 6b01 4b3c 9829 3fbd 06e3 04bd
00000070: 70f3 f3bd b156 57bd bcdc e9bd deb5 11bd
00000080: 094f 9f3d 6eb8 8b3d d0fb 9a3d 80a0 13be
00000090: 73bf d63c 03ea a0bd d7a7 89bd 3494 9bbd
000000a0: 9d50 8abd 7165 0c3d 3409 823d c4c9 833d
000000b0: 261f f6bd 3cb4 a1bc e5bc 25bd e18a ccbc
000000c0: c6c9 483d 148b 1b3e 938d e0bc cf81 873d
000000d0: 3978 17be 2bfa 39bd 035d 023d e19b 973d
000000e0: dfc9 3a3d 80f2 fbbc e65f 373c 4637 963d
000000f0: a187 293d 7cbd 73bd 92ef a13d db7c e53c
00000100: b924 96bc f84f 17be 6036 1ebe cf88 1ebe
00000110: fd58 d7bd f7ed 45bd fd4e 2d3e ce82 33bd
00000120: 1e50 1bbb 2039 67bd 4128 7abd 6537 913c
00000130: 740c e33d 86d7 783d 3e04 4abc 2374 fa3c
00000140: 9617 cabd 5ea0 b33d b058 dabd 7aee a03c
00000150: 63fa 003d cabd 45bd 7421 033e 29e7 7ebd
00000160: 8a91 e53c 8a04 babc 2c99 863d 8364 1c3d
00000170: f605 ad3d 4bed 7b3d 1f98 073e f3e3 743d
00000180: fc21 adbd 16f3 80bd b12c 73bd 8eaf 1f3e
00000190: 1f9c 55bc e38a 843d c3fb 653d 64c3 833d
000001a0: 878d 5e3d 7e04 babc 0782 77bd ae1a 97bd
000001b0: a361 b53d b28d 303d 3b90 d53c f963 cb3c
000001c0: 24c8 dcbc c50b 1ebe 53f4 e53c 2bcc 31bd
000001d0: 79f0 253e 61af 423d 1e60 21bd 8708 abbd
000001e0: f05b 3abd 84b6 f83c 798d 0dbc 33c6 87bd
000001f0: 037e f6bc 3e6f 7a3d d656 8cbd aa3d 7ebd
0.022720678 0.13731937 0.14344473 0.15174274 0.0804385 0.052394364 -0.15974082 0.047214393
-0.01347441 0.02756212 0.10351531 -0.028596433 -0.10017831 -0.03406302 -0.004060491 -0.04431844
0.037715763 -0.08959529 0.094654255 -0.02605553 -0.057960745 0.029134061 -0.116506495 0.04217686
-0.048855435 0.012390475 -0.046670526 -0.03244307 -0.119116664 -0.05257291 -0.11419055 -0.035573833
0.07778747 0.068222865 0.07567561 -0.14416695 0.026214337 -0.07857134 -0.06721466 -0.07596627
-0.06753657 0.03427643 0.063494116 0.06434968 -0.1201766 -0.019739263 -0.040463347 -0.024968566
0.04902055 0.15189773 -0.027411258 0.06616556 -0.14791955 -0.045404594 0.031826984 0.074027784
0.045602676 -0.030755281 0.011192298 0.07334761 0.04138911 -0.05950688 0.079070225 0.028013637
-0.018328058 -0.147766 -0.1545043 -0.15481876 -0.1051502 -0.048322644 0.16924663 -0.043825917
-0.0023698877 -0.056450963 -0.061073545 0.01772661 0.110863596 0.060752414 -0.012330113 0.030572956
-0.0986778 0.08770822 -0.10661447 0.019644964 0.031488787 -0.0482767 0.1280573 -0.06223217
0.0280235 -0.022707243 0.06572184 0.038181793 0.084484026 0.061505597 0.13241623 0.0597877
-0.08453748 -0.06296365 -0.059368793 0.15594313 -0.01303771 0.06471803 0.0561483 0.06433752
0.05433419 -0.02270722 -0.060426738 -0.073781356 0.08856513 0.04310388 0.026069751 0.024827944
-0.026950903 -0.15434177 0.028070604 -0.0434076 0.16205014 0.047530536 -0.039398305 -0.08351236
-0.045497835 0.030360468 -0.008639687 -0.066296004 -0.030089384 0.061141245 -0.068525 -0.062070526

actor_head.bias f4 [2]
00000000: 7849 74bc 7949 743c
-0.014910094 0.014910095

critic_head.weight f4 [1, 64]
00000000: bc22 f93e 1e6e fd3e 8ec5 f53e a30f 1d3f
00000010: 9e07 0f3f 7e62 063f 5c78 0d3f 00c3 10be
00000020: 8c89 0fbe 59ae ef3e 7b5a dbbd 8b22 2d3f
00000030: 45d1 fa3e ad5b 123f cc99 68be e823 abbd
00000040: 4461 8dbc ccd3 fc3e a004 123f e489 023f
00000050: 2ee3 d73e 57e9 e83e af8b 1d3f 82ab dabd
00000060: 81d8 36bd e552 113f b252 05be 2782 83bd
00000070: 0837 033f 801f 003f 5c5a 1b3f 32aa f33e
00000080: ec79 023f e180 51be 7290 003f f6c9 273f
00000090: d74c 83bd e7bc 17be 1f23 233f 103c e63e
000000a0: 522e f53e 4bea 023f fd55 e53e c834 f13e
000000b0: 70dc 623f 04d4 ec3e 37d9 ba3e 9bfd ec3e
000000c0: 95b8 0e3f 1fa0 f33e 61be 60bd e83c fd3e
000000d0: c27d 063f 8604 fdbd 3259 de3b 80d9 d33e
000000e0: cb11 f03e 432e afbd 54a6 513e 0fbd f63e
000000f0: d7de dd3e ecf4 d0bc ac9f 58bd e5c0 013f
0.48659313 0.49498075 0.48002285 0.61351985 0.55871 0.5249404 0.5526178 -0.14136887
-0.14017314 0.46812704 -0.10710617 0.67630833 0.48987785 0.57171136 -0.22714919 -0.08356458
-0.017258294 0.49380338 0.5703831 0.50991654 0.42165512 0.45490524 0.61541265 -0.10677244
-0.044640068 0.5676711 -0.13019827 -0.06421309 0.51255846 0.50048065 0.6068475 0.47590786
0.5096729 -0.2045932 0.50220406 0.6554254 -0.064111404 -0.14818154 0.63725466 0.449677
0.47886902 0.5113875 0.44792166 0.4711058 0.8861761 0.46255505 0.36493847 0.46287236
0.557504 0.475831 -0.05486906 0.4946053 0.5253564 -0.123543784 0.0067855353 0.41376877
0.46888575 -0.085537456 0.20473605 0.48191115 0.43334076 -0.025507413 -0.05288665 0.5068496

exp_avg f4 [64, 4]
00000000: a760 7abb e74f 103a 0c5c 153a c841 8cba
00000010: db3d d6bb 9964 e0bb 2562 a239 e88f 5a3b
00000020: 5a50 cfbb 11bd d7bb febc ab39 a8a4 573b
00000030: 3e21 05bc 3bfc 0cbc 1098 ae39 b5bb 843b
00000040: f822 ecbb 6c2f c2bb 3b72 ffb9 f93e d6ba
00000050: 4dd3 e6bb fd1d ffbb e8d6 e038 e85a 503b
00000060: d7dd fabb ade7 18bc d1fe bfb9 139b 283b
00000070: e6d7 033b ca1e 5b3b b9c3 763a 09dd c73a
00000080: 74c6 6539 70ea a23a 41b1 6339 a6dc 99b9
00000090: c8df 8cbb e199 14ba 9149 0e3a ff92 9aba
000000a0: b37b f739 5848 f73a 0e34 203a a59b 703a
000000b0: 0930 16bc c7c8 2bbc 535f 72b8 492c 773b
000000c0: 09f5 dcbb 7020 04bc 60ce 77b9 b2cf 1e3b
000000d0: c91d ffbb 81bb 13bc b1e0 e4b8 bf03 4b3b
000000e0: f252 2e32 59c6 9231 846b 8930 c5bd cf31
000000f0: 98f2 c5b4 1515 a9b9 7791 ceb9 dcaf a7ba
00000100: 37e4 aa39 fcc5 2c3a 87a7 3b39 b989 7239
00000110: 3382 feba b9b1 b6bb c542 fc39 66f7 b43b
00000120: 08ed f1bb 9387 d4bb e986 43b9 9b5e a538
00000130: 87b7 e2bb aaf8 01bc 3996 60b8 4995 393b
00000140: c8ad bcbb 2a11 d0bb 5f8a 0eb9 c996 d63a
00000150: d186 bfbb 895f a4bb 867c be38 125d 673a
00000160: f358 9cbb c0ee 02bc 9535 9f39 2ea5 ba3b
00000170: 9399 df3a 235a 1f3b 4155 363a 0c14 ba3a
00000180: 38ca 4638 c808 1839 370c 9fb8 7c5a d8b9
00000190: 69ed fabb 411b 0dbc 0d72 0838 3d26 583b
000001a0: f1a7 7138 4975 37ba b224 49ba aac9 11bb
000001b0: 1d21 e5b7 ca9e 95b9 5682 82b9 6aab 45ba
000001c0: 29e1 e6bb 9f7e 09bc 4155 6fb9 9c29 283b
000001d0: 74c1 dfbb 67d8 f6bb 5454 38b9 151b f73a
000001e0: 0be2 f7bb 314a 1fbc 11de 2fb9 75cd 763b
000001f0: 23a2 d4bb c831 f7bb 0834 e5b8 11c4 263b
00000200: a86c d9bb a772 bbbb 1d46 60b9 e24a 90b9
00000210: 1e73 453b 7efa a63b 0a87 b63a dae0 073b
00000220: 53f7 dbbb 588e f0bb e27b 1839 2eb8 4b3b
00000230: 81e3 13bc a080 31bc d42c b0b9 bd3c 523b
00000240: 2646 3d3a 7068 0a3a f7eb 0639 4306 f539
00000250: 2566 6738 332e 54ba 4100 67ba a0cc 26bb
00000260: cd4a 0ebc f95b 25bc 623e 14b9 6c03 603b
00000270: b967 c9bb 656e ecbb d550 29b9 d89a 133b
00000280: be53 d6bb 37ed fabb 358d 11b9 8cb3 243b
00000290: 604e 9cbb 5ca0 cbba b1e0 0239 6c20 e6ba
000002a0: 9c63 b9bb 76b4 8fbb b7e4 8cb4 2430 b8b7
000002b0: 92a1 cbbb a31c c8bb 564a bc36 9beb c03a
000002c0: 8fb4 2fbb 6436 13bc a55f 8d3a ee4a 243c
000002d0: 9a4c d1bb c51d f2bb 91dd 58b9 e5b3 043b
000002e0: afa5 a2bb 7356 b4bb d7bf 93b8 1caa da3a
000002f0: 46e6 cdbb 215e ecbb d1d5 78b8 61b8 263b
00000300: 608d f5bb 66b6 08bc dfc1 a738 0a91 593b
00000310: f95d cdbb 45f1 d4bb ecb4 ae39 a7db 553b
00000320: 5fef 9937 f621 4b39 9f12 6ab8 0afe e7b9
00000330: 26a0 5bbb 3e5d 7e3a ed4d e839 b9fc daba
00000340: 7ad8 04bb 962d cbbb 89db c939 d3ec ba3b
00000350: c099 7a38 f24a 3bba 0121 3aba 8e7b 01bb
00000360: 024b 1cb8 90b9 ee37 e375 0f37 5519 9db7
00000370: 958d a3bb 165a 51bb d532 38b9 c346 bdba
00000380: f764 cdbb bd49 cebb 841e 47b8 856c c33a
00000390: 84da 1838 c3b2 9f39 5615 20b9 94b2 7aba
000003a0: 3a14 b1b9 40eb ad39 6796 a739 eec0 9139
000003b0: c149 c4bb 8889 97bb 4512 97b9 354e a3ba
000003c0: 01e4 a0bb cc1f adba a40a cc39 ef31 97ba
000003d0: 2473 3eb8 e5a8 76b9 7c85 7db8 cf2f 6eb7
000003e0: a414 593a 5309 b23a b2ee bd39 b461 1c3a
000003f0: 9c3c bcbb aad3 54bb 6c95 0d39 8dca 89ba
-0.0038204582 0.00055050704 0.0005697615 -0.0010700757 -0.0065381355 -0.0068479297 0.0003097217 0.0033349935
-0.0063267173 -0.006583818 0.00032756472 0.003290454 -0.008125601 -0.008605058 0.00033301162 0.0040506967
-0.007206317 -0.0059260633 -0.00048722498 -0.0016345672 -0.007044232 -0.0077855573 0.00010721182 0.0031792466
-0.00765584 -0.00933258 -0.00036620212 0.0025727197 0.00201177 0.00334351 0.000941332 0.0015248369
0.00021913071 0.0012429487 0.00021714439 -0.0002934683 -0.0042991377 -0.00056686817 0.00054278324 -0.0011793076
0.00047203674 0.0018866165 0.00061112724 0.0009178466 -0.009166726 -0.010484881 -5.7786074e-05 0.0037715605
-0.0067430777 -0.008064374 -0.00023632636 0.0024232683 -0.007785533 -0.009016872 -0.00010913739 0.0030977575
1.0146993e-08 4.2717088e-09 9.99862e-10 6.046067e-09 -3.687062e-07 -0.000322499 -0.00039399762 -0.0012793499
0.0003259496 0.0006590781 0.00017896119 0.00023130224 -0.0019417465 -0.0055753854 0.00048114933 0.0055226563
-0.0073829927 -0.0064858883 -0.00018646907 7.885435e-05 -0.006918851 -0.007932821 -5.3545667e-05 0.002831774
-0.005758021 -0.0063497024 -0.00013593723 0.0016371842 -0.005844929 -0.0050162715 9.0831e-05 0.0008825819
-0.0047713458 -0.007991493 0.00030366765 0.0056959605 0.0017059318 0.00243152 0.0006955453 0.0014196648
4.739521e-05 0.00014499121 -7.583986e-05 -0.00041266147 -0.007657696 -0.008612455 3.2531145e-05 0.0032981776
5.7615285e-05 -0.0006998373 -0.00076730095 -0.0022245445 -2.7314347e-05 -0.00028537802 -0.0002489264 -0.00075404963
-0.007045884 -0.008392005 -0.00022824576 0.0025659567 -0.0068284813 -0.0075331214 -0.00017579022 0.0018852676
-0.007564788 -0.009722278 -0.00016772027 0.0037659083 -0.0064890548 -0.007543776 -0.000109292625 0.0025446455
-0.0066352673 -0.0057204547 -0.00021388424 -0.00027521612 0.003012843 0.005095779 0.0013925743 0.0020733387
-0.006712833 -0.0073411874 0.00014542 0.0031085121 -0.009026409 -0.010833889 -0.00033602735 0.003207966
0.0007220231 0.00052798446 0.0001286714 0.00046734707 5.516982e-05 -0.00080940424 -0.00088119885 -0.0025451556
-0.008684826 -0.010092729 -0.0001413762 0.0034181727 -0.006146398 -0.0072153085 -0.00016147208 0.0022522714
-0.0065407446 -0.0076576727 -0.00013880881 0.0025131432 -0.004770085 -0.0015535462 0.0001248147 -0.001755727
-0.0056576263 -0.0043855263 -2.6243444e-07 -2.1956927e-05 -0.006214329 -0.0061069294 5.6114905e-06 0.0014718653
-0.0026810502 -0.008985136 0.001078595 0.01002763 -0.0063873054 -0.0073888027 -0.00020681905 0.0020248827
-0.0049635987 -0.0055034696 -7.045239e-05 0.0016682777 -0.0062835542 -0.0072133695 -5.932694e-05 0.0025439488
-0.00749366 -0.008344268 7.999292e-05 0.0033198022 -0.006267306 -0.006498488 0.00033322664 0.0032632144
1.8350487e-05 0.0001937224 -5.580729e-05 -0.00044249027 -0.0033512204 0.0009703225 0.00044308548 -0.0016707397
-0.0020270632 -0.0062005026 0.00038501274 0.005704501 5.9747836e-05 -0.00071446516 -0.0007100255 -0.0019757482
-3.7263155e-05 2.845822e-05 8.550912e-06 -1.8727655e-05 -0.004991243 -0.0031944565 -0.00017566544 -0.0014440644
-0.0062681395 -0.0062954114 -4.7473717e-05 0.0014909661 3.6443133e-05 0.0003046003 -0.00015266737 -0.00095633534
-0.0003377514 0.00033172406 0.0003196478 0.000278003 -0.0059902375 -0.0046245493 -0.00028814576 -0.0012459221
-0.0049099927 -0.0013208329 0.0003891784 -0.0011535267 -4.5406763e-05 -0.00023523306 -6.0444218e-05 -1.4197037e-05
0.0008280969 0.0013583101 0.0003622673 0.00059654866 -0.00574453 -0.0032474794 0.00013502472 -0.0010512635

exp_avg_sq f4 [64, 4]
00000000: 0e07 3037 77c3 5c38 9f4a 9036 e29a 8838
00000010: 9498 9237 b8cf 8a38 696b 9d36 aa14 a038
00000020: bc49 8237 b4d8 6838 0b59 8036 2ba3 8538
00000030: 8f6e 0038 3910 f238 ced6 0337 374c 0b39
00000040: 12fa a737 790f bf38 5fb5 d036 fe40 bf38
00000050: 0102 a537 34b7 9738 adb1 ad36 ef89 a838
00000060: b94c c937 d1c5 c238 fac3 e136 66a4 c238
00000070: 02b0 9935 13e9 9636 6027 4b34 77d2 ce36
00000080: 1968 9134 dd31 ae36 c404 7033 af62 fa36
00000090: 9580 2437 b426 5238 38ba 8a36 6e84 6938
000000a0: 67ba 3735 48a0 2137 95d6 7634 bb2d 0937
000000b0: 056f 1838 cfe6 1539 2a89 2237 b2e4 3d39
000000c0: 5487 9837 a9d0 8f38 0cee a836 b2d6 9638
000000d0: f758 d637 0fd9 cc38 c948 ea36 5788 e238
000000e0: d7d4 8034 ef60 0b37 f0c3 6933 81a7 2537
000000f0: 394e 4034 f703 d335 ad53 af33 b8f1 6936
00000100: f01f 2434 f08f c935 92aa cb32 11b1 c835
00000110: 3633 2737 c5a7 6a38 7e7f 8a36 e909 8338
00000120: 4ca0 d537 2448 cc38 7a26 e236 029c e138
00000130: 0292 9a37 c884 9438 654e ab36 f3ac a638
00000140: 3483 4237 d280 1d38 9e7f 4736 d01c 3338
00000150: 4a0f 7037 d3eb 5b38 9bb1 8036 fbd0 7038
00000160: ae1a df37 8b2f fa38 229b f536 4b9c 0b39
00000170: a493 8f34 61d7 1136 2076 a633 a1a2 0d36
00000180: cf5a 0f34 0ce0 8036 8ddb 4033 16e4 f336
00000190: 8e81 c337 8e14 b238 9d45 d336 ef2f e638
000001a0: 49ac 9a34 5bd1 0536 2888 7734 0db7 8b36
000001b0: 8114 0834 cb9e 7935 9999 4b33 409d 0b36
000001c0: 892d 9c37 9951 9138 46ba ac36 017b 9938
000001d0: db26 9437 6640 8c38 84cb 9a36 3403 a238
000001e0: 871b f137 5efe f638 02d7 0937 6abf 0739
000001f0: 3420 8637 dc09 6a38 5b77 9336 b9c6 8738
00000200: 5127 9137 4c5e 9238 95e6 ac36 7e4e 9838
00000210: 5af1 2236 5f08 4837 3203 6535 9262 9037
00000220: a1ac 8237 4319 8e38 3875 a636 a452 a638
00000230: 175d 1638 12ad 1839 9930 2837 9a9d 2539
00000240: ec04 b334 11a6 0936 cc00 f232 cac0 5336
00000250: 6b1d 0a35 cdda b636 5bf8 dd34 fbb5 8436
00000260: 7862 0c38 e3de 0f39 ec01 1937 cc47 2039
00000270: 2712 6d37 92a2 5338 60ed 8136 1138 6438
00000280: b59b 8737 c31a 8138 81be 9936 32d9 8d38
00000290: 66a8 4a37 3cdb 8138 6303 9e36 ab11 a238
000002a0: aff0 6837 d470 5038 36d0 7836 5238 6238
000002b0: 799d 7c37 92eb 7438 c2a9 8d36 eba8 8638
000002c0: 888f 3538 bdc5 8b39 ade5 9737 4cda b239
000002d0: 698b 7437 c020 5538 06f6 8236 9e44 7938
000002e0: 5e58 0037 89f3 c537 7dd1 ff35 89d2 d737
000002f0: d0b2 7137 0396 4738 4d9e 8336 7776 8238
00000300: 4ed1 ba37 a737 bb38 4f18 d436 f905 d538
00000310: c852 8437 6b37 7d38 7ffb 8936 529b 8c38
00000320: ef12 c733 9387 db35 51fc d532 1591 5936
00000330: 242e 3237 1487 8038 4081 8336 76dd 9838
00000340: 03db 6937 6c02 9e38 eaf0 bf36 5207 b238
00000350: 97aa 3f34 5f18 4835 8bfe cd33 02d1 8435
00000360: 08f3 e532 746d 2735 54fc 6732 a612 a635
00000370: 567d 2337 ed66 2438 401b 3336 7e10 0e38
00000380: f81a 4e37 2356 7538 1b25 8b36 c60a 7838
00000390: 33d7 b534 8634 aa36 9ce2 d533 e27c 2d37
000003a0: 03d2 4735 9890 9c36 2532 be34 004f b636
000003b0: 12fd 8237 6de1 7038 0db1 8936 8cea 7f38
000003c0: 4520 1937 2e8d 1f38 833b 5a36 36a7 3038
000003d0: b065 e233 004b cb34 4420 ab32 c2df 7134
000003e0: 27eb ad33 dde6 9b34 673f d932 4cf7 6334
000003f0: 3e1b 6837 2c1d 8638 5089 a736 c75e 9038
1.049206e-05 5.263413e-05 4.3002215e-06 6.5138345e-05 1.7475606e-05 6.6190434e-05 4.691469e-06 7.6332435e-05
1.5531543e-05 5.551493e-05 3.8250632e-06 6.3723266e-05 3.0620544e-05 0.00011542481 7.858222e-06 0.00013284465
2.00244e-05 9.110472e-05 6.2199974e-06 9.1196955e-05 1.9670466e-05 7.234365e-05 5.176486e-06 8.0365564e-05
2.3996794e-05 9.287487e-05 6.728337e-06 9.2812625e-05 1.1450613e-06 4.4974818e-06 1.8920173e-07 6.1637797e-06
2.7084096e-07 5.191409e-06 5.588369e-08 7.462069e-06 9.8051e-06 5.0103947e-05 4.134399e-06 5.5674864e-05
6.8444064e-07 9.633666e-06 2.29886e-07 8.176484e-06 3.634302e-05 0.0001429573 9.687888e-06 0.0001810964
1.8182829e-05 6.857637e-05 5.0345025e-06 7.1925475e-05 2.5552215e-05 9.767908e-05 6.9822167e-06 0.00010801915
2.399672e-07 8.307615e-06 5.4427744e-08 9.873766e-06 1.790985e-07 1.5721879e-06 8.164293e-08 3.4860404e-06
1.5285309e-07 1.5017558e-06 2.3709877e-08 1.4952694e-06 9.965899e-06 5.5946195e-05 4.1275625e-06 6.248413e-05
2.5466223e-05 9.740915e-05 6.739804e-06 0.00010757895 1.842622e-05 7.0819224e-05 5.1053235e-06 7.947711e-05
1.1593849e-05 3.755169e-05 2.9727594e-06 4.270376e-05 1.43086745e-05 5.2433297e-05 3.8353733e-06 5.7415087e-05
2.6596095e-05 0.000119297845 7.319629e-06 0.00013314297 2.6743248e-07 2.173205e-06 7.751464e-08 2.11053e-06
1.3350949e-07 3.8407798e-06 4.4903164e-08 7.268517e-06 2.330614e-05 8.49153e-05 6.296394e-06 0.00010976183
2.881009e-07 1.9940405e-06 2.3053201e-07 4.1638327e-06 1.2673446e-07 9.29908e-07 4.7404317e-08 2.0804146e-06
1.8617853e-05 6.9293375e-05 5.1476845e-06 7.31852e-05 1.7661068e-05 6.687715e-05 4.61325e-06 7.7253586e-05
2.8742257e-05 0.00011777574 8.215897e-06 0.0001294591 1.598904e-05 5.579913e-05 4.394836e-06 6.4743166e-05
1.7303655e-05 6.979387e-05 5.1528427e-06 7.262545e-05 2.4280366e-06 1.1922878e-05 8.53138e-07 1.7212038e-05
1.5577594e-05 6.775793e-05 4.9608316e-06 7.93089e-05 3.5849484e-05 0.00014560323 1.0024895e-05 0.00015794337
3.334493e-07 2.0511254e-06 2.817287e-08 3.1553668e-06 5.1451815e-07 5.4494944e-06 4.134516e-07 3.955092e-06
3.3470307e-05 0.00013720574 9.119958e-06 0.00015285535 1.4130527e-05 5.0457726e-05 3.8721337e-06 5.4411652e-05
1.616576e-05 6.156184e-05 4.581933e-06 6.76386e-05 1.2079347e-05 6.192035e-05 4.709161e-06 7.728053e-05
1.3884316e-05 4.9696144e-05 3.7076074e-06 5.393505e-05 1.5057035e-05 5.8393525e-05 4.22189e-06 6.421081e-05
4.3287437e-05 0.00026659472 1.8107554e-05 0.0003411345 1.4575992e-05 5.0813658e-05 3.902943e-06 5.943013e-05
7.649969e-06 2.3597635e-05 1.905995e-06 2.5728035e-05 1.4406352e-05 4.7585007e-05 3.922533e-06 6.220949e-05
2.2270393e-05 8.927221e-05 6.3209222e-06 0.00010157744 1.5774174e-05 6.0371513e-05 4.112196e-06 6.704651e-05
9.2701036e-08 1.6356229e-06 2.4911204e-08 3.2419969e-06 1.062037e-05 6.128676e-05 3.919151e-06 7.289175e-05
1.3938875e-05 7.534478e-05 5.7202897e-06 8.489065e-05 1.7850321e-07 7.454127e-07 9.5923575e-08 9.895596e-07
2.6769627e-08 6.2371623e-07 1.35033424e-08 1.2373391e-06 9.744739e-06 3.9196504e-05 2.668894e-06 3.3870798e-05
1.2284836e-05 5.8492773e-05 4.1468425e-06 5.913784e-05 3.3870455e-07 5.0725093e-06 9.9598054e-08 1.034068e-05
7.4438884e-07 4.665995e-06 3.5426743e-07 5.4332195e-06 1.5615053e-05 5.7430403e-05 4.1035296e-06 6.1015176e-05
9.127024e-06 3.8040038e-05 3.2519172e-06 4.2117397e-05 1.0542442e-07 3.7866266e-07 1.9921693e-08 2.2526277e-07
8.098714e-08 2.9038975e-07 2.5290957e-08 2.1230989e-07 1.383462e-05 6.3950516e-05 4.992973e-06 6.884109e-05

exp_avg f4 [64]
00000000: 3f4f e03b e495 843c 9b1f 813c e956 a33c
00000010: 4df0 5b3c 7509 893c 6e4a 883c f451 a7bb
00000020: a175 92ba 7b88 043c 309f 54bb 3917 ad3c
00000030: 92aa 743c b965 913c 628c b1b1 abeb 18bb
00000040: d664 7dba 6b96 333c a149 803c 7982 823c
00000050: 6fb5 613c bf3f 503c 1981 843c dbe5 74bb
00000060: 8187 96b9 25b3 923c 2cb7 98bb eb32 baba
00000070: 2061 803c 6f34 863c 6727 923c cfc5 713c
00000080: 8537 603c bd3d f3bb 1fbe 833c 3826 a33c
00000090: a69a 42ba c33a afbb 35aa a13c aa09 643c
000000a0: 046d 723c 5a92 1d3c afc7 413c 9e49 673c
000000b0: c80e 9d3c 8a8f 6e3c fafe 3f3c b3eb 6c3c
000000c0: 28d9 903c 8310 803c ca06 beb9 3172 b13b
000000d0: 51a0 383c 6d4a 87bb 7aa5 c2b8 5f79 183c
000000e0: 3997 663c a484 7aba 5394 143b 31a1 403c
000000f0: 755f 093c 0a50 b1b9 c737 eaba da82 373c
0.0068453844 0.016184755 0.015762141 0.019938903 0.013423991 0.016728142 0.016637053 -0.005106205
-0.0011173972 0.00808918 -0.0032443516 0.021129237 0.014933245 0.0177487 -5.1673377e-09 -0.0023333828
-0.000966621 0.010961155 0.015660109 0.015931355 0.013776167 0.012710511 0.01617484 -0.003736845
-0.00028711188 0.017907688 -0.0046605077 -0.0014205849 0.015671313 0.016382424 0.017841054 0.014756634
0.013685112 -0.0074231313 0.016081868 0.019915685 -0.0007423557 -0.005347581 0.019734481 0.01391832
0.014796499 0.009617412 0.011827393 0.014116673 0.019172087 0.01456059 0.011718506 0.014460492
0.017681673 0.015632873 -0.00036244682 0.005415224 0.011268691 -0.0041287453 -9.281463e-05 0.009306281
0.01407414 -0.0009556508 0.0022671416 0.011757181 0.008384575 -0.00033819705 -0.0017869406 0.011200631

exp_avg_sq f4 [64]
00000000: c110 af3a aa5c e03a bc06 cc3a 7a1c 4d3b
00000010: be33 123b 8d9b d93a 9b20 153b 7090 a937
00000020: a09a d437 7678 ab3a 29e6 2f38 aeba 833b
00000030: 7901 d33a ad63 273b 0870 0838 a0d3 2237
00000040: 86b4 e936 56a3 a33a 1786 213b 6886 e53a
00000050: 5969 7d3a 1d12 a63a 1a39 3e3b 49fc 0537
00000060: 985d c937 eda3 233b 46e1 8237 bcee c536
00000070: 124e c33a c820 d73a e2ae 423b c557 ba3a
00000080: 0a9c e53a 7d22 9b38 8cfa de3a 2aff 733b
00000090: 7fa9 5537 fb0c 0738 54c7 623b 5a58 a33a
000000a0: 1640 c23a ecaa c63a 3a6b 9e3a 72f5 b53a
000000b0: 1188 063c 7e69 ad3a 55fb 0d3a df9d b23a
000000c0: c11a 163b 038f c73a c294 1137 494b ae3a
000000d0: 746b ff3a 8193 9f36 946e a136 5eff 673a
000000e0: 4d12 b53a c8c3 0238 9c78 a438 1728 b93a
000000f0: 7ef2 753a 761d b936 1e65 c535 c0fc d73a
0.0013356433 0.001711746 0.0015565972 0.003129749 0.0022308673 0.0016602144 0.002275503 2.0213629e-05
2.5344372e-05 0.0013082165 4.1937605e-05 0.0040200567 0.0016098461 0.002554159 3.2529264e-05 9.705225e-06
6.964957e-06 0.0012484591 0.0024646574 0.001751137 0.0009666882 0.0012670193 0.0029025734 7.9861575e-06
2.400465e-05 0.0024969534 1.5602109e-05 5.89885e-06 0.0014900586 0.0016412968 0.002970629 0.0014216831
0.0017517817 7.3974e-05 0.0017011925 0.0037230947 1.2735253e-05 3.2198597e-05 0.0034603672 0.0012462244
0.0014820124 0.001515714 0.0012086399 0.0013882353 0.008211152 0.0013230292 0.00054161745 0.0013627372
0.002290413 0.0015225116 8.677309e-06 0.0013297583 0.001948698 4.755741e-06 4.811047e-06 0.00088500034
0.0013814658 3.117675e-05 7.842595e-05 0.0014126328 0.00093821425 5.5168593e-06 1.4707073e-06 0.0016478524

exp_avg f4 [2, 64]
00000000: 35f5 ac3a 3171 e7b9 f2da 78ba d5cd 5bb9
00000010: 1fa5 b939 1796 343a 9884 0a3b a59c 15b9
00000020: cdcb 0eb6 adab ac3a 8153 aeb9 d1d4 4c39
00000030: 04b0 b33a fceb 323a a889 812d 42cb 3f37
00000040: d64e 3aba 8c89 ef3a b46b 3339 eca6 ee3a
00000050: a20a 543a b12c d83a dca5 ff3a 44dd 0fb9
00000060: c182 5238 aaa6 61b9 1df3 8138 d435 6337
00000070: b30e b33a e167 3a3a e11c c23a 2338 fc39
00000080: d880 0f3a c82f afb9 156b 713a ccd1 d23a
00000090: c7cf feb8 e31d 8d38 f41a 313a 29bd 863a
000000a0: 1714 533a fb10 b73a bc2d b53a ebd0 b63a
000000b0: f5dd ae3a 79e6 013a 6f43 823a 6fcf 1939
000000c0: e3a2 973a fe62 fbb9 7079 bb36 9a33 613a
000000d0: f95b 073b 1249 4538 7b9c eeb7 48cf 373a
000000e0: 4117 af3a fd79 4b38 257d 263a a703 573a
000000f0: 2798 db3a f203 3838 2a8c 6eb9 06d6 943a
00000100: 34f5 acba 2771 e739 e3da 783a d3cd 5b39
00000110: 1ca5 b9b9 1596 34ba 9784 0abb a19c 1539
00000120: d2cb 0e36 adab acba 7f53 ae39 ecd4 4cb9
00000130: 0ab0 b3ba feeb 32ba 9d89 81ad 3fcb 3fb7
00000140: d44e 3a3a 8a89 efba aa6b 33b9 eba6 eeba
00000150: a80a 54ba b22c d8ba dea5 ffba 44dd 0f39
00000160: c482 52b8 89a6 6139 1df3 81b8 d435 63b7
00000170: b30e b3ba e667 3aba e01c c2ba 2038 fcb9
00000180: dc80 0fba c52f af39 1d6b 71ba cad1 d2ba
00000190: c0cf fe38 e21d 8db8 f71a 31ba 2abd 86ba
000001a0: 2314 53ba fb10 b7ba bf2d b5ba edd0 b6ba
000001b0: f8dd aeba 7fe6 01ba 6f43 82ba 69cf 19b9
000001c0: e2a2 97ba f962 fb39 7079 bbb6 9e33 61ba
000001d0: f85b 07bb 1249 45b8 5b9c ee37 49cf 37ba
000001e0: 4117 afba fc79 4bb8 237d 26ba ab03 57ba
000001f0: 2c98 dbba f203 38b8 2b8c 6e39 05d6 94ba
0.0013195636 -0.00044144088 -0.00094930746 -0.00020962146 0.00035408975 0.000688882 0.002113616 -0.00014268102
-2.1278277e-06 0.0013173722 -0.00033250081 0.00019534236 0.0013709073 0.00068253255 1.4726734e-11 1.1431812e-05
-0.00071070844 0.0018275245 0.00017110893 0.0018207706 0.00080887426 0.0016492811 0.0019504386 -0.0001371997
5.0189676e-05 -0.0002151976 6.196483e-05 1.3542787e-05 0.0013660997 0.0007110816 0.0014809632 0.0004810701
0.00054742163 -0.000334142 0.0009209377 0.0016084253 -0.000121503654 6.728971e-05 0.00067560305 0.0010279763
0.0008052005 0.0013966853 0.0013822834 0.001394776 0.0013341295 0.00049553026 0.000993831 0.00014668492
0.001156893 -0.00047948206 5.5871715e-06 0.0008590758 0.0020654185 4.7036512e-05 -2.8444678e-05 0.00070117833
0.0013358371 4.8512582e-05 0.00063510454 0.00082021434 0.0016753719 4.3872693e-05 -0.00022749664 0.0011355288
-0.0013195635 0.00044144058 0.0009493066 0.00020962143 -0.00035408966 -0.0006888819 -0.0021136159 0.00014268096
2.1278288e-06 -0.0013173722 0.00033250076 -0.00019534276 -0.001370908 -0.0006825327 -1.4726715e-11 -1.1431809e-05
0.0007107083 -0.0018275243 -0.00017110878 -0.0018207704 -0.0008088746 -0.0016492812 -0.0019504388 0.0001371997
-5.0189687e-05 0.00021519711 -6.196483e-05 -1.3542787e-05 -0.0013660997 -0.0007110819 -0.0014809631 -0.00048107002
-0.00054742186 0.00033414192 -0.00092093815 -0.001608425 0.0001215036 -6.72897e-05 -0.0006756032 -0.0010279764
-0.0008052012 -0.0013966853 -0.0013822837 -0.0013947763 -0.0013341298 -0.0004955306 -0.000993831 -0.00014668483
-0.0011568929 0.0004794819 -5.5871715e-06 -0.00085907604 -0.0020654183 -4.7036512e-05 2.844462e-05 -0.0007011784
-0.0013358371 -4.851258e-05 -0.0006351044 -0.00082021457 -0.0016753725 -4.3872693e-05 0.00022749665 -0.0011355287

exp_avg_sq f4 [2, 64]
00000000: 8abc 2e38 eae3 5838 429c 8638 f371 1838
00000010: e1be 1938 0f26 1e38 3942 0838 8d5e e133
00000020: 6fcd 0133 e4d2 3b38 2f15 6635 d1c7 0438
00000030: f8a4 2e38 c3b2 0038 335d 1d31 49b5 6533
00000040: 843d 2036 72eb 0838 1e3b 1538 3676 1f38
00000050: 2480 6d38 6cda 4a38 85ff 0338 190f d632
00000060: fed3 2c34 aff4 2c38 1bf3 8833 0d0f 5d33
00000070: d8ce 0e38 1890 2f38 d8d5 ed37 864b 5038
00000080: bd4e 2238 e9af 3535 3aee 2c38 40f4 dc37
00000090: 9b9e fa34 ede4 c034 acdb f337 410b 5038
000000a0: 690b 4a38 cccd 2938 38f9 4c38 544e 4838
000000b0: adb9 c537 2211 4538 981d 1a38 8ffa 5d38
000000c0: 8f8d 0938 3f3a 7238 3f21 9e32 9bff 3d38
000000d0: b968 1b38 b3af 6232 4275 be34 9fc5 6838
000000e0: 8bda 3f38 da27 e033 7c7c 1537 4d35 2a38
000000f0: 0f78 4438 c3bb 8f34 28b5 eb32 cf38 1f38
00000100: 8abc 2e38 eae3 5838 429c 8638 f371 1838
00000110: e0be 1938 0f26 1e38 3942 0838 8e5e e133
00000120: 6fcd 0133 e4d2 3b38 2f15 6635 d3c7 0438
00000130: f7a4 2e38 c5b2 0038 335d 1d31 47b5 6533
00000140: 853d 2036 72eb 0838 1f3b 1538 3876 1f38
00000150: 2380 6d38 6cda 4a38 85ff 0338 170f d632
00000160: fed3 2c34 aff4 2c38 1bf3 8833 0b0f 5d33
00000170: d8ce 0e38 1990 2f38 d7d5 ed37 834b 5038
00000180: bd4e 2238 eaaf 3535 3aee 2c38 40f4 dc37
00000190: 9e9e fa34 ede4 c034 aadb f337 410b 5038
000001a0: 6b0b 4a38 cccd 2938 38f9 4c38 554e 4838
000001b0: adb9 c537 2611 4538 981d 1a38 90fa 5d38
000001c0: 8d8d 0938 3f3a 7238 3f21 9e32 99ff 3d38
000001d0: ba68 1b38 b1af 6232 4075 be34 9dc5 6838
000001e0: 89da 3f38 da27 e033 7c7c 1537 4c35 2a38
000001f0: 0f78 4438 c2bb 8f34 28b5 eb32 cf38 1f38
4.1660423e-05 5.1710675e-05 6.418723e-05 3.6345748e-05 3.6655812e-05 3.770558e-05 3.24866e-05 1.0494578e-07
3.0221994e-08 4.478068e-05 8.5712503e-07 3.1657346e-05 4.1638472e-05 3.0684063e-05 2.2899485e-09 5.3483095e-08
2.3877665e-06 3.2644202e-05 3.5579425e-05 3.8018647e-05 5.6624544e-05 4.8363974e-05 3.1470805e-05 2.4919744e-08
1.609587e-07 4.1235875e-05 6.377214e-08 5.146926e-08 3.4048076e-05 4.185745e-05 2.835218e-05 4.96614e-05
3.869714e-05 6.768374e-07 4.122986e-05 2.6339781e-05 4.668153e-07 3.5929352e-07 2.907015e-05 4.9601545e-05
4.817118e-05 4.0484403e-05 4.8869493e-05 4.7756665e-05 2.3570692e-05 4.6984416e-05 3.6744023e-05 5.2923857e-05
3.2795182e-05 5.7751542e-05 1.840874e-08 4.5299163e-05 3.705241e-05 1.3194881e-08 3.5475574e-07 5.549716e-05
4.5741483e-05 1.0438062e-07 8.910076e-06 4.05808e-05 4.6841855e-05 2.677244e-07 2.7439981e-08 3.796146e-05
4.1660423e-05 5.1710675e-05 6.418723e-05 3.6345748e-05 3.665581e-05 3.770558e-05 3.24866e-05 1.04945784e-07
3.0221994e-08 4.478068e-05 8.5712503e-07 3.1657353e-05 4.163847e-05 3.068407e-05 2.2899485e-09 5.3483088e-08
2.3877667e-06 3.2644202e-05 3.557943e-05 3.8018654e-05 5.662454e-05 4.8363974e-05 3.1470805e-05 2.4919741e-08
1.609587e-07 4.1235875e-05 6.377214e-08 5.1469254e-08 3.4048076e-05 4.1857453e-05 2.8352179e-05 4.966139e-05
3.869714e-05 6.7683743e-07 4.122986e-05 2.6339781e-05 4.6681538e-07 3.5929352e-07 2.9070146e-05 4.9601545e-05
4.8171187e-05 4.0484403e-05 4.8869493e-05 4.775667e-05 2.3570692e-05 4.698443e-05 3.6744023e-05 5.292386e-05
3.2795175e-05 5.7751542e-05 1.840874e-08 4.5299155e-05 3.7052414e-05 1.3194879e-08 3.5475568e-07 5.5497152e-05
4.5741475e-05 1.0438062e-07 8.910076e-06 4.0580795e-05 4.6841855e-05 2.6772437e-07 2.7439981e-08 3.796146e-05

exp_avg f4 [2]
00000000: 6bb5 103b 6db5 10bb
0.002208079 -0.0022080794

exp_avg_sq f4 [2]
00000000: 8281 7639 8281 7639
0.00023508634 0.00023508634

exp_avg f4 [1, 64]
00000000: 06b5 d53b 1be7 a53c 16d0 9d3c eb40 803c
00000010: 7323 eb3b 6dc9 a23c 85fe 863c 498c 2c3b
00000020: 4d9e 9c38 bde3 bd3b 2d69 543b 66a3 a43c
00000030: 8e5a a63c 375a a03c dcb2 072d 9a87 223a
00000040: e11d ee3b 38de 443c b428 3e3c 8513 473c
00000050: fae4 e63c c3f5 4f3c 3dbc 913c 59b4 be3a
00000060: 43fe 223a ae27 b03c c1b7 d83a 7b83 ef39
00000070: b685 9a3c 021f d33c 52fe 743c 7c5b c43c
00000080: cf92 193c b332 913b f058 153c a568 8d3c
00000090: c7bb 453b bf66 1d3b 6ff7 9d3c 4f37 e13c
000000a0: 8cc1 d33c 8f0a e43b 482b 543c d291 203c
000000b0: 485d 323c 0c8c c23c e633 d43c 087a cc3c
000000c0: 8c8f 233c 2346 a83c 83c4 4739 b5e3 af3b
000000d0: 80da 4f3c ee21 883a 4bff 9d3a b110 353c
000000e0: 9fe4 f53b 9f82 343a a2ee 103b 8b5c 593c
000000f0: b919 023c 3e86 ab39 139b 153b 3675 d33b
0.006521824 0.020251801 0.019264262 0.015655955 0.0071758567 0.019871438 0.016478786 0.0026328734
7.4681455e-05 0.005794971 0.0032411322 0.020097446 0.020306852 0.019574268 7.713576e-12 0.0006200016
0.0072667454 0.012015872 0.011606384 0.01215065 0.028185356 0.0126928715 0.017789954 0.0014549597
0.00062176975 0.021503296 0.0016534255 0.00045683593 0.018862586 0.025771622 0.014953213 0.023969404
0.009373381 0.0044310926 0.009115443 0.017261812 0.0030171738 0.002401754 0.019283025 0.027492194
0.025849126 0.0069592665 0.012949772 0.009800391 0.010886498 0.02374842 0.025903653 0.024960533
0.009982955 0.020541256 0.00019051325 0.005367721 0.012686372 0.0010386088 0.0012054233 0.011051343
0.0075040604 0.0006885919 0.0022114892 0.013266693 0.007940703 0.0003271568 0.0022828027 0.0064531816

exp_avg_sq f4 [1, 64]
00000000: 5b43 ca3a 69d9 f03a c240 f83a 3ff0 ae3a
00000010: 2efe b03a 57e8 ce3a d18b bc3a 970e 3636
00000020: 0cb9 3636 ef99 dd3a 4018 d337 f13e a73a
00000030: cdd8 013b 8069 b43a 18d7 7435 5ce5 5836
00000040: 1be9 fe37 a403 9e3a 8677 b13a 3a5d d53a
00000050: 0996 193b ccda 033b 89d9 b83a 0768 3535
00000060: 4b9b 5b38 878f c13a 8e4e f635 77b9 0536
00000070: 7f8b c03a e5b8 e43a e258 ac3a 8cf7 043b
00000080: 1ce0 c33a 6cdb 6a37 365a df3a 3022 a03a
00000090: 1c98 0237 f228 e936 f779 a93a 3721 0e3b
000000a0: 5e22 063b 5317 c43a 3846 043b 95bd fe3a
000000b0: 4bb6 863a 5446 fe3a 7f76 b33a 9290 063b
000000c0: 42f0 b83a 4182 023b 7583 0837 e17e e23a
000000d0: 95ea cb3a bf23 a934 1ddb b637 bdd6 053b
000000e0: 19cf ee3a 63fc 0538 165a 9039 89b1 ce3a
000000f0: 755c d83a 90cb 5736 c9c1 0335 3e73 bf3a
0.001543145 0.001837534 0.0018940198 0.0013346745 0.0013503486 0.0015785795 0.001438493 2.7128606e-06
2.7227825e-06 0.0016906838 2.5164452e-05 0.0012759847 0.0019813061 0.0013764352 9.1210086e-07 3.2320013e-06
3.0387708e-05 0.0012055528 0.0013539649 0.0016278394 0.0023435375 0.0020119427 0.0014102916 6.7579134e-07
5.2358297e-05 0.0014767506 1.8351291e-06 1.99265e-06 0.001469001 0.0017450122 0.0013149048 0.002028915
0.0014944109 1.3998575e-05 0.0017040435 0.001221722 7.7840195e-06 6.948708e-06 0.0012930025 0.0021687278
0.0020467262 0.0014960564 0.0020183455 0.0019435162 0.0010277716 0.0019399622 0.0013691931 0.0020532948
0.0014109688 0.0019914063 8.136839e-06 0.0017280245 0.0015557582 3.1504712e-07 2.1798123e-05 0.0020422183
0.0018219679 3.1944724e-05 0.0002753294 0.0015769462 0.0016507047 3.2155986e-06 4.90833e-07 0.0014606488
