savedModels/ppo_cartpole_81920.pth (torch, 13659 bytes, 15 tensors)

shared_fc.0.weight f4 [64, 4]
0	0xbc903417	-0.017602963
1	0x3ec9efb2	0.39440686
2	0x3e36c6c1	0.17849256
3	0xbe66a417	-0.22523533
4	0xbdcc622b	-0.099796616
5	0xbdc1ba57	-0.0945937
6	0xbf359d68	-0.7094331
7	0xbe416924	-0.18887764
8	0xbd3a8e25	-0.045545716
9	0xbeba01a7	-0.36329386
10	0xbee65848	-0.44989228
11	0xbecf10b4	-0.4044243
12	0xbd80d106	-0.06289868
13	0xbdb2b8cb	-0.08726653
14	0xbef02f14	-0.46910918
15	0xbe23ad7c	-0.15984148
16	0x3d2e9b36	0.04262849
17	0x3cbd0c59	0.023077177
18	0xbf3ddd6d	-0.74165994
19	0xbe0574a9	-0.13032784
20	0x3aeafbf5	0.0017927872
21	0x3d9bbfdc	0.07604954
22	0xbec2a161	-0.38013747
23	0xbe0dccf2	-0.13847712
24	0xbe26c49b	-0.16285937
25	0x3e41d5d9	0.18929233
26	0x3ee6906c	0.4503206
27	0x3e8d938d	0.27651635
28	0xbb89d44c	-0.004206216
29	0xbc0e9642	-0.008702816
30	0xbe886b1e	-0.26644224
31	0xbe1c63c8	-0.15272439
32	0x3e37204d	0.17883416
33	0xbd0b42f6	-0.033999406
34	0xbda98995	-0.08278195
35	0x3d59b9a5	0.05315556
36	0x3e886dda	0.2664631
37	0x3e060d08	0.13090909
38	0x3df1c31b	0.118047915
39	0xbe689a47	-0.22715102
40	0x3ea3bdd1	0.31980756
41	0xbea167d7	-0.31524536
42	0xbe7e88a7	-0.24856816
43	0xbdd58a12	-0.104267254
44	0x3c1f155b	0.009709681
45	0xbe19ece8	-0.15031779
46	0xbe413b5e	-0.18870303
47	0x3d979314	0.074011
48	0xbc8ec0ee	-0.01742598
49	0x3d5db8ee	0.05413144
50	0x3ed0d012	0.40783745
51	0x3e5da877	0.21646295
52	0xbdbfb2d5	-0.093602814
53	0x3b4c0c90	0.0031135418
54	0x3e4a4d7a	0.19756117
55	0x3d6515ee	0.055929117
56	0x3d4250c6	0.047440313
57	0x3dc13ff8	0.09436029
58	0xbe46b121	-0.19403507
59	0xbd844bef	-0.06459796
60	0x3da47bc5	0.0803142
61	0x3db57311	0.08859838
62	0x3e0d32ca	0.13788906
63	0x3df65ae3	0.12029054
64	0xbda3c0c0	-0.079957485
65	0xbe91f6e0	-0.28508663
66	0xbe46c75f	-0.19411992
67	0xbe12853b	-0.14308636
68	0x3e8ea752	0.2786203
69	0x3e5865e8	0.21132624
70	0x3d4b5852	0.049644776
71	0x3d944d9c	0.07241365
72	0xbb7f04f0	-0.0038912855
73	0xbd7579c8	-0.059930593
74	0xbeb5a1b5	-0.35474935
75	0xbe202093	-0.15637426
76	0xbe542b6b	-0.20719688
77	0x3e7bca3b	0.24588864
78	0x3ea5de8a	0.32396346
79	0x3e0808bf	0.13284586
80	0xbd1ddaf0	-0.038538873
81	0xbd6dd0be	-0.0580604
82	0x3e93fed4	0.28905356
83	0x3e6a6c4d	0.22892876
84	0xbe52a0e4	-0.20569187
85	0x3e5cf980	0.21579552
86	0x3eea7350	0.457911
87	0xbdb38866	-0.0876625
88	0x3d1c6d51	0.03819019
89	0x3e05c18c	0.13062114
90	0x3e252767	0.16128312
91	0x3ed986b2	0.42485577
92	0x3ce09f0f	0.027419595
93	0xbdc98b01	-0.09840966
94	0xbd796482	-0.060886867
95	0xbc0ffd64	-0.00878844
96	0x3da8e385	0.08246521
97	0x3cc4f580	0.024042845
98	0xbd3076bb	-0.04308198
99	0x3e8f9fdb	0.28051648
100	0x3d79617d	0.060883988
101	0xbe97567f	-0.2955818
102	0xbeaaf19a	-0.33387452
103	0xbdbaa6f0	-0.09113872
104	0x3d062957	0.03275427
105	0x3de285fd	0.110607125
106	0x3e82e902	0.25568396
107	0x3dbca216	0.09210603
108	0x3e1a7b2a	0.15086046
109	0x3d45b211	0.04826552
110	0x3e32f156	0.17474875
111	0x3dadf40c	0.08493814
112	0xbd633a5a	-0.05547557
113	0x3d92f4bb	0.07175585
114	0x3ed8943a	0.42300588
115	0x3e381104	0.17975241
116	0xbdd3dd11	-0.103448994
117	0xbe85bec3	-0.26122102
118	0x3ee80b83	0.45321283
119	0x3e8a45ca	0.2700637
120	0x3dfb2910	0.122636914
121	0xbc15dc7a	-0.009146804
122	0x3f0a7915	0.54091007
123	0x3e156ec6	0.14593038
124	0x3d424883	0.047432434
125	0xbe023d42	-0.1271868
126	0x3e6f55aa	0.23372522
127	0xbc23b28d	-0.0099913
128	0xbc25d642	-0.010121884
129	0xbcb32d44	-0.02187217
130	0xbee4ad17	-0.44663307
131	0xbdf4e495	-0.11957661
132	0x3e2801d5	0.16406949
133	0xbe135061	-0.14386131
134	0xbde35aa9	-0.111012764
135	0xbe9ea6fe	-0.3098678
136	0x3e97e0e1	0.29663756
137	0xbd956669	-0.07294924
138	0xbef1fda6	-0.4726383
139	0xbdffac49	-0.12484033
140	0xbe17e213	-0.14832334
141	0x3e16a9f5	0.14713271
142	0x3eca8079	0.39551142
143	0x3e4892d7	0.19587265
144	0xbe68269d	-0.2267098
145	0xbcb7f7cb	-0.022457024
146	0x3e01d879	0.12680234
147	0xbe1cef5f	-0.15325688
148	0xbcbfc49f	-0.023409186
149	0x3e89cf09	0.26915768
150	0x3e488792	0.19582966
151	0x3e1033c6	0.1408225
152	0xbceb9b09	-0.02876045
153	0xbd89d720	-0.06730485
154	0x3ea0b85d	0.31390658
155	0x3d56cb84	0.05244018
156	0xbe944056	-0.28955334
157	0x3db31941	0.08745051
158	0x3d485b39	0.04891512
159	0x3eabb4bc	0.33536327
160	0xbe67cecb	-0.22637479
161	0x3cbbe097	0.022934241
162	0x3f035446	0.51300466
163	0x3dc48e4e	0.09597455
164	0xbe3d0c4e	-0.18461725
165	0x3eecfd76	0.46287125
166	0x3d5ed165	0.054398913
167	0xbe3b1d22	-0.18272832
168	0xbe80fabe	-0.251913
169	0x3e70c669	0.23513187
170	0xbe917b35	-0.28414312
171	0xbdb8bfba	-0.09020944
172	0x3d994356	0.074835464
173	0xbd971258	-0.07376546
174	0xbe811246	-0.25209254
175	0xbe06543d	-0.13118072
176	0x3ef91baa	0.48653919
177	0x3ce34dd7	0.027747078
178	0xbe119093	-0.14215307
179	0x3e49d2f1	0.19709374
180	0x3e56eb5e	0.20988223
181	0xbebf2665	-0.3733398
182	0x3e886962	0.266429
183	0x3dccbb45	0.09996656
184	0xbc94872c	-0.018130861
185	0xbdf649dd	-0.12025807
186	0x3f5a8d3b	0.8537175
187	0x3e3b2b9b	0.18278353
188	0x3de049e1	0.10951591
189	0xbea89ba0	-0.32931232
190	0x3e8cca57	0.27498123
191	0xbc918a5b	-0.017766168
192	0x3db8cae4	0.09023073
193	0xbd9da4ef	-0.07697474
194	0x3e42cf94	0.19024497
195	0xbd24b313	-0.04020984
196	0xbdbb2563	-0.0913799
197	0xbe32a7d4	-0.17446834
198	0xbeeb4438	-0.45950484
199	0xbea40b77	-0.32039997
200	0xbcfd7cad	-0.03094324
201	0x3bcb788f	0.00620944
202	0x3ebd4737	0.36968395
203	0x3e259b09	0.16172422
204	0x3e5648cd	0.20926209
205	0x3ea85d9c	0.32883918
206	0xbcf43e7e	-0.029814955
207	0xbefd31de	-0.49452108
208	0x3e41ed0d	0.18938084
209	0x3dc51ad8	0.09624261
210	0x3ee2baf2	0.44283253
211	0x3e875835	0.26434484
212	0x3cbf048d	0.0233176
213	0x3c02178e	0.007940186
214	0x3edd946a	0.43277293
215	0x3d8945fa	0.067028
216	0x3d6724fb	0.05643175
217	0x3d15bf4c	0.036559388
218	0xbedf4614	-0.43608153
219	0xbe6ca4de	-0.23109767
220	0xbd1e6962	-0.03867472
221	0x3d490167	0.049073603
222	0xbe330add	-0.17484613
223	0xbece9e10	-0.40354967
224	0x3e50166b	0.20321052
225	0x3cd23f3b	0.025664916
226	0xbdfc07ca	-0.12306173
227	0xbe0783c9	-0.13233866
228	0xbe3c1d17	-0.18370472
229	0x3d8b0f5a	0.067900375
230	0x3d0e060e	0.034673743
231	0x3e7e28da	0.24820271
232	0x3e830892	0.25592476
233	0x3e73dac1	0.23813917
234	0xbea33639	-0.31877306
235	0xbde033d2	-0.10947384
236	0xbecbaa7d	-0.3977851
237	0x3e81ff8c	0.2539028
238	0xbdb8d0f4	-0.0902423
239	0xbea4a4ae	-0.3215689
240	0xba5ad324	-0.00083475024
241	0x3e4b2029	0.19836487
242	0xbdb68339	-0.089117475
243	0xbde15def	-0.110042445
244	0x3ebf3764	0.37346947
245	0x3d020ae5	0.03174867
246	0x3ec3afad	0.38219967
247	0xbb4b5f83	-0.0031032271
248	0x3d6acd30	0.05732459
249	0xbd3ebc98	-0.046566576
250	0xbf252de3	-0.6452314
251	0x3d06ac27	0.03287902
252	0x3d3120cd	0.043244172
253	0x3e34e357	0.17664848
254	0xbdda73d9	-0.106666274
255	0xbe44a5e9	-0.19203915

shared_fc.0.bias f4 [64]
0	0x3eff8ecf	0.49913642
1	0x3f1119c2	0.5667993
2	0x3f0ae510	0.5425577
3	0x3f0ca948	0.549458
4	0x3f1166b7	0.56797355
5	0xbe354dce	-0.17705461
6	0x3f068875	0.52551967
7	0xbe0b328f	-0.13593505
8	0xbe5c07ef	-0.21487401
9	0x3f0b0f20	0.54319954
10	0xbdff52ff	-0.12467002
11	0x3f05e270	0.5229864
12	0x3f039f35	0.51414806
13	0x3f0a4af1	0.540206
14	0xbe55720d	-0.20844288
15	0xbe5a6690	-0.21328187
16	0xbe16fe82	-0.14745525
17	0xbcb1be29	-0.02169712
18	0x3f117a8b	0.5682761
19	0x3f0f4002	0.55957043
20	0x3f1e0677	0.61728615
21	0x3f19eb6e	0.6012486
22	0x3f094fc8	0.5363736
23	0xbe0e09ec	-0.13870972
24	0xbe5dfcf5	-0.21678527
25	0x3f060df6	0.5236505
26	0xbdf531ea	-0.11972411
27	0xbe6d0900	-0.23147964
28	0x3edabe76	0.42723435
29	0x3f0737fd	0.52819806
30	0x3f0d817a	0.5527569
31	0x3f168410	0.5879526
32	0x3f173794	0.5906918
33	0xbe402836	-0.1876534
34	0x3f098252	0.5371448
35	0x3f064fd4	0.5246556
36	0xbe8bae66	-0.27281493
37	0xbe35bc53	-0.17747621
38	0x3f0894f2	0.5335227
39	0x3f11054d	0.56648713
40	0x3f086f71	0.53295046
41	0x3efe41a0	0.49659443
42	0x3f1af91d	0.60536367
43	0x3f18f874	0.5975411
44	0x3efc5856	0.49286145
45	0x3f1243cd	0.57134706
46	0x3d17b3fa	0.037036873
47	0x3f14118c	0.57839274
48	0x3f1387aa	0.5762888
49	0x3f0e1288	0.55497026
50	0xbdd92e35	-0.106045164
51	0x3efc7cc4	0.4931394
52	0x3f14c7c5	0.58117324
53	0x3e60fed8	0.21972215
54	0xbe4c3a6a	-0.19944158
55	0x3f1d629d	0.61478597
56	0x3f12911e	0.5725268
57	0xbe62c74a	-0.22146335
58	0xbe8f2616	-0.27958745
59	0x3f069a8b	0.52579564
60	0x3ec9e6ae	0.39433807
61	0xbe61759a	-0.22017518
62	0x3ecee3ae	0.4040808
63	0x3f08e7c2	0.53478634

actor_head.weight f4 [2, 64]
0	0x3c1c8356	0.009552797
1	0x3e63904f	0.22223018
2	0x3e18ceb7	0.14922605
3	0x3e4a9db9	0.19786729
4	0x3e2f2805	0.1710511
5	0xbe3eba65	-0.18625791
6	0xbe621c09	-0.22081007
7	0xbc9a105b	-0.018806627
8	0x3dbcb177	0.09213536
9	0x3ba41e2a	0.0050084786
10	0x3dbc847e	0.092049584
11	0xbd677d77	-0.056516137
12	0xbe51de17	-0.20494877
13	0xbdce2b2f	-0.1006683
14	0xbdec441d	-0.11536429
15	0x3c824a7c	0.015904658
16	0x3d1ce01a	0.038299657
17	0xbd03d76f	-0.032187875
18	0x3e0125ff	0.1261215
19	0xbe01bcd3	-0.12669687
20	0xbe05bdfb	-0.13060753
21	0xbd57d074	-0.05268903
22	0xbdf8661f	-0.12128853
23	0x3d9b570e	0.07584964
24	0x3c2131b5	0.009838511
25	0x3ca00839	0.01953517
26	0xbd820e40	-0.06350374
27	0x3c6cd278	0.014454477
28	0xbe8bdc15	-0.27316347
29	0xbdfe35e3	-0.12412622
30	0xbe4b445f	-0.198503
31	0xbdb53982	-0.08848859
32	0x3e089ead	0.1334178
33	0xbd69c686	-0.057074092
34	0x3e26c01f	0.16284226
35	0xbe5fb036	-0.21844563
36	0x3beb19d7	0.007174711
37	0xbdcfe743	-0.101515315
38	0xbe205e1e	-0.15660903
39	0xbdeb1c81	-0.11480046
40	0xbe2da14d	-0.16956063
41	0x3cfbe8d1	0.030750664
42	0x3dba6f6e	0.09103285
43	0x3dd7e1c9	0.10541112
44	0xbcbd2eb7	-0.023093564
45	0xbda7b4a6	-0.08188753
46	0xbde4bc09	-0.11168677
47	0xbddbe470	-0.1073693
48	0xbcfbf6b3	-0.030757284
49	0x3e420ea6	0.189509
50	0xbd292613	-0.041296076
51	0x3d4b0cf8	0.049572915
52	0xbe220f07	-0.15826045
53	0xbea6e6ae	-0.3259787
54	0xbd213901	-0.039361004
55	0x3d6fb43e	0.0585215
56	0x3d44f9cb	0.048089784
57	0x3c988c67	0.018621637
58	0x3cf55e0f	0.029952077
59	0x3d9b1dbf	0.07574033
60	0x3c2da5d5	0.0105986195
61	0xbd81518f	-0.06314384
62	0x3e92a6b5	0.28642812
63	0x3d09c906	0.033638977
64	0xbba916b8	-0.005160179
65	0xbe6e42d5	-0.23267682
66	0xbe2421e6	-0.16028556
67	0xbe4dc40b	-0.20094316
68	0xbe487604	-0.1957627
69	0x3e42e5c5	0.19032963
70	0x3e6bd7eb	0.23031585
71	0x3cb5d281	0.022195103
72	0xbddd2466	-0.10797958
73	0xbd0ad7c6	-0.033897184
74	0xbd4b31f2	-0.04960818
75	0x3d3af78b	0.04564623
76	0x3e5ccf26	0.21563396
77	0x3e026a2e	0.12735817
78	0x3dcab2e7	0.09897404
79	0xbcf2e4a2	-0.029650036
80	0xbdcb49df	-0.09926199
81	0x3cf8396f	0.030300824
82	0xbe0d6541	-0.13808157
83	0x3df6588c	0.12028608
84	0x3dd54546	0.104136035
85	0x3d096818	0.033546537
86	0x3e080729	0.13283981
87	0xbdc469e0	-0.095905066
88	0xbcfb40af	-0.030670492
89	0xbcf48c2a	-0.029851992
90	0x3da912a7	0.08255511
91	0xbc0ecc74	-0.008715738
92	0x3e74413b	0.23853008
93	0x3e084089	0.13305868
94	0x3e5dee0e	0.21672842
95	0x3de6d07f	0.11270236
96	0xbe0f8829	-0.14016785
97	0x3d7f5142	0.062333353
98	0xbe160d69	-0.14653553
99	0x3e6bbf4e	0.23022196
100	0x3bc4abea	0.006001939
101	0x3db38827	0.087662034
102	0x3e150927	0.14554273
103	0x3dd34b98	0.10317153
104	0x3e201c42	0.1563578
105	0xbc9d22e9	-0.019181686
106	0xbdb42745	-0.087965526
107	0xbdeb32f0	-0.11484325
108	0xbc0b8f9a	-0.008518124
109	0x3dd78e79	0.105252214
110	0x3dc741a0	0.09729314
111	0x3ddb9ab1	0.107228644
112	0x3d5860f2	0.05282683
113	0xbe448f5b	-0.19195311
114	0x3d2bd96d	0.0419554
115	0xbcdbab39	-0.026815044
116	0x3e308730	0.1723907
117	0x3ea7fd5a	0.3281048
118	0x3d0235e4	0.031789675
119	0xbd8b46e7	-0.06800633
120	0xbd448bd1	-0.0479849
121	0xbc9bc855	-0.019016424
122	0xbce074ea	-0.027399499
123	0xbd8cac98	-0.06868857
124	0x3a37c86d	0.0007010762
125	0x3d84aa6c	0.06477818
126	0xbe8d4096	-0.27588338
127	0xbd8aa3f2	-0.06769551

actor_head.bias f4 [2]
0	0xbb145270	-0.0022632144
1	0x3b1452b3	0.00226323

critic_head.weight f4 [1, 64]
0	0x3eb037b5	0.344175
1	0x3eea3ca0	0.45749378
2	0x3eca097f	0.3946037
3	0x3f140fba	0.57836497
4	0x3f067e2f	0.5253629
5	0xbeae08f7	-0.33991215
6	0x3f040db8	0.51583433
7	0xbe991e75	-0.2990605
8	0xbe698196	-0.2280334
9	0x3e909d93	0.2824522
10	0xbd093e6c	-0.033506796
11	0x3f1f8772	0.6231605
12	0x3eeb3b28	0.4594357
13	0x3f149481	0.580391
14	0xbee16e6a	-0.44029552
15	0xbe438cce	-0.19096681
16	0xbd0563fe	-0.032566063
17	0x3b9cd884	0.004786553
18	0x3f1a8e95	0.6037381
19	0x3f07dfb3	0.5307571
20	0x3eaec787	0.34136602
21	0x3ee3e389	0.44509533
22	0x3f0a603e	0.54053104
23	0xbda54447	-0.080696635
24	0xbdbd0c17	-0.092308216
25	0x3f0c09b5	0.5470231
26	0xbe2d50e6	-0.16925392
27	0xbe264423	-0.1623693
28	0x3ec9ac32	0.39389187
29	0x3eaf5abf	0.3424892
30	0x3f0629b0	0.5240736
31	0x3ef673bf	0.48135182
32	0x3f0d14cf	0.55109876
33	0xbe83002d	-0.25586072
34	0x3ec074e3	0.37589177
35	0x3f2292fb	0.63505524
36	0xbe120c9a	-0.1426262
37	0xbe1275f0	-0.14302802
38	0x3f1a0b84	0.6017382
39	0x3ea1450d	0.31497994
40	0x3ea73fc7	0.32665846
41	0x3ecdfcd6	0.4023196
42	0x3ed58e90	0.4171033
43	0x3ef1477e	0.47124857
44	0x3f2f89d8	0.6856971
45	0x3ec78ff1	0.38977006
46	0xbd0481f3	-0.03235049
47	0x3ecfa793	0.40557536
48	0x3f1188a4	0.5684912
49	0x3ecc4fc7	0.39904615
50	0xbe30db97	-0.17271267
51	0x3ea9a92c	0.3313688
52	0x3eca00df	0.3945379
53	0x3e591f63	0.2120338
54	0xbe532731	-0.20620419
55	0x3ebd562e	0.36979812
56	0x3eaaa64d	0.33330002
57	0xbe0f4369	-0.13990559
58	0xbd7498db	-0.059716087
59	0x3ec1ef24	0.37877762
60	0x3e339348	0.17536652
61	0xbdee7d89	-0.11645038
62	0x3ef85a30	0.48506308
63	0x3ec429db	0.38313183

exp_avg f4 [64, 4]
0	0xbb01da5d	-0.0019813993
1	0x39834247	0.00025035648
2	0xb72bad57	-1.0232753e-05
3	0xbaaed151	-0.0013337528
4	0xbc06aa56	-0.008219322
5	0xb70829c5	-8.115957e-06
6	0x39d6efbe	0.00040995883
7	0xba766fa7	-0.0009400793
8	0xbb873fb2	-0.004127466
9	0xbb51da16	-0.0032020858
10	0x38473154	4.7491238e-05
11	0x3b403312	0.0029327315
12	0xbc039270	-0.008030519
13	0x393527b9	0.00017276303
14	0x39c129a0	0.00036842842
15	0xba88b995	-0.0010431284
16	0xbbf0b463	-0.0073457225
17	0x39306fcd	0.00016826317
18	0x39b15bd3	0.00033828485
19	0xba7b8dec	-0.0009596038
20	0xbb98a8e4	-0.004658805
21	0xbbc1710b	-0.0059033684
22	0xb916a065	-0.00014364866
23	0x3b0d4849	0.0021557978
24	0xbbeab768	-0.007162977
25	0xbbcd700e	-0.0062694615
26	0x39f5ed7d	0.00046906984
27	0x3b3fc590	0.0029262044
28	0xbbae02c1	-0.005310387
29	0xbb95e0b8	-0.0045739077
30	0x37f4a678	2.9164585e-05
31	0x3ac3a55e	0.0014926603
32	0xba8e20e2	-0.001084354
33	0x397513cb	0.00023372394
34	0x3999d147	0.00029338358
35	0x3a375d7a	0.0006994825
36	0xbb048634	-0.0020221593
37	0x391b1f5b	0.00014793633
38	0x380c5c86	3.346477e-05
39	0xba6771d0	-0.000882891
40	0xbb099a0f	-0.0020996367
41	0xba24f886	-0.00062931364
42	0x395c6158	0.00021017098
43	0x394d0eda	0.00019555856
44	0xbc415d24	-0.011801992
45	0xbc22af93	-0.0099295555
46	0x3937a4e2	0.00017513664
47	0x3b8983f5	0.0041966387
48	0x3b1f386a	0.00242951
49	0xbac1c762	-0.0014784152
50	0xb9a2880f	-0.0003100042
51	0x3a90ec37	0.0011056726
52	0xba11e655	-0.0005565633
53	0xba9dd256	-0.0012040834
54	0xb916a1b8	-0.0001436536
55	0x3a1d95b0	0.000601138
56	0x3b412a0c	0.0029474525
57	0xbab6ebe9	-0.0013955805
58	0xb943a77e	-0.00018659045
59	0x3b0ab13f	0.0021162776
60	0x3aaf15a2	0.0013357888
61	0xb9fc74f8	-0.00048152334
62	0xb8ad3ae9	-8.260256e-05
63	0x3aa73b8c	0.0012758835
64	0xb86651d3	-5.4912478e-05
65	0xb9995166	-0.0002924308
66	0xb8a41aa2	-7.82509e-05
67	0x38bbcc36	8.954892e-05
68	0x3a2b7c93	0.00065416953
69	0xb974f4be	-0.00023360827
70	0xb8b2e3dc	-8.5301435e-05
71	0x3933229c	0.00017083663
72	0xbbd71924	-0.0065642763
73	0xb91fb2ec	-0.00015230075
74	0x39886e56	0.00026022148
75	0xba34e4c0	-0.00069005415
76	0xba08f7a7	-0.00052248914
77	0xbabf4c8c	-0.0014594956
78	0xb9076224	-0.00012911164
79	0x3a50b170	0.00079610106
80	0x3a3594ee	0.00069267943
81	0xbaa433dd	-0.0012527663
82	0xb926b03e	-0.00015896649
83	0x3a53c83a	0.00080788473
84	0xb9ee63fd	-0.00045469395
85	0xba059ad7	-0.00050966203
86	0xb7d9511b	-2.5906184e-05
87	0x3a46d6c0	0.0007585101
88	0xb77e1959	-1.51454815e-05
89	0xba9f6e8b	-0.0012163682
90	0xb9327701	-0.00017019735
91	0x3a2be370	0.0006557023
92	0xb7858489	-1.5916552e-05
93	0xb7df73e9	-2.6637646e-05
94	0xb6660395	-3.4274756e-06
95	0x3770bd52	1.4349194e-05
96	0x3a688e4b	0.0008871301
97	0x3a68a481	0.00088746106
98	0x3748b3e8	1.1962817e-05
99	0xb99dec94	-0.00030121638
100	0xbc42cde1	-0.011889906
101	0xbc0583a4	-0.008149061
102	0x385c93ff	5.258992e-05
103	0x3b31a785	0.0027107906
104	0x3b1ab94c	0.002360898
105	0xba0e86f6	-0.0005436981
106	0xb9256208	-0.00015772146
107	0x3a8f27e3	0.0010921921
108	0x3a0fb6eb	0.0005482274
109	0xb8a9c6eb	-8.095599e-05
110	0x385affa8	5.221335e-05
111	0x3a41929c	0.0007384212
112	0x3ac14449	0.0014745082
113	0xbb7f4e97	-0.0038956755
114	0xb9177f96	-0.00014448012
115	0x3b368d32	0.0027855155
116	0x3b3d5e00	0.002889514
117	0x392a8c68	0.00016264769
118	0xb98c3403	-0.00026741633
119	0x3aacb8a8	0.001317759
120	0x3b02bdc0	0.0019949526
121	0xbac9b1ff	-0.001538813
122	0xb99db59e	-0.0003008069
123	0x3a8e7346	0.0010868094
124	0xb9a4d574	-0.00031439553
125	0xba863fd5	-0.0010242412
126	0xb9076748	-0.00012913079
127	0x3a0afc7d	0.0005301906
128	0xbbd1051c	-0.006378783
129	0xb88e19ae	-6.775871e-05
130	0x398a6c54	0.00026402122
131	0xba3b68c0	-0.0007149093
132	0x3b1e0746	0.0024113222
133	0xb91bd599	-0.00014861523
134	0xb97e88ed	-0.00024274336
135	0x3a9e9b84	0.0012100791
136	0xbbc6152a	-0.0060450034
137	0x39211caa	0.00015364835
138	0x398f4360	0.00027325284
139	0xba42b87b	-0.00074280024
140	0x39c3be4e	0.00037335086
141	0xbb6559b0	-0.0034996085
142	0xb95b0f1c	-0.00020891096
143	0x3b1b5395	0.0023700942
144	0x34e8552e	4.3275344e-07
145	0x3548c108	7.4786703e-07
146	0x3337b5be	4.27733e-08
147	0xb58dd12c	-1.0566196e-06
148	0x3ac2abf9	0.0014852277
149	0xbaa7f795	-0.0012814874
150	0xb8963074	-7.1615825e-05
151	0x3a993bb4	0.0011690767
152	0xbad668c8	-0.0016358132
153	0xbb5554d3	-0.003255178
154	0xb7ed4b56	-2.8287683e-05
155	0x3b05b9e3	0.0020404987
156	0x3a80eb8a	0.0009835821
157	0xb9bb7cfc	-0.0003576054
158	0x36adc637	5.178877e-06
159	0x3ac66aad	0.0015137993
160	0x3986ec5e	0.0002573458
161	0xba03ed94	-0.00050326553
162	0x3985fce7	0.00025556164
163	0x3ae4558e	0.0017420517
164	0xbadc9225	-0.0016828222
165	0x39f8a2bc	0.00047423493
166	0x3847a268	4.759655e-05
167	0xba4fbe96	-0.0007924823
168	0xbb3799b2	-0.0028015194
169	0x3901ad06	0.00012366855
170	0x38db353d	0.0001045265
171	0x3952a0d4	0.00020087074
172	0xbbad55d9	-0.005289775
173	0xb8b78e39	-8.752611e-05
174	0x3960f4bf	0.0002145348
175	0xba16d859	-0.0005754284
176	0xbb720a8c	-0.0036932556
177	0xba5f8a42	-0.0008527377
178	0x381faadc	3.806768e-05
179	0x3800a4cf	3.0671068e-05
180	0xbb682ec8	-0.0035428274
181	0xbb62af29	-0.0034589267
182	0xb8baba23	-8.903842e-05
183	0x3ad846c3	0.0016500581
184	0x39600d47	0.00021367251
185	0x39bb84fe	0.00035766506
186	0x37f08e43	2.8676475e-05
187	0xb999dab5	-0.00029345384
188	0xbb9d2bc7	-0.0047964784
189	0xbb9f995d	-0.0048705772
190	0xb8787a6c	-5.9241822e-05
191	0x3b151d8e	0.0022753212
192	0xbb10d6c1	-0.002210066
193	0xba6478ed	-0.0008715529
194	0xb7df8aa4	-2.6648231e-05
195	0x3968d16e	0.00022203263
196	0x39d65c16	0.0004088587
197	0x3b53669c	0.0032257205
198	0x39a87c77	0.0003213619
199	0xb997385d	-0.00028842958
200	0x398c2162	0.00026727753
201	0x39de0bb3	0.00042351856
202	0xb8005e02	-3.060513e-05
203	0xba450de7	-0.0007517025
204	0xbb2b3a6d	-0.0026127354
205	0x3a07f1da	0.000518588
206	0x37f102f2	2.873081e-05
207	0xbae3cb0d	-0.001737924
208	0x3ad5bf2f	0.0016307588
209	0xba94c0b6	-0.0011348936
210	0xb9795bf4	-0.00023780746
211	0x3a4b4ca5	0.00077552564
212	0x3bd95ce8	0.0066333897
213	0xbade4d07	-0.0016960212
214	0xba06f6e2	-0.0005148483
215	0x3ae4bc72	0.0017451181
216	0x395ca3f8	0.00021041918
217	0xba89c315	-0.001051041
218	0xb8953180	-7.114094e-05
219	0x3a60d1dd	0.0008576194
220	0xbb4f7015	-0.00316525
221	0x39beb76a	0.00036376278
222	0x38d65b95	0.00010221374
223	0xba95e3fa	-0.001143574
224	0xbb493d7e	-0.0030706818
225	0xb95ecc17	-0.00021247599
226	0x38d3c147	0.00010097265
227	0xb9757848	-0.00023409829
228	0x38d3b840	0.00010095583
229	0x3990669d	0.00027542273
230	0xb812809b	-3.4928886e-05
231	0xba1ec5a3	-0.0006056672
232	0xb9aad914	-0.00032586663
233	0x3923026d	0.00015545795
234	0x38ad2ba8	8.2574144e-05
235	0x38e0a9eb	0.00010712802
236	0x3becc60a	0.0072257565
237	0x3be8aa5e	0.0071003875
238	0x385d2e51	5.273364e-05
239	0xbada56b8	-0.0016657924
240	0xba90ae95	-0.0011038358
241	0xb94080fb	-0.00018358596
242	0x37b3e9bd	2.1447306e-05
243	0xb7fc2cec	-3.006166e-05
244	0x3affd868	0.001951945
245	0xba0437d1	-0.00050437177
246	0xb91ec678	-0.0001514199
247	0x3a7499d6	0.00093307847
248	0xbc1ae009	-0.009452828
249	0x3a2930dc	0.0006454119
250	0x3a01c928	0.0004950934
251	0xbac0f61a	-0.0014721781
252	0xbb5cf8c1	-0.0033717605
253	0xb97b6e7e	-0.00023978387
254	0x38e93dae	0.000111217945
255	0xb98a0a30	-0.00026329

exp_avg_sq f4 [64, 4]
0	0x3a8b1a59	0.0010612711
1	0x39bc67e3	0.00035935556
2	0x36fcfe82	7.539814e-06
3	0x38d81557	0.000103036575
4	0x3b2cf00c	0.0026388196
5	0x3a6fe823	0.00091517175
6	0x378f7385	1.7100721e-05
7	0x3988cb89	0.00026091587
8	0x3a9d615e	0.0012007167
9	0x39a03c7b	0.0003056264
10	0x372db77f	1.0354327e-05
11	0x390f26a5	0.00013651939
12	0x3b6d1538	0.0036175977
13	0x3aa1edf6	0.0012354243
14	0x37d133b3	2.4938816e-05
15	0x39c8673a	0.00038223882
16	0x3b475de9	0.0030420965
17	0x3a89176f	0.0010459254
18	0x37af9818	2.093245e-05
19	0x39a8ba89	0.00032182437
20	0x3a8ca345	0.001072981
21	0x39f983fc	0.00047591317
22	0x36c3a26f	5.8303626e-06
23	0x38fb3152	0.00011977799
24	0x3b1cb51b	0.0023911658
25	0x3a7bd3e5	0.0009606465
26	0x3763da6c	1.358111e-05
27	0x39517557	0.00019975506
28	0x3994d043	0.00028383927
29	0x390c3887	0.00013372499
30	0x361050ed	2.1504777e-06
31	0x38580476	5.1502568e-05
32	0x3a201790	0.0006107027
33	0x394dc22d	0.0001962266
34	0x36685f10	3.4626028e-06
35	0x3847e5a0	4.7659152e-05
36	0x3a3c5f05	0.000718579
37	0x39814703	0.00024657705
38	0x36b085ac	5.26077e-06
39	0x389b0e07	7.393589e-05
40	0x38ac3c80	8.212868e-05
41	0x37e9d76c	2.7876078e-05
42	0x34e8f504	4.339164e-07
43	0x36c18aa5	5.7679886e-06
44	0x3b6a3040	0.0035734326
45	0x3a8b7f68	0.0010642828
46	0x37df2fbc	2.66059e-05
47	0x39a5d225	0.00031627822
48	0x3b2f6d99	0.0026768206
49	0x3a7558ff	0.000935927
50	0x37a3af41	1.9512723e-05
51	0x3985914e	0.00025475997
52	0x3b56cccc	0.0032775877
53	0x3a94530e	0.0011316256
54	0x37d2066d	2.5036943e-05
55	0x39b1c66f	0.00033907915
56	0x3adc8765	0.0016825019
57	0x3a1d9084	0.0006010609
58	0x3711bac3	8.686157e-06
59	0x3920452c	0.00015284558
60	0x39912960	0.00027687382
61	0x38bcbc7a	8.999645e-05
62	0x358c61e1	1.0459299e-06
63	0x37a99443	2.021541e-05
64	0x36db8ea0	6.5433123e-06
65	0x36092e0a	2.044139e-06
66	0x33868bd2	6.2652944e-08
67	0x35118c93	5.422127e-07
68	0x37aff372	2.0974989e-05
69	0x36fdc3e2	7.5627913e-06
70	0x33e15c8c	1.0494213e-07
71	0x35df5eda	1.66424e-06
72	0x3b6b8737	0.0035938749
73	0x3aa15f86	0.0012311793
74	0x37d8e117	2.5854022e-05
75	0x39ca326e	0.00038566015
76	0x3b1143cb	0.0022165652
77	0x3a7b7c9f	0.000959346
78	0x378f5552	1.7086659e-05
79	0x3988e4f1	0.00026110516
80	0x3a9e6973	0.001208587
81	0x39b9ce6c	0.00035439746
82	0x3706f2e3	8.043574e-06
83	0x38b1b8f9	8.4744715e-05
84	0x3ac43cf2	0.0014971776
85	0x3a20af54	0.00061296416
86	0x3743158d	1.1627923e-05
87	0x39345702	0.0001719855
88	0x3b41f0e1	0.0029593038
89	0x3a878014	0.0010337853
90	0x37b9b5a7	2.2138307e-05
91	0x39990f3d	0.00029193787
92	0x3703c071	7.853015e-06
93	0x360d5070	2.1057458e-06
94	0x3323fc31	3.818076e-08
95	0x354efe80	7.7111326e-07
96	0x3839c994	4.429517e-05
97	0x37139ddb	8.798636e-06
98	0x3425fdd4	1.5459165e-07
99	0x360f27b2	2.1331766e-06
100	0x3b2efe7d	0.002670198
101	0x3a457da7	0.0007533677
102	0x37aab21c	2.0348518e-05
103	0x3986e0ea	0.00025726046
104	0x398da6f3	0.00027018003
105	0x38d10f30	9.9687255e-05
106	0x3574a2cf	9.1134e-07
107	0x37b9e756	2.2161443e-05
108	0x396ee831	0.00022783947
109	0x38993fa0	7.3074596e-05
110	0x35a1c1f4	1.2051883e-06
111	0x37a3569c	1.9471445e-05
112	0x3b1f8ec7	0.0024346577
113	0x3a61f238	0.0008619162
114	0x378668d1	1.6022854e-05
115	0x3959ece7	0.00020782986
116	0x398792fc	0.00025858718
117	0x381e2486	3.770415e-05
118	0x364b0a99	3.0255526e-06
119	0x380366a6	3.1328433e-05
120	0x3b54ad29	0.0032451844
121	0x3a985a86	0.0011623658
122	0x37c9a90d	2.4039788e-05
123	0x39a9474a	0.00032287306
124	0x3b15b308	0.0022842307
125	0x3a4ec0ed	0.00078870245
126	0x37923f42	1.7434013e-05
127	0x3976cac2	0.00023535921
128	0x3b47932e	0.0030452716
129	0x3a88c7ee	0.001043556
130	0x37b61610	2.1706364e-05
131	0x39aae8b2	0.00032598298
132	0x3a1afcdd	0.00059123134
133	0x394bacee	0.0001942401
134	0x3657d89b	3.2163578e-06
135	0x385cf31a	5.2678493e-05
136	0x3ad29da5	0.001606871
137	0x3a14412e	0.00056554645
138	0x3735b7da	1.0831247e-05
139	0x3932ce48	0.00017052249
140	0x3b79875c	0.0038075065
141	0x3ac2d75f	0.0014865211
142	0x37c878d9	2.3898132e-05
143	0x39b94b68	0.00035342132
144	0x370ddb23	8.455277e-06
145	0x35c4ba2e	1.4657323e-06
146	0x334df011	4.794862e-08
147	0x353e89f9	7.098129e-07
148	0x39632a4b	0.00021664162
149	0x38d73543	0.0001026192
150	0x3554b3c2	7.9237736e-07
151	0x37ac6cf9	2.0554742e-05
152	0x3b7184a7	0.0036852749
153	0x3aa57e4d	0.0012626142
154	0x37e87b23	2.7713895e-05
155	0x39c13258	0.00036849338
156	0x38e15f81	0.00010746625
157	0x382c2e43	4.105108e-05
158	0x3626bb06	2.484479e-06
159	0x37cb47f5	2.4232993e-05
160	0x39025280	0.000124285
161	0x38761d96	5.8678525e-05
162	0x363af534	2.7858887e-06
163	0x37fa672c	2.9850366e-05
164	0x3ab26feb	0.0013613676
165	0x3a01a68e	0.0004945778
166	0x3725074a	9.8364635e-06
167	0x3911a19f	0.00013888486
168	0x3ab6f499	0.0013958394
169	0x3a151ee4	0.0005688502
170	0x373596b8	1.0823533e-05
171	0x39273165	0.00015944762
172	0x3b0ff465	0.002196574
173	0x3a454e8e	0.0007526659
174	0x3784139b	1.5744756e-05
175	0x3976ee0f	0.00023549072
176	0x3b8fd5d4	0.004389504
177	0x3ac6f547	0.00151793
178	0x38056794	3.1806136e-05
179	0x39f302b6	0.00046350592
180	0x3acada81	0.0015476496
181	0x39f395f3	0.00046460293
182	0x37312661	1.0558958e-05
183	0x38fcc8e6	0.00012053717
184	0x3791a96c	1.736424e-05
185	0x36933059	4.38657e-06
186	0x33bc22b2	8.760743e-08
187	0x3633bed0	2.6784146e-06
188	0x3ada09eb	0.0016635036
189	0x39ea4af1	0.00044687794
190	0x374363cd	1.1646142e-05
191	0x3906a915	0.00012842224
192	0x3b465c4f	0.0030267423
193	0x3a8874dc	0.0010410803
194	0x37c1d2b9	2.3105518e-05
195	0x39a85db2	0.00032113265
196	0x3ae294a9	0.0017286736
197	0x3a1de993	0.000602388
198	0x374da551	1.2257443e-05
199	0x3942ae37	0.00018566182
200	0x3670461e	3.58036e-06
201	0x3606bc89	2.0077298e-06
202	0x33513cbe	4.871685e-08
203	0x3692bb14	4.372918e-06
204	0x3a839615	0.0010039235
205	0x39b58457	0.0003462161
206	0x36e74429	6.8922714e-06
207	0x38c965fe	9.6034244e-05
208	0x3af6cf55	0.00188301
209	0x3a316607	0.00067672174
210	0x37677aa2	1.3797226e-05
211	0x3942cfe5	0.00018578728
212	0x3b09ebad	0.0021045015
213	0x3a4cf686	0.0007818717
214	0x37563d84	1.2769717e-05
215	0x393e0099	0.00018120035
216	0x39b12388	0.00033786544
217	0x390242c1	0.00012422634
218	0x35febbed	1.8979168e-06
219	0x38044e28	3.154404e-05
220	0x3aa546a2	0.0012609551
221	0x39e3b956	0.000434349
222	0x371c02fb	9.2990185e-06
223	0x390443dc	0.0001261378
224	0x3a859481	0.0010191352
225	0x39ba012d	0.0003547756
226	0x36fbe294	7.50676e-06
227	0x38e7cd20	0.00011053146
228	0x3706caa3	8.034202e-06
229	0x360f0072	2.130892e-06
230	0x3387e63b	6.328306e-08
231	0x36262ec9	2.476316e-06
232	0x382598d1	3.9481387e-05
233	0x3766d8b9	1.3759528e-05
234	0x34745851	2.27564e-07
235	0x365e353b	3.3111562e-06
236	0x3a0b4d5c	0.00053139566
237	0x39be2667	0.00036268236
238	0x369998bd	4.5775364e-06
239	0x38d886c5	0.000103247854
240	0x39886e18	0.00026021968
241	0x38ba0997	8.8709574e-05
242	0x3604dbec	1.9797544e-06
243	0x37e31e7f	2.707471e-05
244	0x394bbd3f	0.00019430088
245	0x3886df75	6.43124e-05
246	0x3577d18b	9.2319596e-07
247	0x378b9806	1.6640883e-05
248	0x3b5d22a1	0.0033742564
249	0x3a995977	0.0011699636
250	0x37b3a6fd	2.1416223e-05
251	0x39b3e350	0.00034310902
252	0x3ab402c3	0.0013733733
253	0x39f5b347	0.00046863614
254	0x3729ca38	1.0120268e-05
255	0x3918ad48	0.00014560402

exp_avg f4 [64]
0	0xb9d63269	-0.0004085482
1	0x3a5b3391	0.0008361871
2	0x3af7f1fb	0.001891672
3	0x3a7896b6	0.0009482907
4	0x3a62c335	0.0008650304
5	0xbab0067c	-0.0013429667
6	0xbb2456a4	-0.0025076056
7	0xba8aeb43	-0.0010598678
8	0xb90efab7	-0.00013635574
9	0xb8b4f27f	-8.628237e-05
10	0xba2a0a04	-0.0006486478
11	0xbb04dedb	-0.0020274434
12	0x39649cdd	0.0002180221
13	0x3a01d536	0.00049527304
14	0x3ae562f9	0.001750081
15	0x3a72d19a	0.00092628004
16	0x39bb7a22	0.00035758415
17	0x3954b531	0.00020285395
18	0x3a66931b	0.0008795724
19	0x3994d947	0.00028390644
20	0x399e9705	0.00030248627
21	0x3a519242	0.00079945114
22	0x39e84b78	0.00044306717
23	0x37813821	1.5404135e-05
24	0xb7db0d82	-2.6113124e-05
25	0xbad6cd17	-0.0016388026
26	0x3aa3ea8a	0.0012505811
27	0x39ec3ebb	0.00045060166
28	0xba21254d	-0.0006147221
29	0x3af61d70	0.0018777084
30	0x399cbcb6	0.0002989524
31	0x39d2ded4	0.0004022034
32	0x3a58aaa9	0.00082651764
33	0x3aa01d85	0.0012215829
34	0x3a44db77	0.00075095095
35	0xb884dafa	-6.335038e-05
36	0xb3a4c284	-7.672227e-08
37	0x3a1dbf62	0.0006017593
38	0xb8960699	-7.153786e-05
39	0x3a5bc580	0.0008383617
40	0xb90e5ebe	-0.0001357747
41	0x3927a352	0.00015987203
42	0x3aa10065	0.0012283443
43	0x3a36b3d8	0.0006969548
44	0x3a4a9f41	0.0007729419
45	0xb934ec3d	-0.00017254143
46	0xba063da7	-0.0005120881
47	0xba284ffc	-0.000642061
48	0x3a19dc0c	0.00058692764
49	0x3b51ce7a	0.0032013939
50	0xba0f1879	-0.0005458664
51	0xba2977d5	-0.0006464695
52	0x398e33f7	0.00027123067
53	0xb9836f10	-0.00025069015
54	0x39bcb7dc	0.0003599514
55	0x3886fd67	6.436818e-05
56	0x39f60781	0.00046926367
57	0xb9dd63e9	-0.00042226844
58	0xb76fdbe7	-1.429671e-05
59	0x3b54deef	0.0032481512
60	0x3955e36a	0.00020397981
61	0x3a6f5c9d	0.0009130927
62	0x3a7bf7de	0.0009611825
63	0x3a05d276	0.00051049085

exp_avg_sq f4 [64]
0	0x3971aa3b	0.00023046967
1	0x3a127b29	0.00055878103
2	0x39a64239	0.00031711327
3	0x3a565793	0.0008176502
4	0x3a33e207	0.0006861989
5	0x38ee5551	0.00011364616
6	0x3a2008f8	0.0006104852
7	0x37f82006	2.9578816e-05
8	0x3887c342	6.473671e-05
9	0x392f923d	0.00016743779
10	0x3719f046	9.175454e-06
11	0x3a60b497	0.0008571832
12	0x3a125374	0.00055818935
13	0x3a488264	0.0007648824
14	0x3937ae1a	0.00017517098
15	0x37e86802	2.7704988e-05
16	0x35d1a318	1.561918e-06
17	0x36256d42	2.4650512e-06
18	0x3a5df385	0.0008466768
19	0x3a1a2d97	0.0005881427
20	0x398c376b	0.0002674417
21	0x39cad518	0.0003868721
22	0x3a317079	0.0006768774
23	0x35971c86	1.1258678e-06
24	0x36a7366e	4.9833243e-06
25	0x3a28a424	0.000643315
26	0x37f2edeb	2.8959437e-05
27	0x37c85e60	2.3885805e-05
28	0x39f4b60b	0.0004667494
29	0x391a508d	0.00014716592
30	0x3a393de0	0.000706641
31	0x3a0afd93	0.0005302068
32	0x3a3a6b94	0.00071113673
33	0x38856836	6.361345e-05
34	0x39bad854	0.00035637862
35	0x3a75af7b	0.0009372157
36	0x3597c226	1.1306881e-06
37	0x37d8c835	2.5842435e-05
38	0x3a5d89a3	0.00084509904
39	0x3905aca0	0.00012748176
40	0x391acc86	0.00014762775
41	0x399f2d5a	0.00030360633
42	0x39b9abe9	0.00035414033
43	0x3a071f3e	0.0005154497
44	0x3a80d535	0.0009829166
45	0x39abc553	0.0003276268
46	0x36b53eca	5.40153e-06
47	0x39c0ed73	0.00036798007
48	0x3a3ec85d	0.0007277781
49	0x39cbebdf	0.00038894915
50	0x366abee7	3.4979837e-06
51	0x3955adc3	0.00020377994
52	0x39d22273	0.00040079988
53	0x39a8b73b	0.00032179974
54	0x381b65ff	3.704987e-05
55	0x399bcbaa	0.00029715645
56	0x39818b9a	0.0002470881
57	0x361e0f77	2.3552836e-06
58	0x369a5681	4.599628e-06
59	0x394f8a4e	0.00019792581
60	0x388251df	6.214133e-05
61	0x37b93c62	2.2081837e-05
62	0x3a343094	0.0006873694
63	0x39ac2e75	0.0003284101

exp_avg f4 [2, 64]
0	0x3b1fc552	0.0024379087
1	0x3aab708d	0.0013079807
2	0x3aaf2ff4	0.0013365732
3	0x3a82a047	0.0009965979
4	0xb9a1c958	-0.00030858326
5	0x39bab7c0	0.0003561359
6	0x3b1b87bc	0.0023732027
7	0x378306dc	1.5619611e-05
8	0xbaa717b2	-0.0012748151
9	0xbaf10697	-0.0018388805
10	0xbb654af1	-0.0034987296
11	0xb9a8781c	-0.00032132945
12	0x39f34d7f	0.0004640631
13	0x3ac8b09f	0.0015311426
14	0x39d306a3	0.0004025
15	0x37ea6da3	2.7946027e-05
16	0x398ed30a	0.00027241587
17	0xbb153003	-0.0022764213
18	0x39eb8c9a	0.0004492745
19	0x3b5a2a58	0.00332894
20	0x3a08a368	0.0005212338
21	0x3b80d2cc	0.003931379
22	0xba477f5a	-0.00076102244
23	0x354d8392	7.655991e-07
24	0xb95c875d	-0.00021031262
25	0xba515fb6	-0.00079869793
26	0x39921989	0.00027866315
27	0xb9eb9dc2	-0.00044940232
28	0x3a84280f	0.0010082739
29	0x3b0b3fa8	0.002124766
30	0xba86805b	-0.0010261642
31	0xb953ae02	-0.00020187351
32	0x39ecf1c8	0.0004519357
33	0xba709be2	-0.0009178502
34	0xbb6033e9	-0.0034210628
35	0x3b166ec1	0.0022954198
36	0x38528d23	5.0199345e-05
37	0x3a8dea58	0.0010827286
38	0x3a383fae	0.0007028532
39	0x3b381ea7	0.0028094442
40	0x3b2c6e4f	0.0026310866
41	0x3b8cfddc	0.0043027233
42	0x3b818463	0.0039525493
43	0xb9fcca04	-0.000482157
44	0xbbc4e2ca	-0.0060084807
45	0xbb26d692	-0.0025457484
46	0x3978c44a	0.00023724246
47	0xba8a2eaf	-0.0010542477
48	0xba14a6f5	-0.00056706305
49	0x3abff38b	0.0014644725
50	0x3719329b	9.131293e-06
51	0x39453678	0.00018807675
52	0xbb00cf2d	-0.0019654736
53	0x38986faa	7.268724e-05
54	0x38e1d8c5	0.000107692125
55	0x3afc9349	0.0019269969
56	0xbae0617d	-0.0017118898
57	0xb8972f89	-7.209095e-05
58	0xba728746	-0.00092517247
59	0x3b8f7fc6	0.0043792455
60	0x3a7bc613	0.00096044055
61	0xbb25c6ba	-0.0025295452
62	0xba90be69	-0.0011043075
63	0x3a314067	0.0006761611
64	0xbb1fc54a	-0.0024379068
65	0xbaab708e	-0.0013079809
66	0xbaaf2ff7	-0.0013365735
67	0xba82a045	-0.0009965977
68	0x39a1c98a	0.0003085847
69	0xb9bab7bc	-0.00035613577
70	0xbb1b87b9	-0.002373202
71	0xb78306e5	-1.5619627e-05
72	0x3aa717b5	0.0012748154
73	0x3af106a0	0.0018388815
74	0x3b654aef	0.003498729
75	0x39a87830	0.00032133004
76	0xb9f34d7b	-0.000464063
77	0xbac8b09b	-0.0015311422
78	0xb9d3069b	-0.00040249978
79	0xb7ea6d58	-2.794589e-05
80	0xb98ed30a	-0.00027241587
81	0x3b153009	0.0022764227
82	0xb9eb8c86	-0.0004492739
83	0xbb5a2a56	-0.0033289394
84	0xba08a365	-0.0005212336
85	0xbb80d2cb	-0.0039313785
86	0x3a477f6f	0.00076102366
87	0xb54d838e	-7.655989e-07
88	0x395c875a	0.00021031257
89	0x3a515faf	0.0007986975
90	0xb9921981	-0.00027866292
91	0x39eb9dc9	0.00044940252
92	0xba84280b	-0.0010082735
93	0xbb0b3fa9	-0.0021247661
94	0x3a868061	0.0010261649
95	0x3953ae36	0.00020187427
96	0xb9ecf1b7	-0.0004519352
97	0x3a709be4	0.0009178503
98	0x3b6033e5	0.003421062
99	0xbb166ec1	-0.0022954198
100	0xb8528d28	-5.0199364e-05
101	0xba8dea55	-0.0010827283
102	0xba383fa7	-0.0007028528
103	0xbb381ea7	-0.0028094442
104	0xbb2c6e4f	-0.0026310866
105	0xbb8cfdd9	-0.004302722
106	0xbb81845f	-0.0039525474
107	0x39fcca17	0.00048215754
108	0x3bc4e2d2	0.0060084844
109	0x3b26d693	0.0025457486
110	0xb978c44c	-0.0002372425
111	0x3a8a2eb3	0.0010542482
112	0x3a14a702	0.0005670638
113	0xbabff385	-0.0014644718
114	0xb71932a4	-9.131301e-06
115	0xb9453618	-0.00018807536
116	0x3b00cf32	0.0019654748
117	0xb8986f98	-7.268711e-05
118	0xb8e1d8d3	-0.00010769223
119	0xbafc934a	-0.001926997
120	0x3ae06181	0.0017118902
121	0x38972f87	7.209094e-05
122	0x3a728749	0.00092517264
123	0xbb8f7fc5	-0.004379245
124	0xba7bc5fe	-0.0009604393
125	0x3b25c6c3	0.0025295473
126	0x3a90be74	0.0011043088
127	0xba314056	-0.0006761601

exp_avg_sq f4 [2, 64]
0	0x3a22d8db	0.00062121236
1	0x390b1f0c	0.00013267639
2	0x390cf8f3	0.00013444181
3	0x39002353	0.0001222019
4	0x39b9c682	0.0003543385
5	0x36e0e3f6	6.7022584e-06
6	0x3894012e	7.05741e-05
7	0x34ffcca6	4.7646353e-07
8	0x380853b3	3.2502878e-05
9	0x3a8febf0	0.0010980349
10	0x39012ceb	0.00012319132
11	0x38f13f90	0.00011503615
12	0x38e519ee	0.00010924401
13	0x3899d0dd	7.334512e-05
14	0x3767f963	1.3826738e-05
15	0x36f24aa3	7.220851e-06
16	0x3712a818	8.7414155e-06
17	0x3a0f6f3d	0.0005471593
18	0x39425c99	0.00018535777
19	0x38c6b3df	9.474879e-05
20	0x38fb7f4d	0.00011992324
21	0x39065ee7	0.0001281459
22	0x3975ef21	0.00023454103
23	0x3424150a	1.5281344e-07
24	0x36cab328	6.0409257e-06
25	0x391aace9	0.00014750999
26	0x36bfbf19	5.7144903e-06
27	0x37f798c7	2.9515837e-05
28	0x3863837b	5.424347e-05
29	0x38da815e	0.000104191466
30	0x3997b16d	0.00028933157
31	0x392b8d2d	0.00016360423
32	0x396192c4	0.00021512347
33	0x38140f78	3.5300356e-05
34	0x3a5edfd7	0.00085019827
35	0x388e99a8	6.799708e-05
36	0x36f2e739	7.23908e-06
37	0x379ca5ac	1.8673796e-05
38	0x38aec5ff	8.333846e-05
39	0x38e26fbe	0.000107973334
40	0x3899c5dd	7.3324634e-05
41	0x39bfb513	0.0003656527
42	0x391dabdf	0.00015036714
43	0x399be059	0.00029731056
44	0x3ace21e2	0.0015726651
45	0x39967d03	0.0002870337
46	0x36999924	4.5775832e-06
47	0x39351310	0.00017268606
48	0x398254b5	0.00024858644
49	0x38fb7ea7	0.000119922035
50	0x340a8ed0	1.2904206e-07
51	0x3ac56481	0.001505986
52	0x3a14c0b6	0.0005674468
53	0x37fbac99	3.0001904e-05
54	0x37dcf871	2.6341733e-05
55	0x39a8b73c	0.00032179977
56	0x3a36641a	0.00069576653
57	0x364690dd	2.958862e-06
58	0x39d799c4	0.0004112256
59	0x390eb01f	0.00013607786
60	0x398789cd	0.00025851876
61	0x39ca5deb	0.00038598417
62	0x3928c54a	0.00016095224
63	0x39f53c1f	0.00046774835
64	0x3a22d8dc	0.0006212124
65	0x390b1f0b	0.00013267637
66	0x390cf8f3	0.00013444181
67	0x39002353	0.0001222019
68	0x39b9c682	0.0003543385
69	0x36e0e3f4	6.7022575e-06
70	0x3894012c	7.057408e-05
71	0x34ffcca6	4.7646353e-07
72	0x380853b3	3.2502878e-05
73	0x3a8febf0	0.0010980349
74	0x39012cea	0.0001231913
75	0x38f13f90	0.00011503615
76	0x38e519f0	0.00010924402
77	0x3899d0dd	7.334512e-05
78	0x3767f963	1.3826738e-05
79	0x36f24aa2	7.2208504e-06
80	0x3712a818	8.7414155e-06
81	0x3a0f6f3c	0.00054715923
82	0x39425c9a	0.00018535779
83	0x38c6b3e0	9.47488e-05
84	0x38fb7f4c	0.000119923236
85	0x39065ee5	0.00012814587
86	0x3975ef21	0.00023454103
87	0x3424150a	1.5281344e-07
88	0x36cab329	6.040926e-06
89	0x391aace9	0.00014750999
90	0x36bfbf19	5.7144903e-06
91	0x37f798ca	2.9515842e-05
92	0x3863837a	5.4243465e-05
93	0x38da815f	0.00010419147
94	0x3997b16d	0.00028933157
95	0x392b8d2d	0.00016360423
96	0x396192c3	0.00021512345
97	0x38140f78	3.5300356e-05
98	0x3a5edfd8	0.0008501983
99	0x388e99a7	6.7997076e-05
100	0x36f2e739	7.23908e-06
101	0x379ca5ae	1.86738e-05
102	0x38aec5fe	8.3338455e-05
103	0x38e26fc2	0.00010797336
104	0x3899c5db	7.332462e-05
105	0x39bfb515	0.00036565276
106	0x391dabdd	0.00015036711
107	0x399be059	0.00029731056
108	0x3ace21e3	0.0015726652
109	0x39967d05	0.00028703376
110	0x36999925	4.5775837e-06
111	0x3935130f	0.00017268605
112	0x398254b3	0.00024858638
113	0x38fb7ea8	0.00011992204
114	0x340a8ed0	1.2904206e-07
115	0x3ac5647f	0.0015059857
116	0x3a14c0b3	0.00056744664
117	0x37fbac99	3.0001904e-05
118	0x37dcf871	2.6341733e-05
119	0x39a8b73c	0.00032179977
120	0x3a366419	0.0006957665
121	0x364690dd	2.958862e-06
122	0x39d799c4	0.0004112256
123	0x390eb01f	0.00013607786
124	0x398789cd	0.00025851876
125	0x39ca5ded	0.00038598423
126	0x3928c54d	0.00016095229
127	0x39f53c1f	0.00046774835

exp_avg f4 [2]
0	0x3a3e739f	0.00072651537
1	0xba3e738d	-0.0007265143

exp_avg_sq f4 [2]
0	0x3a110bfc	0.0005533097
1	0x3a110bfc	0.0005533097

exp_avg f4 [1, 64]
0	0x3a122387	0.0005574752
1	0x3aa8b59e	0.0012871509
2	0x3afc3620	0.0019242205
3	0x3a8a2d5c	0.0010542083
4	0x39aa9fba	0.00032543932
5	0x3a7d1b2a	0.0009655232
6	0x3abfadba	0.0014623918
7	0x38c025c1	9.162306e-05
8	0xb9dbf38a	-0.00041952386
9	0xba8748b5	-0.0010321351
10	0xba6f546c	-0.00091297063
11	0x3a6e56cf	0.0009091915
12	0x3a2ad33a	0.00065164606
13	0x3a97ba1d	0.0011575852
14	0x3a5c35ae	0.0008400333
15	0xb8331fed	-4.270666e-05
16	0xa805a71f	-7.419222e-15
17	0xbac0b6fd	-0.0014702972
18	0x3a3c21e0	0.00071766786
19	0x3ac46abf	0.0014985426
20	0x3abe2af8	0.0014508655
21	0x3ad5a9d3	0.0016301222
22	0x3984c8f1	0.00025326715
23	0xa454c3e1	-4.6136088e-17
24	0xb987e9fc	-0.00025923538
25	0x3a9123bf	0.0011073275
26	0x3940e23c	0.00018394826
27	0xb9b70fee	-0.00034916349
28	0x3a5db648	0.0008457643
29	0x3b88e2f0	0.0041774437
30	0xb71c70aa	-9.324556e-06
31	0x3a16e776	0.0005756536
32	0x3a3e37c2	0.00072562334
33	0x3a8a0c3b	0.0010532209
34	0xba8424d5	-0.0010081778
35	0x3aa70ec1	0.0012745486
36	0xa6a96612	-1.1754397e-15
37	0x3a6fb291	0.0009143735
38	0x3a6b6335	0.00089793216
39	0x3b84f945	0.0040580356
40	0x3b4b3599	0.0031007288
41	0x3ab09243	0.0013471324
42	0x3ae372f0	0.001735298
43	0x39ad65a8	0.0003307287
44	0xbb11f7fc	-0.0022273054
45	0x399b53eb	0.00029626428
46	0x3ab8f1f7	0.0014110197
47	0x3a89d5c1	0.0010515974
48	0x39867390	0.00025644572
49	0x3ab94c14	0.0014137053
50	0x39f121b7	0.00045992222
51	0x39e9f11e	0.0004462087
52	0xba000e9e	-0.00048849906
53	0x39152372	0.00014222952
54	0x3aa3c043	0.0012493212
55	0x3a86addf	0.0010275206
56	0xba0bf92c	-0.00053395587
57	0x39cd6d28	0.00039181975
58	0x39f9221f	0.00047518403
59	0x3ab95608	0.0014140019
60	0x395b33c1	0.00020904747
61	0xba8ea72b	-0.001088356
62	0x391b3167	0.00014800356
63	0x391768a0	0.00014439458

exp_avg_sq f4 [1, 64]
0	0x3aeb1ab3	0.0017937034
1	0x3a298504	0.0006466659
2	0x3a075c22	0.000516357
3	0x3a1bb69d	0.0005939992
4	0x3aad5190	0.001322316
5	0x37c41601	2.3375267e-05
6	0x39cac6e7	0.00038676636
7	0x363e6a6f	2.8374159e-06
8	0x38a20de9	7.727353e-05
9	0x3b494fdb	0.0030717764
10	0x399af99a	0.00029559137
11	0x3a06a8a1	0.0005136822
12	0x3a02d804	0.0004991295
13	0x39d20ea4	0.0004006523
14	0x38158274	3.5645862e-05
15	0x3793eecf	1.763497e-05
16	0x3784084d	1.5739492e-05
17	0x3aacae17	0.0013174441
18	0x3a50d71d	0.00079666247
19	0x39f6cc74	0.00047073106
20	0x3a1c58b5	0.0005964146
21	0x3a140723	0.00056468154
22	0x3a6c8d4a	0.0009023739
23	0x341b7406	1.4477709e-07
24	0x378dcf25	1.6904969e-05
25	0x3a17a110	0.0005784193
26	0x375f77a1	1.3319689e-05
27	0x388dbbbe	6.758374e-05
28	0x39920a1a	0.00027854816
29	0x39e145f0	0.00042967452
30	0x3a80188e	0.0009772943
31	0x3a331e6c	0.00068328413
32	0x3a7075a3	0.00091728027
33	0x38d74b79	0.00010266057
34	0x3b24b19e	0.0025130282
35	0x39c44d2b	0.00037441528
36	0x374b0f22	1.2103266e-05
37	0x3830a4e9	4.2115254e-05
38	0x39d9a4fa	0.00041512382
39	0x3a020f33	0.00049613713
40	0x39acbad1	0.00032945586
41	0x3a983e0b	0.001161517
42	0x3a387c28	0.00070375437
43	0x3a92cd9a	0.001120019
44	0x3b8a30b5	0.004217232
45	0x3a766306	0.0009398911
46	0x37b48110	2.1517772e-05
47	0x3a2734a0	0.0006378386
48	0x3a6f3482	0.0009124951
49	0x3a0f8b69	0.0005475791
50	0x359404d1	1.1028261e-06
51	0x3b872d13	0.0041252463
52	0x3ae4087f	0.0017397552
53	0x38e00f81	0.0001068404
54	0x38ae0437	8.2977516e-05
55	0x3a9e66f9	0.0012085132
56	0x3b0a93bb	0.0021145183
57	0x3680d860	3.8398866e-06
58	0x3a819b77	0.0009888251
59	0x3a11441d	0.00055414607
60	0x3a552bde	0.0008131842
61	0x3a6d94aa	0.0009062985
62	0x3a215672	0.0006154544
63	0x3ac36a52	0.0014909005
