savedModels/ppo_cartpole_143360.pth (torch, 13659 bytes, 15 tensors)

shared_fc.0.weight f4 [64, 4]
-0.0084068375 0.46175212 0.0011666121 -0.42688844 -0.06495675 -0.1734915 -0.7664343 -0.28522095
0.00640762 -0.3673977 -0.49451217 -0.5191378 -0.04500961 -0.11860032 -0.5413034 -0.23526233
0.09947034 0.044844307 -0.8175667 -0.26748028 -0.09732167 -0.0067051025 -0.51523715 -0.042110913
-0.120442204 0.24113145 0.5936032 0.3664686 -0.15971696 -0.09971716 -0.25376508 -0.10921442
0.2843965 -0.013372669 0.010366288 0.007999975 0.19302446 0.067133926 -0.02514663 -0.3575653
0.4139596 -0.24430148 -0.14338551 -0.17995724 0.003268581 -0.23865744 -0.014857315 0.21431042
0.006085872 0.04746164 0.35352403 0.32844284 -0.08462472 -0.0027826268 0.10370467 0.088299185
-0.15668175 -0.050029315 -0.21792024 -0.016184079 0.16145638 0.10783279 0.14850962 0.13249579
-0.044268437 -0.34929898 -0.34249038 -0.10725869 0.2627768 0.24826936 0.0717953 0.31190193
0.011055139 -0.07493485 -0.4471143 -0.31101924 -0.20698884 0.3084838 0.19012848 0.059202947
-0.0044657364 -0.1693732 0.35595086 0.4427364 -0.18922698 0.20976955 0.09780384 -0.25533304
0.0011560449 0.08391173 0.35963854 0.51706386 0.19625379 -0.041113097 -0.07174578 -0.020185044
0.21144763 0.07802769 -0.15847391 0.21246807 0.04917829 -0.40058583 -0.10795785 0.09510326
0.03317427 0.13140787 0.25779313 0.1325701 0.2294684 0.065427415 0.25747967 0.09093536
-0.052372534 0.15649019 0.44395688 0.25983247 -0.06752754 -0.32222772 0.62453175 0.43595088
0.15024295 -0.022730717 0.59695053 0.23651676 0.06421903 -0.1771479 0.3190586 0.17625073
0.056463387 0.008633915 -0.5296034 -0.31266105 -0.01097565 -0.28447974 -0.17077911 -0.2914081
0.27671868 -0.14196256 -0.48253515 -0.15649915 -0.12616287 0.15653259 0.53539926 0.2842308
-0.33725226 -0.09235167 0.0049421587 -0.09735012 -0.017835509 0.2789207 0.17230397 0.2042972
-0.01280573 -0.09129481 0.3498154 0.14353123 -0.21160427 0.09566761 0.20690422 0.4675414
-0.15113176 -0.0069520734 0.5371686 0.19059974 -0.12427572 0.5842458 -0.057416387 -0.38678485
-0.24851811 0.2593626 -0.31415537 -0.2379965 0.12593868 -0.0057015824 -0.17302598 -0.24968138
0.33970857 -0.13605353 -0.03302976 0.32899904 0.208016 -0.4649774 0.40913987 0.33156645
-0.009523908 -0.08819509 0.8438521 0.28706545 0.10561977 -0.44020036 0.29667637 0.20870245
0.18674801 -0.090462685 -0.05528369 -0.11281749 -0.06657377 -0.22261211 -0.50216115 -0.4141898
-0.12339944 -0.029364225 0.18634635 0.075786434 0.15537056 0.37475428 -0.17057349 -0.7185813
0.20766123 0.061588623 0.40560564 0.35423964 0.15745784 0.04788706 0.2605156 0.045295164
0.015731469 -0.0422791 -0.53395784 -0.18437234 -0.030119618 0.059256293 -0.30642414 -0.6098962
0.18788642 0.011218609 -0.21189515 -0.24377568 -0.2300176 0.010058054 -0.104120634 0.21111722
0.2066412 0.23875393 -0.37530372 -0.21066698 -0.3222752 0.32396922 -0.14696984 -0.45247072
-0.010847652 0.21039799 -0.12754102 -0.21826686 0.39747715 0.052914884 0.40808946 0.049771078
0.04246637 -0.11050096 -0.68814194 -0.07835078 0.067548 0.15003073 -0.26026428 -0.2908775
00000000: d5bc 09bc c66a ec3e 02e9 983a 1f91 dabe
00000010: 0b08 85bd c1a7 31be 0a35 44bf 7b08 92be
00000020: 03f7 d13b 8d1b bcbe b330 fdbe 37e6 04bf
00000030: ff5b 38bd b9e4 f2bd dc92 0abf 9ce8 70be
00000040: 1bb7 cb3d aaae 373d 0d4c 51bf 2df3 88be
00000050: 9550 c7bd 7ab6 dbbb 95e6 03bf 7e7c 2cbd
00000060: 67aa f6bd 2aeb 763e 61f6 173f c6a1 bb3e
00000070: d88c 23be 8338 ccbd 7fed 81be cfab dfbd
00000080: 6b9c 913e 0a19 5bbc 5dd7 293c 5412 033c
00000090: 34a8 453e 837d 893d 4e00 cebc cd12 b7be
000000a0: 83f2 d33e 2b2a 7abe a7d3 12be b646 38be
000000b0: b035 563b 9e62 74be 196c 73bc 3174 5b3e
000000c0: ff6b c73b 2367 423d 1a01 b53e a929 a83e
000000d0: ba4f adbd bb5c 36bb 1d63 d43d 34d6 b43d
000000e0: 2e71 20be 8aeb 4cbd 7c26 5fbe 7994 84bc
000000f0: d254 253e 70d7 dc3d e812 183e faac 073e
00000100: d252 35bd 51d7 b2be e65a afbe 72aa dbbd
00000110: ae8a 863e 533a 7e3e 6a09 933d 9cb1 9f3e
00000120: 9d20 353c 7177 99bd 2aec e4be ea3d 9fbe
00000130: e2f4 53be 97f1 9d3e 0ab1 423e ca7e 723d
00000140: 5055 92bb 2b70 2dbe 313f b63e 58ae e23e
00000150: b8c4 41be d4cd 563e 614d c83d 03bb 82be
00000160: 6e86 973a ead9 ab3d 8b22 b83e 4c5e 043f
00000170: c1f6 483e 3566 28bd 74ef 92bd 1b5b a5bc
00000180: ba85 583e fbcc 9f3d fc46 22be 3b91 593e
00000190: 2d6f 493d 9619 cdbe 0119 ddbd 7fc5 c23d
000001a0: bee1 073d c98f 063e 76fd 833e 75c0 073e
000001b0: c4f9 6a3e cffe 853d 60d4 833e 513c ba3d
000001c0: 9584 56bd f73e 203e 514e e33e c308 853e
000001d0: e14b 8abd 08fb a4be 50e1 1f3f f434 df3e
000001e0: 4ad9 193e c535 babc c0d1 183f 7331 723e
000001f0: 4485 833d 4266 35be a65b a33e 127b 343e
00000200: 2746 673d 4475 0d3c 1794 07bf 1c15 a0be
00000210: 36d3 33bc 54a7 91be b8e0 2ebe 7133 95be
00000220: 12ae 8d3e a25e 11be d90e f7be 5041 20be
00000230: d730 01be 144a 203e ed0f 093f b386 913e
00000240: 54ac acbe df22 bdbd d5f1 a13b 805f c7bd
00000250: c61b 92bc b2ce 8e3e 7470 303e 4933 513e
00000260: 20cf 51bc c6f8 babd 011b b33e daf9 123e
00000270: caae 58be 61ed c33d b3de 533e 9661 ef3e
00000280: 49c2 1abe 38ce e3bb e283 093f 942c 433e
00000290: 4584 febd 2291 153f 722d 6bbd aa08 c6be
000002a0: 887b 7ebe 2dcb 843e f9d8 a0be 5bb5 73be
000002b0: 12f6 003e 57d4 babb b92d 31be 7aac 7fbe
000002c0: 48ee ad3e 9e51 0bbe 374a 07bd 9072 a83e
000002d0: 2502 553e 8511 eebe c87a d13e 14c3 a93e
000002e0: 2a0a 1cbc a19f b4bd b106 583f 3efa 923e
000002f0: 2e4f d83d f161 e1be f7e5 973e 18b6 553e
00000300: df3a 3f3e 8044 b9bd 2771 62bd db0c e7bd
00000310: d457 88bd 6ef4 63be a28d 00bf af10 d4be
00000320: d8b8 fcbd 3e8d f0bc 94d1 3e3e eb35 9b3d
00000330: 7619 1f3e cbdf bf3e d1aa 2ebe f2f4 37bf
00000340: 25a5 543e 5a44 7c3d 8bab cf3e e65e b53e
00000350: a13c 213e 3925 443d 4d62 853e 6c87 393d
00000360: 48df 803c d92c 2dbd 76b1 08bf 1acc 3cbe
00000370: 6bbd f6bc bab6 723d a0e3 9cbe 2822 1cbf
00000380: 4c65 403e 42ce 373c 0bfb 58be 55a0 79be
00000390: bc89 6bbe 89ca 243c 333d d5bd 1d2f 583e
000003a0: c099 533e e97b 743e cf27 c0be 16b9 57be
000003b0: 4101 a5be 4bdf a53e 437f 16be 3eaa e7be
000003c0: 5aba 31bc 9272 573e 1d9a 02be 5981 5fbe
000003d0: 2082 cb3e 47bd 583d 1af1 d03e c2dc 4b3d
000003e0: 37f1 2d3d 544e e2bd 122a 30bf 6076 a0bd
000003f0: 9b56 8a3d a8a1 193e 5c41 85be e5ed 94be

shared_fc.0.bias f4 [64]
0.60152173 0.6886989 0.67556363 0.6267297 0.63085645 0.62165684 0.6218824 -0.16119505
-0.18606548 0.70531803 -0.12650457 0.6103894 0.6712258 0.63197935 -0.15304856 -0.13898888
0.07023834 0.59160244 0.6138529 0.6644707 0.7306452 0.71358323 0.616863 -0.11438211
-0.1627252 0.6340151 -0.01865198 -0.15239684 0.60236806 0.64602065 0.61943096 0.7093798
0.6368697 -0.09499847 0.67996037 0.60253954 -0.2146147 -0.056301292 0.62245166 0.736101
0.73297334 0.57278347 0.7210363 0.6993364 0.6126528 0.6511748 0.5914727 0.6869791
0.6439335 0.6972401 -0.14210168 0.5764835 0.7065261 -0.1270829 0.32049054 0.6719002
0.7131053 -0.19644113 0.10304423 0.65830505 0.65495664 -0.117934465 0.47104323 0.6630339
00000000: 54fd 193f 924e 303f bdf1 2c3f 5c71 203f
00000010: cf7f 213f e724 1f3f af33 1f3f 5110 25be
00000020: f387 3ebe b98f 343f 6a8a 01be 7b42 1c3f
00000030: 74d5 2b3f 66c9 213f c3b8 1cbe 1a53 0ebe
00000040: 1ed9 8f3d 4273 173f 7725 1d3f c01a 2a3f
00000050: 900b 3b3f 64ad 363f bcea 1d3f 2b41 eabd
00000060: 6fa1 26be d04e 223f 0acc 98bc eb0d 1cbe
00000070: cb34 1a3f 9c61 253f 0793 1e3f ea99 353f
00000080: e509 233f 8f8e c2bd e211 2e3f 0840 1a3f
00000090: f5c3 5bbe 2f9c 66bd fe58 1f3f 1d71 3c3f
000000a0: 24a4 3b3f f0a1 123f d695 383f b607 333f
000000b0: d0d6 1c3f 64b3 263f c16a 173f dddd 2f3f
000000c0: d3d8 243f 547e 323f 1a83 11be 6c94 133f
000000d0: e5de 343f 0522 02be 5617 a43e a701 2c3f
000000e0: 128e 363f dd27 49be da08 d33d ae86 283f
000000f0: 3dab 273f a087 f1bd 942c f13e 97bc 293f

actor_head.weight f4 [2, 64]
0.018798336 0.24361175 0.23907837 0.251176 0.16798474 0.11717956 -0.2593756 0.12469539
0.016761668 0.041524157 0.12209009 -0.023304427 -0.17482859 -0.038456857 0.03943824 -0.08386642
0.0834927 -0.10758705 0.18237491 -0.08804211 -0.118441254 0.01888972 -0.18838978 0.075168364
-0.0655408 0.050575033 -0.14699897 -0.062814206 -0.26549253 -0.099032804 -0.20761901 -0.078419365
0.15487145 0.16912743 0.14881109 -0.24934816 0.068229645 -0.13540588 -0.121769205 -0.12742263
-0.13069996 0.025210058 0.090541154 0.098621204 -0.13706468 -0.05641321 -0.16327672 -0.039117064
0.07304119 0.24489139 -0.04388215 0.08599787 -0.19674912 -0.029666571 0.17372532 0.121647455
0.08030172 -0.020718684 0.041531086 0.093468085 0.03882867 -0.06105648 0.32330644 0.054529864
-0.014405757 -0.25405854 -0.25013784 -0.25425205 -0.19269647 -0.11310781 0.26888147 -0.12130683
-0.032606106 -0.07041287 -0.079648525 0.012434572 0.18551388 0.065146096 -0.055828832 0.07012072
-0.14445505 0.10569998 -0.19433509 0.08163154 0.09196927 -0.038032163 0.19994049 -0.095223635
0.04470877 -0.06089176 0.16605009 0.06855284 0.2308603 0.10796546 0.2258445 0.102633126
-0.16162148 -0.16386823 -0.13250446 0.2611244 -0.055053 0.12155264 0.110703036 0.11579417
0.117496744 -0.0136409635 -0.08747384 -0.10805289 0.10545339 0.079777636 0.14888315 0.03897642
-0.050971884 -0.24733543 0.0445415 -0.06323967 0.21087965 0.03179246 -0.18129653 -0.13113207
-0.08019689 0.0203239 -0.038978543 -0.086416416 -0.027528971 0.062690794 -0.3127615 -0.0885869
00000000: f8fe 993c 5c75 793e f6d0 743e 249a 803e
00000010: 3104 2c3e d6fb ef3d e1cc 84be 4c60 ff3d
00000020: c44f 893c 3c15 2a3d 5e0a fa3d ede8 bebc
00000030: 4406 33be f084 1dbd fe89 213d 28c2 abbd
00000040: 38fe aa3d 9956 dcbd 7dc0 3a3e 6c4f b4bd
00000050: 5491 f2bd 9dbe 9a3c 40e9 40be dff1 993d
00000060: 413a 86bd c427 4f3d e686 16be bca4 80bd
00000070: a3ee 87be b6d1 cabd 149a 54be 559a a0bd
00000080: 9f96 1e3e be2f 2d3e ef61 183e 2055 7fbe
00000090: fcbb 8b3d d7a7 0abe 2262 f9bd 147b 02be
000000a0: 36d6 05be 5385 ce3c a46d b93d eaf9 c93d
000000b0: af5a 0cbe 8a11 67bd 0332 27be 3739 20bd
000000c0: 9f96 953d cfc4 7a3e c5bd 33bd a71f b03d
000000d0: 9a78 49be 4f07 f3bc 0de5 313e 4d22 f93d
000000e0: 3a75 a43d 3bba a9bc 801c 2a3d 326c bf3d
000000f0: d00a 1f3d 5c16 7abd 6c88 a53e b55a 5f3d
00000100: 2006 6cbc f613 82be 1112 80be 532d 82be
00000110: 3952 45be 11a5 e7bd d5aa 893e b76f f8bd
00000120: fb8d 05bd 9f34 90bd c41e a3bd 60ba 4b3c
00000130: 5af7 3d3e 516b 853d c6ac 64bd 749b 8f3d
00000140: 06ec 13be 3b79 d83d c7ff 46be 702e a73d
00000150: 625a bc3d 9dc7 1bbd 33bd 4c3e 9c04 c3bd
00000160: 8b20 373d a369 79bd 0909 2a3e 6e65 8c3d
00000170: a466 6c3e ff1c dd3d c843 673e 5131 d23d
00000180: 1a80 25be 13cd 27be 40af 07be 19b2 853e
00000190: 417f 61bd 97f0 f83d 46b8 e23d 7e25 ed3d
000001a0: 22a2 f03d 597e 5fbc 7c25 b3bd d54a ddbd
000001b0: f2f7 d73d 7562 a33d d374 183e bda5 1f3d
000001c0: e5c7 50bd 8045 7dbe 2671 363d cd83 81bd
000001d0: d6f0 573e cf38 023d cca5 39be 7c47 06be
000001e0: 443e a4bd 4f7e a63c f7a7 1fbd 17fb b0bd
000001f0: 7084 e1bc 0864 803d 4622 a0be 0c6d b5bd

actor_head.bias f4 [2]
-0.02124867 0.021248661
00000000: b111 aebc ac11 ae3c

critic_head.weight f4 [1, 64]
0.5233881 0.6097734 0.5837307 0.7706733 0.6759136 0.5605146 0.72634506 -0.32535315
-0.3481644 0.47127423 -0.18158242 0.7943288 0.6629341 0.7580433 -0.4600911 -0.2287298
0.025541682 0.3149098 0.7591029 0.68254584 0.5655755 0.627854 0.80068403 -0.24242136
-0.20065029 0.66813445 -0.061982892 -0.22223319 0.64491487 0.5747076 0.75349617 0.64949846
0.6700407 -0.1642429 0.59243804 0.8389868 -0.22258411 -0.02792766 0.81417626 0.56489307
0.6117701 0.5847704 0.61363477 0.61057866 0.85469425 0.6181756 0.4729174 0.59689105
0.69773316 0.5773589 -0.24186477 0.48820582 0.56592494 -0.33534592 0.34112546 0.5698182
0.5534171 -0.2690503 0.032341048 0.6101359 0.50255865 -0.1082761 0.59246343 0.5762352
00000000: c3fc 053f 1c1a 1c3f 606f 153f d84a 453f
00000010: ac08 2d3f e37d 0f3f c0f1 393f b094 a6be
00000020: 9b42 b2be db4a f13e bef0 39be 2259 4b3f
00000030: 0db6 293f 200f 423f 1091 ebbe 2538 6abe
00000040: ca3c d13c db3b a13e 9154 423f 53bb 2e3f
00000050: 8ec9 103f 0abb 203f a1f9 4c3f 4e3d 78be
00000060: 4577 4dbe dc0a 2b3f c6e1 7dbd 1991 63be
00000070: 2419 253f 0a20 133f 20e5 403f 8845 263f
00000080: ca87 2b3f 4a2f 28be 05aa 173f d7c7 563f
00000090: 17ed 63be 8cc8 e4bc db6d 503f d59c 103f
000000a0: f79c 1c3f 83b3 153f 2b17 1d3f e24e 1c3f
000000b0: 3ecd 5a3f c240 1e3f 3b22 f23e dacd 183f
000000c0: a49e 323f cbcd 133f 66ab 77be 1df6 f93e
000000d0: 75e0 103f 76b2 abbe ffa7 ae3e 9bdf 113f
000000e0: beac 0d3f f6c0 89be 0c78 043d de31 1c3f
000000f0: afa7 003f dcbf ddbd afab 173f 2684 133f

exp_avg f4 [64, 4]
-0.010947402 -0.0036811312 0.00033789346 0.0010082293 -0.013957803 -0.0025713518 0.00052558555 0.0009567287
-0.01339415 -0.0024140724 0.0005067717 0.0009098532 -0.017319195 -0.003712929 0.00062878476 0.0012680788
-0.014967529 -0.003564056 0.00052759587 0.0011507747 -0.01223697 -0.0032151386 0.0004177937 0.0009876329
-0.013700948 -0.0072657904 0.0003037395 0.0016739174 1.8781351e-05 5.6192985e-06 -2.0143857e-06 7.974477e-06
0.007139902 0.002772076 -0.00020289901 -0.00071429304 -0.010066786 -0.0030071123 0.0003276413 0.00086846435
0.003323159 0.0022601401 -4.9711354e-05 -0.00047484733 -0.017936101 -0.0072469465 0.00045609364 0.0023493331
-0.012819482 -0.006175492 0.00031215337 0.0014699317 -0.01546782 -0.0059050648 0.00044571745 0.0015337907
4.9062206e-11 1.1900284e-10 1.2399487e-10 -6.5360667e-10 0.00547542 0.0009779884 -0.00021662361 -0.0004614661
-0.0019602405 0.00042886156 4.9120394e-05 -1.3425314e-05 -0.0059693656 -0.0030888796 0.00013601457 0.0007176035
-0.016740577 -0.004110668 0.0005844553 0.0013064627 -0.013728801 -0.0056014913 0.00037942125 0.0014168279
-0.012259372 -0.005830907 0.0002720521 0.0017476965 -0.013185002 -0.004353229 0.0004102808 0.0012010229
-0.015607755 -0.0072831786 0.00039056857 0.0017532437 0.0046636662 0.0025671355 -9.824287e-05 -0.0005868403
0.004450042 0.0009652276 -0.00016245562 -0.0003253259 -0.019059839 -0.008228813 0.00041006805 0.0031805502
0.000517325 -0.0003286236 -9.681112e-05 0.00014462975 0.00496607 0.001053071 -0.00018248706 -0.0003505197
-0.012091125 -0.0065535996 0.0002617619 0.0014991951 -0.012500166 -0.0063024154 0.00017071911 0.0009472013
-0.014505659 -0.0071085086 0.00034787963 0.0016820745 -0.01300829 -0.0054063452 0.0003552516 0.0013584069
-0.0147315785 -0.00368739 0.00051122357 0.0011604356 -0.0039735497 0.0015612022 0.00019221373 2.6480673e-05
-0.013024234 -0.0032553172 0.00045233374 0.0010256034 -0.016087553 -0.0080194175 0.00037952792 0.0018861713
2.1835935e-05 1.793325e-05 -1.1525577e-06 2.0461403e-06 -0.001095167 -0.0003025206 -2.7034659e-05 0.00011012383
-0.016295902 -0.00679741 0.00044383822 0.0017053549 -0.012156495 -0.005942351 0.00026241443 0.0017583919
-0.012053938 -0.0053831367 0.0003123757 0.0013163888 -0.014511029 -0.0025758357 0.00054941094 0.0010214146
-0.013188302 -0.0038026236 0.00043554296 0.0011223087 -0.013208556 -0.0036665173 0.0004423126 0.001096415
-0.017102703 -0.0071300776 0.00046611548 0.0017899408 -0.012541395 -0.004993115 0.00025260434 0.0012470668
-0.009000576 -0.0046129553 0.00020680644 0.0010751851 -0.012267271 -0.0045834407 0.0002619167 0.001170072
-0.0148017015 -0.004611519 0.00047319444 0.0013068042 -0.013270658 -0.0023558899 0.0005036846 0.00089582475
-4.740226e-06 -7.808493e-06 -8.5576175e-08 1.4355004e-06 -0.010521279 -0.002991417 0.0003473787 0.0008775224
-0.010676514 -0.005646001 0.00023760552 0.001302272 0.0071304487 0.0021676682 -0.00023075221 -0.0006193923
-0.008001216 -0.0011499525 0.00031585875 0.00049801177 -0.012486024 -0.0031963575 0.0004300558 0.0009942321
-0.011899573 -0.0034234065 0.00039314243 0.0010064043 -1.7931479e-06 -4.048881e-06 -8.801033e-08 3.0834744e-07
-0.00088509585 7.4010495e-05 4.4475866e-05 6.610466e-06 -0.014946397 -0.002572874 0.00053631805 0.0011096728
-0.010601167 -0.0034054143 0.00033424908 0.00095136533 0.0026048308 0.00032390383 -0.00010399736 -0.0001364899
-0.0139557645 -0.0019261697 0.0005544613 0.0008568502 -0.012329995 -0.0036537955 0.00040251398 0.0010590595
00000000: bb5c 33bc 223f 71bb 4b27 b139 9026 843a
00000010: 45af 64bc 2084 28bb 73c7 093a facc 7a3a
00000020: 2373 5bbc 6a35 1ebb e0d8 043a 3783 6e3a
00000030: fce0 8dbc 9d54 73bb 08d5 243a aa35 a63a
00000040: 5e3a 75bc f092 69bb 5c4e 0a3a 97d5 963a
00000050: 927d 48bc 13b5 52bb 520b db39 7673 813a
00000060: f179 60bc de15 eebb 3a3f 9f39 5967 db3a
00000070: a58c 9d37 688d bc36 e22e 07b6 1eca 0537
00000080: d7f5 e93b b8ab 353b 4ac1 54b9 653f 3bba
00000090: 29ef 24bc f912 45bb 45c7 ab39 a8a9 633a
000000a0: 5bc9 593b dc1e 143b 2981 50b8 eef4 f8b9
000000b0: bbee 92bc cb77 edbb da1f ef39 45f7 193b
000000c0: ce08 52bc c85b cabb 84a8 a339 b9aa c03a
000000d0: bd6c 7dbc 467f c1bb 2faf e939 7a09 c93a
000000e0: 22c7 572e 52d8 022f 7455 082f 7ba9 33b0
000000f0: 276b b33b d82f 803a 7525 63b9 eef0 f1b9
00000100: 6177 00bb d3d8 e039 9f06 4e38 493d 61b7
00000110: ab9a c3bb cd6e 4abb 229f 0e39 8e1d 3c3a
00000120: 8923 89bc c8b2 86bb 2236 193a 9d3d ab3a
00000130: c4ee 60bc b78c b7bb 0fed c639 dbb4 b93a
00000140: 88db 48bc 3111 bfbb 37a2 8e39 f712 e53a
00000150: e805 58bc 88a5 8ebb f51a d739 a46b 9d3a
00000160: abb7 7fbc bba7 eebb 3ac5 cc39 19cd e53a
00000170: abd1 983b 633d 283b bd07 ceb8 30d6 19ba
00000180: a8d1 913b 5407 7d3a d958 2ab9 8190 aab9
00000190: 6123 9cbc 25d2 06bc 67fe d639 c770 503b
000001a0: 189d 073a 1d4b acb9 1307 cbb8 c1a7 1739
000001b0: 6aba a23b 3307 8a3a ff59 3fb9 f5c5 b7b9
000001c0: db19 46bc 94bf d6bb 163d 8939 a480 c43a
000001d0: 7fcd 4cbc 7e84 cebb 1003 3339 9a4d 783a
000001e0: 25a9 6dbc 7eee e8bb 9d63 b639 0e79 dc3a
000001f0: b920 55bc b627 b1bb 1041 ba39 920c b23a
00000200: b85c 71bc 23a8 71bb a203 063a c219 983a
00000210: 8d34 82bb 41a1 cc3a fb8c 4939 d022 de37
00000220: 9963 55bc 2957 55bb 3527 ed39 8a6d 863a
00000230: 0bca 83bc e063 03bc 60fb c639 6839 f73a
00000240: 502c b737 5c6f 9637 95b1 9ab5 6c50 0936
00000250: b58b 8fba a19b 9eb9 7dc8 e2b7 48f2 e638
00000260: fc7e 85bc cfbc debb f5b2 e839 3786 df3a
00000270: 092c 47bc 0eb8 c2bb ab94 8939 d779 e63a
00000280: e17d 45bc 0665 b0bb 5bc6 a339 ae8a ac3a
00000290: abbf 6dbc 5acf 28bb 5806 103a fde0 853a
000002a0: bf13 58bc 7035 79bb 9659 e439 6e1a 933a
000002b0: b368 58bc f449 70bb 31e6 e739 95b5 8f3a
000002c0: f81a 8cbc 6da3 e9bb f660 f439 729c ea3a
000002d0: 6c7a 4dbc 499d a3bb fb6f 8439 9e74 a33a
000002e0: 2777 13bc 4628 97bb 2eda 5839 3aed 8c3a
000002f0: aafc 48bc b030 96bb dd51 8939 1a5d 993a
00000300: d682 72bc 3a1c 97bb 1517 f839 1349 ab3a
00000310: 2d6d 59bc 4665 1abb b409 043a c8d5 6a3a
00000320: 3b0e 9fb6 3901 03b7 00c6 b7b3 6bab c035
00000330: 7161 2cbc a60b 44bb 6120 b639 8809 663a
00000340: 8cec 2ebc 1702 b9bb bf25 7939 ffb0 aa3a
00000350: 8aa6 e93b 700f 0e3b 13f6 71b9 b75e 22ba
00000360: 8817 03bc 01ba 96ba d899 a539 018d 023a
00000370: 2e92 4cbc fb79 51bb 1d79 e139 e550 823a
00000380: 6df6 42bc 3b5b 60bb af1e ce39 53e9 833a
00000390: 18ac f0b5 9fdb 87b6 3100 bdb3 f38a a534
000003a0: c705 68ba 1536 9b38 998b 3a38 78cf dd36
000003b0: bce1 74bc aa9d 28bb b297 0c3a 7172 913a
000003c0: 84b0 2dbc 5f2d 5fbb 273e af39 0c65 793a
000003d0: cfb5 2a3b a3d1 a939 2819 dab8 bb1e 0fb9
000003e0: b8a6 64bc 8877 fcba 4559 113a 3e9e 603a
000003f0: bf03 4abc 8474 6fbb 8308 d339 24d0 8a3a

exp_avg_sq f4 [64, 4]
0.00097103644 0.00019210421 2.9918956e-06 4.829649e-05 0.0019486876 0.0005783967 5.8982755e-06 0.00011331544
0.0017852928 0.00052605016 5.364064e-06 0.000101763806 0.0030317563 0.00091653457 9.249447e-06 0.00017929345
0.0021868814 0.0006625526 6.6439525e-06 0.00012921421 0.0014482997 0.0004401514 4.465564e-06 8.756579e-05
0.002753078 0.0008644911 8.48424e-06 0.00015935325 0.0003282437 9.816345e-05 7.060116e-07 1.3727952e-05
0.00018119742 3.851513e-05 4.266235e-07 8.3523355e-06 0.00089353404 0.00025207872 2.6354983e-06 4.892724e-05
6.304408e-05 1.3973136e-05 2.173909e-07 3.1461525e-06 0.0028961422 0.0008566627 9.062893e-06 0.00017158106
0.002133486 0.00066758395 6.6013777e-06 0.00012597236 0.0026480549 0.00082268636 8.25982e-06 0.00016199778
0.0006162932 0.00017798484 1.4444312e-06 2.5937388e-05 8.248541e-05 2.0210324e-05 1.8812447e-07 4.2863358e-06
3.8426293e-05 1.1696673e-05 1.2329244e-07 1.5070927e-06 0.0002320242 7.112709e-05 1.0696418e-06 1.9785108e-05
0.0027906664 0.00084924913 8.5889715e-06 0.00016765059 0.0021486117 0.0006711437 6.638548e-06 0.00013123365
0.0014851257 0.0004560827 4.6250602e-06 8.7110806e-05 0.0017722262 0.00054963055 5.5101395e-06 0.00010785606
0.0031288227 0.0009798736 9.695353e-06 0.00018467421 9.690348e-05 2.0356463e-05 2.3930858e-07 4.128843e-06
5.922019e-05 1.2420904e-05 1.3315402e-07 3.0169087e-06 0.002011859 0.0005667869 6.198275e-06 0.00011532854
4.04749e-05 1.1004756e-05 9.099008e-08 1.8923015e-06 7.66963e-05 1.828519e-05 1.7345863e-07 3.946821e-06
0.0021687879 0.00068022264 6.6630428e-06 0.00012439824 0.0014701975 0.00040810497 4.5849524e-06 7.960059e-05
0.0027955263 0.000876519 8.6326345e-06 0.00016445504 0.0019324572 0.00059990596 6.009831e-06 0.000116932264
0.002119806 0.00064469 6.5175427e-06 0.0001271905 0.00013230892 4.7527094e-05 3.70714e-07 5.346625e-06
0.001609704 0.0004951704 4.711943e-06 9.661502e-05 0.003589796 0.0011272304 1.1118391e-05 0.00021133781
0.00014199663 4.280452e-05 3.6539058e-07 6.348975e-06 2.6034793e-05 7.96093e-06 5.216759e-08 8.970407e-07
0.003121935 0.00097188 9.728764e-06 0.00018940768 0.0014986296 0.00046583015 4.704955e-06 8.850532e-05
0.0017702054 0.0005509733 5.4994516e-06 0.00010611173 0.0013229683 0.00027957762 3.7582477e-06 6.0003575e-05
0.001715622 0.0005325756 5.317868e-06 0.00010234138 0.001686476 0.000515043 5.202059e-06 0.00010211724
0.0023184961 0.0009862246 8.330456e-06 0.00017255676 0.0016959511 0.00049893087 5.2699124e-06 9.304621e-05
0.0010921658 0.00033781922 3.3546598e-06 6.293207e-05 0.0015967074 0.0004594507 4.9310784e-06 9.0629284e-05
0.00218415 0.00067191164 6.773529e-06 0.0001334766 0.0017587479 0.00052093616 5.33571e-06 0.000101320766
0.00014805554 4.420064e-05 3.9080868e-07 6.643567e-06 0.00060029456 0.00012731568 1.768518e-06 3.6305213e-05
0.0015834839 0.00050116866 4.8061606e-06 8.913174e-05 0.00016356437 3.9806164e-05 3.7244143e-07 8.193547e-06
0.0005978211 0.00017655529 1.7727658e-06 3.3035285e-05 0.0014995203 0.0004519043 4.630142e-06 8.642355e-05
0.0013466009 0.00041160785 4.15671e-06 8.097247e-05 0.00019317595 5.7577632e-05 5.189889e-07 9.157477e-06
4.9334667e-06 1.3923386e-06 1.3993707e-08 2.591199e-07 0.0016269635 0.00050687237 4.9491764e-06 9.138348e-05
0.0010883199 0.0003307908 3.355833e-06 6.536354e-05 2.2166203e-05 5.13508e-06 5.0648328e-08 1.1499627e-06
0.0020224736 0.0006026477 6.047265e-06 0.000112876936 0.0014734433 0.00043911685 4.4802146e-06 8.535593e-05
00000000: 278d 7e3a 956f 4939 60c8 4836 f691 4a38
00000010: 1b6b ff3a 8c9f 173a cde9 c536 c3a3 ed38
00000020: 7c00 ea3a a1e6 093a f5fc b336 076a d538
00000030: 6eb0 463b 9843 703a 132e 1b37 b800 3c39
00000040: c851 0f3b 27af 2d3a 1eef de36 ad7d 0739
00000050: e0d4 bd3a 1fc4 e639 e7d6 9536 87a3 b738
00000060: fc6c 343b 049f 623a 8957 0e37 1018 2739
00000070: 2018 ac39 1add cd38 bf84 3d35 1b51 6637
00000080: d0ff 3d39 4e8b 2138 b00a e534 0221 0c37
00000090: 0e3c 6a3a 6f29 8439 84dd 3036 3937 4d38
000000a0: 8836 8438 2a6e 6a37 f56b 6934 7d22 5336
000000b0: 34cd 3d3b a991 603a d40c 1837 71ea 3339
000000c0: f5d1 0b3b cd00 2f3a 6781 dd36 7317 0439
000000d0: fd8a 2d3b 8ca9 573a a893 0a37 f3dd 2939
000000e0: bd8e 213a 71a1 3a39 47de c135 1e94 d937
000000f0: 04fc ac38 5789 a937 43ff 4934 58d3 8f36
00000100: eb2b 2138 d43c 4437 5e62 0434 5047 ca35
00000110: 864b 7339 112a 9538 9d90 8f35 32f8 a537
00000120: 9de3 363b 25a0 5e3a 5a19 1037 5dcb 2f39
00000130: b9cf 0c3b b1ef 2f3a b1c0 de36 c49b 0939
00000140: 8da8 c23a 621e ef39 f730 9b36 42af b638
00000150: 0b4a e83a 1515 103a bde3 b836 c830 e238
00000160: ef0c 4d3b 1a6f 803a 39a9 2237 1ba5 4139
00000170: a938 cb38 2cc3 aa37 527a 8034 7e8a 8a36
00000180: 3263 7838 6063 5037 19f9 0e34 1976 4a36
00000190: 65d9 033b 6d94 143a c7fa cf36 8adc f138
000001a0: 98c3 2938 11a1 3837 5366 c333 fcfa fd35
000001b0: 03d8 a038 2663 9937 f23f 3a34 ef6e 8436
000001c0: 3922 0e3b f850 323a 1a93 df36 e670 0239
000001d0: a4b3 c03a ecf6 d539 71d8 9936 3eef a638
000001e0: 2635 373b 32c6 653a e2d4 1037 9071 2c39
000001f0: 814a fd3a 0243 1d3a 0ea8 c936 8839 f538
00000200: 71ec 0a3b 6a00 293a 44b1 da36 715e 0539
00000210: 68bc 0a39 d457 4738 8b06 c734 2967 b336
00000220: b4fc d23a 53ce 013a 481b 9e36 cb9d ca38
00000230: c842 6b3b 93bf 933a 2089 3a37 909a 5d39
00000240: eee4 1439 0189 3338 e62a c434 4809 d536
00000250: 4b65 da37 ef8f 0537 df0e 6033 2bcc 7035
00000260: 6199 4c3b c3c5 7e3a b938 2337 bd9b 4639
00000270: aa6d c43a aa3a f439 41df 9d36 ef9b b938
00000280: 3d06 e83a 316f 103a ee87 b836 4d88 de38
00000290: 7367 ad3a 4694 9239 3436 7c36 59ac 7b38
000002a0: b9de e03a 8b9c 0b3a 2370 b236 1ca0 d638
000002b0: bf0c dd3a f303 073a 598d ae36 c727 d638
000002c0: e9f1 173b 3544 813a 09c3 0b37 5af0 3439
000002d0: ad4a de3a afca 023a 34d4 b036 ce21 c338
000002e0: 0127 8f3a 541d b139 9e20 6136 66fa 8338
000002f0: 9c48 d13a 6ee2 f039 a475 a536 3a10 be38
00000300: f523 0f3b 3a23 303a 2c48 e336 daf5 0b39
00000310: c985 e63a 6f8f 083a 6609 b336 2c7c d438
00000320: 5b3f 1b39 1364 3938 56d0 d134 ceeb de36
00000330: 165d 1d3a 0b80 0539 d15d ed35 6d46 1838
00000340: e78c cf3a dc60 033a 9b44 a136 3dec ba38
00000350: 7a82 2b39 8bf5 2638 f6f3 c734 0477 0937
00000360: 18b7 1c3a b321 3939 c5ef ed35 5e8f 0a38
00000370: 8d8b c43a 92ed ec39 9e5c 9b36 4a3e b538
00000380: 6e80 b03a 12cd d739 de79 8b36 c4cf a938
00000390: 468f 4a39 837f 7138 a550 0b35 10a3 1937
000003a0: 288a a536 64e0 ba35 f968 7032 2b1d 8b34
000003b0: d63f d53a a1df 043a 1a11 a636 22a5 bf38
000003c0: f5a5 8e3a fd6d ad39 c634 6136 c913 8938
000003d0: 8ff1 b937 004e ac36 6d88 5933 6b58 9a35
000003e0: 7a8b 043b 01fb 1d3a 9ce9 ca36 58b8 ec38
000003f0: 8e20 c13a 4439 e639 c054 9636 1e01 b338

exp_avg f4 [64]
-0.006912354 -0.009870245 -0.009498606 -0.011987745 -0.010184032 -0.008175996 -0.0073332093 -2.2839782e-05
0.0043971096 -0.006547079 0.0018093126 -0.01086389 -0.007171747 -0.009420433 3.860619e-09 0.0036742436
-0.0012785654 -0.0032348253 -0.011328258 -0.008181251 -0.006991775 -0.008366481 -0.008848465 0.0026979402
0.0029282433 -0.011270956 0.0010719809 0.0033062773 -0.006401698 -0.0062217354 -0.008055807 -0.0077049774
-0.009934146 -0.002860507 -0.008786662 -0.00886494 -2.9518293e-05 -0.00012514961 -0.009639153 -0.006852358
-0.006953137 -0.0094725955 -0.008649896 -0.008728625 -0.010121862 -0.007339733 -0.004898048 -0.0072682663
-0.009532267 -0.009428438 7.084035e-06 -0.0069182934 -0.005724209 0.00453346 -0.0058195004 -0.00838387
-0.007804235 2.618671e-06 -0.0007423033 -0.010020011 -0.0067749196 0.0018891207 -0.010189826 -0.008032674
00000000: 0781 e2bb cfb6 21bc 0ba0 1bbc 3f68 44bc
00000010: edda 26bc 9df4 05bc 6b4b f0bb 0f98 bfb7
00000020: a115 903b e188 d6bb 7526 ed3a 75fe 31bc
00000030: f900 ebbb 2958 1abc 5da6 8431 94cb 703b
00000040: 8995 a7ba 5dff 53bb 289a 39bc a70a 06bc
00000050: 421b e5bb 9113 09bc 27f9 10bc edcf 303b
00000060: c5e7 3f3b d1a9 38bc b681 8c3a 21ae 583b
00000070: 56c5 d1bb b3df cbbb 81fc 03bc 097a fcbb
00000080: d4c2 22bc 5877 3bbb eef5 0fbc 413e 11bc
00000090: 0d9e f7b7 983a 03b9 8aed 1dbc bf89 e0bb
000000a0: 24d7 e3bb f232 1bbc 4bb8 0dbc 8202 0fbc
000000b0: 2bd6 25bc 2582 f0bb ce7f a0bb a32a eebb
000000c0: 3a2d 1cbc bc79 1abc 66b3 ed36 dab2 e2bb
000000d0: 2592 bbbb 6b8d 943b 82b1 bebb 805c 09bc
000000e0: abba ffbb 6dbc 2f36 2297 42ba f92a 24bc
000000f0: 2500 debb 5f9c f73a 3af3 26bc 7a9b 03bc

exp_avg_sq f4 [64]
0.0005067983 0.0009623165 0.00088119763 0.0015274131 0.0011123819 0.00074610754 0.0013807324 9.592147e-05
5.591314e-05 0.00047440856 2.2114225e-05 0.0015339557 0.0010892962 0.0013954913 0.00017832211 2.587367e-05
1.2491332e-05 0.00017217762 0.0014299264 0.0011252483 0.00076930434 0.0009363074 0.0016115874 2.9496401e-05
1.8363196e-05 0.0010487068 1.4598635e-05 2.4432147e-05 0.0010772394 0.00076133566 0.0014260948 0.0010086583
0.0010853879 4.1852167e-05 0.0008241143 0.0018312745 4.429198e-05 9.029809e-06 0.0016359695 0.00077933545
0.0009176316 0.0006410126 0.00089867256 0.0008720767 0.0014875295 0.00085885637 0.00054698176 0.00082489796
0.0011437136 0.0008669117 4.2393083e-05 0.0003647474 0.0007989605 5.068783e-05 0.0002782906 0.00077126786
0.00070005096 5.7341596e-05 2.1265264e-06 0.0008378764 0.00056768174 7.684262e-06 0.00095146813 0.0007679632
00000000: a8da 043a f843 7c3a 2c00 673a 7b33 c83a
00000010: 58cd 913a 6e96 433a b1f9 b43a 7229 c938
00000020: 4784 6a38 0aba f839 f081 b937 030f c93a
00000030: b7c6 8e3a ebe8 b63a fafb 3a39 490b d937
00000040: dd91 5137 948a 3439 5e6c bb3a 117d 933a
00000050: 24ab 493a 8772 753a e63b d33a 0a6f f737
00000060: aa0a 9a37 c374 893a a9ec 7437 a3f3 cc37
00000070: 2832 8d3a 5f94 473a cdeb ba3a f534 843a
00000080: 9343 8e3a 6c8a 2f38 6009 583a 6007 f03a
00000090: 27c6 3938 bc7e 1737 076e d63a 514c 4c3a
000000a0: 378d 703a a109 283a e594 6b3a 149c 643a
000000b0: 35f9 c23a e024 613a 5363 0f3a f73d 583a
000000c0: a9e8 953a 7641 633a 3acf 3138 913b bf39
000000d0: 5571 513a a599 5438 88e7 9139 e92e 4a3a
000000e0: a083 373a 1282 7038 72b5 0e36 efa4 5b3a
000000f0: 7ad0 143a a7eb 0037 f26b 793a 2351 493a

exp_avg f4 [2, 64]
-0.00041712233 -0.003282251 -0.003954202 -0.002843199 -0.00268807 -0.0023519562 -0.0012411968 -9.659433e-07
-0.00021728069 -0.0028723702 -0.0016862848 -0.0034158223 -0.0025432862 -0.0022964778 4.3039233e-10 0.00044962752
-0.00091324875 -0.0022199966 -0.002712093 -0.0008993799 -0.0036132936 -0.0013854133 -0.0022671013 -0.00034441767
0.00012663315 -0.0042157094 0.0002453636 0.00020494685 -0.001651661 -0.0037082555 -0.0028646735 -0.0036248853
-0.002631076 -0.00018719808 -0.0040019145 -0.0014444959 -2.345088e-05 0.00012554954 -0.0027341936 -0.0021560886
-0.00246181 0.00024240192 -0.0012007339 -0.0030405372 -0.003982315 -0.004936685 -0.0025359415 -0.0046598
-0.003330211 -0.0033584014 1.124623e-06 -0.000978853 -0.003153645 0.00025721543 -0.0015278693 -0.0021476264
-0.0032072694 1.6847804e-06 -7.218215e-05 -0.00060688297 -0.0017000706 -0.00035155576 -0.0025428524 -0.0021663727
0.0004171224 0.0032822513 0.0039542024 0.0028431988 0.0026880703 0.0023519564 0.0012411971 9.659434e-07
0.00021728066 0.0028723704 0.0016862849 0.0034158223 0.0025432864 0.0022964778 -4.3039233e-10 -0.0004496276
0.00091324875 0.0022199962 0.0027120933 0.0008993797 0.0036132932 0.0013854133 0.0022671008 0.0003444176
-0.00012663311 0.0042157094 -0.00024536354 -0.0002049468 0.001651661 0.0037082552 0.002864673 0.003624885
0.0026310757 0.0001871981 0.004001914 0.0014444955 2.3450877e-05 -0.00012554959 0.0027341933 0.0021560881
0.0024618094 -0.00024240217 0.0012007337 0.0030405377 0.0039823144 0.004936685 0.002535941 0.0046597994
0.0033302112 0.0033584014 -1.1246242e-06 0.000978852 0.003153645 -0.00025721543 0.0015278691 0.0021476264
0.0032072694 -1.684782e-06 7.218208e-05 0.000606883 0.0017000703 0.00035155535 0.0025428522 0.0021663723
00000000: 36b1 dab9 091b 57bb 4092 81bb f754 3abb
00000010: 552a 30bb 4723 1abb a7af a2ba 8fa5 81b5
00000020: d7d5 63b9 603e 3cbb 5406 ddba fddb 5fbb
00000030: 43ad 26bb 8180 16bb 569c ec2f fcbb eb39
00000040: 1667 6fba 5d7d 11bb 5fbd 31bb 5dc4 6bba
00000050: 02cd 6cbb c296 b5ba a693 14bb f592 b4b9
00000060: d4c8 0439 ef23 8abb 25a4 8039 00e7 5639
00000070: 8c7c d8ba 3406 73bb 3fbd 3bbb 7c8f 6dbb
00000080: 216e 2cbb 9a4a 44b9 7e22 83bb 3d55 bdba
00000090: 62b8 c4b7 f3a5 0339 2830 33bb 2a4d 0dbb
000000a0: 5156 21bb 452d 7e39 f261 9dba c043 47bb
000000b0: 147e 82bb eac3 a1bb 0a32 26bb 3cb1 98bb
000000c0: ab3f 5abb a018 5cbb c1f1 9635 db4c 80ba
000000d0: 62ad 4ebb dfda 8639 c942 c8ba 31bf 0cbb
000000e0: 0d31 52bb 9d20 e235 7f60 97b8 3a17 1fba
000000f0: e7d4 deba 0451 b8b9 fca5 26bb b4f9 0dbb
00000100: 39b1 da39 0a1b 573b 4192 813b f654 3a3b
00000110: 562a 303b 4823 1a3b aaaf a23a 90a5 8135
00000120: d5d5 6339 613e 3c3b 5506 dd3a fddb 5f3b
00000130: 44ad 263b 8180 163b 569c ecaf ffbb ebb9
00000140: 1667 6f3a 5b7d 113b 60bd 313b 5ac4 6b3a
00000150: 00cd 6c3b c296 b53a a493 143b f392 b439
00000160: d1c8 04b9 ef23 8a3b 23a4 80b9 fde6 56b9
00000170: 8c7c d83a 3306 733b 3dbd 3b3b 7b8f 6d3b
00000180: 206e 2c3b 9b4a 4439 7d22 833b 3a55 bd3a
00000190: 60b8 c437 f6a5 03b9 2730 333b 284d 0d3b
000001a0: 4f56 213b 562d 7eb9 f061 9d3a c243 473b
000001b0: 137e 823b eac3 a13b 0832 263b 3bb1 983b
000001c0: ac3f 5a3b a018 5c3b cbf1 96b5 d34c 803a
000001d0: 62ad 4e3b dfda 86b9 c842 c83a 31bf 0c3b
000001e0: 0d31 523b ab20 e2b5 7660 9738 3b17 1f3a
000001f0: e5d4 de3a f650 b839 fba5 263b b2f9 0d3b

exp_avg_sq f4 [2, 64]
0.00016718089 0.00021860188 0.00023150902 0.00016317748 0.00013253048 0.00016014965 0.0001475676 1.0636814e-05
1.5307689e-05 0.0002047706 3.5939902e-05 0.0001909926 0.00015998207 0.0001662104 7.350991e-06 6.524911e-06
4.861123e-05 0.00021706369 0.00013165502 0.00018199277 0.00025653103 0.00021173325 0.00013977374 7.1736413e-06
9.310444e-06 0.00023482613 2.0180155e-06 1.2355491e-05 0.00012534729 0.0003143857 0.00013513042 0.00020123387
0.00013053094 5.5998703e-06 0.00018987445 0.00014934277 5.294246e-05 2.8908596e-06 0.00015811717 0.00029281017
0.0002680299 0.00015597128 0.00023629192 0.0001610114 0.0002120412 0.00023234091 0.00015297256 0.00026145545
0.000144983 0.00023646402 3.841675e-06 0.00021842188 0.00019920731 4.282927e-06 3.0862317e-05 0.00016009745
0.00018378782 1.3770788e-05 5.8619727e-05 0.00024581567 0.00013795252 5.595888e-05 7.793187e-05 0.00014884699
0.0001671809 0.00021860193 0.00023150897 0.00016317746 0.00013253048 0.00016014965 0.00014756763 1.0636815e-05
1.5307689e-05 0.00020477058 3.5939902e-05 0.00019099259 0.00015998204 0.00016621039 7.350992e-06 6.5249105e-06
4.8611215e-05 0.00021706363 0.000131655 0.00018199279 0.00025653106 0.00021173322 0.00013977375 7.1736404e-06
9.310444e-06 0.00023482616 2.0180153e-06 1.2355492e-05 0.00012534729 0.0003143857 0.00013513042 0.00020123387
0.00013053096 5.5998703e-06 0.00018987445 0.00014934277 5.2942458e-05 2.8908596e-06 0.00015811717 0.00029281017
0.0002680299 0.00015597133 0.00023629198 0.0001610114 0.00021204121 0.00023234078 0.00015297259 0.00026145548
0.000144983 0.00023646402 3.841675e-06 0.00021842186 0.0001992073 4.282927e-06 3.0862317e-05 0.00016009745
0.00018378782 1.377079e-05 5.8619727e-05 0.00024581567 0.0001379525 5.5958873e-05 7.793188e-05 0.000148847
00000000: 474d 2f39 7f38 6539 3bc1 7239 9f1a 2b39
00000010: e1f7 0a39 d8ed 2739 60bc 1a39 c574 3237
00000020: 0369 8037 b0b7 5639 2dbe 1638 3045 4839
00000030: dcc0 2739 c448 2e39 88a8 f636 8ff0 da36
00000040: e9e3 4b38 979b 6339 e00c 0a39 50d5 3e39
00000050: 037f 8639 b604 5e39 3a90 1239 1cb5 f036
00000060: 0d34 1c37 a93b 7639 3e6d 0736 6e4a 4f37
00000070: a86f 0339 22d4 a439 ccb1 0d39 4e02 5339
00000080: 22df 0839 85e6 bb36 0919 4739 e598 1c39
00000090: 890e 5e38 9700 4236 41cc 2539 5184 9939
000000a0: 5d86 8c39 398c 2339 21c5 7739 2bd5 2839
000000b0: 6057 5e39 8aa0 7339 4267 2039 f513 8939
000000c0: 9406 1839 54f3 7739 bde7 8036 2d08 6539
000000d0: 4ee2 5039 10b6 8f36 2972 0138 d5df 2739
000000e0: 2bb7 4039 1609 6737 74de 7538 d2e0 8039
000000f0: 59a7 1039 64b5 6a38 5b6f a338 cf13 1c39
00000100: 484d 2f39 8238 6539 37c1 7239 9e1a 2b39
00000110: e1f7 0a39 d8ed 2739 62bc 1a39 c674 3237
00000120: 0369 8037 afb7 5639 2dbe 1638 2f45 4839
00000130: dac0 2739 c348 2e39 8aa8 f636 8ef0 da36
00000140: e5e3 4b38 939b 6339 df0c 0a39 51d5 3e39
00000150: 047f 8639 b404 5e39 3b90 1239 1ab5 f036
00000160: 0d34 1c37 ab3b 7639 3d6d 0736 6f4a 4f37
00000170: a86f 0339 22d4 a439 ccb1 0d39 4e02 5339
00000180: 23df 0839 85e6 bb36 0919 4739 e598 1c39
00000190: 880e 5e38 9700 4236 41cc 2539 5184 9939
000001a0: 5d86 8c39 3c8c 2339 25c5 7739 2bd5 2839
000001b0: 6157 5e39 81a0 7339 4467 2039 f613 8939
000001c0: 9406 1839 54f3 7739 bde7 8036 2c08 6539
000001d0: 4de2 5039 10b6 8f36 2972 0138 d5df 2739
000001e0: 2bb7 4039 1809 6737 74de 7538 d2e0 8039
000001f0: 58a7 1039 62b5 6a38 5c6f a338 d013 1c39

exp_avg f4 [2]
-0.003947673 0.0039476724
00000000: 7b5b 81bb 7a5b 813b

exp_avg_sq f4 [2]
0.00039741953 0.00039741947
00000000: bf5c d039 bd5c d039

exp_avg f4 [1, 64]
-0.011806139 -0.007346961 -0.0075350394 -0.0071176556 -0.01159752 -0.006384421 -0.006216142 1.3381071e-09
-0.0034040308 -0.014346608 -0.005646951 -0.005759122 -0.008299263 -0.0061670663 1.4215161e-09 -0.0020101052
0.001548598 -0.014262999 -0.008521817 -0.0063152188 -0.006982068 -0.007276446 -0.007383706 -0.0024065
-0.0025627168 -0.0060536694 -0.0004232313 -0.0029551566 -0.007063521 -0.0024056272 -0.010138002 -0.008686162
-0.010426492 0.00061502116 -0.01412847 -0.0054281303 -7.676949e-09 0.00023585453 -0.0066285525 -0.004742237
-0.0055934326 -0.009507222 -0.006727154 -0.012228114 -0.0133718625 -0.008442672 -0.005726574 -0.007218673
-0.011813623 -0.0071534663 -8.008613e-10 -0.01492595 -0.012963594 -0.0017486335 -0.0048574354 -0.009892951
-0.01382912 -2.8208942e-09 -0.007997727 -0.005042593 -0.010293764 -0.006784025 -0.0067592063 -0.011813086
00000000: 896e 41bc c7be f0bb 7ee8 f6bb 393b e9bb
00000010: 8603 3ebc 6834 d1bb c7b0 cbbb 75e8 b730
00000020: 2916 5fbb 090e 6bbc 0f0a b9bb 04b7 bcbb
00000030: a2f9 07bc 1a15 cabb 275f c330 f8bb 03bb
00000040: 54fa ca3a 5baf 69bc 179f 0bbc e5ef cebb
00000050: d5c9 e4bb 416f eebb 04f3 f1bb 5fb6 1dbb
00000060: 41f3 27bb dc5d c6bb 25e5 ddb9 4dab 41bb
00000070: 1c75 e7bb baa7 1dbb dd19 26bc 6750 0ebc
00000080: e1d3 2abc 5f39 213a 197b 67bc 75de b1bb
00000090: 94e3 03b2 b84f 7739 5434 d9bb c464 9bbb
000000a0: 1d49 b7bb 2ec4 1bbc 756f dcbb 6d58 48bc
000000b0: a815 5bbc 2253 0abc fca5 bbbb 9e8a ecbb
000000c0: ed8d 41bc a067 eabb 9b23 5cb0 f98b 74bc
000000d0: 4165 54bc 6732 e5ba 1f2b 9fbb 0b16 22bc
000000e0: 8993 62bc b2d9 41b1 e608 03bc 563c a5bb
000000f0: 2da7 28bc 874c debb 557c ddbb ad8b 41bc

exp_avg_sq f4 [1, 64]
0.0010100439 0.0014142661 0.0014629102 0.0010855409 0.0008936602 0.0010626076 0.0010064128 4.4895292e-05
5.600244e-05 0.0011873047 0.00014102107 0.0011872671 0.0010996006 0.0011032479 3.117941e-05 2.2633782e-05
0.00022092815 0.0010568054 0.00092118455 0.0012108502 0.0016488379 0.0014244997 0.00095762825 2.678793e-05
3.340828e-05 0.0013994466 7.393805e-06 4.3807868e-05 0.0008704483 0.0018281046 0.00087533164 0.0013321441
0.00091924844 2.7356036e-05 0.0011194834 0.0010003598 0.0002326701 1.14783115e-05 0.0010505782 0.0018347797
0.0017089833 0.0009822497 0.0015511462 0.0010886594 0.0010661645 0.0014032377 0.001007546 0.001589591
0.00092948286 0.0015160686 1.729543e-05 0.0012184527 0.0011775759 1.5321948e-05 0.00021991388 0.0011522325
0.0011596663 6.337529e-05 0.00026273573 0.0015466898 0.00096244086 0.00020691178 0.0005243699 0.0009864555
00000000: 7363 843a e55e b93a 1fbf bf3a b548 8e3a
00000010: 8544 6a3a 3247 8b3a 9ce9 833a f44d 3c38
00000020: 29e4 6a38 569f 9b3a 0edf 1339 139e 9b3a
00000030: 7920 903a db9a 903a a3c6 0238 addd bd37
00000040: f3a8 6739 8184 8a3a a67b 713a 64b5 9e3a
00000050: d21d d83a 47b6 ba3a 5809 7b3a a4b6 e037
00000060: de1f 0c38 a36d b73a 4d18 f836 57be 3738
00000070: cc2e 643a 039d ef3a 8376 653a 579b ae3a
00000080: b8f9 703a a47a e537 a1bb 923a 811e 833a
00000090: e8f8 7339 f992 4037 8eb3 893a fe7c f03a
000000a0: f7ff df3a d5be 803a d44f cb3a 59b1 8e3a
000000b0: 8bbe 8b3a d8ec b73a a20f 843a d359 d03a
000000c0: 8aa8 733a d2b6 c63a a715 9137 7db4 9f3a
000000d0: e458 9a3a a287 8037 af98 6639 8206 973a
000000e0: f2ff 973a 5ae8 8438 cbbf 8939 4cba ca3a
000000f0: 504c 7c3a 75f6 5839 de75 093a f44b 813a
