savedModels/ppo_cartpole_final.pth (torch, 13659 bytes, 15 tensors)

shared_fc.0.weight f4 [64, 4]
-0.022926101 0.39415264 0.15024199 -0.23415528 -0.100489184 -0.095651336 -0.7370826 -0.19155096
-0.03528995 -0.35587126 -0.4834296 -0.41041496 -0.06641526 -0.091186255 -0.49768612 -0.16347046
0.039132714 0.019198969 -0.7700636 -0.13395694 0.009285387 0.0756262 -0.37918514 -0.13111444
-0.1591936 0.19024128 0.41470522 0.2712013 0.007815986 -0.0034909868 -0.26781315 -0.14771408
0.17892079 -0.026779458 -0.0800515 0.043016538 0.26297298 0.12661003 0.085843235 -0.23157601
0.3180705 -0.31010687 -0.23691076 -0.11147538 0.009877378 -0.15142351 -0.22014795 0.06892105
-0.017535582 0.051356267 0.37879342 0.21502122 -0.095216155 -0.0009043738 0.16776724 0.054614775
0.054780994 0.09515009 -0.19998994 -0.059598826 0.08650495 0.09753567 0.13179137 0.110791616
-0.07968459 -0.2734318 -0.18238014 -0.15446295 0.2817725 0.21364997 0.04714519 0.07357332
-0.0070838225 -0.06398087 -0.384011 -0.1595508 -0.20808986 0.24259484 0.292586 0.13169593
-0.032401692 -0.050600663 0.2515197 0.21551418 -0.2092274 0.21306176 0.4280935 -0.090856105
0.03643168 0.12667447 0.12925158 0.422939 0.02402193 -0.095139414 -0.056568876 -0.01191046
0.09024442 0.040302545 -0.031226803 0.26458666 0.06165936 -0.29708338 -0.36446872 -0.0945162
0.039862152 0.11482747 0.24654143 0.089755245 0.15284069 0.054349083 0.17305738 0.078921266
-0.054465573 0.07012489 0.39395365 0.17810068 -0.09519787 -0.26987427 0.406805 0.278848
0.11989758 -0.014267268 0.5099501 0.14462899 0.045874473 -0.13119698 0.20398903 -0.011238621
-0.013401705 -0.025904616 -0.47577357 -0.12286167 0.16916326 -0.13740315 -0.1090194 -0.30413973
0.28999195 -0.08134223 -0.5043026 -0.12737477 -0.14825349 0.1448397 0.3634279 0.19334702
-0.22470558 -0.026759764 0.12664253 -0.1416179 -0.01241277 0.27061796 0.18817332 0.1452365
-0.0297293 -0.07045116 0.28381982 0.05067133 -0.2707409 0.10068613 0.0008632476 0.3324492
-0.18592082 0.055986427 0.46566698 0.08314802 -0.1903306 0.4633287 0.026998231 -0.19167218
-0.2534877 0.23374332 -0.31425756 -0.09355644 0.07158711 -0.077830814 -0.28134868 -0.134407
0.4852084 0.022408538 -0.17372476 0.19750534 0.21241437 -0.3760042 0.22919704 0.094741166
-0.019044124 -0.12077704 0.85476184 0.18523929 0.11366603 -0.32705724 0.23777977 -0.026018959
0.08810336 -0.08108351 0.16039109 -0.042098824 -0.08489617 -0.16864087 -0.4883806 -0.32393962
-0.025085403 0.012840627 0.37520185 0.16108806 0.20636433 0.330382 -0.057122923 -0.5056106
0.18570842 0.088574305 0.41099408 0.26636425 0.023704503 0.0057122568 0.40916768 0.06733545
0.06182099 0.03481358 -0.43224564 -0.219144 -0.04116003 0.045749635 -0.20488662 -0.40653372
0.19543974 0.01629862 -0.15638529 -0.13452688 -0.18576036 0.06779376 0.03173684 0.23844601
0.25313607 0.23385423 -0.31159803 -0.105543874 -0.39963266 0.25805968 -0.12210755 -0.33138213
-0.006088975 0.1922474 -0.1209521 -0.11262264 0.37353715 0.033806756 0.388097 -0.003077052
0.05350345 -0.05006967 -0.6717092 0.028654097 0.03731806 0.1697678 -0.13789225 -0.1943504
00000000: 85cf bbbc 60ce c93e 09d9 193e 67c6 6fbe
00000010: 46cd cdbd d9e4 c3bd 72b1 3cbf ef25 44be
00000020: 328c 10bd c234 b6be 1684 f7be e921 d2be
00000030: b904 88bd dcbf babd b7d0 febe cd64 27be
00000040: a049 203d 2847 9d3c e322 45bf 022c 09be
00000050: bc21 183c e9e1 9a3d 8e24 c2be dd42 06be
00000060: a603 23be 9cce 423e 3e54 d43e e6da 8a3e
00000070: 9f0e 003c 0ac9 64bb ce1e 89be 5c42 17be
00000080: 0337 373e 9860 dbbc 0af2 a3bd 1c32 303d
00000090: 65a4 863e 0fa6 013e 94ce af3d 4322 6dbe
000000a0: 23da a23e 54c6 9ebe bc98 72be 344d e4bd
000000b0: bad4 213c c40e 1bbe 776e 61be 7b26 8d3d
000000c0: c8a6 8fbc f35a 523d 36f1 c13e 862e 5c3e
000000d0: b000 c3bd 8013 6dba 2dcb 2b3e beb3 5f3d
000000e0: 0962 603d 0dde c23d 2aca 4cbe e61d 74bd
000000f0: 8229 b13d c8c0 c73d 51f4 063e b7e6 e23d
00000100: ad31 a3bd 41ff 8bbe dcc1 3abe 892b 1ebe
00000110: 7c44 903e 0fc7 5a3e 511b 413d 9cad 963d
00000120: 691f e8bb 6708 83bd 179d c4be 4961 23be
00000130: 8215 55be c86a 783e d5cd 953e 4cdb 063e
00000140: a3b7 04bd a442 4fbd 31c7 803e c0af 5c3e
00000150: b53f 56be dd2c 5a3e 122f db3e c412 babd
00000160: 6339 153d f4b6 013e 875a 043e 768b d83e
00000170: a3c9 c43c 74d8 c2bd c4b4 67bd 1724 43bc
00000180: 11d2 b83d 4814 253d 5acf ffbc e777 873e
00000190: 868e 7c3d 501b 98be a59b babe b691 c1bd
000001a0: 7f46 233d aa2a eb3d 5b75 7c3e 99d1 b73d
000001b0: 4582 1c3e 259d 5e3d f435 313e 79a1 a13d
000001c0: 4b17 5fbd a39d 8f3d 4bb4 c93e 0660 363e
000001d0: 1af7 c2bd f62c 8abe bf48 d03e 2ac5 8e3e
000001e0: dd8c f53d 42c1 69bc 178c 023f 9f19 143e
000001f0: dfe6 3b3d 8058 06be 80e2 503e 3122 38bc
00000200: d392 5bbc eb35 d4bc 9898 f3be e69e fbbd
00000210: 2239 2d3e 69b3 0cbe 9045 dfbd 34b8 9bbe
00000220: d379 943e c196 a6bd fa19 01bf 886e 02be
00000230: c3cf 17be dc50 143e 3913 ba3e c3fc 453e
00000240: 3819 66be 4b37 dbbc 94ae 013e 4804 11be
00000250: ee5e 4bbc 708e 8a3e 82b0 403e e1b8 143e
00000260: dc8a f3bc b348 90bd d550 913e be8c 4f3d
00000270: 8d9e 8abe 8834 ce3d 914b 623a c836 aa3e
00000280: 0762 3ebe 0652 653d e76b ee3e 8249 aa3d
00000290: 06e6 42be 6b39 ed3e 652b dd3c b645 44be
000002a0: 24c9 81be 695a 6f3e 5ee6 a0be 859a bfbd
000002b0: 439c 923d c365 9fbd ef0c 90be fda1 09be
000002c0: 3c6d f83e 1c92 b73c e7e4 31be d73e 4a3e
000002d0: 2783 593e 9f83 c0be a1b2 6a3e a807 c23d
000002e0: 6c02 9cbc f459 f7bd acd1 5a3f 5eaf 3d3e
000002f0: bcc9 e83d 0c74 a7be 8a7c 733e b625 d5bc
00000300: 896f b43d 1c0f a6bd 903d 243e d16f 2cbd
00000310: 0bde adbd 31b0 2cbe 060d fabe 6adb a5be
00000320: e77f cdbc 7e61 523c 751a c03e 45f4 243e
00000330: 2c51 533e d427 a93e baf9 69bd b26f 01bf
00000340: 592a 3e3e 7266 b53d d16d d23e e560 883e
00000350: f22f c23c e22d bb3b 6d7e d13e 2be7 893d
00000360: 0238 7d3d af98 0e3d 4d4f ddbe 4967 60be
00000370: 6b97 28bd f863 3b3d cccd 51be 3025 d0be
00000380: 5b21 483e af84 853c 7723 20be 6ac1 09be
00000390: f737 3ebe 74d7 8a3d 7dfe 013d 312b 743e
000003a0: 0d9b 813e 7c77 6f3e c789 9fbe 6327 d8bd
000003b0: a79c ccbe 6620 843e 8613 fabd ebaa a9be
000003c0: 0686 c7bb 81dc 443e bcb5 f7bd b3a6 e6bd
000003d0: 4340 bf3e f478 0a3d a6b4 c63e 5ea8 49bb
000003e0: 6f26 5b3d db15 4dbd 22f5 2bbf ffbb ea3c
000003f0: d2da 183d 9cd7 2d3e a033 0dbe cb03 47be

shared_fc.0.bias f4 [64]
0.54265547 0.60730946 0.59010106 0.59019953 0.6084343 -0.18858683 0.57406616 -0.148014
-0.22837165 0.5873594 -0.13949648 0.5689586 0.5596994 0.5857302 -0.21655752 -0.2192339
-0.1656886 -0.011763395 0.6105103 0.60633475 0.6676974 0.6467928 0.582343 -0.14283398
-0.22118676 0.56899154 -0.12514845 -0.24276078 0.47237605 0.57888186 0.59883 0.63351375
0.6326402 -0.20129475 0.57823807 0.57102346 -0.2884718 -0.18124633 0.5792566 0.6211038
0.59578407 0.5398241 0.6497266 0.63974094 0.5364912 0.6186669 0.041512553 0.6268739
0.62103325 0.6001669 -0.10679666 0.534355 0.62798834 0.25803256 -0.21766818 0.65840167
0.61783636 -0.23322499 -0.30278748 0.5722497 0.44062242 -0.23279887 0.44112024 0.5790957
00000000: 78eb 0a3f a278 1b3f dd10 173f 5117 173f
00000010: 5ac2 1b3f e81c 41be 00f6 123f fb90 17be
00000020: 42da 69be 305d 163f 2ad8 0ebe 45a7 113f
00000030: 7648 0f3f 6af2 153f 41c1 5dbe da7e 60be
00000040: 46aa 29be 41bb 40bc 674a 1c3f c138 1b3f
00000050: 38ee 2a3f 3794 253f 6e14 153f 1243 12be
00000060: c87e 62be 6ea9 113f ea26 00be 4896 78be
00000070: 46db f13e 9a31 143f ec4c 193f f52d 223f
00000080: b5f4 213f 3620 4ebe 6907 143f 982e 123f
00000090: 93b2 93be a398 39be 294a 143f a900 1f3f
000000a0: 4e85 183f ea31 0a3f 7c54 263f 10c6 233f
000000b0: 7d57 093f f460 1e3f 1109 2a3d cf7a 203f
000000c0: 09fc 1e3f 8aa4 193f 35b8 dabd 7dcb 083f
000000d0: d8c3 203f d81c 843e 68e4 5ebe 038d 283f
000000e0: 862a 1e3f 88d2 6ebe f606 9bbe f57e 123f
000000f0: 4399 e13e d462 6ebe 83da e13e 9e3f 143f

actor_head.weight f4 [2, 64]
0.006215445 0.21568747 0.14409514 0.190431 0.16502748 -0.18541509 -0.23106799 -0.012476617
0.0901596 0.0006717276 0.08979658 -0.06663733 -0.21522573 -0.110737555 -0.115264535 0.014669376
0.03907662 -0.0351838 0.118846826 -0.13419345 -0.14192408 -0.05831631 -0.13016972 0.07524663
0.008316251 0.010557888 -0.064770915 0.012973677 -0.28408277 -0.13267142 -0.20637788 -0.09791999
0.12622444 -0.057404857 0.1576452 -0.22856304 0.010836924 -0.10186826 -0.16733612 -0.1220414
-0.17771941 0.02841472 0.08620399 0.09835871 -0.027958572 -0.09118078 -0.12076998 -0.11742978
-0.038648304 0.18385589 -0.04104645 0.046560563 -0.16484417 -0.3348955 -0.03952718 0.053866774
0.042725757 0.019723602 0.028155291 0.074671544 0.006176946 -0.06544232 0.27890286 0.029019928
-0.0018228298 -0.2261341 -0.15515465 -0.19350687 -0.18973908 0.1894868 0.24057375 0.015865061
-0.10600381 -0.02956039 -0.047355123 0.055767383 0.22591092 0.13742752 0.098874286 -0.028414706
-0.10003891 0.033296756 -0.13080683 0.12778264 0.1154527 0.039173815 0.14172101 -0.09530206
-0.029148258 -0.02087469 0.08382228 -0.0072349375 0.24944954 0.14160392 0.2246033 0.12213376
-0.13297449 0.062663905 -0.14133847 0.24033938 0.0023397238 0.088014975 0.15626982 0.11041246
0.16451657 -0.016845739 -0.08313666 -0.10779084 -0.0036531107 0.11454547 0.10637634 0.11728911
0.060717843 -0.1863 0.041705776 -0.023802664 0.17897442 0.3370216 0.031955853 -0.06335181
-0.042620875 -0.02011839 -0.025602715 -0.067619786 0.0051227617 0.06707666 -0.2683581 -0.06307631
00000000: efaa cb3b 2ddd 5c3e ad8d 133e 5800 433e
00000010: f7fc 283e 74dd 3dbe 169d 6cbe b96a 4cbc
00000020: 99a5 b83d e016 303a 45e7 b73d 2779 88bd
00000030: 2264 5cbe 5fca e2bd d00f ecbd d357 703c
00000040: ce0e 203d e31c 10bd f765 f33d 026a 09be
00000050: 8c54 11be 15dd 6ebd 364b 05be e81a 9a3d
00000060: e340 083c fefa 2c3c 9da6 84bd 8c8f 543c
00000070: 4c73 91be 04db 07be b954 53be 478a c8bd
00000080: fb40 013e 5b21 6bbd be6d 213e 6e0c 6abe
00000090: 5b8d 313c 4ea0 d0bd 295a 2bbe d7f0 f9bd
000000a0: 14fc 35be fdc5 e83c b88b b03d 4b70 c93d
000000b0: 6009 e5bc fdbc babd 4056 f7bd 067f f0bd
000000c0: af4d 1ebd b844 3c3e 5320 28bd 4ab6 3e3d
000000d0: e9cc 28be 6c77 abbe 41e7 21bd 68a3 5c3d
000000e0: 3401 2f3d 6493 a13c eda5 e63c 65ed 983d
000000f0: fb67 ca3b a006 86bd 5bcc 8e3e 33bb ed3c
00000100: 05ec eeba b38f 67be dce0 1ebe aa26 46be
00000110: f64a 42be d408 423e f758 763e 72f7 813c
00000120: 8718 d9bd a228 f2bc 72f7 41bd 576c 643d
00000130: 3155 673e cdb9 0c3e 9a7e ca3d f5c5 e8bc
00000140: 33e1 ccbd 2e62 083d 3af2 05be 74d9 023e
00000150: 7772 ec3d b974 203d 501f 113e ba2d c3bd
00000160: 54c8 eebc 6601 abbc 04ab ab3d 0e13 edbb
00000170: b36f 7f3e 9e00 113e 68fe 653e 4421 fa3d
00000180: 772a 08be ef55 803d 08bb 10be 871b 763e
00000190: 0d56 193b 3241 b43d 3205 203e ee1f e23d
000001a0: 0877 283e 1300 8abc 8e43 aabd 72c1 dcbd
000001b0: 0769 6fbb d196 ea3d d7db d93d 4635 f03d
000001c0: 46b3 783d 6dc5 3ebe add3 2a3d cefd c2bc
000001d0: 1245 373e 188e ac3e 24e4 023d 98be 81bd
000001e0: 3a93 2ebd 52cf a4bc c9bc d1bc 3e7c 8abd
000001f0: d7dc a73b 7d5f 893d 3c66 89be 272e 81bd

actor_head.bias f4 [2]
-0.010327545 0.01032756
00000000: dd34 29bc ed34 293c

critic_head.weight f4 [1, 64]
0.37071878 0.50682545 0.4428767 0.6272353 0.56420743 -0.34713265 0.5644022 -0.30806044
-0.23738037 0.30470207 -0.026235346 0.67152977 0.5038456 0.631677 -0.45494652 -0.21056035
-0.023052497 0.0076597463 0.64854664 0.57907337 0.3893576 0.492183 0.57780206 -0.0799502
-0.09754373 0.5951017 -0.18222882 -0.17530385 0.4409999 0.38394144 0.56000984 0.52717173
0.5950896 -0.26230475 0.40380535 0.6847679 -0.14723754 -0.14898214 0.6515965 0.35842338
0.37355635 0.43550834 0.46407565 0.5120892 0.703971 0.43046486 -0.017457696 0.45206383
0.6093032 0.4483159 -0.17352752 0.35057825 0.42330426 0.2509072 -0.21206872 0.40955108
0.36306143 -0.14075698 -0.06350408 0.4225671 0.20753849 -0.119724564 0.52591157 0.4153794
00000000: dace bd3e 50bf 013f bcc0 e23e 7e92 203f
00000010: e66f 103f 5fbb b1be aa7c 103f 19ba 9dbe
00000020: d713 73be e901 9c3e 82eb d6bc 60e9 2b3f
00000030: 06fc 003f 95b5 213f c0ee e8be 229d 57be
00000040: 97d8 bcbc 9cfe fa3b 2707 263f 273e 143f
00000050: e159 c73e 69ff fb3e d6ea 133f eebc a3bd
00000060: 02c5 c7bd 9658 183f 319a 3abe da82 33be
00000070: bdca e13e f993 c43e ce5c 0f3f baf4 063f
00000080: cb57 183f cf4c 86be 93bf ce3e f34c 2f3f
00000090: 70c5 16be c68e 18be 07cf 263f 4583 b73e
000000a0: c742 bf3e f3fa de3e 539b ed3e 4718 033f
000000b0: 7237 343f e465 dc3e 7103 8fbc e974 e73e
000000c0: 4bfb 1b3f a989 e53e 33b1 31be fe7e b33e
000000d0: 56bb d83e e976 803e 8b28 59be aeb0 d13e
000000e0: 30e3 b93e 9922 10be 6d0e 82bd b75a d83e
000000f0: f884 543e 2732 f5bd 24a2 063f 9cac d43e

exp_avg f4 [64, 4]
-0.008689496 -0.0029041187 0.0055413162 0.007988116 -0.008631359 0.0057877 0.00916284 0.007978846
-0.007284035 0.005137142 0.007990935 0.007043967 -0.010725277 0.007151891 0.011338696 0.009848122
-0.009645043 0.006433857 0.010199385 0.00886005 0.006203231 0.0066165156 -0.0015487369 -0.006192059
-0.002174473 0.0051526413 0.009491529 0.008062983 0.0016940889 0.0030513185 -0.0015846187 -0.006054538
0.011232132 0.001525404 -0.0010027695 -0.000239548 -0.010356071 -0.00033691686 0.0048744027 0.005386529
0.0012168045 -0.00028308327 -0.00024364567 5.999635e-05 -0.011456362 0.0077774357 0.012129112 0.010360659
-0.008814728 0.005695118 0.009103456 0.007789697 -0.010970044 0.0071603144 0.011415016 0.009815293
0.011817602 0.007694214 -0.0014060437 -0.0046503693 0.0044014114 0.0015801524 -0.0003523933 -0.00012867348
-0.0008658831 -0.0006738625 -0.0001923567 -0.00014172825 -0.00045162562 -0.00013498988 6.343087e-05 5.0693405e-05
-0.011128864 0.0073850877 0.011723026 0.010158923 -0.0007979421 0.0045491 0.0096511375 0.008827832
-0.006846937 0.0043737656 0.0070359022 0.0060736127 -0.0015489339 0.0038267714 0.008261003 0.008387213
-0.012219812 0.0063038375 0.010067562 0.007069761 0.00016762917 -0.00088922505 -0.00014972512 8.456756e-05
0.0022596829 -0.00019229863 -0.00024257728 0.00059804844 -0.010264325 0.006763359 0.010755727 0.009289821
0.0027558168 0.001474709 -0.00015425669 -0.00035593132 0.007826649 0.0011647631 -0.00063238345 -0.0002709508
-0.007510028 0.004984893 0.0079383105 0.0067237243 0.0011240944 0.010461938 0.0058912626 0.001820304
-0.010612207 0.006275389 0.009987446 0.00827528 -0.009158593 0.0059748436 0.009526424 0.00818935
-0.010203548 0.00677837 0.010756933 0.009326432 0.011268809 0.002678196 -0.0015758845 -0.0037878943
-0.008251634 0.0042210394 0.0072549297 0.0063510383 -0.005166952 0.0066990955 0.011723906 0.010045964
-0.0045045232 -0.0018414087 -0.00054170145 -0.0009798784 0.0019560817 0.0017702427 -0.00018613365 -0.00077441504
-0.011333958 0.0073816124 0.011774557 0.010113887 0.003543459 0.005378725 0.00562882 0.0038809169
-0.0012282007 0.0039818925 0.0061767544 0.005493621 -0.0036449574 -0.0027439173 0.0064252163 0.009659981
-0.002330679 0.0035527716 0.007913692 0.007976824 -0.008784896 0.0058318293 0.009256499 0.008022894
-0.035241075 -0.002424001 0.009935049 0.007069443 -0.008377321 0.0061177835 0.007538797 0.005017054
-0.0002815724 -0.0005107015 -7.61522e-05 0.00018368897 -0.0077486658 0.0052411375 0.008162324 0.0069354437
-0.010544256 0.00691601 0.011011576 0.00949026 -0.007640479 0.0051296228 0.008105862 0.007051694
-0.00020751829 -0.00032196057 -2.9909688e-05 0.00028560107 -0.013078765 -0.003803676 0.005005374 0.0077088913
-0.013920315 0.002764565 0.006825903 0.00440494 -0.0053108255 0.0025121297 0.0044049746 0.003569566
0.006188354 0.003930261 -0.0012008576 -0.004196853 -0.007103747 0.004608312 0.0073999423 0.006446536
-0.0061454554 0.0042089536 0.006578554 0.0057126186 -0.0022234009 -0.001299878 -0.00024241568 0.00032903376
0.0034526822 0.001281404 -0.0003860464 -0.0006611805 0.007122404 0.0034686676 0.0062993234 0.008410902
-0.0038799418 0.0017690116 0.0036994761 0.003438603 0.006520225 0.00167908 -0.00057033024 -0.00059215573
-0.008932786 0.0060115606 0.009508451 0.008293662 -0.0074047134 0.004249925 0.0074802246 0.0067963824
00000000: 635e 0ebc 0753 3ebb ee93 b53b 96e0 023c
00000010: 8b6a 0dbc bfa6 bd3b bd1f 163c b5b9 023c
00000020: eaae eebb 7855 a83b 69ec 023c 14d1 e63b
00000030: 12b9 2fbc 695a ea3b f0c5 393c 045a 213c
00000040: 3e06 1ebc 1bd3 d23b 521b 273c be29 113c
00000050: 7944 cb3b 5bcf d83b fdfe caba c1e6 cabb
00000060: 9a81 0ebb 7dd7 a83b 5c82 1b3c 9a1a 043c
00000070: 310c de3a a1f8 473b fbb2 cfba 2565 c6bb
00000080: fa06 383c 11f0 c73a 5c6f 83ba 2d2f 7bb9
00000090: 83ac 29bc 37a4 b0b9 74b9 9f3b 7b81 b03b
000000a0: 2f7d 9f3a cb6a 94b9 237b 7fb9 97a4 7b38
000000b0: 77b3 3bbc dcd9 fe3b 2fb9 463c c1bf 293c
000000c0: a66b 10bc 1d9e ba3b a926 153c b740 ff3b
000000d0: b3bb 33bc 12a1 ea3b 0c06 3b3c 53d0 203c
000000e0: 9e9e 413c bf1f fc3b ff4a b8ba 2062 98bb
000000f0: b739 903b 1e1d cf3a 6ec1 b8b9 86ec 06b9
00000100: 6efc 62ba 26a6 30ba 5cb3 49b9 e39c 14b9
00000110: 2ac8 ecb9 128c 0db9 3006 8538 a19f 5438
00000120: d755 36bc 9bfe f13b ef11 403c 9d71 263c
00000130: fd2c 51ba 9e10 953b ce1f 1e3c 9ca2 103c
00000140: 455c e0bb ce51 8f3b 6d8d e63b 2805 c73b
00000150: 9905 cbba 92ca 7a3b 2859 073c 856a 093c
00000160: 9b35 48bc 6c90 ce3b 6af2 243c 74a9 e73b
00000170: 9dc5 2f39 e21a 69ba 88ff 1cb9 dd59 b138
00000180: 3017 143b c5a3 49b9 585c 7eb9 5ac6 1c3a
00000190: b32b 28bc 2b9f dd3b ca38 303c 5534 183c
000001a0: ef9a 343b 064b c13a f7bf 21b9 4b9c bab9
000001b0: 583b 003c f7aa 983a 89c6 25ba 670e 8eb9
000001c0: ae16 f6bb 5058 a33b b00f 023c b052 dc3b
000001d0: 5956 933a 8c68 2b3c 7e0b c13b 4497 ee3a
000001e0: d3de 2dbc c7a1 cd3b 62a2 233c 0a95 073c
000001f0: ec0d 16bc 9fc8 c33b b814 1c3c a02c 063c
00000200: c82c 27bc 171d de3b d93d 303c e4cd 183c
00000210: d0a0 383c ac84 2f3b e98d ceba 523e 78bb
00000220: dd31 07bc a550 8a3b c3ba ed3b 5f1c d03b
00000230: 894f a9bb 1684 db3b a015 403c d497 243c
00000240: ae9a 93bb 6c5b f1ba f800 0eba 436f 80ba
00000250: 9b31 003b 7d07 e83a df2c 43b9 1d02 4bba
00000260: 11b2 39bc 74e1 f13b 12ea 403c b7b4 253c
00000270: 6139 683b 0440 b03b f771 b83b fb56 7e3b
00000280: 94fb a0ba 897a 823b 5f66 ca3b d503 b43b
00000290: 3de0 6ebb 4bd3 33bb 9f8a d23b e644 1e3c
000002a0: 4ebe 18bb 9ed5 683b 6ea8 013c 3ab1 023c
000002b0: 86ee 0fbc ee18 bf3b 92a8 173c 7572 033c
000002c0: f258 10bd fddb 1ebb 9ec6 223c c9a6 e73b
000002d0: 0841 09bc b077 c83b 0308 f73b 1966 a43b
000002e0: 02a0 93b9 99e0 05ba e7b3 9fb8 a29c 4039
000002f0: 85e8 fdbb d9bd ab3b 45bb 053c b842 e33b
00000300: d1c1 2cbc b29f e23b e669 343c 097d 1b3c
00000310: fc5c fabb 6516 a83b 73ce 043c e611 e73b
00000320: 4499 59b9 d1cc a8b9 91e6 fab7 babc 9539
00000330: 5148 56bc 1847 79bb 1f04 a43b de9a fc3b
00000340: 0812 64bc b42d 353b d3ab df3b 5157 903b
00000350: 6f06 aebb 8ba2 243b 9b57 903b 61ef 693b
00000360: adc7 ca3b 6bc9 803b 1866 9dba c185 89bb
00000370: 8dc6 e8bb 5301 973b 377b f23b 773d d33b
00000380: d15f c9bb 43eb 893b e990 d73b eb30 bb3b
00000390: 7ab6 11bb ab60 aaba f730 7eb9 2a82 ac39
000003a0: 6546 623b c9f4 a73a 4566 cab9 1253 2dba
000003b0: 0e63 e93b 9652 633b 8e6a ce3b e1cd 093c
000003c0: 9f46 7ebb 2ede e73a e972 723b 2f5a 613b
000003d0: 9da7 d53b 9314 dc3a 3782 15ba e63a 1bba
000003e0: d25a 12bc a0fc c43b 56c9 1b3c 24e2 073c
000003f0: 3da3 f2bb f442 8b3b ac1c f53b 30b4 de3b

exp_avg_sq f4 [64, 4]
0.00035320903 0.00012383146 2.361436e-05 9.253369e-05 0.0009766654 0.0004159696 6.362063e-05 0.00015620443
0.0005555402 0.00022877727 4.7448106e-05 0.00010359214 0.0013045134 0.00056478666 9.662141e-05 0.00023128938
0.0010676407 0.0004618983 7.823617e-05 0.00018817124 0.00031121788 0.00016002495 3.8600692e-06 6.128681e-05
0.0010409317 0.00046141597 7.3430085e-05 0.00016722962 9.3805895e-05 5.512293e-05 2.7733618e-06 4.5823643e-05
0.00021758312 5.5390217e-05 1.402224e-06 1.3968663e-05 0.00025167712 8.4146486e-05 1.839749e-05 5.3007043e-05
1.9970323e-05 6.392238e-06 1.7484642e-07 1.4437943e-06 0.0012816453 0.0005518958 0.00010993403 0.00024491243
0.000944203 0.00039484102 6.350825e-05 0.0001531786 0.0011917306 0.00052028673 9.784421e-05 0.00022752983
0.0005495538 0.00020586059 3.8098976e-06 5.1879648e-05 0.000101055964 3.0317184e-05 4.795977e-07 7.375683e-06
7.4306645e-06 3.1244415e-06 1.153315e-07 3.9702303e-07 4.5677293e-06 1.6354136e-06 3.0403697e-08 3.520442e-07
0.0012761187 0.0005591218 0.00010271578 0.00024004135 0.00092728616 0.00043824984 7.50631e-05 0.00018925607
0.0004812702 0.00019431602 3.6842313e-05 7.6421275e-05 0.00060584064 0.00029080236 5.3017546e-05 0.00013366947
0.0010224184 0.00043569674 7.687908e-05 0.00015639883 5.7029706e-06 3.8005583e-06 5.7079653e-08 4.1441479e-07
2.0018251e-05 4.269971e-06 9.97529e-08 1.0965342e-06 0.0009979096 0.00041345472 8.593586e-05 0.00019142358
8.882915e-05 3.0717067e-05 3.810249e-07 7.166256e-06 8.966008e-05 2.2147347e-05 5.0123697e-07 5.982443e-06
0.0008710586 0.00035451585 4.950423e-05 0.00012280978 0.00026159233 0.00015401257 2.6894815e-05 3.259614e-05
0.0010843311 0.000467887 7.6333345e-05 0.00018408992 0.00083158136 0.00036272604 6.8074325e-05 0.00015825914
0.0010891838 0.00047633017 8.648558e-05 0.00020274105 0.00022330026 6.167832e-05 2.5155377e-06 2.4858587e-05
0.0004964754 0.0002042955 3.901153e-05 9.469716e-05 0.0014657361 0.00065904885 0.00011031669 0.00025879306
2.4279476e-05 8.072807e-06 1.9950437e-07 1.3165476e-06 6.801485e-05 3.0508121e-05 3.337651e-07 6.0366533e-06
0.0013211567 0.00057209434 0.00010459026 0.00024558607 0.0002004472 0.00011429876 2.5829137e-05 4.247251e-05
0.00032154814 0.0001632912 3.0359548e-05 6.0790473e-05 0.0004608011 0.0001790754 3.207675e-05 0.00012523432
0.0005699787 0.00027324448 4.9006227e-05 0.00011577817 0.00079184386 0.0003470524 6.387927e-05 0.00014885211
0.0016241587 0.00048657114 8.677268e-05 0.00022564302 0.00056205643 0.00023522909 4.2380005e-05 7.606411e-05
1.5479229e-05 6.3895654e-06 1.0857438e-07 8.920516e-07 0.0006240318 0.00024815273 4.9390303e-05 0.00010229211
0.0010624056 0.0004677199 9.059156e-05 0.00020856805 0.0007050298 0.00031030338 4.946131e-05 0.00011495728
9.944679e-06 5.272291e-06 3.51835e-08 2.3153336e-06 0.00034646576 0.00011568619 1.9580148e-05 8.494896e-05
0.0006248516 0.00023519706 3.8052458e-05 9.577199e-05 0.00069887255 0.00027814135 1.8236464e-05 6.782024e-05
0.00011504481 4.803101e-05 1.7293667e-06 2.2970293e-05 0.00047848996 0.0002066976 4.0433784e-05 8.9712674e-05
0.00034160243 0.00014408538 3.1413427e-05 7.270997e-05 1.6338285e-05 6.8912727e-06 9.5693544e-08 1.0991263e-06
1.6514165e-05 5.2498813e-06 1.5297945e-07 1.4764839e-06 0.00031540252 0.00019592597 3.176913e-05 9.798259e-05
0.000103813465 4.0674968e-05 9.728551e-06 2.3322149e-05 6.647157e-05 1.8346973e-05 4.438131e-07 4.5698685e-06
0.0011723884 0.0004936563 6.9386326e-05 0.00017950412 0.00046164 0.00018438621 4.0533483e-05 9.7180746e-05
00000000: ea2e b939 c1d8 0139 7417 c637 a60e c238
00000010: 7403 803a 7f16 da39 116c 8538 cfca 2339
00000020: aca1 113a eee3 6f39 0403 4738 9b3f d938
00000030: 35fc aa3a 310e 143a 39a1 ca38 4586 7239
00000040: 14f0 8b3a f12a f239 b912 a438 d54f 4539
00000050: f52a a339 5fcc 2739 be85 8136 1b87 8038
00000060: df6f 883a 34ea f139 7afe 9938 5c5a 2f39
00000070: a8b9 c438 cc33 6738 fe1d 3a36 c332 4038
00000080: 0627 6439 cb52 6838 0d34 bc35 f35a 6a37
00000090: 88f3 8339 cd77 b038 4f54 9a37 e153 5e38
000000a0: f185 a737 e87c d636 6bbd 3b34 65c8 c135
000000b0: e1fc a73a 1aad 103a 628c e638 9767 8039
000000c0: 6484 773a aa02 cf39 bb2f 8538 919e 2039
000000d0: d833 9c3a da63 083a b631 cd38 1395 6e39
000000e0: ee0f 103a 48dc 5739 8bad 7f36 5999 5938
000000f0: 02ee d338 a851 fe37 b4bd 0035 a27c f736
00000100: ec54 f936 7fad 5136 2aac f733 6e26 d534
00000110: 7f44 9936 6280 db35 3895 0233 9600 bd34
00000120: 7043 a73a 0792 123a 1d69 d738 9cb3 7b39
00000130: 1f15 733a e6c4 e539 326b 9d38 0a73 4639
00000140: fe52 fc39 4fc1 4b39 2287 1a38 5c44 a038
00000150: 47d1 1e3a d576 9839 285f 5e38 a029 0c39
00000160: ab02 863a 3a6e e439 243a a138 fefe 2339
00000170: 255c bf36 180d 7f36 be27 7533 bc7c de34
00000180: deec a737 c646 8f36 bd37 d633 a12c 9335
00000190: 4acc 823a f4c4 d839 7738 b438 e0b8 4839
000001a0: c949 ba38 33d6 0038 aa8f cc34 ac75 f036
000001b0: e407 bc38 11c9 b937 be8c 0635 cbbc c836
000001c0: c157 643a 50de b939 c3a2 4f38 80c6 0039
000001d0: 5426 8939 6f7e 2139 2d9c e137 d7b7 0838
000001e0: 1d20 8e3a bb4e f539 2715 a038 4308 4139
000001f0: 7bfe 593a 442c be39 20c3 8e38 5df2 2539
00000200: f2c2 8e3a f4bb f939 985f b538 e396 5439
00000210: b525 6a39 4c59 8138 9cd0 2836 6987 d037
00000220: e625 023a 2838 5639 50a0 2338 2798 c638
00000230: f11d c03a 05c4 2c3a d259 e738 9eae 8739
00000240: c7ab cb37 7170 0737 5837 5634 3bb4 b035
00000250: 32a3 8e38 b1eb ff37 5330 b334 758e ca36
00000260: aa2a ad3a 9af8 153a 7857 db38 01c2 8039
00000270: 232f 5239 aeb3 ef38 a6ab d837 8324 3238
00000280: 7695 a839 2639 2b39 a2ac fe37 46f9 7e38
00000290: ad97 f139 30c6 3b39 268a 0638 5551 0339
000002a0: a06a 153a 4142 8f39 098c 4d38 efcd f238
000002b0: be93 4f3a 96f4 b539 ecf6 8538 2f15 1c39
000002c0: b9e1 d43a 791a ff39 baf9 b538 969a 6c39
000002d0: f856 133a d4a7 7639 2fc1 3138 9c84 9f38
000002e0: 64d9 8137 f365 d636 6629 e933 5275 6f35
000002f0: 1196 233a 7f1a 8239 6f28 4f38 a985 d638
00000300: 6b40 8b3a 4d38 f539 f9fb bd38 0fb3 5a39
00000310: c0d1 383a 37b0 a239 ad74 4f38 3815 f138
00000320: 12d8 2637 a3e8 b036 ab1c 1733 2161 1b36
00000330: d9a5 b539 8d9c f238 0c40 a437 a026 b238
00000340: 15cd 233a 3b9f 7639 849a 1f38 32d9 c838
00000350: 8b34 373a 80d3 9139 82fa 9837 b73a 8e38
00000360: 3644 f138 e774 4938 961c e835 54b0 c037
00000370: d6dd fa39 f7bc 5839 7297 2938 2024 bc38
00000380: 1a19 b339 a015 1739 e9c1 0338 de7b 9838
00000390: 330e 8937 953b e736 1580 cd33 b185 9335
000003a0: e687 8a37 2328 b036 ac42 2434 9a2b c635
000003b0: 9c5c a539 7a71 4d39 d83f 0538 017c cd38
000003c0: 6eb6 d938 6a9a 2a38 cf37 2337 efa3 c337
000003d0: a766 8b38 d3e7 9937 3545 ee34 df56 9936
000003e0: d4aa 993a b768 013a 8083 9138 4539 3c39
000003f0: 4608 f239 cc57 4139 7f02 2a38 84cd cb38

exp_avg f4 [64]
-0.02948688 -0.046713095 -0.04070156 -0.057789855 -0.051984053 0.0070761913 -0.049198564 0.00653493
0.004985003 -0.025452126 0.0010974453 -0.061755173 -0.046323963 -0.05811653 0.0064971545 0.0018091898
0.0008536026 -0.0003373068 -0.059734203 -0.049924392 -0.035828013 -0.042763148 -0.051678833 0.00054487906
0.0011243254 -0.054785967 0.0012386957 0.0033511906 -0.040454235 -0.03042298 -0.051148105 -0.04849999
-0.054814473 0.0074524116 -0.036620185 -0.06076059 0.002431701 0.0012384219 -0.059940405 -0.02915087
-0.032594595 -0.033888694 -0.040659342 -0.047167 -0.052184395 -0.03839236 0.00043214433 -0.041546002
-0.05607627 -0.041316237 0.00022833554 -0.026483718 -0.035802845 -0.022693716 0.005567382 -0.037698824
-0.033408504 0.0011615152 0.0020542368 -0.032218903 -0.018827487 0.0032935117 -0.048483774 -0.037985686
00000000: 788e f1bc 3b56 3fbd aeb6 26bd 0eb5 6cbd
00000010: 3bed 54bd 65df e73b 6f84 49bd f722 d63b
00000020: 3c59 a33b fa80 d0bc 27d8 8f3a fef2 7cbd
00000030: 32be 3dbd 990b 6ebd 15e6 d43b 5622 ed3a
00000040: 4dc4 5f3a 8dd8 b0b9 daab 74bd 857d 4cbd
00000050: 65c0 12bd 6928 2fbd 2fad 53bd 37d6 0e3a
00000060: 1a5e 933a 4067 60bd bb5b a23a a69f 5b3b
00000070: 57b3 25bd 9d39 f9bc ad80 51bd eda7 46bd
00000080: 2485 60bd 5c33 f43b 0cff 15bd 19e0 78bd
00000090: 2c5d 1f3b 8b52 a23a 1284 75bd cecd eebc
000000a0: e981 05bd dfce 0abd 698a 26bd 2f32 41bd
000000b0: 4ebf 55bd 4f41 1dbd 6e91 e239 242c 2abd
000000c0: 3bb0 65bd 373b 29bd 5b6d 6f39 62f4 d8bc
000000d0: 01a6 12bd 2ce8 b9bc 966e b63b 156a 1abd
000000e0: 5bd7 08bd fc3d 983a 60a0 063b f8f7 03bd
000000f0: 1a3c 9abc f5d7 573b ec96 46bd e196 1bbd

exp_avg_sq f4 [64]
0.00067235105 0.0016776881 0.0012513964 0.0025515305 0.0020661745 7.219262e-05 0.0019733335 4.3289096e-05
2.9620409e-05 0.00050749164 3.2177193e-06 0.0028945701 0.00165199 0.0025664615 7.463567e-05 1.1253357e-05
1.5536081e-06 6.665402e-07 0.0027140179 0.0020199316 0.0009711411 0.0014375318 0.0020563693 7.1393595e-07
2.5862187e-06 0.0022673116 1.0584707e-05 1.1610733e-05 0.0012816912 0.00072398025 0.0020161897 0.0017845806
0.002284947 5.064034e-05 0.0010349238 0.0029577217 4.0234954e-06 9.462721e-06 0.0027388209 0.0007038117
0.0008438804 0.00091026054 0.00130693 0.001687491 0.0023970027 0.0011129479 2.2924282e-06 0.0012997552
0.0023849788 0.0013028539 2.054183e-06 0.0005465267 0.001042042 0.00045792063 3.3870056e-05 0.0010669756
0.0008379539 2.1915744e-06 3.5671067e-06 0.0008677179 0.00025994092 1.1200147e-05 0.001825339 0.0010816017
00000000: b740 303a dfe5 db3a e505 a43a 9437 273b
00000010: a868 073b 1e66 9738 0b53 013b 5091 3538
00000020: 5879 f837 3009 053a ffef 5736 d4b2 3d3b
00000030: 9687 d83a 1432 283b b885 9c38 cdcc 3c37
00000040: 9185 d035 4bec 3235 aadd 313b d460 043b
00000050: 2d94 7e3a 906b bc3a 27c4 063b 4ea5 3f35
00000060: e68e 2d36 2d97 143b f894 3137 b8cb 4237
00000070: 6cfe a73a 7ec9 3d3a 0d22 043b 97e8 e93a
00000080: 0dbf 153b a766 5438 48a6 873a 56d6 413b
00000090: 9001 8736 14c2 1e37 ca7d 333b 0180 383a
000000a0: db37 5d3a 8d9e 6e3a 4b4d ab3a cd2e dd3a
000000b0: 0817 1d3b 56e0 913a 9ed7 1936 8c5c aa3a
000000c0: 4e4d 1c3b 86c4 aa3a 98da 0936 c944 0f3a
000000d0: 2195 883a 1115 f039 b20f 0e38 c3d9 8b3a
000000e0: 22aa 5b3a f612 1336 6d62 6f36 9077 633a
000000f0: ae48 8839 44e8 3b37 3740 ef3a 88c4 8d3a

exp_avg f4 [2, 64]
-0.00018542854 -0.00014762375 -0.00017678576 -0.00013000472 -9.390252e-05 -3.117446e-05 -5.5003908e-05 -1.1614274e-05
1.3793461e-06 -0.00015934688 4.054549e-05 -7.166117e-05 -3.6919984e-05 -9.1676346e-05 -3.8436337e-05 -1.29886175e-05
-0.00012096246 -9.8390636e-05 -0.00011371344 -8.374762e-05 -6.2102525e-05 -0.00011899371 2.1976819e-05 -1.1184633e-05
2.1500693e-05 -9.4906994e-05 -1.973749e-05 -1.8097951e-05 -4.0032963e-05 -0.00018362088 -1.704719e-05 -7.944845e-05
-0.00011038567 -4.8027956e-05 -4.6377252e-05 -6.878388e-05 -6.291132e-05 -3.0096775e-05 -7.795556e-05 -0.00016116777
-0.00010408582 -0.00014876005 -0.00014135889 -9.280955e-05 -5.1391955e-05 -3.1974145e-05 -4.2988995e-05 -7.572059e-05
-6.852128e-05 -0.00016734621 -5.6122803e-07 -0.00027857514 -1.9589723e-05 -1.252547e-05 -5.3998712e-05 -0.00016011334
-7.1425864e-05 -4.5002154e-05 -0.00012225303 -0.00015339236 -9.085309e-05 -6.9235e-05 -4.604169e-05 -0.00011092862
0.00018542855 0.00014762381 0.00017678582 0.00013000477 9.3902585e-05 3.117446e-05 5.5003955e-05 1.1614272e-05
-1.3793338e-06 0.00015934689 -4.054547e-05 7.1661205e-05 3.6920013e-05 9.167638e-05 3.8436337e-05 1.2988618e-05
0.00012096247 9.839066e-05 0.00011371348 8.3747625e-05 6.210255e-05 0.000118993725 -2.1976794e-05 1.1184633e-05
-2.150069e-05 9.490707e-05 1.973749e-05 1.8097959e-05 4.0032963e-05 0.00018362094 1.7047216e-05 7.944847e-05
0.00011038568 4.8027963e-05 4.6377303e-05 6.8783884e-05 6.291133e-05 3.0096779e-05 7.7955585e-05 0.00016116779
0.000104085855 0.00014876007 0.0001413589 9.280957e-05 5.1391995e-05 3.1974185e-05 4.2989e-05 7.572062e-05
6.85213e-05 0.00016734617 5.612285e-07 0.00027857523 1.9589766e-05 1.2525485e-05 5.3998712e-05 0.00016011331
7.1425915e-05 4.5002154e-05 0.00012225307 0.00015339236 9.085311e-05 6.9235015e-05 4.6041707e-05 0.00011092867
00000000: 986f 42b9 73cb 1ab9 915f 39b9 e051 08b9
00000010: 88ed c4b8 52c1 02b8 ffb3 66b8 edda 42b7
00000020: f921 b935 5a16 27b9 630f 2a38 cc48 96b8
00000030: 88da 1ab8 5d42 c0b8 b436 21b8 b0e9 59b7
00000040: 3aad fdb8 1257 ceb8 7079 eeb8 a9a1 afb8
00000050: 0a3d 82b8 438c f9b8 dc5a b837 a2a5 3bb7
00000060: 635c b437 ce08 c7b8 f091 a5b7 0ed1 97b7
00000070: 11e9 27b8 5b8a 40b9 9000 8fb7 909d a6b8
00000080: db7e e7b8 a071 49b8 3285 42b8 1040 90b8
00000090: 42ef 83b8 5578 fcb7 137c a3b8 25ff 28b9
000000a0: a648 dab8 79fc 1bb9 bd39 14b9 bfa2 c2b8
000000b0: b18d 57b8 fa1b 06b8 154f 34b8 2fcc 9eb8
000000c0: 15b3 8fb8 a879 2fb9 4ca7 16b5 b90d 92b9
000000d0: 9c54 a4b7 7c24 52b7 ad7c 62b8 19e4 27b9
000000e0: 78ca 95b8 b2c0 3cb8 0c31 00b9 f3d7 20b9
000000f0: 6288 beb8 4232 91b8 e31c 41b8 59a2 e8b8
00000100: 996f 4239 77cb 1a39 955f 3939 e451 0839
00000110: 91ed c438 52c1 0238 0cb4 6638 ebda 4237
00000120: 8c21 b9b5 5b16 2739 5e0f 2ab8 d148 9638
00000130: 90da 1a38 6242 c038 b436 2138 b1e9 5937
00000140: 3bad fd38 1557 ce38 7679 ee38 aaa1 af38
00000150: 0d3d 8238 458c f938 ce5a b8b7 a2a5 3b37
00000160: 615c b4b7 d808 c738 f091 a537 12d1 9737
00000170: 11e9 2738 5f8a 4039 9e00 8f37 939d a638
00000180: dc7e e738 a271 4938 4085 4238 1140 9038
00000190: 43ef 8338 5778 fc37 167c a338 26ff 2839
000001a0: ab48 da38 7afc 1b39 be39 1439 c2a2 c238
000001b0: bc8d 5738 051c 0638 164f 3438 33cc 9e38
000001c0: 18b3 8f38 a579 2f39 54a7 1635 bc0d 9239
000001d0: b454 a437 8c24 5237 ad7c 6238 17e4 2739
000001e0: 7fca 9538 b2c0 3c38 0f31 0039 f3d7 2039
000001f0: 6488 be38 4432 9138 e81c 4138 60a2 e838

exp_avg_sq f4 [2, 64]
0.0001620659 8.280675e-05 9.366805e-05 6.680614e-05 0.00011301561 2.3125383e-06 2.8680326e-05 3.935404e-07
8.327641e-06 0.0002786949 2.6342575e-05 5.5156903e-05 3.6231468e-05 3.8401016e-05 3.4877307e-06 2.281014e-06
1.4637916e-05 0.00013095638 7.150172e-05 3.8059385e-05 5.2693307e-05 4.8258367e-05 7.173868e-05 2.0712275e-08
1.9523407e-06 6.923214e-05 1.6113702e-06 7.1454074e-06 2.0291527e-05 6.862154e-05 7.775104e-05 5.628263e-05
8.066975e-05 7.266058e-06 0.00022536794 2.956153e-05 7.365767e-06 4.261763e-06 3.6843805e-05 6.914896e-05
3.932223e-05 0.000101830396 7.28198e-05 9.251373e-05 0.0004065055 8.6783446e-05 1.7035759e-06 6.427001e-05
7.248061e-05 7.846833e-05 8.108721e-09 0.00037713253 0.00015110825 8.1053795e-06 6.3757534e-06 0.00010114076
0.00018348444 2.902093e-06 9.2928974e-05 8.815189e-05 7.198759e-05 8.4143474e-05 5.741391e-05 0.00012662075
0.00016206587 8.280672e-05 9.366805e-05 6.6806126e-05 0.00011301561 2.3125383e-06 2.8680333e-05 3.935404e-07
8.327639e-06 0.00027869496 2.6342575e-05 5.5156903e-05 3.6231468e-05 3.8401016e-05 3.4877294e-06 2.281014e-06
1.4637916e-05 0.00013095638 7.15017e-05 3.8059385e-05 5.2693307e-05 4.8258367e-05 7.173868e-05 2.0712275e-08
1.9523407e-06 6.923214e-05 1.6113698e-06 7.1454083e-06 2.0291525e-05 6.862154e-05 7.775104e-05 5.628262e-05
8.066975e-05 7.266059e-06 0.00022536794 2.9561534e-05 7.365767e-06 4.261763e-06 3.684381e-05 6.914896e-05
3.932223e-05 0.000101830396 7.2819814e-05 9.251373e-05 0.00040650548 8.678345e-05 1.7035759e-06 6.427001e-05
7.248061e-05 7.846833e-05 8.108718e-09 0.00037713256 0.00015110825 8.1053795e-06 6.3757534e-06 0.00010114076
0.00018348447 2.902093e-06 9.2928974e-05 8.815189e-05 7.198759e-05 8.414348e-05 5.741391e-05 0.00012662075
00000000: 3cf0 2939 89a8 ad38 a76f c438 461a 8c38
00000010: cb02 ed38 1b31 1b36 8896 f037 c847 d334
00000020: f2b6 0b37 cc1d 9239 40fa dc37 4658 6738
00000030: 3ef7 1738 c710 2138 c20e 6a36 8613 1936
00000040: 5f95 7537 5651 0939 32f3 9538 f4a1 1f38
00000050: 0203 5d38 0769 4a38 6972 9638 c6ea b132
00000060: f504 0336 b930 9138 4246 d835 95c2 ef36
00000070: b937 aa37 e9e8 8f38 460e a338 0411 6c38
00000080: 3e2d a938 f7ce f336 bf50 6c39 e7fa f737
00000090: 7527 f736 4400 8f36 bc88 1a38 1104 9138
000000a0: eced 2438 c78d d538 d5b6 9838 ee03 c238
000000b0: 3f20 d539 82ff b538 6ca6 e435 b3c8 8638
000000c0: bb00 9838 5d8f a438 884e 0b32 dfb9 c539
000000d0: d072 1e39 57fc 0737 4eef d536 881b d438
000000e0: bb65 4039 94c1 4236 dde2 c238 30de b838
000000f0: 0bf8 9638 2f76 b038 b7cf 7038 80c5 0439
00000100: 3af0 2939 85a8 ad38 a76f c438 441a 8c38
00000110: cb02 ed38 1b31 1b36 8c96 f037 c847 d334
00000120: f0b6 0b37 ce1d 9239 40fa dc37 4658 6738
00000130: 3ef7 1738 c710 2138 bc0e 6a36 8613 1936
00000140: 5f95 7537 5651 0939 2ff3 9538 f4a1 1f38
00000150: 0203 5d38 0769 4a38 6972 9638 c6ea b132
00000160: f504 0336 b930 9138 3f46 d835 97c2 ef36
00000170: b837 aa37 e9e8 8f38 460e a338 0111 6c38
00000180: 3e2d a938 f9ce f336 bf50 6c39 e9fa f737
00000190: 7527 f736 4400 8f36 bd88 1a38 1104 9138
000001a0: eced 2438 c78d d538 d7b6 9838 ee03 c238
000001b0: 3e20 d539 83ff b538 6ca6 e435 b3c8 8638
000001c0: bb00 9838 5d8f a438 854e 0b32 e0b9 c539
000001d0: d072 1e39 57fc 0737 4eef d536 881b d438
000001e0: bd65 4039 94c1 4236 dde2 c238 30de b838
000001f0: 0bf8 9638 3076 b038 b7cf 7038 80c5 0439

exp_avg f4 [2]
-0.00013004188 0.00013004194
00000000: da5b 08b9 de5b 0839

exp_avg_sq f4 [2]
0.00016685674 0.00016685674
00000000: 44f6 2e39 44f6 2e39

exp_avg f4 [1, 64]
-0.04850873 -0.07156794 -0.07291023 -0.065765515 -0.07247427 -0.0017599722 -0.03688839 -0.001148219
-0.003791708 -0.06084536 -0.013996353 -0.057170786 -0.040435903 -0.048401613 -0.0011487015 -0.00037087058
-0.008052157 -0.019863073 -0.06623465 -0.04323601 -0.053573117 -0.04826788 -0.044036116 -0.0002522815
-0.0011532546 -0.06487985 -0.00028128835 -0.0017999613 -0.031853847 -0.046069287 -0.04590693 -0.057088938
-0.06881619 -0.005170433 -0.070244774 -0.039120566 -0.0029251387 -0.0005175522 -0.047690343 -0.04817183
-0.041949727 -0.047169864 -0.060777813 -0.068193085 -0.064606376 -0.05955247 -0.0025291054 -0.059496928
-0.057369087 -0.06958081 -6.583587e-05 -0.063527554 -0.049260147 -0.01567489 -0.0035011072 -0.06943178
-0.064905405 -0.0008991244 -0.011783652 -0.056613658 -0.042241454 -0.01250277 -0.053792644 -0.05752405
00000000: 17b1 46bd 3692 92bd f551 95bd 12b0 86bd
00000010: 646d 94bd deae e6ba 4818 17bd d67f 96ba
00000020: 4e7e 78bb fc38 79bd f650 65bc ea2b 6abd
00000030: 1ea0 25bd c540 46bd 0790 96ba 6871 c2b9
00000040: 32ed 03bc e2b7 a2bc 08a6 87bd 3e18 31bd
00000050: 7c6f 5bbd 8ab4 45bd 375f 34bd a644 84b9
00000060: ce28 97ba badf 84bd e279 93b9 aeec ebba
00000070: 2e79 02bd 26b3 3cbd e808 3cbd 17d6 69bd
00000080: 81ef 8cbd bc6c a9bb 7edc 8fbd e33c 20bd
00000090: afb3 3fbb 57ac 07ba f356 43bd d34f 45bd
000000a0: 7ad3 2bbd 3035 41bd 28f2 78bd d1a8 8bbd
000000b0: 5950 84bd 4aed 73bd 59bf 25bb 0db3 73bd
000000c0: d9fb 6abd 6280 8ebd 5d11 8ab8 bc1a 82bd
000000d0: 02c5 49bd a068 80bc d572 65bb 4032 8ebd
000000e0: 20ed 84bd 38b3 6bba 3810 41bc b9e3 67bd
000000f0: 6005 2dbd 6bd8 4cbc ad55 5cbd 579e 6bbd

exp_avg_sq f4 [1, 64]
0.0021208224 0.0038675736 0.0039434675 0.003242954 0.0039019024 1.0371318e-05 0.0011892046 3.210535e-06
2.7634711e-05 0.00305391 0.00015908148 0.0024422049 0.0013225585 0.0018457605 1.0405652e-05 6.549772e-06
6.6175395e-05 0.0004988573 0.0032516343 0.001578297 0.0022593962 0.0019273538 0.0016349055 1.00633194e-07
7.1960226e-06 0.0030583218 4.572188e-06 2.0162508e-05 0.0008411189 0.0017887114 0.0016608565 0.0024247328
0.0035286422 3.5490706e-05 0.003710413 0.0012978561 1.8537685e-05 1.1356027e-05 0.0017492524 0.002013399
0.0014761613 0.0019715712 0.0029901215 0.0034206961 0.0034041277 0.0025995225 1.8006476e-05 0.00258633
0.0024431895 0.003636375 2.462955e-07 0.0036102505 0.0020280103 0.00019995657 2.8795921e-05 0.003672122
0.003226673 9.323515e-06 0.00030203568 0.0026225494 0.0014402141 0.000277247 0.0021174692 0.0026130015
00000000: 7ffd 0a3b 1e77 7d3b 3438 813b bd87 543b
00000010: 0fb7 7f3b 7900 2e37 16df 9b3a 9274 5736
00000020: 17d1 e737 1c24 483b 1ccf 2639 660d 203b
00000030: b359 ad3a 72ed f13a ef93 2e37 1dc6 db36
00000040: a5c7 8a38 bfc5 023a 5f19 553b dcde ce3a
00000050: 6112 143b 439f fc3a 534a d63a af1b d833
00000060: 5d75 f136 206e 483b cc6a 9936 a822 a937
00000070: 897e 5c3a 3273 ea3a 19b1 d93a 44e8 1e3b
00000080: cb40 673b dbdb 1438 662a 733b d31c aa3a
00000090: 6081 9b37 c485 3e37 2c47 e53a 3bf3 033b
000000a0: c17b c13a 7a35 013b eaf5 433b c22d 603b
000000b0: c917 5f3b c05c 2a3b 9d0c 9737 6b7f 293b
000000c0: eb1d 203b 4050 6e3b 993a 8434 f499 6c3b
000000d0: 5ee8 043b 6fab 5139 c58e f137 fca7 703b
000000e0: 9776 533b 316c 1c37 8b5a 9e39 14df 2b3b
000000f0: 91c5 bc3a 765b 9139 3dc5 0a3b e43e 2b3b
