savedModels/ppo_cartpole_76800.pth (torch, 13659 bytes, 15 tensors)

shared_fc.0.weight f4 [64, 4]
00000000: f99c 9bbd 382f d03e b693 053d cf5a e3be
00000010: f80a 04bd 5a92 3dbe fc50 19bf 381c 6cbe
00000020: 29eb aa3d ad82 9ebe afbd a7be de3f fbbe
00000030: 995e 9abb 8631 f0bd fde7 d9be 3be4 8abe
00000040: 53d3 0c3e 9bc7 c23d 1666 32bf 5d40 a5be
00000050: e480 05be bcaa f8bc a2b2 b2be 00bb 883c
00000060: d3bb 36bd e9bc fd3d dea4 733e d064 b53e
00000070: a338 fbbe 4b2c 53be 09f5 aa3d 6497 8dbd
00000080: fc99 143f 5924 543c db8d 11bf 554e 48be
00000090: cfcf 4f3e 6dfb c83d 087c 013e 2c84 adbe
000000a0: 72c7 2d3f 9dcb 42be 132c 03bf 5c68 d4be
000000b0: e5dc b13d 59b8 78be 4c7c 2abe 58db fb3d
000000c0: d893 913d 4aa5 dcbd e660 89bc 5157 953e
000000d0: f99e bfbc 4ee1 f2bd 3104 52bd aedb d73d
000000e0: bdd8 02bf e93d c1bc fff8 f73e 1774 803e
000000f0: b913 e13e 0a64 683e f7c2 9abd cd87 fe3d
00000100: a273 d5be 59df c6be 1503 2abd 4201 5cbe
00000110: 7330 b23e e3c3 273d 0002 70be 99b9 943e
00000120: f7ff ec3d f821 573c b962 9fbe 17fb c1be
00000130: 62d0 85bc ecbb 963e e37e 11bd c876 eabc
00000140: 8c45 e13d 721b babe 8bcc 85bd 8702 df3e
00000150: eef3 6cbd 14c4 863e 2fe9 3e3e 0932 94be
00000160: a60e af3d 90a2 03bd 349b 9f3d 6d34 093f
00000170: 00be b2be d176 5cbe e7ae 923b fbae d7bd
00000180: bdd7 183f 1a21 3d3e 6531 36bf 06c2 9e3d
00000190: 5809 083e 171d b8be 8d16 3abe 70ec c63a
000001a0: 7a27 9b3e d423 753e ff8a 043e d9a8 3a3e
000001b0: 2f66 043f 104a 393e 289a f53c ed10 973d
000001c0: 73e8 f33b 9e18 ffbc 16da 453c 938b 473e
000001d0: 7787 973d 6b5d b5be d658 823e c07d a03e
000001e0: 92c5 803e 350e fcbd f510 923e 0c4c 733e
000001f0: a776 133e f29c a8be 71cf 45bd dc78 233e
00000200: c8d5 0f3e c90c b53d e005 c0be a6f7 b3be
00000210: 1156 68be a656 c2be 7bd8 743d 8f85 acbe
00000220: 6033 b33e eca3 51bc 3946 89be dc10 41be
00000230: a38b a0bd 0121 023d 48c3 573e 6b75 923e
00000240: 4525 3ebf 77e6 3bbe 9990 f23e 0f90 7e3d
00000250: 7d8b 0a3e 3acb af3e 97e6 ff3d 1f14 a63e
00000260: 4453 5a3d 88ec 38be f568 ca3d 2019 f53d
00000270: e54f 08be 1582 babd d0da 67be 62d1 cb3e
00000280: 1d04 82bd b1f1 2cbe 60ad e73d 2d00 113e
00000290: 64fc 33be efb0 0a3f 05d6 21bd b619 debe
000002a0: ab9e 19be 861f ac3e 6c39 4abe 71e6 90be
000002b0: 921a 5e3e 30ea c23d f2f5 813c 1071 87be
000002c0: 9291 c33e ce2c e6bd 4545 65bd 357a 7c3e
000002d0: bf63 9e3e d2f4 04bf aaef 343e 3ed1 863e
000002e0: a873 b43d 46ca aabe 159c c13e be2d ad3e
000002f0: 8ee0 5d3e a87e f3be d4a6 553d 0637 e73d
00000300: 9b0c a33e ef51 b63b 1964 923d c1dc 21be
00000310: 0dd0 0dbd ac5e 5cbe 317c aebe d6b5 c1be
00000320: e662 0abf f25c 5abc b9fe 213f ed19 9d3e
00000330: a584 c13a f3f5 c33e 196d b43b 49e8 37bf
00000340: b8ca ac3e 41be b73c 6b43 003e aaae 8f3e
00000350: d265 cd3e 5e23 313e 48ed 0f3e d04c cf3d
00000360: 7335 b63e 8e69 0dbd e7e3 25bf 96aa 91be
00000370: 6d40 57bc 8cdf 363e 7646 e8bd ccfc 2ebf
00000380: d20b 733e 03d4 9b3d 2143 27bd 855c 8cbe
00000390: 8824 1dbf 9e5a 513d 894b d33e 5d08 d13e
000003a0: ad5f b53c 7522 803e d004 0abe a836 90be
000003b0: 4657 88be 972c ae3e 6a77 14be 2b5f fabe
000003c0: 1a8c 123d 9b0d 8b3e 5864 52bd e924 8abe
000003d0: ae88 3a3f 5d48 103e 4668 ed3d f7c4 0e3d
000003e0: 246a cfbe aefe 4dbe a144 62be 2b20 01be
000003f0: 467c c23d a247 2e3e 9c31 28be 3c21 a7be
-0.075982995 0.40661025 0.03261157 -0.4440522 -0.032237023 -0.1851286 -0.598892 -0.2305764
0.083456345 -0.30959073 -0.32761905 -0.49072164 -0.004710984 -0.11728196 -0.42559806 -0.2712725
0.13752489 0.09510728 -0.6968702 -0.32275668 -0.13037449 -0.03035485 -0.3490191 0.016690731
-0.044612717 0.123895474 0.2379336 0.35428476 -0.49066648 -0.20622365 0.08347518 -0.06913641
0.5804746 0.012948119 -0.5685708 -0.19561131 0.20294116 0.09813581 0.1264497 -0.33889902
0.67882454 -0.19022985 -0.51239127 -0.4148587 0.086847104 -0.24289073 -0.16648978 0.12297696
0.07108277 -0.10773714 -0.016769838 0.2916818 -0.023391234 -0.1185938 -0.05127353 0.105399475
-0.51111966 -0.023589091 0.48432156 0.2508857 0.4396036 0.22694412 -0.07556718 0.12428246
-0.41689783 -0.38842276 -0.041506846 -0.21484855 0.3480259 0.040958297 -0.23438263 0.2904785
0.11572259 0.013130657 -0.31130007 -0.3788688 -0.016334716 0.29440248 -0.0355214 -0.028621092
0.10999593 -0.36349064 -0.06533154 0.43556616 -0.057849817 0.2632147 0.1864364 -0.28944424
0.08547716 -0.032137454 0.077932745 0.5359562 -0.34910583 -0.215297 0.0044764164 -0.10531422
0.5970419 0.18469658 -0.7116912 0.07751851 0.13284814 -0.35959694 -0.18172665 0.0015176665
0.30303556 0.23939449 0.12943648 0.18228473 0.5171842 0.18094659 0.029980734 0.07376275
0.0074434816 -0.031139668 0.0120759215 0.19486837 0.07398885 -0.35422835 0.254584 0.3134594
0.25150734 -0.12307397 0.28528562 0.23759478 0.14400731 -0.3293224 -0.048293535 0.15964073
0.14046395 0.08840329 -0.37504482 -0.35149878 -0.22689082 -0.37956733 0.059776764 -0.33695647
0.35000134 -0.01279543 -0.26811388 -0.18854088 -0.078391336 0.031769756 0.21070588 0.28605208
-0.7427562 -0.18349634 0.47375944 0.062149104 0.13529773 0.34334737 0.124951534 0.32437226
0.053302065 -0.1805898 0.098833 0.11967683 -0.13311727 -0.091068424 -0.22642064 0.39808184
-0.06348441 -0.16889073 0.113123655 0.14160223 -0.17576748 0.5417623 -0.039510746 -0.4337899
-0.15001933 0.336178 -0.19748467 -0.28300813 0.21689823 0.09517324 0.015864346 -0.26453447
0.38197 -0.112390146 -0.055974264 0.24655993 0.30935475 -0.51936066 0.1766955 0.26331514
0.08811122 -0.33357447 0.37814394 0.3382396 0.21667692 -0.4755757 0.052161053 0.11289792
0.31845555 0.0055639665 0.07147998 -0.15806867 -0.03462224 -0.2152049 -0.34079126 -0.37834042
-0.5405716 -0.013327824 0.632793 0.30683842 0.0014764263 0.38273582 0.0055061695 -0.71838814
0.33748412 0.022429587 0.12525718 0.28062946 0.40116745 0.17298648 0.1405536 0.10122073
0.35587654 -0.034524493 -0.64800876 -0.2845046 -0.013137919 0.17858714 -0.11341564 -0.6835449
0.23734978 0.076087974 -0.040835503 -0.27414337 -0.6138387 0.05111181 0.41268566 0.40826693
0.022140348 0.2502629 -0.13478398 -0.281667 -0.26629084 0.34018394 -0.14498678 -0.48900732
0.035778143 0.27158818 -0.051365227 -0.26981285 0.72864807 0.14090104 0.11592154 0.03485581
-0.40510666 -0.20116684 -0.22096492 -0.12609927 0.094963595 0.17019513 -0.16425174 -0.32642543

shared_fc.0.bias f4 [64]
00000000: 60b3 603f 6864 6a3f 3cdf 6b3f 8fa2 533f
00000010: 2683 5b3f c190 6e3f 742f 5c3f f6f9 10be
00000020: 3d12 a4bd e674 733f c6d6 a7bd f183 4d3f
00000030: 7798 703f 7af9 583f 44e7 c1bd ecf3 8ebd
00000040: ed5e 17be 867d 6f3f f205 583f 7d5e 6a3f
00000050: a092 7b3f 06b4 773f f034 513f 4c48 fcbd
00000060: d8ff e1bd e338 593f 7c2f 4abd 02d8 94bd
00000070: 8512 6f3f 0173 603f baee 543f 74cb 743f
00000080: 0866 633f c229 e4bd 63d4 6e3f 6fe2 4d3f
00000090: 9b7f 2abe 66a3 8cbd a576 513f 8f90 763f
000000a0: 73c3 753f 00b6 573f af52 773f e7d8 783f
000000b0: 73dc 423f 351a 693f 18cc 713f d80a 703f
000000c0: de4f 603f 34e3 6f3f 681c d7bd 2278 583f
000000d0: f8da 663f 1502 56bd b992 80bd 17d1 733f
000000e0: 0cf0 753f 8cb0 f0bd fc2e 503f b10d 603f
000000f0: 6a80 7c3f 2a6c a9bd 97c9 f8bd 916e 653f
0.87773705 0.9155946 0.92137504 0.8266992 0.8574699 0.93189627 0.8600991 -0.14157853
-0.08011291 0.9510025 -0.08195262 0.8027945 0.9398264 0.8475567 -0.094679385 -0.06980118
-0.14782305 0.9355091 0.8438407 0.9155043 0.98270607 0.9675907 0.817214 -0.12318477
-0.110351264 0.8485243 -0.04936169 -0.07267763 0.93387634 0.8767548 0.8317677 0.95622945
0.8882756 -0.11140777 0.93292826 0.80423635 -0.1665024 -0.06867103 0.8182166 0.9631433
0.96001357 0.84262085 0.9661054 0.97205967 0.7611763 0.91055614 0.9445205 0.93766546
0.8762187 0.9370606 -0.10503465 0.8455831 0.9017787 -0.05224808 -0.06277985 0.9524092
0.9606941 -0.11752424 0.8132169 0.8752089 0.98633444 -0.08272584 -0.12147825 0.89621836

actor_head.weight f4 [2, 64]
00000000: b0d9 8bbc 2cb1 473e 0e58 663e 499b 513e
00000010: a0bb 083e 7d03 3e3d eeaf 84be 9658 b83d
00000020: 5e7c b43d 7b97 aa3c d711 a03e fc25 a8bb
00000030: 5480 04be 938b 3abd 7582 07be d002 c5bd
00000040: 0c8d dd3d 082a e4bd 15f5 123e 8ec1 b2bd
00000050: 68bf 75bd a733 91bc 7370 45be d786 2a3e
00000060: c131 dc3b 471b 7c3d 034b 24be c20f 96bd
00000070: bffa 20be c6d4 82bd e605 18be d096 83bc
00000080: 1981 e73d 2827 3f3e 0153 e73d fd23 68be
00000090: fd68 5bbc 014d 63be 0638 9abd 2e37 dabd
000000a0: 0a28 acbd b0aa a9bc e7ee d03c 55d3 813d
000000b0: f6a7 fcbd dc98 f73b 2eb5 80bd 952b 403c
000000c0: fce4 713d 9867 543e 3f3a 1cbe 1cd6 8c3d
000000d0: ec43 42be 7f39 07be bec8 563e cd03 c23d
000000e0: 4b70 4e3d c170 28be 7912 9ebc b4ce 343d
000000f0: 9aaf 013c 3fd3 90bd 1929 563e a1f6 c83c
00000100: bcd5 af3c b163 52be 40ab 71be a1c1 54be
00000110: b309 22be fe55 2dbd dc8d 893e 0f68 b1bd
00000120: 59ef d4bd ea9f 4bbd ef56 8abe 8b08 bcbb
00000130: 6671 0f3e ccee 933d 9473 ed3d 40dc a83d
00000140: 3233 2dbe aa4c e03d 6334 1fbe 9ea0 a53d
00000150: 9451 093d afd6 b9ba 5c44 513e 3710 3fbe
00000160: 2db4 e1bc a72e 93bd 39cd 373e 80d0 a13d
00000170: 0308 fb3d 1d20 953d 9aaf 2a3e 85f9 243d
00000180: 0654 f5bd 7ec4 39be 70ed c5bd 0b33 743e
00000190: d2a5 d93c 6e1d 553e ea8d 833d 5d66 c23d
000001a0: 2d1e 913d 8738 043d 2cce b7bc 4424 95bd
000001b0: 4eea bb3d ed80 813c 8b75 463d 6479 42bc
000001c0: 407f 17bd 47e8 56be 19e7 1c3e e474 3cbd
000001d0: 2cbc 503e cb66 093e 8789 5ebe 7970 d5bd
000001e0: 6102 4ebd 4209 283e bcfb b23c 9fec 17bd
000001f0: c1ca 5d3b 1e2c 943d bb5c 4bbe 85fa 6fbd
-0.017071575 0.1950118 0.22494528 0.20469393 0.13352823 0.046390045 -0.25915474 0.090012714
0.08812784 0.020824185 0.3126361 -0.005131481 -0.12939578 -0.045543265 -0.13233359 -0.09619677
0.10817918 -0.11140829 0.14351304 -0.08728324 -0.059996992 -0.017724825 -0.19281177 0.16653
0.0067197983 0.06154945 -0.1604424 -0.07327224 -0.15720652 -0.063882396 -0.14846 -0.016063124
0.1130392 0.1866728 0.112951286 -0.22669978 -0.01339173 -0.22197343 -0.07530217 -0.10655056
-0.08406074 -0.020711273 0.025504543 0.063391365 -0.123367235 0.007556064 -0.06284557 0.011729141
0.059056267 0.20742643 -0.15256594 0.068767756 -0.18971223 -0.13205527 0.20975015 0.09473381
0.05040006 -0.16449262 -0.019295918 0.04414244 0.007915402 -0.07071542 0.20914115 0.024531664
0.021464221 -0.20545842 -0.23600483 -0.20776989 -0.15824012 -0.042318337 0.26866043 -0.08662426
-0.103972144 -0.049713053 -0.2701945 -0.005738323 0.14008102 0.07223281 0.115943104 0.08245134
-0.1691406 0.109521225 -0.15547328 0.08087276 0.033525065 -0.001417836 0.20436233 -0.18658529
-0.027551735 -0.071866326 0.1794938 0.07901096 0.122573875 0.07281516 0.16668549 0.040277023
-0.11978917 -0.18141362 -0.09664428 0.23847596 0.026568327 0.20812008 0.06423552 0.094921805
0.07085834 0.03228047 -0.022437178 -0.07282308 0.091755494 0.015808547 0.04845194 -0.011869762
-0.03698659 -0.20987044 0.15322532 -0.046009913 0.20384282 0.13418119 -0.2173215 -0.10421843
-0.050295237 0.16409782 0.021848552 -0.037090894 0.0033842775 0.07234977 -0.19859593 -0.058588523

actor_head.bias f4 [2]
00000000: 0801 d4bc 0901 d43c
-0.025879398 0.0258794

critic_head.weight f4 [1, 64]
00000000: 499a 5a3f dd98 643f eb1b 603f e1d3 823f
00000010: 5457 7a3f b78b 6f3f bfb7 753f 7348 0cbf
00000020: cc95 19bf d4c6 5f3f 63bd febe 4030 893f
00000030: b069 653f 58a2 793f bbe1 44bf 993f cabe
00000040: 2cb3 86be 2875 723f 80ec 7d3f d946 6d3f
00000050: 0c9d 4a3f 9e2d 5c3f f31b 823f b137 f3be
00000060: a29b b7be ccac 753f c215 cebe 6c81 cebe
00000070: e460 6f3f f1d6 593f 2200 843f 23a6 5f3f
00000080: fc79 6e3f 75a5 e9be 8928 6f3f 8a48 873f
00000090: f4be 02bf 73bb abbe 8a07 853f f585 513f
000000a0: f62d 5c3f 5aa6 5f3f c8c1 593f bb5d 643f
000000b0: 2c48 a93f f67e 593f c16d 3f3f 14d4 583f
000000c0: b0f9 7d3f 7143 5e3f 7f88 0fbf 7e34 523f
000000d0: efa7 743f e2c5 f1be 826d 8fbe e0b2 4d3f
000000e0: 1a6e 633f b823 0ebf 6311 213f 9e88 5f3f
000000f0: 92d1 583f 9242 bebe 724d ddbe b7ba 6a3f
0.8539167 0.8929575 0.875426 1.022091 0.977895 0.9357256 0.959835 -0.5479805
-0.59994197 0.8741276 -0.49753866 1.071785 0.8961439 0.9751334 -0.7690694 -0.39501646
-0.26308572 0.94710016 0.99188995 0.9268623 0.79145885 0.86007106 1.016478 -0.47503427
-0.35860926 0.9596679 -0.40250975 -0.40333116 0.9350722 0.850936 1.031254 0.8736288
0.93154883 -0.45634046 0.93421227 1.0569012 -0.5107262 -0.3354145 1.0392926 0.8184503
0.8600763 0.8736321 0.8506131 0.8920552 1.322515 0.8495935 0.74776846 0.84698606
0.9920912 0.8682166 -0.5606765 0.82111347 0.95568746 -0.47221285 -0.28013235 0.80351067
0.88839877 -0.5552325 0.62917155 0.87317836 0.8469478 -0.37160164 -0.4322315 0.91691154

exp_avg f4 [64, 4]
00000000: 6da7 9ebb 17c8 253c b303 ef3b 98fa 0a3b
00000010: 8cec e739 2466 6c3b 08f3 183c fea4 1a3c
00000020: c696 8539 4197 4a3b 64e5 153c 94e0 1a3c
00000030: cdf2 243a 934f 913b 1d1f 2f3c 09cc 2e3c
00000040: fd43 a9bb 1b1a a2ba e47b 2d3c ff80 533c
00000050: df95 ae3a 869b c23b 188b 203c 0538 123c
00000060: dd3f 443b 97f9 253c ca26 253c 37b7 f03b
00000070: 7065 18bb 43c0 84bb 58b4 b4bb f283 9dbb
00000080: cd03 743a 74d9 52ba cf38 65b9 fc52 d5b8
00000090: e69f 99bb 53d6 cfb9 44c6 1b3c 3c40 373c
000000a0: 7227 353a c779 21bb e48b bfb9 1dd0 a739
000000b0: 77cd ea3a db8a f43b 87f9 373c 01a6 223c
000000c0: e8ac 103b 0a04 033c 3001 1a3c 1124 f63b
000000d0: ca42 fe3a b6b4 f73b 3378 273c 5252 0e3c
000000e0: 0329 c9ba f388 01bb 16e5 f8bb fabc eebb
000000f0: 8e75 d539 5536 86b7 f882 81b8 91a6 87b9
00000100: c38a dcba ae35 51bb 12f4 2fbb e07c faba
00000110: 13ce 0e3b f9df 033c 3bab 223c 1f0a 053c
00000120: 9d28 683a 38f1 a23b d8fd 293c e6b9 243c
00000130: 7060 033b b4f4 f73b 6b30 1f3c c97f 043c
00000140: aa40 a73a 3be6 bb3b 65fa 073c 24e2 ea3b
00000150: 6573 c33a f62d c83b 08a0 133c 1ca7 013c
00000160: d7db 333b 6373 1e3c 90c8 2e3c e638 073c
00000170: 194a 2abb 3f84 9cbb 1ec2 9dbb 12af 77bb
00000180: 5f63 fd39 f097 62b9 65ec afb8 1292 97b8
00000190: 805a a43a 0174 be3b 5a9e 243c 6200 183c
000001a0: d83c bc39 2040 aa38 8008 77b8 8fb8 b5b9
000001b0: c1af d939 cb6e db36 4393 7eb8 e0fb 95b9
000001c0: 41c8 163b 169a 083c e0b2 203c 8379 003c
000001d0: 905c b43a 4324 ce3b 4442 123c 87c3 f93b
000001e0: 5f9e 273b 046f 173c 9d3e 313c a75d 0d3c
000001f0: 13bf d23a 4244 d33b 2cfc 153c f7de 013c
00000200: f548 b3bb a393 c7ba fede 253c 9939 4b3c
00000210: d3cd 1cbb 3c3e a7bb 399f 99bb 9166 67bb
00000220: 7b3a 36bc a1c0 e5bb 7d2b 293c a98b 633c
00000230: 8df1 433b 515c 2a3c 78c9 353c f818 0a3c
00000240: c1c8 ceba 1589 26bb 418f a7bb 4a73 9cbb
00000250: edc6 c738 6b50 4039 0147 b5b7 3615 a8b9
00000260: 5be8 093b 2986 053c 2783 323c c504 173c
00000270: 0a57 f83a f59e e53b b3a0 0c3c 851f e53b
00000280: 2472 f13a a33b e53b 92c0 133c f436 f63b
00000290: 831f 29bc 239f b6bb 272e a93b 20a3 943b
000002a0: 7003 5d3b b19e 4a3c 7a8c 0e3c cd2e 883b
000002b0: 8172 a1bb 355e 51ba 44e5 1e3c 3eee 3d3c
000002c0: 51ef 363b ad3b 2e3c 9f28 633c 6c48 3e3c
000002d0: a58e 9e3a 882e b93b 33dd 113c acfe 013c
000002e0: 4833 a53a 661d b63b 1f81 003c b5d4 db3b
000002f0: abdd a43a 1797 b73b c95c 113c 6d68 023c
00000300: e25f aebb 7116 06ba c6c3 303c f581 503c
00000310: ec6f ba39 efe2 593b f9b3 143c abb4 173c
00000320: 5777 47ba e229 71ba b080 b5bb b83e b4bb
00000330: 3448 79bb b943 003c 915b b13b ed61 0f3b
00000340: 0e5a 2d3b a948 173c 234a 243c fb2f fc3b
00000350: 1c09 ec39 ad42 2538 440c 8eb8 cca2 b5b9
00000360: 5166 df39 e899 a7ba eaf4 4db9 e5c1 9b39
00000370: 1578 173b 4714 a63c 1189 013c 569a 09ba
00000380: a373 9dbb 371d 12ba b141 1e3c bb6a 3b3c
00000390: 235c 66ba 9eac cdba 6e27 b4bb b75e b5bb
000003a0: 143f 72bb 514e e73b c3bd d33b 501f 463b
000003b0: d368 ef3b 9a2c cb3c 7176 033c d9d4 15bb
000003c0: 3e20 7abb 05ec cf3a 69cd 153c efc6 1f3c
000003d0: 7f73 d539 54d0 b936 bef9 90b8 3187 a8b9
000003e0: 872b 2cbb d6a2 9bbb 0382 8fbb ff98 59bb
000003f0: 8e03 a2bb 4ecf fbb9 f262 233c b5b1 403c
-0.004841736 0.010118506 0.007294142 0.0021206494 0.00044235995 0.0036071623 0.009335287 0.009438751
0.00025480072 0.0030912908 0.009148929 0.009452958 0.00062922837 0.004434535 0.01068857 0.010668763
-0.0051655755 -0.0012367399 0.01058862 0.012909173 0.0013319812 0.00593895 0.0097987875 0.008924489
0.0029945292 0.010130308 0.010080049 0.0073460597 -0.002325382 -0.0040512397 -0.0055146627 -0.004806989
0.00093084277 -0.00080432673 -0.00021860305 -0.000101720885 -0.004688251 -0.000396418 0.009507719 0.011184748
0.000691048 -0.0024639235 -0.00036534586 0.0003200778 0.0017914016 0.007462842 0.011228926 0.009927274
0.0022075716 0.007996568 0.009399697 0.0075116237 0.0019398567 0.007559384 0.010221529 0.008686619
-0.0015347305 -0.0019765466 -0.0075956685 -0.0072857114 0.0004071411 -1.5999345e-05 -6.175594e-05 -0.00025873308
-0.0016826022 -0.0031922865 -0.0026848358 -0.0019110702 0.002179031 0.008049005 0.00992852 0.008120089
0.00088561495 0.004972603 0.0103754625 0.010054087 0.0020046495 0.0075670127 0.009716134 0.008087107
0.001276036 0.0057342327 0.008299445 0.0071680713 0.001491171 0.0061089946 0.009010322 0.007913377
0.0027444267 0.009671065 0.010667935 0.008253312 -0.0025984107 -0.004776507 -0.0048144003 -0.003779356
0.00048329958 -0.0002160964 -8.388682e-05 -7.227449e-05 0.0012539178 0.0058121686 0.01004752 0.009277435
0.00035903486 8.118176e-05 -5.8897305e-05 -0.00034660517 0.00041520412 6.5396066e-06 -6.0695467e-05 -0.00028607156
0.0023007544 0.008337518 0.009808272 0.007841471 0.0013760496 0.006290944 0.008926932 0.0076221856
0.0025576574 0.009242777 0.010818151 0.0086282855 0.0016078673 0.006447346 0.009154361 0.007926694
-0.0054713436 -0.0015226494 0.010123966 0.012403869 -0.0023926392 -0.0051038545 -0.0046881703 -0.0035308937
-0.011122341 -0.0070114885 0.01032531 0.013888278 0.0029898614 0.0103979865 0.011095397 0.008428805
-0.0015776382 -0.0025411297 -0.0051135127 -0.0047744857 9.526112e-05 0.00018340505 -2.1609945e-05 -0.0003205926
0.0021043036 0.008149662 0.010895527 0.009217446 0.0018946838 0.0070074745 0.008583236 0.006992283
0.0018420857 0.0069956346 0.00901808 0.007513875 -0.010322454 -0.00557317 0.0051629725 0.0045360476
0.0033723973 0.012366937 0.008700484 0.0041559697 -0.00492698 -0.0007986755 0.009698216 0.011592446
0.002791364 0.010634345 0.013864665 0.011613946 0.0012096955 0.005651299 0.008902836 0.007934254
0.0012603784 0.005557704 0.007843285 0.0067087063 0.0012578269 0.005602728 0.008872219 0.007959467
-0.0053214887 -0.00051150384 0.0107888635 0.012726297 0.00035560073 0.0033246835 0.009076112 0.009259383
-0.00076090306 -0.00091996614 -0.0055390224 -0.0055006407 -0.0038037421 0.007828646 0.005412527 0.0021878437
0.0026451382 0.009233632 0.010027441 0.0076961494 0.00045020215 3.9401162e-05 -6.773372e-05 -0.00034644303
0.00042610106 -0.0012786957 -0.00019641561 0.00029708366 0.0023112346 0.02027334 0.007906214 -0.0005249133
-0.0048050447 -0.00055738114 0.009659217 0.011439021 -0.0008787533 -0.0015691703 -0.0054978644 -0.0055349725
-0.0036963867 0.0070588966 0.0064618303 0.0030231066 0.007306197 0.024801541 0.008023844 -0.0022862463
-0.003816619 0.0015863186 0.009143212 0.009752019 0.00040712577 5.5376822e-06 -6.912973e-05 -0.00032144182
-0.0026271062 -0.004749636 -0.0043795123 -0.0033202765 -0.0049442714 -0.00048028905 0.009972321 0.011761119

exp_avg_sq f4 [64, 4]
00000000: d27a 0f3a 90c7 f039 9052 8d37 a0b6 0039
00000010: 7499 253a 342f 163a ba8d ae37 b6a0 1e39
00000020: 1441 1f3a 3cd3 103a 5d47 a737 c88a 1739
00000030: dae9 5c3a 367b 483a 3db6 e937 eedd 5539
00000040: d5af 3e3a 645e 303a 943d d037 4cde 3d39
00000050: 0023 353a 081e 223a aaf1 bf37 34fa 2d39
00000060: 0378 413a dce8 2c3a 7368 ca37 d896 3739
00000070: 8655 2939 f038 0539 5d50 6436 0fec a037
00000080: 3381 e338 4aa0 c238 946c 6236 a31c e437
00000090: 49ce 143a b11f 0a3a 09a2 a237 973c 1539
000000a0: ca93 a438 bc36 ae38 830d 4036 84b4 a537
000000b0: 6cc7 713a c2de 593a c29c 0038 613d 6c39
000000c0: 1399 243a df6c 123a ca78 ad37 3196 1c39
000000d0: 9653 453a 5875 303a 46bd d137 bb51 3e39
000000e0: 02a7 b039 b10e 8639 9647 2e37 07ad 6538
000000f0: d697 3938 98ee 2838 300d 9635 8787 1037
00000100: cbdb 0838 62d2 d937 28ec 3b35 d825 8636
00000110: d5fd 333a e193 203a 8775 be37 9126 2a39
00000120: aea6 4b3a df5e 373a 6129 d837 37f1 4439
00000130: fbc2 2e3a 281d 1b3a f53a b937 a21e 2739
00000140: b25a fa39 df9a d839 c4d7 8337 3bbb df38
00000150: 1676 143a 1885 023a a33d 9e37 4c28 0e39
00000160: da6a 593a e805 423a 61f9 e337 1454 4d39
00000170: e9c7 f838 0cac c738 0704 2236 ba8d 7c37
00000180: 8c8f 0a38 b138 fc37 0c0f 5235 10d4 bd36
00000190: 5c87 3e3a 6753 283a b562 ca37 6fcf 3539
000001a0: 6fc5 3f38 f787 3938 14a8 c335 48d5 4637
000001b0: 76ee 4138 0769 3238 f9db 9735 21e7 0837
000001c0: 2f33 343a 3d61 203a 09dc bd37 de73 2b39
000001d0: 50a0 133a 5a01 013a 3972 9b37 3785 0539
000001e0: 8592 5d3a f80d 463a 7f4b ea37 4f26 5539
000001f0: 2b23 1c3a a674 0a3a 8c59 a437 b531 1339
00000200: ca86 2e3a e2b2 1e3a c99c bc37 bbf5 2939
00000210: dca6 fb38 60b1 d638 1ef2 3b36 60df b537
00000220: 67cb 2e3a e16e 1e3a b879 bd37 5a7d 2b39
00000230: ed46 6e3a 28c3 553a fe1b fb37 08e9 6539
00000240: 9900 0f39 98a6 e038 24c2 5a36 3501 9237
00000250: 7d51 0538 c991 0d38 4afb 8e35 f92c 1337
00000260: 9b58 633a 4c13 4c3a 33db f037 cac3 5b39
00000270: 8c31 073a ee9b f339 17d8 8e37 a31a ff38
00000280: 3945 173a c21b 083a 35e4 9f37 88aa 1039
00000290: 7860 133a 966c e239 6749 8937 d307 0239
000002a0: 3ad0 103a 280a fe39 7f92 9937 74e7 0839
000002b0: 51e2 1e3a 733a 0e3a ee7a ab37 d856 1a39
000002c0: fa7e ac3a 1de3 a93a f462 4738 599e b739
000002d0: e20e 103a e136 f639 39ef 9937 2294 0439
000002e0: b2fe de39 def9 c139 1cdf 6837 866a c738
000002f0: 597d 113a 9e1d fb39 0338 9937 833b 0539
00000300: 286c 493a 1de3 343a e1ed d737 5695 4339
00000310: 6859 1c3a 22f1 0d3a 30de a437 3d8c 1539
00000320: 66cd 2839 2c83 f738 2a56 ad36 cd12 dd37
00000330: 390e f339 3f45 cb39 38fc 6d37 c5aa ce38
00000340: 1d79 393a 2963 263a fa06 c437 3644 3039
00000350: 8ce2 8b38 0d95 8138 0577 0636 8f26 8137
00000360: fd01 a337 7fc8 a437 0d2c 2f35 effb 9936
00000370: e64c f839 572a e039 f46e 8337 a6d0 e538
00000380: 8e96 1a3a e39a 0b3a fb0e a937 1fc3 1839
00000390: 5736 2a39 5677 ff38 b2e6 aa36 23e9 e037
000003a0: 260a 8839 7561 7339 d2fe 1037 d848 8138
000003b0: e05a 1b3a 9969 053a 7951 9e37 c3a9 0f39
000003c0: f56b 0b3a 0e04 fb39 cb65 9737 3a3c 0939
000003d0: ce08 2138 e84b 1438 e775 8035 e566 da36
000003e0: c793 d038 532a aa38 9573 0a36 2104 6f37
000003f0: b0c1 243a 83b9 183a 1bc9 b437 8fc8 2639
0.0005473319 0.00045925053 1.6846956e-05 0.00012275064 0.0006317117 0.000572908 2.0808413e-05 0.00015127924
0.0006075066 0.00055246404 1.9941182e-05 0.00014452182 0.00084271806 0.00076477544 2.7860626e-05 0.00020395938
0.0007274126 0.00067279325 2.4824207e-05 0.00018107257 0.00069098175 0.00061842846 2.2881508e-05 0.00016591774
0.0007380249 0.0006595978 2.4128914e-05 0.00017508434 0.00016148956 0.0001270508 3.4021425e-06 1.918341e-05
0.00010848269 9.280497e-05 3.3739825e-06 2.7193053e-05 0.0005676491 0.00052690046 1.9387358e-05 0.00014232319
7.847657e-05 8.3071616e-05 2.8618094e-06 1.9753592e-05 0.00092231366 0.00083110866 3.066357e-05 0.0002252958
0.00062789134 0.0005585681 2.0679454e-05 0.0001493327 0.0007527409 0.0006731353 2.5002879e-05 0.00018150259
0.00033693766 0.00025569418 1.0387876e-05 5.4759e-05 4.4248845e-05 4.027653e-05 1.1179709e-06 8.614624e-06
3.2629625e-05 2.5966383e-05 7.000658e-07 3.997917e-06 0.0006866132 0.00061255513 2.2704493e-05 0.0001622683
0.00077686727 0.0006995033 2.5768475e-05 0.00018781876 0.00066666276 0.00059171254 2.2081173e-05 0.00015937773
0.0004775129 0.00041314118 1.571689e-05 0.00010668343 0.0005663348 0.0004978939 1.886377e-05 0.00013557187
0.0008293815 0.0007401393 2.7176635e-05 0.00019581645 0.00011862798 9.521106e-05 2.4142225e-06 1.5053369e-05
3.3035452e-05 3.006714e-05 7.825299e-07 5.6573263e-06 0.0007268095 0.00064211193 2.412624e-05 0.0001733878
4.5721823e-05 4.4234064e-05 1.4577549e-06 1.1851378e-05 4.623687e-05 4.253632e-05 1.1314397e-06 8.160046e-06
0.0006874082 0.0006118005 2.2633018e-05 0.00016350995 0.00056314934 0.0004921161 1.8530629e-05 0.00012733495
0.0008452314 0.0007555182 2.793013e-05 0.00020327534 0.0005956168 0.0005281664 1.9592022e-05 0.0001403753
0.00066576584 0.00060538773 2.2484355e-05 0.00016208638 0.00011999693 0.00010237354 2.8006102e-06 2.1680898e-05
0.00066678826 0.0006043744 2.2587235e-05 0.00016354528 0.0009089548 0.0008154386 2.9934567e-05 0.00021925953
0.00013637765 0.00010712183 3.2597536e-06 1.7405118e-05 3.1785563e-05 3.3752793e-05 1.0652959e-06 8.772354e-06
0.0008672566 0.0007784858 2.8712302e-05 0.00020958405 0.00051572244 0.00046464748 1.7028344e-05 0.00012164309
0.0005770508 0.00051921245 1.9060544e-05 0.00013796438 0.000562198 0.00043186982 1.6365853e-05 0.00012400681
0.0005524192 0.00048454222 1.8307239e-05 0.00013056194 0.00060609455 0.000542558 2.0442032e-05 0.00014718936
0.00131604 0.0012961362 4.7537455e-05 0.00035022458 0.0005495382 0.00046961664 1.8350418e-05 0.00012643685
0.00042532902 0.00036997994 1.3880224e-05 9.508901e-05 0.00055499893 0.00047896517 1.8265104e-05 0.00012706038
0.0007683658 0.00069002976 2.5740768e-05 0.00018652281 0.00059642503 0.0005414655 1.9653788e-05 0.0001426199
0.00016098245 0.000118023105 5.1658326e-06 2.6354008e-05 0.00046359168 0.0003877077 1.4185025e-05 9.854654e-05
0.0007075237 0.00063471735 2.336827e-05 0.00016810079 6.670234e-05 6.178962e-05 2.0036834e-06 1.5395954e-05
1.943204e-05 1.9643687e-05 6.525668e-07 4.5890843e-06 0.0004735954 0.00042756155 1.5668084e-05 0.00010958435
0.0005897068 0.0005325509 2.0153346e-05 0.00014568538 0.00016232707 0.000121815756 5.0932513e-06 2.6811444e-05
0.00025947503 0.00023210591 8.642399e-06 6.1647675e-05 0.0005926322 0.00050892826 1.8873006e-05 0.00013700784
0.0005318516 0.00047877472 1.8048004e-05 0.00013087774 3.839359e-05 3.5356643e-05 9.571057e-07 6.508885e-06
9.9457386e-05 8.114115e-05 2.063088e-06 1.4246471e-05 0.0006284965 0.0005825983 2.155132e-05 0.00015905708

exp_avg f4 [64]
00000000: a236 4abc eb4f 07bc 4800 00bc 9623 1ebc
00000010: 20a3 e9bb b75d 24bc b2b9 52bc 3406 ba3a
00000020: fb1d 713b dcc3 e2bb bfa0 9d3b b530 43bc
00000030: 436e 35bc 1197 39bc 9a02 38ba d5ad 863a
00000040: cc8d d03a 7e77 3bbc 405f 20bc 5d53 34bc
00000050: dea7 18bc e1d1 1dbc 4c26 54bc 60fd 093b
00000060: 9df6 c83a 3aa5 25bc 0b1f 703a aafb 8e3a
00000070: f545 3dbc a873 27bc 1d42 51bc 39cf 22bc
00000080: 3a59 dbbb f415 283b f3f8 90bb 4437 60bc
00000090: 8ff1 163a 13a5 0a3a e6cd 46bc 4da2 22bc
000000a0: cb18 27bc 39f3 48bb 23ed 48bc ef11 dfbb
000000b0: 1cba 7fbc 0708 1dbc 34d6 11bc 734d 19bc
000000c0: e2e4 ffbb e3ac 01bc c901 54ba dfcc 31bc
000000d0: 3bcb 48bc e774 923a 434f 183b 52dc 83bc
000000e0: 36fd e2bb 5616 87b9 78c3 0ebc 54db 98bc
000000f0: 2905 fbbb c846 973a 00a1 0c3b 7c98 ecbb
-0.012342127 -0.0082588 -0.007812567 -0.009652039 -0.0071300417 -0.010032109 -0.012861656 0.0014192523
0.0036791551 -0.006920321 0.004810422 -0.011913468 -0.011073652 -0.011327521 -0.00070194306 0.0010275195
0.0015911399 -0.011442063 -0.009788334 -0.0110062035 -0.009317366 -0.009632559 -0.012948584 0.0021055564
0.0015332286 -0.010110194 0.0009159899 0.0010908742 -0.011552324 -0.010220446 -0.01277211 -0.009937101
-0.0066939862 0.002564785 -0.0044242083 -0.013685051 0.0005758041 0.000528888 -0.012134051 -0.009926391
-0.010198782 -0.003066255 -0.012263569 -0.006807558 -0.015608337 -0.009584433 -0.008901168 -0.009356844
-0.0078092674 -0.007914755 -0.0008087424 -0.010852068 -0.012255485 0.0011173756 0.0023240603 -0.016096268
-0.0069271578 -0.00025765848 -0.008713596 -0.018659271 -0.0076605272 0.001154148 0.0021458268 -0.007220326

exp_avg_sq f4 [64]
00000000: cb97 cc3a d1cf e63a 9550 dc3a 03db 1d3b
00000010: 164d 0b3b 22b0 fe3a d1d7 083b 8971 ec38
00000020: c616 2f39 d7d1 d63a 1a2c 1539 9746 313b
00000030: 67f8 e63a 2dc8 0d3b 231b 8d39 fb62 6438
00000040: 7c5e d137 8571 fb3a 875e 103b fbf2 f63a
00000050: 8c54 b13a fabc d03a bace 1b3b 17c2 b138
00000060: 1cab 2338 e10f 093b 9bfe 8838 f7d1 6a38
00000070: 89e3 fb3a 67b7 d63a 76e7 1e3b 9079 da3a
00000080: 9739 f83a c3ed d438 30c3 f73a c9eb 2c3b
00000090: 8105 d138 9734 4b38 b2f4 243b fe86 bf3a
000000a0: 7fce d53a bf8d d23a fb90 cb3a da1e e03a
000000b0: 52fb 8b3b f70b cd3a 2e1a 9a3a b290 ce3a
000000c0: fd09 0f3b 5f3f d93a 8a23 0739 0e35 b83a
000000d0: d161 033b c3d6 bd38 7d6b 0a38 d2d2 b13a
000000e0: 4dc2 dd3a 7737 0539 a9b5 3a3a 5e2d d93a
000000f0: bacd c63a 74c0 4338 38d4 9c38 8a37 f03a
0.0015609203 0.0017609542 0.0016808683 0.002408684 0.0021255664 0.0019431154 0.002088059 0.000112745045
0.00016697784 0.0016389441 0.00014226176 0.0027050131 0.0017621637 0.0021634207 0.00026913834 5.445162e-05
2.495874e-05 0.0019183612 0.0022029 0.0018840724 0.0013529225 0.001592546 0.0023774342 8.47617e-05
3.9021586e-05 0.0020914006 6.532409e-05 5.5985493e-05 0.0019217591 0.0016381562 0.0024246848 0.0016668309
0.0018938062 0.00010153234 0.0018902775 0.0026385656 9.966922e-05 4.844795e-05 0.0025170264 0.0014612374
0.0016312151 0.0016063972 0.0015530878 0.0017099038 0.004271903 0.0015643825 0.001175707 0.0015759675
0.0021826022 0.0016574672 0.00012887843 0.0014053897 0.0020047317 9.052225e-05 3.300187e-05 0.0013566858
0.0016918868 0.0001270453 0.00071224064 0.0016569307 0.0015167512 4.667086e-05 7.4781885e-05 0.0018327099

exp_avg f4 [2, 64]
00000000: a159 2639 589b 913b 6bb9 893b c609 613b
00000010: e97e dd3a c57c 923b 008c 7f3b b2a5 013b
00000020: 04ac d8b8 f436 e93a 1a68 9c33 7a8d a53b
00000030: 6f84 ac3b 80b5 983b 8ff5 ec3a edc5 8a36
00000040: 7da6 1e3b a7e1 683b 792b 043b b8b3 f03a
00000050: 6998 f33b 41f9 d03a b4be a13b b2d7 d03a
00000060: d964 1a37 bf25 b53b e1db 5438 4f85 3937
00000070: 9683 973b 1834 da3b 40f7 8b3b 6641 cb3b
00000080: eb3b e43a 1315 e53a f38d 263b 8452 883b
00000090: 2649 363b 68ca 9a38 3985 9c3b 9b3e c83b
000000a0: 146b b93b 643d 3ab9 e5b4 b43a fd25 083b
000000b0: 4f65 6c3b 2215 e93b 84fb df3b 6427 dd3b
000000c0: 9c10 173b 96a7 8c3b 9cc2 fb3a c8ab 5cb9
000000d0: 3284 663b e8cb da37 23f3 42b9 09ad 5b3a
000000e0: 68db 073b dc78 013b bcb3 5f3a dbf0 3f3a
000000f0: 1b16 bd3a 1125 9238 27fc d83a bfa1 b93a
00000100: 7b59 26b9 549b 91bb 6ab9 89bb c309 61bb
00000110: e47e ddba c37c 92bb ff8b 7fbb afa5 01bb
00000120: 0eac d838 f136 e9ba 8036 9cb3 788d a5bb
00000130: 6f84 acbb 80b5 98bb 8df5 ecba 69c5 8ab6
00000140: 7ba6 1ebb a6e1 68bb 772b 04bb adb3 f0ba
00000150: 6498 f3bb 3af9 d0ba b3be a1bb b2d7 d0ba
00000160: bf64 1ab7 c025 b5bb d9db 54b8 0b85 39b7
00000170: 9883 97bb 1334 dabb 3ef7 8bbb 6541 cbbb
00000180: e93b e4ba 1415 e5ba f38d 26bb 8452 88bb
00000190: 2849 36bb 6bca 9ab8 3785 9cbb 993e c8bb
000001a0: 106b b9bb 803d 3a39 e2b4 b4ba fc25 08bb
000001b0: 4d65 6cbb 2215 e9bb 84fb dfbb 6427 ddbb
000001c0: 9810 17bb 96a7 8cbb 9cc2 fbba c0ab 5c39
000001d0: 2f84 66bb cbcb dab7 29f3 4239 17ad 5bba
000001e0: 64db 07bb dc78 01bb b4b3 5fba cdf0 3fba
000001f0: 1416 bdba 0925 92b8 26fc d8ba bba1 b9ba
0.00015864383 0.0044435672 0.0042030117 0.00343381 0.0016898784 0.00447044 0.0038993359 0.00197826
-0.00010331723 0.0017792867 7.283252e-08 0.0050522657 0.0052648108 0.0046603084 0.0018078553 4.135762e-06
0.0024208121 0.003553489 0.0020167513 0.0018364107 0.00743394 0.0015943424 0.0049360637 0.0015933423
9.202596e-06 0.0055281813 5.0749517e-05 1.1057898e-05 0.0046238406 0.006659042 0.004271418 0.0062028645
0.0017412876 0.0017477594 0.0025414198 0.0041602273 0.0027814596 7.380993e-05 0.0047766236 0.006110979
0.0056585167 -0.00017761212 0.0013786821 0.0020774596 0.0036071127 0.007113115 0.006835403 0.0067490805
0.0023050671 0.0042924387 0.0019207778 -0.00021044828 0.003517401 2.6082576e-05 -0.00018591857 0.0008379971
0.0020730142 0.0019755876 0.00085335574 0.0007321962 0.0014426144 6.968727e-05 0.001655464 0.0014162584
-0.00015864328 -0.0044435654 -0.0042030113 -0.0034338094 -0.0016898778 -0.004470439 -0.0038993356 -0.0019782593
0.0001033173 -0.0017792863 -7.2742296e-08 -0.005052265 -0.0052648108 -0.0046603084 -0.0018078551 -4.135702e-06
-0.0024208117 -0.0035534888 -0.0020167509 -0.0018364094 -0.007433938 -0.0015943416 -0.004936063 -0.0015933423
-9.202572e-06 -0.005528182 -5.0749488e-05 -1.1057836e-05 -0.0046238415 -0.0066590398 -0.004271417 -0.006202864
-0.0017412874 -0.0017477595 -0.0025414198 -0.0041602273 -0.00278146 -7.3809955e-05 -0.0047766226 -0.006110978
-0.005658515 0.00017761253 -0.0013786817 -0.0020774594 -0.0036071122 -0.007113115 -0.006835403 -0.0067490805
-0.0023050662 -0.0042924387 -0.0019207778 0.00021044817 -0.0035174002 -2.6082524e-05 0.00018591866 -0.00083799794
-0.0020730132 -0.0019755876 -0.0008533553 -0.0007321954 -0.0014426135 -6.968721e-05 -0.0016554638 -0.0014162579

exp_avg_sq f4 [2, 64]
00000000: 8385 0738 8cf6 3638 2171 3e38 20cf 0338
00000010: b22a e437 93c5 2f38 c8fc fa37 be8d 2d37
00000020: f03e 5836 aca3 0a38 8834 5a36 8945 1538
00000030: 02e2 2b38 80c4 1638 e985 0237 2b61 4336
00000040: f138 7137 e109 0438 2d9d dc37 666e fa37
00000050: e51c 8a38 e48f 1138 ae65 fe37 9a3f cc36
00000060: c1ec 8936 35d1 3738 0e1e ee35 3104 5f36
00000070: f7cf 1e38 2502 6b38 950e ea37 34d7 5a38
00000080: ef0f f037 6f3a f436 10b5 0538 c2b3 f837
00000090: ef36 b837 b047 b035 afba 0f38 9548 6338
000000a0: c014 5a38 bdcf 0838 979f 1538 dcf5 0d38
000000b0: 4ac4 bb37 d5e4 7238 4bef 7638 793d 7838
000000c0: bd7b e337 dca9 4338 6759 1137 94cb 0d38
000000d0: 05b4 f637 023f 0d36 a0ee a435 dddd 1538
000000e0: 50ac 0b38 24cb 1937 a7e5 c337 0b87 0638
000000f0: f22b 1638 ece2 be36 555d ef36 5177 f537
00000100: 8285 0738 8cf6 3638 2271 3e38 21cf 0338
00000110: b42a e437 94c5 2f38 c7fc fa37 bd8d 2d37
00000120: f03e 5836 aba3 0a38 8a34 5a36 8b45 1538
00000130: 03e2 2b38 81c4 1638 e885 0237 2b61 4336
00000140: f338 7137 e209 0438 2e9d dc37 656e fa37
00000150: e61c 8a38 e58f 1138 ae65 fe37 9b3f cc36
00000160: c2ec 8936 36d1 3738 101e ee35 3204 5f36
00000170: f7cf 1e38 2402 6b38 950e ea37 35d7 5a38
00000180: ef0f f037 6d3a f436 0eb5 0538 c3b3 f837
00000190: ec36 b837 af47 b035 afba 0f38 9248 6338
000001a0: c014 5a38 bdcf 0838 969f 1538 def5 0d38
000001b0: 49c4 bb37 d5e4 7238 4aef 7638 7d3d 7838
000001c0: bd7b e337 dea9 4338 6759 1137 93cb 0d38
000001d0: 07b4 f637 043f 0d36 a2ee a435 dedd 1538
000001e0: 51ac 0b38 24cb 1937 a7e5 c337 0b87 0638
000001f0: f22b 1638 ece2 be36 545d ef36 4f77 f537
3.231085e-05 4.3621796e-05 4.540489e-05 3.1425734e-05 2.71996e-05 4.1907257e-05 2.9920033e-05 1.03446055e-05
3.2223143e-06 3.3054195e-05 3.2515109e-06 3.5589128e-05 4.0980063e-05 3.594579e-05 7.779782e-06 2.9113824e-06
1.4377977e-05 3.1480453e-05 2.6299234e-05 2.985373e-05 6.585735e-05 3.4704703e-05 3.0326508e-05 6.087078e-06
4.11048e-06 4.382544e-05 1.7741129e-06 3.323203e-06 3.7863818e-05 5.6030363e-05 2.7901764e-05 5.2175674e-05
2.861765e-05 7.2785692e-06 3.18783e-05 2.964761e-05 2.196009e-05 1.3133886e-06 3.426772e-05 5.4188615e-05
5.1994575e-05 3.2618398e-05 3.5672998e-05 3.3845994e-05 2.2383541e-05 5.7910413e-05 5.887383e-05 5.918506e-05
2.7118129e-05 4.6649817e-05 8.663489e-06 3.3806617e-05 2.9409313e-05 2.1047313e-06 1.2288401e-06 3.5730995e-05
3.330066e-05 9.166808e-06 2.3352752e-05 3.2073858e-05 3.5803714e-05 5.6888584e-06 7.1336203e-06 2.9261837e-05
3.2310847e-05 4.3621796e-05 4.5404893e-05 3.1425738e-05 2.7199603e-05 4.190726e-05 2.9920031e-05 1.0344605e-05
3.2223143e-06 3.305419e-05 3.2515113e-06 3.5589135e-05 4.0980067e-05 3.5945795e-05 7.779781e-06 2.9113824e-06
1.4377979e-05 3.1480457e-05 2.6299236e-05 2.9853729e-05 6.5857355e-05 3.4704706e-05 3.0326508e-05 6.0870784e-06
4.1104804e-06 4.3825443e-05 1.7741131e-06 3.3232031e-06 3.7863818e-05 5.603036e-05 2.7901764e-05 5.2175677e-05
2.861765e-05 7.2785683e-06 3.187829e-05 2.9647612e-05 2.1960084e-05 1.3133885e-06 3.426772e-05 5.4188604e-05
5.1994575e-05 3.2618398e-05 3.5672994e-05 3.3846e-05 2.238354e-05 5.7910413e-05 5.8873826e-05 5.9185073e-05
2.7118129e-05 4.6649824e-05 8.663489e-06 3.3806613e-05 2.9409317e-05 2.1047317e-06 1.2288403e-06 3.5731e-05
3.3300665e-05 9.166808e-06 2.3352752e-05 3.2073858e-05 3.5803714e-05 5.6888584e-06 7.13362e-06 2.9261833e-05

exp_avg f4 [2]
00000000: 58ba 873b 58ba 87bb
0.004142087 -0.004142087

exp_avg_sq f4 [2]
00000000: 35aa 6638 36aa 6638
5.499479e-05 5.4994794e-05

exp_avg f4 [1, 64]
00000000: 9c27 06bc 23d9 a2bc c758 a5bc 8aa9 8abc
00000010: 5842 9ebc 0a3c 69bc 9153 40bb 1591 1ebb
00000020: 8d0f 38ba c126 3fbc 9194 a4ba ac8f 34bc
00000030: 3141 0bbc 6e66 20bc d15a af3b 8206 57b9
00000040: 8baf c1bb 9a56 17bc a46f 81bc d4e4 0ebc
00000050: 7664 21bc 928d 1ebc 94dc 59bb ff10 51bb
00000060: 0b17 cfb9 4c0d 5ebc 711d acb8 957d 9cb9
00000070: 0ede 0cbc 5298 d2bb de3a 91bb 8113 3fbc
00000080: 6db6 86bc be3a b2bb e24b 71bc 36c8 80bb
00000090: d1e9 073b ee99 d138 f917 04bc f715 27bc
000000a0: b41a 1abc c53a debb 4ede 55bc 00a5 47bc
000000b0: 044f e0bb d541 11bc 2bac b4bb b625 40bc
000000c0: ad84 23bc 0e9b 9bbc c619 ee3b c7e7 18bc
000000d0: 49a6 aebb 66ad 56b9 9c63 2eba b3a6 7cbc
000000e0: a9f0 53bc 8391 c63b 458f 37bc b523 39bc
000000f0: 5028 47bc 3383 0bba d0ea bcbb e8c7 5fbc
-0.008188155 -0.01987893 -0.020183934 -0.016926546 -0.019318745 -0.014235506 -0.0029346684 -0.0024195362
-0.000702136 -0.0116669545 -0.0012556483 -0.011020582 -0.00849943 -0.009790046 0.0053514023 -0.00020506422
-0.005910819 -0.009236956 -0.015800305 -0.008721549 -0.009850612 -0.009677308 -0.0033243047 -0.0031901
-0.00039499285 -0.013552975 -8.207083e-05 -0.00029848205 -0.008597864 -0.0064268494 -0.0044320663 -0.011662365
-0.01644441 -0.0054391315 -0.0147275645 -0.003930117 0.002073873 9.994568e-05 -0.008062356 -0.010198108
-0.009405781 -0.006781908 -0.01305349 -0.012185335 -0.006845357 -0.008865793 -0.005513688 -0.011727741
-0.009980363 -0.018994834 0.007266256 -0.009332604 -0.0053298813 -0.00020473226 -0.0006652416 -0.015420604
-0.012935796 0.006059827 -0.011203592 -0.011300017 -0.012155607 -0.00053219794 -0.0057652965 -0.013658501

exp_avg_sq f4 [1, 64]
00000000: 0a10 e63a 899a 043b f931 093b eee6 cd3a
00000010: c457 d83a 6637 033b d92c d13a 2236 2239
00000020: 4ccf fb38 3f69 023b e036 1a39 0b04 c53a
00000030: b3c2 033b 8e5c d53a 97d1 2439 265c ad38
00000040: 932d 4639 2aea f83a 6999 cf3a 6548 ec3a
00000050: ec6d 213b aae6 073b ec5f c23a 5a51 aa38
00000060: 2208 0b39 039b e53a 670c 4b38 9ae5 d038
00000070: 16bb fc3a 59e1 fe3a 53a8 c33a 76bd 103b
00000080: 7d21 e63a 22c8 b438 98fd 003b f900 ba3a
00000090: 5dff c339 8749 1838 f085 c63a ec3c 143b
000000a0: 1961 103b 1b3e dc3a 676c 093b 86ad 093b
000000b0: bce2 a53a 409b 0a3b 13eb 0d3b 68b7 113b
000000c0: 51f5 db3a 0e2d 0c3b 702b 4239 f0f0 e73a
000000d0: eae1 e63a a1d4 7f38 dbfb 5538 96d1 093b
000000e0: 7c50 063b 7e77 5e39 eb5b ab3a 8ee4 e73a
000000f0: f2c4 0b3b 2bc2 3e39 8f86 d338 da27 e63a
0.0017552387 0.0020233712 0.0020934327 0.0015709081 0.0016505648 0.0020022034 0.00159588 0.0001546969
0.00012007225 0.0019899157 0.00014707027 0.0015031112 0.0020105063 0.0016278194 0.00015718337 8.266447e-05
0.00018899729 0.0018990685 0.0015838566 0.0018026946 0.002463217 0.0020736852 0.0014829612 8.1213846e-05
0.00013259103 0.001751751 4.8410522e-05 9.9609795e-05 0.001928183 0.0019445821 0.0014927484 0.0022085584
0.0017557588 8.6203465e-05 0.0019682404 0.0014190964 0.0003738356 3.63081e-05 0.0015146118 0.002261932
0.002203053 0.0016803177 0.0020969154 0.002100797 0.0012656073 0.0021149665 0.0021655008 0.0022234563
0.0016781484 0.002138916 0.00018517463 0.0017695706 0.0017614935 6.0994764e-05 5.1017716e-05 0.0021029464
0.002049475 0.00021216084 0.0013073658 0.0017692016 0.0021327105 0.00018192145 0.000100863275 0.0017559484
