savedModels/ppo_cartpole_10240.pth (torch, 13659 bytes, 15 tensors)

shared_fc.0.weight f4 [64, 4]
0	0x3e0e8853	0.13919191
1	0x3eeb06b1	0.45903543
2	0x3d1e45cb	0.03864078
3	0xbeb13668	-0.3461182
4	0xbe292424	-0.16517693
5	0xbe2ff336	-0.17182621
6	0xbee2e7a6	-0.4431736
7	0xbe5cd86d	-0.21566935
8	0xbd9a5f16	-0.075376675
9	0xbea2b7d0	-0.31780863
10	0xbe4cd93c	-0.20004743
11	0xbf0187fa	-0.5059811
12	0xbdc4725e	-0.09592126
13	0xbda7e6e7	-0.08198338
14	0xbe8f38af	-0.27972934
15	0xbe86baa2	-0.26314265
16	0x3e413f0e	0.1887171
17	0x3e456255	0.19275792
18	0xbf1537dc	-0.5828836
19	0xbeaa23e9	-0.33230522
20	0xbe4ccc2b	-0.19999759
21	0x3ba6b192	0.005087086
22	0xbe705ed3	-0.23473673
23	0x3c288736	0.010286143
24	0xbdeb2f80	-0.11483669
25	0x3dd5b0d2	0.104341164
26	0x3e818fac	0.25304925
27	0x3e9f9c40	0.31173897
28	0xbda9ffea	-0.08300765
29	0xbd0c6048	-0.03427151
30	0x3c5867ff	0.013208388
31	0xbd98b3fa	-0.07456203
32	0x3e31ec05	0.1737519
33	0xbd8d333d	-0.068945386
34	0xbe0f1e10	-0.13976312
35	0x3bd5733e	0.006513982
36	0x3ec02b40	0.37532997
37	0x3e80617b	0.25074372
38	0x3e67fe63	0.22655635
39	0xbeb089ab	-0.34480032
40	0x3eae4837	0.3403947
41	0xbead775c	-0.33880126
42	0xbdbfc3ed	-0.09363542
43	0xbddbf4db	-0.10740062
44	0xbdce0c27	-0.100609116
45	0xbe94e126	-0.29078025
46	0xbd8baf1e	-0.0682051
47	0x3dec0187	0.11523729
48	0xbb38b084	-0.0028181383
49	0xbdee8e34	-0.11648217
50	0x3c9e7d9a	0.019347
51	0x3e82d9c3	0.25556764
52	0xbe215841	-0.15756322
53	0xbe1c5fec	-0.15270966
54	0x3cb37fc8	0.021911517
55	0x3dc467ad	0.09590087
56	0xbd4e28d6	-0.050331913
57	0x3d5eb429	0.054371033
58	0xbd9a2d8b	-0.07528218
59	0x3c7510f6	0.014957657
60	0x3d65cb5d	0.056102145
61	0x3da02c3d	0.07820938
62	0xbdd80c1b	-0.10549184
63	0x3de08670	0.10963142
64	0xbd3bcb8d	-0.045848418
65	0xbe8efc03	-0.27926645
66	0xbd8f77a0	-0.070052385
67	0xbdfa16d3	-0.122113846
68	0x3ecbc8c0	0.39801598
69	0x3de7e206	0.113224074
70	0xbe30fb63	-0.17283396
71	0x3e867624	0.2626201
72	0x3d41c05a	0.04730258
73	0x3d2d36c9	0.042288575
74	0xbe34505d	-0.17608781
75	0xbeb92f53	-0.36168918
76	0xbd8995f4	-0.067180544
77	0x3ea4630d	0.3210682
78	0x3d2a1090	0.0415197
79	0xbd5b1622	-0.053487904
80	0xbdee747e	-0.11643313
81	0xbebe53ae	-0.37173218
82	0x3d8d9d02	0.069147125
83	0x3ebdb843	0.37054643
84	0xbdd19c3e	-0.10234879
85	0x3e980ccf	0.29697272
86	0x3e9375cb	0.28800806
87	0xbe9619e4	-0.29316628
88	0x3c1b0b8b	0.009463201
89	0xbc0dfd33	-0.008666324
90	0x3e18bb0e	0.14915106
91	0x3f00b216	0.5027174
92	0x3dca50bd	0.09878681
93	0xbd784d80	-0.060620785
94	0xbc8ba1c6	-0.017044913
95	0xbcd4fcbe	-0.025999423
96	0x3e15d0a0	0.14630365
97	0xbaa4ea4b	-0.0012582032
98	0xbef0e6a3	-0.47050962
99	0x3e9553ec	0.2916559
100	0xbd834891	-0.06410325
101	0xbecf2632	-0.40458828
102	0xbd93c624	-0.07215527
103	0xbbaaadfd	-0.0052087293
104	0xbd14a854	-0.036293343
105	0x3da6113f	0.08108758
106	0x3c5990bb	0.013279135
107	0x3da4e26d	0.08051
108	0x3e053c9b	0.130114
109	0x3d06851d	0.03284179
110	0x3c879f2e	0.016555395
111	0x3d81cb62	0.0633762
112	0xbd6e29f4	-0.05814548
113	0xbd04fc99	-0.03246746
114	0x3d3d9cd0	0.046292126
115	0x3e1df5e1	0.15425827
116	0xbe4b6a9c	-0.19864887
117	0xbecb7e23	-0.39744672
118	0x3ecc0d64	0.39853966
119	0x3e8a5fed	0.2702631
120	0x3e3529d7	0.17691742
121	0xbe03ca93	-0.12870245
122	0x3ea6e044	0.32592976
123	0x3e5218a0	0.20517206
124	0xba997fab	-0.0011711022
125	0xbeb9c879	-0.3628576
126	0x3cf1ee46	0.029532563
127	0x3e0e40cb	0.13891904
128	0x3e023a33	0.12717514
129	0x3e1d5e59	0.15368022
130	0xbe80c413	-0.25149593
131	0xbeb5101a	-0.35363847
132	0x3dfc066e	0.12305914
133	0xbe65d9df	-0.22446392
134	0x3dc78e61	0.097439535
135	0xbe770ae4	-0.24125248
136	0x3ec240ec	0.37940156
137	0x3db53dea	0.088497
138	0xbe15324b	-0.14569966
139	0xbe584705	-0.21120842
140	0xbe3339e3	-0.17502551
141	0x3b38c39f	0.002819277
142	0x3e7e8969	0.24857105
143	0x3e864324	0.262231
144	0xbe9a7b8c	-0.30172384
145	0xbc494534	-0.012284566
146	0x3e64820d	0.22315235
147	0xbdd51c13	-0.10405745
148	0xbde7ab1d	-0.11311934
149	0x3e6e6d34	0.23283845
150	0xbd099c46	-0.0335963
151	0x3e1e9241	0.15485479
152	0xbdbcaa4a	-0.092121676
153	0xbe6aa5b5	-0.22914775
154	0x3e314bcd	0.17314072
155	0x3df0154a	0.117228106
156	0xbebf5854	-0.37372077
157	0xbe2e4696	-0.17019114
158	0xbe06a90e	-0.13150427
159	0x3ec46c48	0.38363862
160	0xbe90341b	-0.28164753
161	0xbe85ca40	-0.26130867
162	0x3e4412a0	0.1914773
163	0x3e16d43c	0.14729398
164	0x3cbd88ef	0.023136584
165	0x3f0d2867	0.55139774
166	0xbd307c92	-0.04308755
167	0xbe99f58a	-0.30070144
168	0xbe4554e6	-0.19270667
169	0x3ebc1550	0.3673501
170	0xbda9d50f	-0.08292591
171	0xbe8a9b48	-0.27071595
172	0x3e6a05dc	0.22853798
173	0x3e4c8142	0.19971183
174	0x3e14e45f	0.14540242
175	0xbe933464	-0.28750908
176	0x3ee3364a	0.44377357
177	0xbd3c3b2f	-0.04595488
178	0x3c2ad6ae	0.01042716
179	0x3e6f7638	0.2338494
180	0x3e100d36	0.1406754
181	0xbefcce37	-0.4937608
182	0x3e9e806a	0.30957347
183	0x3e4e7909	0.20163359
184	0xbe1503fd	-0.14552303
185	0xbea5c3c8	-0.32375932
186	0x3f033495	0.5125211
187	0x3e7deb4f	0.24796794
188	0x3cd684d1	0.026186379
189	0xbeffba49	-0.49946812
190	0x3e2adc7d	0.16685672
191	0x3dad02f8	0.08447832
192	0x3e8f2c4d	0.27963486
193	0x3d6a779a	0.057242967
194	0x3e3c8877	0.18411432
195	0xbe2d8295	-0.16944344
196	0xbe3474de	-0.17622706
197	0xbe4f0da0	-0.20220041
198	0xbe38df3f	-0.18053912
199	0xbebbc203	-0.36671457
200	0xbd2ce5a4	-0.04221119
201	0x3c3f3333	0.011669922
202	0xbbc13da6	-0.0058972416
203	0x3dba73f0	0.091041446
204	0x3e9a9d2a	0.30198032
205	0x3ec85098	0.39123988
206	0xbd7cf7d1	-0.061759774
207	0xbf173158	-0.5905967
208	0x3ebc432f	0.36770007
209	0x3d8f425f	0.06995081
210	0x3e29e806	0.16592416
211	0x3e8113d2	0.25210434
212	0x3ca53667	0.020167543
213	0xbbc1d3aa	-0.005915125
214	0x3d815120	0.063143015
215	0xbadfac16	-0.0017064835
216	0x3c980856	0.018558662
217	0x3b6b9bf6	0.0035951114
218	0xbe3b8c02	-0.18315127
219	0xbe394412	-0.18092373
220	0x3d0a3a0d	0.033746768
221	0x3e4dfd67	0.20116197
222	0xbce31462	-0.02771968
223	0xbf1ea1cb	-0.61965626
224	0x3e9fc103	0.31201944
225	0x3e55fb0c	0.20896548
226	0x3d9a6583	0.07538893
227	0xbe9b3491	-0.30313542
228	0xbe1775d9	-0.14791049
229	0x3d9f5a4f	0.07780897
230	0xbe5ba32c	-0.21448964
231	0x3e796740	0.24355793
232	0x3e8b4fe4	0.2720939
233	0x3e976000	0.2956543
234	0xbdcd04bd	-0.100106694
235	0xbe07e218	-0.13269842
236	0xbea2bbb6	-0.31783837
237	0x3e95b307	0.2923815
238	0xbd45303b	-0.0481417
239	0xbed042d4	-0.40675986
240	0x3e0c4071	0.13696457
241	0x3ec2b5c9	0.38029316
242	0x3d5c3b06	0.053767227
243	0xbe81443e	-0.25247377
244	0x3eb16347	0.34646055
245	0xbc9a06a4	-0.018801995
246	0x3e05f526	0.13081798
247	0x3b868771	0.0041055013
248	0x3d2e2405	0.04251482
249	0x3b92b4f2	0.004477137
250	0xbe6c4406	-0.23072824
251	0x3c98184b	0.018566271
252	0x3e4877db	0.19576971
253	0x3e8ea10e	0.2785725
254	0xbd86ad53	-0.06576028
255	0xbea41996	-0.3205077

shared_fc.0.bias f4 [64]
0	0x3e583af0	0.21116233
1	0x3e860ef2	0.26183277
2	0x3e7e3d48	0.24828064
3	0x3e638e0b	0.22222154
4	0x3e59d938	0.21274269
5	0x3e6efa0c	0.23337573
6	0x3e6bfa26	0.23044643
7	0xbd6958ee	-0.056969576
8	0xbd81d23d	-0.06338928
9	0x3e7c5288	0.24640858
10	0xbdba1ac4	-0.090871364
11	0x3e53cd54	0.20683795
12	0x3e8f5428	0.27993894
13	0x3e677582	0.2260342
14	0xbd24718a	-0.04014734
15	0xbd7809df	-0.06055629
16	0xbd83bc48	-0.06432396
17	0x3e2091bd	0.15680595
18	0x3e6100ba	0.21972933
19	0x3e83ea53	0.25764713
20	0x3e890699	0.26762846
21	0x3e909e5e	0.28245825
22	0x3e4f5e0c	0.2025072
23	0xbd2aa06d	-0.0416569
24	0xbdcab74b	-0.098982416
25	0x3e61e4df	0.22059964
26	0xbd5c5015	-0.05378731
27	0xbd6434b9	-0.055714343
28	0x3e577792	0.21041706
29	0x3e5f7c75	0.2182482
30	0x3e627f37	0.22118841
31	0x3e8a1f2f	0.26976916
32	0x3e6c1f0a	0.23058715
33	0xbdaa8c84	-0.083275825
34	0x3e8781ad	0.26466122
35	0x3e56f318	0.2099117
36	0xbd9189b2	-0.071063414
37	0xbd9288f8	-0.07155031
38	0x3e5bc4f2	0.21461847
39	0x3e893030	0.26794577
40	0x3e8be189	0.27320507
41	0x3e4f2144	0.20227534
42	0x3e8f1cb0	0.27951574
43	0x3e902e67	0.28160402
44	0x3e4b11ac	0.1983096
45	0x3e79a728	0.24380171
46	0x3e02c536	0.12770543
47	0x3e86342f	0.26211688
48	0x3e76cc19	0.24101295
49	0x3e8a8e5d	0.2706174
50	0xbd861f1f	-0.06548905
51	0x3e4abab0	0.19797778
52	0x3e7d8a38	0.24759758
53	0xbca4701a	-0.020072985
54	0xbd846f3b	-0.06466528
55	0x3e7ecc0e	0.24882528
56	0x3e88a716	0.26689976
57	0xbdbb82fe	-0.09155844
58	0xbd0cad5c	-0.034345016
59	0x3e65289c	0.22378772
60	0x3e68961a	0.22713509
61	0xbd411889	-0.04714254
62	0xbd1e694c	-0.038674638
63	0x3e658d6f	0.22417234

actor_head.weight f4 [2, 64]
0	0x3cfa9930	0.030590624
1	0x3da2e0a5	0.07953004
2	0x3d9d6218	0.076847255
3	0x3dca10c8	0.09866482
4	0x3d3e65d8	0.046483845
5	0x3cb23cbe	0.02175748
6	0xbdffc3c2	-0.1248851
7	0x3cf7a9fa	0.030232418
8	0xbcb9edcd	-0.0226964
9	0x3cf06d23	0.029348915
10	0x3d124918	0.03571424
11	0xbd8ac318	-0.067754924
12	0xbddc9c98	-0.107720554
13	0xbd762d4a	-0.060101785
14	0xbb8f046e	-0.0043645417
15	0xbce45194	-0.02787093
16	0xbcb67039	-0.022270309
17	0xbd83e9f4	-0.064411074
18	0x3d62aa2b	0.055338066
19	0xbc8027e1	-0.015644016
20	0xbda23347	-0.079199366
21	0x3cf3b5fe	0.029749867
22	0xbdaa1cc7	-0.0830627
23	0xbaa0879d	-0.0012247447
24	0xbd60c252	-0.05487282
25	0xbd20187a	-0.039085843
26	0xbc76fc6c	-0.0150748305
27	0xbc4594f2	-0.012059437
28	0xbe00c2f9	-0.12574376
29	0xbd903f37	-0.07043307
30	0xbdd62b52	-0.104574814
31	0xbd90f71f	-0.070783846
32	0x3d4bb9c8	0.04973772
33	0x3cdd0d8e	0.026984002
34	0x3d668722	0.056281216
35	0xbdfda448	-0.1238485
36	0x3c8ae321	0.016954007
37	0xbd46dcaf	-0.048550304
38	0xbdb9bea2	-0.090695634
39	0xbdba2342	-0.09088756
40	0xbdbb873d	-0.09156654
41	0x3d3b2c4e	0.04569655
42	0x3d68e4d5	0.056858856
43	0x3d6bda62	0.057581313
44	0xbdd66ca5	-0.10469941
45	0xbd47ef5f	-0.048812266
46	0xbd487eeb	-0.048949163
47	0xbd866de6	-0.0656393
48	0x3d234652	0.039861985
49	0x3dc1c980	0.09462261
50	0xbcdc89a0	-0.026921093
51	0x3d6b483c	0.057441935
52	0xbdf3c3ec	-0.119026035
53	0xbb229828	-0.002480993
54	0x3c471fe7	0.012153602
55	0x3d404003	0.046936046
56	0x3d201d4e	0.039090447
57	0xbcf489f8	-0.029850945
58	0x3d0e9cd0	0.034817517
59	0x3d606686	0.054785274
60	0x3d44ce2d	0.048048187
61	0xbcf37c5d	-0.029722387
62	0x3c7c60fa	0.01540398
63	0x3cb286df	0.021792827
64	0xbcd69d33	-0.026198005
65	0xbdb845b2	-0.08997668
66	0xbdb40877	-0.08790677
67	0xbdd05d78	-0.10174078
68	0xbd91cef8	-0.07119554
69	0xbc90e1b6	-0.017685752
70	0x3e099dc6	0.13439092
71	0xbcdbe7d4	-0.026843943
72	0x3be0878f	0.0068520973
73	0xbd6e8ab3	-0.058237743
74	0x3bdc7266	0.0067275045
75	0x3d690051	0.056885067
76	0x3df27ec2	0.118405834
77	0x3db1bf9e	0.08679126
78	0xbc4508f8	-0.012026064
79	0x3c676e78	0.014125459
80	0xbd1e7b3c	-0.038691744
81	0x3d800c98	0.06252402
82	0xbd89d3b2	-0.06729831
83	0x3c1747ee	0.009233458
84	0x3d57f8a3	0.052727353
85	0xbd48437b	-0.04889248
86	0x3dc1c4bb	0.094613515
87	0xbc9a429c	-0.01883059
88	0x3d0b6e75	0.034040887
89	0x3cebad1b	0.028769067
90	0x3d0bc7ce	0.034126095
91	0x3c91cd6c	0.017798148
92	0x3dba9879	0.09111113
93	0x3da28a87	0.07936578
94	0x3dfb7eb8	0.12280029
95	0x3dc28e2f	0.094997756
96	0xbd675fae	-0.05648773
97	0xbcb1f830	-0.02172479
98	0xbd23bc1e	-0.039974324
99	0x3e0ae132	0.13562468
100	0xbb778e37	-0.0037773976
101	0x3d0e1e76	0.03469702
102	0x3da314b0	0.0796293
103	0x3da25276	0.079258844
104	0x3da07d6e	0.07836424
105	0xbd0bc91f	-0.03412735
106	0xbd5c546d	-0.053791452
107	0xbd893e18	-0.067012966
108	0x3d95af20	0.07308793
109	0x3d93d179	0.07217688
110	0x3d0d8a1c	0.03455554
111	0x3d86242d	0.06549869
112	0xbc91c13a	-0.017792333
113	0xbdc6cae4	-0.09706667
114	0x3ce1f05f	0.027580438
115	0xbd0e10c1	-0.034683947
116	0x3e085a36	0.13315663
117	0x3b96f5d2	0.004606941
118	0xbca1962b	-0.019724926
119	0xbd671956	-0.056420647
120	0xbd1faf5f	-0.038985606
121	0x3cf14e01	0.02945614
122	0xbd042838	-0.032264918
123	0xbd438464	-0.04773368
124	0xbd168588	-0.03674844
125	0x3d006ff3	0.031356763
126	0xbb9f3631	-0.004858755
127	0xbd64c2a6	-0.055849694

actor_head.bias f4 [2]
0	0xbcf024f6	-0.0293145
1	0x3cf024f6	0.0293145

critic_head.weight f4 [1, 64]
0	0x3e94e157	0.2907817
1	0x3e8a8d9e	0.2706117
2	0x3e89b98a	0.26899368
3	0x3ec724c6	0.38895243
4	0x3eb4e0c8	0.35327744
5	0x3e7d99bd	0.24765678
6	0x3ea383fd	0.31936637
7	0xbde6fbd7	-0.112785034
8	0xbe104a87	-0.1409093
9	0x3e810a3e	0.25203127
10	0xbdc4c1cf	-0.096072786
11	0x3eead9f0	0.45869398
12	0x3e84e3dd	0.25955096
13	0x3eaddfe1	0.3395987
14	0xbe688cc3	-0.22709946
15	0xbd872fc0	-0.066009045
16	0xbc260f95	-0.010135551
17	0x3e348429	0.1762854
18	0x3eb4b67a	0.3529547
19	0x3e8cb248	0.27479768
20	0x3e50de66	0.20397338
21	0x3e6cd10f	0.23126625
22	0x3ed3a5af	0.41337344
23	0xbdb13632	-0.08652915
24	0xbd714926	-0.05890765
25	0x3eb321a9	0.34986618
26	0xbdb8338e	-0.08994208
27	0xbd3c5781	-0.045981888
28	0x3e5cd7ec	0.21566743
29	0x3e99f626	0.3007061
30	0x3ec14425	0.37747303
31	0x3e788c30	0.24272227
32	0x3e96db27	0.29464075
33	0xbe232eab	-0.15935771
34	0x3e8b86a5	0.27251163
35	0x3eda853f	0.42679784
36	0xbd835221	-0.06412149
37	0xbdf42bb2	-0.11922397
38	0x3ed2f057	0.4119899
39	0x3e6f57cd	0.23373337
40	0x3e7ddcf8	0.24791324
41	0x3ea420e9	0.32056358
42	0x3e68d151	0.22736098
43	0x3e770251	0.24121977
44	0x3f29b212	0.6628734
45	0x3e81b2bc	0.25331676
46	0x3de1b1ca	0.11020239
47	0x3e7c8bcb	0.24662702
48	0x3ea4f3ce	0.32217258
49	0x3e826ed7	0.2547519
50	0xbd60f879	-0.054924462
51	0x3ea51b23	0.32247266
52	0x3e95e0f8	0.292732
53	0xbd81609e	-0.063172564
54	0xbb81131e	-0.0039390465
55	0x3e5f1888	0.21786702
56	0x3e7bd842	0.24594215
57	0xbdb52c1c	-0.08846304
58	0x3d0697c5	0.032859582
59	0x3e8d6bec	0.276214
60	0x3e3ceba1	0.1844926
61	0xbc41c969	-0.011827805
62	0xbc9374c8	-0.018000022
63	0x3e96f29b	0.29481968

exp_avg f4 [64, 4]
0	0xba6bb92c	-0.00089921313
1	0xbb4689cf	-0.0030294543
2	0xbaa635da	-0.0012680844
3	0xbb436794	-0.0029816376
4	0xb965495c	-0.0002186647
5	0x3abdf54e	0.0014492662
6	0xba325236	-0.00068024115
7	0xbbba908d	-0.0056935013
8	0x39e678c1	0.00043958987
9	0x3a8f7ce3	0.0010947253
10	0xb955aec1	-0.00020378364
11	0xbb05f2b4	-0.0020438852
12	0xb8c3c79f	-9.335507e-05
13	0x3aaf3eb4	0.0013370127
14	0xba79cf25	-0.0009529463
15	0xbbd73d5c	-0.006568594
16	0xb9a1a21c	-0.00030829094
17	0xbaee5cf4	-0.0018185661
18	0xba5886a5	-0.00082598097
19	0xbb011017	-0.0019693428
20	0xb9c39051	-0.00037300822
21	0x39fd8548	0.00048355223
22	0xbaa268fe	-0.0012390909
23	0xbbd8eca0	-0.006620005
24	0xb9ad52b6	-0.00033058756
25	0xb9cb586b	-0.00038785054
26	0xbab7ee1b	-0.0014032753
27	0xbbc3c60c	-0.0059745368
28	0xb8280563	-4.0059338e-05
29	0xb69dc3ec	-4.701773e-06
30	0x38187ebd	3.635766e-05
31	0x38f69c7f	0.00011759344
32	0xb558959b	-8.0683975e-07
33	0x379addb2	1.8461466e-05
34	0x371f03ae	9.477995e-06
35	0x375a869a	1.3025152e-05
36	0xba600c9a	-0.00085467997
37	0xbaf288f4	-0.001850395
38	0xba97d3ab	-0.0011583468
39	0xbb82ea26	-0.003995198
40	0x36c020d9	5.72587e-06
41	0xb971ec17	-0.00023071501
42	0x390a92a3	0.00013215332
43	0x3a5a91f5	0.00083377893
44	0xba18660b	-0.00058135454
45	0x3a848207	0.0010109552
46	0xbb12d415	-0.0022404243
47	0xbc458016	-0.012054464
48	0x39067c72	0.00012825595
49	0x395577dc	0.00020357914
50	0xbaf731a0	-0.0018859394
51	0xbbfe745b	-0.0077653355
52	0xb932f9b8	-0.0001706843
53	0x39ae4e36	0.00033246138
54	0xbb08fbae	-0.0020901966
55	0xbc1b4c47	-0.009478635
56	0x32902587	1.6780872e-08
57	0x343e0f50	1.77007e-07
58	0x326c7b19	1.3764997e-08
59	0xb3df9e71	-1.0413067e-07
60	0x3917df8e	0.00014483763
61	0x38cc763f	9.749503e-05
62	0x39055969	0.00012717176
63	0x3a1f667e	0.0006080641
64	0xb7d032e3	-2.4819228e-05
65	0xb6ff9d1b	-7.6178817e-06
66	0x37b90a93	2.2058643e-05
67	0x3894c3cf	7.093662e-05
68	0xb90c2a7f	-0.00013367271
69	0x393b9c3f	0.00017891916
70	0xba84f491	-0.0010143687
71	0xbb949b8e	-0.004535145
72	0xb83e860a	-4.5424364e-05
73	0xb9a18ffa	-0.00030815584
74	0xba5614d3	-0.0008166555
75	0xbb6ef156	-0.0036459765
76	0xb9c9e394	-0.00038507266
77	0xb781ca3d	-1.5472173e-05
78	0xbacb6995	-0.0015519137
79	0xbbed06e7	-0.007233489
80	0xb9383e1b	-0.00017570744
81	0x3a501e59	0.00079390925
82	0xba6adb81	-0.00089591
83	0xbba8bd93	-0.005149552
84	0xba117ef8	-0.0005550231
85	0xba1434ed	-0.00056536385
86	0xba8fb391	-0.0010963549
87	0xbba1fba3	-0.0049433275
88	0xba17a46d	-0.0005784694
89	0x3adcde34	0.001685089
90	0xbacf54a8	-0.0015818076
91	0xbc23b001	-0.009990693
92	0x35090645	5.10456e-07
93	0x365c9a55	3.2872388e-06
94	0x34b816f7	3.428938e-07
95	0xb5d8d522	-1.6155284e-06
96	0x391fd1cd	0.00015241579
97	0xba16cd1a	-0.00057526084
98	0x392eabbc	0.00016657909
99	0x3ae85fc9	0.0017728742
100	0xb91e335c	-0.00015087187
101	0x3ac201ea	0.0014801596
102	0xbaebb0a8	-0.0017981725
103	0xbc234aed	-0.009966594
104	0x394ceb64	0.00019542646
105	0x398763c8	0.0002582355
106	0x393f375a	0.000182358
107	0x3a32d8d7	0.0006822473
108	0x39005c83	0.00012241495
109	0x391daf40	0.00015037972
110	0x38e11d45	0.00010734288
111	0x39da4f74	0.00041639397
112	0x3950c797	0.00019910779
113	0x3983fba9	0.00025173769
114	0xbada9e0c	-0.0016679182
115	0xbbdd79e4	-0.0067589153
116	0xb9820fbb	-0.00024807252
117	0x3acd5996	0.0015666957
118	0xba9e2f23	-0.0012068491
119	0xbbfd3dd1	-0.0077283164
120	0xba1a9ae5	-0.0005897715
121	0xb991de16	-0.00027822022
122	0xbb059fe4	-0.0020389492
123	0xbc166ec5	-0.009181683
124	0x38198260	3.6599464e-05
125	0x39bd6c0d	0.00036129393
126	0xbad7e2e5	-0.0016470818
127	0xbbebd9f3	-0.0071976124
128	0xb9f2378e	-0.00046199228
129	0xba9600d5	-0.001144434
130	0xba6c16a1	-0.00090060575
131	0xbb5feb83	-0.0034167476
132	0xb9804b6f	-0.00024470265
133	0xb9412565	-0.00018419845
134	0x39c7b92a	0.00038094196
135	0x3aa69ba6	0.0012711182
136	0xba25021e	-0.0006294566
137	0x392031c4	0.00015277328
138	0xbaa44dce	-0.0012535395
139	0xbbddbbde	-0.0067667803
140	0xb9cf6055	-0.0003955389
141	0xb986b0ae	-0.00025690108
142	0xbafd0148	-0.001930275
143	0xbc0c64a8	-0.00856892
144	0xb862e5cf	-5.4096625e-05
145	0x389cca27	7.4763135e-05
146	0x38289163	4.0189723e-05
147	0xb817b829	-3.6172718e-05
148	0x39a56ade	0.00031550875
149	0x39ec26a6	0.00045042223
150	0x399aac98	0.0002950176
151	0x3a8b8cb1	0.0010646788
152	0xba1b1227	-0.00059154857
153	0x3773e55b	1.453733e-05
154	0xbb119395	-0.002221321
155	0xbc2cbdc1	-0.010543288
156	0xb982e0dc	-0.00024963066
157	0x39a23c92	0.00030944176
158	0xba989c2f	-0.0011643226
159	0xbbbb077e	-0.0057076802
160	0xb988b229	-0.0002607268
161	0xb95ae1d4	-0.00020874228
162	0xbabdc1b1	-0.001447728
163	0xbbcdcc26	-0.00628044
164	0xba8b5bea	-0.0010632251
165	0xbb7b8686	-0.0038379743
166	0xbab6479b	-0.0013906838
167	0xbb3257d9	-0.0027213006
168	0xba2611a2	-0.0006335025
169	0xba3e0925	-0.00072492874
170	0xba731d04	-0.0009274038
171	0xbb8a9f65	-0.004230427
172	0xba32c45a	-0.000681942
173	0xb9893827	-0.00026172513
174	0xba88ad50	-0.0010427628
175	0xbbb25da8	-0.0054432936
176	0xb98cd31b	-0.00026860167
177	0x3b0afff4	0.002120969
178	0xbb6ae17f	-0.0035839973
179	0xbc95a536	-0.018267255
180	0xb99e89fa	-0.0003023891
181	0x3a8c4aac	0.0010703406
182	0xbaab8aee	-0.0013087669
183	0xbbf60ddf	-0.007508978
184	0xb8e81d52	-0.000110680834
185	0x3a361b74	0.000694684
186	0xb9f7ebca	-0.00047287188
187	0xbb49a3ef	-0.0030767878
188	0xb98b58b7	-0.00026578244
189	0x3a1456f7	0.0005658711
190	0xbaaebf78	-0.0013332209
191	0xbbe037c1	-0.006842584
192	0xba05af74	-0.0005099692
193	0x3a1d3831	0.0005997448
194	0xbad26af5	-0.0016053604
195	0xbc0cc8b7	-0.008592776
196	0xb8c3e58d	-9.341082e-05
197	0x3a8a8b00	0.001056999
198	0xb9e65fff	-0.0004394054
199	0xbb819050	-0.003953971
200	0x36b91490	5.5158234e-06
201	0xb8520c89	-5.0079576e-05
202	0x378848ba	1.624633e-05
203	0x3922d28c	0.00015527959
204	0xb9643402	-0.00021763149
205	0xbb6b89a0	-0.0035940185
206	0xba38133d	-0.00070219097
207	0x3ab858ee	0.0014064589
208	0xb91bd2af	-0.00014860438
209	0x36d3bdb3	6.310374e-06
210	0xbb074ef2	-0.002064642
211	0xbc0b9718	-0.00851991
212	0x31b060c6	5.133276e-09
213	0x31d66583	6.2397603e-09
214	0x30db3b60	1.5951223e-09
215	0x3157e951	3.1419243e-09
216	0xb881abe7	-6.183219e-05
217	0xb88ef19a	-6.8160894e-05
218	0x3837b375	4.3797732e-05
219	0x393431c7	0.00017184681
220	0xb644897e	-2.9286307e-06
221	0xbadbcee5	-0.0016770033
222	0xb9b80dbb	-0.00035105445
223	0x3a21a3af	0.00061660534
224	0xba53c4ce	-0.00080783374
225	0xba7ac410	-0.0009565959
226	0xba98fba9	-0.001167168
227	0xbba9c9a2	-0.005181507
228	0x396cd611	0.0002258646
229	0xb9f4c4f9	-0.00046686063
230	0x398433bc	0.00025215547
231	0x3b0c4dcb	0.0021408673
232	0xb8c9cf99	-9.623095e-05
233	0xba002fee	-0.00048899546
234	0x37ae7683	2.0797603e-05
235	0x3a03336e	0.0005004917
236	0x38ba3a0c	8.879983e-05
237	0xbafc1392	-0.0019231907
238	0xba114d26	-0.0005542807
239	0x39889c46	0.00026056374
240	0xba30e79e	-0.0006748381
241	0xbac02d08	-0.0014661858
242	0xba560400	-0.0008164048
243	0xbb352f59	-0.002764663
244	0x38fd65cf	0.000120829434
245	0x39263432	0.00015850438
246	0x36b794a6	5.47113e-06
247	0x38406e34	4.5879002e-05
248	0xb7b084fb	-2.1042759e-05
249	0xb719fc0a	-9.178193e-06
250	0x37c7f289	2.3835588e-05
251	0x387e1996	6.0582148e-05
252	0xba6770bd	-0.000882875
253	0xbb1f3b4c	-0.0024296818
254	0xbaad9aa5	-0.001324494
255	0xbb809efd	-0.003925203

exp_avg_sq f4 [64, 4]
0	0x35f44a46	1.8201033e-06
1	0x37d87d4b	2.580755e-05
2	0x34de3ebd	4.139637e-07
3	0x38143bae	3.534153e-05
4	0x360b57a3	2.0763625e-06
5	0x370e7b70	8.4926e-06
6	0x34e2603f	4.216581e-07
7	0x3741845b	1.1534513e-05
8	0x3602844d	1.9448519e-06
9	0x370d4e57	8.422495e-06
10	0x35031788	4.8835545e-07
11	0x37810d25	1.538412e-05
12	0x36cdd87c	6.134678e-06
13	0x37fc196a	3.0052575e-05
14	0x35c44f67	1.4626247e-06
15	0x384b2797	4.8435842e-05
16	0x365ea1b2	3.3174697e-06
17	0x37fc33d3	3.0064873e-05
18	0x3589b396	1.0259562e-06
19	0x3870a2a8	5.7371944e-05
20	0x3575a683	9.151192e-07
21	0x36905dd9	4.3024597e-06
22	0x348433f4	2.4624717e-07
23	0x36d9f54f	6.4956616e-06
24	0x3620c608	2.3957127e-06
25	0x3768222f	1.3836237e-05
26	0x356e4301	8.875941e-07
27	0x37e6204a	2.7433172e-05
28	0x3522bb90	6.062264e-07
29	0x36ccde5d	6.1055603e-06
30	0x33eb7cfb	1.0965774e-07
31	0x37464844	1.1818545e-05
32	0x34db165d	4.08082e-07
33	0x375477da	1.266409e-05
34	0x33c5410b	9.1853586e-08
35	0x37a08d85	1.9139386e-05
36	0x35b6e196	1.3625711e-06
37	0x37322f6f	1.0620671e-05
38	0x34aaa30b	3.1783597e-07
39	0x3780f95e	1.537491e-05
40	0x35723c25	9.0239547e-07
41	0x379e3b41	1.886266e-05
42	0x3421353b	1.5013659e-07
43	0x379f804f	1.9014025e-05
44	0x371c9834	9.333762e-06
45	0x38c94a76	9.598296e-05
46	0x35e17e6b	1.6800599e-06
47	0x38e53487	0.00010929355
48	0x35d2e9b5	1.5714237e-06
49	0x3706fc7a	8.045807e-06
50	0x34f7eec1	4.6181052e-07
51	0x37458870	1.1773882e-05
52	0x3679fe65	3.7251968e-06
53	0x37b1cf51	2.1196583e-05
54	0x356360b8	8.4704834e-07
55	0x37d1cacc	2.5009176e-05
56	0x34510476	1.9466265e-07
57	0x37a94898	2.0180174e-05
58	0x33c9c8d7	9.3963244e-08
59	0x37d7f405	2.5743628e-05
60	0x33d81d37	1.0063598e-07
61	0x36265274	2.4783922e-06
62	0x3382eef0	6.097059e-08
63	0x36fcd8b1	7.5354114e-06
64	0x342efe6c	1.6297571e-07
65	0x365d2db8	3.2958178e-06
66	0x32b2ac55	2.0800295e-08
67	0x3677a369	3.6900985e-06
68	0x34a16f70	3.0069668e-07
69	0x35a8fecd	1.2591132e-06
70	0x33b5edc9	8.471722e-08
71	0x361737b5	2.253318e-06
72	0x3678a4e8	3.7050868e-06
73	0x37d2da6d	2.5135663e-05
74	0x3585d402	9.970975e-07
75	0x384f0ec5	4.93664e-05
76	0x35c0b15d	1.4356734e-06
77	0x3726bbe0	9.938114e-06
78	0x34d263c9	3.918815e-07
79	0x37622395	1.3478934e-05
80	0x352ad4a8	6.363939e-07
81	0x36c66402	5.9125023e-06
82	0x3443efba	1.8248002e-07
83	0x370ba374	8.3231025e-06
84	0x356fb153	8.929248e-07
85	0x36c9dade	6.0157463e-06
86	0x3487b86c	2.5279894e-07
87	0x371a3d14	9.193336e-06
88	0x369d0a2e	4.6801497e-06
89	0x3878596d	5.9211092e-05
90	0x35e851ce	1.7309155e-06
91	0x3906fb37	0.0001287282
92	0x33f55220	1.142364e-07
93	0x364b5461	3.0298472e-06
94	0x32cb9622	2.3700583e-08
95	0x3690569f	4.3016184e-06
96	0x347b41c9	2.3400129e-07
97	0x371c80af	9.328286e-06
98	0x33a279bb	7.5658555e-08
99	0x3793e7f2	1.7631774e-05
100	0x368fb484	4.282747e-06
101	0x3813ab85	3.520727e-05
102	0x355b2c5e	8.164842e-07
103	0x38141e2c	3.531405e-05
104	0x33ae0e64	8.105124e-08
105	0x35f59290	1.8296578e-06
106	0x3447e7a8	1.8617595e-07
107	0x36dd6bd1	6.5988647e-06
108	0x33d4dc80	9.912128e-08
109	0x35ca67f8	1.5080432e-06
110	0x332b6c45	3.991251e-08
111	0x369a425d	4.5972834e-06
112	0x351adba3	5.7689084e-07
113	0x3637e629	2.7403096e-06
114	0x347e655d	2.3692469e-07
115	0x36982276	4.533965e-06
116	0x363bd11c	2.798689e-06
117	0x3810f502	3.4560457e-05
118	0x3524a4d7	6.1334634e-07
119	0x384110c0	4.6030385e-05
120	0x368f25f6	4.2661513e-06
121	0x38086cf0	3.2526383e-05
122	0x35b0b9ac	1.316706e-06
123	0x387e0b23	6.056869e-05
124	0x358e3599	1.0595423e-06
125	0x36e86340	6.925693e-06
126	0x34b22b41	3.3186555e-07
127	0x371d83eb	9.388644e-06
128	0x360b0571	2.0715781e-06
129	0x3785150c	1.5864636e-05
130	0x3516bdcd	5.615555e-07
131	0x37f2cfbd	2.8945384e-05
132	0x35e76d22	1.7242603e-06
133	0x376c08dc	1.4068759e-05
134	0x352c6c87	6.423292e-07
135	0x38013963	3.0809442e-05
136	0x35dd3a93	1.648283e-06
137	0x370f3a2b	8.5370075e-06
138	0x34e71a32	4.3046163e-07
139	0x375df5e9	1.3229882e-05
140	0x36dae558	6.5236054e-06
141	0x384bc24a	4.8579917e-05
142	0x360d130b	2.1021722e-06
143	0x38b5c86d	8.668085e-05
144	0x34a3ce5f	3.051127e-07
145	0x369816ce	4.532608e-06
146	0x32db886a	2.555699e-08
147	0x36fa93ae	7.467773e-06
148	0x344213b8	1.8074832e-07
149	0x3707c4c0	8.0924365e-06
150	0x34bd6c86	3.5282955e-07
151	0x366602d7	3.4274324e-06
152	0x36e7a064	6.9030084e-06
153	0x387c165c	6.0102306e-05
154	0x35c4b6a9	1.4656299e-06
155	0x389ed4cd	7.573664e-05
156	0x358872c8	1.0166195e-06
157	0x371ffd92	9.5361775e-06
158	0x34aaf380	3.1842137e-07
159	0x37553bdf	1.2709729e-05
160	0x358fc16c	1.0710623e-06
161	0x36f8b3a0	7.411887e-06
162	0x34bc1b96	3.50378e-07
163	0x37204409	9.552584e-06
164	0x36126fb7	2.1820722e-06
165	0x381cacf9	3.735439e-05
166	0x350c220e	5.220362e-07
167	0x38507baa	4.9706236e-05
168	0x3559eee5	8.1186437e-07
169	0x36c927d7	5.9949048e-06
170	0x3482dd30	2.4375322e-07
171	0x371d9b71	9.394121e-06
172	0x35976764	1.1280467e-06
173	0x36c8b678	5.9817066e-06
174	0x3494c2c6	2.7708865e-07
175	0x371771fa	9.026839e-06
176	0x376b717c	1.4033514e-05
177	0x38f021a8	0.00011450361
178	0x3696d11e	4.494693e-06
179	0x398c9e8c	0.00026821007
180	0x35dc8be4	1.6431991e-06
181	0x3786a53d	1.605099e-05
182	0x34bb6fb5	3.4912742e-07
183	0x37aebb4e	2.0829637e-05
184	0x33ba992e	8.689163e-08
185	0x35bfbf4d	1.4286285e-06
186	0x3335fa69	4.2370093e-08
187	0x36277607	2.495364e-06
188	0x35bdb4a1	1.4134167e-06
189	0x37358641	1.0819699e-05
190	0x34a61eba	3.0942266e-07
191	0x375830b1	1.288594e-05
192	0x362b8c3b	2.556261e-06
193	0x3780d56d	1.5358173e-05
194	0x352f0103	6.519405e-07
195	0x37bcc52e	2.2503165e-05
196	0x35dceadc	1.645963e-06
197	0x36f4eb7c	7.2991807e-06
198	0x34cc1501	3.8013243e-07
199	0x3736c05b	1.0892832e-05
200	0x34233c15	1.5202416e-07
201	0x36864c20	4.0023733e-06
202	0x334c1eb9	4.7525393e-08
203	0x3702fad0	7.807001e-06
204	0x36201c5d	2.3858368e-06
205	0x381ef14a	3.7894853e-05
206	0x35187a17	5.6802077e-07
207	0x387beef7	6.0065617e-05
208	0x360427b6	1.9692648e-06
209	0x3710c09b	8.627913e-06
210	0x35239178	6.0933917e-07
211	0x3781e7c4	1.5485923e-05
212	0x31fca2c3	7.352669e-09
213	0x3420f5f6	1.4990641e-07
214	0x3280efe6	1.5010254e-08
215	0x3404909a	1.2346064e-07
216	0x32e0f41b	2.6188038e-08
217	0x35c8e17f	1.4966789e-06
218	0x32c05e5d	2.2394653e-08
219	0x364df030	3.0687188e-06
220	0x3546661b	7.390933e-07
221	0x36e8f5ce	6.942754e-06
222	0x34582db8	2.01332e-07
223	0x375cc96a	1.3159917e-05
224	0x35a58230	1.2331348e-06
225	0x36f71734	7.363875e-06
226	0x34a43357	3.0584735e-07
227	0x373c5b67	1.12269545e-05
228	0x34fca4f0	4.7058666e-07
229	0x37492a4f	1.1990384e-05
230	0x3421f65b	1.5083917e-07
231	0x37ca33b6	2.4104356e-05
232	0x32fa284c	2.9122155e-08
233	0x35bf603c	1.4258617e-06
234	0x3227ec4e	9.774409e-09
235	0x360574b6	1.988648e-06
236	0x35a7e834	1.251005e-06
237	0x378735b5	1.6118263e-05
238	0x34c8b50f	3.738464e-07
239	0x37eb33e4	2.8038346e-05
240	0x34e49990	4.258004e-07
241	0x3645ea70	2.9491748e-06
242	0x33f49390	1.1388977e-07
243	0x368a4304	4.120522e-06
244	0x34128ee1	1.3649289e-07
245	0x3513e705	5.5097945e-07
246	0x32b7a16e	2.1377414e-08
247	0x34b80677	3.4277375e-07
248	0x324bee0d	1.1870282e-08
249	0x33b1e411	8.28369e-08
250	0x327821c2	1.44431755e-08
251	0x34847e5f	2.4678863e-07
252	0x3600ef56	1.9212798e-06
253	0x37a8be7b	2.011586e-05
254	0x3505a779	4.9790066e-07
255	0x3800793c	3.0630486e-05

exp_avg f4 [64]
0	0xbcdd72c0	-0.027032256
1	0xbd0c0c50	-0.03419143
2	0xbce6424c	-0.028107785
3	0xbd40229a	-0.046908
4	0xbd09fbc5	-0.03368737
5	0xbcfadf84	-0.030624159
6	0xbd1bedfd	-0.03806876
7	0xb73f5cfb	-1.1406136e-05
8	0xb81440d2	-3.534632e-05
9	0xbce1671a	-0.027514983
10	0xb9438a18	-0.00018648093
11	0xbd5bf554	-0.05370076
12	0xbcda9cab	-0.026686033
13	0xbd1db303	-0.038500797
14	0x341fb46a	1.4873663e-07
15	0x3a6a7cbe	0.00089449796
16	0xb872b944	-5.786984e-05
17	0xbc98b164	-0.018639274
18	0xbd19acd7	-0.03751835
19	0xbd0482c7	-0.03235128
20	0xbcb40409	-0.02197458
21	0xbce47405	-0.027887354
22	0xbd46c7f0	-0.04853052
23	0x348c5555	2.613912e-07
24	0x3b4b5869	0.0031028038
25	0xbd234fbf	-0.039870974
26	0x3a953108	0.001138241
27	0x3a3b3992	0.00071420625
28	0xbcaadbba	-0.020856727
29	0xbd0741d0	-0.033021748
30	0xbd31e2bd	-0.043429125
31	0xbcd291cb	-0.025704285
32	0xbd0153f0	-0.03157419
33	0xbac21479	-0.0014807127
34	0xbd0d989b	-0.034569364
35	0xbd52d8db	-0.05147634
36	0x39a22bcc	0.0003093168
37	0x3b0229e0	0.0019861385
38	0xbd459926	-0.048241757
39	0xbcd4477a	-0.025912989
40	0xbce29a1a	-0.027661372
41	0xbce6ea9b	-0.02818804
42	0xbce0376c	-0.027370177
43	0xbcfb09de	-0.030644353
44	0xbd9f2352	-0.07770409
45	0xbcdbce18	-0.026831672
46	0xbc27ab7a	-0.010233754
47	0xbcdce5ff	-0.02696514
48	0xbd25af71	-0.040450517
49	0xbd0093a8	-0.031390816
50	0x3937cfcd	0.00017529652
51	0xbcae913f	-0.021309493
52	0xbcf6aeb9	-0.030112611
53	0x31e1f9d4	6.576764e-09
54	0xb9b464af	-0.0003440729
55	0xbc8e84fa	-0.017397393
56	0xbcee0607	-0.029055608
57	0x3b60d8f6	0.0034309006
58	0xbade98f2	-0.0016982837
59	0xbcbac5c9	-0.02279939
60	0xbca3b808	-0.019985214
61	0x3a2edfc3	0.00066709163
62	0xb9051e39	-0.00012695127
63	0xbcf9813d	-0.030457133

exp_avg_sq f4 [64]
0	0x3a225934	0.0006193102
1	0x3a3775ae	0.00069984316
2	0x3a21fc05	0.00061792164
3	0x3af5ddee	0.0018758157
4	0x3a995ee0	0.0011701249
5	0x39a50834	0.00031477364
6	0x3a90f02f	0.0011057908
7	0x38256a92	3.9438317e-05
8	0x3886eb5d	6.433458e-05
9	0x39e92fbd	0.0004447679
10	0x38c1eac7	9.246688e-05
11	0x3b385778	0.0028128307
12	0x3a1652d8	0.00057343906
13	0x3ab9625f	0.0014143697
14	0x38afa1f9	8.37482e-05
15	0x37a9366a	2.0171708e-05
16	0x378b9ba0	1.664256e-05
17	0x38a772de	7.984576e-05
18	0x3aa65bcf	0.0012692156
19	0x3a2de159	0.00066330057
20	0x3970e26b	0.00022972531
21	0x39bed202	0.00036396092
22	0x3af421b7	0.001862577
23	0x37793fa9	1.4856379e-05
24	0x387a31af	5.9650916e-05
25	0x3ab9508b	0.0014138384
26	0x37d9ee78	2.5979461e-05
27	0x375170e5	1.2483656e-05
28	0x393b355e	0.0001785359
29	0x3a52cd20	0.000804143
30	0x3ae0653e	0.0017120016
31	0x39d6340e	0.00040856045
32	0x3a414b49	0.0007373584
33	0x390f9091	0.00013691398
34	0x3a28d826	0.00064409
35	0x3b210cd9	0.0024574308
36	0x3802989f	3.1136555e-05
37	0x3872ce2e	5.7889316e-05
38	0x3b11c49d	0.0022242435
39	0x39d38434	0.00040343555
40	0x39f6e105	0.0004708843
41	0x3a51672b	0.00079880905
42	0x39b3b297	0.000342746
43	0x39d0ab26	0.00039800367
44	0x3becec0b	0.007230287
45	0x3a0142bc	0.00049309037
46	0x37f3ca1d	2.9061974e-05
47	0x39f9f7b6	0.0004767754
48	0x3a8fa1ef	0.0010958294
49	0x3a127403	0.0005586745
50	0x37b7780c	2.1871201e-05
51	0x3a4fad17	0.0007922216
52	0x3a61c93e	0.0008613056
53	0x360d86ba	2.1089058e-06
54	0x3748d697	1.1970892e-05
55	0x398d6a8b	0.00026972996
56	0x39e55b3d	0.00043746262
57	0x38a03807	7.6398304e-05
58	0x371c5347	9.317714e-06
59	0x3a146803	0.0005661251
60	0x3903d7f2	0.0001257358
61	0x375db482	1.3214654e-05
62	0x35fa64bb	1.8655768e-06
63	0x3a37bf03	0.0007009359

exp_avg f4 [2, 64]
0	0xbbb6ea2c	-0.0055821147
1	0xbbe463c2	-0.0069699
2	0xbbfa38e3	-0.007636176
3	0xbbc0e5b3	-0.0058867573
4	0xbbe4483b	-0.0069666184
5	0xbba32651	-0.004978933
6	0xbb4aa412	-0.0030920547
7	0x3935e66f	0.00017347348
8	0xb62fd9e8	-2.620387e-06
9	0xbbc9f169	-0.0061628115
10	0xba20aff2	-0.00061297335
11	0xbb8fec06	-0.00439215
12	0xbba9baf4	-0.0051797573
13	0xbb8e4b5f	-0.004342481
14	0xae88cc09	-6.220808e-11
15	0xb6507f17	-3.1068391e-06
16	0xb9aa1aa6	-0.0003244478
17	0xbb3421d4	-0.0027485983
18	0xbbc707ad	-0.006073913
19	0xbba08737	-0.0048989314
20	0xbbb22972	-0.0054370696
21	0xbbb5dc28	-0.0055499263
22	0xbb565239	-0.0032702817
23	0x35cf9895	1.5467109e-06
24	0xb921246f	-0.00015367729
25	0xbbaf490a	-0.005349283
26	0xb80b3abf	-3.3194894e-05
27	0xb6e2c7ac	-6.7585697e-06
28	0xbb7b2581	-0.0038321915
29	0xbb899cf5	-0.004199619
30	0xbb70543b	-0.00366713
31	0xbbb9a2e3	-0.0056651696
32	0xbbd3f425	-0.0064683133
33	0xb90a96f9	-0.00013216947
34	0xbbe4afbb	-0.0069789565
35	0xbb4014ef	-0.0029309352
36	0x39da6398	0.00041654403
37	0xb8f4fb79	-0.00011681667
38	0xbb7c5cb7	-0.003850741
39	0xbb98a25e	-0.0046580276
40	0xbb9823ec	-0.004642954
41	0xbbadf70b	-0.005308991
42	0xbbc21e88	-0.0059240498
43	0xbbd5b85e	-0.0065222224
44	0xbb7ad726	-0.003827521
45	0xbbab90f5	-0.005235786
46	0xbb3549e2	-0.0027662446
47	0xbbbacc8e	-0.0057006544
48	0xbbb538f2	-0.00553047
49	0xbbe57f8f	-0.0070037316
50	0xb589d996	-1.0270621e-06
51	0xbbec0048	-0.007202182
52	0xbb8808bb	-0.0041514314
53	0xb047fad8	-7.275225e-10
54	0xba060e26	-0.00051138026
55	0xbbef244d	-0.0072980286
56	0xbbd7c725	-0.006585019
57	0xb908d308	-0.00013048586
58	0xbacecf60	-0.0015778355
59	0xbba873e4	-0.0051407684
60	0xbbae74ad	-0.0053239674
61	0xb7f9c54d	-2.9774988e-05
62	0xb7418834	-1.1535409e-05
63	0xbbc1b18c	-0.005911058
64	0x3bb6ea2c	0.0055821147
65	0x3be463c1	0.0069698994
66	0x3bfa38df	0.007636174
67	0x3bc0e5b2	0.005886757
68	0x3be4483a	0.006966618
69	0x3ba32652	0.0049789334
70	0x3b4aa413	0.003092055
71	0xb935e66f	-0.00017347348
72	0x362fd9e1	2.6203854e-06
73	0x3bc9f167	0.0061628106
74	0x3a20aff2	0.00061297335
75	0x3b8fec05	0.0043921494
76	0x3ba9baf3	0.005179757
77	0x3b8e4b5e	0.0043424806
78	0x2e88cc09	6.220808e-11
79	0x36507f1b	3.10684e-06
80	0x39aa1aa8	0.00032444787
81	0x3b3421d3	0.002748598
82	0x3bc707ab	0.006073912
83	0x3ba08735	0.0048989304
84	0x3bb22973	0.00543707
85	0x3bb5dc28	0.0055499263
86	0x3b565238	0.0032702815
87	0xb5cf9895	-1.5467109e-06
88	0x39212470	0.0001536773
89	0x3baf490b	0.0053492836
90	0x380b3abf	3.3194894e-05
91	0x36e2c7ab	6.7585693e-06
92	0x3b7b2580	0.0038321912
93	0x3b899cf4	0.0041996185
94	0x3b70543d	0.0036671304
95	0x3bb9a2e3	0.0056651696
96	0x3bd3f424	0.006468313
97	0x390a96f3	0.00013216939
98	0x3be4afba	0.006978956
99	0x3b4014ee	0.002930935
100	0xb9da6399	-0.00041654406
101	0x38f4fb78	0.000116816664
102	0x3b7c5cb5	0.0038507406
103	0x3b98a25f	0.004658028
104	0x3b9823ec	0.004642954
105	0x3badf70b	0.005308991
106	0x3bc21e88	0.0059240498
107	0x3bd5b85f	0.006522223
108	0x3b7ad725	0.0038275209
109	0x3bab90f5	0.005235786
110	0x3b3549e1	0.0027662443
111	0x3bbacc8e	0.0057006544
112	0x3bb538f2	0.00553047
113	0x3be57f8e	0.007003731
114	0x3589d985	1.0270602e-06
115	0x3bec0047	0.0072021815
116	0x3b8808bb	0.0041514314
117	0x3047fad8	7.275225e-10
118	0x3a060e25	0.0005113802
119	0x3bef244c	0.007298028
120	0x3bd7c723	0.0065850182
121	0x3908d308	0.00013048586
122	0x3acecf61	0.0015778356
123	0x3ba873e2	0.0051407674
124	0x3bae74ae	0.005323968
125	0x37f9c546	2.9774976e-05
126	0x37418834	1.1535409e-05
127	0x3bc1b18c	0.005911058

exp_avg_sq f4 [2, 64]
0	0x36734c5f	3.6254276e-06
1	0x36db3947	6.5333766e-06
2	0x3719f5f8	9.17678e-06
3	0x369b0934	4.6204314e-06
4	0x36a7aac6	4.9968685e-06
5	0x36291cea	2.5199793e-06
6	0x35c5a454	1.472547e-06
7	0x329d9910	1.834681e-08
8	0x329d653b	1.832324e-08
9	0x36827b3a	3.8886474e-06
10	0x33fbbcdd	1.1722452e-07
11	0x36220ca6	2.4147243e-06
12	0x361f11d6	2.3703228e-06
13	0x360f1e4a	2.132629e-06
14	0x31adf86b	5.0632045e-09
15	0x3281708d	1.5068759e-08
16	0x34b7de48	3.4248137e-07
17	0x3554b73a	7.9242784e-07
18	0x36927332	4.3645496e-06
19	0x3633e49b	2.6806144e-06
20	0x364be099	3.038009e-06
21	0x36844cc2	3.9428423e-06
22	0x35da3b88	1.6259592e-06
23	0x31598e14	3.1658418e-09
24	0x347eb3a4	2.3720946e-07
25	0x367eb2d0	3.7953032e-06
26	0x31a23b25	4.7215445e-09
27	0x32493bec	1.17133645e-08
28	0x359f16ef	1.1853098e-06
29	0x36224dc9	2.4185158e-06
30	0x35b61a66	1.356774e-06
31	0x36651f82	3.4142e-06
32	0x36984d1a	4.538929e-06
33	0x340fc260	1.3388626e-07
34	0x368fc431	4.284572e-06
35	0x35a0efe8	1.1990751e-06
36	0x33628112	5.2737114e-08
37	0x32aa6da5	1.9840465e-08
38	0x35f96901	1.8582506e-06
39	0x363af4bc	2.7858614e-06
40	0x3654e2a4	3.1722384e-06
41	0x36657693	3.4192678e-06
42	0x36932464	4.385178e-06
43	0x3692dc64	4.376796e-06
44	0x35afed52	1.3107585e-06
45	0x3642a0fe	2.9001963e-06
46	0x356225a6	8.4246346e-07
47	0x36881fe2	4.0568275e-06
48	0x363b9845	2.7953804e-06
49	0x36fc92a7	7.527258e-06
50	0x333c3cd4	4.3827484e-08
51	0x36cf97a9	6.1867363e-06
52	0x35f76406	1.8432045e-06
53	0x2e195425	3.4862908e-11
54	0x344a6266	1.8848513e-07
55	0x36e3affe	6.7856154e-06
56	0x36936d1e	4.3936443e-06
57	0x342f967d	1.6352892e-07
58	0x352b03c8	6.3707967e-07
59	0x36838217	3.9192487e-06
60	0x364006d2	2.86142e-06
61	0x3374590f	5.6891675e-08
62	0x3119ff5f	2.2409592e-09
63	0x367859ed	3.7007223e-06
64	0x36734c5e	3.6254273e-06
65	0x36db3944	6.533375e-06
66	0x3719f5f8	9.17678e-06
67	0x369b0932	4.6204304e-06
68	0x36a7aac5	4.996868e-06
69	0x36291ceb	2.5199795e-06
70	0x35c5a454	1.472547e-06
71	0x329d9910	1.834681e-08
72	0x329d6539	1.8323236e-08
73	0x36827b3b	3.888648e-06
74	0x33fbbcdd	1.1722452e-07
75	0x36220ca6	2.4147243e-06
76	0x361f11d7	2.370323e-06
77	0x360f1e49	2.1326289e-06
78	0x31adf86b	5.0632045e-09
79	0x3281708d	1.5068759e-08
80	0x34b7de47	3.4248134e-07
81	0x3554b73b	7.924279e-07
82	0x36927332	4.3645496e-06
83	0x3633e49a	2.6806142e-06
84	0x364be099	3.038009e-06
85	0x36844cc2	3.9428423e-06
86	0x35da3b86	1.6259589e-06
87	0x31598e11	3.1658411e-09
88	0x347eb3a4	2.3720946e-07
89	0x367eb2d0	3.7953032e-06
90	0x31a23b24	4.721544e-09
91	0x32493beb	1.1713364e-08
92	0x359f16f0	1.1853099e-06
93	0x36224dca	2.418516e-06
94	0x35b61a67	1.3567741e-06
95	0x36651f85	3.4142006e-06
96	0x36984d19	4.5389284e-06
97	0x340fc261	1.3388627e-07
98	0x368fc432	4.2845722e-06
99	0x35a0efea	1.1990753e-06
100	0x33628113	5.2737118e-08
101	0x32aa6da4	1.9840463e-08
102	0x35f96901	1.8582506e-06
103	0x363af4bd	2.7858616e-06
104	0x3654e2a7	3.172239e-06
105	0x36657692	3.4192676e-06
106	0x36932464	4.385178e-06
107	0x3692dc65	4.3767964e-06
108	0x35afed53	1.3107586e-06
109	0x3642a0fe	2.9001963e-06
110	0x356225a6	8.4246346e-07
111	0x36881fe1	4.056827e-06
112	0x363b9845	2.7953804e-06
113	0x36fc92a7	7.527258e-06
114	0x333c3cd3	4.382748e-08
115	0x36cf97a9	6.1867363e-06
116	0x35f76406	1.8432045e-06
117	0x2e195426	3.486291e-11
118	0x344a6264	1.884851e-07
119	0x36e3affe	6.7856154e-06
120	0x36936d1e	4.3936443e-06
121	0x342f967d	1.6352892e-07
122	0x352b03c8	6.3707967e-07
123	0x36838216	3.9192482e-06
124	0x364006d4	2.8614204e-06
125	0x3374590c	5.6891665e-08
126	0x3119ff5f	2.2409592e-09
127	0x367859ee	3.7007226e-06

exp_avg f4 [2]
0	0xbcab8baf	-0.02094063
1	0x3cab8bac	0.020940624

exp_avg_sq f4 [2]
0	0x38403026	4.582121e-05
1	0x38403024	4.58212e-05

exp_avg f4 [1, 64]
0	0xbca63fec	-0.020294152
1	0xbcc3384b	-0.023830554
2	0xbc98fdcc	-0.018675707
3	0xbc995244	-0.018715985
4	0xbc813f17	-0.015777154
5	0xbcdbd2e9	-0.026833968
6	0xbd16e532	-0.03683967
7	0x390297f0	0.00012454367
8	0x365ead6a	3.3181518e-06
9	0xbcbfe46e	-0.023424353
10	0xb90c99e5	-0.0001340877
11	0xbce8a08c	-0.028396867
12	0xbd28f457	-0.041248646
13	0xbcf7fcf4	-0.030271985
14	0xb0ead80b	-1.7087144e-09
15	0xb96e8dbd	-0.0002275025
16	0xb8a26856	-7.744196e-05
17	0xbcc7f71b	-0.024409821
18	0xbc8b4555	-0.017000834
19	0xbcf15e08	-0.029463783
20	0xbd3262dc	-0.04355131
21	0xbce3c371	-0.027803155
22	0xbd1ab8d5	-0.037773926
23	0x35e8b3bf	1.733766e-06
24	0xbb1f4b3a	-0.0024306313
25	0xbcdec407	-0.027193082
26	0xb8cb66df	-9.6989555e-05
27	0xb95303d7	-0.00020123959
28	0xbcf1f227	-0.029534413
29	0xbd153460	-0.0364269
30	0xbd0d08bf	-0.03443217
31	0xbd190966	-0.03736248
32	0xbc953397	-0.018213077
33	0x3a51568d	0.00079856144
34	0xbcd493db	-0.02594941
35	0xbd07bfdd	-0.03314196
36	0x383abf40	4.452397e-05
37	0xba210fa1	-0.00061439915
38	0xbcf897fd	-0.030345911
39	0xbd2af346	-0.04173591
40	0xbd1bec5c	-0.038067207
41	0xbca66a7f	-0.020314453
42	0xbcd5b597	-0.026087565
43	0xbce0945f	-0.027414499
44	0xbcfc9d38	-0.030836686
45	0xbd1c4c54	-0.03815873
46	0xbccde069	-0.025131421
47	0xbd13fff8	-0.036132783
48	0xbcd3cb4b	-0.025853774
49	0xbcbb4ca9	-0.022863703
50	0xb8055ef7	-3.1798114e-05
51	0xbc9364ab	-0.017992338
52	0xbd1a63c3	-0.037692796
53	0xb016fc14	-5.4927907e-10
54	0x3a34e90c	0.0006901182
55	0xbca20b25	-0.019780705
56	0xbccecf00	-0.02524519
57	0xba692c2a	-0.00088948256
58	0xbb1e878b	-0.0024189677
59	0xbc9b637c	-0.018968336
60	0xbcb60d9e	-0.02222329
61	0xba069653	-0.00051340944
62	0x371c67df	9.322509e-06
63	0xbca271bb	-0.019829622

exp_avg_sq f4 [1, 64]
0	0x3a780176	0.0009460667
1	0x3a3b8f9b	0.0007154883
2	0x3a4967af	0.00076829916
3	0x3a092b8c	0.0005232624
4	0x3a35aca9	0.00069303304
5	0x398c8424	0.00026801333
6	0x3a150748	0.0005684984
7	0x3693bb17	4.4027215e-06
8	0x36e7ea8b	6.911641e-06
9	0x3a525a10	0.00080242846
10	0x38588b92	5.1628398e-05
11	0x3a16ecb5	0.0005757318
12	0x3a56c956	0.00081934535
13	0x3a0c583d	0.00053537247
14	0x361fb32d	2.379714e-06
15	0x36d56c46	6.3604994e-06
16	0x3823b05c	3.9026476e-05
17	0x38b363ef	8.553999e-05
18	0x3a1b7433	0.0005930096
19	0x3a27704d	0.00063872786
20	0x3a875b80	0.0010326952
21	0x3a6a9539	0.00089486275
22	0x3a4de7fe	0.0007854699
23	0x35991906	1.1406671e-06
24	0x390b790f	0.00013301171
25	0x3a25140d	0.0006297238
26	0x3606df77	2.009763e-06
27	0x36669995	3.4362067e-06
28	0x393582de	0.00017310257
29	0x3a7f8bb2	0.0009748294
30	0x3a115f82	0.0005545543
31	0x3a40e94f	0.00073589844
32	0x3a3517dc	0.00069081574
33	0x37a07dba	1.9132032e-05
34	0x3a36eeef	0.0006978353
35	0x3a05c9fa	0.0005103644
36	0x375fd60f	1.3341675e-05
37	0x370b9852	8.3205105e-06
38	0x3a104310	0.0005503157
39	0x3a847544	0.0010105749
40	0x3a4c3950	0.00077905226
41	0x3a8067cc	0.0009796559
42	0x3a711395	0.00091963384
43	0x3a4d6162	0.00078346406
44	0x39f51c17	0.0004675097
45	0x3a8188c9	0.0009882684
46	0x3992280b	0.00027877124
47	0x3a7479ca	0.00093260093
48	0x3a0f6dc4	0.00054713734
49	0x3a4f5071	0.000790841
50	0x37b1d667	2.1199883e-05
51	0x3ab447d8	0.0013754321
52	0x3a249c81	0.00062794244
53	0x327e1d20	1.4791368e-08
54	0x3849b996	4.8094975e-05
55	0x3a9a2798	0.0011761067
56	0x3a52ea5e	0.00080457877
57	0x38abe4b0	8.196512e-05
58	0x391d9cb6	0.00015031066
59	0x3a57c181	0.00082304335
60	0x39e9cdfa	0.00044594688
61	0x3650646b	3.1052866e-06
62	0x34c231bf	3.617151e-07
63	0x3a3eaeaf	0.00072739547
