savedModels/ppo_cartpole_46080.pth (torch, 13659 bytes, 15 tensors)

shared_fc.0.weight f4 [64, 4]
0	0x3cd9f7e4	0.026607461
1	0x3f0252cf	0.50907606
2	0x3da14d81	0.07876111
3	0xbee1e11d	-0.4411706
4	0xbdf4adb7	-0.11947196
5	0xbe3c1f75	-0.18371375
6	0xbef085a7	-0.4697697
7	0xbe4401bb	-0.19141285
8	0xbc287efa	-0.01028418
9	0xbe9f733c	-0.31142604
10	0xbe482fff	-0.19549559
11	0xbee6ae85	-0.45055023
12	0xbdb8650d	-0.09003649
13	0xbdee5fa0	-0.11639333
14	0xbe99d15b	-0.30042538
15	0xbe6fbd84	-0.23412138
16	0x3dc1228f	0.0943042
17	0x3e0f1e2b	0.13976352
18	0xbf155f61	-0.5834866
19	0xbea5974e	-0.32342
20	0xbe59946a	-0.21248022
21	0xbd040cfd	-0.03223895
22	0xbe6f830d	-0.23389836
23	0x3d48725f	0.048937198
24	0xbdeee147	-0.11664062
25	0x3ded05bf	0.115733616
26	0x3ea703f2	0.32620198
27	0x3ebf3d95	0.3735167
28	0xbe6a39de	-0.22873637
29	0xbe196a37	-0.14981924
30	0xbe2200bc	-0.15820593
31	0xbe19461c	-0.14968151
32	0x3eb1b513	0.3470846
33	0x3c805b2a	0.01566847
34	0xbe68dcd3	-0.22740488
35	0xbd459dd3	-0.048246216
36	0x3e635add	0.2220263
37	0x3e40b833	0.18820266
38	0x3e70129d	0.234446
39	0xbeb71e98	-0.3576553
40	0x3eda3e23	0.42625532
41	0xbe7ed425	-0.24885614
42	0xbe81b842	-0.2533589
43	0xbe8ddbe0	-0.27706814
44	0xbcb03b09	-0.021512525
45	0xbe8bd50b	-0.27310976
46	0xbd6869fa	-0.056741692
47	0x3e263457	0.16230904
48	0xbba71107	-0.0050984654
49	0xbde95efd	-0.11395071
50	0x3da70be9	0.081565686
51	0x3ea1ac83	0.31576928
52	0xbdd0376b	-0.1016682
53	0xbdf9b8d2	-0.12193455
54	0x3d5c6055	0.053802807
55	0x3e078f9e	0.1323838
56	0xbe667bb4	-0.22508126
57	0x3ae04ce8	0.0017112764
58	0x3d499e2a	0.049223103
59	0x3d76df22	0.06027139
60	0x3e660176	0.22461495
61	0x3e2e8ccf	0.17045902
62	0xbbb1adee	-0.0054223454
63	0x3e1e7252	0.15473297
64	0xbe2bf1e6	-0.16791496
65	0xbeada45f	-0.33914468
66	0xbe5b73bd	-0.2143087
67	0xbe5bc9ef	-0.2146375
68	0x3e8e9964	0.27851403
69	0x3d29e7e7	0.041480925
70	0xbe085009	-0.13311781
71	0x3ea3dc7d	0.32004157
72	0x3d05e9f9	0.032693837
73	0x3c7169c1	0.014734686
74	0xbe42ad9b	-0.19011538
75	0xbeb0e577	-0.34550068
76	0xbdbf84bf	-0.09351491
77	0x3e959210	0.29213
78	0x3d8e2375	0.06940357
79	0xbb424ae2	-0.0029646684
80	0xbd2527c6	-0.040321134
81	0xbed6b0f5	-0.41931883
82	0x3d8af7db	0.06785556
83	0x3ef8ce16	0.4859473
84	0xbe07af70	-0.13250518
85	0x3e8b0f9c	0.27160347
86	0x3e98c8ac	0.298406
87	0xbe88d58c	-0.26725423
88	0x3c25d0b2	0.010120558
89	0xbd28559b	-0.041097265
90	0x3e331cbf	0.17491435
91	0x3f1049dd	0.56362706
92	0xbdcae2cd	-0.0990654
93	0xbe229f27	-0.15881024
94	0xbe405e02	-0.18785861
95	0xbe18b53a	-0.14912882
96	0x3eaac0c6	0.333502
97	0x3ded8fcc	0.11599693
98	0xbee811f7	-0.45326206
99	0x3e74a44b	0.23890798
100	0x3c97301a	0.018455554
101	0xbec6d8a8	-0.3883717
102	0xbd7ebd35	-0.06219216
103	0x3d335db7	0.043790545
104	0x3df5027e	0.11963366
105	0x3e379bd9	0.17930545
106	0x3df0d0a1	0.11758543
107	0x3e1fe2f5	0.15613921
108	0x3e97a7c4	0.29620183
109	0x3e018f45	0.12652309
110	0x3df466a6	0.11933641
111	0x3debbd76	0.11510746
112	0xbd8cbbf6	-0.06871788
113	0xbd17f125	-0.037095208
114	0x3de2cfa6	0.11074762
115	0x3e6048b8	0.2190274
116	0xbdd2fdfb	-0.10302349
117	0xbed90a9e	-0.42390913
118	0x3ecb5fb0	0.3972144
119	0x3ebcfb7e	0.36910623
120	0x3e346f29	0.17620529
121	0xbe043f76	-0.12914833
122	0x3ec3959a	0.38200074
123	0x3e8578be	0.2606868
124	0x3d3be6f5	0.045874555
125	0xbeb4cf17	-0.35314247
126	0x3d77da56	0.060510956
127	0x3e4998df	0.19687222
128	0x3d965cdb	0.073419295
129	0x3de1a4b3	0.11017742
130	0xbe841982	-0.2580071
131	0xbeac2f67	-0.33629915
132	0xbca137e4	-0.019679971
133	0xbea92fb1	-0.33044198
134	0xbd2b88c4	-0.041878477
135	0xbea0f868	-0.3143952
136	0x3e8b144f	0.27163932
137	0xbbe8b922	-0.0071021477
138	0xbe18861a	-0.14894906
139	0xbe24596c	-0.16049737
140	0xbe1b8af5	-0.15189727
141	0x3cc62057	0.024185343
142	0x3e9aca10	0.30232286
143	0x3e9d6e73	0.3074833
144	0xbee63c12	-0.44967705
145	0xbdee9b84	-0.11650756
146	0x3deca8ee	0.11555658
147	0xbde7c4bc	-0.11316821
148	0x3bbfe369	0.005855967
149	0x3e93e4d7	0.28885528
150	0x3d84fcc5	0.064935245
151	0x3e88be75	0.26707807
152	0xbcf9514a	-0.03043427
153	0xbe450dca	-0.19243541
154	0x3e4f4873	0.20242481
155	0x3e1a1c4a	0.15049854
156	0xbe8c1c4c	-0.2736534
157	0xbe153e0d	-0.14574452
158	0xbde2b587	-0.1106978
159	0x3ee67504	0.4501115
160	0xbe3b5212	-0.18293026
161	0xbe55ff38	-0.2089814
162	0x3e63d97e	0.22250935
163	0x3e3d9e0c	0.18517321
164	0xbdad8132	-0.08471908
165	0x3f1d3bc6	0.6141933
166	0xbba0231d	-0.0048869983
167	0xbed1f0f0	-0.41004133
168	0xbe61dcce	-0.22056887
169	0x3eb42292	0.35182625
170	0xbdaa5a64	-0.08318022
171	0xbe872715	-0.26397005
172	0x3e131440	0.14363194
173	0x3de00743	0.10938885
174	0x3e08f0f2	0.13373163
175	0xbe791bf8	-0.24327075
176	0x3ea8a792	0.32940346
177	0xbdd623eb	-0.104560696
178	0x3d150f90	0.036391795
179	0x3e8ae5de	0.271285
180	0x3e3f1c36	0.18663105
181	0xbf0a9233	-0.5412933
182	0x3e9d7067	0.3074982
183	0x3e976816	0.295716
184	0xbd94dfb2	-0.07269229
185	0xbeccf815	-0.40033022
186	0x3f034f07	0.5129246
187	0x3ec9decf	0.39427802
188	0x3db5c87c	0.0887613
189	0xbf02f990	-0.5116205
190	0x3e3746cd	0.17898102
191	0x3e1e941f	0.15486191
192	0x3e71e9a4	0.23624283
193	0x3b88faaf	0.0041802744
194	0x3e3e851f	0.18605469
195	0xbe01c019	-0.12670936
196	0xbe023109	-0.12714018
197	0xbe5dbf08	-0.21654904
198	0xbe57507f	-0.210268
199	0xbeada350	-0.3391366
200	0xbe59c73b	-0.21267407
201	0xbc00a276	-0.007851234
202	0x3e0a0f76	0.1348246
203	0x3de5984b	0.11210688
204	0x3e378a47	0.17923842
205	0x3efadf52	0.48998505
206	0xbbae2d65	-0.00531547
207	0xbf3a04c0	-0.726635
208	0x3e8a04fa	0.26956922
209	0x3ca784b0	0.020449013
210	0x3e601712	0.218838
211	0x3e9c4465	0.3052093
212	0x3e4aeacb	0.19816129
213	0x3deeb80d	0.11656199
214	0x3e356477	0.17714106
215	0x3dd133bb	0.10214945
216	0x3d86d1bf	0.06582975
217	0x3c93206d	0.017959798
218	0xbe85249a	-0.26004487
219	0xbe57b0d9	-0.21063556
220	0xbce16966	-0.027516078
221	0x3e7c450d	0.24635716
222	0xbc32dca6	-0.0109168645
223	0xbf326989	-0.69692284
224	0x3e3a221a	0.18177071
225	0x3ddc92e9	0.107702084
226	0x3d965e12	0.07342161
227	0xbe883067	-0.26599428
228	0xbe920151	-0.2851663
229	0x3da10827	0.07862883
230	0xbd81b4f4	-0.06333342
231	0x3e800b2b	0.2500852
232	0x3e0e4f14	0.13897353
233	0x3ec8c72a	0.3921445
234	0xbd875e2c	-0.06609759
235	0xbe9ad513	-0.30240688
236	0xbeaaf0ee	-0.3338694
237	0x3eb15d94	0.34641707
238	0xbd1b54b4	-0.037922576
239	0xbeec4166	-0.46143645
240	0x3cbaccb6	0.022802692
241	0x3eb080d4	0.34473288
242	0x3d6cc099	0.057800863
243	0xbe905507	-0.2818987
244	0x3eff81f7	0.49903843
245	0x3dad01a1	0.08447576
246	0x3e6bae57	0.23015724
247	0x3dab480f	0.083633535
248	0xbe2024c6	-0.15639028
249	0xbe1540a5	-0.14575441
250	0xbec71687	-0.38884374
251	0xbe1345b9	-0.14382066
252	0x3d9b0cfd	0.07570837
253	0x3e71c2cf	0.2360947
254	0xbd5ef3ab	-0.0544316
255	0xbeac2f48	-0.33629823

shared_fc.0.bias f4 [64]
0	0x3f2413bf	0.6409263
1	0x3f3374f1	0.70100313
2	0x3f346517	0.7046675
3	0x3f1e6f77	0.6188883
4	0x3f22b75d	0.6356104
5	0x3f374028	0.7158227
6	0x3f259c9f	0.6469211
7	0xbd2f5454	-0.04280503
8	0xbd77ec78	-0.06052825
9	0x3f3684a8	0.7129617
10	0xbd6d23ef	-0.057895597
11	0x3f17c696	0.59287393
12	0x3f38fad4	0.72257733
13	0x3f22ef3b	0.63646287
14	0xbd3c8e03	-0.04603387
15	0xbd331e29	-0.043729935
16	0xbd644552	-0.05573017
17	0x3f362f8c	0.711663
18	0x3f21b3d0	0.63165
19	0x3f32da3d	0.69864255
20	0x3f4021f2	0.75051796
21	0x3f3f06b4	0.74619603
22	0x3f1b1ba5	0.6058906
23	0xbd11fd02	-0.035641678
24	0xbdf7345c	-0.12070534
25	0x3f221330	0.6331053
26	0xbd164da4	-0.036695138
27	0xbd221489	-0.039570365
28	0x3f371c1d	0.7152727
29	0x3f25a6ba	0.6470753
30	0x3f1efd6a	0.6210543
31	0x3f3c1c75	0.7348092
32	0x3f2b00b1	0.6679793
33	0xbd929cb2	-0.071587935
34	0x3f36e06f	0.7143621
35	0x3f18f715	0.5975202
36	0xbd95ea99	-0.073201366
37	0xbd6b33ea	-0.057422556
38	0x3f1c0eec	0.6096027
39	0x3f3be426	0.73395
40	0x3f3c8e17	0.7365431
41	0x3f1dd86f	0.61658376
42	0x3f3e4a01	0.7433167
43	0x3f401f45	0.75047714
44	0x3f0efe42	0.55856717
45	0x3f30b92c	0.6903255
46	0x3f33d4c4	0.7024653
47	0x3f36eb0d	0.7145241
48	0x3f2994a8	0.66242456
49	0x3f3884d5	0.72077686
50	0xbd8729af	-0.065997474
51	0x3f19b99c	0.6004884
52	0x3f2f1a88	0.6839986
53	0xbd0ba248	-0.03409031
54	0xbca85206	-0.020546924
55	0x3f36b765	0.7137359
56	0x3f3c4282	0.7353898
57	0xbda85b03	-0.08220484
58	0x3f07a08e	0.5297936
59	0x3f28354b	0.6570632
60	0x3f3fc181	0.7490464
61	0xbd3384f8	-0.04382798
62	0xbd249cad	-0.04018848
63	0x3f2ab49c	0.6668184

actor_head.weight f4 [2, 64]
0	0xbabb30a6	-0.0014281466
1	0x3e33cfd2	0.17559746
2	0x3e42fc64	0.19041592
3	0x3e3e45eb	0.18581359
4	0x3dcbc904	0.0995045
5	0x3d7a3f9c	0.06109582
6	0xbe4cdff5	-0.20007308
7	0x3dd59fb5	0.10430852
8	0x3c2a7bfd	0.010405538
9	0x3c82e4b2	0.015978191
10	0x3e3def07	0.18548213
11	0xbb9e938a	-0.0048393654
12	0xbdd9185c	-0.10600349
13	0xbcdbffcd	-0.026855374
14	0xbd63b9d1	-0.05559713
15	0xbdd3e5f8	-0.103465974
16	0x3dc20ea7	0.09475451
17	0xbddbbd0a	-0.10729416
18	0x3df3d412	0.119056836
19	0xbd5c5b09	-0.053797755
20	0xbd3e9b39	-0.04653475
21	0x3c1e171b	0.009649063
22	0xbe164842	-0.14676002
23	0x3e2145b3	0.15749244
24	0xbd251378	-0.04030177
25	0x3d424fee	0.04743951
26	0xbe0b372d	-0.13595267
27	0xbdb052ad	-0.08609519
28	0xbe03f9a6	-0.12888202
29	0xbd32adfe	-0.043622963
30	0xbe02f47c	-0.12788576
31	0xbc7888fb	-0.015169377
32	0x3dbb696e	0.091509685
33	0x3e14d57e	0.14534566
34	0x3db14689	0.08656032
35	0xbe318a86	-0.17337999
36	0x3cd8162e	0.026377764
37	0xbe2aed4b	-0.16692083
38	0xbd705956	-0.058678947
39	0xbd9a43db	-0.07532474
40	0xbd76ee81	-0.06028605
41	0x3b867873	0.004103714
42	0x3d48c8ac	0.0490195
43	0x3d73cf7a	0.059524037
44	0xbe03d8ef	-0.12875722
45	0x3b05e5a2	0.0020431061
46	0xbd17ca47	-0.03705814
47	0x3b5e61c8	0.0033932794
48	0x3d48b286	0.04899838
49	0x3e41d8b6	0.18930325
50	0xbd857082	-0.065156
51	0x3d74fa8d	0.059809256
52	0xbe30fd16	-0.17284045
53	0xbe054082	-0.13012889
54	0x3da7981f	0.08183312
55	0x3da9912e	0.08279644
56	0x3d27d710	0.040976584
57	0xbd8bbc1d	-0.06822989
58	0xbc827b4a	-0.01592793
59	0x3d892d72	0.06698121
60	0x3ca8bbe8	0.020597413
61	0xbdc07940	-0.093981266
62	0x3e4d823a	0.20069209
63	0x3ca396e9	0.01996942
64	0x3bbebc30	0.0058207735
65	0xbe3e8257	-0.18604408
66	0xbe4e4f98	-0.2014755
67	0xbe416c48	-0.18888962
68	0xbdfe6512	-0.124216214
69	0xbd69921c	-0.057024106
70	0x3e569bd9	0.20957889
71	0xbdceaf2e	-0.100920066
72	0xbcd709e2	-0.02624983
73	0xbd37c67d	-0.044867028
74	0xbe12792f	-0.1430404
75	0xbbc59afb	-0.006030438
76	0x3deefa88	0.11668879
77	0x3d5b51cb	0.0535448
78	0x3d2096fe	0.039206497
79	0x3db7bf66	0.08972053
80	0xbe1f740d	-0.15571614
81	0x3dd7dfac	0.10540709
82	0xbe06295a	-0.13101712
83	0x3d421913	0.047387194
84	0x3ca45ad2	0.020062838
85	0xbcebdca5	-0.028791735
86	0x3e221c2b	0.15831058
87	0xbe35cf13	-0.17754774
88	0x3c9f7f45	0.019469867
89	0xbd6c91d9	-0.05775628
90	0x3e1eb963	0.15500407
91	0x3dbc136c	0.09183392
92	0x3dc105d7	0.09424942
93	0x3d5744a1	0.052555684
94	0x3e159e31	0.14611126
95	0x3d215053	0.039383244
96	0xbdc93c62	-0.0982597
97	0xbe0f72d3	-0.14008646
98	0xbd8fe0fb	-0.070253335
99	0x3e3d9994	0.18515617
100	0xbc5849c6	-0.013201183
101	0x3e1cbdb8	0.15306747
102	0x3d430570	0.047612607
103	0x3d827309	0.063695975
104	0x3d40dac2	0.047083624
105	0x3bf4a11f	0.007465496
106	0xbd3c385a	-0.04595218
107	0xbd8d38a3	-0.06895568
108	0x3dc6f455	0.097145714
109	0x3caeaa7f	0.021321533
110	0x3cb9aae9	0.022664504
111	0xbb679915	-0.0035339047
112	0xbcdc999d	-0.026928717
113	0xbe445967	-0.1917473
114	0x3d86ca32	0.065815344
115	0xbd17c31c	-0.037051305
116	0x3e3f7556	0.18697104
117	0x3e076dd2	0.13225487
118	0xbdb719ae	-0.08940445
119	0xbdbcfdd5	-0.09228102
120	0xbd276924	-0.040871754
121	0x3d8aed20	0.06783509
122	0x3c976481	0.018480541
123	0xbd7578be	-0.0599296
124	0xbc185583	-0.009297731
125	0x3dc3d21f	0.09561562
126	0xbe42b5de	-0.1901469
127	0xbd5d4ab9	-0.05402634

actor_head.bias f4 [2]
0	0xbc7cded5	-0.015433987
1	0x3c7cded1	0.015433983

critic_head.weight f4 [1, 64]
0	0x3f2865f8	0.6578059
1	0x3f2ea0d2	0.6821414
2	0x3f29c2ae	0.6631268
3	0x3f4e4baa	0.80584204
4	0x3f3f3b52	0.7469989
5	0x3f3a4ade	0.7277049
6	0x3f410b27	0.7540764
7	0xbe987bc7	-0.29781935
8	0xbea153fc	-0.31509387
9	0x3f26e662	0.65195286
10	0xbe433fb4	-0.1906727
11	0x3f5cd0c1	0.86256033
12	0x3f2fd357	0.68681854
13	0x3f4462a6	0.76713026
14	0xbec4ed20	-0.38462162
15	0xbe564b90	-0.20927262
16	0xbdcc82ef	-0.09985911
17	0x3f368f28	0.7131219
18	0x3f4411d9	0.76589733
19	0x3f35ede5	0.71066123
20	0x3f19914e	0.5998734
21	0x3f263517	0.6492476
22	0x3f4f0f92	0.80883133
23	0xbe80fbd2	-0.25192124
24	0xbdf9e513	-0.122018956
25	0x3f4086d3	0.75205725
26	0xbe773e41	-0.24144842
27	0xbe536e5d	-0.20647569
28	0x3f3900ee	0.72267044
29	0x3f2b580c	0.66931224
30	0x3f4f7e53	0.8105213
31	0x3f2a9bde	0.66644084
32	0x3f343a8f	0.70401853
33	0xbe9f64d9	-0.31131628
34	0x3f33b869	0.7020326
35	0x3f5ab632	0.8543426
36	0xbe5fb6d9	-0.21847095
37	0xbe66b84a	-0.22531238
38	0x3f54943a	0.83038676
39	0x3f204bc2	0.626156
40	0x3f298a4d	0.66226655
41	0x3f2e79cd	0.68154603
42	0x3f23e6f5	0.6402429
43	0x3f2b0665	0.6680663
44	0x3f8b5ebb	1.0888284
45	0x3f25c735	0.6475709
46	0x3f0e2138	0.5551944
47	0x3f25735d	0.64629155
48	0x3f42f045	0.7614787
49	0x3f2913fb	0.6604611
50	0xbe2588d5	-0.16165479
51	0x3f2575eb	0.64633054
52	0x3f3aa8bf	0.72913736
53	0xbe8f467a	-0.27983457
54	0xbce3838a	-0.027772684
55	0x3f17a1e6	0.5923141
56	0x3f29853b	0.6621892
57	0xbe2b7b76	-0.16746315
58	0x3ed0b991	0.40766576
59	0x3f2b3a67	0.6688599
60	0x3f20f0b4	0.62867284
61	0xbe2c69ca	-0.1683723
62	0xbe5b4ce4	-0.2141605
63	0x3f31b6d8	0.6941962

exp_avg f4 [64, 4]
0	0x3c4d7691	0.012540475
1	0x3bc6c22c	0.0060656276
2	0xbb4e3d25	-0.003146955
3	0xbb1c718b	-0.0023871388
4	0xbb273225	-0.0025512066
5	0xbb849aa4	-0.004046755
6	0xbad91790	-0.0016562808
7	0x39e6e17c	0.00044037018
8	0xbb256a51	-0.0025240371
9	0xbb829869	-0.003985454
10	0xbacffedc	-0.0015868801
11	0x3a04569e	0.00050483074
12	0xbb41bbef	-0.002956148
13	0xbb9a6736	-0.0047120107
14	0xbb023cee	-0.0019872743
15	0x39db3f13	0.0004181793
16	0x3b2ffc77	0.0026853362
17	0x3a5e7402	0.00084859144
18	0xbb160d30	-0.0022896044
19	0xbacf8eec	-0.0015835441
20	0xbb1f35df	-0.0024293584
21	0xbb8239a7	-0.003974158
22	0xbafbedf9	-0.0019220702
23	0xb832daf6	-4.264243e-05
24	0xbafdcf7f	-0.0019364207
25	0xbb613a12	-0.0034366888
26	0xbb16be62	-0.002300166
27	0xba8b4baa	-0.0010627408
28	0x3bfffcb2	0.007812106
29	0x3bd05c04	0.0063586254
30	0x39160063	0.00014305259
31	0x3ab48bfc	0.0013774629
32	0xbbe34cdc	-0.0069366526
33	0xbbb21a1b	-0.005435241
34	0x3b027b66	0.0019909977
35	0x3ba61d8a	0.0050694393
36	0x3c1b9116	0.00949504
37	0x3bb31efc	0.00546634
38	0xbb2f8666	-0.0026782989
39	0xbb1c7a21	-0.0023876505
40	0xbbc0db03	-0.005885483
41	0xbbf013a9	-0.0073265624
42	0x3aa0d4ef	0.001227049
43	0x3ba5d9ab	0.0050613484
44	0xbc69f535	-0.014279653
45	0xbcd345b4	-0.025790073
46	0xbabbba56	-0.00143225
47	0x3c1c72fd	0.0095489
48	0xbb10980a	-0.0022063279
49	0xbb87aca4	-0.0041404534
50	0xbb048511	-0.0020220915
51	0xb95a9f6b	-0.00020849488
52	0xbb193094	-0.0023374902
53	0xbb80b041	-0.003927261
54	0xbb0c9348	-0.002145009
55	0xb9e5445d	-0.00043729218
56	0x3c166b2b	0.009180824
57	0x3bd86fef	0.0066051404
58	0xba860410	-0.0010224599
59	0xbb634a53	-0.0034681752
60	0xbb8e7311	-0.004347213
61	0xbb53dcf1	-0.0032327736
62	0x39b6b9c3	0.00034852148
63	0xba15ed38	-0.0005719247
64	0x3b31f2ec	0.002715285
65	0x3b21a677	0.0024665871
66	0x38ba9e55	8.898663e-05
67	0x39be9975	0.00036353958
68	0xbb045b93	-0.0020196184
69	0xbb638b23	-0.0034720383
70	0xbb07ebd9	-0.0020739941
71	0xba2fb672	-0.00067029067
72	0xbb3079ac	-0.002692799
73	0xbb8e4265	-0.004341411
74	0xbaffb170	-0.0019507837
75	0x394a2479	0.00019277808
76	0xbb0be41b	-0.0021345678
77	0xbb6c08e5	-0.0036016044
78	0xbb034522	-0.002003022
79	0xb9f02a48	-0.0004580787
80	0xbc7de090	-0.015495434
81	0xbca619a0	-0.02027589
82	0x39bd7c63	0.00036141564
83	0x3c005479	0.00783264
84	0xbb003c9e	-0.001956738
85	0xbb567bec	-0.0032727672
86	0xbae69306	-0.0017591424
87	0xb98c18ad	-0.00026721266
88	0xbc229dab	-0.009925286
89	0xbc9ceca7	-0.019155813
90	0xbad5a6a2	-0.0016300271
91	0x3c03f793	0.008054632
92	0x3bdc4c19	0.0067229387
93	0x3bbbc79b	0.005730582
94	0x39337c07	0.00017116974
95	0x3a880244	0.0010376652
96	0xbb4131f7	-0.0029479244
97	0xbb5c6bdd	-0.0033633627
98	0x39c08431	0.00036719584
99	0x3a94ec5c	0.0011361944
100	0xbc5b8f6e	-0.0134008955
101	0xbcb6a018	-0.022293136
102	0xba464e27	-0.0007564746
103	0x3c095378	0.008381717
104	0xbba0ea91	-0.004910775
105	0xbb6ec779	-0.0036434813
106	0x39c1c36a	0.00036957423
107	0xba2f5a45	-0.00066891714
108	0xbb8d3ad1	-0.00430999
109	0xbb52512d	-0.0032091842
110	0x39ae01c8	0.00033189193
111	0xba1b172a	-0.00059162325
112	0xbb05be07	-0.0020407455
113	0xbb6616da	-0.0035108835
114	0xbb0a0951	-0.0021062682
115	0xba35f5a3	-0.0006941205
116	0xbca342e4	-0.019929357
117	0xbcb86208	-0.022507682
118	0x3a914b9f	0.0011085159
119	0x3c09e137	0.008415512
120	0xbb1447fd	-0.0022625916
121	0xbb800303	-0.003906609
122	0xbb1bb2ec	-0.0023757769
123	0xba57f2dd	-0.00082377886
124	0xbc20aa07	-0.009806163
125	0xbc92d6ff	-0.017924784
126	0xba9f127d	-0.0012136247
127	0x3bda7889	0.006667201
128	0xbae111ad	-0.0017171405
129	0xbb476818	-0.0030427035
130	0xbaf2e5af	-0.0018531586
131	0xb9a0d235	-0.00030674195
132	0x3c04f90b	0.008116017
133	0x3bdf725f	0.006819054
134	0x392c6b44	0.00016443158
135	0x3aab8ade	0.001308765
136	0xbb1c8b53	-0.0023886755
137	0xbb7ebba2	-0.0038869162
138	0xbaefd36a	-0.0018297259
139	0x3825d709	3.9539333e-05
140	0xbb171f14	-0.0023059295
141	0xbb83dff3	-0.0040244996
142	0xbb26d2b9	-0.002545519
143	0xba83fb5a	-0.0010069415
144	0x3bb8eaf6	0.005643244
145	0x3ba24a7d	0.0049527274
146	0xb8a37c98	-7.795653e-05
147	0xb8b1cd4a	-8.478256e-05
148	0xbb93d15a	-0.0045110406
149	0xbb55d6b7	-0.00326292
150	0x39b1e454	0.00033930189
151	0xba380129	-0.0007019216
152	0xbc0d0e7b	-0.008609409
153	0xbc86b148	-0.016441956
154	0xbaf77f1e	-0.0018882488
155	0x3bc0089a	0.0058604004
156	0xbc897550	-0.016779572
157	0xbcd3edf4	-0.0258703
158	0xb9b0bc30	-0.00033709547
159	0x3c1d529b	0.009602214
160	0xbc4f63d1	-0.012658075
161	0xbcb488b9	-0.02203785
162	0xba7f7f8b	-0.00097464834
163	0x3c0794bb	0.008275206
164	0x3c39d420	0.011342078
165	0x3bdf3693	0.0068119257
166	0xbb35d745	-0.002774672
167	0xbb1d2127	-0.002397606
168	0xbb034792	-0.0020031673
169	0xbb595a3d	-0.0033165358
170	0xbadf118c	-0.0017018779
171	0xb91a9241	-0.00014741068
172	0xbb099b74	-0.0020997198
173	0xbb6162ec	-0.0034391237
174	0xbae62bc8	-0.0017560655
175	0xb9034e91	-0.00012522402
176	0x3b0d7b51	0.0021588395
177	0xbb2e2d87	-0.002657743
178	0xbb6a5f43	-0.0035762347
179	0xba589eaf	-0.0008263392
180	0xbc593838	-0.0132580325
181	0xbc94c85b	-0.018161943
182	0x385bf89f	5.2445215e-05
183	0x3befc800	0.007317543
184	0xbc8da183	-0.017288929
185	0xbcb41342	-0.02198184
186	0x3a1391f8	0.0005629356
187	0x3c04d75d	0.008107987
188	0xbc3a0742	-0.011354269
189	0xbc8915de	-0.01673406
190	0xb986790a	-0.00025648653
191	0x3bd44be2	0.0064787725
192	0xbb2313b2	-0.0024883565
193	0xbb863280	-0.0040953755
194	0xbb05a2e7	-0.0020391287
195	0xb91005e7	-0.00013735109
196	0xbb24177a	-0.0025038407
197	0xbb81af8e	-0.0039576953
198	0xbacfd79e	-0.0015857106
199	0x39fe9160	0.00048554968
200	0x3b6dea00	0.0036302805
201	0x3b09a86f	0.0021004935
202	0xba27c38f	-0.0006399685
203	0xbae9173e	-0.0017783416
204	0x3c58b448	0.013226576
205	0x3be3f5a9	0.006956775
206	0xbb5914a7	-0.0033123882
207	0xbb851593	-0.0040614097
208	0xbafa5077	-0.0019097467
209	0xbb5cb2be	-0.0033675875
210	0xbb10632c	-0.0022031767
211	0xba7b377a	-0.0009583157
212	0xbbbed0b6	-0.00582322
213	0xbb8f669d	-0.004376246
214	0x39eb9a3a	0.000449376
215	0xba3fe2c3	-0.0007319862
216	0xba50f33c	-0.0007970815
217	0xba25ff3d	-0.0006332284
218	0x397c299b	0.00024048092
219	0x3a13dd2f	0.0005640564
220	0xb7bf1924	-2.2780681e-05
221	0xbaa33a79	-0.0012453339
222	0xbaf6b991	-0.0018823614
223	0xbaf88ed4	-0.0018963465
224	0xbac46a9a	-0.0014985383
225	0xbb329499	-0.0027249216
226	0xbaebd673	-0.0017992988
227	0xb9fab238	-0.000478165
228	0x3b7e064b	0.0038761075
229	0x3b0d5d4f	0.0021570509
230	0xba43caba	-0.0007468868
231	0xbb01d440	-0.0019810349
232	0x3c064c82	0.008196952
233	0x3b717daf	0.0036848595
234	0xbb079c65	-0.0020692584
235	0xbad84e7d	-0.0016502884
236	0xbb0823ea	-0.002077336
237	0xbb6b5288	-0.0035907347
238	0xbae99ef5	-0.0017823862
239	0xb87e5dc4	-6.0645645e-05
240	0x3ab56b89	0.0013841252
241	0xb864d3c5	-5.455666e-05
242	0xbb00166d	-0.0019544617
243	0xbaa4b78a	-0.0012566906
244	0xbb610a67	-0.0034338476
245	0xbb20bc92	-0.002452646
246	0x39891a21	0.00026150144
247	0xba13566d	-0.00056204834
248	0x3bbda848	0.005787883
249	0x3ba54b82	0.0050444016
250	0x3924d28a	0.0001571869
251	0x3a5c7c26	0.00084108335
252	0x3b78b173	0.0037947565
253	0x3ad3205b	0.0016107665
254	0xbb182aae	-0.0023218798
255	0xbaf679eb	-0.0018804645

exp_avg_sq f4 [64, 4]
0	0x38fa2ae1	0.00011928916
1	0x3936b1c5	0.00017423097
2	0x37045fef	7.890149e-06
3	0x38bdb419	9.045768e-05
4	0x3943838f	0.00018645659
5	0x39a1aa04	0.00030834984
6	0x371e5fb9	9.439821e-06
7	0x38ed31dd	0.000113103284
8	0x3931ad06	0.00016944492
9	0x3992b87a	0.00027984736
10	0x371198e0	8.6782675e-06
11	0x38d67bec	0.000102273974
12	0x398faba4	0.00027402968
13	0x39e7cd78	0.0004421284
14	0x37681a02	1.3834333e-05
15	0x3931450f	0.00016905762
16	0x3948eb76	0.00019161202
17	0x39b3ca28	0.0003429216
18	0x373ede5b	1.1376654e-05
19	0x390cc5e8	0.00013425166
20	0x39620aa1	0.00021556999
21	0x39b2d772	0.00034111325
22	0x37350376	1.07892465e-05
23	0x39063725	0.00012799779
24	0x397a03e3	0.00023843306
25	0x39c74cff	0.00038013604
26	0x374ede23	1.2330277e-05
27	0x391347c5	0.00014045749
28	0x37bc8dc3	2.247736e-05
29	0x37fb00f0	2.9921968e-05
30	0x354d8427	7.656076e-07
31	0x370bbab2	8.328514e-06
32	0x3765ee5e	1.3704963e-05
33	0x3790983d	1.723703e-05
34	0x34c2488b	3.6188098e-07
35	0x36c112a5	5.7540187e-06
36	0x38fcb0f3	0.00012049256
37	0x395d6356	0.00021113208
38	0x3707258a	8.055367e-06
39	0x38c77cb8	9.51229e-05
40	0x3710d532	8.632707e-06
41	0x37879205	1.616125e-05
42	0x34f9489d	4.6432697e-07
43	0x36c5183a	5.873878e-06
44	0x399a7636	0.00029461243
45	0x39fa7d37	0.00047777008
46	0x37867d7d	1.603248e-05
47	0x39544358	0.00020242983
48	0x394aa8cf	0.00019327107
49	0x39a05ae0	0.00030585285
50	0x37252041	9.842276e-06
51	0x38ed2308	0.00011307566
52	0x39706a67	0.00022927822
53	0x39c71197	0.00037969343
54	0x37515ea7	1.2479409e-05
55	0x3919f097	0.00014680844
56	0x3802e068	3.120341e-05
57	0x38090104	3.266429e-05
58	0x34fe27c1	4.7340112e-07
59	0x36df3322	6.6518705e-06
60	0x36f36557	7.253762e-06
61	0x373864c5	1.0990717e-05
62	0x3480c123	2.3982383e-07
63	0x365b787f	3.270368e-06
64	0x36215df5	2.404556e-06
65	0x3682cb47	3.8979665e-06
66	0x33c28b07	9.059118e-08
67	0x358878a5	1.0167902e-06
68	0x392eb56d	0.0001666152
69	0x3998aaac	0.0002911886
70	0x3724f9b1	9.833298e-06
71	0x38f1d377	0.00011531164
72	0x39817d8b	0.00024698334
73	0x39cd019c	0.00039101846
74	0x374f7b12	1.2366816e-05
75	0x391bf8c8	0.0001487463
76	0x3950d5ea	0.00019916115
77	0x39a9afd6	0.000323652
78	0x372eb599	1.041349e-05
79	0x38fd153f	0.000120679375
80	0x390bec56	0.00013344115
81	0x394e6ee6	0.00019687004
82	0x36db5a67	6.537233e-06
83	0x389d8214	7.510572e-05
84	0x3929fb7b	0.0001621078
85	0x3987f6fd	0.00025933227
86	0x370d1264	8.408537e-06
87	0x38ca4a89	9.645994e-05
88	0x3992885d	0.0002794889
89	0x39e94f56	0.00044500333
90	0x3764d758	1.3639998e-05
91	0x391f3702	0.00015183914
92	0x378105fb	1.5380783e-05
93	0x37bba088	2.236689e-05
94	0x3520e011	5.9930704e-07
95	0x36bf5098	5.701626e-06
96	0x35efb188	1.7858556e-06
97	0x365d9ee8	3.3024062e-06
98	0x332cf699	4.027115e-08
99	0x3626f35d	2.4877584e-06
100	0x3962e726	0.00021639149
101	0x39ac100a	0.00032818347
102	0x373d47b6	1.1281974e-05
103	0x3913316e	0.00014037426
104	0x374f8384	1.2368782e-05
105	0x379aeb5a	1.8467825e-05
106	0x35107522	5.381463e-07
107	0x36bdc229	5.655242e-06
108	0x36db9e7e	6.5451595e-06
109	0x3723ee08	9.770978e-06
110	0x345c6511	2.0525864e-07
111	0x362fcf1c	2.6197586e-06
112	0x395f8f52	0.00021320328
113	0x39b0b657	0.0003370519
114	0x3734aeb6	1.0769514e-05
115	0x3901d4bc	0.00012381648
116	0x392df6c5	0.00016590494
117	0x39824570	0.00024847267
118	0x370d0bce	8.407003e-06
119	0x38d2c667	0.00010050536
120	0x39910a98	0.00027664448
121	0x39e85bbf	0.00044318844
122	0x37707a37	1.433357e-05
123	0x3931e0c2	0.00016963764
124	0x39434f2a	0.0001862614
125	0x39952484	0.000284467
126	0x37141a2c	8.827581e-06
127	0x38d5ebef	0.000102005775
128	0x3944dc90	0.00018774183
129	0x39a653b9	0.00031724366
130	0x372a349f	1.0145041e-05
131	0x38f7674d	0.00011797119
132	0x37d2e95c	2.5142617e-05
133	0x3828c625	4.0238858e-05
134	0x35a5b2e7	1.2345525e-06
135	0x376572d8	1.3676203e-05
136	0x39322f9d	0.0001699314
137	0x39a1b4fc	0.00030843157
138	0x37227e7c	9.685402e-06
139	0x38f90f79	0.00011876127
140	0x399f853d	0.00030426114
141	0x3a033ed4	0.00050066155
142	0x37892c69	1.6352353e-05
143	0x394d19ca	0.0001955993
144	0x37254251	9.850207e-06
145	0x3743cce4	1.1670611e-05
146	0x345cab5a	2.0551434e-07
147	0x36380eb6	2.74267e-06
148	0x3753eb2b	1.2631334e-05
149	0x37a50f4b	1.9676654e-05
150	0x3528c61b	6.287316e-07
151	0x36bac434	5.566073e-06
152	0x3996e8f2	0.00028783787
153	0x39f85a50	0.00047369534
154	0x37788678	1.481326e-05
155	0x393b33a8	0.00017852953
156	0x391d37ed	0.00014993521
157	0x397ffc93	0.00024412786
158	0x36fcea15	7.537436e-06
159	0x38b8b827	8.808105e-05
160	0x3933bb75	0.00017140603
161	0x39965881	0.0002867617
162	0x3714c82e	8.868095e-06
163	0x38da3ff3	0.000104069615
164	0x39057ee0	0.00012731133
165	0x393fe0cb	0.00018298921
166	0x370b79cf	8.313406e-06
167	0x38cba228	9.709998e-05
168	0x3927c2a8	0.00015998876
169	0x39832a6d	0.00025017877
170	0x370781bc	8.076833e-06
171	0x38c3fc53	9.3453236e-05
172	0x39245e04	0.00015675282
173	0x398ee9f4	0.0002725866
174	0x37142672	8.830439e-06
175	0x38da8a6e	0.000104208346
176	0x39dcad34	0.00042090716
177	0x3a4f28a8	0.00079024816
178	0x37df23d5	2.6600357e-05
179	0x39b34913	0.00034195985
180	0x392c58b5	0.00016436244
181	0x39726459	0.00023116301
182	0x3705f06b	7.983394e-06
183	0x38c5ae35	9.4261406e-05
184	0x38e8f4e6	0.00011108238
185	0x392caccd	0.00016467572
186	0x36af05e2	5.2160913e-06
187	0x387a386e	5.96572e-05
188	0x392440e8	0.00015664438
189	0x396f0814	0.00022795825
190	0x37080829	8.108132e-06
191	0x38cd7701	9.797328e-05
192	0x396dccf7	0.00022678437
193	0x39c093d1	0.00036731226
194	0x374a6baf	1.206521e-05
195	0x39165135	0.00014335367
196	0x39309bb4	0.00016842672
197	0x3993a9e2	0.00028164597
198	0x37136d7b	8.787373e-06
199	0x38dafede	0.00010442523
200	0x366e88d1	3.5544401e-06
201	0x36862af7	3.998513e-06
202	0x33a4de35	7.677264e-08
203	0x35e56681	1.7091662e-06
204	0x38e48676	0.000108969325
205	0x39332926	0.00017086099
206	0x36ef0c63	7.124197e-06
207	0x38ad9c8f	8.278444e-05
208	0x3942ec37	0.00018589279
209	0x39a8083b	0.0003204959
210	0x3738f7eb	1.10249775e-05
211	0x390652ea	0.00012810124
212	0x376cfe6c	1.4125933e-05
213	0x37b2bce8	2.130722e-05
214	0x35078081	5.0478417e-07
215	0x36a51a48	4.9204427e-06
216	0x3483c196	2.4541504e-07
217	0x350459b3	4.930436e-07
218	0x3244a1ad	1.1445462e-08
219	0x34d85956	4.0298136e-07
220	0x38f8913a	0.00011852612
221	0x393e0830	0.00018122862
222	0x36d56e39	6.3607263e-06
223	0x388aa1cc	6.61049e-05
224	0x3915f769	0.00014301915
225	0x398b0350	0.00026514614
226	0x370dc1bf	8.449365e-06
227	0x38d3895b	0.000100868485
228	0x36a48547	4.9030964e-06
229	0x36c493bc	5.8584537e-06
230	0x3411eb64	1.3589812e-07
231	0x368da351	4.22114e-06
232	0x3818f137	3.6464273e-05
233	0x385b5fd7	5.2302927e-05
234	0x361b2830	2.3120192e-06
235	0x37dab0e1	2.606999e-05
236	0x39337467	0.00017114134
237	0x398868db	0.00026018065
238	0x3714e376	8.874447e-06
239	0x38d0632c	9.936685e-05
240	0x38fc72a3	0.00012037649
241	0x39477ec7	0.00019025347
242	0x36f19cd2	7.200616e-06
243	0x38b062f1	8.410763e-05
244	0x3680f0c0	3.8427243e-06
245	0x36bc1354	5.6050867e-06
246	0x33ea80b1	1.0919883e-07
247	0x35a3e841	1.2212041e-06
248	0x373ab045	1.1127505e-05
249	0x3783f7cc	1.5731806e-05
250	0x34e751f6	4.3086737e-07
251	0x367197f6	3.6000251e-06
252	0x39196a5e	0.00014630842
253	0x3983ae18	0.00025115977
254	0x371cb53b	9.340521e-06
255	0x38e80ffa	0.00011065598

exp_avg f4 [64]
0	0x3be9b27c	0.0071318727
1	0x3c52e96b	0.012873034
2	0x3c4b4e61	0.012408824
3	0x3c7b43a8	0.015335955
4	0x3c411042	0.011783661
5	0x3c6c6a80	0.014429688
6	0x3c85d7ae	0.016338196
7	0xbc041f7a	-0.008064145
8	0xbb01d4b5	-0.001981062
9	0x3bf1e3fd	0.0073819146
10	0xbc0a85be	-0.008454738
11	0x3bf5f10e	0.0075055426
12	0x3c680643	0.014161649
13	0x3c80f85f	0.015743433
14	0xbbe612e5	-0.0070212954
15	0xbb6c9de4	-0.0036104852
16	0xbb41e878	-0.0029588025
17	0x3c75c5b8	0.015000753
18	0x3c735b26	0.014853274
19	0x3c701942	0.014654459
20	0x3b5a362e	0.0033296454
21	0x3c54a5cb	0.012978981
22	0x3c16045a	0.009156311
23	0xbbe8ee8a	-0.007108514
24	0xbb19e1a7	-0.0023480447
25	0x3bd36028	0.0064506717
26	0xbb864120	-0.004097119
27	0xbb72b254	-0.0037032561
28	0x3c7959f5	0.015219201
29	0x3b7630a4	0.0037565613
30	0x3c8c4bb8	0.01712595
31	0x3be59df0	0.007007353
32	0x3c5ac748	0.013353176
33	0xbc04eafc	-0.008112665
34	0x3c6241b3	0.013809609
35	0x3c955b56	0.018232029
36	0xbb92dff1	-0.0044822623
37	0xbb74456c	-0.0037272824
38	0x3c3e437c	0.011612769
39	0x3a61bd15	0.0008611244
40	0x3b933ad9	0.004493099
41	0x3be0e6c9	0.0068634492
42	0x3c4f5efa	0.0126569215
43	0x3c56a855	0.013101657
44	0x3ca5363b	0.02016746
45	0x3bd0092a	0.0063487487
46	0x3a0caa36	0.00053659396
47	0x3bf0b90f	0.0073462795
48	0x3c7960e6	0.015220856
49	0x3c4ae56e	0.012383802
50	0xbb4a73cd	-0.0030891777
51	0x3b87fa00	0.0041496754
52	0x3c80a853	0.015705263
53	0xbb9ff431	-0.004881405
54	0xba343cf5	-0.00068755384
55	0x3c1b07f8	0.009462349
56	0x3c51de00	0.012809277
57	0xbb75ec42	-0.0037524854
58	0x3b942795	0.00452132
59	0x3c58bad3	0.013228136
60	0x3c331806	0.010931021
61	0xbb45c087	-0.003017457
62	0xbbc6e95f	-0.0060703005
63	0x3c31c38a	0.010849843

exp_avg_sq f4 [64]
0	0x3ad4cd27	0.0016235457
1	0x3b04ffa0	0.0020293966
2	0x3af7758f	0.001887964
3	0x3b4bc019	0.003108984
4	0x3b2445e3	0.002506607
5	0x3b11cc84	0.0022247145
6	0x3b262a30	0.0025354736
7	0x383924e4	4.4141794e-05
8	0x3796befa	1.7970324e-05
9	0x3ae1f524	0.0017239195
10	0x37f6c2f1	2.9416262e-05
11	0x3b709bcd	0.0036713958
12	0x3b02fb42	0.0019986187
13	0x3b30d675	0.0026983295
14	0x38041809	3.1493637e-05
15	0x378501b6	1.5855632e-05
16	0x36d8fef2	6.466981e-06
17	0x3b02b3d0	0.0019943602
18	0x3b2f6b95	0.0026767005
19	0x3b0d3b26	0.0021550148
20	0x3ab545f3	0.0013830051
21	0x3ae163ab	0.0017195841
22	0x3b45bd42	0.003017262
23	0x3809d3d0	3.286061e-05
24	0x37070a46	8.049019e-06
25	0x3b2870bb	0.0025701958
26	0x38073593	3.2236403e-05
27	0x37636eba	1.3556035e-05
28	0x3b0bc244	0.0021325508
29	0x3af559cb	0.0018718777
30	0x3b485a96	0.0030571572
31	0x3af17703	0.0018422309
32	0x3b0c1346	0.0021373793
33	0x389315b6	7.01355e-05
34	0x3b09faa2	0.002105393
35	0x3b68d58a	0.003552767
36	0x376659a3	1.37299385e-05
37	0x381df10a	3.7656202e-05
38	0x3b5a6fd4	0.0033330815
39	0x3ad3decc	0.0016164421
40	0x3af3412d	0.0018558853
41	0x3ae30d2d	0.0017322652
42	0x3ad9b87b	0.0016610766
43	0x3af2f770	0.0018536877
44	0x3bd55ddd	0.0065114335
45	0x3adc21b9	0.0016794718
46	0x3a8c4838	0.0010702675
47	0x3ae03faa	0.0017108817
48	0x3b29851e	0.0025866698
49	0x3af59aa0	0.0018738098
50	0x36b790eb	5.4706957e-06
51	0x3ac1a471	0.0014773739
52	0x3b16c685	0.002300651
53	0x3800e317	3.0729072e-05
54	0x35d8a59e	1.6141455e-06
55	0x3aacb584	0.0013176654
56	0x3aee7473	0.0018192664
57	0x375d6c8c	1.31978995e-05
58	0x39d7ea54	0.00041182584
59	0x3aefe911	0.0018303712
60	0x3ac4f840	0.0015027598
61	0x37095852	8.1864e-06
62	0x37c80d9a	2.3848192e-05
63	0x3b04df11	0.002027456

exp_avg f4 [2, 64]
0	0xbb5d260c	-0.0033744602
1	0xbb09b6ba	-0.0021013455
2	0xbb1d9364	-0.002404415
3	0xbb0260bb	-0.0019894082
4	0xbb40cc6e	-0.0029418725
5	0xbad62bca	-0.0016339954
6	0xba51c645	-0.0008002262
7	0xb9b87fc7	-0.00035190416
8	0xba2c540c	-0.0006573803
9	0xbb45787c	-0.0030131629
10	0xb9be1f6c	-0.00036263035
11	0xba805af4	-0.0009792731
12	0xba8d33cb	-0.0010772882
13	0xba90f79d	-0.0011060123
14	0xb8c4e7d7	-9.389192e-05
15	0xba1bc08f	-0.0005941474
16	0xba1e58a0	-0.0006040428
17	0xbadb84de	-0.0016747972
18	0xbb2229ef	-0.0024744233
19	0xbb06e100	-0.0020580888
20	0xba817ae3	-0.0009878542
21	0xbb230f44	-0.0024880925
22	0xb9ac051b	-0.000328102
23	0xb99a0f5c	-0.00029384613
24	0xba179586	-0.00057824736
25	0xbaac20af	-0.0013132299
26	0xb9c7f74c	-0.00038140488
27	0xba243c32	-0.00062650733
28	0xbaa4b477	-0.001256599
29	0xba5bbaf9	-0.0008382048
30	0xba71e504	-0.00092275464
31	0xba97e621	-0.001158897
32	0xbb350698	-0.0027622338
33	0xb9dd9a90	-0.00042267563
34	0xbb26afcf	-0.002543438
35	0xba2c0e5a	-0.0006563418
36	0xb9b29457	-0.00034061327
37	0xb9a046d6	-0.00030570355
38	0xba690054	-0.00088882935
39	0xba4221b3	-0.0007405534
40	0xba7ed4fd	-0.0009721069
41	0xbb58fc08	-0.0033109207
42	0xbb312b11	-0.0027033726
43	0xbb2d2ff4	-0.0026426287
44	0xba945daf	-0.0011319424
45	0xba9364cb	-0.0011245249
46	0xba3d9c76	-0.00072330923
47	0xbab0585e	-0.001345407
48	0xbb0b3773	-0.0021242767
49	0xbb127826	-0.0022349446
50	0xb8bcfdfa	-9.0118454e-05
51	0xbb883731	-0.00415697
52	0xbab62bcc	-0.001389855
53	0xb9dd7de1	-0.00042246192
54	0xb9ef435a	-0.00045635813
55	0xbb685cf0	-0.0035455786
56	0xbb32a39a	-0.0027258159
57	0xb8a2878e	-7.750011e-05
58	0xbb3bc9de	-0.0028654258
59	0xbb30cb2c	-0.0026976569
60	0xbb42373b	-0.002963497
61	0xba69defa	-0.0008921471
62	0xb9b5ffdc	-0.0003471364
63	0xbb3af45b	-0.0028526995
64	0x3b5d260a	0.0033744597
65	0x3b09b6bb	0.0021013457
66	0x3b1d9365	0.0024044153
67	0x3b0260bb	0.0019894082
68	0x3b40cc6e	0.0029418725
69	0x3ad62bcb	0.0016339956
70	0x3a51c649	0.0008002264
71	0x39b87fc5	0.0003519041
72	0x3a2c540c	0.0006573803
73	0x3b45787b	0.0030131626
74	0x39be1f6a	0.0003626303
75	0x3a805af4	0.0009792731
76	0x3a8d33cd	0.0010772884
77	0x3a90f79f	0.0011060125
78	0x38c4e7d6	9.389191e-05
79	0x3a1bc08f	0.0005941474
80	0x3a1e58a1	0.00060404284
81	0x3adb84dc	0.0016747969
82	0x3b2229f0	0.0024744235
83	0x3b06e100	0.0020580888
84	0x3a817ae5	0.0009878544
85	0x3b230f43	0.0024880923
86	0x39ac051e	0.0003281021
87	0x399a0f5c	0.00029384613
88	0x3a179587	0.0005782474
89	0x3aac20ad	0.0013132297
90	0x39c7f74c	0.00038140488
91	0x3a243c30	0.0006265072
92	0x3aa4b478	0.0012565991
93	0x3a5bbaf7	0.0008382047
94	0x3a71e504	0.00092275464
95	0x3a97e623	0.0011588972
96	0x3b350697	0.0027622336
97	0x39dd9a90	0.00042267563
98	0x3b26afd0	0.0025434382
99	0x3a2c0e59	0.0006563417
100	0x39b29457	0.00034061327
101	0x39a046d8	0.0003057036
102	0x3a690052	0.00088882924
103	0x3a4221ae	0.00074055314
104	0x3a7ed4fd	0.0009721069
105	0x3b58fc08	0.0033109207
106	0x3b312b11	0.0027033726
107	0x3b2d2ff5	0.002642629
108	0x3a945daf	0.0011319424
109	0x3a9364cc	0.001124525
110	0x3a3d9c7c	0.0007233096
111	0x3ab0585e	0.001345407
112	0x3b0b3774	0.002124277
113	0x3b127828	0.002234945
114	0x38bcfdfb	9.011846e-05
115	0x3b883732	0.0041569704
116	0x3ab62bca	0.0013898548
117	0x39dd7de2	0.00042246195
118	0x39ef4358	0.00045635807
119	0x3b685cf0	0.0035455786
120	0x3b32a39c	0.0027258163
121	0x38a28795	7.750016e-05
122	0x3b3bc9df	0.002865426
123	0x3b30cb2e	0.0026976573
124	0x3b42373b	0.002963497
125	0x3a69defb	0.00089214713
126	0x39b5ffdc	0.0003471364
127	0x3b3af45b	0.0028526995

exp_avg_sq f4 [2, 64]
0	0x3817a644	3.6156052e-05
1	0x38096164	3.2754047e-05
2	0x381c10e2	3.720902e-05
3	0x37bdc2f4	2.2621338e-05
4	0x37d2d831	2.5134623e-05
5	0x37e292e5	2.7009703e-05
6	0x37bee3a2	2.2755765e-05
7	0x355fec67	8.3417984e-07
8	0x353082bf	6.575537e-07
9	0x3810c2f8	3.4513854e-05
10	0x3527591d	6.2342025e-07
11	0x37c23b35	2.3154173e-05
12	0x37ea942d	2.7963973e-05
13	0x37bb31e9	2.2315378e-05
14	0x344804c3	1.8628184e-07
15	0x358b3e04	1.0374356e-06
16	0x364498f5	2.9295309e-06
17	0x37e09b76	2.6775273e-05
18	0x37b677f1	2.1751943e-05
19	0x37e43248	2.7203132e-05
20	0x38334e19	4.274966e-05
21	0x3806982d	3.2089814e-05
22	0x37b4f525	2.1571826e-05
23	0x34b84013	3.431929e-07
24	0x3558d3bb	8.077438e-07
25	0x37f3a504	2.9044699e-05
26	0x3526135d	6.1867996e-07
27	0x35a39d60	1.2190249e-06
28	0x37cff643	2.4790997e-05
29	0x380ff22f	3.4319408e-05
30	0x37a1bb1d	1.9279827e-05
31	0x3810ceaf	3.4524764e-05
32	0x37d57342	2.544525e-05
33	0x358de20e	1.0571109e-06
34	0x37edab17	2.8332272e-05
35	0x37a05270	1.9111874e-05
36	0x3604b87b	1.9776915e-06
37	0x356a6c12	8.7329056e-07
38	0x37b1b931	2.118628e-05
39	0x382024a5	3.81811e-05
40	0x3815cc13	3.5714427e-05
41	0x3815d682	3.5724144e-05
42	0x38086a4a	3.2523916e-05
43	0x38073279	3.2233515e-05
44	0x3790abce	1.724614e-05
45	0x380ecf70	3.404863e-05
46	0x380d0c6a	3.362858e-05
47	0x381d8cd0	3.756286e-05
48	0x37c010d2	2.2896016e-05
49	0x3815a33b	3.567639e-05
50	0x34251495	1.537431e-07
51	0x3829ab9e	4.045257e-05
52	0x37df73d9	2.6637617e-05
53	0x351ece97	5.9160215e-07
54	0x347eb441	2.372117e-07
55	0x38147c91	3.540196e-05
56	0x3807737f	3.2294072e-05
57	0x346302e8	2.114208e-07
58	0x37a2e2a5	1.9417444e-05
59	0x37dec5bf	2.6556545e-05
60	0x3818fe27	3.6476322e-05
61	0x36357914	2.7041579e-06
62	0x3513931d	5.4975845e-07
63	0x37effccc	2.8608738e-05
64	0x3817a643	3.615605e-05
65	0x38096164	3.2754047e-05
66	0x381c10e2	3.720902e-05
67	0x37bdc2f6	2.2621341e-05
68	0x37d2d831	2.5134623e-05
69	0x37e292e3	2.7009699e-05
70	0x37bee3a3	2.2755767e-05
71	0x355fec65	8.3417973e-07
72	0x353082bd	6.575536e-07
73	0x3810c2f8	3.4513854e-05
74	0x3527591c	6.234202e-07
75	0x37c23b36	2.3154174e-05
76	0x37ea942b	2.796397e-05
77	0x37bb31e9	2.2315378e-05
78	0x344804c2	1.8628182e-07
79	0x358b3e04	1.0374356e-06
80	0x364498f5	2.9295309e-06
81	0x37e09b75	2.6775271e-05
82	0x37b677f1	2.1751943e-05
83	0x37e4324a	2.7203136e-05
84	0x38334e18	4.2749656e-05
85	0x3806982d	3.2089814e-05
86	0x37b4f523	2.1571823e-05
87	0x34b84011	3.4319285e-07
88	0x3558d3b9	8.077437e-07
89	0x37f3a504	2.9044699e-05
90	0x3526135d	6.1867996e-07
91	0x35a39d60	1.2190249e-06
92	0x37cff643	2.4790997e-05
93	0x380ff22f	3.4319408e-05
94	0x37a1bb1b	1.9279823e-05
95	0x3810cead	3.4524757e-05
96	0x37d57342	2.544525e-05
97	0x358de20f	1.057111e-06
98	0x37edab15	2.8332268e-05
99	0x37a05272	1.9111878e-05
100	0x3604b87b	1.9776915e-06
101	0x356a6c11	8.732905e-07
102	0x37b1b931	2.118628e-05
103	0x382024a5	3.81811e-05
104	0x3815cc13	3.5714427e-05
105	0x3815d681	3.572414e-05
106	0x38086a49	3.2523913e-05
107	0x38073279	3.2233515e-05
108	0x3790abcf	1.7246142e-05
109	0x380ecf70	3.404863e-05
110	0x380d0c69	3.3628578e-05
111	0x381d8cce	3.756285e-05
112	0x37c010d1	2.2896014e-05
113	0x3815a33a	3.5676385e-05
114	0x34251493	1.5374307e-07
115	0x3829ab9e	4.045257e-05
116	0x37df73d9	2.6637617e-05
117	0x351ece97	5.9160215e-07
118	0x347eb43f	2.3721167e-07
119	0x38147c8e	3.540195e-05
120	0x3807737f	3.2294072e-05
121	0x346302e8	2.114208e-07
122	0x37a2e2a5	1.9417444e-05
123	0x37dec5c0	2.6556547e-05
124	0x3818fe26	3.647632e-05
125	0x36357914	2.7041579e-06
126	0x3513931c	5.497584e-07
127	0x37effcd0	2.8608745e-05

exp_avg f4 [2]
0	0xbb2a9b2f	-0.0026032438
1	0x3b2a9b30	0.002603244

exp_avg_sq f4 [2]
0	0x38d7680a	0.00010271378
1	0x38d7680a	0.00010271378

exp_avg f4 [1, 64]
0	0x3c5c056c	0.013429027
1	0x3c8a994f	0.016918806
2	0x3c888734	0.016666032
3	0x3c6b5cf1	0.014365421
4	0x3c6411e6	0.013920283
5	0x3c82ed73	0.015982365
6	0x3c4240ce	0.011856271
7	0x3c0aa63a	0.008462483
8	0x3c1bb5f3	0.009503829
9	0x3c5eac58	0.013590895
10	0x3c134435	0.00898843
11	0x3c80a2dc	0.015702657
12	0x3c749fbd	0.014930663
13	0x3c602324	0.013680253
14	0x3ba63d06	0.0050731925
15	0x3bf60f66	0.00750916
16	0x3c30a624	0.0107817985
17	0x3c5e92c3	0.013584795
18	0x3c59ba07	0.013288981
19	0x3c50dc34	0.012747813
20	0x3cd3eae1	0.025868835
21	0x3c5be16c	0.013420444
22	0x3c53bf01	0.012923957
23	0x3bb336a5	0.0054691606
24	0x3c07ee34	0.008296538
25	0x3c8f5422	0.017496172
26	0x3ba97778	0.0051717125
27	0x3c04cd8d	0.008105648
28	0x3c6e29df	0.01453635
29	0x3cd7cfca	0.026344199
30	0x3c3dc099	0.011581563
31	0x3c96cca6	0.01840813
32	0x3c5f0d4e	0.013614012
33	0x3bdc5f67	0.00672524
34	0x3c67a09a	0.0141374115
35	0x3c3d0bc0	0.011538446
36	0x3c4fe03e	0.012687741
37	0x3b91f230	0.00445392
38	0x3c5847fd	0.013200757
39	0x3caf6f6e	0.021415439
40	0x3c8eec1f	0.017446576
41	0x3c4c2654	0.01246031
42	0x3c69cc5a	0.014269913
43	0x3c64303f	0.013927518
44	0x3c2fd47f	0.010731815
45	0x3cb0d3e2	0.021585409
46	0x3cced523	0.025248116
47	0x3caf84d3	0.02142564
48	0x3c4810fc	0.012211081
49	0x3c8a1f97	0.016860766
50	0x3bb05060	0.005380675
51	0x3c9471dc	0.018120699
52	0x3c47f64b	0.012204717
53	0x3bb9bde4	0.0056683887
54	0x3bc9207b	0.006137905
55	0x3c6918f9	0.014227145
56	0x3c60d87f	0.013723492
57	0x3bd2a4fe	0.00642836
58	0x3c5f65c6	0.0136351045
59	0x3c52ad6c	0.01285873
60	0x3c5eb155	0.013592084
61	0x3c3e6cc3	0.0116226105
62	0x3bd91329	0.0066245985
63	0x3c52104c	0.012821268

exp_avg_sq f4 [1, 64]
0	0x3b0455d3	0.0020192757
1	0x3b1345b4	0.0022471966
2	0x3b170f86	0.0023050024
3	0x3adb8a52	0.0016749597
4	0x3ae217e1	0.0017249548
5	0x3b0ff46e	0.002196576
6	0x3aedae46	0.0018133603
7	0x37e54fec	2.7336144e-05
8	0x378a5169	1.6488792e-05
9	0x3b117183	0.0022192902
10	0x37c72dd0	2.3743982e-05
11	0x3ad4e034	0.0016241134
12	0x3b19d1ef	0.0023471077
13	0x3ae7e2bb	0.0017691472
14	0x36edb6ab	7.0844158e-06
15	0x37b33817	2.1364582e-05
16	0x389b8bce	7.4170166e-05
17	0x3b026d24	0.0019901479
18	0x3ade7cc8	0.0016974444
19	0x3b0836ae	0.0020784545
20	0x3b3d5b44	0.002889351
21	0x3b2038cd	0.0024447918
22	0x3ada711a	0.0016665787
23	0x37426a8e	1.158811e-05
24	0x37f5c3c6	2.929744e-05
25	0x3af81fd0	0.0018930379
26	0x37612ab7	1.342099e-05
27	0x37d1a706	2.4992518e-05
28	0x3b0b62a1	0.0021268504
29	0x3b10d7ce	0.0022101286
30	0x3ad6a38a	0.0016375643
31	0x3b24eca8	0.0025165472
32	0x3af888b2	0.0018961637
33	0x3806f85a	3.2179385e-05
34	0x3b0d6aef	0.002157863
35	0x3acb82dc	0.001552667
36	0x3881e77d	6.1943174e-05
37	0x37a5c9ea	1.9763556e-05
38	0x3ad731e1	0.0016418063
39	0x3b2e3634	0.00265826
40	0x3b27ac93	0.002558504
41	0x3afdf266	0.0019374609
42	0x3b206547	0.0024474429
43	0x3b1ea176	0.0024205125
44	0x3aaafb74	0.001304491
45	0x3b1a7256	0.0023566685
46	0x3b15e502	0.0022872095
47	0x3b24d7aa	0.002515296
48	0x3aef1b2b	0.001824235
49	0x3b1d9b45	0.0024048847
50	0x370f8737	8.554946e-06
51	0x3b09b5eb	0.0021012973
52	0x3b01d603	0.0019811399
53	0x374e1b64	1.2284934e-05
54	0x376ebaac	1.4229368e-05
55	0x3b1c909d	0.0023889907
56	0x3b1732dd	0.0023071088
57	0x378cb63f	1.6774165e-05
58	0x3a884aea	0.0010398303
59	0x3afe1995	0.0019386286
60	0x3b1c6b9d	0.0023867853
61	0x38663a9f	5.489087e-05
62	0x37995164	1.8276922e-05
63	0x3afac818	0.0019133119
