savedModels/ppo_cartpole_40960.pth (torch, 13659 bytes, 15 tensors)

shared_fc.0.weight f4 [64, 4]
00000000: d688 1abc bdfc c93e b76f 493e 61ce 59be
00000010: 00ec f2bd f169 e7bd 643c 1cbf eff7 42be
00000020: 5095 6dbd a0c5 c8be 6265 abbe e13c bebe
00000030: cd31 bcbd fb77 f9bd cb7d c9be fc25 26be
00000040: 72a2 673d b4d5 093d aacd 2abf 14e6 1abe
00000050: 576c 71bd 9799 143d 87b3 aebe 558c fabd
00000060: 32ae 26be 3166 293e 4814 f13e 44ee 9c3e
00000070: e290 e6bc 438b 96bc a35d 4abe fbd3 1dbe
00000080: 11e4 223e 583d 93bd d7ab 9dbd 9d86 6e3d
00000090: 7ba4 8f3e 9f0c 0b3e d9db 2f3e 38ed 64be
000000a0: 3e3f 923e 9a80 c1be 93a4 6ebe 9788 b2bd
000000b0: 7d43 88bc 000f 46be b3f6 13be 0a19 8d3d
000000c0: e969 31bc 678f 593d 0cd2 ce3e 8566 643e
000000d0: bc92 a4bd 56aa 1f3c ca3f 5e3e 4aef 403d
000000e0: bf1b 313c 9b0f a53d 4890 1dbe ab36 8abd
000000f0: af6b 7c3d 2c2b 853d ad05 f53d d9f7 103e
00000100: 1586 72bd 638f 97be 5d1b 52be 1a7f d9bd
00000110: 6a59 913e 6f23 593e d710 96bc 7f2d b93d
00000120: 9048 243c cc3c 52bd d5a1 93be f18e 30be
00000130: 9adb 50be 7abc 783e e92b a53e 08ff 023e
00000140: 3f80 95bd 3b60 f7bd 3b47 a43e 5038 733e
00000150: 3c83 47be 64ad 5d3e a95b ee3e 5537 cdbd
00000160: f4d6 543d 9720 0a3e 7e32 463e 12a5 db3e
00000170: a523 623d 594e d0bd ceb6 d8bd 5b1a 59bb
00000180: 4024 4a3d 4e22 e6bc eedd fbbd 3131 a03e
00000190: 3bbd 303d 0891 9dbe 2971 85be f628 cfbd
000001a0: bc5c 1b3c bd2d bb3d af57 703e 9cb6 e13d
000001b0: 719e 0d3e 0b61 fb3c c5ef 2f3e e6b7 c13d
000001c0: f0e0 84bd 656a 573d f236 da3e 0c89 523e
000001d0: 473c 1dbe ac1d 8dbe 2667 0e3f dcdf 5d3e
000001e0: 250c 113e e660 b439 2cfa 0b3f 1383 133e
000001f0: 153a 763d fab5 f7bd 5a1e 813e 01d1 91bc
00000200: d3dc 9c3b e226 58bc 03c0 c0be 73a0 07be
00000210: c093 0b3e 7478 32be 8913 8dbd 9f03 a0be
00000220: b4ac 9d3e 2bba 88bd 8641 c7be 6329 06be
00000230: 96e7 14be 8e0b 053e 5b42 da3e 69a4 5f3e
00000240: 9678 78be 2e4d 38bc d88b 103e 7a45 2cbe
00000250: 4820 0bbd 774d 863e e9fe 2c3e a79b 1a3e
00000260: c5e5 05bd 007b bcbd 38a8 aa3e 3137 853d
00000270: b869 a8be 25a8 883c f6c3 0c3e 35ba a43e
00000280: 749a 7abe 1b3b 74bd 53bc 113f e478 d73d
00000290: cd65 24be 51c6 ee3e 86d5 813d 3e69 20be
000002a0: 25c0 8abe ebec 5e3e 0575 75be 7547 debd
000002b0: 4e3f b83d 950d 88bd 4cea 3abe f126 0fbe
000002c0: 7d4b fe3e 6abc 163d 4ebc c4bd 7db1 3f3e
000002d0: 7673 513e 7ac7 c2be 7759 9c3e 37aa cb3d
000002e0: 8dca 39bd a6be 25be 75a7 3f3f c1a3 1b3e
000002f0: be1c ca3d abe6 adbe 1be9 9a3e 70b5 b6bc
00000300: e6dc d43d 7557 90bd 61ad 663e 1c4f 46bd
00000310: b041 04be 0dcd 59be 1500 b1be b24e 93be
00000320: 7572 83bd fb2d c1bc 35d8 863e 5086 013e
00000330: bc6d 5f3e ce53 a63e 0ef5 b1b9 4000 f7be
00000340: 8341 523e b6f8 d73d d775 e33e 28e4 833e
00000350: a21b 103d b42c 693c faec c13e 82bf 943d
00000360: 74d8 5a3c d0e3 003c 41b7 c1be 9ea2 73be
00000370: 13a4 1bbd 3c3b 503d 9afb 08be 45c2 dbbe
00000380: d805 633e 47d0 153d 6776 65bd 3500 0fbe
00000390: 8198 3ebe a5b8 1f3d f90a 18bc 52fd 873e
000003a0: dc86 823e 4df9 783e 53b0 8cbe 4322 f6bd
000003b0: da73 d3be dc1c 5f3e c417 39bc efb1 90be
000003c0: c34a 3f3c 9223 553e 2574 5cbd 82e7 ecbd
000003d0: 1db4 bc3e 50b0 173d d308 b73e 84d4 633c
000003e0: dfb1 8f3d 37dd 23bd 256e 0ebf 7022 cb3c
000003f0: d68b 6e3d 1055 3b3e 2230 5cbd a85b 48be
-0.009432038 0.39450637 0.19671522 -0.21270134 -0.1186142 -0.112995036 -0.6102965 -0.19039892
-0.058003724 -0.39213276 -0.33475786 -0.37155822 -0.09189186 -0.121810876 -0.39353785 -0.16225427
0.056551404 0.03365107 -0.6672007 -0.1512683 -0.05894121 0.036279287 -0.34121343 -0.122337975
-0.16277388 0.16542889 0.47085786 0.30650532 -0.028145257 -0.018376952 -0.19762282 -0.15412895
0.15907313 -0.07189435 -0.076987915 0.058233846 0.28055176 0.13579033 0.17173709 -0.22356117
0.28563875 -0.37793428 -0.23304968 -0.08717459 -0.016633743 -0.1934166 -0.14449577 0.068895414
-0.010828474 0.053115275 0.40394628 0.22304733 -0.080358 0.009745201 0.21704021 0.047103204
0.010809838 0.08059617 -0.1538707 -0.06748708 0.061626133 0.06502375 0.11963973 0.14157046
-0.0592099 -0.29601583 -0.20518251 -0.10619946 0.2838853 0.21204923 -0.018318577 0.09041881
0.010027066 -0.05132751 -0.28834406 -0.17242028 -0.20396271 0.24290648 0.32260063 0.12792599
-0.072998516 -0.120789014 0.32085595 0.2375195 -0.19483656 0.21648175 0.46554306 -0.10020319
0.051962808 0.13488995 0.19355199 0.42899376 0.055209775 -0.10171194 -0.10581742 -0.0033127281
0.049350977 -0.02809253 -0.12298189 0.3128753 0.043149214 -0.30774713 -0.26062897 -0.101152346
0.009482559 0.09139583 0.23470949 0.11021158 0.13829972 0.030685922 0.17181309 0.09458904
-0.06488216 0.0525917 0.42620045 0.20560092 -0.15355025 -0.275617 0.5562614 0.21667427
0.14164789 0.0003440447 0.54678607 0.1440547 0.060113985 -0.12095256 0.2521847 -0.017799856
0.0047870665 -0.013192864 -0.37646493 -0.132448 0.13630581 -0.17428762 -0.06888492 -0.31252763
0.30795825 -0.06676134 -0.38917178 -0.13101725 -0.14541468 0.12992689 0.4262875 0.21840061
-0.2426475 -0.01124887 0.14115846 -0.16823378 -0.033966333 0.26230976 0.16894116 0.15098439
-0.03268983 -0.09203148 0.33331466 0.065046676 -0.32893157 0.01668174 0.13746628 0.32173315
-0.24472982 -0.05962668 0.56927985 0.10521105 -0.16054459 0.46635678 0.063395545 -0.15665147
-0.2709972 0.21770065 -0.2397042 -0.10853473 0.089964494 -0.066432156 -0.1825344 -0.13979699
0.49666968 0.03680078 -0.09606229 0.1872005 0.20454201 -0.38042814 0.30537006 0.09944575
-0.045359183 -0.16186008 0.74864894 0.15199186 0.098687634 -0.33965048 0.3025597 -0.022303313
0.103936955 -0.07047931 0.22527076 -0.04841529 -0.12915683 -0.21269627 -0.34570375 -0.28770977
-0.06418315 -0.023581496 0.26336828 0.12648892 0.21819204 0.32485813 -0.0003394265 -0.48242378
0.20532803 0.10545485 0.44425842 0.25760007 0.035182603 0.014231849 0.3787611 0.0726309
0.0133572705 0.007866815 -0.37835124 -0.23792502 -0.03799827 0.05083774 -0.13377228 -0.42921653
0.22170198 0.036575582 -0.05602112 -0.13964923 -0.18612863 0.03899445 -0.00927996 0.26560456
0.25493515 0.2431385 -0.27478275 -0.12018254 -0.41299325 0.21788353 -0.01129717 -0.28260753
0.011675539 0.2081435 -0.0538217 -0.11567594 0.36856166 0.03703338 0.3574892 0.013905648
0.07016348 -0.04000589 -0.5563682 0.024796695 0.058238827 0.18294168 -0.05375684 -0.19566214

shared_fc.0.bias f4 [64]
00000000: dd2a b03e 5488 df3e e9a5 cd3e 0ba8 cc3e
00000010: c0af dc3e c482 1bbe fb2a b33e a228 d1bd
00000020: 384a 25be 6a80 c63e f780 ffbd bd25 b03e
00000030: 37d7 b13e aea7 be3e f219 17be 699f 15be
00000040: 33cd c0bd 8534 33bd 6b7b d83e b34b c43e
00000050: 9bad d43e 4f6e db3e a20e bb3e 254b e2bd
00000060: f5b1 39be ac7b b83e ad2c d6bd f743 22be
00000070: ca50 833e b6ed af3e a159 c53e 915a d63e
00000080: 8511 e63e 530a 24be 0d3e d23e 5197 b33e
00000090: c44a 60be da13 14be f419 b53e 3e63 c03e
000000a0: bf82 b23e 1f96 b33e 6af2 df3e 5c16 ea3e
000000b0: 8ac5 ac3e 2594 c83e 5fea 16bd 9d11 ce3e
000000c0: 9f14 d43e 064b d63e 90b3 16be 3f1b af3e
000000d0: e94c d53e 4993 d03d 3502 1cbe 170d e83e
000000e0: 09af d53e 6de6 4ebe b00c 35be 36c8 bb3e
000000f0: 965d 663e da70 1dbe dba4 983e 56ea c33e
0.34407702 0.43658698 0.40165642 0.39971957 0.43102837 -0.15186602 0.3499373 -0.10212828
-0.16141593 0.38769847 -0.1247577 0.34403792 0.34734508 0.37237304 -0.14755991 -0.14611591
-0.09414139 -0.04375126 0.4228166 0.38339004 0.415387 0.42857596 0.365346 -0.11049489
-0.18134291 0.36031854 -0.1045774 -0.15846239 0.25647575 0.34361047 0.38544944 0.41865972
0.4493524 -0.16019563 0.41062966 0.35076383 -0.21903521 -0.14460698 0.35371363 0.37575716
0.34865376 0.3507547 0.43739635 0.45720184 0.3374446 0.39175525 -0.036844607 0.40247813
0.41421983 0.41854113 -0.14716935 0.34200475 0.4166024 0.101843424 -0.15235217 0.45322487
0.41735104 -0.20205088 -0.17680621 0.36676186 0.22496638 -0.1537508 0.29813275 0.38264722

actor_head.weight f4 [2, 64]
00000000: 0b03 df3c 1b4c 643e 1104 173e c7b2 593e
00000010: 4a18 3d3e 0795 3bbe d4b5 2fbe 0185 44bd
00000020: eee5 a13d 2d8b 993c 930d d93d a15f 5fbc
00000030: 3595 25be afe0 4bbd 40c0 c4bd 5fe2 2cbc
00000040: 0574 8e3c d893 12bd 9c4c 243e d7b3 a4bd
00000050: 1f8c 98bd 7f9a 83bb ebc7 c4bd 5aa8 c43d
00000060: a6d0 9bbc 2aa3 553d 12eb 9bbd a13e 783b
00000070: 28dd 62be 2960 a0bd 689f 28be 8dee 21bd
00000080: 296e 263e b7ac efba d515 313e 8beb 2abe
00000090: 82ef abbc c20c d0bd e272 d2bd 5e77 8bbd
000000a0: 0923 f6bd 3693 5b3d 9729 ed3d 5154 0b3e
000000b0: 23c6 9bbc b9b5 3bbd ff69 97bd 6b1e 5fbd
000000c0: e71f 023c 0e84 413e c693 13bd 408c 773d
000000d0: e654 0cbe 919c 8fbe ce68 cebc f4d2 b83d
000000e0: 0abc 853d 5ad0 08bb c005 d43c 65d9 b43d
000000f0: 43b4 d63c 5e73 80bd 83bd 963e 8486 573d
00000100: 0d07 bbbc a1fe 6ebe 3f57 22be 1ad9 5cbe
00000110: 4a66 56be 68c0 3f3e b671 393e 1f66 523d
00000120: dd58 c2bd 9719 43bd ee21 82bd a820 353b
00000130: 4686 303e 5e99 9c3d ec2e a33d 0949 51bb
00000140: a976 a0bd 21d9 0a3d f08b 30be e292 973d
00000150: 71aa 443d 66d4 77bc df6f dc3d 2bbb edbd
00000160: 2f73 edba 16e5 7fbd 78ef c23d 54b2 ff3a
00000170: 5866 3f3e 6fab b23d 1549 3b3e 378e 823d
00000180: a557 2dbe 6940 e83b 2063 20be a4fa 363e
00000190: 79f0 0b3d a6ad b33d efc8 bb3d f94c 673d
000001a0: 2219 db3d 2930 2cbd 6be1 e6bd cffc 14be
000001b0: 8060 4ebc a7b4 8d3d 31df 733d f28a 5e3d
000001c0: c876 673c c104 44be 2247 163d d654 1abd
000001d0: 10cd 1a3e 3eb3 903e 9162 903c a23f ccbd
000001e0: 1185 85bd c2e1 dd3a 841c bfbc 4568 a6bd
000001f0: 0846 74bc 3fcc 833d 6557 91be bb82 b1bd
0.02722313 0.22294657 0.14747645 0.21259604 0.18466297 -0.18318568 -0.17159206 -0.047978405
0.07905184 0.018743122 0.10598292 -0.01363364 -0.16170199 -0.04977482 -0.09606981 -0.010552018
0.017389307 -0.035785526 0.16044849 -0.08042114 -0.07448601 -0.00401622 -0.09608444 0.09602423
-0.01902039 0.05215756 -0.076131955 0.0037879127 -0.22154677 -0.07830841 -0.16467059 -0.03953414
0.1625296 -0.0018285726 0.17293485 -0.16691415 -0.02098823 -0.10158683 -0.102758184 -0.06809877
-0.12018401 0.05360719 0.11580198 0.13606383 -0.019015377 -0.0458276 -0.07393264 -0.05447237
0.007942176 0.18898031 -0.0360296 0.060436487 -0.13704261 -0.28049138 -0.02519646 0.09024611
0.06530006 -0.002087614 0.025881648 0.08830527 0.026209002 -0.062720045 0.2944146 0.05261852
-0.02283051 -0.2333932 -0.15853594 -0.21567193 -0.20937458 0.18725741 0.18109784 0.05136692
-0.094896056 -0.047631826 -0.06354128 0.0027637873 0.17238721 0.0764644 0.07967934 -0.0031934401
-0.07835133 0.033898477 -0.17240882 0.074010625 0.048014108 -0.015126323 0.10763525 -0.11607965
-0.0018115992 -0.062474333 0.09518331 0.0019508102 0.18691385 0.087241046 0.18289597 0.063747816
-0.16927965 0.0070877564 -0.15662813 0.1786905 0.03416488 0.08773355 0.091691844 0.05646989
0.10698153 -0.042038117 -0.11273464 -0.14549564 -0.01259625 0.06919222 0.059539024 0.054331727
0.014127441 -0.19142438 0.03668893 -0.037678562 0.15117288 0.2826175 0.017625125 -0.099730745
-0.06519521 0.0016928243 -0.023329027 -0.081253566 -0.014909275 0.06435441 -0.2838699 -0.08667513

actor_head.bias f4 [2]
00000000: 22de 073d 1fde 07bd
0.033170827 -0.033170816

critic_head.weight f4 [1, 64]
00000000: b0c3 8e3e 0a48 8c3e 09c5 7b3e 3ec2 c73e
00000010: 50d4 c63e 6867 83be b05f bc3e bc68 75be
00000020: 1ca6 2dbe b2a1 6c3e 4c7e 00bd bce2 ea3e
00000030: 65e2 a73e d721 c63e 4e04 aebe 17a8 f7bd
00000040: e231 3abd e929 043c f2f6 d43e 447c bc3e
00000050: 8770 443e 689f 903e 68af e43e 5235 94bd
00000060: 1314 aabd 1d43 bf3e 637d f0bd a44f e2bd
00000070: 076b 803e d25f 823e e05b de3e e695 a33e
00000080: 2e43 bf3e 893c 6fbe 9cb4 9b3e 8e04 f33e
00000090: fde8 0cbe 4f9a e7bd 280f d93e a95b 553e
000000a0: 1c62 643e f2ed a13e 8de3 763e 6380 a73e
000000b0: 1d2b 263f 7aef 8a3e f9cc b9bc 120d 833e
000000c0: 0520 e13e 62a4 753e 04cb 0bbe 0ef5 923e
000000d0: c086 a73e 7524 033e 7a0c 0dbe cbfa 683e
000000e0: e59f 833e e9ce 11be 91dc 0ebd 8994 733e
000000f0: 4c41 c63d e27a c1bd d421 ac3e 4cb1 973e
0.27883673 0.2739871 0.24586882 0.39015383 0.38833857 -0.2566483 0.36791754 -0.23965734
-0.16957897 0.23108557 -0.031370446 0.4587611 0.32789913 0.38697693 -0.3398766 -0.120926075
-0.04545773 0.008066633 0.41594654 0.36813557 0.19183551 0.28246617 0.44665074 -0.072367325
-0.0830461 0.3735589 -0.117426656 -0.110503465 0.25081655 0.2546373 0.4342947 0.319503
0.37355942 -0.23362936 0.30411232 0.47464412 -0.13760753 -0.11308729 0.42394376 0.20835747
0.22303051 0.3162685 0.24110241 0.3271514 0.64909536 0.2713583 -0.022680746 0.2559591
0.4396974 0.23988488 -0.13651663 0.28702587 0.32719994 0.12806876 -0.1377429 0.2275192
0.25707927 -0.14239086 -0.034878317 0.2378713 0.09680423 -0.09447266 0.3361956 0.29627454

exp_avg f4 [64, 4]
00000000: fab9 7abc c881 b4bb b266 a7ba 439c 9dba
00000010: 07b8 9b3a 0e93 a43a 1c0d a1b9 3a91 c6ba
00000020: 7c2e 1d3b fc1b 403b 5914 bfb8 7777 c0ba
00000030: d8bd e0ba 6b22 603a e0d4 03ba 70d7 f1ba
00000040: 6d44 b1bc e431 e1bb b501 0cbb 7d4f 8ebb
00000050: f925 90ba be1d 00bb 9fe7 4039 fcf1 cf3a
00000060: f7ee 5fbc 78cd f9bb 493c 9e38 129c 983a
00000070: df2b 8bba e977 ecba 5b93 3339 54ca bd3a
00000080: 0657 2d3c bf30 be3b 8d32 c839 830a e2ba
00000090: 403b 44bc 86f7 acbb d0e3 77ba 46f0 7539
000000a0: e338 643b e32d f23a de3e 8e38 fbac 70b9
000000b0: 4da9 9dbb 53b0 6abb 1091 7c39 7748 0a3b
000000c0: da3e 90bc 3cdf 18bc 46d6 6dba 4b02 283b
000000d0: 563f ccbc 9277 4dbc efd7 8aba 24fe 183b
000000e0: 5fa0 113c e50a 453b 1873 823a 8d64 233a
000000f0: c7d8 e23b 3c75 843b ac67 ae39 61e8 9eba
00000100: c2a5 1c37 3f70 ca37 8074 fdb6 9558 90b8
00000110: 515a 07ba c0c3 a2b9 9c7b 9a37 583c 4e39
00000120: f8d7 b8bc a757 fcbb bc86 ffba 8509 36bb
00000130: ae5c b7bc 8218 33bc 33f1 7aba ceac eb3a
00000140: 0b20 9fbb 67f3 22bb 73ff 89b8 655a 9139
00000150: 0bbd 82bc 17de f0bb 6d21 2bba 2749 713a
00000160: 5d2c d1bc 97be 66bc 9601 9dba 715f 8d3b
00000170: c253 053a d11b e139 1cf9 90b8 3bae 89b9
00000180: e083 fa39 3c55 f639 d1a9 3938 4bc3 bab9
00000190: a03d 8cbb 5c93 edba c480 1bba 5801 b43a
000001a0: 2661 003c 1198 8d3b aed4 a039 0b60 81ba
000001b0: a89b d43b 016c 733b bdff 9a39 e958 9aba
000001c0: 077f 69bc 8a4a f5bb e9ff 0fb9 ab59 023b
000001d0: 135e 4a3a 57b5 97ba c6c2 ab39 9998 f43a
000001e0: 75ee bcbc 3115 38bc 63f6 aeba e406 0f3b
000001f0: 62db 88bc b23e 04bc c837 8aba f76c b03a
00000200: bd05 aabc 012c f2bb 90b6 e0ba 6da5 18bb
00000210: fb2b cf3b f1b8 b93a a8f7 223a b241 8039
00000220: ce63 78bc 28ac e9bb b547 9eba 4353 103a
00000230: fdae 79bc 2df1 01bc 72bf dd37 7b26 293a
00000240: 43c0 99b5 8df9 0137 d417 4435 bb41 16b7
00000250: 9465 cf3b 3e36 e63a de1d 183a 77a7 ac3a
00000260: d736 d9bc 2677 6cbc 9821 81ba c622 863b
00000270: 3fd8 453a 98b9 69ba faa9 8839 2947 d83a
00000280: 724a c43a 90f0 5fba 6318 9739 8861 063b
00000290: 88d7 8ebc 3cb4 cbbb 1ff0 beba 726e c0ba
000002a0: 7f1e 2838 49f8 df3a 04ef 20b9 83a9 85ba
000002b0: 65a9 86bc 737d febb 06bc a5ba f6c8 3b3a
000002c0: 3e9d 09bd 193a 84bc 64cb 12bb 9985 1c3b
000002d0: 366c 90bc 2f75 2bbc a850 4eba 69b9 4f3b
000002e0: b8b8 b039 2709 6039 d79e 44b8 9041 4fb9
000002f0: 4ac5 53bc 0794 ecbb 60fb 2cba 52a1 253b
00000300: 9e6f babc fb23 33bc dcba c6ba 0559 d43a
00000310: 4cf5 063b 45c8 283b 13b5 22b9 3fdd baba
00000320: bca2 ecb9 1b73 283a b6bc 40b9 a771 97ba
00000330: 327a 80bc e39e b7bb 2e86 bcba ead4 dbba
00000340: f1ab 8ebc 9731 0bbc 2028 82ba 0256 dd3a
00000350: 08c0 01bc 055d 8ebb 8d42 09b9 c307 f03a
00000360: e95b 0d3a d8a7 8dba 3e50 b839 d421 d139
00000370: ead0 0fbc f2e5 53bb 7ff5 59ba db78 03ba
00000380: cdc5 55bc f3b9 c2bb 30d1 83ba f1e8 8d39
00000390: 3d7a 3cba c400 263a e8b2 5ab9 63f3 b9ba
000003a0: 6a4e 093b 8ef6 563a 1e45 1639 2589 9838
000003b0: 4d21 9e3a d5de 003b f634 01b9 4d50 bfba
000003c0: ca07 acbb d828 f4ba f22a edb9 06be efb9
000003d0: 8786 993b eb11 fd3a 7d51 ee39 fa6a b339
000003e0: 8352 86bc 3a67 f9bb 843e beba 035b 5c39
000003f0: 363c 87bc e278 bfbb 1dcc b8ba c8e1 dbba
-0.015303129 -0.005508635 -0.0012771694 -0.0012024719 0.0011880406 0.0012556033 -0.0003071808 -0.0015149482
0.0023984006 0.0029313555 -9.11138e-05 -0.0014684041 -0.0017146422 0.00085500506 -0.0005028974 -0.0018451046
-0.021639073 -0.0068724025 -0.0021363322 -0.004342972 -0.0010997645 -0.0019548978 0.00018396832 0.0015864964
-0.0136678135 -0.0076233707 7.545256e-05 0.0011643192 -0.0010617933 -0.0018041107 0.00017125664 0.0014479854
0.01057983 0.005804151 0.00038184636 -0.0017245564 -0.011977017 -0.0052785305 -0.0009456249 0.0002345453
0.0034823946 0.001847681 6.7827976e-05 -0.00022952624 -0.004811442 -0.0035810664 0.00024086633 0.0021100321
-0.017608095 -0.009330567 -0.0009072762 0.0025636132 -0.024932545 -0.012540715 -0.0010592918 0.002334484
0.008888333 0.0030066308 0.0009952514 0.000623294 0.0069228145 0.0040422957 0.00033265108 -0.0012123698
9.336918e-06 2.4132545e-05 -7.55355e-06 -6.882955e-05 -0.00051632995 -0.00031044893 1.841579e-05 0.0001966817
-0.02256392 -0.0077008787 -0.001949511 -0.002777667 -0.02238306 -0.010931136 -0.00095726846 0.0017980577
-0.0048561147 -0.0024864317 -6.58025e-05 0.00027723904 -0.015959283 -0.007350694 -0.0006528113 0.0009204321
-0.02553385 -0.014083526 -0.0011978622 0.004314356 0.0005086028 0.0004293607 -6.912855e-05 -0.00026260488
0.0004778197 0.0004698428 4.426559e-05 -0.0003562219 -0.004279807 -0.0018125582 -0.00059319683 0.0013733311
0.007835662 0.0043211062 0.00030676037 -0.0009870542 0.0064882822 0.0037143233 0.0002956371 -0.0011775765
-0.014251477 -0.0074856924 -0.00013732877 0.0019889872 0.00077197066 -0.0011574429 0.0003276078 0.00186612
-0.023062924 -0.011235521 -0.0013348575 0.0021824175 -0.016706172 -0.008071588 -0.0010545189 0.0013460208
-0.02075469 -0.0073904996 -0.0017144252 -0.002329196 0.0063223816 0.0014169497 0.0006216713 0.0002446301
-0.015160514 -0.0071311183 -0.0012075814 0.0005505571 -0.015239474 -0.007931036 2.6434402e-05 0.00064525724
-1.1455344e-06 7.747102e-06 7.3050364e-07 -8.956001e-06 0.0063292477 0.0017563773 0.00058027904 0.0013172467
-0.026515407 -0.014432704 -0.0009851931 0.004093501 0.0007547177 -0.00089159 0.00026066584 0.00165007
0.00149758 -0.00085426215 0.00028819134 0.002050491 -0.017436758 -0.006216554 -0.0014567411 -0.0014681353
4.0082723e-05 0.0017087545 -0.0001534783 -0.0010197613 -0.016438195 -0.0077664196 -0.0012644536 0.00071634294
-0.033597223 -0.016140984 -0.0022399062 0.0023883341 -0.017629724 -0.01046495 -0.0007870295 0.0031696206
0.00033706962 0.00021365714 -4.6877973e-05 -0.00019765482 -0.012925455 -0.0072197947 -0.0006598737 0.0025273156
-0.022758301 -0.010933871 -0.001516189 0.0016200846 0.0020592986 0.0025754136 -0.0001551698 -0.001425661
-0.00045134674 0.00064258435 -0.00018380847 -0.0011554257 -0.015683267 -0.0056036576 -0.001438325 -0.0016771827
-0.017415972 -0.00849571 -0.0009930171 0.0016886594 -0.007919319 -0.004344585 -0.0001309013 0.001831286
0.0005392419 -0.0010807468 0.00035155 0.0003988879 -0.008777836 -0.0032333103 -0.0008314475 -0.0005015262
-0.013047648 -0.005942577 -0.001005685 0.0002706717 -0.0007189846 0.00063325115 -0.00020856748 -0.0014186915
0.002095128 0.00082001917 0.00014330863 7.27347e-05 0.0012064368 0.0019664068 -0.00012322128 -0.0014596075
-0.005249952 -0.0018627895 -0.0004523616 -0.0004572721 0.0046852264 0.0019307708 0.0004545561 0.00034221244
-0.016396767 -0.0076111825 -0.0014514481 0.0002101474 -0.016508203 -0.005843268 -0.0014098916 -0.0016775662

exp_avg_sq f4 [64, 4]
00000000: faf8 563a efda e139 08bf 0737 6198 6438
00000010: 2af7 4a3a e9bb ca39 e795 0437 dfd2 f138
00000020: 9ab6 d039 be7c 4639 32ff 8136 80ce 7f38
00000030: c648 6d3a 27cf ef39 d0f3 3d37 6766 3c39
00000040: 2d57 1a3b 66f2 9e3a e0a5 be37 a41e 5839
00000050: ce5d f638 df7e 0d38 35b8 0335 5228 9637
00000060: 25c7 223b 9623 a73a b44c d937 8485 9739
00000070: 86e7 5338 e506 c337 a967 8534 ff01 2c37
00000080: 796f f639 ec38 6539 d3e9 5436 c8cb 3638
00000090: 6851 163a da88 9d39 c764 c836 46f8 8638
000000a0: 5ac3 0839 1928 5638 1732 6935 2c68 8b37
000000b0: 83d1 253a ffca 6339 2479 2d37 735f 8239
000000c0: 6979 153b da25 963a 96ae b837 5766 8439
000000d0: 9da6 f43a 012f 783a d38c a437 66a4 7f39
000000e0: c92a 5c3a 2807 063a 634e a136 d8d1 3b38
000000f0: e29b 0a39 67bf 8a38 8233 9f35 e2bc 9937
00000100: 607c 1038 452f 8537 5208 6434 a1db 8136
00000110: afa7 0f38 c368 9837 fa91 b434 7211 4936
00000120: 297c 2a3b 72b4 ac3a d255 ce37 7573 8239
00000130: 21f4 e03a f61a 723a cd58 9c37 bc09 6039
00000140: 3055 6c39 5784 b238 eadf 6236 2273 5d38
00000150: c3bc 593a 8fce ed39 46fc 1137 9bb8 9b38
00000160: 544c 363b ecac ba3a eb4c f337 5c01 ba39
00000170: cd2b c238 b728 4e38 902c 2f35 e843 c237
00000180: 2abe fa37 1505 4e37 81f3 b034 3e47 1337
00000190: 5f26 013a b818 3a39 fade d736 a02d 3039
000001a0: 3156 9039 98f5 1339 a26c 4336 e97b 0738
000001b0: 511f f538 e2f4 7238 f053 8935 399d 7637
000001c0: 29d0 073b 10b3 883a 459b aa37 23bf 6239
000001d0: 5de0 7139 644c bc38 8e08 8136 19c1 ad38
000001e0: 7d0c 4c3b cfde da3a f639 0b38 e725 cf39
000001f0: c01a a63a cc0a 293a 5a97 5737 4e98 2f39
00000200: dffb 133b 8610 953a be4e be37 045e 8039
00000210: f285 4539 c06e ba38 e0ac 4d35 adba 9337
00000220: 6d57 c33a 0a4b 553a f229 8d37 7ec9 5439
00000230: 5af3 6c3b ed2a f23a 0ddf 1d38 886d df39
00000240: e7ec 5c38 b4ab 9d37 6d0d a634 a9ba a336
00000250: 067b ac39 3ee2 3239 1e43 6836 aaa8 e237
00000260: 6c09 eb3a 4935 403a 723b b637 b629 9039
00000270: 197e 1239 fc4b 9438 e452 4036 ee8b 5a38
00000280: 5a69 8439 dcbf 0a39 fff1 9d36 6191 9138
00000290: aaa7 8f3a d297 143a 3bbf 3337 d383 9138
000002a0: af3f fe39 6266 a839 1139 bd36 5ca6 5438
000002b0: bc61 dd3a c447 613a dd42 9937 10a1 6939
000002c0: 8181 983b 764d 203b 8ebf 4b38 9c7f 293a
000002d0: 7581 503a a29d ad39 3ffe fe36 d860 e838
000002e0: 9ca0 2538 3714 7337 a5e0 0b35 0705 0637
000002f0: 24eb ee39 fc91 1039 0fe8 9e36 b3b3 b538
00000300: 9c0c 113b 8dc9 983a 1611 cb37 7be8 a339
00000310: 541a 0f3a f35f 8c39 fec0 bc36 ed50 a938
00000320: 6e44 6138 a48e c437 1d40 2f35 5f07 a637
00000330: 2b97 683a d7c3 f939 cb77 0a37 8b82 8138
00000340: 6bee e63a bf6d 753a bbf0 9d37 892b 6539
00000350: b036 2c3b 7dd8 b33a b93a d837 e775 8839
00000360: fceb 1d38 a439 d337 06c5 1534 2327 b936
00000370: 377d 3a3a d7d8 bc39 6ebe c736 d04d 0738
00000380: 8290 453a 5786 d239 c06e 0c37 e066 db38
00000390: 0e9b 5b38 7773 be37 c4e1 1a35 809d 9e37
000003a0: 6397 ce37 29aa 5837 8437 5534 75d6 df35
000003b0: 44f3 5c39 274f 0939 176f 5536 c100 f837
000003c0: 0248 c838 d7af 5038 a8d6 7735 4e84 d936
000003d0: c8d4 3a39 5bb5 c538 7576 f135 4ae2 a237
000003e0: 0246 5a3b 1ea0 ea3a fa07 0638 b3cb de39
000003f0: fbab 803a 6742 063a 1db0 2837 3e36 9938
0.00082005525 0.00043078462 8.091105e-06 5.450135e-05 0.0007742519 0.00038668446 7.902715e-06 0.00011531053
0.000398089 0.00018929222 3.8742082e-06 6.0989056e-05 0.00090516766 0.00045739973 1.1322045e-05 0.00017967225
0.0023550496 0.0012126684 2.2727007e-05 0.0002061078 0.000117476666 3.3735178e-05 4.906936e-07 1.7900169e-05
0.0024837938 0.0012751694 2.5904134e-05 0.0002890044 5.0521943e-05 2.3249022e-05 2.4848603e-07 1.0252464e-05
0.0004700383 0.00021860347 3.1726565e-06 4.3581967e-05 0.00057341764 0.00030047336 5.9721965e-06 6.4358625e-05
0.00013042745 5.105892e-05 8.6872154e-07 1.66186e-05 0.000632547 0.00021724029 1.0339809e-05 0.00024866647
0.0022807962 0.0011455372 2.2015807e-05 0.0002525325 0.0018665377 0.00094674533 1.96159e-05 0.00024379938
0.00083987095 0.00051127607 4.8072993e-06 4.4779707e-05 0.00013218776 6.616004e-05 1.1861414e-06 1.8326977e-05
3.444811e-05 1.5876847e-05 2.1237182e-07 3.8700678e-06 3.4250024e-05 1.8168595e-05 3.3633825e-07 2.9961489e-06
0.0026013947 0.0013176335 2.4597077e-05 0.00024881554 0.00171626 0.0009235585 1.8638e-05 0.00021365931
0.00022538449 8.5123516e-05 3.380696e-06 5.279773e-05 0.0008306021 0.0004535806 8.7014105e-06 7.4253614e-05
0.0027816491 0.0014242209 2.9003675e-05 0.00035477697 9.2587994e-05 4.9152146e-05 6.525743e-07 2.3158223e-05
2.9890874e-05 1.227974e-05 3.2959727e-07 8.77847e-06 0.0004926677 0.00017747551 6.433457e-06 0.00016801665
0.00027530038 0.00014110503 2.9120497e-06 3.230191e-05 0.000116883435 5.792536e-05 1.0231724e-06 1.4699349e-05
0.0020723438 0.0010429341 2.0337882e-05 0.00021624244 0.00023067133 8.9787674e-05 3.8454955e-06 8.28525e-05
0.0031135373 0.0016698482 3.3194163e-05 0.00039510356 0.0012672767 0.0006448447 1.2850238e-05 0.00016746038
0.0022580547 0.0011372722 2.2686432e-05 0.0002448411 0.00018837283 8.8898e-05 7.662002e-07 1.7610693e-05
0.0014903374 0.0008136487 1.6828042e-05 0.00020292957 0.003615579 0.0018475928 3.763945e-05 0.00042615482
5.267272e-05 1.8795814e-05 3.0929678e-07 4.8795087e-06 0.00032898056 0.00017059685 3.4609761e-06 2.701984e-05
0.0017931885 0.0007332159 2.1723772e-05 0.00027496897 0.0001397062 7.071343e-05 2.8658478e-06 5.210557e-05
0.00025255495 0.00013232179 4.7071367e-06 6.941218e-05 0.0010960002 0.0005668375 1.0713756e-05 6.938693e-05
0.00048494103 0.00032119738 5.6392823e-06 5.0699673e-05 0.0016890089 0.0008593763 1.8270157e-05 0.00022280612
0.00465411 0.0024460233 4.857737e-05 0.00064658537 0.0007953861 0.00033114577 7.599388e-06 0.000110806606
3.9488645e-05 1.4488635e-05 5.2108436e-07 7.988193e-06 0.0004557009 0.00013787294 4.735782e-06 8.664224e-05
0.002213276 0.0011656747 2.4207442e-05 0.00031262994 0.000545894 0.0002677437 5.625304e-06 8.0736216e-05
5.370791e-05 2.3431443e-05 6.528588e-07 1.9792174e-05 0.00088726234 0.00047638893 8.253332e-06 6.175515e-05
0.0017618662 0.0009362362 1.8827957e-05 0.0002185536 0.0026277713 0.0013721135 2.5776551e-05 0.00026027785
3.7651494e-05 2.5180001e-05 1.3948383e-07 5.5179858e-06 0.00071139954 0.00036019713 5.952831e-06 3.2258977e-05
0.0007536487 0.00040154412 8.370436e-06 0.00010461896 5.2358075e-05 2.2703533e-05 5.7698e-07 1.890841e-05
2.4627609e-05 1.2914222e-05 1.9857367e-07 1.667721e-06 0.00021071458 0.00013094825 3.1804136e-06 2.9564255e-05
9.550156e-05 4.9754828e-05 9.2327036e-07 6.4825063e-06 0.0001781761 9.427472e-05 1.7990375e-06 1.9417279e-05
0.0033305888 0.0017900502 3.195552e-05 0.00042494907 0.0009816879 0.0005121589 1.0054585e-05 7.305712e-05

exp_avg f4 [64]
00000000: 3fa8 87bb 9789 d13a 5640 203b 1dd8 583a
00000010: 1d9f c8bb 7c9b 7aba d048 8ebb 746c 72ba
00000020: 0d1d 5b3b afbe 43bb 3179 8d3a e779 22ba
00000030: 614a adbb 8299 d2bb 8665 233b 9738 0a3b
00000040: ba3d 0bb5 8004 01b9 12a6 bfbb a725 bebb
00000050: f444 99ba 6fa9 70bb 61de f3bb 410a 2339
00000060: d0b1 0a38 8a95 e3b7 af2c 153b ae8d f63a
00000070: 86cb 96bb 7e74 8539 e948 cfbb 302c 8fbb
00000080: 1f22 a7bb 859c d33a 353a 5cbb 60a2 96bb
00000090: d9c5 db36 0d1b c73a 73ca e4bb 8c72 9439
000000a0: c8ab d139 c498 99bb 34ad 5c3a ced7 75bb
000000b0: 4f49 0bbc 3ef2 a4bb b2ae 89b9 ee4c 6dbb
000000c0: 89c1 bcbb b601 143b d8de c6b9 bae2 92bb
000000d0: 25bd 9dbb b450 3fbb f442 8fb6 d2a7 19bb
000000e0: 9b9e 57bb 3fc9 ecb9 198e 1d3a 274a ad3a
000000f0: 54a1 b7ba 3871 ab3a f3dc 5abb 0064 8cbb
-0.0041399295 0.001598644 0.002445241 0.00082719495 -0.0061224834 -0.0009559912 -0.004342176 -0.0009247728
0.0033434064 -0.0029868295 0.0010793564 -0.00061979744 -0.0052884077 -0.006426991 0.002493234 0.002109086
-5.187136e-07 -0.00012304075 -0.0058486545 -0.0058028284 -0.0011693523 -0.0036722084 -0.007442281 0.00015548711
3.3067365e-05 -2.7130143e-05 0.002276223 0.0018810534 -0.0046018986 0.0002545453 -0.0063258302 -0.004369281
-0.005100503 0.0016144669 -0.003360403 -0.0045969933 6.549741e-06 0.0015190557 -0.0069821416 0.00028314104
0.00039991573 -0.0046874005 0.0008418143 -0.0037512663 -0.008501365 -0.0050337603 -0.00026260834 -0.0036209184
-0.005760376 0.0022584028 -0.00037931534 -0.0044825943 -0.0048138076 -0.002919239 -4.2695265e-06 -0.0023445976
-0.0032900933 -0.00045163368 0.0006010249 0.0013220952 -0.0014009872 0.0013080006 -0.0033395856 -0.004284382

exp_avg_sq f4 [64]
00000000: 1985 0139 81d3 4739 2f38 ce38 8a19 9839
00000010: 9975 bd39 ddba 7337 a599 cf39 900b e436
00000020: 7c0f 1c38 005b bd38 a1f4 7937 d0d6 8a39
00000030: 9452 b139 2f1d ae39 e0ba 8538 538a 5337
00000040: 4f34 8936 f366 7436 782c db39 09ef 9a39
00000050: 7471 7638 d07a 1739 c373 f239 44a2 4d37
00000060: 4804 8c36 9ff4 3239 933d f237 4f61 3537
00000070: ef13 9539 8276 b138 8972 063a 0af3 5f39
00000080: ecbb b839 c1e0 9337 243e 7639 4fae 1e3a
00000090: a2bb db36 2bb1 1438 92c7 c439 c7b9 7638
000000a0: 39e9 b838 e38f 2939 145b e838 7d82 8e39
000000b0: dc90 473a 1a32 ff38 b9bb ea36 a5eb c738
000000c0: 4549 d439 c1c9 0939 59ab 1e37 6d11 fa38
000000d0: a653 9539 a871 a339 250f 8236 f4d3 ca38
000000e0: a59d 0539 06ea 2637 5258 2336 e4d3 8a38
000000f0: 53c7 5f37 1619 9c37 7678 f039 8e82 2439
0.00012351981 0.0001905691 9.8333105e-05 0.00029010727 0.00036136506 1.4527436e-05 0.0003959659 6.7962756e-06
3.720772e-05 9.029172e-05 1.4898514e-05 0.0002648146 0.00033821596 0.0003320961 6.3767424e-05 1.2608786e-05
4.0890077e-06 3.6418758e-06 0.00041804067 0.00029551264 5.8756632e-05 0.00014446233 0.00046244086 1.2256733e-05
4.1728235e-06 0.00017066531 2.887732e-05 1.0811097e-05 0.00028434346 8.4620915e-05 0.00051287614 0.00021357476
0.00035235228 1.7628425e-05 0.00023483537 0.00060531957 6.548552e-06 3.545095e-05 0.00037532725 5.882399e-05
8.817245e-05 0.00016170698 0.00011079587 0.00027181572 0.0007612833 0.0001216868 6.9955972e-06 9.532952e-05
0.0004049038 0.00013140497 9.457429e-06 0.00011924175 0.00028481818 0.00031174463 3.876065e-06 9.67159e-05
0.00012742596 9.948859e-06 2.4340302e-06 6.6198205e-05 1.3338245e-05 1.860833e-05 0.00045866118 0.00015688894

exp_avg f4 [2, 64]
00000000: 9265 bb3a 8895 463a 7f7a b339 9bd9 353a
00000010: cf0d c23a 13c6 2838 e8a2 4038 2036 2838
00000020: 3c4b a639 9f54 d53a f7d6 2d3a d32c 8f3a
00000030: e98e 0439 b84b ca39 4222 083a bcb0 30b9
00000040: b9df d337 2c1f 2a3a 2d99 973a 2334 9039
00000050: 398d 963a 9d9d 7c3a e731 0439 d295 0337
00000060: d070 d739 8476 773a b41d 96b9 5e32 9837
00000070: 1fb6 8d37 6775 b43a bb39 ec39 dfd3 263a
00000080: f723 a13a 5b40 ef39 f6fd d33a 8fdd 5b38
00000090: 3b9f 74b6 5f49 d7b8 3ede 183a 29b6 b43a
000000a0: ea1b 8f3a 23c4 ab3a 55c5 973a 1e9c a33a
000000b0: e1af a33a cc9c c93a a26d ae39 99e4 9d3a
000000c0: 197e 5a3a 8df6 393a af02 95b8 f7c6 173b
000000d0: 5fe8 1e3a 2425 27b8 af28 0c3a c5ca c53a
000000e0: ef3c c03a 253d bcb8 aa32 b33a 9b84 a73a
000000f0: 51f6 683a b82b a939 dd9d 5f3a d91b ae3a
00000100: 9a65 bbba 8995 46ba 837a b3b9 9bd9 35ba
00000110: d40d c2ba 1ac6 28b8 28a3 40b8 2836 28b8
00000120: 404b a6b9 a154 d5ba fad6 2dba d52c 8fba
00000130: e88e 04b9 bc4b cab9 4422 08ba b7b0 3039
00000140: b9df d3b7 3a1f 2aba 3199 97ba 2834 90b9
00000150: 408d 96ba a59d 7cba e731 04b9 e195 03b7
00000160: d370 d7b9 8576 77ba b21d 9639 1e32 98b7
00000170: 5fb6 8db7 6675 b4ba 9939 ecb9 e3d3 26ba
00000180: f723 a1ba 5e40 efb9 f6fd d3ba 6fdd 5bb8
00000190: 3b9f 7436 6249 d738 3dde 18ba 2ab6 b4ba
000001a0: ee1b 8fba 27c4 abba 55c5 97ba 219c a3ba
000001b0: e2af a3ba ce9c c9ba ac6d aeb9 9be4 9dba
000001c0: 1b7e 5aba 8ff6 39ba a902 9538 fbc6 17bb
000001d0: 7de8 1eba 1e25 2738 b028 0cba c7ca c5ba
000001e0: eb3c c0ba 203d bc38 aa32 b3ba 9e84 a7ba
000001f0: 51f6 68ba b82b a9b9 e19d 5fba d91b aeba
0.0014297238 0.00075753825 0.00034232807 0.0006937028 0.0014805141 4.0238792e-05 4.5928085e-05 4.010473e-05
0.0003171804 0.0016275829 0.00066314585 0.0010923393 0.00012641739 0.00038584857 0.0005193093 -0.00016850507
2.5257339e-05 0.00064896303 0.0011566036 0.00027504665 0.001148618 0.00096365233 0.00012607091 7.843091e-06
0.00041092047 0.00094399625 -0.0002863236 1.8143266e-05 1.6893317e-05 0.0013767899 0.0004505644 0.0006363969
0.0012294044 0.0004563358 0.0016173709 5.242001e-05 -3.6451518e-06 -0.00010265665 0.00058314565 0.0013787198
0.0010918353 0.0013104718 0.0011579195 0.001248244 0.0012488329 0.0015381812 0.0003326955 0.0012046277
0.000833483 0.0007093929 -7.1053735e-05 0.0023159364 0.00060618477 -3.9850493e-05 0.00053466385 0.0015090337
0.0014666597 -8.9759276e-05 0.0013671715 0.0012780608 0.00088868017 0.00032266765 0.00085302984 0.0013283446
-0.0014297247 -0.0007575383 -0.0003423282 -0.0006937028 -0.0014805146 -4.0238818e-05 -4.592832e-05 -4.010476e-05
-0.00031718053 -0.0016275832 -0.000663146 -0.0010923395 -0.00012641738 -0.0003858487 -0.0005193094 0.000168505
-2.5257339e-05 -0.00064896385 -0.001156604 -0.0002750468 -0.0011486188 -0.0009636528 -0.00012607091 -7.843105e-06
-0.00041092056 -0.0009439963 0.00028632354 -1.814315e-05 -1.6893433e-05 -0.0013767898 -0.0004505634 -0.0006363971
-0.0012294044 -0.0004563359 -0.0016173709 -5.2419895e-05 3.6451518e-06 0.000102656675 -0.0005831456 -0.0013787199
-0.0010918358 -0.0013104723 -0.0011579195 -0.0012482443 -0.001248833 -0.0015381814 -0.00033269578 -0.0012046279
-0.0008334831 -0.000709393 7.105369e-05 -0.0023159373 -0.0006061865 3.985047e-05 -0.0005346639 -0.001509034
-0.0014666592 8.975924e-05 -0.0013671715 -0.0012780612 -0.00088868017 -0.00032266765 -0.00085303007 -0.0013283446

exp_avg_sq f4 [2, 64]
00000000: 611e 763a ead2 4c39 8cc4 9a39 5804 2839
00000010: 3481 3339 f480 5c35 a6b2 bc39 8680 5535
00000020: 9a06 2138 6ec1 b63a 066d 7338 c4b2 4739
00000030: d60b 9a39 c36d 3c39 8840 5636 8d77 3a38
00000040: 3c68 e938 3994 863a fd38 b938 f4ce ad39
00000050: 7777 ce39 10fb c339 18a1 233a d4c6 0436
00000060: 40fc 0b38 e23a 2939 a98c ff37 0f40 df38
00000070: 24ce 3b39 7259 343a 2823 203a aa8d 3c39
00000080: 03d2 df38 63f6 3636 5b48 413a f14d 9839
00000090: 8e44 0139 6e56 ef38 e871 5039 79df 343a
000000a0: b429 0f3a 273d 2e3a f37d ad39 adf7 4439
000000b0: fbaf 163b 1ee4 c739 6368 1439 e584 9139
000000c0: 400d 8839 31ba 9139 6723 c337 93d3 e03a
000000d0: 16e4 a03a 5033 a638 57fc 2c36 0083 6939
000000e0: 2fed 453a 7c27 c938 5482 433a 8fae 123a
000000f0: 766e 9939 24e7 593a 528e 9b38 a073 063a
00000100: 5f1e 763a ead2 4c39 8cc4 9a39 5804 2839
00000110: 3581 3339 f480 5c35 a2b2 bc39 8680 5535
00000120: 9a06 2138 6ec1 b63a 076d 7338 c3b2 4739
00000130: d50b 9a39 c46d 3c39 8640 5636 8e77 3a38
00000140: 3e68 e938 3a94 863a fe38 b938 f4ce ad39
00000150: 7577 ce39 10fb c339 1aa1 233a d3c6 0436
00000160: 3ffc 0b38 e23a 2939 a98c ff37 0f40 df38
00000170: 29ce 3b39 7259 343a 2823 203a ac8d 3c39
00000180: 02d2 df38 63f6 3636 5948 413a f34d 9839
00000190: 8e44 0139 7256 ef38 ea71 5039 79df 343a
000001a0: b429 0f3a 273d 2e3a f57d ad39 adf7 4439
000001b0: faaf 163b 1ee4 c739 6368 1439 e584 9139
000001c0: 400d 8839 31ba 9139 6723 c337 92d3 e03a
000001d0: 18e4 a03a 5033 a638 57fc 2c36 fd82 6939
000001e0: 2fed 453a 7c27 c938 5282 433a 8dae 123a
000001f0: 766e 9939 24e7 593a 528e 9b38 a073 063a
0.0009388682 0.00019533528 0.00029519608 0.00016023347 0.00017118902 8.214404e-07 0.00035991258 7.953571e-07
3.839154e-05 0.0013943145 5.803725e-05 0.00019044714 0.00029381987 0.00017969967 3.1926047e-06 4.4457196e-05
0.00011129721 0.0010267562 8.832102e-05 0.00033151323 0.0003938039 0.00037380354 0.00062419614 1.9785266e-06
3.337511e-05 0.00016139032 3.0463869e-05 0.000106454005 0.00017910503 0.00068797835 0.00061087543 0.00017981851
0.00010672586 2.726353e-06 0.00073731475 0.0002904977 0.00012327937 0.00011412507 0.00019878859 0.0006899755
0.00054612313 0.00066466857 0.0003309097 0.00018784283 0.0022993076 0.00038126198 0.00014153267 0.0002775557
0.00025949813 0.0002779528 2.3262297e-05 0.0017152898 0.0012275006 7.9250545e-05 2.5776878e-06 0.00022269413
0.0007550297 9.5917814e-05 0.000745808 0.0005595469 0.00029264734 0.00083123357 7.417485e-05 0.0005128924
0.0009388681 0.00019533528 0.00029519608 0.00016023347 0.00017118904 8.214404e-07 0.00035991246 7.953571e-07
3.839154e-05 0.0013943145 5.8037254e-05 0.00019044713 0.00029381984 0.00017969968 3.1926043e-06 4.44572e-05
0.000111297224 0.0010267564 8.832103e-05 0.00033151323 0.00039380384 0.00037380354 0.00062419625 1.9785264e-06
3.3375105e-05 0.00016139032 3.0463869e-05 0.000106454005 0.0001791051 0.00068797835 0.00061087543 0.00017981854
0.000106725856 2.726353e-06 0.00073731464 0.00029049776 0.00012327937 0.0001141251 0.00019878862 0.0006899755
0.00054612313 0.00066466857 0.00033090977 0.00018784283 0.0022993074 0.00038126198 0.00014153267 0.0002775557
0.00025949813 0.0002779528 2.3262297e-05 0.0017152897 0.0012275008 7.9250545e-05 2.5776878e-06 0.00022269409
0.0007550297 9.5917814e-05 0.0007458079 0.0005595468 0.00029264734 0.00083123357 7.417485e-05 0.0005128924

exp_avg f4 [2]
00000000: 70eb f33a 74eb f3ba
0.0018609595 -0.0018609599

exp_avg_sq f4 [2]
00000000: 4028 8b3a 3f28 8b3a
0.0010616854 0.0010616853

exp_avg f4 [1, 64]
00000000: 3cab 4ebc 06a6 023b 1b83 333a 3f3a c53a
00000010: 34e3 d9bb e1db ca39 a6cd c7b9 0dac c839
00000020: 3d09 53bb 0f22 c5bc 6b8e e3ba 8e92 c53a
00000030: 7a88 bcbb 49d5 c0ba 4710 b939 7290 08bb
00000040: 9346 dd37 b3c0 99bc 40da 80bb d18d 71ba
00000050: 90b4 f33a 9e89 d3ba 775d 1dbc 32d4 bd39
00000060: d007 a63a 413d 403a cc19 a6ba 7c23 c2bb
00000070: f589 95ba dab9 8d3b e3d6 60bc 30af d4bb
00000080: 1f66 98bb 4ae8 8bba acbd 99bc 1659 09ba
00000090: 87b7 a9b5 088c 32bb eec2 fcb9 22ce 363b
000000a0: 4ec8 043b 67b4 b2bb 25f2 273b a7e7 10bc
000000b0: fabb f5bc 4f2a a1bb 8001 323b db08 ccba
000000c0: 906e 23bc ab46 b33a 523a 783a 9ccc b0bc
000000d0: d9de 9dbc 2da1 92bb 36a7 bf3a 6223 75bb
000000e0: 5a5d 94bc fcf4 643a a066 6dbc 0048 293b
000000f0: 0b2a f5bb 3337 9cbc 21a9 93bb 808b 3ebc
-0.012614068 0.0019935383 0.00068478443 0.0015047266 -0.006649399 0.00038692265 -0.00038109458 0.0003827516
-0.0032201551 -0.024064092 -0.001736117 0.0015073584 -0.005753574 -0.0014712001 0.00035298077 -0.002083805
2.6378117e-05 -0.018768644 -0.0039322674 -0.00092145527 0.001859324 -0.0016139036 -0.009604803 0.00036206987
0.0012667123 0.00073333463 -0.0012672483 -0.00592464 -0.0011408912 0.0043251337 -0.013723108 -0.0064906105
-0.0046508457 -0.0010674086 -0.0187672 -0.000523941 -1.2644895e-06 -0.002724411 -0.0004821042 0.002789386
0.0020260992 -0.0054536345 0.0025626507 -0.008844293 -0.02999686 -0.0049183737 0.0027161539 -0.0015566604
-0.009975091 0.0013677677 0.00094691396 -0.02158194 -0.019271301 -0.00447478 0.0014621976 -0.0037405123
-0.01811092 0.0008734015 -0.0144898 0.002583027 -0.0074818186 -0.01906929 -0.0045062457 -0.011629939

exp_avg_sq f4 [1, 64]
00000000: da53 ef3a 184d 7e39 aee9 a439 3fba 5639
00000010: 8847 d839 14c3 6635 4a1e 343a 3cb8 9b35
00000020: 2f5b 8a38 9b3c 373b 81fa 8b38 9f9b 9239
00000030: 725a 303a 2c94 a439 7381 0637 3b3e b338
00000040: 2843 b538 5ecf fc3a dba3 6439 e249 0c3a
00000050: 2f56 313a 38a1 103a 4623 b73a 04dc eb35
00000060: a8c3 a538 76e3 5939 ceed 7338 c2df 4b39
00000070: 1dc4 c339 257e 6c3a 18c7 aa3a 3b1c d539
00000080: dcd6 8f39 ba8d 3b37 3971 c53a a608 0e3a
00000090: dc8c aa38 89c4 5039 bc0f b339 3bc6 643a
000000a0: 84b3 2e3a b396 993a 5002 c739 692d f139
000000b0: 6e4b 923b c230 2d3a 60be 3639 7590 de39
000000c0: 1e43 1a3a 45e7 a339 97f8 c337 3375 633b
000000d0: 69c0 253b 21e1 2e39 2bce 2537 3348 f339
000000e0: 4169 cc3a 1515 bd38 d491 b83a 1887 013a
000000f0: be16 193a bb8a c93a 33a5 2f39 bc14 8c3a
0.0018259243 0.00024252047 0.00031454623 0.00020478012 0.00041252025 8.5965553e-07 0.00068709685 1.1602019e-06
6.597337e-05 0.0027959708 6.6746965e-05 0.00027963237 0.00067273446 0.00031390914 8.017162e-06 8.5469765e-05
8.6432614e-05 0.0019287874 0.00021804815 0.00053515856 0.00067648565 0.00055171875 0.0013972304 1.7572897e-06
7.904257e-05 0.00020779468 5.8157188e-05 0.00019442945 0.00037339414 0.00090214825 0.0013029305 0.0004064756
0.00027435168 1.1179067e-05 0.001506365 0.0005418159 8.132469e-05 0.00019909641 0.00034153264 0.00087270484
0.0006664323 0.0011717885 0.0003795796 0.00046000935 0.0044645583 0.0006606692 0.00017427793 0.00042450769
0.0005884635 0.00031262092 2.336157e-05 0.0034707307 0.0025291687 0.000166778 9.882769e-06 0.00046402364
0.0015595333 9.016149e-05 0.0014081546 0.000494109 0.00058398757 0.0015376428 0.00016750842 0.0010687332
