savedModels/ppo_cartpole_81920.pth (torch, 13659 bytes, 15 tensors)

shared_fc.0.weight f4 [64, 4]
00000000: 3900 753d 6e2d f23e 6f93 323d fc49 99be
00000010: 81dc 08be 5f87 12be 2578 6abf ac91 97be
00000020: 5bd3 a2bd b2b1 bcbe 6e67 1fbf 91a0 02bf
00000030: 5063 8fbd 8c27 f8bd 42a3 32bf 242a 78be
00000040: ca88 3b3d ac72 023c 381a 77bf 7b51 63be
00000050: f8c0 f7bd 2d8e 1b3d 8284 0abe 2f9c 21bd
00000060: 8207 23be d0a6 393e 60f9 253f ce9a aa3e
00000070: 073d 00be 0c27 84bd aca4 dcbd 16bb 07be
00000080: 7ba7 363e 42be 01bd 2cae f3bd e72c 003d
00000090: cef2 963e 7643 0c3e 2f7a 94bd 8758 a4be
000000a0: 932c a53e 20fd b6be 51eb aebe 549b a0bd
000000b0: 87ab 0fbd 74a3 73be 0821 0fbc d35c 2c3e
000000c0: 65f0 93bc 3db1 993d 28ac 083f abb4 8e3e
000000d0: bcb2 b7bd b1cc dbbb a344 f83d 97ff b33d
000000e0: d2a3 5abd 0c43 48bc 055f 68be 62a3 7cbd
000000f0: c8e5 ac3d 410b a43d 4dda 5fbd 5fc6 293e
00000100: ccbf c8bd fa3e a9be a3a9 d4be ad67 14be
00000110: 5d86 9a3e 53a5 983e 67cf 4f3d 8ca3 133d
00000120: c3f0 b43c f931 96bd 9b1a 1dbf 8ac9 8fbe
00000130: fbe7 52be 198a a43e e726 ce3e 4d26 c23d
00000140: 70f1 51bd 1b78 f3bd 965b f63e dedd a43e
00000150: 08f3 00be 55fc 303e 27d4 7a3b 6850 1fbe
00000160: 46ac d53c d019 e73d 4bf7 cd3e eb72 ee3e
00000170: dde2 7a3d d95f 06be 7670 83be 4914 613c
00000180: 4cbf 2b3e 9de0 a43d 2111 8dbe 2f51 703e
00000190: 18d6 713c 2ca4 babe 344a 6fbe 5bf6 8c3c
000001a0: 3f02 ffbd 20d9 dd3c 5b55 9dbd eeeb b03d
000001b0: 6d33 0e3e e7bf 0c3d 89bd 1b3d 2b67 0c3e
000001c0: b116 b3bd 5c1a c53d cbbe 103f 66b3 693e
000001d0: 2129 ecbd dc5d 99be b5fd 2b3f fbf7 a03e
000001e0: 3504 dd3d 4483 07bc 8768 343f 5907 3d3e
000001f0: 14a6 383d 75fa 12be e353 eb3e 7b68 dc3d
00000200: f80d 223d 9806 3bbc cf96 33bf 4cd6 8dbe
00000210: ec58 aa3d 2bce 42be 8bf3 4dbe 0b0e 9abe
00000220: 4069 6b3e 719b 17be 29dc 1dbf 4bfe 4cbe
00000230: a170 0cbe b24b 0a3e fede 1b3f b5f5 893e
00000240: 6946 87be cec7 6ebc ef9b 963e 762c 04be
00000250: aece edbd 4e64 973e 0802 733e e819 8d3d
00000260: fa8e 3ebd e5ae d5bd a355 f73e 9e4f 043e
00000270: c54c 9cbe ec64 643d 061b 8d3e 849d d03e
00000280: 25c9 3dbe 2e73 35bc d30a 313f 82ba 3f3e
00000290: e4e5 86bd 029a 0f3f 24d8 81bd 867b 88be
000002a0: 8cc4 5dbe 8436 503e 65c3 02bf 3e0a 38be
000002b0: 9fc0 db3d a4cd 74bd fa5d b9be 2cf6 6dbe
000002c0: 5619 c53e 4e26 06bd ed8b 08bb b70c 713e
000002d0: 4f5e 253e 5f51 d7be d801 043f 4cee 6d3e
000002e0: 08a2 fbbc e052 3cbe 5b42 553f 7a6e 533e
000002f0: fd6a a03d 4a4a bcbe 9e40 e23e fc4b e03d
00000300: a933 233e b207 e7bd de3f 4fbe 832f 0abe
00000310: 4d01 03be 24b5 6cbe 4285 22bf 7485 d0be
00000320: f4ee 00be a378 89bc 5bb4 293d 32ff 453d
00000330: 490a 833e 5233 c83e c810 1cbe 78d4 12bf
00000340: 3d1f 243e 8e8e 553d 5311 0e3f f57b 993e
00000350: e021 2f3b 91af e73a c282 703e 7e15 dd3d
00000360: 2bbe 8fbc 87ea 7fbd b313 b4be a33d 3ebe
00000370: 9707 ebbb 4432 423c 0eaa fdbe 7186 05bf
00000380: 3590 2a3e 7a55 cfbc bca3 b7be 2c3b 83be
00000390: f944 78be 9618 4f3d 38ad 39be 15eb 2d3e
000003a0: 64ef 813e 0dbc 8f3e d443 aebe 2f1e f8bd
000003b0: 0b01 a5be 3394 793e 356d b0be d63f b3be
000003c0: 69a7 5e3c 81ea 443e ad14 29be 63cc a4bd
000003d0: 5a02 c33e f2bb 393d 2d88 d63e 6ee1 40bd
000003e0: b2a2 e43b 6e2b 0abd d967 4bbf e96f febd
000003f0: 7606 d83d 5445 2f3e 98b1 a5be 4706 7abe
0.059814665 0.47300285 0.043597635 -0.29939258 -0.13365366 -0.14309452 -0.91589576 -0.29603326
-0.07950469 -0.3685432 -0.62267196 -0.51026255 -0.07001364 -0.12116918 -0.6978036 -0.24234825
0.04578475 0.00796191 -0.9652438 -0.22199051 -0.12097353 0.037977386 -0.1352711 -0.03945559
-0.15920833 0.1813004 0.6483364 0.33321232 -0.1252328 -0.0645276 -0.10773596 -0.13254961
0.17837326 -0.031675585 -0.11898455 0.031292822 0.2948212 0.1369761 -0.07249867 -0.3209879
0.3226057 -0.35739994 -0.34163907 -0.078421265 -0.03507569 -0.23792821 -0.008735903 0.16832285
-0.018058965 0.07504509 0.5338769 0.27872214 -0.08969638 -0.0067077507 0.121224664 0.08788984
-0.053378887 -0.0122230165 -0.22692497 -0.06167925 0.08442265 0.08009959 -0.054651547 0.16579579
-0.09802207 -0.3305586 -0.41535673 -0.14492674 0.30180636 0.29813632 0.050734904 0.036044642
0.02208746 -0.0733375 -0.6136872 -0.2808345 -0.20596306 0.3213661 0.40264055 0.094799615
-0.051255643 -0.11888143 0.4811675 0.3220052 -0.12592709 0.17283757 0.0038273425 -0.15558016
0.026083123 0.1128422 0.40227732 0.4657205 0.06125151 -0.131225 -0.25671738 0.0137377465
0.16772193 0.08050654 -0.2755213 0.23468469 0.014760517 -0.36453378 -0.2336815 0.017207315
-0.124516 0.027081072 -0.07682296 0.0863875 0.13886805 0.0343627 0.03802255 0.1371123
-0.087445624 0.09624168 0.56541127 0.22822341 -0.11531282 -0.29954422 0.67184 0.31439194
0.10791818 -0.008271042 0.70471996 0.18459834 0.04508026 -0.14353354 0.45962438 0.107621156
0.039564103 -0.011415146 -0.7015199 -0.27702558 0.08317742 -0.1902396 -0.20112436 -0.3008884
0.22989368 -0.1480539 -0.6166406 -0.2001888 -0.1371484 0.13505438 0.60887134 0.26945272
-0.26420906 -0.014574004 0.29415843 -0.12907586 -0.11611687 0.29568714 0.23731244 0.06889707
-0.04652307 -0.10433749 0.48307523 0.12920997 -0.3052732 0.05576031 0.2755968 0.40745175
-0.18533762 -0.011074824 0.6915714 0.18723491 -0.06586817 0.5609437 -0.06340054 -0.2665674
-0.21657008 0.20333296 -0.510794 -0.17972657 0.10730099 -0.059766427 -0.3620451 -0.23238438
0.38495892 -0.032751374 -0.0020835355 0.23540007 0.16149257 -0.4205427 0.51565313 0.23235434
-0.030716911 -0.1839099 0.83304375 0.20647612 0.078329064 -0.36775428 0.44189924 0.10951993
0.15937676 -0.11280765 -0.20239207 -0.13494687 -0.12793465 -0.23115975 -0.63484585 -0.40726817
-0.12591153 -0.016781157 0.041431766 0.048339076 0.25593784 0.39101654 -0.15240777 -0.5735545
0.16027541 0.052137904 0.55495185 0.29977384 0.0026723072 0.0017676224 0.2348738 0.10795115
-0.017546734 -0.062479522 -0.3517128 -0.185782 -0.0071725356 0.011852805 -0.49543804 -0.52158266
0.16656573 -0.025309313 -0.35867107 -0.25631082 -0.24245061 0.050560556 -0.18132484 0.16984208
0.25377953 0.2807316 -0.34036124 -0.12115132 -0.32227358 0.2437294 -0.34458318 -0.3500964
0.013589718 0.19230081 -0.16511793 -0.08046796 0.38087732 0.045345254 0.4190077 -0.047089987
0.0069774026 -0.033732824 -0.79455334 -0.12423689 0.10548107 0.1711629 -0.32362056 -0.24416457

shared_fc.0.bias f4 [64]
00000000: 59f3 e63e d959 ca3e 971b d13e dd72 d53e
00000010: e6b6 e83e a4e2 13be 5d14 e53e 4636 05be
00000020: 036c 04be 06ca f73e 2691 9dbd 502b e93e
00000030: 3707 d93e 7f5f f53e 2edb 94bd ca80 edbd
00000040: 30f6 49bd 20c9 743e 28a4 d83e 4257 ef3e
00000050: ea17 033f 48cc 063f 3e91 f33e f8d0 b0bc
00000060: 4a10 2ebe 65bb ed3e 7d26 97bd 037d 15be
00000070: 953a b23e ad33 f93e e34a e63e 4053 f33e
00000080: 14d6 df3e 0d91 fbbd cf32 ec3e 5165 e13e
00000090: d464 55be 20e7 59bc a079 e93e c5e7 ff3e
000000a0: c366 ef3e 22d0 e03e d66c f93e 2e34 e73e
000000b0: 56fa fb3e 6a62 f63e 9d2e ae3e d8f0 003f
000000c0: 6faa f73e dc57 c83e 2dab 02be 2b3e e23e
000000d0: e486 fb3e 4b6c c1bd eed1 e3bd 66d3 f13e
000000e0: 3a15 013f 5e99 25be 69f7 a13d 4b37 ec3e
000000f0: 583e e93e a0e2 56bd 651c 6b3e 5a5a f43e
0.45107535 0.39521673 0.40841362 0.41689196 0.4545204 -0.14441925 0.44742098 -0.13008985
-0.12931828 0.4839632 -0.076937005 0.45540857 0.42388317 0.4792442 -0.07268368 -0.1159683
-0.04930705 0.23904848 0.4231274 0.4674626 0.51208365 0.5265546 0.47571748 -0.021584019
-0.16998401 0.46432033 -0.07380388 -0.1459847 0.3481032 0.48672238 0.4497901 0.47524452
0.43718016 -0.122835256 0.46132514 0.4402261 -0.20839244 -0.013299733 0.45600605 0.49981514
0.46758088 0.43908793 0.48715848 0.45156997 0.4921443 0.4812196 0.34019938 0.503675
0.48372218 0.3912953 -0.12760611 0.44188055 0.4912635 -0.09444483 -0.11124025 0.47231597
0.50423014 -0.16171786 0.07908518 0.46135935 0.45555377 -0.05246222 0.2296005 0.47725183

actor_head.weight f4 [2, 64]
00000000: 8d29 b93c 8873 953e 0d63 6f3e cd29 913e
00000010: bac6 5b3e abd2 e6bd 7648 66be de92 7e3c
00000020: 4e0c 5f3d b0ce d33c e1a5 d13d 2a3c 20bd
00000030: 8299 3fbe d1d7 d4bb e3c3 03be ec67 cf3d
00000040: b7d5 ba3d 0fe3 8bbd 03a5 4b3e cd12 b9bd
00000050: 950f e4bd 1d35 263d 7998 22be 4cfc 263e
00000060: ade4 ba3c 8473 033d e19b 383e ca01 ca3d
00000070: 858f 7cbe 9147 e7bd ae5b 7cbe 0c08 bdbd
00000080: 516a 443e 715f 893d 43fc 1f3e 459d 65be
00000090: 66c7 0abd 64fd f5bd 6429 0bbe b80d d7bd
000000a0: 5821 1abe bd39 2b3d 7b05 143e 6ed6 f13d
000000b0: c3cb f7bd 43fc c7bd a6d1 e2bd b9a0 aebd
000000c0: 21a8 963d ab80 863e b655 b53c d2dc 793d
000000d0: efe9 63be c311 8e3e a283 b9bc e370 0a3e
000000e0: 9f8b a43d 579f 493d 5d47 c03c 585f 033e
000000f0: 332a 033d 1c47 b0bd 84f6 c53e 1eaf 633d
00000100: 382d 95bc c4cc 9abe 41b6 7abe fcbc 92be
00000110: be14 75be 7029 ef3d 5c04 703e 890e 47bc
00000120: e0f8 8fbd 293b 60bd 1674 75bd 7b6c e73c
00000130: 948a 4a3e b8ec 073d 44f6 e53d 8a8e ebbd
00000140: cad7 1bbe b205 883d 55e4 57be d1f1 ab3d
00000150: 8fd8 ad3d 929d 74bd 6f6c 2e3e b685 3bbe
00000160: 07c6 32bd 73b5 2dbd c119 25be 0f41 bebd
00000170: e518 593e f192 f93d b882 873e f79e ee3d
00000180: c953 4bbe 2b34 7dbd 7849 0fbe 58ac 713e
00000190: 31c0 403d 369e d93d 0da9 ff3d d43c bf3d
000001a0: 689c 0c3e 08ad f7bc 6de1 10be b293 02be
000001b0: 860e b73d 18d6 f73d 5257 c53d f756 ae3d
000001c0: a6ea 52bd fec0 87be ffee afbc 0ba5 1cbd
000001d0: 2462 723e 24fb 8cbe befa 763c 4327 14be
000001e0: a654 a4bd 513d 4bbd 295e abbc ca4d f8bd
000001f0: d3c2 a9bc 00a0 b33d 5a90 c0be 0c97 b7bd
0.02260282 0.29189706 0.23377629 0.28352204 0.21462527 -0.112706505 -0.22488579 0.015537946
0.054455094 0.025855392 0.10236717 -0.039119877 -0.18710902 -0.006495454 -0.12867694 0.101272434
0.09122794 -0.06830417 0.19887166 -0.09036789 -0.111357845 0.040577997 -0.15878476 0.16307181
0.02281412 0.032092586 0.18028213 0.098636225 -0.24664123 -0.11292947 -0.24644348 -0.092300504
0.19181181 0.06707657 0.15623574 -0.22423275 -0.033881567 -0.12011221 -0.13590008 -0.105006635
-0.15051782 0.04180311 0.14455216 0.11808477 -0.12099411 -0.09764912 -0.110751435 -0.08526749
0.07356287 0.2627004 0.022135597 0.061001606 -0.22257207 0.27747926 -0.022645775 0.13519625
0.08034443 0.049224224 0.023471529 0.1282934 0.032022666 -0.08607313 0.3866464 0.055586927
-0.018210039 -0.3023435 -0.24483587 -0.2865981 -0.23933694 0.116778255 0.23439163 -0.012149462
-0.07029891 -0.05474392 -0.05992516 0.02824997 0.19779426 0.033184737 0.11228612 -0.115017965
-0.15219036 0.06641711 -0.21083196 0.08395732 0.08488571 -0.059720583 0.17033552 -0.18312725
-0.043645885 -0.04240937 -0.16123106 -0.09289753 0.21200903 0.1218623 0.26466918 0.11651414
-0.1985618 -0.06181733 -0.1399287 0.236009 0.047058288 0.106258795 0.12483416 0.09337774
0.13731539 -0.030233875 -0.14148493 -0.12751654 0.08938317 0.12101382 0.09635796 0.08512681
-0.05149331 -0.2651443 -0.021476267 -0.038243335 0.2367025 -0.27535355 0.01507443 -0.14468102
-0.08023958 -0.049619023 -0.020918922 -0.12124212 -0.020722782 0.08770752 -0.37610132 -0.08964357

actor_head.bias f4 [2]
00000000: 8235 3bbc 9b35 3b3c
-0.0114263315 0.011426355

critic_head.weight f4 [1, 64]
00000000: 7ffd d73e 15f3 bd3e cd57 b73e fa17 063f
00000010: 83a5 0e3f b0e2 2dbe e61e 0d3f 5822 7ebe
00000020: e756 3fbe 5849 b63e 920d ec3b f823 213f
00000030: 396b fd3e 8f37 0d3f d3ca adbe f9ef 1cbe
00000040: cd2d d93b 48d7 163e f3a4 0a3f c019 043f
00000050: c07e cb3e b2d0 e53e f4b0 273f 675a c13d
00000060: 6230 d8bd 8c3d 043f 54a5 4abe a9f8 22be
00000070: c18d de3e 129d de3e f9be 1c3f a3a1 e83e
00000080: 69ef fc3e 248e 32be 6955 dc3e 4257 273f
00000090: 3cf2 33be 53d4 d33d 5ec9 1b3f d92e b93e
000000a0: da91 c13e ddf8 ef3e fa4c d33e bbc9 e03e
000000b0: 7a07 483f cd21 ea3e 181e 7c3e 8a46 e03e
000000c0: 7f79 083f b3fb ab3e fab9 1ebe 3db4 d03e
000000d0: 9cfc ff3e 7913 42be 2b18 f8bd 8c68 c83e
000000e0: e565 d13e de3e 22be 33d8 293d dd77 cf3e
000000f0: ea05 ad3e ef99 b4bc f839 a83e c1c2 e33e
0.4218559 0.3709952 0.35809174 0.52380335 0.557213 -0.16981006 0.5512527 -0.24817789
-0.18685494 0.35602832 0.007203766 0.6294551 0.49495867 0.551629 -0.33943805 -0.15325917
0.0066277743 0.14730561 0.5415794 0.5160179 0.3974514 0.44885784 0.65504384 0.09441071
-0.10556103 0.51656413 -0.1978963 -0.15915169 0.43467525 0.4347921 0.612289 0.4543582
0.49401405 -0.17437035 0.43033913 0.6536752 -0.17572874 0.10343232 0.60854137 0.36168554
0.37806588 0.46869555 0.41269666 0.43903908 0.7813641 0.45728913 0.24620855 0.43803817
0.5331039 0.3359047 -0.15500632 0.4076251 0.49997413 -0.1895274 -0.12113985 0.39142263
0.40898052 -0.15844294 0.04146595 0.40521136 0.33793575 -0.022046058 0.32856727 0.44484523

exp_avg f4 [64, 4]
00000000: 5606 dc3b 68f0 b03b 3e88 8239 e6d9 e1ba
00000010: e16e 0b3c 82e7 14ba a975 47b9 3149 613a
00000020: 4612 f13b c754 2439 1cfa 16b9 e004 b939
00000030: 08ba 893c 62da 653b 151d 1638 46d2 88b9
00000040: f34d 7e3c bbb4 943b c449 cf38 4d22 47ba
00000050: 088e aaba 8a10 623a e43c 5239 2801 08ba
00000060: 6a11 a63a af4e 183c 190f f139 d755 6dbb
00000070: 957e 123b 062d 6fba 51e9 8d38 801b a639
00000080: cd6e 70bb 6c1d 43ba 145d f136 fe93 6f38
00000090: 060f d63b a8d8 823b b53a 2a39 7a05 96ba
000000a0: 62ad 7f3a 5e3a d439 8f4b 3c38 e325 ce37
000000b0: 3d0f 0c3c 5595 063c ffe5 b339 f400 31bb
000000c0: b021 cd3a 065f 063c e8af d239 b468 4fbb
000000d0: 46ef fe3b eb02 e83b bd7c 9939 048c 16bb
000000e0: 04ab aa3a bfcd 89b9 57ce 4039 d77d 37b9
000000f0: 9bc0 daba 8a02 53ba 0530 c2b8 a8e7 aa38
00000100: 85bc 4eba f225 8338 34eb 7338 1495 bbb8
00000110: cf5f 303a 6d42 1d3b 758b 2c39 2f68 89ba
00000120: 1728 6f3c 7dff 953b ebd1 e338 4dab 5bba
00000130: 635e 0f3c a0df c73b 0c3e 43b8 fe01 e1ba
00000140: ecfd 443b 1a38 c43b a097 9139 192a 0fbb
00000150: 2a64 093c 40d2 a53b 206c 4239 1b23 beba
00000160: 2b81 9f3b 1832 223c 4a2a f139 a425 6dbb
00000170: 19c5 d93a 175c 3c3a 432a 1739 2391 1439
00000180: 1afb f1ba 9999 36ba 4b27 56b8 42e8 b938
00000190: c0aa 133c f38e c53b 86b3 7039 2918 ebba
000001a0: b42f a43b a00e 40bb 9de3 04b9 70a6 b13a
000001b0: 9096 f9ba 0b69 63ba fea9 deb8 9b7b 8238
000001c0: 8d67 02ba 6677 003c 5e3c d239 7721 4fbb
000001d0: 04f7 a53a 0e3f ce3b 6980 f339 e271 23bb
000001e0: e80b b73a 733f 293c 51f7 053a b1e8 83bb
000001f0: 6017 713b 1da1 dd3b 8b32 a339 3a78 20bb
00000200: d062 5e3c 87f1 853b 34e6 c138 659b 3aba
00000210: bd99 50b8 2a21 c5b9 8477 84b7 e1c4 1539
00000220: 413f 2f3c 9944 733b 32c2 0239 a9d4 24ba
00000230: 4240 383b bf49 2d3c 541c 063a dafa 83bb
00000240: 313d 053a 04a5 8cb8 8805 dd38 6b0c 6db8
00000250: 84b5 5abb 45b5 fe3a 9421 e838 7fe4 42ba
00000260: fa06 ab3b bac6 123c 6ba4 d639 55ff 52bb
00000270: 4f05 b2bb d42a 623b 6cfa 5339 f0de 02bb
00000280: 213c beb9 c4ee c23b 0f2c ef39 b711 19bb
00000290: 7474 3f3c d32c 403b 1691 bdb9 88c3 1139
000002a0: cf66 343c 30af 653b 93e4 b438 4378 26ba
000002b0: 3fea 2b3c b69a 883b 787b 0039 dac7 79ba
000002c0: 4b05 8c3c 174e ec3b 9e2f 1e3a f787 19bb
000002d0: b3f3 db3b 1ea6 a43b bd52 5d39 2204 d9ba
000002e0: b0ce 3a3a 2c4b 8e3b 2f8c 5839 0270 e6ba
000002f0: a951 873b 7152 cb3b 1812 9439 0f10 0fbb
00000300: edc3 243c 55e1 c33b 8d5a 6439 7654 dfba
00000310: 721b c63b df31 5eba 3234 fcb8 d773 243a
00000320: d805 a03a 98cc 0cba 10fb c336 b17c 3039
00000330: cb30 f83b 8cf5 633b 2a00 19b8 dfc1 19ba
00000340: 0d90 003a c1d7 0d3c a38c e339 ea20 60bb
00000350: b89d 11b8 f55c d536 186e 37b5 8a90 d8b7
00000360: b93c 2fb9 8417 af38 64c1 29b7 20d3 26b9
00000370: 5dfe 283c c56e 5e3b ec60 b238 124c 2aba
00000380: e313 0d3c fe8d 893b 7091 1b39 98c8 8cba
00000390: 814a 143b 2291 93ba 4ac2 8ab6 85d6 f439
000003a0: ad3e b33a 0eac 8039 676e 4437 fb67 3eb8
000003b0: 2295 4f3b 95fd 18ba 3b07 69b9 c753 b139
000003c0: 7558 c33b 2dce 803b d9dd 1b39 b49a 98ba
000003d0: c70b aeba eab0 46ba c203 82b8 4834 c539
000003e0: dcdb 893c f4ec 6d38 6cc7 11b9 694e 923a
000003f0: 58cc 123c b500 9d3b 76a6 3339 835b a9ba
0.0067146225 0.0053997524 0.0002489704 -0.0017231076 0.008510322 -0.00056802493 -0.0001902195 0.0008593975
0.0073569147 0.00015671841 -0.00014398288 0.00035289582 0.01681234 0.0035072793 3.578987e-05 -0.00026096607
0.015521514 0.0045381463 9.884269e-05 -0.0007596359 -0.0013012299 0.00086236803 0.00020049844 -0.00051881606
0.0012669985 0.009296103 0.0004597835 -0.0036214495 0.002235328 -0.00091238355 6.7668625e-05 0.00031682476
-0.0036687136 -0.0007443044 7.1931954e-06 5.711987e-05 0.0065325527 0.0039931126 0.00016234333 -0.0011445724
0.0009753314 0.00040479278 4.4893062e-05 2.4574756e-05 0.008548555 0.0082143145 0.000343129 -0.0027008625
0.0015650298 0.008201366 0.00040185382 -0.0031648101 0.0077799885 0.007080426 0.0002927537 -0.002297164
0.0013020937 -0.0002628397 0.00018387414 -0.00017499119 -0.0016689481 -0.00080493896 -9.259585e-05 8.149381e-05
-0.0007886368 6.253635e-05 5.8154765e-05 -8.944623e-05 0.0006728144 0.0023995892 0.0001645515 -0.001048332
0.0145969605 0.0045775757 0.00010863304 -0.0008379713 0.008750531 0.006099656 -4.654941e-05 -0.0017166731
0.0030058576 0.005988133 0.00027769525 -0.002184516 0.008385697 0.005060464 0.00018541561 -0.0014506312
0.004867693 0.009899639 0.0004599861 -0.0036185766 0.0016614526 0.00071853533 0.00014416226 0.00014168448
-0.0018461675 -0.0006965637 -5.105817e-05 8.864749e-05 0.009012878 0.0060290038 0.00022955061 -0.0017936277
0.0050105695 -0.0029305592 -0.00012673294 0.001355363 -0.0019042064 -0.00086750154 -0.000106174484 6.2219064e-05
-0.0004974537 0.007840967 0.00040099298 -0.003160564 0.0012662117 0.006294138 0.00046444245 -0.0024939706
0.001396534 0.010330069 0.00051104004 -0.0040255417 0.0036787614 0.006763591 0.0003112744 -0.0024485723
0.013573363 0.00408763 9.245836e-05 -0.00071184925 -4.9734244e-05 -0.00037599477 -1.579128e-05 0.0001428309
0.010696233 0.0037119745 0.0001247011 -0.00062877923 0.0028114473 0.0105766645 0.00051159156 -0.0040277066
0.00050826656 -6.706457e-05 0.000105391315 -5.651677e-05 -0.0033372352 0.0019432685 0.000110688765 -0.0007434561
0.0052193375 0.008958513 0.00040939762 -0.0032195647 -0.0054327617 0.003451039 0.00020215817 -0.0019969307
-0.00036284424 0.0059488732 0.00045618459 -0.0023356506 0.011685479 0.0029323592 -0.00036156987 0.00013901119
0.01101084 0.0035047047 8.625644e-05 -0.0006350318 0.01049286 0.0041688336 0.00012253027 -0.00095283764
0.017092368 0.0072114575 0.0006034317 -0.0023426989 0.006712401 0.0050246855 0.00021107025 -0.0016557018
0.0007126136 0.0043424573 0.00020651588 -0.0017580988 0.0041296077 0.006204896 0.0002824224 -0.002182964
0.010056478 0.0059777894 0.00021777507 -0.0017038721 0.006045752 -0.00084760593 -0.000120260185 0.0006273365
0.0012208773 -0.0005371063 5.8406804e-06 0.00016831119 0.007574176 0.0034783809 -3.6478195e-05 -0.0005865376
0.0004904278 0.008657397 0.00043401596 -0.0034199306 -3.471758e-05 6.3587163e-06 -6.833302e-07 -2.5816513e-05
-0.00016711921 8.3490304e-05 -1.0118212e-05 -0.00015909644 0.010314551 0.0033940536 8.5057545e-05 -0.0006496321
0.008610698 0.004197835 0.00014836132 -0.0010740934 0.0022627416 -0.0011258463 -4.1353387e-06 0.00046699136
0.0013675295 0.00024542253 1.1708215e-05 -4.539637e-05 0.0031674583 -0.00058361265 -0.00022223305 0.0003382249
0.0059614726 0.003930828 0.00014864597 -0.0011642785 -0.0013278656 -0.0007579463 -6.199583e-05 0.0003761372
0.01682847 5.6725883e-05 -0.00013902568 0.0011162284 0.008959852 0.004791344 0.00017132782 -0.0012920949

exp_avg_sq f4 [64, 4]
00000000: 4a87 313a 0d23 2539 8215 f235 cd55 6f38
00000010: bed7 e63a 0f23 cc39 25e0 9c36 1276 d738
00000020: 0743 a73a a08e 7e39 bda2 6436 7059 a338
00000030: a9ef 293b 259c 153a 82b8 d436 f39b 2739
00000040: f934 183b 9900 083a ca68 bd36 a949 2239
00000050: fad7 4c39 75e3 bf37 7721 a234 d240 0937
00000060: 7bb6 123b d552 073a c089 ca36 9b64 2539
00000070: 34f9 5739 e797 e437 87b6 a634 cf1b 3c37
00000080: 4fd3 a338 e901 9e37 ea19 7034 d9f8 7436
00000090: e83f af39 8ffc f138 0e97 a335 3ed8 3038
000000a0: e943 0138 0e3b ff36 b1d8 9033 49d7 a135
000000b0: 1dfe fb3a 593b b339 a876 9c36 41f2 0f39
000000c0: 9908 e33a 6a1f d139 0962 9e36 0b1f 0239
000000d0: a794 c63a 02ea b939 bab1 8336 7d04 0139
000000e0: 56f5 cd39 69a9 4538 7172 e634 40e1 b037
000000f0: 78ae b138 7fd1 b337 91c3 2d34 4ebc 5036
00000100: 9aca 0239 d342 9c37 584c 9434 ea4f 9136
00000110: 12b5 9038 147e e537 0f8f a434 f0bd 0037
00000120: ecd6 093b c275 f739 b4ca ac36 61c7 1539
00000130: 942f b73a 26b0 a939 a3f4 7436 2b21 e738
00000140: 1c12 683a 2316 4139 6a91 1636 2de1 8338
00000150: db7d 873a fb3e 7b39 d5a3 2e36 6022 ab38
00000160: 13c2 243b 2b75 193a 5931 e236 040a 4639
00000170: 6f1d cf38 a70e ba37 4375 a634 6a55 b836
00000180: 403a c137 c845 cb36 e0ec 8b33 6806 aa35
00000190: 7be9 a73a c47e 5e39 716f 4d36 f79b bb38
000001a0: b9a4 d639 e715 6a38 657b 4135 1c9c 9137
000001b0: c311 a538 4e9b 8337 b362 1c34 36e1 4336
000001c0: 9989 db3a a944 c839 e025 9936 8af8 e838
000001d0: 4060 7a3a fa9d 2139 fd1a 1c36 c76d 8138
000001e0: c278 353b d3f1 263a a240 fc36 4e6a 4c39
000001f0: af17 973a c9e1 8c39 b7de 4e36 bc00 bc38
00000200: d5f5 e93a 0db4 d139 1bfb 9136 f9a5 f838
00000210: ff15 8437 eeae d336 87e4 0634 66a0 4036
00000220: 4848 4e3a fb45 7d39 a703 2336 975c 9d38
00000230: 9580 3b3b 2055 2e3a c3b3 0137 985e 5c39
00000240: e07e f838 4625 8937 7c65 5034 e11b d536
00000250: 4177 3839 ccaf 2238 c612 ee34 4b8b 1837
00000260: 6761 073b fec6 f639 5648 b836 332c 2839
00000270: 2f6b 163a 2566 0a39 84ef da35 7176 5038
00000280: 28cf 683a fd0a 4439 dcf8 1936 f1e5 8838
00000290: 26de 753a 7f19 5639 fe6e 1636 f83e 9338
000002a0: 635b 943a f65d 8639 6da6 3a36 ed82 a138
000002b0: 2bd4 993a d7e2 8b39 7946 4136 eae6 b138
000002c0: b905 9d3a f9a4 013a f3df c836 199d 1639
000002d0: 9602 7d3a 3476 2a39 d7e2 2436 cc7d 4b38
000002e0: e004 d439 8135 8b38 df75 6d35 2867 bb37
000002f0: cc7d 803a cc60 3139 0fcd 2336 6d65 7a38
00000300: e649 c03a 9550 b239 eed4 7536 0e5f f238
00000310: 6a5c ac3a da49 9339 9a93 7236 7502 aa38
00000320: 03bd a438 ccbf 0d37 425e fc33 879e 3d36
00000330: a51d f839 529d 1d39 2a14 cf35 072a 5538
00000340: 2612 fa3a 1938 ec39 7b75 b136 3535 0839
00000350: ae80 a336 7940 c535 2b76 0933 464b f935
00000360: 4997 0737 4c66 c935 acdb 3233 86ab e735
00000370: 212d 893a 6095 7439 383f 2936 78f5 8a38
00000380: da52 613a 1e7b 5039 054a 0f36 925f 8838
00000390: 066e e438 306f 7037 f5a0 3734 a89f b436
000003a0: a60f b836 67e4 fc35 77b0 9432 0e93 0735
000003b0: 7138 683a 8336 6439 a0d2 1836 da80 8838
000003c0: 0b3e 123a e2b4 0739 aa30 bd35 ad77 3b38
000003d0: e8f0 1938 13e1 5237 9e22 f233 4e70 fc35
000003e0: 2fa0 2d3b 42c9 143a 2140 da36 6543 0939
000003f0: 596e 753a 76f6 5f39 d226 1d36 9ad3 9938
0.0006772174 0.00015748684 1.8036665e-06 5.706195e-05 0.0017611904 0.00038936033 4.675256e-06 0.00010273991
0.0012761065 0.0002427646 3.4069374e-06 7.789105e-05 0.0025930202 0.0005707166 6.339572e-06 0.00015984457
0.0023224934 0.00051880773 5.644838e-06 0.00015476964 0.00019535414 2.2874892e-05 3.01992e-07 8.1809285e-06
0.00223866 0.0005162184 6.0361053e-06 0.00015773105 0.00020596833 2.7250453e-05 3.1052716e-07 1.1212148e-05
7.811805e-05 1.8835957e-05 2.2361169e-07 3.6503682e-06 0.00033426215 0.00011538818 1.2188409e-06 4.216306e-05
3.0819243e-05 7.606467e-06 6.7449385e-08 1.2058091e-06 0.0019225512 0.00034185758 4.6629757e-06 0.0001372779
0.0017321288 0.00039886992 4.7201797e-06 0.0001240933 0.0015150503 0.000354603 3.9247943e-06 0.0001230407
0.00039283436 4.7126236e-05 4.2924106e-07 2.1085725e-05 8.472515e-05 2.1436017e-05 1.6183027e-07 3.1104023e-06
0.00012473241 1.8627767e-05 2.7622696e-07 4.33064e-06 6.900182e-05 2.7357637e-05 3.065147e-07 7.673618e-06
0.0021032644 0.00047199248 5.149597e-06 0.00014284022 0.0013975971 0.00032365433 3.650123e-06 0.000110211164
0.0008852796 0.00018414161 2.2436384e-06 6.288509e-05 0.001033719 0.00023960687 2.6023383e-06 8.160318e-05
0.0025140091 0.0005853946 6.7410697e-06 0.00018886483 9.8760116e-05 2.217975e-05 3.100523e-07 5.493571e-06
2.3034518e-05 6.057995e-06 6.515779e-08 1.2667851e-06 0.0012810671 0.00021218794 3.0612248e-06 8.9459056e-05
0.0004093999 5.5810346e-05 7.2077665e-07 1.7358041e-05 7.8711215e-05 1.5688736e-05 1.4564539e-07 2.9188354e-06
0.0016749381 0.00038198128 4.5641646e-06 0.00011108916 0.00095510855 0.00015413007 2.326152e-06 6.171647e-05
0.0027690385 0.0006368432 7.5177095e-06 0.00019494558 0.0011527444 0.00026871104 3.082603e-06 8.964675e-05
0.0017849753 0.00039997735 4.3505693e-06 0.00011856476 1.5745869e-05 6.3086545e-06 1.256286e-07 2.8703594e-06
0.0007869047 0.0002415403 2.4291019e-06 7.5035896e-05 0.0028610576 0.0006650258 7.730853e-06 0.00021016074
0.00011849194 1.634903e-05 1.940843e-07 6.35114e-06 0.00017592033 3.8787533e-05 4.4344614e-07 9.092338e-06
0.0020657422 0.00047069037 5.4920483e-06 0.00016038194 0.00057380175 0.00013198757 1.6311974e-06 4.970137e-05
0.00088809663 0.0001869611 2.2943632e-06 6.527815e-05 0.0009379111 0.00020418128 2.2416348e-06 7.021235e-05
0.0011318739 0.00025628478 2.7813032e-06 7.701465e-05 0.0011736205 0.00026681155 2.8800262e-06 8.483029e-05
0.0011979855 0.00049455423 5.9865356e-06 0.00014363638 0.00096515694 0.00016256497 2.4569943e-06 4.851613e-05
0.00040439423 6.6380024e-05 8.8460905e-07 2.2340173e-05 0.0009803115 0.00016916095 2.4408253e-06 5.9699105e-05
0.0014670461 0.00034010844 3.6631786e-06 0.000115571645 0.00131501 0.0002809305 3.6146726e-06 8.106689e-05
7.8553356e-05 8.448911e-06 1.175181e-07 2.825547e-06 0.00047324333 0.00015031293 1.542857e-06 5.08223e-05
0.0019078895 0.00045055224 5.2886876e-06 0.00012989792 4.872759e-06 1.4696408e-06 3.200527e-08 1.8573853e-06
8.081851e-06 1.5005439e-06 4.1643645e-08 1.7260761e-06 0.001046572 0.000233253 2.521976e-06 6.626075e-05
0.00085954147 0.0001988229 2.1351746e-06 6.502787e-05 0.00010892381 1.4331003e-05 1.7101759e-07 5.3830045e-06
5.485449e-06 1.8841937e-06 1.7309715e-08 5.050541e-07 0.0008858508 0.00021764082 2.2772365e-06 6.508986e-05
0.0005578703 0.00012941987 1.409576e-06 4.469573e-05 3.6702404e-05 1.256938e-05 1.12753e-07 1.8808148e-06
0.0026493182 0.00056757417 6.504372e-06 0.00013090445 0.00093624514 0.00021358751 2.341742e-06 7.3350224e-05

exp_avg f4 [64]
00000000: b7de 6f3b ccea 33bb ad04 f6ba 2443 dc3a
00000010: 41de 363b d834 813a be0f 0f3c d10d d9ba
00000020: 33e2 08bb 69ab 533b 153c 383a d6aa e43b
00000030: f3fd fa3b 9cdd c33b 8bea 7fba 02bc edb9
00000040: 6758 1239 87dd 013b 6e51 3f3b 5616 133c
00000050: 6c3c b13b 7ed6 823b 3ea8 123c a5b1 813a
00000060: 0128 44ba c927 9f3b 02aa 65bb adb9 14ba
00000070: 206a f63b 6eb3 ae3b d8ff 1e3c cd44 c73b
00000080: 715b 273b dccf 5639 daf8 373b 9e8c 203c
00000090: 22e6 cbb9 f248 4e3b 8265 033c ac8c f73a
000000a0: 2877 a43b 1b3c 133c 3b93 2a3b f763 403b
000000b0: 6b05 513b b9ca 823b 37a2 853b 2a35 b53b
000000c0: 8b15 9a3b d456 52bb 1204 80ba 313f ad3b
000000d0: 805b 063c 1dad efb7 b9ee 8139 88d1 113b
000000e0: 7107 543b 58e0 d7ba 01b7 ff38 69ea 143a
000000f0: 07db 4e3b d0a5 d1b8 53c9 d2ba 7850 703b
0.0036601254 -0.0027453182 -0.0018769704 0.0016804677 0.002790347 0.0009857668 0.008731781 -0.0016559904
-0.0020886778 0.0032298213 0.0007027996 0.006978373 0.0076596676 0.0059773456 -0.00097624277 -0.0004534424
0.00013956577 0.0019815878 0.0029192823 0.008977493 0.005408814 0.0039928546 0.008951245 0.0009894861
-0.00074827677 0.0048570377 -0.003504396 -0.000567342 0.0075199753 0.0053314483 0.009704553 0.0060811997
0.002553668 0.00020486064 0.002807191 0.009799151 -0.0003889064 0.0031476584 0.008019807 0.0018886528
0.0050190873 0.008986498 0.0026027698 0.0029356459 0.0031894099 0.0039914516 0.0040781754 0.0055300193
0.004702275 -0.003209521 -0.0009766838 0.005287074 0.008200526 -2.8571632e-05 0.0002478266 0.0022250134
0.0032353068 -0.0016470058 0.00012193435 0.0005680682 0.0031563656 -9.9967816e-05 -0.0016081728 0.0036669057

exp_avg_sq f4 [64]
00000000: 62f5 fd39 9d49 633a 0619 2f3a ee13 b23a
00000010: c660 ae3a 9e5f 6838 fcad b33a 269b 8a38
00000020: 40b3 db37 244e ac39 99ac 3b37 e92c b13a
00000030: 161d 8c3a 6e8f 8c3a 6ea6 ec38 fd74 be37
00000040: 54aa 2638 72ab 5c38 2ba8 a03a a836 7d3a
00000050: 49e5 1a3a 2be5 393a fee3 db3a 59b1 5d38
00000060: ba5e ff36 1049 683a 45ca 1139 e0c7 af37
00000070: 790b 7a3a cb79 293a ca1c dd3a 0cf4 4b3a
00000080: 44a6 863a b549 4637 89a9 263a 91a9 ee3a
00000090: 12ff 2138 337e 9838 be0b b83a 62c5 eb39
000000a0: 745c 193a 1d1c 223a c88d 313a dacf 3f3a
000000b0: 964a b73a ba68 273a 3afa 7939 5ebc 2c3a
000000c0: 4074 833a b897 303a 71d2 c037 8c5c c639
000000d0: f446 973a 18ae 1a36 f9cb 7936 eb1d 203a
000000e0: ee2d 1a3a 8b3e 1c38 901e 4936 f8ab 153a
000000f0: 9194 cb39 f606 6c37 a5da 8e3a fa12 2f3a
0.00048438745 0.0008670332 0.0006679449 0.0013586262 0.0013303987 5.540216e-05 0.0013708468 6.6092514e-05
2.6190304e-05 0.00032864616 1.1186255e-05 0.0013517413 0.0010689821 0.0010723898 0.00011284357 2.2704242e-05
3.9736115e-05 5.261176e-05 0.0012257149 0.00096593285 0.00059088 0.00070913386 0.0016776321 5.2855674e-05
7.61062e-06 0.0008860985 0.00013903629 2.09547e-05 0.0009538453 0.0006464987 0.0016869542 0.0007780201
0.001027294 1.1818881e-05 0.000635766 0.0018208494 3.8622944e-05 7.271431e-05 0.0014041585 0.00044969755
0.00058502634 0.0006183999 0.0006773141 0.0007317044 0.001398402 0.000638615 0.00023839707 0.0006589348
0.0010029152 0.0006736475 2.2986178e-05 0.00037834456 0.0011541531 2.3049124e-06 3.722262e-06 0.0006107974
0.0005881478 3.7251546e-05 2.9969124e-06 0.0005709524 0.00038829868 1.4068317e-05 0.0010898901 0.0006678548

exp_avg f4 [2, 64]
00000000: 369e b0bb 15a6 97bb 2f10 65bb 2190 70bb
00000010: 3db3 2cbb 5c50 d6b9 a1ba b6bb cd82 7eb9
00000020: 560c 243a 380f f3b9 beee ea39 e877 e3ba
00000030: 8953 37bb 2722 8cbb d3cd 86b7 eae1 8339
00000040: b2be 2939 aed3 ce3a e56f 30bb 94f2 00bc
00000050: 2e72 31bb 8083 dfbb a8b6 03bb e4a0 a1b8
00000060: 2620 fb39 fdca 40ba 594d 1cba 5a04 e439
00000070: 87d8 6fbb a30f 10bb 4726 76ba 1fe7 c5ba
00000080: 001e 37bb 8279 db38 4c72 753a 1e08 a8bb
00000090: 3345 d8ba 86db 53bb 9e7a 41bb 6ae9 c8bb
000000a0: a7cd b2bb 2920 ffbb bd19 03bc 83b9 ceba
000000b0: 35d3 273b 3871 913a aba6 acba e8e3 3238
000000c0: fa86 efb9 31a6 95bb 99bf 17b9 4dd5 20bb
000000d0: e022 9bb9 1cb8 1bb5 62e9 51b7 dbfc 9abb
000000e0: 43e4 a5ba eb52 82ba e985 f63a 6444 31bc
000000f0: 21bb 82bb 5176 133b aed7 a9ba e603 48bb
00000100: 389e b03b 13a6 973b 2c10 653b 1f90 703b
00000110: 3db3 2c3b 5c50 d639 a1ba b63b cd82 7e39
00000120: 550c 24ba 370f f339 beee eab9 e277 e33a
00000130: 8953 373b 2722 8c3b dacd 8637 e7e1 83b9
00000140: b8be 29b9 abd3 ceba e36f 303b 95f2 003c
00000150: 3172 313b 7f83 df3b adb6 033b d0a0 a138
00000160: 2020 fbb9 f0ca 403a 5a4d 1c3a 5304 e4b9
00000170: 87d8 6f3b a40f 103b 4e26 763a 1ee7 c53a
00000180: 001e 373b 8879 dbb8 4a72 75ba 1d08 a83b
00000190: 3345 d83a 86db 533b 9c7a 413b 6ae9 c83b
000001a0: a4cd b23b 2920 ff3b bc19 033c 84b9 ce3a
000001b0: 31d3 27bb 3c71 91ba aca6 ac3a 41e4 32b8
000001c0: e586 ef39 31a6 953b 9abf 1739 4cd5 203b
000001d0: a322 9b39 25b8 1b35 60e9 5137 dbfc 9a3b
000001e0: 3fe4 a53a ec52 823a e385 f6ba 6444 313c
000001f0: 22bb 823b 4c76 13bb afd7 a93a e603 483b
-0.005389954 -0.004627953 -0.0034952273 -0.0036707001 -0.0026351952 -0.00040877133 -0.005576447 -0.00024272055
0.0006257942 -0.0004635991 0.00044809835 -0.001735446 -0.0027973375 -0.004276532 -1.606989e-05 0.00025154586
0.00016188135 0.0015779638 -0.0026922163 -0.007870335 -0.0027076113 -0.006821096 -0.0020097885 -7.7070465e-05
0.00047898403 -0.00073544664 -0.00059624534 0.0004349079 -0.0036597566 -0.0021981976 -0.0009389859 -0.0015098787
-0.0027941465 0.00010465366 0.000936304 -0.005127921 -0.0016500115 -0.003232689 -0.0029522548 -0.0061313407
-0.0054566446 -0.007785816 -0.008001742 -0.001577184 0.0025608067 0.0011096364 -0.001317223 4.265076e-05
-0.00045686198 -0.0045669307 -0.00014471858 -0.00245412 -0.00029589888 -5.8009914e-07 -1.2511709e-05 -0.0047298498
-0.0012656528 -0.0009942924 0.0018808219 -0.010819528 -0.0039895927 0.0022500942 -0.0012957954 -0.0030519902
0.005389955 0.004627952 0.0034952266 0.0036706997 0.0026351952 0.00040877133 0.005576447 0.00024272055
-0.0006257941 0.00046359908 -0.00044809835 0.0017354453 0.0027973375 0.004276532 1.6069902e-05 -0.00025154577
-0.00016188144 -0.0015779635 0.0026922158 0.007870336 0.002707612 0.0068210955 0.0020097897 7.707032e-05
-0.00047898386 0.0007354459 0.0005962454 -0.0004349077 0.0036597566 0.0021981979 0.0009389863 0.0015098786
0.0027941465 -0.00010465371 -0.00093630387 0.0051279203 0.0016500115 0.003232689 0.0029522544 0.0061313407
0.005456643 0.007785816 0.008001741 0.0015771841 -0.0025608058 -0.0011096369 0.0013172231 -4.2651085e-05
0.00045686137 0.0045669307 0.0001447186 0.0024541197 0.0002958971 5.8009965e-07 1.2511708e-05 0.0047298498
0.0012656524 0.0009942926 -0.0018808212 0.010819528 0.003989593 -0.002250093 0.0012957955 0.0030519902

exp_avg_sq f4 [2, 64]
00000000: 2f3f 173a d933 b439 f4da af39 ea01 9239
00000010: f63f 8f39 9036 9836 41ef da39 c01d 3e37
00000020: 354c 4e37 9fdf 0e3a 17f7 3838 70c4 a439
00000030: 19ee 7439 6df8 bb39 4116 0135 90f5 5e36
00000040: b70a 5a38 a713 c439 ff0c 6a39 64fc 103a
00000050: f09a cb39 cda9 073a 1c6c 9239 f29f 0436
00000060: 10b8 6b37 ed10 9e39 258f 8637 d7ec e936
00000070: bfc8 5e39 cec0 093a 1859 6a39 0d05 8339
00000080: 17da 8239 ff6b e034 44fa 9d39 5d81 c439
00000090: 407d 8838 73b1 3238 a258 9b39 117d 553a
000000a0: 50f6 073a 5aad 223a f6a9 1e3a 2f41 7c39
000000b0: bca0 093a 4073 9a39 50dd 4d39 6009 a339
000000c0: 6393 8b39 f2d1 b839 abdb 3837 bc7d 423a
000000d0: 0a72 9e39 5ef6 3b30 6b1a 9533 28c4 b939
000000e0: ea81 b139 816c 6538 7858 6539 195d 5a3a
000000f0: 298f a539 80e1 2d39 08b1 9138 20f2 c639
00000100: 2f3f 173a db33 b439 f5da af39 ea01 9239
00000110: f83f 8f39 9036 9836 43ef da39 c11d 3e37
00000120: 364c 4e37 a0df 0e3a 16f7 3838 70c4 a439
00000130: 19ee 7439 70f8 bb39 4116 0135 90f5 5e36
00000140: b70a 5a38 a513 c439 000d 6a39 64fc 103a
00000150: f19a cb39 cea9 073a 1a6c 9239 f19f 0436
00000160: 10b8 6b37 ed10 9e39 248f 8637 d8ec e936
00000170: bdc8 5e39 cdc0 093a 1959 6a39 0c05 8339
00000180: 15da 8239 006c e034 44fa 9d39 5c81 c439
00000190: 407d 8838 74b1 3238 a058 9b39 117d 553a
000001a0: 50f6 073a 5dad 223a f7a9 1e3a 2e41 7c39
000001b0: bda0 093a 4373 9a39 4fdd 4d39 6309 a339
000001c0: 6693 8b39 f3d1 b839 a7db 3837 bc7d 423a
000001d0: 0a72 9e39 60f6 3b30 6b1a 9533 28c4 b939
000001e0: ec81 b139 806c 6538 7758 6539 195d 5a3a
000001f0: 2c8f a539 82e1 2d39 08b1 9138 20f2 c639
0.0005769608 0.00034370905 0.00033541734 0.00027848716 0.0002732274 4.536305e-06 0.00041758458 1.1331809e-05
1.22963e-05 0.0005450192 4.409914e-05 0.00031426875 0.00023358352 0.0003585251 4.808863e-07 3.3223514e-06
5.198523e-05 0.00037398675 0.0002232082 0.0005530773 0.00038834615 0.00051751436 0.00027927838 1.9762633e-06
1.4049947e-05 0.0003014872 1.6040702e-05 6.971513e-06 0.00021246354 0.00052548654 0.00022349169 0.0002499003
0.00024958022 4.180183e-07 0.00030131836 0.00037480416 6.508315e-05 4.260377e-05 0.0002962994 0.00081439415
0.0005186545 0.0006205641 0.0006052548 0.00024056876 0.00052500865 0.00029459037 0.00019632769 0.00031096768
0.00026621958 0.00035251636 1.10184e-05 0.00074192486 0.00030221074 6.838031e-10 6.9431586e-08 0.00035432098
0.00033856864 5.4698907e-05 0.00021872099 0.00083299127 0.00031577915 0.00016582571 6.9471134e-05 0.000379459
0.0005769608 0.0003437091 0.00033541737 0.00027848716 0.00027322746 4.536305e-06 0.00041758464 1.133181e-05
1.2296301e-05 0.0005450193 4.4099135e-05 0.00031426875 0.00023358352 0.0003585252 4.808863e-07 3.3223514e-06
5.198523e-05 0.0003739867 0.00022320822 0.0005530773 0.00038834618 0.0005175144 0.00027927832 1.976263e-06
1.4049947e-05 0.0003014872 1.60407e-05 6.9715134e-06 0.0002124635 0.0005254865 0.0002234917 0.00024990027
0.00024958016 4.1801832e-07 0.00030131836 0.00037480413 6.508315e-05 4.2603773e-05 0.00029629935 0.00081439415
0.0005186545 0.0006205643 0.00060525484 0.00024056874 0.0005250087 0.00029459046 0.00019632767 0.00031096776
0.00026621966 0.0003525164 1.1018396e-05 0.00074192486 0.00030221074 6.8380324e-10 6.9431586e-08 0.00035432098
0.0003385687 5.4698903e-05 0.00021872098 0.00083299127 0.00031577924 0.00016582574 6.9471134e-05 0.000379459

exp_avg f4 [2]
00000000: 7468 d7bb 7568 d73b
-0.006573731 0.0065737315

exp_avg_sq f4 [2]
00000000: 46ff ab3a 47ff ab3a
0.0013122342 0.0013122343

exp_avg f4 [1, 64]
00000000: dde8 4f3c 432c bb3a 994e ff39 3810 1a3b
00000010: 673f c13b 1c3f a139 687e 643b ab7f 4939
00000020: 8e70 193b adcf 4b3c c1ee 663b 8956 123a
00000030: 5474 8a3b e2fd 533b f304 b738 3f2b a13a
00000040: ea4d f9b8 c621 2f3c a4f8 963b 90e1 b13b
00000050: 7587 043b fdb8 ce3b 3937 a73b 371d 71b9
00000060: 4d36 123b cfe6 a439 dcf1 153a 53fd ee3a
00000070: de94 3b3b 583a 7fba 840a bf3b f719 6e3b
00000080: 6bca bb3b 1b5b 8038 a9ac e23b 7b08 5f3b
00000090: e4ea 5b3a b0ea ce3a fed7 203b 7fa3 143b
000000a0: 5397 e33a 00a3 3b3c 2533 9b3b f391 ce3b
000000b0: 9cab 253c 9d48 f63a 4ade dd39 51e3 d73a
000000c0: 17e2 d33b 569c 9b3a 0961 0c38 f403 7a3c
000000d0: a790 ee3b 6628 beaf bfe5 cdb7 1fd7 dc3b
000000e0: 279c 073c 7cd0 843a f055 073c 8df3 8d3b
000000f0: 4cb1 f73b 9446 0c3c 1159 0d3b de63 1b3c
0.012689796 0.0014280159 0.0004869595 0.0023508202 0.0058974507 0.00030755333 0.0034865383 0.00019216414
0.0023413035 0.0124396505 0.0035237523 0.0005582353 0.004225293 0.003234737 8.727042e-05 0.0012296214
-0.00011887758 0.010689205 0.004607277 0.0054285005 0.002022234 0.0063086734 0.0051030186 -0.00022994434
0.0022310198 0.00031452483 0.0005719939 0.0018233455 0.0028622667 -0.0009736172 0.005830111 0.0036331394
0.005730917 6.120485e-05 0.0069175554 0.0034032154 0.00083891884 0.0015786495 0.0024542804 0.002268046
0.0017363824 0.011452436 0.0047363215 0.0063040196 0.010111716 0.0018789951 0.00042318023 0.0016470944
0.006466161 0.0011872153 3.3468972e-05 0.015259732 0.0072804275 -3.4589503e-10 -2.4544888e-05 0.0067395116
0.008276976 0.0010132934 0.008260235 0.004332012 0.007558977 0.008561749 0.002156798 0.009484259

exp_avg_sq f4 [1, 64]
00000000: fd95 ad3a 6813 5d3a c7eb 5f3a 7d6c 453a
00000010: b12b 503a f3e6 e036 4b25 773a 7fb6 8b37
00000020: 36a2 a337 3a49 9e3a 59ef be38 c187 553a
00000030: ba6c 233a 71bc 703a 17ea 6f35 39cc a436
00000040: fc58 a138 a3a9 2f3a a6e9 2f3a 8c0b 9f3a
00000050: 98d5 833a f971 aa3a 3e27 463a 38d4 ab36
00000060: 82f3 b537 7c04 543a 8f44 bc37 e639 2837
00000070: ce1a 053a 4a9e 9e3a 420c 233a 9331 3d3a
00000080: a6ee 403a 92fc 0036 57e6 493a 3b30 643a
00000090: a80a c838 0ee8 9b38 17b6 4b3a 3d6b d83a
000000a0: ef86 953a b57d ba3a e8b1 b73a 8380 383a
000000b0: f14f 923a fba8 533a eef6 fd39 50ad 623a
000000c0: cd25 463a 61df 603a 60d6 8137 d970 d53a
000000d0: c107 4e3a 51bf 4533 bdc9 0135 b7ad 863a
000000e0: 57f6 713a 13bd 9f38 d33d c739 dc18 e93a
000000f0: d639 5a3a 4798 8639 7e8b 5639 f019 803a
0.0013243553 0.0008433373 0.00085419085 0.00075311196 0.0007941081 6.7026062e-06 0.00094278593 1.6655073e-05
1.950665e-05 0.0012076267 9.104488e-05 0.0008145534 0.0006234158 0.00091833534 8.9375084e-07 4.9113555e-06
7.693653e-05 0.0006700998 0.00067105365 0.0012134179 0.0010058163 0.0013003937 0.0007558948 5.1209026e-06
2.1690274e-05 0.00080878264 2.2443272e-05 1.0027061e-05 0.00050775416 0.0012101617 0.0006219783 0.0007217165
0.000735978 1.9220502e-06 0.0007701865 0.00087046967 9.538728e-05 7.4341995e-05 0.0007770969 0.0016511452
0.0011408011 0.0014228137 0.0014014812 0.00070381927 0.001116274 0.0008074191 0.00048439897 0.00086470414
0.00075587333 0.0008578208 1.5477824e-05 0.0016284242 0.0007859432 4.6041638e-08 4.834981e-07 0.001027516
0.0009230128 7.6169286e-05 0.000380023 0.0017783898 0.0008324658 0.00025671927 0.00020460595 0.0009773355
