savedModels/ppo_cartpole_97280.pth (torch, 13659 bytes, 15 tensors)

shared_fc.0.weight f4 [64, 4]
000000 11 b0 f1 bd 0a e4 d1 3e d2 0b 01 3d 64 31 c8 be
       -0.1180116 0.40994292 0.031505413 -0.39100182
000010 d4 fc 48 bd 7d f7 20 be e3 34 1c bf 02 f4 4a be
       -0.04906924 -0.1571941 -0.610182 -0.19819644
000020 10 7d 89 3d 4d 4b 90 be fc 2a ae be 92 04 eb be
       0.06713307 -0.2818245 -0.3401717 -0.45901924
000030 73 c5 b1 bc c5 6b b7 bd b2 4d df be 63 a6 74 be
       -0.021700596 -0.08956102 -0.43613964 -0.23891596
000040 6a 3f f2 3d d7 26 f8 3d b2 af 34 bf 82 fc 92 be
       0.118285015 0.12116783 -0.7058059 -0.28708273
000050 26 d3 18 be 75 b2 f7 ba de 9b b5 be bf a1 55 3d
       -0.14924297 -0.0018897789 -0.3547048 0.052156206
000060 0b 21 89 bd 77 88 1c 3e 3b 1c 78 3e 5b 58 ca 3e
       -0.066957556 0.15286432 0.24229519 0.39520535
000070 f9 2e 27 bf 65 fb 95 be 59 58 75 3d a9 cb 13 be
       -0.6530605 -0.2929336 0.059898708 -0.14433159
000080 31 80 4a 3f 33 86 2d 3d 94 5a 23 bf 2b 6b 59 be
       0.79101855 0.04236431 -0.63810086 -0.21232288
000090 c0 71 3d 3e a2 cf 02 3e e9 f4 f6 3d 3f 31 9b be
       0.18500423 0.12774518 0.12058432 -0.3031101
0000a0 e7 60 62 3f 3b 86 35 be 35 0a 1b bf a5 2d e5 be
       0.8842911 -0.17726986 -0.6056245 -0.44761387
0000b0 b0 92 8a 3d 3c d1 5b be 92 af 2e be b9 86 22 3e
       0.0676626 -0.21466535 -0.17059162 0.15871705
0000c0 33 e9 4c 3d 60 48 a1 bd b6 62 85 bc c5 59 a9 3e
       0.050027084 -0.078751326 -0.01628242 0.330763
0000d0 21 b0 31 bd 1e 47 b8 bd 09 56 5b bd f2 ff 11 3e
       -0.04338086 -0.089979395 -0.053548846 0.14257792
0000e0 b8 39 29 bf 7f 7f 7e bd e6 41 18 3f 63 13 76 3e
       -0.66103697 -0.06213331 0.59475553 0.24030833
0000f0 68 c4 2a 3f 4c 69 93 3e ee b6 f1 bc 67 0d 37 3e
       0.6670594 0.28791273 -0.029506173 0.17876206
000100 dc a1 18 bf 94 1b f8 be d4 20 05 be 95 ed ba be
       -0.5962198 -0.4845854 -0.13000804 -0.36509386
000110 6c b1 a4 3e e0 ea 86 3d 53 25 71 be 6e ec a6 3e
       0.32166612 0.065877676 -0.23549394 0.32602257
000120 fb 02 c9 3d e3 94 28 3d cb 0d a4 be ce de b0 be
       0.098150216 0.041157614 -0.32041773 -0.34544986
000130 b3 73 17 bd 3e 4d a5 3e 60 c9 17 bd 2f b6 20 3c
       -0.036975574 0.32285494 -0.03705728 0.009809061
000140 2f 24 c2 3d f0 a6 a7 be 8c 69 8a bd d1 f3 f0 3e
       0.09479558 -0.3274455 -0.06758413 0.47061017
000150 7b 15 a0 bd de ef 94 3e b4 cb 3a 3e 32 d0 80 be
       -0.07816597 0.29089254 0.18241769 -0.2515884
000160 60 2e 83 3d 8b 74 5b bb 95 b6 a3 3d 3f 56 13 3f
       0.0640533 -0.0033486213 0.07993809 0.57553476
000170 32 a9 03 bf 6b ed 9c be 76 2d 5f bd 8d 10 5e be
       -0.51430047 -0.30649886 -0.054486714 -0.21686001
000180 2c 91 54 3f 9d f8 80 3e a0 3b 3b bf 83 7b 8f 3d
       0.83034015 0.25189677 -0.73137856 0.0700598
000190 bf 78 eb 3d 52 16 a9 be 58 76 40 be 09 b8 13 3d
       0.1149764 -0.33024842 -0.18795145 0.03606418
0001a0 c2 07 07 3f 36 50 9c 3e 39 d5 52 3e 45 93 7d 3e
       0.5274621 0.30529946 0.2058915 0.2476321
0001b0 7d 68 3e 3f 70 67 77 3e 64 65 9a 3d 0a 9f 06 3e
       0.74378186 0.24160552 0.0753887 0.13146606
0001c0 af 6d 5e bc aa 81 12 bb 0c 47 4d 3c a6 73 6f 3e
       -0.013575955 -0.0022355118 0.012529146 0.2338396
0001d0 5e 3f 7b 3d 5b fd a0 be 2f ab 81 3e 66 86 b1 3e
       0.06133973 -0.31443295 0.25325915 0.3467285
0001e0 cb 22 6c 3e 99 4a c1 bd 64 60 92 3e cd 70 8d 3e
       0.23060147 -0.094380565 0.28589165 0.27625123
0001f0 0d 8c fe 3d 61 e5 99 be ff b6 52 bd 40 91 49 3e
       0.12429056 -0.30057815 -0.05144405 0.19684315
000200 eb da f9 3d 79 29 ed 3d a8 6f c4 be 43 06 a2 be
       0.121999584 0.11580176 -0.38366437 -0.31645402
000210 1c bb c7 be 26 ec f0 be 48 9c f6 bc e7 20 e6 be
       -0.3900994 -0.47055167 -0.030103818 -0.44946977
000220 0f 95 ab 3e c4 12 95 3c 7c ed 8d be ab 4c 1f be
       0.3351216 0.018197425 -0.2772025 -0.1555659
000230 eb d9 cc bd 98 78 77 3d f9 8b 5a 3e bf b1 a6 3e
       -0.10002502 0.06041774 0.21342458 0.32557485
000240 d0 39 67 bf 11 73 83 be 40 d5 08 3f f2 38 71 3d
       -0.9032259 -0.25673726 0.53450394 0.058892198
000250 29 1d b7 3e 5d 3e d0 3e 3e 9d 72 3e 3f f8 cc 3e
       0.35764435 0.4067258 0.23692796 0.40033147
000260 81 83 08 3d a0 ce 1b be 5f 49 c6 3d 89 7b 20 3e
       0.033328537 -0.1521554 0.09681963 0.15672125
000270 79 b5 1d be f9 e3 7d bd af 2f 68 be 19 cc df 3e
       -0.15401258 -0.06198499 -0.2267444 0.43710402
000280 ea dd ab bd c4 65 0f be 9c e9 e4 3d a1 f7 37 3e
       -0.08391936 -0.14003664 0.1117737 0.17965557
000290 49 74 6a be 62 fd 0b 3f 6e 61 0b bd 90 6b c5 be
       -0.22895922 0.54683506 -0.034028463 -0.38558626
0002a0 1c 7b 2e be 00 b7 b9 3e 4a 71 4f be 09 62 7a be
       -0.1703915 0.3627243 -0.2025806 -0.2445146
0002b0 9b c3 4a 3e f3 96 fc 3d 95 2a 10 3c 25 4d 6a be
       0.1980118 0.12333479 0.008799215 -0.22880991
0002c0 25 f5 b2 3e 59 6c b6 bd 76 10 6c bd 2a 9f 8e 3e
       0.34952655 -0.089073844 -0.057632886 0.27855808
0002d0 30 d7 97 3e df 2b fb be 8f 5e 30 3e a5 71 9b 3e
       0.29656363 -0.49056908 0.17223571 0.3036014
0002e0 d2 9f 90 3d 92 7c 99 be ac e0 c0 3e d9 3a c0 3e
       0.07061733 -0.29977852 0.3767141 0.37544897
0002f0 74 af 4e 3e 65 7f e1 be 00 11 46 3d 21 a6 16 3e
       0.20184118 -0.44042507 0.048356056 0.1471181
000300 92 91 99 3e 4d 30 0d 3d 9f bb 85 3d 65 de fb bd
       0.29993874 0.03446989 0.065299265 -0.12298278
000310 0c 0c 52 bd 67 c9 3f be 1f 86 b4 be 9f 41 b1 be
       -0.05128102 -0.18729173 -0.35258576 -0.34620377
000320 0a b9 32 bf 21 48 43 bd 99 5f 42 3f 2f 77 96 3e
       -0.698136 -0.04767621 0.7592712 0.29387805
000330 ee d1 84 bd df 82 be 3e 49 d7 31 3c 4d 07 29 bf
       -0.064853534 0.37209222 0.010854551 -0.66026765
000340 c7 c0 9d 3e 5a f2 3f 3d 6c db 00 3e 09 36 a2 3e
       0.3081114 0.046861984 0.12583703 0.3168185
000350 de 75 1f 3f c9 51 71 3e 6c c7 48 3e ca 44 22 3e
       0.62289226 0.23566355 0.19607323 0.15846553
000360 21 1f 15 3f 1c 82 d7 bc 02 58 42 bf f7 ec a0 be
       0.58250624 -0.026307158 -0.7591554 -0.3143079
000370 83 b4 18 bd 5d 6d 4a 3e 63 d3 f7 bd 51 d1 23 bf
       -0.037281524 0.19768281 -0.12100866 -0.63991266
000380 24 d5 60 3e 87 35 d9 3d da 61 41 bd dd a4 74 be
       0.21956307 0.10605913 -0.04721246 -0.23891015
000390 42 4f 45 bf b8 6c 44 3c 73 d9 08 3f 8a a9 c9 3e
       -0.7707406 0.011988811 0.534568 0.3938716
0003a0 1b 7e 30 bb 6e 96 8b 3e b6 8e 0d be 79 25 71 be
       -0.0026930633 0.27263206 -0.13823971 -0.23549451
0003b0 16 85 93 be 89 95 bb 3e 72 40 19 be 6e a2 e6 be
       -0.28812474 0.36637524 -0.1496599 -0.450458
0003c0 b3 2f 79 3c 42 a6 98 3e e1 eb 65 bd 2e 3c 6c be
       0.015209126 0.29814345 -0.056133155 -0.23069832
0003d0 f8 c6 74 3f c1 d1 52 3e 3e e4 1e 3e 50 42 aa 3d
       0.956161 0.20587827 0.15516755 0.08313429
0003e0 5c a5 11 bf 27 7f 99 be f0 a2 9c be 96 95 81 be
       -0.56892943 -0.29979822 -0.3059306 -0.25309438
0003f0 f5 f0 99 3d e1 da 49 3e ce 33 2e be 09 11 94 be
       0.07516662 0.19712402 -0.1701195 -0.28919247

shared_fc.0.bias f4 [64]
000000 6c 85 81 3f 11 5f 85 3f a2 1b 86 3f 67 6e 73 3f
       1.0118842 1.0419637 1.0477183 0.95090336
000010 93 e5 7b 3f 34 7a 87 3f 9e 7b 7c 3f 28 15 e5 bd
       0.9839718 1.0584168 0.98626125 -0.11185676
000020 ce 6c f5 bd 0b 18 8a 3f 41 8b b7 bd 93 20 6d 3f
       -0.119836435 1.0788587 -0.089621074 0.9262783
000030 a7 9a 88 3f 96 16 79 3f 3d 4d da bd 65 c7 09 be
       1.0672196 0.9730009 -0.10659263 -0.13454969
000040 51 d3 ab bd a7 5a 88 3f 87 2a 78 3f fa 80 85 3f
       -0.08389915 1.0652665 0.9693989 1.0429986
000050 d5 5e 8e 3f 10 4c 8c 3f 8d 42 71 3f b0 f2 99 bd
       1.112269 1.0960712 0.94242173 -0.07516992
000060 49 78 24 be b2 48 79 3f e6 bb c6 bd c8 eb 12 be
       -0.1606151 0.9737655 -0.097038075 -0.14347756
000070 3a d0 87 3f 92 a5 80 3f 95 fe 74 3f a7 af 8a 3f
       1.0610421 1.0050528 0.9570096 1.0834855
000080 21 f9 81 3f 88 73 80 bd c6 91 87 3f b1 9e 6d 3f
       1.0154153 -0.06272036 1.0591362 0.9282027
000090 94 ba 22 be 62 3a b2 bd 10 41 71 3f ff ac 8b 3f
       -0.15891486 -0.08702542 0.942399 1.0912169
0000a0 7c 29 8b 3f 2b 9a 79 3f 84 29 8c 3f 15 cf 8c 3f
       1.0872035 0.97500867 1.095017 1.1000696
0000b0 51 bf 62 3f b1 a8 84 3f 5f 9b 89 3f 19 69 88 3f
       0.88573176 1.036398 1.075054 1.0657073
0000c0 bb 4b 80 3f 15 24 88 3f 9f 37 e9 bd 7c b2 7b 3f
       1.0023111 1.0636011 -0.11387562 0.9831922
0000d0 b2 f6 83 3f 32 ec db bd 17 8d a1 bd d1 b6 8a 3f
       1.030966 -0.1073841 -0.07888239 1.0837041
0000e0 f4 51 8b 3f d5 a0 04 be 7b d5 73 3f 94 68 80 3f
       1.0884385 -0.12951978 0.9524762 1.0031915
0000f0 61 d3 8e 3f 64 98 28 be 0e 7c 6e bd dd 0e 83 3f
       1.1158258 -0.16464382 -0.058223777 1.0238911

actor_head.weight f4 [2, 64]
000000 3f b5 65 bc 94 33 55 3e 00 38 78 3e 1f 3d 5f 3e
       -0.014020263 0.20820457 0.24240112 0.2180066
000010 26 b6 20 3e 20 1b 3e 3d 24 8f 8e be a0 38 8e 3d
       0.15694484 0.046412587 -0.27843583 0.06944394
000020 42 90 dd 3d 16 c0 eb 3c 82 5e ae 3e 89 e7 73 bb
       0.108185306 0.028778117 0.3405648 -0.0037216863
000030 83 78 0b be e1 0e 4c bd 54 b2 2d be 96 f7 b6 bd
       -0.1362019 -0.049818877 -0.16962558 -0.08933942
000040 d1 9b cb 3d 9f 1f db bd 54 a5 24 3e 60 45 ba bd
       0.09941829 -0.106993906 0.16078693 -0.090952635
000050 70 a9 85 bd d7 9f a5 bc f2 e2 55 be 58 50 1a 3e
       -0.06526458 -0.02021782 -0.20887354 0.15069711
000060 ac 81 af 3c 3a 99 8a 3d c8 a8 22 be ef 31 88 bd
       0.021424137 0.06767507 -0.15884697 -0.06650149
000070 06 83 28 be b9 1c 95 bd 49 41 1f be 59 85 83 bc
       -0.16456231 -0.07280869 -0.15552248 -0.016054796
000080 4c 6b 05 3e f8 94 3d 3e 45 dd 04 3e 56 1e 7a be
       0.13029212 0.18513858 0.12975033 -0.24425635
000090 a0 16 26 bd d5 c7 68 be 81 bc a4 bd 97 58 ed bd
       -0.04054892 -0.2273248 -0.08043767 -0.11589163
0000a0 88 f9 bb bd 94 04 a5 bc b2 ae dc 3c 1d 6c 93 3d
       -0.09178454 -0.020143785 0.02693877 0.07198355
0000b0 49 e4 f2 bd d5 3d df 3b 91 89 97 bd 8e ab 5e 3c
       -0.11859948 0.006812791 -0.073992856 0.0135907065
0000c0 3b 8e 8c 3d 79 66 60 3e b4 08 45 be 88 58 a4 3d
       0.06863066 0.2191409 -0.19241601 0.080246985
0000d0 7c be 44 be f8 c3 02 be c4 21 7c 3e ed d4 dd 3d
       -0.19213289 -0.12770069 0.24622256 0.10831628
0000e0 0a c0 79 3d f8 a0 50 be 2e b6 4a bc de 6c 3e 3d
       0.06097416 -0.20373905 -0.012372537 0.046490543
0000f0 50 a7 3f 3c c4 19 83 bd 33 38 4b 3e ca f8 0e 3d
       0.011697605 -0.06401399 0.19845657 0.034905232
000100 9d d6 96 3c 19 e6 5f be 93 c5 81 be 77 63 62 be
       0.018412882 -0.21865119 -0.2534605 -0.22108255
000110 39 04 3a be a2 6d 2d bd 12 6d 93 3e 18 48 87 bd
       -0.18165673 -0.042340882 0.28794152 -0.06605548
000120 4e 03 fe bd 33 34 6c bd 9c a3 98 be d3 3a ea bb
       -0.12402974 -0.05766697 -0.29812324 -0.0071481257
000130 96 69 16 3e 61 b0 9c 3d a6 e9 1c 3e 09 d1 9a 3d
       0.14688715 0.07650829 0.15323505 0.075594015
000140 aa 3a 24 be 40 42 d7 3d a2 e4 30 be 6f 24 ad 3d
       -0.16038004 0.10510683 -0.17274716 0.08454215
000150 0c e5 1e 3d 6f ec 8c 3a da b6 61 3e b8 d9 2e be
       0.038792655 0.0010751615 0.22042409 -0.1707524
000160 ba 14 2d bd 3b ba 9f bd ff 2a 36 3e bb f2 93 3d
       -0.042256095 -0.077991925 0.17789839 0.072240315
000170 47 0c 05 3e 0f 68 a7 3d fd ea 31 3e bf f0 24 3d
       0.12992965 0.081741445 0.17374797 0.040268656
000180 c4 54 0c be 4e 32 38 be fe 54 e8 bd b0 16 83 3e
       -0.1370421 -0.1798794 -0.11344336 0.25603247
000190 44 0f 5c 3d 42 98 5a 3e 67 12 8e 3d c6 87 d5 3d
       0.053725496 0.21347144 0.06937104 0.10426287
0001a0 ab ef a0 3d 7d e5 01 3d eb 8d c3 bc 0b bd a6 bd
       0.07858213 0.031712998 -0.023871383 -0.08141526
0001b0 a0 26 b2 3d af 97 87 3c 4f 1e 74 3d 5c f9 60 bc
       0.086987734 0.01655182 0.059599217 -0.013731327
0001c0 db b6 3e bd 29 e7 62 be 8e b5 45 3e a2 79 6b bd
       -0.046561103 -0.22158493 0.19307539 -0.057489045
0001d0 bd 36 53 3e 45 f1 04 3e 45 f1 81 be 9c 41 f1 bd
       0.2062635 0.12982662 -0.25379387 -0.11780092
0001e0 1e 52 79 bd 78 39 50 3e bc 88 74 3c c8 8a 21 bd
       -0.06086933 0.20334423 0.014925178 -0.039438993
0001f0 11 a1 d0 b9 a2 72 86 3d d5 6b 40 be 17 3c 8d bd
       -0.00039792855 0.06564833 -0.18791135 -0.06896227

actor_head.bias f4 [2]
000000 fd 06 e2 bc ff 06 e2 3c
       -0.027591223 0.027591227

critic_head.weight f4 [1, 64]
000000 53 b4 7a 3f ea 45 81 3f 14 ea 7b 3f f5 15 92 3f
       0.979314 1.0099461 0.9840405 1.1412951
000010 73 8c 8c 3f 20 fa 87 3f 84 29 8c 3f 21 e4 38 bf
       1.0980362 1.0623207 1.095017 -0.722231
000020 08 0d 52 bf e1 7d 7e 3f 1e 2b 3a bf d2 93 98 3f
       -0.82051134 0.99410826 -0.7272204 1.1920111
000030 5c d8 82 3f 06 e7 8c 3f c6 a4 6e bf fc 1d 1c bf
       1.0222278 1.1008003 -0.93220174 -0.6098325
000040 d8 64 e1 be f3 37 89 3f 97 34 8e 3f 52 90 87 3f
       -0.4402225 1.0720199 1.1109799 1.0590918
000050 1f 96 68 3f 06 c8 7c 3f 06 ed 92 3f e9 c5 29 bf
       0.90854067 0.9874271 1.1478584 -0.6631761
000060 c3 86 13 bf b1 62 89 3f d8 fa 1d bf fd 5c 1f bf
       -0.57627505 1.0733243 -0.6171088 -0.62251264
000070 0c 26 88 3f 6f ae 77 3f 02 de 93 3f e7 8f 7d 3f
       1.0636611 0.9675054 1.1552126 0.990477
000080 e0 a1 86 3f 17 c8 25 bf 21 72 86 3f 26 55 98 3f
       1.051815 -0.6475844 1.0503579 1.1900985
000090 51 26 2b bf d8 c1 07 bf 7d d2 94 3f ed 06 72 3f
       -0.6685534 -0.5303016 1.1626736 0.9454182
0000a0 57 9d 7b 3f b8 10 80 3f bb de 7a 3f 1e 99 81 3f
       0.98286957 1.0005102 0.9799611 1.0124853
0000b0 5c b4 b8 3f 92 6d 75 3f a1 d7 5d 3f 80 16 75 3f
       1.4430041 0.95870316 0.8665715 0.9573746
0000c0 60 2d 8e 3f c1 83 7b 3f ba 30 39 bf d4 4f 6f 3f
       1.1107597 0.98247916 -0.72339976 0.93481183
0000d0 a3 4c 8a 3f 4a 9d 31 bf 57 4c 03 bf 8c d9 6b 3f
       1.0804638 -0.6938063 -0.5128836 0.92128825
0000e0 90 06 81 3f 7f 11 37 bf 79 aa 42 3f 31 08 80 3f
       1.0080128 -0.7151107 0.7604137 1.00025
0000f0 4f 31 79 3f 54 09 17 bf 2d 68 20 bf f7 2b 85 3f
       0.97340864 -0.5899861 -0.6265896 1.0404042

exp_avg f4 [64, 4]
000000 19 84 bd 3b 0d 9b c1 bb 5e 87 24 3b 4f 09 89 ba
       0.0057835695 -0.005908376 0.00251051 -0.0010455045
000010 86 6f 8f 3b 76 c5 ee bb b4 f0 33 3b c1 80 27 ba
       0.0043773083 -0.007286723 0.0027456703 -0.000638973
000020 6b 20 86 3b dc 22 ec bb 68 59 30 3b 13 60 1e ba
       0.00409322 -0.007206304 0.002690876 -0.0006041538
000030 02 43 a5 3b c7 f0 05 bc 1f c8 4a 3b 33 0c 40 ba
       0.0050433883 -0.008175082 0.0030942035 -0.00073260366
000040 9b 4f a5 3b 99 ad fd bb ad e5 41 3b ea 84 3e ba
       0.00504489 -0.0077416417 0.002958636 -0.00072677305
000050 b2 4b b0 3b 4f 7f eb bb f0 b3 38 3b 5f fa 45 ba
       0.0053801173 -0.007186807 0.0028183423 -0.0007552262
000060 6a 47 e4 3b f1 0c d6 bb d7 03 36 3b e3 0f 74 ba
       0.006966521 -0.0065323045 0.0027773285 -0.00093102286
000070 b7 78 9f bb ba 8e de 3b 04 ef e0 ba cc 4b cb b9
       -0.0048666853 0.0067919167 -0.0017161076 -0.0003877565
000080 e7 0c 06 3a fd 37 b6 ba 9c c8 31 b9 51 ce 09 3a
       0.0005113617 -0.0013902184 -0.00016954768 0.0005256879
000090 8c 29 a5 3b 64 20 dc bb 6b c3 2c 3b 62 c4 39 ba
       0.005040353 -0.0067177285 0.0026361595 -0.0007086453
0000a0 39 ed 57 3a 09 0d 28 bb 7e e0 07 b9 01 63 8d 3a
       0.0008236948 -0.0025642535 -0.00012958233 0.0010786952
0000b0 ec a6 cc 3b d7 11 02 bc b7 12 4e 3b f4 ea 63 ba
       0.0062454846 -0.007938824 0.003144426 -0.00086943735
0000c0 86 b1 c3 3b 51 92 d2 bb f7 0d 2d 3b ec d9 54 ba
       0.00597209 -0.0064261337 0.0026406029 -0.0008119631
0000d0 6c 15 c6 3b d2 96 ea bb df a5 3c 3b eb 4d 5a ba
       0.006045034 -0.0071590925 0.002878539 -0.0008327651
0000e0 b4 9b aa bb f1 16 2b 3c a4 8e 16 bb b5 61 81 ba
       -0.0052065495 0.010442481 -0.0022973204 -0.0009871038
0000f0 28 03 fb 38 fe ea 0e ba fb cc 02 b9 0f c3 0b 39
       0.000119692006 -0.00054518867 -0.00012474127 0.00013328738
000100 ee 38 4d bb 03 c2 4f 3b 65 4f 83 ba 0f d6 4c 38
       -0.003131445 0.0031701333 -0.0010018168 4.8836748e-05
000110 60 b3 c7 3b 02 1d e0 bb be 6f 36 3b e2 cb 5a ba
       0.006094381 -0.0068393955 0.00278376 -0.0008346421
000120 97 c2 a7 3b 79 36 00 bc ed 1e 44 3b d7 12 41 ba
       0.0051196325 -0.007825487 0.002992566 -0.0007365173
000130 ce c6 c2 3b 5b ec de bb 3a ab 34 3b 47 01 56 ba
       0.0059441095 -0.006803078 0.002756788 -0.00081636425
000140 8a 93 a3 3b 4a f9 c0 bb 25 c6 1b 3b c2 25 37 ba
       0.0049919533 -0.0058890926 0.0023769226 -0.00069865223
000150 d0 78 ab 3b f4 13 d6 bb 99 43 2a 3b 51 d1 3e ba
       0.005232908 -0.0065331403 0.0025980233 -0.00072791154
000160 6c af e3 3b a1 96 e7 bb 56 e9 40 3b f7 ce 75 ba
       0.006948402 -0.007067517 0.0029435954 -0.00093768485
000170 ee 97 9d bb be 54 b7 3b a7 a4 c8 ba 0a b8 53 b9
       -0.004809371 0.005594819 -0.0015307859 -0.00020191088
000180 26 67 84 39 67 29 4c ba 06 1a 0c b9 f1 96 82 39
       0.00025253854 -0.0007788152 -0.00013361135 0.00024907992
000190 e6 24 ae 3b b8 7b f0 bb 6a 60 3b 3b 47 82 44 ba
       0.005314457 -0.007338967 0.0028591403 -0.00074962195
0001a0 a3 97 64 b8 9b 63 66 b9 4b 2b b9 b8 d7 c9 5b 37
       -5.450066e-05 -0.00021971615 -8.8295514e-05 1.3100412e-05
0001b0 1a 2a 6e 39 db fc 47 ba 3d 92 0f b9 ac c0 83 39
       0.00022713133 -0.0007628926 -0.00013692021 0.0002512982
0001c0 38 a6 cb 3b bd 14 db bb 8f 0f 34 3b cc 86 5d ba
       0.006214883 -0.006685822 0.0027475094 -0.0008450567
0001d0 3d ff b0 3b 22 7a cc bb 22 51 25 3b 09 32 42 ba
       0.0054015205 -0.0062401453 0.002522536 -0.00074079685
0001e0 cd 04 de 3b 0b 74 ed bb 47 6e 43 3b 67 5a 71 ba
       0.0067754746 -0.0072464994 0.002982037 -0.00092068914
0001f0 97 23 ae 3b e9 9e d5 bb 64 7c 2a 3b f1 df 40 ba
       0.0053143012 -0.0065191877 0.0026014084 -0.00073575886
000200 f1 54 a2 3b d8 8d f0 bb bb 05 39 3b 8d e4 39 ba
       0.0049539735 -0.007341128 0.0028232175 -0.00070912467
000210 26 9b 8a bb bb 1a 87 3b af da c3 ba be cb 91 39
       -0.004229921 0.0041230596 -0.0014942492 0.00027808355
000220 9d dd a3 3b fc 27 ef bb 35 76 38 3b e9 26 3b ba
       0.0050007836 -0.0072984677 0.0028146629 -0.0007139282
000230 49 e2 ef 3b a4 c5 ed bb 3b 54 47 3b 68 0c 81 ba
       0.0073206765 -0.0072562266 0.0030415196 -0.0009845616
000240 bd d2 84 bb 74 c6 e2 3b 9c 49 d7 ba 6e c8 28 ba
       -0.0040534423 0.00692063 -0.0016425136 -0.0006438558
000250 fe ef 79 b9 8e 8f a9 b8 d1 66 33 b8 f0 f2 ae 37
       -0.00023835895 -8.085287e-05 -4.277268e-05 2.0855543e-05
000260 cd 66 d2 3b a1 15 f7 bb fe 0e 47 3b ba 8f 67 ba
       0.006420946 -0.00754042 0.0030373926 -0.00088333676
000270 99 de b1 3b a1 af c4 bb d5 9c 20 3b 86 15 42 ba
       0.005428147 -0.006002382 0.0024507542 -0.000740372
000280 0e ce b4 3b 8c 0a cf bb 48 bb 27 3b 59 3c 46 ba
       0.0055177277 -0.006318396 0.0025593806 -0.0007562093
000290 d9 55 e5 3b 29 2e bd bb 4a a9 1a 3b 74 c7 92 ba
       0.006998759 -0.005773325 0.002359944 -0.0011198358
0002a0 52 1b a5 3b 2c 8c d7 bb e7 de 29 3b 31 10 39 ba
       0.005038657 -0.006577989 0.0025920214 -0.00070596026
0002b0 3d 99 a3 3b 04 0c e3 bb 37 ca 30 3b 07 3a 39 ba
       0.0049926327 -0.0069289226 0.0026975998 -0.00070658367
0002c0 ff 8b 03 3c ba b2 18 bc 84 b1 76 3b 93 ae 90 ba
       0.008028983 -0.0093199555 0.0037642429 -0.0011038355
0002d0 07 e8 a3 3b 8c 06 cd bb 97 8b 25 3b 44 55 48 ba
       0.005002025 -0.006256884 0.0025260204 -0.00076421
0002e0 49 21 9e 3b 4a 5e b7 bb 31 21 14 3b af 97 2d ba
       0.0048257452 -0.005595957 0.0022602791 -0.0006622029
0002f0 f8 7f a2 3b 1b 1b d2 bb 32 da 25 3b 07 61 35 ba
       0.0049591027 -0.0064119226 0.0025307056 -0.000691906
000300 99 44 b7 3b e6 cd f6 bb 8a 4b 41 3b 4b 69 4e ba
       0.0055928943 -0.007531869 0.0029494488 -0.0007873966
000310 92 b2 89 3b 7c 6c e9 bb 47 62 2f 3b 33 59 21 ba
       0.0042021954 -0.007123528 0.0026761459 -0.00061549543
000320 f4 00 75 bb 31 90 08 3c 24 d5 ea ba 42 fb 4e ba
       -0.0037384601 0.008335159 -0.0017916304 -0.00078957167
000330 a3 23 c8 3b 94 d0 c2 bb 39 81 11 3b 7e ff 4f ba
       0.006107764 -0.0059452746 0.0022202267 -0.00079344946
000340 e5 40 d6 3b f0 ea d9 bb 45 8e 35 3b 01 99 67 ba
       0.0065384977 -0.006650321 0.0027703207 -0.000883475
000350 c1 bc 81 39 5a c8 5e ba 08 1e 14 b9 f4 48 ae 39
       0.0002474543 -0.00084984826 -0.00014125567 0.0003324222
000360 dc 0d bd 39 d5 65 5c ba 73 8e b3 b8 a4 e4 b7 39
       0.00036059215 -0.0008407508 -8.5619184e-05 0.0003507483
000370 2d c5 a2 3b fb 62 b9 bb 67 62 1f 3b 16 9a 8a ba
       0.004967353 -0.0056575513 0.0024320127 -0.0010574486
000380 f6 13 a5 3b 5b ae e0 bb 46 9c 2f 3b 66 50 3a ba
       0.00503778 -0.0068567223 0.0026796027 -0.0007107317
000390 d3 5e 6d bb fb 17 0f 3c d1 06 e8 ba da a6 75 ba
       -0.003621985 0.008733745 -0.0017702227 -0.0009370871
0003a0 5e ec 84 3b 7b 28 a4 bb 31 e3 02 3b 03 eb 13 ba
       0.0040564975 -0.0050097085 0.0019971842 -0.00056426245
0003b0 af 0e a6 3b 97 8d dd bb 0d d7 2d 3b 01 bc 3a ba
       0.0050676684 -0.0067612636 0.0026525885 -0.00071233517
0003c0 19 d2 a6 3b 8a 5c d4 bb 72 3a 28 3b b7 4c 3a ba
       0.0050909636 -0.006480758 0.0025669602 -0.00071067683
0003d0 18 68 9d 39 d6 68 73 ba 0e d5 11 b9 9a d7 a2 39
       0.0003002293 -0.0009285336 -0.00013907647 0.00031059684
0003e0 7c 3b 9d bb f3 18 af 3b 68 c9 be ba a3 72 73 b9
       -0.004798351 0.0053435504 -0.0014555873 -0.00023216991
0003f0 11 e8 ab 3b 2c f3 e6 bb f3 f8 34 3b eb 9c 41 ba
       0.0052461703 -0.0070480313 0.0027614206 -0.00073857483

exp_avg_sq f4 [64, 4]
000000 04 47 61 3a f9 b7 18 3a 5e 0c 13 38 ce a9 2d 39
       0.0008593651 0.0005825754 3.505905e-05 0.00016561823
000010 ad 7a 7a 3a 7d 6d 33 3a 52 76 21 38 8e 7f 40 39
       0.0009555023 0.0006844623 3.8495586e-05 0.00018358065
000020 b3 0c 70 3a df 2e 2c 3a dd 42 1a 38 75 d3 37 39
       0.0009157166 0.00065682636 3.6778732e-05 0.00017531014
000030 4c 57 a2 3a ad 2a 69 3a cb a3 51 38 4e 1e 7b 39
       0.0012385636 0.0008894604 4.9982027e-05 0.00023948515
000040 31 40 93 3a 16 b3 52 3a d3 7e 40 38 a5 37 65 39
       0.001123434 0.000803755 4.589448e-05 0.00021859871
000050 47 14 89 3a 42 aa 43 3a 38 83 32 38 ed bb 54 39
       0.0010458314 0.000746403 4.2560714e-05 0.00020287903
000060 96 88 92 3a 69 f1 50 3a 5c 29 3f 38 72 76 64 39
       0.0011179622 0.0007970543 4.5576468e-05 0.00021787899
000070 f2 3a 84 39 6a 2e 48 39 0e 0e e4 36 18 7c 21 38
       0.0002522092 0.00019090777 6.7965657e-06 3.8500963e-05
000080 93 30 bd 39 95 ff 59 39 4a ee 02 37 39 2a 4c 38
       0.0003608508 0.00020789944 7.804085e-06 4.8676713e-05
000090 41 cc 6c 3a a4 fa 27 3a 3f 21 1c 38 f3 d0 38 39
       0.0009033122 0.0006407893 3.722426e-05 0.00017625447
0000a0 8b ca 95 39 81 3e 61 39 d7 2d 0c 37 3b 92 3f 38
       0.000285704 0.00021480957 8.355323e-06 4.5674136e-05
0000b0 44 f3 b0 3a 3c cd 7d 3a f4 0a 67 38 9c 94 8a 39
       0.0013500233 0.00096817664 5.5084893e-05 0.00026432134
0000c0 96 4a 7d 3a 80 4a 34 3a 2a a0 25 38 8c 0e 45 39
       0.0009662298 0.00068775564 3.948823e-05 0.00018792803
0000d0 cb 35 94 3a 73 a9 53 3a 7a c6 41 38 29 51 67 39
       0.0011307535 0.0008074261 4.619963e-05 0.00022060111
0000e0 b3 8b f9 39 92 79 af 39 ec cd 62 37 c9 65 82 38
       0.00047597065 0.00033469178 1.3518595e-05 6.217842e-05
0000f0 5f 86 40 39 0c de d4 38 6e 51 47 36 ea cd a9 37
       0.00018360604 0.00010150307 2.970071e-06 2.0242256e-05
000100 b3 22 9d 38 72 9e 6e 38 47 71 15 36 34 ec 66 37
       7.4928066e-05 5.6891186e-05 2.2268666e-06 1.3764064e-05
000110 83 d5 8b 3a 33 6c 48 3a 3b c8 36 38 29 38 58 39
       0.001066849 0.00076455175 4.357866e-05 0.00020620287
000120 b7 ae 98 3a 57 95 5a 3a 18 f0 45 38 8f 5b 6c 39
       0.0011648749 0.00083382934 4.7192065e-05 0.00022540822
000130 ce 45 87 3a 64 5a 40 3a 58 cd 30 38 23 38 52 39
       0.0010320486 0.0007337688 4.215291e-05 0.00020048073
000140 bf f3 45 3a 37 40 0b 3a ff 65 01 38 a1 3b 17 39
       0.00075512746 0.0005311998 3.0850988e-05 0.00014422696
000150 e1 69 69 3a 38 86 25 3a 5e 57 18 38 a5 9a 34 39
       0.0008904022 0.00063142506 3.632099e-05 0.00017223747
000160 e6 6b a2 3a 20 df 67 3a d3 22 54 38 c1 16 7d 39
       0.0012391775 0.0008845199 5.057717e-05 0.00024136437
000170 6d c1 50 39 ec 77 20 39 cf 35 b7 36 06 4d 0a 38
       0.00019908482 0.00015303463 5.460089e-06 3.2973498e-05
000180 64 36 28 39 76 38 bc 38 57 a8 27 36 47 ec 87 37
       0.0001604199 8.975055e-05 2.4982926e-06 1.620328e-05
000190 12 57 8e 3a 42 ee 4a 3a 3f 88 39 38 2a b8 5c 39
       0.0010859689 0.00077411917 4.4234326e-05 0.00021049441
0001a0 70 59 46 39 58 0c da 38 eb 0f 87 36 49 a1 cd 37
       0.0001891607 0.00010397349 4.0251666e-06 2.4513009e-05
0001b0 27 b2 48 39 e1 08 db 38 3c 11 48 36 82 75 a5 37
       0.00019139853 0.000104443876 2.9812354e-06 1.9724252e-05
0001c0 eb 7c 89 3a fe db 43 3a a6 c2 33 38 39 16 56 39
       0.0010489499 0.0007471441 4.2858206e-05 0.00020416909
0001d0 29 80 63 3a 41 2e 21 3a b4 8a 14 38 50 b8 2e 39
       0.000867846 0.0006148555 3.5415127e-05 0.00016662595
0001e0 42 7e a5 3a 5b 7f 6c 3a 4b 91 58 38 64 72 81 39
       0.0012626129 0.0009021663 5.1633728e-05 0.00024690025
0001f0 c2 de 6e 3a 6b 0e 2a 3a 27 eb 1b 38 46 02 39 39
       0.0009112173 0.0006487134 3.7173882e-05 0.00017643822
000200 40 83 86 3a b1 ab 3f 3a 74 e5 2f 38 bd bc 50 39
       0.0010262504 0.0007311656 4.1936946e-05 0.00019906736
000210 35 74 42 39 d5 ee 1b 39 bd 32 c4 36 e7 3d 23 38
       0.00018544572 0.00014870924 5.847162e-06 3.891988e-05
000220 26 4b 86 3a 17 62 3f 3a f0 de 30 38 49 ac 51 39
       0.0010245785 0.00073006883 4.2169297e-05 0.00019995974
000230 90 33 af 3a 6d ae 7a 3a d5 de 64 38 b6 66 89 39
       0.0013366807 0.00095627346 5.4566965e-05 0.00026207202
000240 73 c0 68 39 14 ae 25 39 98 1a b8 36 d2 69 ff 37
       0.00022196937 0.00015800475 5.4867232e-06 3.0447645e-05
000250 97 e9 10 39 24 8e 9e 38 8a 4b 5f 36 9b 73 a7 37
       0.00013819929 7.560503e-05 3.327356e-06 1.9961784e-05
000260 fb 67 a7 3a 44 b1 6f 3a 38 c5 5a 38 d9 f6 82 39
       0.0012772077 0.0009143541 5.2158925e-05 0.00024979448
000270 f5 e8 54 3a 7e a9 17 3a 82 37 0b 38 eb ea 24 39
       0.00081218715 0.0005785449 3.3191878e-05 0.00015727773
000280 e8 01 69 3a fa 3f 26 3a 21 4b 18 38 2f 38 35 39
       0.00088885287 0.0006341931 3.6309593e-05 0.00017282435
000290 a2 e7 67 3a f3 c1 15 3a 15 9f 16 38 67 b5 2f 39
       0.00088464667 0.00057127996 3.5910944e-05 0.00016756878
0002a0 e4 ab 64 3a c1 0b 22 3a 5c f8 14 38 9e 19 30 39
       0.00087231235 0.0006181561 3.5517252e-05 0.00016794211
0002b0 92 b6 77 3a cb ad 2f 3a 3c 66 22 38 50 8b 40 39
       0.00094495073 0.00067016174 3.8719023e-05 0.00018362445
0002c0 ce 64 00 3b c5 bb be 3a ec 55 ae 38 aa b6 d0 39
       0.0019591334 0.0014551809 8.312971e-05 0.00039808947
0002d0 bd 50 5e 3a 33 1d 1f 3a 7a a0 13 38 94 05 2a 39
       0.0008480659 0.00060697197 3.5196987e-05 0.00016214541
0002e0 c6 3e 32 3a 6d 48 fb 39 c0 1d e9 37 1e 2d 08 39
       0.0006799515 0.00047928412 2.7789618e-05 0.00012986778
0002f0 03 6f 5f 3a e6 8c 1e 3a ee dd 11 38 b0 9c 2b 39
       0.0008523317 0.0006048217 3.4777382e-05 0.00016366201
000300 ed c7 97 3a 95 4d 57 3a 6e 22 47 38 51 df 6c 39
       0.0011579968 0.000821316 4.7477362e-05 0.00022589906
000310 a8 0e 6d 3a 7a d2 29 3a 16 aa 18 38 d6 ea 35 39
       0.00090430165 0.0006478202 3.639803e-05 0.00017348988
000320 2a 11 8e 39 15 5e 4a 39 78 03 05 37 51 b6 10 38
       0.0002709714 0.0001929927 7.928225e-06 3.450207e-05
000330 1e ef 45 3a 0b 3c 05 3a f3 c9 03 38 ad e5 14 39
       0.0007550585 0.00050824945 3.1420914e-05 0.00014199941
000340 ef eb 8d 3a 40 e7 4a 3a 1d 64 3a 38 4b f2 5d 39
       0.001082776 0.00077401474 4.4439093e-05 0.00021166464
000350 82 cc 80 39 74 f4 0d 39 b4 c0 9b 36 36 7d fd 37
       0.00024566433 0.00013537874 4.6417936e-06 3.0218256e-05
000360 e8 3f 03 39 9a 55 a4 38 42 2b 5f 36 0d b3 a1 37
       0.0001251694 7.836074e-05 3.3254769e-06 1.9276073e-05
000370 7d 42 49 3a 07 21 0d 3a bd f1 02 38 f7 45 1a 39
       0.0007677449 0.00053836446 3.121955e-05 0.00014712648
000380 39 e3 74 3a e7 29 2d 3a ad fd 20 38 37 34 3e 39
       0.000934172 0.000660567 3.8383227e-05 0.00018139264
000390 5e f7 8c 39 26 dd 4c 39 ab 58 f7 36 77 85 0f 38
       0.00026887184 0.0001953734 7.371496e-06 3.4218156e-05
0003a0 8f 88 00 3a de 19 b2 39 ef f6 a8 37 79 53 c4 38
       0.00049031613 0.00033970078 2.0142148e-05 9.361556e-05
0003b0 d5 46 6e 3a 74 fb 28 3a 67 23 1b 38 ac 48 37 39
       0.0009089534 0.0006446161 3.698785e-05 0.00017479312
0003c0 51 3c 60 3a 1a 70 1e 3a 71 bc 13 38 0d 7f 2e 39
       0.000855391 0.0006043926 3.522303e-05 0.00016641263
0003d0 5e 4b 30 39 02 c0 c0 38 46 e9 23 36 97 5e 83 37
       0.00016812744 9.191038e-05 2.4424676e-06 1.5660464e-05
0003e0 a2 c7 35 39 99 b5 0b 39 cb 55 ae 36 6f 00 01 38
       0.00017335874 0.00013323723 5.1955917e-06 3.07564e-05
0003f0 65 02 82 3a 9b eb 38 3a e9 48 2b 38 6d 64 4b 39
       0.0009918927 0.0007054151 4.083748e-05 0.00019397

exp_avg f4 [64]
000000 65 9a a9 bc ed 34 a6 bc fa cf a0 bc 3c 79 bc bc
       -0.020703504 -0.020288909 -0.019630421 -0.023007028
000010 30 87 b6 bc 46 fa b3 bc f9 ef c2 bc 33 f5 24 3c
       -0.02228126 -0.021969926 -0.023796069 0.010068226
000020 02 35 4f 3b 84 63 a8 bc bc 3a 92 3b 16 63 cb bc
       0.0031617288 -0.020555265 0.004462568 -0.024827521
000030 6e 76 b2 bc f4 a3 bd bc 0c 9a 38 3c f0 0c e3 3a
       -0.021784987 -0.023149468 0.011267196 0.0017322581
000040 9f c3 e4 3b f3 fa b9 bc 0b d0 b8 bc ba 35 b7 bc
       0.0069813277 -0.02270267 -0.02256014 -0.022364486
000050 ab 67 9c bc cc c2 a8 bc fb 05 ca bc 3d 79 22 3c
       -0.019092401 -0.020600699 -0.024661055 0.009916601
000060 63 b7 fe 3a 63 15 b5 bc 40 80 ce 3a bc f9 04 3b
       0.0019433316 -0.022104925 0.0015754774 0.0020290455
000070 76 b2 b9 bc 1e 4d a7 bc 81 de c9 bc 12 d0 a9 bc
       -0.022668105 -0.020422515 -0.024642231 -0.020729098
000080 bc a6 af bc a1 53 30 3c f5 c5 af bc 6d 3d d2 bc
       -0.02144181 0.010762126 -0.021456698 -0.025664056
000090 6d e8 0d 3c 1a 2b 8f 3a 6f 8f c8 bc cf 6d a4 bc
       0.008661372 0.001092288 -0.024482457 -0.020071892
0000a0 31 20 aa bc 57 0d ad bc 3c 71 a6 bc 2d 92 aa bc
       -0.020767303 -0.021124525 -0.020317666 -0.020821655
0000b0 f7 4b f9 bc f9 16 a3 bc f5 bf 95 bc 5c fa a2 bc
       -0.03043173 -0.019908415 -0.018280009 -0.019894771
0000c0 ac ec bb bc 16 52 a1 bc 2f ff 0a 3c d2 07 9d bc
       -0.022940002 -0.019692462 0.008483692 -0.019168768
0000d0 31 17 be bc 73 1c 1b 3b 81 89 05 3b 30 f0 9c bc
       -0.023204418 0.002366808 0.0020376148 -0.0191575
0000e0 94 42 aa bc 8b 86 00 3c 58 0c 82 bc b8 66 a9 bc
       -0.0207837 0.007844578 -0.015875027 -0.020678863
0000f0 07 e5 a5 bc c1 b5 0c 3b 77 a1 1c 3c 0c 09 b0 bc
       -0.02025081 0.0021470638 0.009559981 -0.021488689

exp_avg_sq f4 [64]
000000 e5 2a ae 3a 15 c3 bd 3a bc 5c b5 3a 99 d8 f9 3a
       0.001328793 0.0014477695 0.0013836841 0.0019061744
000010 45 f0 e2 3a b2 f6 d0 3a ab 4f df 3a 84 fb 67 39
       0.0017314038 0.0015942662 0.0017037293 0.00022123574
000020 fa 52 9a 39 21 2c b5 3a bb 6b 90 39 9b 08 0a 3b
       0.0002943499 0.0013822356 0.00027546086 0.0021062258
000030 ef 4d c0 3a 27 2f e4 3a 49 e3 e0 39 39 0d f2 38
       0.0014671664 0.0017409072 0.0004289395 0.00011541922
000040 5b b6 92 38 3b b1 d4 3a 54 95 e9 3a 83 95 cd 3a
       6.995789e-05 0.0016227135 0.0017820993 0.0015684817
000050 c1 f1 95 3a 7e 7b b0 3a 83 d9 f9 3a 0f 76 3a 39
       0.0011439846 0.0013464538 0.0019062016 0.00017782323
000060 25 b1 d1 38 52 87 db 3a 2f 44 0f 39 58 d9 f9 38
       9.998892e-05 0.0016748703 0.00013662943 0.00011913729
000070 09 dc d0 3a 8f a9 ae 3a 83 ec fe 3a 2a 89 b5 3a
       0.0015934716 0.0013325679 0.0019449148 0.0013850082
000080 64 93 cd 3a 00 70 40 39 23 5c ce 3a e0 c0 07 3b
       0.0015684185 0.0001835227 0.0015744012 0.0020714328
000090 40 3c 52 39 22 e8 d3 38 a8 e7 01 3b 36 5a a1 3a
       0.00020049606 0.00010104502 0.0019821916 0.001231021
0000a0 f3 56 b1 3a e6 a8 b3 3a 2d b9 ac 3a 8d 86 bc 3a
       0.0013529941 0.0013706952 0.0013177745 0.0014383361
0000b0 bf 5a 53 3b bf 08 aa 3a 03 d0 85 3a aa 95 aa 3a
       0.0032250134 0.0012972577 0.0010209087 0.0013014574
0000c0 c7 7d e9 3a 10 3c b3 3a 76 95 82 39 f5 e0 9e 3a
       0.0017813974 0.0013674516 0.0002490689 0.0012121486
0000d0 0d da da 3a 04 7e 31 39 4c aa e8 38 17 c2 98 3a
       0.0016697064 0.0001692698 0.00011094342 0.0011654523
0000e0 43 cf ba 3a 6e fb 7b 39 71 40 3b 3a 37 4d b5 3a
       0.0014252443 0.0002403089 0.00071430864 0.0013832216
0000f0 85 81 aa 3a d2 92 de 38 ff d7 2e 39 6b b7 c7 3a
       0.001300857 0.00010613132 0.00016674398 0.0015237158

exp_avg f4 [2, 64]
000000 71 f8 b6 3a c3 a8 01 3b 4d 7a f8 3a 0e 22 de 3a
       0.0013959539 0.0019784428 0.0018957347 0.0016947405
000010 de 16 91 3a 8b 27 0b 3b b4 ed ec 3a a4 9d d6 3a
       0.0011069437 0.0021233286 0.0018076212 0.0016373885
000020 1f 55 c9 37 d1 3e a7 3a ba 87 95 36 a0 b2 e7 3a
       2.4000705e-05 0.001275981 4.4563467e-06 0.0017677136
000030 db 4c fe 3a 62 81 fe 3a 20 6d c6 3a 08 c4 4e 38
       0.0019401567 0.0019417221 0.0015138723 4.9296796e-05
000040 6d 84 e6 3a 80 30 92 3a 6f 66 a9 3a 68 2d c1 3a
       0.0017587073 0.001115337 0.0012924204 0.0014738264
000050 16 24 15 3b 6a 3e dc 3a 1e 79 da 3a ff 54 b4 3a
       0.0022757105 0.0016803269 0.0016668176 0.0013758241
000060 db c8 33 38 c3 37 f5 3a f8 72 53 38 ab f2 53 38
       4.2863987e-05 0.0018708635 5.0413393e-05 5.0532322e-05
000070 d2 53 ff 3a b7 a8 0e 3b fa c7 ba 3a 5f 66 07 3b
       0.0019479936 0.0021768042 0.0014250271 0.0020660383
000080 25 73 9f 3a ca f1 af 3a dd ca 85 3a 59 48 f6 3a
       0.0012165053 0.0013423499 0.0010207553 0.0018789872
000090 f2 22 0f 3b 61 b9 25 38 6a e4 f0 3a dc 38 1c 3b
       0.0021840897 3.9511713e-05 0.001837862 0.0023837602
0000a0 f0 0f 19 3b 62 cd b3 3a 4e 04 e0 3a 65 9f a8 3a
       0.0023355447 0.0013717825 0.0017091127 0.0012864886
0000b0 32 a5 7e 3a d2 79 fc 3a 55 17 16 3b 2d 1e 07 3b
       0.0009713947 0.001926238 0.002290209 0.0020617351
0000c0 f5 8a 89 3a 7e 1a 08 3b 52 90 d2 3a c6 0a 9e 3a
       0.0010493683 0.0020767744 0.0016064739 0.0012057654
0000d0 03 54 9a 3a 48 ec 55 38 22 d6 6c 35 2a 81 ca 3a
       0.0011774305 5.100321e-05 8.8228455e-07 0.0015449871
0000e0 8f 23 a1 3a f4 01 d7 3a fa 9a a1 3a ef c2 e6 3a
       0.0012293922 0.001640378 0.0012329512 0.0017605702
0000f0 70 b2 bf 3a ea 3b 79 38 6d 96 bf 3a 05 aa a6 3a
       0.0014625322 5.9422026e-05 0.0014616974 0.0012715465
000100 71 f8 b6 ba c2 a8 01 bb 4e 7a f8 ba 0a 22 de ba
       -0.0013959539 -0.0019784425 -0.0018957348 -0.00169474
000110 df 16 91 ba 8a 27 0b bb b1 ed ec ba a5 9d d6 ba
       -0.0011069438 -0.0021233284 -0.0018076209 -0.0016373886
000120 22 55 c9 b7 ce 3e a7 ba a1 87 95 b6 9f b2 e7 ba
       -2.400071e-05 -0.0012759806 -4.4563353e-06 -0.0017677135
000130 dd 4c fe ba 60 81 fe ba 22 6d c6 ba 06 c4 4e b8
       -0.0019401569 -0.0019417219 -0.0015138725 -4.929679e-05
000140 6c 84 e6 ba 82 30 92 ba 6f 66 a9 ba 69 2d c1 ba
       -0.0017587072 -0.0011153372 -0.0012924204 -0.0014738265
000150 15 24 15 bb 69 3e dc ba 1b 79 da ba fe 54 b4 ba
       -0.0022757102 -0.0016803268 -0.0016668172 -0.001375824
000160 db c8 33 b8 c2 37 f5 ba f5 72 53 b8 ad f2 53 b8
       -4.2863987e-05 -0.0018708634 -5.0413382e-05 -5.053233e-05
000170 d2 53 ff ba b8 a8 0e bb fa c7 ba ba 5d 66 07 bb
       -0.0019479936 -0.0021768045 -0.0014250271 -0.0020660379
000180 24 73 9f ba c9 f1 af ba dd ca 85 ba 5c 48 f6 ba
       -0.0012165052 -0.0013423498 -0.0010207553 -0.0018789875
000190 f2 22 0f bb 64 b9 25 b8 6c e4 f0 ba db 38 1c bb
       -0.0021840897 -3.9511724e-05 -0.0018378622 -0.00238376
0001a0 ee 0f 19 bb 64 cd b3 ba 50 04 e0 ba 69 9f a8 ba
       -0.0023355442 -0.0013717827 -0.0017091129 -0.0012864891
0001b0 35 a5 7e ba d0 79 fc ba 58 17 16 bb 2f 1e 07 bb
       -0.0009713949 -0.0019262377 -0.0022902098 -0.0020617356
0001c0 f2 8a 89 ba 7f 1a 08 bb 54 90 d2 ba c1 0a 9e ba
       -0.001049368 -0.0020767746 -0.0016064742 -0.0012057648
0001d0 05 54 9a ba 4c ec 55 b8 08 d6 6c b5 29 81 ca ba
       -0.0011774307 -5.1003226e-05 -8.822831e-07 -0.001544987
0001e0 8a 23 a1 ba f7 01 d7 ba fa 9a a1 ba f0 c2 e6 ba
       -0.0012293917 -0.0016403784 -0.0012329512 -0.0017605703
0001f0 72 b2 bf ba ec 3b 79 b8 6e 96 bf ba 05 aa a6 ba
       -0.0014625324 -5.9422033e-05 -0.0014616975 -0.0012715465

exp_avg_sq f4 [2, 64]
000000 a6 6a de 37 fb 21 e0 37 5d 2a e7 37 1e 16 ad 37
       2.6514124e-05 2.6718704e-05 2.7557073e-05 2.0633506e-05
000010 3c 12 bd 37 98 b5 df 37 bb 3d b5 37 80 d1 22 37
       2.2539047e-05 2.6668233e-05 2.1605627e-05 9.7047305e-06
000020 49 f0 09 37 09 6e ea 37 b1 51 f7 36 ae 3c ae 37
       8.221782e-06 2.7946213e-05 7.3706838e-06 2.0770673e-05
000030 28 40 da 37 ed a8 ba 37 82 86 00 37 9c 55 19 37
       2.60175e-05 2.225159e-05 7.660712e-06 9.139443e-06
000040 64 c1 51 37 33 a5 e7 37 8b bb ae 37 c2 06 d3 37
       1.2502398e-05 2.7614273e-05 2.0829748e-05 2.5156307e-05
000050 68 51 12 38 fa 95 ea 37 bb 7f aa 37 37 74 da 36
       3.4884928e-05 2.7964812e-05 2.0325058e-05 6.5104355e-06
000060 bd d0 4c 37 c9 03 cd 37 e9 89 df 36 29 ef 29 37
       1.2207948e-05 2.4439667e-05 6.6619727e-06 1.0128869e-05
000070 d1 ab d2 37 7f b8 f5 37 b1 d1 a9 37 e4 f6 f7 37
       2.5113959e-05 2.9292189e-05 2.0244015e-05 2.9559662e-05
000080 5a 8c c7 37 ea 68 eb 36 2f 62 e7 37 72 39 a5 37
       2.3788005e-05 7.0157594e-06 2.7583066e-05 1.9696283e-05
000090 3c 90 98 37 8f 06 a8 36 b7 b2 ae 37 31 44 04 38
       1.8186976e-05 5.0075537e-06 2.0825637e-05 3.153476e-05
0000a0 1b 59 ff 37 99 bc de 37 94 f0 ec 37 db 1a f1 37
       3.0439862e-05 2.6552285e-05 2.824542e-05 2.8741944e-05
0000b0 6a d7 9b 37 63 88 fd 37 ea 95 05 38 4c 38 03 38
       1.857775e-05 3.022346e-05 3.184929e-05 3.1285264e-05
0000c0 02 75 ca 37 50 a4 ef 37 62 c5 0e 37 e9 70 e5 37
       2.4134762e-05 2.8567534e-05 8.509816e-06 2.7351505e-05
0000d0 08 f2 d5 37 37 82 fa 36 d0 10 76 36 19 27 ee 37
       2.5504283e-05 7.4657396e-06 3.6666643e-06 2.8390017e-05
0000e0 45 ac ed 37 bf e2 18 37 44 65 af 37 df e0 d0 37
       2.833282e-05 9.112699e-06 2.0908781e-05 2.4900246e-05
0000f0 cf 78 fa 37 f4 0d 80 37 79 07 02 37 d0 dc ce 37
       2.9858578e-05 1.5265286e-05 7.750344e-06 2.4659937e-05
000100 a5 6a de 37 fb 21 e0 37 5d 2a e7 37 21 16 ad 37
       2.6514123e-05 2.6718704e-05 2.7557073e-05 2.0633512e-05
000110 3d 12 bd 37 97 b5 df 37 bb 3d b5 37 7f d1 22 37
       2.2539049e-05 2.6668231e-05 2.1605627e-05 9.70473e-06
000120 49 f0 09 37 0c 6e ea 37 b1 51 f7 36 ad 3c ae 37
       8.221782e-06 2.7946218e-05 7.3706838e-06 2.077067e-05
000130 2b 40 da 37 ed a8 ba 37 83 86 00 37 9d 55 19 37
       2.6017506e-05 2.225159e-05 7.660713e-06 9.139444e-06
000140 64 c1 51 37 34 a5 e7 37 8c bb ae 37 c0 06 d3 37
       1.2502398e-05 2.7614275e-05 2.082975e-05 2.5156303e-05
000150 69 51 12 38 fa 95 ea 37 bb 7f aa 37 36 74 da 36
       3.488493e-05 2.7964812e-05 2.0325058e-05 6.510435e-06
000160 bb d0 4c 37 c9 03 cd 37 e9 89 df 36 29 ef 29 37
       1.2207946e-05 2.4439667e-05 6.6619727e-06 1.0128869e-05
000170 d1 ab d2 37 80 b8 f5 37 b2 d1 a9 37 e5 f6 f7 37
       2.5113959e-05 2.929219e-05 2.0244017e-05 2.9559664e-05
000180 59 8c c7 37 e8 68 eb 36 2b 62 e7 37 72 39 a5 37
       2.3788003e-05 7.0157585e-06 2.7583059e-05 1.9696283e-05
000190 3a 90 98 37 8d 06 a8 36 ba b2 ae 37 31 44 04 38
       1.8186973e-05 5.0075528e-06 2.0825642e-05 3.153476e-05
0001a0 1b 59 ff 37 9b bc de 37 94 f0 ec 37 db 1a f1 37
       3.0439862e-05 2.6552289e-05 2.824542e-05 2.8741944e-05
0001b0 66 d7 9b 37 63 88 fd 37 ea 95 05 38 51 38 03 38
       1.8577743e-05 3.022346e-05 3.184929e-05 3.1285283e-05
0001c0 fe 74 ca 37 52 a4 ef 37 62 c5 0e 37 e7 70 e5 37
       2.4134755e-05 2.8567538e-05 8.509816e-06 2.7351502e-05
0001d0 0a f2 d5 37 37 82 fa 36 d1 10 76 36 18 27 ee 37
       2.5504287e-05 7.4657396e-06 3.6666645e-06 2.8390015e-05
0001e0 48 ac ed 37 c0 e2 18 37 44 65 af 37 df e0 d0 37
       2.8332826e-05 9.1127e-06 2.0908781e-05 2.4900246e-05
0001f0 cf 78 fa 37 f5 0d 80 37 7a 07 02 37 d0 dc ce 37
       2.9858578e-05 1.5265288e-05 7.750345e-06 2.4659937e-05

exp_avg f4 [2]
000000 28 cf e4 3a 28 cf e4 ba
       0.0017456757 -0.0017456757

exp_avg_sq f4 [2]
000000 19 29 f8 37 1a 29 f8 37
       2.9583041e-05 2.9583043e-05

exp_avg f4 [1, 64]
000000 33 76 c4 bc 45 e3 b6 bc f6 ab a4 bc cd d6 a5 bc
       -0.023982143 -0.022325167 -0.020101529 -0.020244027
000010 0f 7c b6 bc 74 7a c2 bc c9 3b b0 bc 87 cd 82 39
       -0.022275953 -0.02374003 -0.021512883 0.00024948662
000020 c9 2e 21 38 53 3c b2 bc 3f af 0b ba 30 a1 93 bc
       3.8428963e-05 -0.02175728 -0.0005328543 -0.018021196
000030 e0 95 b1 bc 92 91 a4 bc b5 44 1a ba 88 60 e8 39
       -0.021677911 -0.020088945 -0.0005884872 0.0004432241
000040 2c ee b5 3a ff 23 b2 bc 76 d3 a7 bc 16 9b c5 bc
       0.0013880185 -0.02174568 -0.020486575 -0.024121802
000050 2f bb ab bc ca 62 c8 bc 5b 2a 9f bc bc 45 dd 39
       -0.02096328 -0.024461169 -0.019429376 0.0004220436
000060 01 bf a4 39 5e 08 93 bc af f6 cc 39 32 dc e4 39
       0.00031422827 -0.017948326 0.00039093706 0.00043651607
000070 27 3d b6 bc ea e3 93 bc 32 46 8f bc 96 04 a5 bc
       -0.022245957 -0.018053014 -0.017489526 -0.020143788
000080 bb 44 b4 bc 57 f3 19 3b 51 e7 ab bc 3c e7 a2 bc
       -0.02200543 0.002349099 -0.020984324 -0.019885652
000090 be ed 92 39 5d 5f bf 39 82 7c 95 bc 00 91 c4 bc
       0.00028024422 0.0003650141 -0.018247847 -0.023994923
0000a0 d7 bf b3 bc 0c f4 cb bc 36 73 d8 bc 20 eb b7 bc
       -0.021942062 -0.024896644 -0.026422124 -0.022450984
0000b0 cd b2 85 bc aa 0e 87 bc b0 be 9d bc 2a 8e 94 bc
       -0.01632061 -0.016486485 -0.019255966 -0.018134195
0000c0 7d 66 9d bc b5 95 b2 bc 33 de e9 b9 5d 6e b8 bc
       -0.01921391 -0.021799902 -0.00044606774 -0.022513563
0000d0 77 f9 a3 bc 7e c6 c0 39 35 a5 82 b8 20 99 c3 bc
       -0.020016415 0.00036768982 -6.229655e-05 -0.023876727
0000e0 22 36 b5 bc c5 cd eb ba 16 98 b2 bc 6e a6 cb bc
       -0.02212054 -0.0017990401 -0.021801036 -0.024859633
0000f0 af 68 cd bc 55 02 d6 39 e5 6e 5e ba f2 b8 b7 bc
       -0.025074331 0.00040818998 -0.00084851525 -0.022427056

exp_avg_sq f4 [1, 64]
000000 f5 61 d0 3a 4d 29 d5 3a 45 a6 da 3a eb 06 ab 3a
       0.0015898334 0.0016262919 0.0016681632 0.0013048326
000010 26 c8 be 3a 1a 10 d6 3a d5 d7 b5 3a 8c e3 83 39
       0.0014555498 0.0016331703 0.0013873527 0.00025155803
000020 b0 bd ab 39 df 91 e2 3a e7 8b b3 39 66 63 9f 3a
       0.0003275699 0.0017285905 0.00034245776 0.001216036
000030 ab 54 d5 3a 18 08 af 3a 8b 90 77 39 0c 35 a6 39
       0.0016275843 0.0013353853 0.00023609602 0.0003170151
000040 c4 9c a7 39 e5 0c dd 3a cf 2b b3 3a 4a cf d0 3a
       0.00031969522 0.0016864805 0.0013669672 0.0015930918
000050 78 0c f8 3a fc 61 ea 3a 31 b7 a6 3a 6b 15 32 39
       0.0018924614 0.0017881985 0.001271939 0.00016983382
000060 bd 1f e9 39 aa 71 b5 3a b6 c1 66 39 05 73 bf 39
       0.0004446487 0.0013843079 0.00022006672 0.00036516055
000070 71 94 d0 3a 1c ba c6 3a c9 38 a8 3a 76 af e1 3a
       0.001591338 0.0015161666 0.0012834306 0.0017218429
000080 75 70 c8 3a 33 06 43 39 70 63 df 3a 58 8a 9f 3a
       0.0015292304 0.00018598959 0.0017043184 0.0012171967
000090 ea 05 01 3a 67 e3 1f 39 47 95 a2 3a d8 b3 eb 3a
       0.0004921841 0.00015248136 0.0012404107 0.0017982675
0000a0 82 44 e4 3a 8a bd cb 3a f4 1f ee 3a 9e 2e ec 3a
       0.0017415436 0.0015544158 0.0018167482 0.0018019264
0000b0 dd 48 95 3a c6 f9 d6 3a f6 d8 e0 3a 26 b1 df 3a
       0.0011389513 0.0016401343 0.0017154503 0.0017066344
0000c0 23 33 c2 3a cc a5 df 3a 78 9a 8d 39 d4 b0 cf 3a
       0.0014816265 0.0017062961 0.00027008704 0.0015845546
0000d0 4b 06 cd 3a ee 40 89 39 26 d1 25 39 d2 0c ee 3a
       0.0015642134 0.00026179053 0.0001581354 0.001816178
0000e0 0c 97 e7 3a 64 30 9c 39 97 78 a7 3a a8 df ce 3a
       0.0017668917 0.00029790692 0.0012777027 0.0015783207
0000f0 58 49 f4 3a 29 b2 16 3a 23 81 5d 39 2a e5 ca 3a
       0.0018637581 0.0005748594 0.0002112431 0.0015479673
