savedModels/ppo_cartpole_163840.pth (torch, 13659 bytes, 15 tensors)

shared_fc.0.weight f4 [64, 4]
000000 cb 91 96 bc e3 1f e9 3e 6e 93 4c ba a7 94 de be
       -0.018380066 0.4553214 -0.0007803951 -0.43472788
000010 8e f2 87 bd cc 0e 38 be 3a c2 49 bf 8e 33 91 be
       -0.066380605 -0.17974395 -0.7881199 -0.28359646
000020 c1 81 9a 3b 97 b2 bf be 1e 3e 04 bf 95 7e 04 bf
       0.004715175 -0.3744094 -0.51657283 -0.5175565
000030 06 5a 3f bd bb 8d fe bd 3f b8 0f bf 02 ac 6f be
       -0.046716712 -0.12429377 -0.5614051 -0.2340546
000040 06 8f c7 3d 4f 7b 21 3d 50 37 56 bf 49 79 88 be
       0.097440764 0.039424237 -0.8367815 -0.26655033
000050 22 c9 cb bd ef 8a 3f bc fa 7e 08 bf ce 30 2a bd
       -0.099504724 -0.011690839 -0.5331875 -0.04155045
000060 6e 7e fe bd 1f 73 76 3e 7e ed 16 3f 43 5d ba 3e
       -0.12426458 0.24067353 0.58956134 0.36399278
000070 32 b3 32 be 3e 72 eb bd d9 92 6f be a0 dd c9 bd
       -0.1745117 -0.11496399 -0.23395862 -0.09856725
000080 d9 fa a0 3e dd 4a 2e 3c 74 83 35 3c d3 3e c9 bb
       0.31441382 0.010637966 0.011078704 -0.0061415224
000090 c9 7c 3d 3e 8d 22 5f 3d a9 66 26 bd 64 77 b3 be
       0.18504633 0.05447631 -0.040625248 -0.35052025
0000a0 da b2 e3 3e 2c a7 5e be 7c 91 14 be 0d e3 47 be
       0.4447239 -0.21743459 -0.14508623 -0.19520207
0000b0 a8 df 6b 3b 11 1d 73 be 09 45 01 bd c8 48 56 3e
       0.0035991464 -0.23741557 -0.031559978 0.20926201
0000c0 bb 93 1e 3b 33 87 3d 3d 45 ae b1 3e c5 1c a7 3e
       0.002419694 0.046271514 0.3470327 0.32639137
0000d0 6a 97 b3 bd 9a fa b6 bb e7 ef bc 3d 3e e4 b2 3d
       -0.08769114 -0.0055840733 0.09225445 0.0873494
0000e0 95 8f 2f be 3f 3e 82 bd 54 14 3b be c2 04 b0 bb
       -0.17144616 -0.06359529 -0.18269473 -0.005371661
0000f0 3d 77 43 3e d8 fb 01 3e 9f 83 14 3e 15 24 f6 3d
       0.19088455 0.12693727 0.14503334 0.12018601
000100 9a af 01 bd 5d 90 b5 be 34 c5 bc be 52 5f c1 bd
       -0.031661607 -0.35461703 -0.36869204 -0.09442009
000110 61 dd 58 3e 28 f0 5e 3e d5 9d 6a 3d ed 8a 9d 3e
       0.211782 0.217713 0.057279427 0.30770054
000120 53 f1 13 3c 95 24 a4 bd 8a 75 ee be 81 d4 9e be
       0.009029704 -0.0801479 -0.4657405 -0.31021503
000130 ed 8f 57 be 4c e6 9c 3e fc 98 38 3e 03 5e 6b 3d
       -0.21050997 0.30644453 0.18027109 0.057462703
000140 e2 d3 9e bb 8a e5 29 be 8e 46 b0 3e e2 f2 de 3e
       -0.0048470357 -0.16591468 0.3442883 0.4354468
000150 c8 fd 43 be 92 66 53 3e c0 34 ab 3d 58 93 82 be
       -0.19139779 0.20644596 0.08359671 -0.2550304
000160 e8 8d 1d bb f2 f7 a8 3d ea 7b b4 3e 95 e2 03 3f
       -0.0024040882 0.08250417 0.3525079 0.5151761
000170 6b 7f 67 3e 14 64 8d bc 98 5e 88 bd dd ff 06 bd
       0.226072 -0.017259635 -0.06658667 -0.032958854
000180 84 18 77 3e 3a 93 d7 3d a0 71 21 be 3e 24 45 3e
       0.24130446 0.10526128 -0.15766001 0.19252107
000190 96 ab 54 3d fa 1b ce be cd 62 08 be b8 59 ba 3d
       0.05192145 -0.4025572 -0.1331894 0.09099144
0001a0 1d 2e 2f 3d 19 a7 13 3e 6d 61 90 3e b4 0b 07 3e
       0.042768586 0.14419211 0.2819933 0.13188058
0001b0 bd e2 83 3e 3f e9 ac 3d bb 7e 81 3e 33 35 a0 3d
       0.25758925 0.08442926 0.25292 0.07822647
0001c0 f0 7d 66 bd 35 ed 1f 3e 0f 73 e1 3e de b3 83 3e
       -0.056272447 0.15617831 0.44033095 0.25723165
0001d0 62 65 62 bd 6e 65 a3 be 54 4e 1c 3f 2a 9b df 3e
       -0.055272467 -0.31913322 0.6105702 0.43673068
0001e0 79 0b 16 3e 50 fc c2 bc 66 43 17 3f ae 07 70 3e
       0.14652814 -0.023801953 0.59087217 0.2344043
0001f0 ab 73 79 3d bd b7 37 be 42 4a 9e 3e 10 16 33 3e
       0.060901325 -0.17941184 0.3091603 0.17488885
000200 f6 95 5e 3d 39 5c 61 3b 72 51 0c bf e2 b1 9f be
       0.054342233 0.0034387244 -0.54811776 -0.311904
000210 48 30 0d bd 56 72 96 be d6 cb 31 be aa 23 93 be
       -0.034469873 -0.29384106 -0.17362913 -0.28738147
000220 57 a8 8c 3e ce cd 16 be 08 7e 00 bf cb 81 1f be
       0.27472183 -0.14726946 -0.5019231 -0.15576856
000230 26 f0 04 be 06 5f 1f 3e db a9 07 3f 99 6a 90 3e
       -0.12982234 0.15563592 0.52993554 0.28206328
000240 7e 3c b6 be 12 db d1 bd 2d e7 b8 3c 9c 56 b1 bd
       -0.35593027 -0.102468625 0.02257117 -0.086590976
000250 2c 7d 27 bc cc d9 91 3e 20 dd 4d 3e a1 61 57 3e
       -0.010222714 0.28486478 0.20103884 0.21033336
000260 24 ba 83 bc 7a 77 bf bd f6 2e ae 3e d6 97 11 3e
       -0.01607997 -0.0934896 0.34020203 0.14218077
000270 e9 17 57 be aa c4 c9 3d 7c 20 4b 3e 0f 2e ea 3e
       -0.21005215 0.09851964 0.1983661 0.45738265
000280 c1 48 1e be 5c fd 0d bc 43 6d 07 3f 7a 6f 41 3e
       -0.15457441 -0.008666363 0.52901095 0.18890181
000290 6b ea 09 be 01 10 15 3f 28 57 6c bd 48 67 cd be
       -0.1346833 0.58227545 -0.057700306 -0.4011786
0002a0 1f 8d 7f be 70 f5 82 3e cc 10 a9 be 94 43 72 be
       -0.24956177 0.2557788 -0.33020627 -0.23658592
0002b0 6d 00 fd 3d 4b 8c 2b bc c2 d5 42 be f6 45 7f be
       0.12353597 -0.01047046 -0.19026855 -0.24929032
0002c0 b6 c1 a4 3e ed c6 1a be 35 cd 4a bd c9 cf a8 3e
       0.3217904 -0.15114947 -0.049512107 0.32971027
0002d0 65 bd 56 3e 31 de f4 be 80 66 c6 3e d9 77 ae 3e
       0.20970686 -0.4782577 0.38750076 0.34075812
0002e0 00 7a 4d bc f7 d8 b2 bd 54 5e 56 3f 86 ea 90 3e
       -0.012541294 -0.08732789 0.83737683 0.28303927
0002f0 70 87 da 3d 25 8e e3 be 2c ac 8b 3e b9 82 55 3e
       0.10670364 -0.44444385 0.27279794 0.20850648
000300 58 7f 3c 3e d4 be c1 bd 73 d2 90 bd 3e 2f e7 bd
       0.18407953 -0.09460226 -0.0707139 -0.112883076
000310 a0 1e 8b bd c2 78 6a be 33 2e 06 bf db 2e d3 be
       -0.06792951 -0.22897628 -0.52414244 -0.41246685
000320 c3 0b 18 be 14 f2 26 bd a5 f8 6e 3e e0 d7 9d 3d
       -0.14848237 -0.040758207 0.23337038 0.077071905
000330 99 b1 0c 3e 48 5a bd 3e cb cf 2c be ae 31 3b bf
       0.13739623 0.36982942 -0.16876142 -0.7312268
000340 0b 77 4e 3e 72 1d 79 3d 01 61 cd 3e 9e 9d b2 3e
       0.20162599 0.060819097 0.4011307 0.34885877
000350 83 c1 40 3e b4 33 88 3d a2 4d 82 3e 13 1c 12 3d
       0.18823819 0.066504866 0.25449854 0.035671305
000360 f3 62 6f 3c c1 6f 4a bd 0f e8 0e bf 3d 6b 3a be
       0.014610994 -0.049422983 -0.55822843 -0.1820497
000370 bb cf 04 bd 29 4d 60 3d ca 0e a6 be 11 51 1c bf
       -0.03242467 0.054761086 -0.32433158 -0.610612
000380 8e ca 3d 3e 2b 47 d7 3b 27 3e 6a be b1 5b 79 be
       0.185343 0.006569763 -0.22875272 -0.24351384
000390 41 a4 81 be 26 e3 ae ba 70 ee 7e bd 9e 8f 5c 3e
       -0.25320628 -0.0013342842 -0.06223911 0.2153916
0003a0 49 a3 40 3e 48 fb 6b 3e 91 ee be be 37 d7 5b be
       0.18812288 0.23045075 -0.37291387 -0.21468817
0003b0 aa f3 a4 be 21 a0 a6 3e b5 fb 1c be ae 93 ea be
       -0.3221715 0.32544044 -0.15330394 -0.45815796
0003c0 6d 6f 74 bc 66 9b 50 3e 67 b1 11 be a4 cc 5d be
       -0.014919144 0.2037178 -0.1422783 -0.21660095
0003d0 3a 83 d6 3e a9 ad 8c 3d b0 70 cd 3e 19 b6 1a 3d
       0.41896993 0.068690605 0.40125036 0.037771318
0003e0 50 cd 29 3d 4d 71 f0 bd e2 3d 36 bf 23 d7 9b bd
       0.041455567 -0.117403604 -0.71188176 -0.076093934
0003f0 9e 61 84 3d bc 38 14 3e 63 ae 8d be 52 7f 94 be
       0.064639315 0.14474767 -0.2767211 -0.29003388

shared_fc.0.bias f4 [64]
000000 2b 65 26 3f 0f 74 3b 3f 5f fe 37 3f 4e b6 2b 3f
       0.6499812 0.73223966 0.71872514 0.6707505
000010 01 17 2d 3f d3 03 2b 3f f6 54 2b 3f ff a1 37 be
       0.67613226 0.6680271 0.66926515 -0.1793289
000020 85 bb 58 be 66 cc 41 3f 09 0e 12 be 89 ac 28 3f
       -0.21165283 0.7570251 -0.14263166 0.6588827
000030 ff 1c 38 3f 26 e8 2d 3f 6c 1e 33 be f7 71 29 be
       0.71919245 0.67932355 -0.17492074 -0.1654738
000040 d8 30 9c 3d 8c f9 2b 3f d2 b1 28 3f 2c 4b 36 3f
       0.07626504 0.67177653 0.6589633 0.71208453
000050 2c e0 47 3f 47 d8 42 3f 30 12 2a 3f 0e e7 0e be
       0.78076434 0.76111263 0.66434 -0.13955328
000060 5d b7 42 be 76 73 2e 3f b1 31 c9 bc 02 62 3a be
       -0.1901526 0.6814493 -0.024559828 -0.1820145
000070 2a 6b 26 3f a7 00 32 3f 6a c5 2a 3f f7 e1 41 3f
       0.6500727 0.69532245 0.6670748 0.7573542
000080 60 b9 2e 3f b3 9c ae bd 26 cf 39 3f 03 55 26 3f
       0.6825161 -0.08525982 0.7258171 0.6497347
000090 91 06 6a be 32 c5 71 bd 6d 79 2b 3f 36 84 49 3f
       -0.22854067 -0.05902595 0.66982156 0.7871736
0000a0 ed ea 47 3f 2b 09 1e 3f ea b5 44 3f 0d f6 3e 3f
       0.78092843 0.6173274 0.7684008 0.74594194
0000b0 f8 de 2a 3f 85 53 31 3f 7a 04 24 3f 88 db 3b 3f
       0.66746473 0.69268066 0.6406933 0.73381853
0000c0 71 da 30 3f 06 99 3d 3f 06 3f 1a be fa 55 20 3f
       0.69083315 0.7406162 -0.15063104 0.6263119
0000d0 d8 83 41 3f 8d 6f 1c be a5 f6 ba 3e 4f bc 37 3f
       0.755918 -0.15276928 0.365163 0.7177171
0000e0 e0 9e 42 3f 53 cb 52 be f5 c7 0a 3e 25 5c 34 3f
       0.76023674 -0.20585375 0.1355284 0.704531
0000f0 61 2e 34 3f 9b 9d 24 be 7f 50 03 3f 7e d8 35 3f
       0.7038327 -0.16075747 0.512947 0.71033466

actor_head.weight f4 [2, 64]
000000 d1 4a c8 3b 2b e2 74 3e 7c 58 71 3e 4c 96 7b 3e
       0.0061124344 0.23914401 0.2356891 0.24569052
000010 44 ff 26 3e fd 43 e2 3d 85 52 8b be 52 d9 02 3e
       0.16308314 0.11048124 -0.27211395 0.12778214
000020 4a aa ac 3c 64 bd 0d 3d f9 6b 03 3e 95 81 dd bc
       0.021077294 0.034604445 0.12834157 -0.027039329
000030 2d b1 3b be 01 84 40 bd b2 66 30 3d 1d 02 a8 bd
       -0.18329306 -0.04700089 0.043066688 -0.08203528
000040 6b 7d b0 3d 17 44 e6 bd fb 51 34 3e c6 57 cf bd
       0.086176716 -0.11243456 0.17609398 -0.10124163
000050 7c dc fd bd d8 13 d6 3b 5d 45 49 be 65 93 a3 3d
       -0.1239557 0.0065331273 -0.19655366 0.07987098
000060 67 e9 7c bd 64 4e 47 3d 26 95 1d be e3 53 75 bd
       -0.061746027 0.048658744 -0.15388927 -0.059894454
000070 f9 b4 8d be 86 2b d4 bd 3c e0 5b be a6 81 ac bd
       -0.27677134 -0.10359864 -0.21472257 -0.08423166
000080 6c f5 17 3e ee 56 30 3e ca 44 16 3e 0e bb 85 be
       0.14839715 0.17220661 0.14674678 -0.26119274
000090 56 ed 8a 3d 9c 2d 16 be 28 7b 04 be 7e 5f 0b be
       0.067835495 -0.14665836 -0.12937605 -0.13610646
0000a0 83 78 0f be 43 5d 27 3c 9a ea a1 3d 30 52 bc 3d
       -0.14010815 0.010215106 0.07906075 0.091953635
0000b0 a2 40 0d be ee 79 6c bd a2 44 30 be fa 2f 2a bd
       -0.13794187 -0.05773347 -0.17213681 -0.04154966
0000c0 be c1 8b 3d 2e 68 75 3e 58 1d 2c bd 84 64 9f 3d
       0.06824063 0.23965523 -0.042020172 0.07782844
0000d0 42 a7 4f be 2a 1e d8 bc d4 af 2d 3e e6 4d e5 3d
       -0.20278648 -0.02638157 0.16961604 0.111964986
0000e0 e0 93 98 3d f6 05 8d bc c1 d0 1b 3d 0e 68 a5 3d
       0.0745008 -0.017214756 0.03804088 0.080764875
0000f0 24 a3 e6 3c 58 74 70 bd 98 5e a4 3e b7 47 3c 3d
       0.028153963 -0.058704704 0.3210342 0.04596683
000100 68 6c e1 ba cf 94 7f be b3 ab 7c be b7 bc 7e be
       -0.0017198445 -0.2495911 -0.24674873 -0.24876676
000110 4d 4d 40 be 39 ed d9 bd 79 30 90 3e 0a c2 fe bd
       -0.18779488 -0.1064095 0.28161982 -0.12439354
000120 38 3b 17 bd c3 08 82 bd 7c ec af bd ca 75 84 3c
       -0.03692171 -0.063493274 -0.08590028 0.016169447
000130 41 a2 46 3e dc ea 96 3d 78 89 73 bd 67 db 8b 3d
       0.19397832 0.073690146 -0.059457272 0.06828957
000140 9b ab 16 be bc 66 e2 3d 44 91 40 be c9 36 c2 3d
       -0.147139 0.11054751 -0.18805414 0.09483106
000150 8a a5 c7 3d 7a 55 d2 bc 50 19 55 3e 21 a6 cc bd
       0.09748371 -0.025675524 0.20810437 -0.09992624
000160 66 95 27 3d 56 90 71 bd 49 17 31 3e a0 6a 86 3d
       0.04091396 -0.05897554 0.17294039 0.06563306
000170 45 f3 77 3e cf 76 e6 3d f1 89 6e 3e a7 18 de 3d
       0.24213894 0.1125313 0.23294808 0.10844546
000180 e7 de 1e be 43 f4 2a be 1b 92 05 be 96 c2 8b 3e
       -0.15514718 -0.16694741 -0.13044016 0.27296895
000190 ed e1 5f bd 0b fe 07 3e 7f 4c f2 3d 19 ee fe 3d
       -0.05465882 0.13280503 0.11830997 0.12447757
0001a0 51 f3 01 3e cd 78 b1 3a 71 a2 9b bd 1b a3 cf bd
       0.12690474 0.001354003 -0.075993426 -0.10138532
0001b0 f8 c3 d9 3d 98 16 a6 3d 72 87 21 3e 83 9c 29 3d
       0.10633081 0.08109778 0.15774325 0.041409027
0001c0 07 1e 3d bd df e8 77 be b9 d0 2e 3d 3e 91 61 bd
       -0.046171214 -0.24209927 0.042679522 -0.055070154
0001d0 7d 1f 5e 3e 6b 88 e9 3c 94 70 35 be 83 ba f8 bd
       0.216917 0.028507432 -0.17718726 -0.12144949
0001e0 ed 5c 98 bd 09 ca 89 3c 3b 5c 11 bd f2 f6 96 bd
       -0.07439599 0.01681997 -0.03548835 -0.0737132
0001f0 0f 12 8a bc 1a 26 77 3d 73 f8 9e be 87 e3 a3 bd
       -0.016854314 0.06033907 -0.31048927 -0.08002382

actor_head.bias f4 [2]
000000 2f 46 eb bc 2e 46 eb 3c
       -0.02871999 0.028719988

critic_head.weight f4 [1, 64]
000000 bb 46 0f 3f 54 4e 28 3f 6c 42 21 3f bf a0 51 3f
       0.559673 0.6574452 0.62991977 0.81885904
000010 d4 bd 38 3f f9 d8 1b 3f 52 51 45 3f 10 cd b8 be
       0.72164655 0.6087795 0.7707721 -0.3609395
000020 10 1c cf be ca 1d 03 3f 96 c3 61 be ba a6 56 3f
       -0.40451097 0.5121733 -0.22047266 0.83848155
000030 34 4e 35 3f 99 f8 4d 3f d3 ca ff be 3c 44 93 be
       0.70822453 0.80457455 -0.4995943 -0.28762996
000040 20 1d 05 3d 4d 23 b1 3e 5e ad 4e 3f a7 58 3a 3f
       0.03249848 0.34597245 0.8073329 0.7279152
000050 14 d0 1b 3f 4f 6b 2c 3f 54 42 58 3f bc b1 97 be
       0.6086438 0.6735124 0.8447621 -0.29627788
000060 6f ec 83 be 14 19 36 3f f7 34 bb bd dd 53 8d be
       -0.25766322 0.71132016 -0.091409616 -0.27603045
000070 b0 c0 30 3f e4 67 1c 3f 1b cb 4b 3f 42 d0 31 3f
       0.6904402 0.61096025 0.7960679 0.694584
000080 22 8f 37 3f f0 78 37 be a0 5e 22 3f d3 3a 62 3f
       0.7170278 -0.17917228 0.63425636 0.8837101
000090 d6 17 81 be c9 71 34 bd fc 1c 5c 3f 15 9c 1b 3f
       -0.25213498 -0.044053826 0.85981727 0.6078504
0000a0 56 dd 27 3f d0 52 1f 3f 35 c8 28 3f 1b da 27 3f
       0.65572107 0.62235737 0.6593049 0.6556718
0000b0 63 cd 63 3f c8 d6 28 3f 59 25 04 3f ba 88 23 3f
       0.8898527 0.6595273 0.5161949 0.63880503
0000c0 d0 df 3d 3f 4d c3 1f 3f 36 81 96 be 4b 85 04 3f
       0.74169636 0.6240738 -0.29395455 0.5176589
0000d0 8b 44 1b 3f 0c 74 cc be 1d 11 c9 3e a4 99 1d 3f
       0.60651463 -0.39932287 0.3927087 0.6156256
0000e0 48 ac 18 3f 0a 65 9e be 25 78 f8 3c 51 e9 26 3f
       0.5963788 -0.30936462 0.030330727 0.6519976
0000f0 54 50 0c 3f 20 07 13 be b3 59 24 3f 59 d7 1e 3f
       0.5481007 -0.14358187 0.6419937 0.62047344

exp_avg f4 [64, 4]
000000 1c 68 28 ba 07 df 06 ba 8d 3d 5c ba d8 d5 28 3b
       -0.0006424205 -0.0005144928 -0.0008401506 0.0025762226
000010 09 8f 22 ba 1f 17 42 ba f0 75 29 ba 3e f0 39 3b
       -0.00062011235 -0.0007403958 -0.00064644124 0.0028371955
000020 0e 6b 2a ba 7a 83 49 ba 15 e7 1f ba d9 c9 33 3b
       -0.0006500938 -0.0007687133 -0.00060998026 0.0027433543
000030 71 4c a8 b9 47 ec e9 b9 69 d3 66 ba 7b 66 5a 3b
       -0.0003210041 -0.00044617263 -0.0008805306 0.0033325243
000040 69 18 5e 38 c0 f3 23 b8 34 1f 5a ba e4 a0 36 3b
       5.295166e-05 -3.908924e-05 -0.00083206897 0.0027866894
000050 32 72 b7 39 b3 b2 98 39 41 7c 45 ba 27 14 11 3b
       0.00034989562 0.0002912484 -0.0007533469 0.0022137256
000060 70 56 72 3b 0b 78 79 3b 3a 66 c4 ba 4d b1 b0 3a
       0.003697779 0.0038065936 -0.0014984079 0.0013480574
000070 9b a7 c7 ba e3 c6 d2 ba b1 71 31 b9 9f 96 e9 39
       -0.0015232445 -0.0016081001 -0.00016922389 0.00044553445
000080 a4 a5 91 37 96 a9 50 37 22 d3 89 35 19 32 db b6
       1.736248e-05 1.2437251e-05 1.0268743e-06 -6.5325407e-06
000090 9d ef 24 3a c1 94 1c 3a a2 b8 34 ba 38 88 e0 3a
       0.00062918087 0.0005973094 -0.00068939675 0.001713044
0000a0 bd 68 78 b7 ad cf 27 3a 65 40 e5 38 b3 7e 86 b9
       -1.4806338e-05 0.00064014905 0.00010931565 -0.0002565287
0000b0 b2 8f ef 3a 0c ab ee 3a 5f 7c a5 ba 06 7a 20 3b
       0.0018277077 0.0018208935 -0.0012625566 0.0024486794
0000c0 ae c7 3c 3b 56 63 41 3b 7e 1a a9 ba a0 b2 c0 3a
       0.0028805542 0.0029508672 -0.0012901572 0.0014701672
0000d0 f4 50 07 3b 59 17 08 3b 02 a1 a5 ba 2e d5 10 3b
       0.0020647617 0.002076587 -0.0012636485 0.0022099721
0000e0 72 25 90 ba d1 89 b9 ba 13 74 85 b9 f3 54 02 3a
       -0.0010997488 -0.0014155452 -0.0002545422 0.0004971765
0000f0 75 f4 49 b8 cd 03 d6 b7 0e 6d 5e b4 37 89 2c 37
       -4.8149803e-05 -2.5512558e-05 -2.0715035e-07 1.0283947e-05
000100 88 a7 8a ba e4 ea 35 ba 53 11 09 39 09 5d d0 39
       -0.0010578493 -0.00069396035 0.00013071792 0.00039742168
000110 4e 5a 46 3b e1 61 ec 3a 76 74 2e ba 2b f3 79 3a
       0.0030266228 0.0018034541 -0.0006654927 0.0009534831
000120 1e e5 30 39 aa ff 97 38 ed da 78 ba 7b 19 49 3b
       0.00016870021 7.247862e-05 -0.00094930717 0.0030685354
000130 93 c7 10 3b 59 cd 12 3b 59 58 9d ba 33 fe f1 3a
       0.0022091612 0.0022400229 -0.0012004479 0.0018462598
000140 30 9e 07 3b 16 18 0a 3b da 6b 88 ba 15 6b bd 3a
       0.0020693652 0.0021071485 -0.0010408119 0.0014451469
000150 5e f0 9d 3a d1 7c 9b 3a 97 5a 7e ba 79 86 08 3b
       0.0012049784 0.001186276 -0.000970283 0.0020832105
000160 03 a2 55 3b 5b 6f 5a 3b 24 d4 c5 ba f2 3f f0 3a
       0.0032597787 0.0033330533 -0.001509313 0.0018329604
000170 ed f8 5d 38 f3 25 0c 38 54 4f 77 36 29 3a 85 b7
       5.2922336e-05 3.3413944e-05 3.6852043e-06 -1.5881918e-05
000180 f4 86 2e 36 14 e4 18 b7 2d de 39 b6 16 8d 35 36
       2.6006574e-06 -9.11301e-06 -2.7696472e-06 2.7053225e-06
000190 76 c5 80 3a 9e d1 77 3a 99 d5 7f ba 12 c0 18 3b
       0.0009824473 0.00094535376 -0.00097593066 0.0023307842
0001a0 38 30 80 39 33 b6 bc 39 e8 77 a9 b8 82 31 c3 b9
       0.00024449988 0.00035993903 -8.080882e-05 -0.00037230185
0001b0 bc a1 3d b8 a1 f4 c1 b7 f0 e8 b2 b5 0a b8 3b 37
       -4.521174e-05 -2.3121307e-05 -1.3329827e-06 1.11889185e-05
0001c0 a7 e9 5e 3b 7f a2 65 3b 05 e2 b1 ba fd 09 99 3a
       0.003401378 0.0035039482 -0.0013571387 0.001167595
0001d0 16 ea 01 3b ae 6f 18 3b 50 7a 88 ba 38 e5 a9 3a
       0.0019823364 0.0023259926 -0.0010412429 0.0012961989
0001e0 23 7c 5a 3b 3b ed 5f 3b a3 25 c0 ba d1 0e d3 3a
       0.0033338151 0.00341685 -0.0014659654 0.0016102438
0001f0 c6 7c 0b 3b 15 69 0d 3b cc 8e 96 ba ea d4 e5 3a
       0.0021284088 0.0021577526 -0.0011486649 0.0017534767
000200 87 54 6f 39 75 4e 1a 39 82 72 60 ba 83 4c 30 3b
       0.00022824305 0.00014715812 -0.0008561985 0.0026901073
000210 c4 a8 d5 ba 67 29 1d bb 97 26 07 39 98 f5 3f 39
       -0.0016300906 -0.0023980977 0.00012888979 0.0001830667
000220 2d fb 30 39 63 d9 c4 38 75 00 45 ba 1b f9 1c 3b
       0.00016878238 9.3865e-05 -0.0007515022 0.002395219
000230 18 07 7c 3b 9a 5b 81 3b 16 89 d8 ba 4d b1 e1 3a
       0.0038456377 0.0039476873 -0.0016520347 0.0017218977
000240 b3 41 e8 ba db 49 9d ba c9 ea 2b 36 4a fb ce 39
       -0.0017719775 -0.001200016 2.5617649e-06 0.00039478607
000250 be 6a 97 b5 dc 3f 88 39 17 e4 92 b8 43 01 9f b9
       -1.1281443e-06 0.0002598752 -7.0043076e-05 -0.00030327783
000260 b7 30 2f 3b 46 b4 31 3b 66 39 bb ba c5 20 0d 3b
       0.0026731917 0.0027115508 -0.0014284074 0.0021534425
000270 8e 98 11 3b e9 b3 14 3b a2 ab 8b ba 4d 03 b4 3a
       0.0022216174 0.0022690243 -0.0010656009 0.0013733894
000280 6c 80 19 3b 31 a0 1c 3b 98 77 95 ba 6c 60 c5 3a
       0.0023422493 0.0023899192 -0.001140344 0.0015058643
000290 91 3c 91 ba 40 43 94 ba e7 a2 74 ba 8f 3f 3b 3b
       -0.0011080672 -0.0011311546 -0.00093321357 0.002857182
0002a0 ba 11 36 3a 82 27 2a 3a 7f ba 63 ba dd d9 13 3b
       0.00069453905 0.00064908725 -0.0008687153 0.0022560277
0002b0 0c 4a 0d 3a 8c 5a fd 39 da b1 5b ba 74 8c 17 3b
       0.0005389757 0.00048323383 -0.0008380689 0.0023124488
0002c0 4b b2 a5 3b 8b 1c 98 3b e3 94 b2 ba af 0b f4 3a
       0.0050566546 0.0046420745 -0.0013624694 0.0018619205
0002d0 78 70 c3 3a 1b cc 13 3b f8 f0 54 ba cb 2d 1d 3b
       0.0014910838 0.0022552076 -0.00081230653 0.0023983594
0002e0 a1 6d 17 3b 3a 9f 1b 3b 0c c4 7f ba ff 0c 80 3a
       0.0023106115 0.002374603 -0.0009756691 0.0009769498
0002f0 4e 6c b2 3a 14 06 01 3b 04 ac 81 ba 26 65 c7 3a
       0.00136126 0.001968746 -0.0009893184 0.001521264
000300 10 b9 85 3a e8 65 80 3a e1 40 85 ba 75 70 1f 3b
       0.0010202248 0.0009795995 -0.001016643 0.0024328504
000310 fc cf 2c ba 0b bf 4b ba 94 c2 1d ba 1e 8f 32 3b
       -0.00065922714 -0.0007772303 -0.0006018069 0.002724595
000320 7a a3 21 38 a2 0b ad b9 52 d1 30 b9 fe 55 93 39
       3.853764e-05 -0.00033005798 -0.00016862646 0.00028102094
000330 57 24 a1 b9 5f f6 a3 ba d7 4a 2e ba d7 c1 33 3b
       -0.00030735388 -0.0012509337 -0.0006648725 0.002742877
000340 3d a5 3a 3b 0e ef 3f 3b ac 24 99 ba 9a be 8e 3a
       0.0028479837 0.0029286775 -0.0011683903 0.0010890544
000350 f4 78 b5 b7 bf 94 82 b7 e9 0c d9 b3 3d 20 08 37
       -2.1633205e-05 -1.5566473e-05 -1.0107198e-07 8.113738e-06
000360 50 5d 1a ba ec 2a 30 ba d0 60 b7 b9 7c ca ea 3a
       -0.00058885384 -0.0006720263 -0.0003497661 0.0017913128
000370 be f7 9c 39 ad d1 72 39 a7 31 45 ba 1b b7 14 3b
       0.0002993922 0.00023157029 -0.00075223524 0.0022692147
000380 ce 68 1c 3a 55 9e 10 3a 17 7a 4c ba a7 ba 06 3b
       0.0005966545 0.00055167574 -0.0007800175 0.002055803
000390 b4 1a 10 ba 25 1b 1f ba 3f f4 3d b9 62 70 76 39
       -0.0005497143 -0.00060694135 -0.00018115433 0.00023502254
0003a0 4c db 61 38 fd b6 11 b9 5d d5 7e b8 e6 c7 0b 39
       5.3848416e-05 -0.00013896446 -6.075703e-05 0.00013330541
0003b0 df b4 31 3a c7 59 c2 39 20 c3 60 ba b5 1b 20 3b
       0.0006778966 0.00037069453 -0.0008573998 0.0024430577
0003c0 74 ba 6d 3a b4 95 68 3a b7 b8 4b ba 42 85 e2 3a
       0.0009068616 0.0008872405 -0.000777136 0.0017282146
0003d0 92 a9 d5 38 b3 07 21 39 d0 f1 71 37 bc 30 36 b9
       0.000101882164 0.00015357025 1.4421021e-05 -0.00017375028
0003e0 e4 b8 9e ba 73 af b2 ba 69 dc 0a ba 54 58 47 3b
       -0.0012109545 -0.001363261 -0.0005297126 0.0030417638
0003f0 6b 7d 40 3a 03 15 36 3a d5 c2 59 ba a6 d0 08 3b
       0.00073429075 0.000694588 -0.00083069253 0.0020876317

exp_avg_sq f4 [64, 4]
000000 a2 ab 91 3a fd 91 78 39 74 91 8b 36 63 89 a5 38
       0.0011113773 0.00023705508 4.159456e-06 7.8934034e-05
000010 b1 c7 f6 3a ce ac 0c 3a 52 92 eb 36 92 62 20 39
       0.0018827823 0.0005366326 7.0205797e-06 0.0001529551
000020 f4 63 e3 3a 73 50 01 3a 6d 4c d8 36 e5 da 12 39
       0.0017348514 0.00049329473 6.4461988e-06 0.0001400519
000030 65 b3 3b 3b 3b 55 58 3a ef 38 35 37 3d 93 77 39
       0.0028640863 0.00082524464 1.0801697e-05 0.00023610606
000040 99 bd 0b 3b 69 aa 21 3a fa 7e 08 37 47 e5 3a 39
       0.0021322726 0.00061670557 8.135796e-06 0.00017823755
000050 44 85 be 3a 45 3e dd 39 15 0e bd 36 31 b8 01 39
       0.0014535566 0.000421988 5.6342783e-06 0.00012371015
000060 b0 33 2d 3b fe f1 47 3a c8 0c 24 37 bb 81 58 39
       0.0026428513 0.0007627307 9.778138e-06 0.00020647694
000070 98 ac 94 39 2d a0 a6 38 c7 a6 36 35 98 65 94 37
       0.00028357352 7.945332e-05 6.8042976e-07 1.7690283e-05
000080 8f b2 8b 39 e1 d2 81 38 cf 3d 10 35 0d a8 8c 37
       0.00026645183 6.1904786e-05 5.3734124e-07 1.6767555e-05
000090 00 77 82 3a 67 28 96 39 58 92 7e 36 dd 9f b4 38
       0.0009953678 0.00028640332 3.7934133e-06 8.612846e-05
0000a0 0d 59 c4 38 99 c9 b9 37 35 2f 6c 34 c6 80 bd 36
       9.362595e-05 2.2147595e-05 2.1996387e-07 5.64763e-06
0000b0 3e 66 36 3b 3a 0e 50 3a 60 38 35 37 b2 8d 72 39
       0.0027831937 0.000793669 1.08015665e-05 0.00023131704
0000c0 0d 37 09 3b 92 5b 1f 3a c1 f3 04 37 69 9c 31 39
       0.0020937354 0.00060790137 7.9245665e-06 0.00016938303
0000d0 f2 45 28 3b 1a fb 44 3a 6b 0a 27 37 3a 81 63 39
       0.0025676456 0.00075142237 9.956401e-06 0.00021696548
0000e0 69 bd 04 3a 8d be 13 39 a7 bf a0 35 c2 41 f8 37
       0.00050636247 0.00014089998 1.1976707e-06 2.9594525e-05
0000f0 6e 39 07 39 10 17 03 38 cf 67 89 34 f5 c0 0b 37
       0.00012895997 3.1254312e-05 2.559377e-07 8.329972e-06
000100 f7 d8 06 38 5a 04 0c 37 56 7c bb 33 2d dc c5 35
       3.2150154e-05 8.345663e-06 8.730483e-08 1.4741723e-06
000110 e6 3a da 39 9d 17 fe 38 f0 cc e3 35 d5 40 22 38
       0.00041624083 0.00012116062 1.6972463e-06 3.868419e-05
000120 46 68 2f 3b 4f 6e 4b 3a 33 e6 2b 37 5b 77 6b 39
       0.0026765033 0.0007760273 1.0245992e-05 0.0002245581
000130 32 3f 0a 3b de bc 21 3a 8f 8b 08 37 61 62 39 39
       0.0021094796 0.0006169806 8.138725e-06 0.00017679624
000140 95 8c c1 3a 88 42 de 39 bf 7e be 36 58 4a fd 38
       0.0014766628 0.0004239271 5.6771964e-06 0.00012077828
000150 5b a0 e5 3a e9 ed 06 3a 95 2c e6 36 01 96 1c 39
       0.0017519103 0.0005147146 6.859724e-06 0.000149332
000160 8e 64 44 3b 43 ad 64 3a c1 7f 3e 37 f6 f2 7e 39
       0.0029967162 0.0008723328 1.13546275e-05 0.00024313838
000170 fe 78 1b 39 ef 5e 0c 38 54 07 9d 34 70 cf 15 37
       0.00014827025 3.3467015e-05 2.924886e-07 8.92939e-06
000180 67 35 ce 38 a2 28 bb 37 df 5c 53 34 1f ac ca 36
       9.8327924e-05 2.2311058e-05 1.9684693e-07 6.0401067e-06
000190 26 82 01 3b fe 5e 0c 3a df 17 00 37 19 dc 29 39
       0.0019761412 0.0005354731 7.634952e-06 0.00016199089
0001a0 a4 97 47 38 3f 0a 32 37 9d 0f 03 34 d3 f4 0a 36
       4.7586524e-05 1.0612012e-05 1.2206006e-07 2.070611e-06
0001b0 e3 3a f8 38 ee 4c ef 37 c0 56 7b 34 e1 16 00 37
       0.0001183653 2.8526843e-05 2.3407756e-07 7.634721e-06
0001c0 38 a9 0a 3b e8 ba 1f 3a 35 18 03 37 c2 82 2c 39
       0.002115799 0.000609322 7.813845e-06 0.0001645191
0001d0 80 35 c4 3a 82 2a be 39 94 ad b9 36 de 59 d5 38
       0.0014969558 0.00036271295 5.533637e-06 0.000101733705
0001e0 ef d3 30 3b 94 61 4d 3a 1d 58 2a 37 6f 2a 63 39
       0.002698179 0.00078346697 1.0153305e-05 0.00021664215
0001f0 ff a3 fa 3a c9 4c 12 3a 3a 04 f8 36 3a fb 27 39
       0.0019122361 0.00055809 7.391468e-06 0.0001601995
000200 d3 fc 07 3b 62 c1 1d 3a b6 d3 05 37 bc 5c 37 39
       0.002075006 0.0006017891 7.976711e-06 0.00017486786
000210 fa 48 ec 38 65 ed 0f 38 57 d8 9c 34 8d 59 c9 36
       0.0001126695 3.4314948e-05 2.9214672e-07 6.000692e-06
000220 e1 e5 d2 3a 7a 87 f5 39 4b a7 cd 36 33 87 0e 39
       0.0016090238 0.0004683098 6.1289516e-06 0.00013592541
000230 72 f3 5e 3b 47 51 81 3a 28 70 55 37 06 f9 8d 39
       0.0034019616 0.0009866141 1.2721903e-05 0.00027079153
000240 47 e9 0a 39 e6 f6 1c 38 d6 07 c1 34 67 ef 1e 37
       0.00013247608 3.742324e-05 3.5954753e-07 9.473274e-06
000250 ca 3c d5 37 b5 8c de 36 d0 ee 8c 33 72 fd 5c 35
       2.5419886e-05 6.632496e-06 6.562698e-08 8.23252e-07
000260 f6 75 44 3b d7 8c 65 3a ef 6f 41 37 e5 f7 82 39
       0.0029977537 0.00087566435 1.1529758e-05 0.00024980228
000270 d8 43 c6 3a 4e 94 e4 39 a2 e5 bf 36 c5 c2 fe 38
       0.001512642 0.00043598044 5.7189764e-06 0.000121479425
000280 c4 8c e4 3a 3e 03 05 3a 9d 0a e0 36 62 c8 16 39
       0.0017436971 0.00050740305 6.6769558e-06 0.00014379763
000290 88 42 b4 3a 7b 4b 9d 39 cd f3 ac 36 9f a9 cb 38
       0.0013752738 0.0003000161 5.1543816e-06 9.711389e-05
0002a0 21 2f dd 3a 74 2f 02 3a 50 a6 dc 36 7f 1c 14 39
       0.0016875007 0.00049661775 6.5758722e-06 0.00014124996
0002b0 de bb dc 3a 7e 81 00 3a fb 60 db 36 0b 74 16 39
       0.0016840657 0.00049021083 6.5379986e-06 0.00014348344
0002c0 14 59 32 3b 54 1f 71 3a 76 d3 43 37 02 e7 73 39
       0.002721374 0.00091980887 1.167214e-05 0.00023260343
0002d0 74 72 dd 3a 7e ee ef 39 2f 13 dd 36 b3 64 05 39
       0.0016895072 0.00045763323 6.5885465e-06 0.00012721382
0002e0 68 83 91 3a 60 c5 a7 39 82 35 8c 36 45 3f b9 38
       0.0011101784 0.00031999778 4.1785543e-06 8.833272e-05
0002f0 b6 df ce 3a df af e0 39 c0 41 cd 36 0c 7e 04 39
       0.0015783224 0.00042855644 6.1171304e-06 0.00012635457
000300 e4 12 0d 3b d8 e3 24 3a 47 98 0c 37 75 c8 40 39
       0.0021526152 0.0006290055 8.380105e-06 0.00018385223
000310 e0 96 df 3a 9e 73 fe 39 a8 0b d5 36 b0 9a 10 39
       0.0017058514 0.00048532797 6.3492516e-06 0.00013790536
000320 ad a7 20 39 75 7d 34 38 ff 40 dd 34 23 fa 21 37
       0.00015321253 4.3032185e-05 4.121175e-07 9.654587e-06
000330 bc f1 53 3a 75 dc 2b 39 31 83 47 36 97 1e 77 38
       0.00080850325 0.00016389957 2.9729674e-06 5.8917878e-05
000340 31 d9 d0 3a 10 2c f0 39 9d 81 c5 36 34 36 03 39
       0.0015933869 0.00045809196 5.8861465e-06 0.00012513326
000350 01 aa 82 39 eb 2c 7f 38 80 fd 05 35 b0 87 88 37
       0.00024922195 6.083857e-05 4.991525e-07 1.6275648e-05
000360 73 59 2a 3a f7 7c 40 39 c2 d0 21 36 31 de 5a 38
       0.00064983143 0.000183571 2.4112383e-06 5.2182182e-05
000370 59 d0 c3 3a 43 ee e1 39 72 38 c2 36 eb f3 02 39
       0.0014939412 0.00043092863 5.7882216e-06 0.00012488633
000380 a8 cb b3 3a 3a 81 d1 39 57 76 b3 36 df c9 f5 38
       0.001371731 0.00039959868 5.3483923e-06 0.00011720112
000390 5b 2d 3e 39 a8 92 57 38 e5 87 04 35 c8 81 48 37
       0.00018136708 5.139658e-05 4.9371585e-07 1.1951146e-05
0003a0 69 f4 9d 36 39 dc 9b 35 93 2b 6c 32 38 f5 97 34
       4.7074177e-06 1.1612493e-06 1.3746916e-08 2.8304362e-07
0003b0 46 ac cf 3a 4b ca ff 39 52 b8 c8 36 01 e1 07 39
       0.0015844188 0.0004878811 5.981922e-06 0.00012958424
0003c0 cb d8 95 3a f3 61 b1 39 af dc 94 36 84 51 d2 38
       0.0011432407 0.0003383305 4.4364347e-06 0.00010028764
0003d0 14 5a 0b 38 b0 21 06 37 c3 da 8e 33 66 a3 0e 36
       3.3224074e-05 7.994866e-06 6.652183e-08 2.125476e-06
0003e0 43 77 fe 3a 3d b8 0f 3a 99 b8 eb 36 b4 9b 1e 39
       0.0019414205 0.0005482471 7.0250358e-06 0.00015126058
0003f0 2b c8 c4 3a d2 d0 e9 39 53 66 c2 36 9a 94 0a 39
       0.0015013268 0.00044596806 5.7935627e-06 0.00013216064

exp_avg f4 [64]
000000 a6 45 1f bc b8 63 29 bc 99 fe 20 bc 2c 69 5d bc
       -0.009721195 -0.010338716 -0.009826326 -0.013513844
000010 bc dc 4a bc 42 34 32 bc b2 6a 96 bc 1f 89 04 3b
       -0.012381729 -0.010876717 -0.018361423 0.0020223332
000020 10 da c0 37 05 9d 1d bc ac b1 87 b9 dc 45 8a bc
       2.2989727e-05 -0.009619956 -0.00025881582 -0.016879015
000030 75 3a 84 bc 26 46 88 bc ef e3 ef 3a 0b a8 82 b8
       -0.016141156 -0.016635012 0.0018302182 -6.2301835e-05
000040 49 65 85 3a f3 e2 0e bc 8d 7e 65 bc 35 77 7e bc
       0.001017728 -0.008721101 -0.014007223 -0.015531351
000050 44 e3 59 bc 3d 0d 58 bc 4c b1 9b bc d3 bf 92 38
       -0.013298813 -0.01318675 -0.01900544 6.9975526e-05
000060 1e 92 1f 37 d8 75 5d bc 14 33 95 b9 75 ee 78 b8
       9.511159e-06 -0.013516866 -0.0002845755 -5.9349888e-05
000070 17 c3 87 bc b7 15 57 bc 12 bb 95 bc b6 42 73 bc
       -0.016572518 -0.013127736 -0.018277679 -0.014847448
000080 90 9f 4d bc 04 5f 56 3b b6 18 35 bc dc e8 a7 bc
       -0.01255025 0.0032710442 -0.011053255 -0.020496778
000090 08 00 0b 3b 48 5e a6 b9 f0 04 97 bc e3 33 5d bc
       0.0021209735 -0.00031732232 -0.018434972 -0.01350114
0000a0 16 5c 6d bc 20 17 2b bc bd 4b 48 bc cc a4 43 bc
       -0.014487287 -0.010442525 -0.012225089 -0.011941146
0000b0 60 cd 9d bc 78 23 68 bc 18 9d 45 bc 69 fc 51 bc
       -0.01926297 -0.014168613 -0.01206138 -0.012816527
0000c0 49 cd 66 bc c0 27 1f bc 22 d9 f5 39 fa 37 06 bc
       -0.01408703 -0.009714067 0.00046891818 -0.008192057
0000d0 55 41 6b bc e4 d5 f4 b7 44 36 c0 bb 26 de 32 bc
       -0.014358838 -2.9186667e-05 -0.005865844 -0.010917222
0000e0 48 66 34 bc 5f 1f 85 3a 1b b9 d3 b9 9a 2b 42 bc
       -0.011010714 0.0010156444 -0.0004038297 -0.011851216
0000f0 5c 17 2e bc 11 e0 81 39 85 67 17 bc 0a 53 3e bc
       -0.0106256865 0.0002477174 -0.00924099 -0.011616478

exp_avg_sq f4 [64]
000000 ab 45 1f 3a 6c 53 85 3a e2 43 75 3a e6 7f cd 3a
       0.000607575 0.0010171956 0.00093561236 0.0015678375
000010 e1 9d 9a 3a a0 33 55 3a 8b 41 b9 3a 6a bc c2 38
       0.0011796319 0.0008132998 0.0014133913 9.285736e-05
000020 a5 26 a8 38 5b d7 11 3a f4 64 03 38 40 06 ce 3a
       8.018062e-05 0.00055634015 3.1326854e-05 0.0015718415
000030 b1 ea 95 3a 79 11 bd 3a 7c 84 29 39 22 95 26 38
       0.0011437741 0.0014424763 0.0001616645 3.9716375e-05
000040 ff 8f 4e 37 f9 da 80 39 64 a0 c2 3a 92 7a 9a 3a
       1.23120835e-05 0.0002457721 0.0014848826 0.0011785796
000050 ba ed 56 3a 45 ee 81 3a b1 83 d7 3a 16 ca 37 38
       0.0008198876 0.0009912929 0.0016442445 4.3818807e-05
000060 4f 82 f9 37 74 6d 91 3a 3c f3 8b 37 be bc 1a 38
       2.9743793e-05 0.0011095242 1.6683356e-05 3.689224e-05
000070 c0 aa 93 3a 22 6b 56 3a 5c 7c c0 3a a8 f1 8b 3a
       0.0011266097 0.0008179416 0.00146855 0.0010676878
000080 62 37 97 3a 57 8d 23 38 de 98 6a 3a 44 9c f1 3a
       0.0011536891 3.899386e-05 0.00089491706 0.0018433412
000090 44 61 4a 38 03 9b 19 37 3a 0b db 3a 6e 8f 59 3a
       4.825114e-05 9.155602e-06 0.001671172 0.0008299266
0000a0 bc e7 7c 3a b5 01 3f 3a af e7 79 3a 78 77 77 3a
       0.0009647568 0.0007286326 0.000953312 0.00094401045
0000b0 01 78 da 3a 83 17 73 3a f8 5a 1d 3a 40 18 67 3a
       0.0016667844 0.0009273218 0.000600263 0.0008815564
0000c0 62 e8 9e 3a 72 ff 70 3a 12 a9 50 38 b6 f1 f1 39
       0.0012123699 0.0009193338 4.9748523e-05 0.0004614719
0000d0 31 cb 60 3a 66 7a 9e 38 29 c1 b4 39 35 b9 5a 3a
       0.00085752 7.5568256e-05 0.0003447619 0.0008343638
0000e0 9c 47 4a 3a ff e8 80 38 44 f0 11 36 60 1c 6a 3a
       0.0007716359 6.1469145e-05 2.1746537e-06 0.000893062
0000f0 ae 56 28 3a e6 36 3c 37 3d fd 84 3a 1b 7d 5c 3a
       0.00064216077 1.1218455e-05 0.0010146272 0.0008410976

exp_avg f4 [2, 64]
000000 8b f3 ac 3a 30 b5 84 3b 9f f5 8b 3b 42 62 6e 3b
       0.001319514 0.0040499195 0.0042712237 0.0036374484
000010 7c 12 0f 3b 95 a7 73 3b 9f 42 8a 3b f0 a4 9f 39
       0.0021831086 0.0037178744 0.0042193676 0.0003044973
000020 83 3d 60 37 47 55 2a 3b d7 64 20 b7 98 c1 a2 3b
       1.3365762e-05 0.002599077 -9.560222e-06 0.004966926
000030 a6 17 96 3b 19 53 8e 3b 4f 97 6f 39 40 d4 c9 36
       0.004580456 0.004343402 0.00022849183 6.014976e-06
000040 34 4e d5 3a d9 32 27 3b 08 0e 4b 3b 2e 9c 73 3b
       0.0016273917 0.0025512485 0.0030983705 0.0037171948
000050 e0 4c c5 3b 7a a8 73 3b 7c d4 92 3b 92 fc 31 37
       0.006021127 0.0037179277 0.0044808965 1.0608828e-05
000060 e8 65 41 37 5e 1f ae 3b bd f9 b5 38 50 7e 96 37
       1.1527423e-05 0.005313798 8.67727e-05 1.7940212e-05
000070 7d 25 80 3b 19 da d6 3b 97 92 83 3b e3 af aa 3b
       0.003910719 0.006556761 0.0040152776 0.0052089556
000080 1d 76 2d 3b f4 69 26 3a 40 6b 41 3b f8 02 8d 3b
       0.0026468106 0.00063481857 0.002951339 0.0043033324
000090 52 39 39 3a 4e 15 0f 38 3c cf 97 3b a2 05 bb 3b
       0.00070657313 3.41137e-05 0.0046328586 0.0057074586
0000a0 17 ff b8 3b ee ec a4 3a 6a 38 68 3b 28 0b 4d 3b
       0.0056456435 0.0012582818 0.0035434016 0.0031287167
0000b0 f7 32 69 3b 67 76 bf 3b 16 fc a3 3b 4d b3 c5 3b
       0.0035583356 0.005842972 0.005004416 0.006033337
0000c0 7a 23 55 3b 54 65 8b 3b 23 57 9b 39 c1 24 21 3a
       0.0032522366 0.0042540226 0.00029628826 0.00061471394
0000d0 b6 93 83 3b a1 e9 ea 36 7f 23 c3 3a b2 d9 29 3b
       0.0040154113 7.0009414e-06 0.0014887898 0.002591711
0000e0 c4 ae 3c 3b 14 15 d2 39 53 a9 bc 38 e2 d7 3e 3b
       0.0028790692 0.00040070026 8.996078e-05 0.0029120375
0000f0 fd e5 2c 3b aa 7f a5 38 4a 61 28 3b db 9d 1c 3b
       0.00263822 7.8915924e-05 0.0025692754 0.00238978
000100 87 f3 ac ba 30 b5 84 bb a0 f5 8b bb 46 62 6e bb
       -0.0013195135 -0.0040499195 -0.004271224 -0.0036374494
000110 7b 12 0f bb 95 a7 73 bb a0 42 8a bb f0 a4 9f b9
       -0.0021831084 -0.0037178744 -0.004219368 -0.0003044973
000120 82 3d 60 b7 46 55 2a bb b2 64 20 37 99 c1 a2 bb
       -1.3365761e-05 -0.0025990768 9.560188e-06 -0.0049669263
000130 a6 17 96 bb 19 53 8e bb 50 97 6f b9 40 d4 c9 b6
       -0.004580456 -0.004343402 -0.00022849184 -6.014976e-06
000140 35 4e d5 ba d9 32 27 bb 08 0e 4b bb 2e 9c 73 bb
       -0.0016273918 -0.0025512485 -0.0030983705 -0.0037171948
000150 e1 4c c5 bb 7a a8 73 bb 7b d4 92 bb 92 fc 31 b7
       -0.0060211276 -0.0037179277 -0.004480896 -1.0608828e-05
000160 e8 65 41 b7 5e 1f ae bb bd f9 b5 b8 50 7e 96 b7
       -1.1527423e-05 -0.005313798 -8.67727e-05 -1.7940212e-05
000170 7d 25 80 bb 1c da d6 bb 98 92 83 bb e4 af aa bb
       -0.003910719 -0.0065567624 -0.004015278 -0.005208956
000180 1d 76 2d bb f4 69 26 ba 41 6b 41 bb f8 02 8d bb
       -0.0026468106 -0.00063481857 -0.0029513391 -0.0043033324
000190 54 39 39 ba 4e 15 0f b8 3c cf 97 bb a1 05 bb bb
       -0.00070657325 -3.41137e-05 -0.0046328586 -0.005707458
0001a0 17 ff b8 bb ec ec a4 ba 6a 38 68 bb 2a 0b 4d bb
       -0.0056456435 -0.0012582815 -0.0035434016 -0.0031287172
0001b0 f7 32 69 bb 68 76 bf bb 17 fc a3 bb 4e b3 c5 bb
       -0.0035583356 -0.0058429725 -0.0050044167 -0.0060333377
0001c0 7a 23 55 bb 53 65 8b bb 24 57 9b b9 bc 24 21 ba
       -0.0032522366 -0.004254022 -0.0002962883 -0.00061471364
0001d0 b5 93 83 bb a1 e9 ea b6 7f 23 c3 ba b2 d9 29 bb
       -0.004015411 -7.0009414e-06 -0.0014887898 -0.002591711
0001e0 c2 ae 3c bb 17 15 d2 b9 4b a9 bc b8 dd d7 3e bb
       -0.0028790687 -0.00040070034 -8.996072e-05 -0.0029120364
0001f0 fc e5 2c bb a9 7f a5 b8 4a 61 28 bb dc 9d 1c bb
       -0.0026382199 -7.891592e-05 -0.0025692754 -0.0023897802

exp_avg_sq f4 [2, 64]
000000 ac 59 25 39 ff 25 4c 39 76 c9 4d 39 38 d0 1e 39
       0.00015769032 0.0001946911 0.00019625374 0.00015145622
000010 c2 84 0b 39 31 45 20 39 b9 d6 18 39 bb d2 0b 37
       0.00013305529 0.00015284565 0.0001457584 8.33411e-06
000020 31 a6 80 37 d2 6c 48 39 12 a1 10 38 9a 59 2f 39
       1.5336178e-05 0.00019114025 3.4482284e-05 0.0001672268
000030 d0 55 25 39 74 7a 25 39 e4 03 d7 36 c6 cc e7 36
       0.00015767594 0.00015781244 6.4079522e-06 6.9081752e-06
000040 f3 c8 05 38 33 dc 4c 39 1c 24 07 39 37 48 39 39
       3.189682e-05 0.00019536987 0.00012888055 0.00017669877
000050 79 4f 6e 39 a7 97 53 39 93 a0 11 39 de 4f f8 36
       0.00022727055 0.00020179023 0.00013888096 7.4002737e-06
000060 67 1c 28 37 a8 d8 4a 39 00 ed 03 36 4d 40 53 37
       1.0020193e-05 0.00019344932 1.9658473e-06 1.2591551e-05
000070 fc 42 05 39 10 5c 83 39 7d f1 0e 39 6d c5 43 39
       0.00012708822 0.0002505486 0.00013632137 0.00018670196
000080 cf 72 0a 39 0f b8 99 36 2c 02 3d 39 18 e7 17 39
       0.00013203475 4.5811826e-06 0.00018025254 0.00014486571
000090 6c 61 31 38 df 01 17 36 d3 73 1c 39 42 63 88 39
       4.229082e-05 2.2501843e-06 0.00014920467 0.00026013894
0000a0 53 16 7c 39 cf 8a 1a 39 0e 6d 68 39 a1 74 29 39
       0.00024040909 0.00014738295 0.0002216587 0.00016160544
0000b0 e9 df 45 39 c8 0e 4f 39 81 0f 16 39 e9 3e 65 39
       0.00018870797 0.00019746565 0.0001431089 0.00021862578
0000c0 75 d0 17 39 63 b5 58 39 25 ad 8d 36 83 86 4f 39
       0.00014478138 0.00020666937 4.222284e-06 0.00019791168
0000d0 5a 9c 47 39 5b 11 af 36 65 47 17 38 e4 09 25 39
       0.00019036364 5.217427e-06 3.6067697e-05 0.00015739311
0000e0 ad 08 3d 39 d2 8e 5f 37 20 6d 5f 38 1c 73 69 39
       0.00018027677 1.3325089e-05 5.3268974e-05 0.00022263493
0000f0 06 1a 15 39 80 eb 54 38 67 ed a3 38 0a 2c 1c 39
       0.00014219442 5.0764065e-05 7.816665e-05 0.00014893725
000100 ad 59 25 39 00 26 4c 39 75 c9 4d 39 37 d0 1e 39
       0.00015769033 0.00019469112 0.00019625372 0.0001514562
000110 c1 84 0b 39 30 45 20 39 ba d6 18 39 bb d2 0b 37
       0.00013305528 0.00015284563 0.00014575841 8.33411e-06
000120 31 a6 80 37 d5 6c 48 39 14 a1 10 38 9b 59 2f 39
       1.5336178e-05 0.0001911403 3.448229e-05 0.00016722681
000130 d2 55 25 39 75 7a 25 39 e5 03 d7 36 c8 cc e7 36
       0.00015767597 0.00015781245 6.4079527e-06 6.908176e-06
000140 ef c8 05 38 32 dc 4c 39 1c 24 07 39 37 48 39 39
       3.1896805e-05 0.00019536985 0.00012888055 0.00017669877
000150 78 4f 6e 39 a8 97 53 39 91 a0 11 39 de 4f f8 36
       0.00022727053 0.00020179024 0.00013888093 7.4002737e-06
000160 68 1c 28 37 aa d8 4a 39 fe ec 03 36 4d 40 53 37
       1.0020194e-05 0.00019344935 1.9658469e-06 1.2591551e-05
000170 fb 42 05 39 11 5c 83 39 7c f1 0e 39 6d c5 43 39
       0.0001270882 0.00025054862 0.00013632135 0.00018670196
000180 cf 72 0a 39 0f b8 99 36 2c 02 3d 39 1a e7 17 39
       0.00013203475 4.5811826e-06 0.00018025254 0.00014486574
000190 69 61 31 38 e0 01 17 36 d1 73 1c 39 44 63 88 39
       4.229081e-05 2.2501845e-06 0.00014920464 0.000260139
0001a0 55 16 7c 39 d0 8a 1a 39 0e 6d 68 39 a2 74 29 39
       0.00024040912 0.00014738296 0.0002216587 0.00016160545
0001b0 e8 df 45 39 c5 0e 4f 39 83 0f 16 39 eb 3e 65 39
       0.00018870796 0.0001974656 0.00014310893 0.0002186258
0001c0 75 d0 17 39 63 b5 58 39 26 ad 8d 36 83 86 4f 39
       0.00014478138 0.00020666937 4.2222846e-06 0.00019791168
0001d0 5a 9c 47 39 5a 11 af 36 65 47 17 38 e4 09 25 39
       0.00019036364 5.2174264e-06 3.6067697e-05 0.00015739311
0001e0 ad 08 3d 39 d3 8e 5f 37 1e 6d 5f 38 1d 73 69 39
       0.00018027677 1.332509e-05 5.3268966e-05 0.00022263495
0001f0 06 1a 15 39 7e eb 54 38 69 ed a3 38 0b 2c 1c 39
       0.00014219442 5.0764058e-05 7.816667e-05 0.00014893727

exp_avg f4 [2]
000000 31 7b b5 3b 33 7b b5 bb
       0.005538367 -0.005538368

exp_avg_sq f4 [2]
000000 77 78 ac 39 7a 78 ac 39
       0.0003289615 0.00032896159

exp_avg f4 [1, 64]
000000 e0 7a 60 bc 4c 14 71 bc 90 5c 81 bc 56 aa 5d bc
       -0.013701171 -0.014714312 -0.015791208 -0.013529381
000010 9a 5f 50 bc 03 10 52 bc b1 48 52 bc bd 9e c6 b7
       -0.012718106 -0.0128212 -0.012834714 -2.3677358e-05
000020 fc 1c 5f b1 1d b8 7e bc 1a e1 a4 39 d9 c5 52 bc
       -3.2467247e-09 -0.015546826 0.0003144823 -0.012864553
000030 c3 aa 60 bc 02 eb 5d bc 8d 0c 20 38 23 0a 15 b0
       -0.013712588 -0.0135448 3.815866e-05 -5.422029e-10
000040 bc 55 57 bb cc 81 3d bc 69 a4 5c bc 0a 1e 66 bc
       -0.0032857498 -0.0115665905 -0.013466933 -0.014045248
000050 60 5b 76 bc d7 dd 82 bc 4b a2 44 bc ac 33 7b b1
       -0.015036434 -0.015974922 -0.012001584 -3.655468e-09
000060 22 46 2d b1 54 3d 61 bc 3c 1c 98 b9 2e 63 db b0
       -2.521468e-09 -0.013747532 -0.00029012735 -1.5962536e-09
000070 94 32 4e bc ef e0 67 bc e7 ad 57 bc 31 02 79 bc
       -0.012585301 -0.014152749 -0.01316402 -0.015198276
000080 76 39 5e bc 10 f1 8d ba d5 6a 63 bc 29 72 51 bc
       -0.013563504 -0.0010829289 -0.013880451 -0.012783566
000090 b1 60 1c ba c8 84 14 ba 6d 9d 5e bc c3 00 72 bc
       -0.0005965336 -0.0005665538 -0.013587338 -0.014770689
0000a0 c3 69 83 bc ce 12 54 bc 52 82 7d bc 8f 9e 76 bc
       -0.016041642 -0.0129439365 -0.015472965 -0.015052452
0000b0 84 18 3f bc 74 7e 66 bc ef e3 59 bc 62 34 76 bc
       -0.01166356 -0.014068235 -0.0132989725 -0.0150271375
0000c0 ed 96 61 bc 80 15 81 bc 77 81 41 39 39 be 70 bc
       -0.013768894 -0.015757322 0.00018454144 -0.01469379
0000d0 69 da 65 bc b4 04 ba af c1 8d e6 bb 62 f9 7e bc
       -0.014029124 -3.3836545e-10 -0.0070359414 -0.015562387
0000e0 81 7d 77 bc 78 ed cd b7 ef 1c 41 bb 5d 75 78 bc
       -0.015105606 -2.4548484e-05 -0.0029466709 -0.0151647
0000f0 75 10 66 bc 3d cd 21 b9 ff c8 1b bc d9 db 67 bc
       -0.01404201 -0.00015430614 -0.00950837 -0.014151537

exp_avg_sq f4 [1, 64]
000000 15 e1 a3 3a 0f 29 af 3a e8 fa b0 3a a9 04 8c 3a
       0.0012502993 0.0013363677 0.001350251 0.0010682541
000010 50 ab 86 3a 7f 73 8a 3a 53 a4 8b 3a f4 64 11 38
       0.0010274444 0.0010562985 0.0010653831 3.4664714e-05
000020 6d a2 9c 38 5a 5e b7 3a 1b 39 38 39 f5 49 94 3a
       7.468914e-05 0.0013989911 0.00017568881 0.0011313545
000030 cf 06 9a 3a ea 3b 90 3a 07 6f da 37 93 dd 0b 38
       0.0011751297 0.0011004184 2.6039326e-05 3.334654e-05
000040 6d fd 23 39 88 4a a4 3a 25 25 7f 3a aa 06 a4 3a
       0.000156393 0.0012534419 0.0009733013 0.0012514193
000050 d2 2b d1 3a 33 4a bf 3a 70 d3 88 3a a5 67 19 38
       0.0015958494 0.0014594257 0.001043899 3.657457e-05
000060 b0 ae 50 38 0e 98 a7 3a 7a 81 37 37 81 fe 7c 38
       4.9753755e-05 0.0012786405 1.0937796e-05 6.0318507e-05
000070 30 cd 78 3a 7c bc d2 3a 94 d7 85 3a d2 3c b1 3a
       0.00094910245 0.0016077901 0.0010211342 0.0013522154
000080 ad 27 87 3a 2b 42 d6 37 c8 f6 a6 3a 94 ba 86 3a
       0.0010311507 2.55416e-05 0.0012738341 0.0010278993
000090 53 af 39 39 ad d6 7f 37 3a 4c 8b 3a 4d 38 e0 3a
       0.00017708288 1.52491675e-05 0.0010627576 0.0017106623
0000a0 76 99 d3 3a f9 7d 9e 3a 68 b4 cb 3a fd 60 a2 3a
       0.0016143757 0.0012091986 0.0015541436 0.0012388524
0000b0 63 ec a1 3a 28 70 b7 3a c0 0d 87 3a a9 3a c4 3a
       0.0012353774 0.0013995217 0.001030378 0.0014971095
0000c0 50 64 8c 3a 2c a5 b9 3a 86 4b 9d 37 16 ae c2 3a
       0.0010711048 0.0014163605 1.8751027e-05 0.0014852907
0000d0 a8 18 b4 3a 92 f5 d3 37 98 98 90 39 39 80 a6 3a
       0.0013740258 2.5267513e-05 0.00027579512 0.0012703008
0000e0 1b 13 b0 3a 95 2f 73 38 de 40 a1 39 4c b0 ca 3a
       0.0013433428 5.798003e-05 0.00030756643 0.0015463918
0000f0 44 5c 92 3a d2 5f 80 39 dd df 14 3a fc e3 97 3a
       0.0011166413 0.00024485454 0.000567911 0.001158833
