savedModels/ppo_cartpole_5120.pth (torch, 13659 bytes, 15 tensors)

shared_fc.0.weight f4 [64, 4]
000000 35 53 c4 3d 0b a1 c8 3e cc 57 5e 3d b8 9c 8f be
       0.09586183 0.39185366 0.05428295 -0.28049254
000010 89 73 1d be b3 8b 0e be c4 42 cf be 70 45 4f be
       -0.15376104 -0.13920479 -0.40480626 -0.20241332
000020 dd 24 81 bd 27 51 9d be ac 76 0c be 69 f2 e9 be
       -0.06305859 -0.30725977 -0.13717145 -0.45692757
000030 d6 aa bc bd 8c 2d a2 bd d9 6b 79 be e9 72 72 be
       -0.09212272 -0.079188436 -0.24357547 -0.23676647
000040 f7 4c 1e 3e 63 ff 15 3e 9d 8f 08 bf 9f 26 8e be
       0.15459047 0.14648204 -0.53344136 -0.2776384
000050 f5 9e 39 be ce 20 42 3d 76 e0 4a be d9 16 0d 3c
       -0.18127044 0.047394566 -0.19812188 0.008611404
000060 75 3b ed bd 29 36 0f 3e 21 9c 69 3e ae 7b 8a 3e
       -0.11583606 0.13985504 0.22813465 0.27047485
000070 43 6f c0 bd ce dd 16 bd e4 6d 98 b9 6b ed a8 bd
       -0.093962215 -0.036832623 -0.00029073574 -0.08248409
000080 6e 59 53 3e 29 6b 9d bd 10 3d 1f be 1d 12 58 3c
       0.20639583 -0.07686455 -0.15550637 0.013187912
000090 ac 59 a8 3e 35 36 3e 3e 19 64 81 3e 2c 60 8f be
       0.32880914 0.18575366 0.2527168 -0.2800306
0000a0 ef f0 ac 3e 61 78 ba be 64 90 0a be 17 31 c0 bd
       0.33777568 -0.36419967 -0.13531643 -0.09384363
0000b0 30 ab a5 bd 10 a0 7c be 12 8f 62 bd 0f 9f a0 3d
       -0.08089292 -0.24670434 -0.055312224 0.07842838
0000c0 80 c2 3a 3a b0 8d 88 bd ca ef 1b 3c 32 35 51 3e
       0.00071243197 -0.0666765 0.009517619 0.20430449
0000d0 9f 68 15 be 42 d2 f0 bd 84 be dd 3c 7e 90 87 3d
       -0.14590691 -0.117588535 0.027068384 0.066193566
0000e0 e1 f5 39 bd 98 0e 6f 3d 51 67 90 bd 06 dd 57 3c
       -0.045400504 0.058363527 -0.07050956 0.013175255
0000f0 62 f8 c2 3d 4e 1b ac 3d 4e c0 c1 bd a9 6a ef 3d
       0.095200315 0.084036455 -0.09460507 0.11690266
000100 ad 50 62 bd 66 3a 95 be fc 93 bb bd 82 98 f1 bd
       -0.05525272 -0.29146117 -0.09159085 -0.11796667
000110 1d cf a0 3e 55 fd 15 3e 68 ce 62 be 52 ad 10 3e
       0.31408015 0.1464742 -0.2214905 0.14128616
000120 d5 18 11 3d 00 f1 3b 3c bd cd 05 be 69 07 a1 be
       0.035424072 0.011471033 -0.13066764 -0.31450966
000130 b7 6a b5 bd f8 01 93 3e f9 f4 1c 3d ea e0 c7 bc
       -0.08858245 0.2871244 0.03831956 -0.02439924
000140 46 63 a7 bd 8f f8 8c be df 07 62 3d 79 94 8e 3e
       -0.08173232 -0.27533385 0.055183288 0.2784765
000150 71 c5 ff bd 43 f4 6c 3e 6b 08 9c 3e 55 d9 65 be
       -0.12488831 0.23140053 0.30475172 -0.22446187
000160 12 19 0c 3c 2f f5 21 3d 12 9c f2 3d 45 e3 e5 3e
       0.008550899 0.039540466 0.11846174 0.44899955
000170 3c 61 ff 3d 13 d7 80 bd 9d 4e c8 bc ba e2 cd bc
       0.12469718 -0.06291022 -0.024451548 -0.025132526
000180 e9 52 1e 3e d4 c9 ce bc 14 2f ef be a8 7c a2 3e
       0.15461315 -0.025242724 -0.46715605 0.3173573
000190 ea 50 23 bd 70 fb b4 be 01 1f 22 bd a3 35 1f bd
       -0.039872088 -0.35348082 -0.03958035 -0.03886951
0001a0 09 20 1f bc 36 85 cd 3d e2 80 f0 3c 9c 60 b1 3d
       -0.009712228 0.100351736 0.029358331 0.08661005
0001b0 c3 03 31 3e cb c0 25 3d 13 7c ca 3c e1 74 8c 3d
       0.17286591 0.040467065 0.024717366 0.068582304
0001c0 b8 6a 52 bd 0c f3 3a 3d 1b 52 ef 3b a4 07 96 3d
       -0.051371306 0.045641944 0.007303489 0.07325676
0001d0 f9 45 2d be 3f b0 ab be a6 c8 c4 3e 2e 81 58 3e
       -0.16921224 -0.33532903 0.38434333 0.21143028
0001e0 f3 a9 34 3e b7 f6 b9 bd 73 ac 9f 3e 9b 56 2b 3e
       0.17642955 -0.0908026 0.31186256 0.16732256
0001f0 2b be e1 3c 5f f9 8f be eb 14 23 3d ae 5f 8f 3d
       0.0275565 -0.28119943 0.03981487 0.07000671
000200 ba 79 d1 3d 81 11 de 3d bf ba 50 be 3d 4c 98 be
       0.102282956 0.10843182 -0.20383738 -0.29745665
000210 77 31 ea 3d 7b a8 6c be ac 50 8c 3d 38 da 84 be
       0.11435216 -0.23111145 0.068513244 -0.25947738
000220 a2 59 b4 3e 75 4e 7c 3d 79 d7 dd bd 0e 68 31 be
       0.35224634 0.06159826 -0.10832114 -0.1732485
000230 cf 67 2c be 25 e7 10 3d e7 01 6b 3e 5b f7 67 3e
       -0.16836475 0.035376687 0.22949944 0.22652952
000240 13 4e a4 be a4 41 b7 bb 1b ab 68 3e 9d de f0 bd
       -0.32090816 -0.005592542 0.22721522 -0.1176121
000250 fa c0 b1 bd d7 88 83 3e c3 56 28 bb 61 6d 28 3e
       -0.086793855 0.25690338 -0.002568648 0.16447975
000260 2b 00 9e bd 38 e8 42 be 66 24 32 3e c0 63 ab 3d
       -0.07714876 -0.19033897 0.17396697 0.08368635
000270 94 8e af be cb 96 c7 bd 19 a4 13 be 1e 40 a0 3e
       -0.34288466 -0.09745558 -0.14418067 0.31298918
000280 80 f6 7e be 28 47 44 be 5b a3 42 3e 2f 15 ba 3d
       -0.2489872 -0.19167769 0.19007628 0.09086072
000290 0d c4 9c bc 45 c6 f8 3e 0e 69 0e bd 84 af 73 be
       -0.019136453 0.48588768 -0.034768157 -0.23797423
0002a0 ce 24 5c be 42 b4 99 3e 0d 62 53 bd 35 ae 4b be
       -0.21498415 0.30020338 -0.05160718 -0.19890673
0002b0 2e b7 47 3e 8b 63 0e 3e 2d 40 3a 3e 83 83 61 be
       0.19503471 0.1390516 0.18188544 -0.22022824
0002c0 f6 bc da 3e cd d1 65 bc dd 65 f7 3a 2a 45 4e 3e
       0.4272229 -0.014027071 0.0018874962 0.20143571
0002d0 29 92 24 3e 06 23 d9 be 01 92 9e 3e a1 78 0b 3e
       0.1607138 -0.42409533 0.30970767 0.13620235
0002e0 12 eb a2 bd 60 1f 64 be 4a 4d f3 3e e6 6b 22 3e
       -0.07954992 -0.22277594 0.47519904 0.15861472
0002f0 4e 56 55 3d c2 b8 d9 be a1 38 3e 3e f5 03 af 3c
       0.05208426 -0.42523772 0.1857629 0.021364192
000300 15 c4 86 3e 89 1b 37 3d 7c e0 4d 3e 24 3a 1b be
       0.26321474 0.044703994 0.20105165 -0.15158898
000310 c4 ea 25 be ff f7 3c be 99 9c 03 be 65 33 a9 be
       -0.16202837 -0.18453978 -0.12852706 -0.33047023
000320 15 75 3e bd be 67 08 3b dc 98 ee 3b 3d f9 d2 3d
       -0.046498377 0.0020813788 0.007281406 0.10301445
000330 0e 15 86 3e 10 cb a7 3e d5 9b ed bc 55 47 06 bf
       0.26187938 0.32772112 -0.02900497 -0.52452594
000340 b1 fc b1 3e 7f 0b c3 3d 0d 1f 14 3e 82 c4 57 3e
       0.347631 0.09523677 0.1446497 0.21071056
000350 13 b1 0b 3d 44 b9 84 ba 9c 0e 86 3d de 0c 42 39
       0.034104418 -0.0010126014 0.06545755 0.00018506075
000360 b0 8e a3 3c 98 d2 30 3c 3a 48 46 be e4 65 43 be
       0.0199655 0.010792397 -0.1936349 -0.19081837
000370 0b 84 48 3c c8 28 02 3e 85 64 01 3d f2 76 08 bf
       0.012238513 0.1271087 0.031590004 -0.53306496
000380 62 4a 8c 3e 00 a7 18 3e 55 3d de 3d 3b f2 74 be
       0.274005 0.14907455 0.10851542 -0.23920529
000390 a2 b6 1f be ba e0 6c 3d 8c 1e 46 be fe 2e 89 3e
       -0.15597013 0.057831503 -0.1934759 0.26793665
0003a0 aa 77 7d 3e 15 6b 90 3e cb a2 c1 bd 38 1c f6 bd
       0.2475268 0.28206697 -0.094548784 -0.12017101
0003b0 b5 26 a6 be 4f 0b 6f 3e 4c d0 38 bc d2 8d ad be
       -0.32451406 0.23344158 -0.011280131 -0.33897263
0003c0 78 b4 8e 3d df 56 89 3e 83 94 ae 3d 6f 70 12 be
       0.069680154 0.2682409 0.0852442 -0.14300703
0003d0 af ca bf 3e ed de ad bb 74 0e 0b 3e 1b d5 2a 3c
       0.37459323 -0.005306116 0.13579732 0.010426785
0003e0 35 cb 5a 3d 86 ad c2 3a af 88 72 be a6 31 94 3c
       0.05341645 0.0014852739 -0.23684953 0.01809008
0003f0 91 b2 20 3e 01 c8 62 3e 9c 92 0e bd 3f f6 85 be
       0.15693118 0.22146608 -0.034807786 -0.26164433

shared_fc.0.bias f4 [64]
000000 10 c6 d5 3d 56 23 0a 3e 0e cb fc 3d a2 fb e6 3d
       0.10438168 0.13490042 0.12343417 0.11278464
000010 27 ce d6 3d 59 98 86 3c 73 ce e7 3d 0a 6f 4c bd
       0.10488539 0.016430067 0.11318674 -0.049910583
000020 30 1a 5a bd f4 85 f1 3d 5c eb 86 bd 6a 57 d9 3d
       -0.05324763 0.11793128 -0.0658786 0.10612376
000030 d2 cd 10 3e 23 2a eb 3d 49 df 1d bd 19 3e 52 bd
       0.14141014 0.11482646 -0.03854302 -0.051328752
000040 de dc 56 bd 64 70 aa bc 3e 9c dc 3d 4c fb 01 3e
       -0.05245673 -0.020805545 0.10771988 0.12693518
000050 16 31 f1 3d 65 cc 11 3e a7 6e d2 3d 54 23 15 bd
       0.117769405 0.14238127 0.102750115 -0.036410645
000060 15 d5 90 bd 0b 66 e6 3d 86 13 32 bd 98 bf 3b bd
       -0.07071892 0.11249932 -0.04347565 -0.045837015
000070 15 66 3e bc f0 f7 df 3d 50 3b e2 3d 85 e5 f6 3d
       -0.011621018 0.10935962 0.11046469 0.12055496
000080 73 ca e3 3d fe 4f 80 bd a4 ac 07 3e 8c 46 d8 3d
       0.111225985 -0.06265257 0.13249451 0.10560331
000090 f6 68 68 bd e4 db 54 bd 10 db df 3d 68 dc 0a 3e
       -0.056740724 -0.051967517 0.10930455 0.13560641
0000a0 e6 fe 05 3e 47 f2 cf 3d 75 ed 0e 3e 58 63 0a 3e
       0.13085517 0.101536326 0.1395777 0.13514459
0000b0 66 e9 d2 3d 6d 5d f6 3d d8 d7 94 bc d4 c9 08 3e
       0.102984235 0.12029538 -0.018169329 0.13358241
0000c0 0e ee f4 3d f0 01 0e 3e d8 c7 69 bd 3a bf ce 3d
       0.11959468 0.13867927 -0.05707535 0.10095067
0000d0 ff f5 fe 3d 73 69 99 bc 96 84 62 bd 81 03 fa 3d
       0.12449264 -0.01872704 -0.055302225 0.122076996
0000e0 1f 3a 07 3e 81 c7 8e bd 7d 86 51 bd a9 e3 de 3d
       0.13205765 -0.06971646 -0.05115365 0.108832665
0000f0 2e 83 48 3d 7b e7 1d bd f4 1f 0f bd 6f e0 dc 3d
       0.048953228 -0.038550835 -0.034942582 0.10784995

actor_head.weight f4 [2, 64]
000000 c0 a6 b1 3c 5d 33 21 3d 41 2b 02 3d d9 fb 77 3d
       0.021685958 0.039355624 0.03177953 0.060542915
000010 6f 75 ab 3c 55 ef 68 3b e5 d7 82 bd f4 bd f5 3c
       0.02093002 0.0035543044 -0.06388835 0.029997803
000020 42 8e c2 bc 14 df 99 3c 68 18 a8 3c fe 29 3a bd
       -0.023749474 0.01878313 0.02051945 -0.045450203
000030 63 ac 75 bd ab 0a d0 bc cc ed 89 bb 40 67 e0 bc
       -0.059978854 -0.025395712 -0.004209256 -0.027392983
000040 20 a2 0f bd e0 c9 94 bc f0 c7 dd 3c 7c 44 b8 bb
       -0.035066724 -0.018162668 0.027072877 -0.0056233983
000050 de db 3f bd fa 9d c9 3c 56 23 27 bd dc 85 cb ba
       -0.04684054 0.024611462 -0.040805183 -0.0015527564
000060 03 c2 51 bd 58 ff ff bc 26 15 51 bc b4 6c 22 bc
       -0.051210415 -0.031249687 -0.01276139 -0.009913612
000070 86 b3 42 bd a5 b7 29 bd 43 c9 65 bd 30 9a 22 bd
       -0.04753449 -0.041434903 -0.05610014 -0.039697826
000080 bb 10 d8 3c f2 cc 9b 3c 35 c1 0f 3d e1 ce 8f bd
       0.026375165 0.019018624 0.035096366 -0.07021881
000090 43 24 80 3c 45 25 e2 bc db ea 63 bd 88 13 5d bd
       0.015642291 -0.027605662 -0.055643898 -0.053973705
0000a0 b7 bc 54 bd 02 1d 1f 3d 3a e1 3b 3d af a8 32 3d
       -0.051937785 0.038846023 0.04586909 0.0436179
0000b0 13 2f 72 bd 7e e8 b4 bc 0a d0 c2 bc e2 09 32 bd
       -0.059126925 -0.022083517 -0.023780841 -0.043466456
0000c0 0d 28 04 3d 85 6e 5e 3d 57 41 cd bc 3c 8f 2d 3d
       0.032264758 0.05430462 -0.02505557 0.042372927
0000d0 2d 2e 75 bd f4 cb 82 bb 35 8a 04 3b bd 65 d1 3c
       -0.05985849 -0.0039915983 0.002022398 0.025561208
0000e0 4d 7e d0 3c 20 ee c7 bc c9 9c 04 3d 92 ec 18 3d
       0.02545085 -0.024405539 0.032376084 0.037334986
0000f0 26 39 26 3d 5e 30 be bc 97 cb 7e 3c 8e f3 f6 3b
       0.040581845 -0.023216423 0.015551469 0.007536358
000100 c5 aa 8d bc 71 fd 4b bd 01 78 2f bd 9b 4a 82 bd
       -0.017293343 -0.049802247 -0.042839054 -0.06361886
000110 c5 f2 3a bd 63 a4 07 3a aa 4f 96 3d c8 fb d9 bc
       -0.04564168 0.0005174337 0.073394135 -0.026609316
000120 af 84 01 3c a5 43 43 bd 64 96 b3 3c 23 a4 0d 3d
       0.007905169 -0.047671933 0.021922298 0.03458036
000130 5b b8 90 3d 35 57 55 3d 4f 94 47 bc d2 99 5f 3c
       0.07066413 0.05208512 -0.012181356 0.013647513
000140 6c 22 d4 bc 6c 54 85 3c 3e e1 1f bd d2 58 4e ba
       -0.02589532 0.016275607 -0.039033167 -0.00078715116
000150 d0 db a6 3c 7c 37 33 bd 3d 73 56 3d bd 92 97 bc
       0.020368487 -0.043754086 0.052355994 -0.018502587
000160 4e dc f8 3c 91 7b ab 3c fc 4d 02 3d 4e 39 80 3c
       0.030378487 0.020932944 0.031812653 0.015652325
000170 3b 62 53 3c 43 4e 4e 3d 08 38 98 3d 19 e4 82 3d
       0.012901838 0.050367605 0.07432562 0.063911624
000180 40 ae 07 bd 24 6f 61 bc 68 ec 99 bc 01 ed a7 3d
       -0.033125162 -0.013759408 -0.018789485 0.08199502
000190 5f 97 21 bb a2 51 61 3c ee 96 36 3d e9 71 2d 3d
       -0.0024656875 0.013752373 0.04457753 0.04234496
0001a0 0e a9 1e 3d a2 73 df bc d8 50 2f bd 88 4a 59 bd
       0.038735442 -0.027276818 -0.042801708 -0.053049594
0001b0 f7 67 e1 3c cd 27 3a 3d d5 cc 19 3c 6e 76 31 3d
       0.027515395 0.045448113 0.009387215 0.043325834
0001c0 70 09 27 bc 4e 71 68 bd 16 a8 d2 3c 74 af a0 bc
       -0.010195121 -0.05674868 0.025714915 -0.019614913
0001d0 8d 87 97 3d aa 75 c8 3b e4 2e 1d bc 2e 8c 0f bd
       0.07398901 0.0061175423 -0.009593699 -0.035045795
0001e0 68 a2 cf bc 29 b2 c4 3c 68 50 f4 bc c4 14 f8 bc
       -0.025345996 0.024010735 -0.029823497 -0.03028334
0001f0 f4 e0 ef bc e8 93 cb 3c 5b 0b a4 bb ab 5d 2a bd
       -0.02928207 0.0248508 -0.0050062365 -0.041593235

actor_head.bias f4 [2]
000000 57 dc 7f bc 57 dc 7f 3c
       -0.015616498 0.015616498

critic_head.weight f4 [1, 64]
000000 7d d8 4c 3e 26 4f 18 3e 92 d8 21 3e 01 7a 8a 3e
       0.20004459 0.14873943 0.15805271 0.27046207
000010 cf 68 81 3e 57 53 f5 3c a0 86 4e 3e fb 57 ed bd
       0.25275275 0.029946966 0.20168543 -0.115890466
000020 e2 90 15 be 05 2f 14 3e 7c 97 ed bd d8 0b b3 3e
       -0.1460605 0.14471062 -0.11601159 0.34969974
000030 d8 50 09 3e 46 6b 5e 3e 19 dc 68 be 1e 96 96 bd
       0.13409746 0.21720609 -0.2274021 -0.07352851
000040 fb 12 05 bd 33 dd af 3c ed 72 79 3e 36 3f 1b 3e
       -0.032488804 0.02146778 0.24360247 0.15160832
000050 d4 54 c0 3d 15 bc ed 3d 5c 5a a3 3e 5f 94 b9 bd
       0.0939118 0.116081394 0.31904876 -0.09061503
000060 3d 52 a1 bd ef 5a 73 3e 7f 81 c9 bd 22 17 6f bd
       -0.07877014 0.23765157 -0.098391525 -0.05837167
000070 ce d9 3a 3c 98 03 55 3e 38 71 85 3e f2 c8 e4 3d
       0.011404468 0.20802152 0.26062942 0.1117114
000080 21 73 40 3e 17 f0 31 be 7b 03 18 3e fd 67 a0 3e
       0.18793918 -0.17376743 0.14845078 0.31329337
000090 46 ac 96 bd 8d ea 12 be e3 98 98 3e f0 b9 01 3e
       -0.07357077 -0.14347287 0.29804143 0.12668586
0000a0 70 7b f9 3d 81 5e 6e 3e bf 80 eb 3d 9e c0 eb 3d
       0.12181747 0.23278238 0.11499166 0.11511348
0000b0 05 dd 0b 3f 6c c5 1b 3e ff b6 d6 3c 7f 50 0b 3e
       0.54634124 0.15212029 0.026210306 0.13604926
0000c0 e2 e7 47 3e 52 53 0b 3e f5 32 6e bd d7 62 77 3e
       0.1952205 0.13606003 -0.058154065 0.24158798
0000d0 ef 88 2c 3e 1a 48 84 bd 84 63 b7 bc 23 27 fc 3d
       0.16849111 -0.06459065 -0.02238632 0.12312152
0000e0 4a 82 05 3e e3 e3 cc bd 0a 3b d2 bb 26 29 37 3e
       0.13037983 -0.100044034 -0.0064157294 0.1788679
0000f0 29 65 5f 3d 36 0c 61 bd ef 57 b0 bc e3 2a 45 3e
       0.054539833 -0.054943286 -0.021526305 0.19254641

exp_avg f4 [64, 4]
000000 83 df 84 3a 34 23 c6 bb ff 00 75 b9 e6 bf f4 3b
       0.0010137412 -0.006046677 -0.00023365392 0.007469165
000010 49 56 e2 3a 1c 62 e0 3a e8 6f 09 b9 89 e6 52 ba
       0.0017268147 0.0017119083 -0.00013107026 -0.00080452167
000020 ca 94 ca 3a 32 b5 ea 36 87 87 4c 39 2a 8c 34 3b
       0.001545572 6.9948373e-06 0.00019505444 0.0027549365
000030 e6 0b 38 3b d0 4d 15 3a 64 d3 42 38 be 97 20 3b
       0.0028083264 0.0005695494 4.6450077e-05 0.0024504508
000040 8f 24 be 3a 15 8a aa bb bc 45 f1 39 41 71 14 3c
       0.0014506745 -0.005204449 0.00046019058 0.009060205
000050 7c c8 90 39 fc fa 6b b6 c0 db 76 37 e1 58 9f 39
       0.00027615193 -3.516382e-06 1.4713907e-05 0.00030393063
000060 66 8c 13 3b 34 f2 8b 3b d7 17 98 ba 62 71 f0 bb
       0.0022514104 0.004270816 -0.0011603785 -0.007337735
000070 ea a2 0f b9 61 35 bf 39 bd 03 2a b9 35 1e a5 ba
       -0.00013698233 0.0003647013 -0.00016213856 -0.0012597503
000080 dc d0 99 b8 9c c1 a2 ba 7a 5e 28 b9 03 ee 83 3a
       -7.3345116e-05 -0.0012417319 -0.00016056924 0.001006544
000090 ea 08 4c 3a 33 99 77 bb 89 ff 06 b9 32 de 9e 3b
       0.0007783311 -0.0037780523 -0.0001287443 0.004848265
0000a0 b5 82 bd b9 04 32 63 bb 62 a4 b6 b9 ae 52 33 3b
       -0.00036146273 -0.0034667263 -0.0003483622 0.0027362513
0000b0 f4 e7 85 3b 35 2f 58 3c 00 9c 43 ba 35 0e 6f bc
       0.004086489 0.013194849 -0.00074619055 -0.01459079
0000c0 60 5f ce 3a d3 fd 81 3b 23 80 fc b9 ba 0b a7 bb
       0.0015744977 0.003967026 -0.00048160655 -0.0050978335
0000d0 ad 24 30 3b 8b 19 ab 3b e5 06 1e ba 76 9e c3 bb
       0.002687733 0.005221551 -0.0006028249 -0.0059698178
0000e0 4a 74 13 b8 0a f1 74 3a 39 19 11 38 01 9a 65 ba
       -3.5155834e-05 0.0009343779 3.4594184e-05 -0.0008758605
0000f0 8d e3 17 37 b5 9e 39 b9 97 55 a9 38 5c 41 2f 3a
       9.053282e-06 -0.00017702098 8.07449e-05 0.00066854595
000100 ed 36 2d b9 dc 22 7b ba 20 36 d6 b8 9d 13 1a 3a
       -0.00016519027 -0.00095800846 -0.00010214397 0.00058775564
000110 f9 01 eb b7 4f ae cc b7 32 c3 f1 b7 85 50 8a b9
       -2.8015102e-05 -2.4399864e-05 -2.8820334e-05 -0.00026381403
000120 4f 54 f5 3a 46 de 75 bb 6d 10 5d 39 4f 12 ee 3b
       0.0018717143 -0.0037516518 0.00021082321 0.007265366
000130 96 83 b6 3a 51 a9 af ba ae 0a fb b9 c5 a1 8a 3a
       0.0013924714 -0.0013401901 -0.00047882408 0.0010576776
000140 22 43 7b 3a e1 56 7d 3b 73 81 90 b9 b2 de 9b bb
       0.00095848937 0.003865652 -0.00027562267 -0.004756772
000150 83 81 79 3a 99 ef fe ba 06 10 7f b9 fc 1d 22 3b
       0.0009517895 -0.0019450068 -0.00024324664 0.002473711
000160 43 82 4b 3b a3 b0 41 3c 31 6d c3 ba 4b 6a 8d bc
       0.0031052984 0.011821899 -0.0014909861 -0.017262598
000170 77 48 25 b6 93 5e c9 b7 62 02 55 b6 0d 79 6b 37
       -2.4629096e-06 -2.4005107e-05 -3.174086e-06 1.4035276e-05
000180 76 03 9f b9 a4 f7 43 bb 02 fd c6 38 d0 3f 84 3b
       -0.00030329422 -0.0029902244 9.488502e-05 0.0040359274
000190 20 96 2f 3b 2b 19 11 3c a9 38 2f b9 6f 23 0a bc
       0.0026792362 0.008856098 -0.00016710408 -0.0084313
0001a0 09 f1 99 b7 24 68 a0 38 4f 33 1a 39 2b 28 30 3a
       -1.8351262e-05 7.648792e-05 0.00014705698 0.00067198527
0001b0 9b 0d 89 37 c6 99 5b b8 88 3d 3e 38 a6 51 a9 39
       1.6338008e-05 -5.235688e-05 4.5356835e-05 0.00032295025
0001c0 d4 cf 83 38 46 a7 74 39 b6 44 99 b8 f7 5f 09 ba
       6.285278e-05 0.00023331968 -7.308407e-05 -0.0005240435
0001d0 4b 97 19 3b 58 69 0a 3c bb 92 4a ba 63 9f 2b bc
       0.0023436125 0.0084479675 -0.0007727553 -0.0104750125
0001e0 f4 6d 3c 3b 21 7d 08 3c 7b 60 9e ba 5f 61 3e bc
       0.002875206 0.008330614 -0.0012083197 -0.011619895
0001f0 36 c5 a2 3a 35 08 85 3b f2 9e 6e b9 4e 63 94 bb
       0.0012418393 0.0040598162 -0.0002275666 -0.0045284396
000200 8c 22 9a 3a f5 53 72 bb e0 52 59 39 7c 22 cb 3b
       0.0011759563 -0.0036976312 0.00020725606 0.006199179
000210 d0 1f b1 b9 f4 07 56 39 68 ff 34 ba e0 91 52 bb
       -0.00033783773 0.00020411593 -0.00069045136 -0.0032130405
000220 fb 19 94 3a 18 ae 9c ba 38 55 e9 b6 b8 3e 12 3b
       0.0011299247 -0.001195374 -6.953862e-06 0.0022315215
000230 2c 53 73 3b 59 34 0a 3c 2e 5c d5 ba 20 94 4d bc
       0.0037128432 0.008435332 -0.0016278082 -0.012547523
000240 ce 32 d5 b9 34 a6 aa 3a bd e0 05 39 43 30 f8 ba
       -0.00040664378 0.0013019503 0.0001276759 -0.0018935282
000250 9a a2 89 b9 7a 81 27 3b ee e4 11 3a 29 a1 63 ba
       -0.00026251824 0.0025559352 0.0005565424 -0.00086833775
000260 76 4b 6c 3b 8e 93 20 3c c6 90 7e ba 67 c3 41 bc
       0.003605572 0.009800805 -0.0009710904 -0.011826373
000270 40 ea c2 3a 8e 9f 92 3b 14 05 f6 b9 07 e2 b9 bb
       0.0014870837 0.004474587 -0.0004692456 -0.0056726965
000280 63 80 c4 3a d7 35 6c 3b ca b8 d2 b9 82 d6 8c bb
       0.0014991876 0.0036042833 -0.00040192 -0.0042980323
000290 43 67 97 3a 39 89 ea bb cf 1b a6 b9 6b 12 0c 3c
       0.001155116 -0.0071574715 -0.00031682706 0.008549313
0002a0 59 ca 6b 3a 11 47 05 bb d3 52 29 b9 b8 de 33 3b
       0.0008994691 -0.0020336548 -0.0001614795 0.0027445983
0002b0 79 3f 61 3a f4 6c f6 ba f1 91 14 b9 92 e4 28 3b
       0.0008592527 -0.0018800781 -0.00014168747 0.0025771004
0002c0 86 77 93 3b 60 54 8f 3c 62 6e e6 ba 2e 87 cb bc
       0.0045003323 0.017496288 -0.0017580504 -0.024844732
0002d0 68 fc cb 3a d4 85 d2 3b d9 f7 d8 b9 bf e2 fb bb
       0.0015562894 0.006424645 -0.0004138339 -0.0076869424
0002e0 bb 0b 69 39 46 ad 8b 3a f1 d0 db b8 3d d6 bb ba
       0.00022224982 0.0010656498 -0.00010481652 -0.0014330816
0002f0 da 66 c4 3a fa 86 ad 3b fc 1b 76 b9 a2 c0 ba bb
       0.0014984265 0.0052956315 -0.00023470813 -0.005699233
000300 e6 5f e7 3a ee c1 98 ba 8f 1d a0 b9 bd 4f ef 3a
       0.0017652481 -0.0011654475 -0.000305396 0.0018258017
000310 9f 8e c1 3a 35 6d 4e 3a 44 15 57 b7 a2 38 29 3a
       0.0014767236 0.00078745495 -1.281995e-05 0.00064552773
000320 65 65 10 b9 92 ea 8a ba 66 46 12 39 0a 25 e9 3a
       -0.00013770683 -0.0010598472 0.0001394987 0.0017787528
000330 12 c2 98 3a 80 e4 ea bb a9 60 ef b6 6f 25 24 3c
       0.0011654517 -0.0071683526 -7.134008e-06 0.0100186905
000340 8e d6 e3 3a bb d9 41 3b 0f 5b 55 ba fc 83 aa bb
       0.0017382668 0.002957924 -0.0008138874 -0.005203722
000350 3a bf 2b 36 91 e0 d3 35 0f 3f 97 35 85 df b6 36
       2.5592294e-06 1.5786082e-06 1.1268729e-06 5.450044e-06
000360 c1 21 30 b8 43 11 05 3a 71 6a 5f b8 40 cf 5d ba
       -4.1993106e-05 0.00050761196 -5.3266474e-05 -0.00084613636
000370 53 d5 45 3a bc 48 49 bb c9 d1 8d 38 bc 7e 9f 3b
       0.00075467414 -0.003071352 6.7624795e-05 0.004867403
000380 a3 59 64 3a 08 5c 1c bb 67 9a dc b8 89 04 54 3b
       0.00087108667 -0.0023858566 -0.00010519177 0.0032351336
000390 72 01 fa b9 07 06 4f bb ec 97 a8 39 2a 56 9e 3b
       -0.00047684793 -0.0031589286 0.00032156648 0.004832049
0003a0 6f 63 86 b7 92 12 53 39 c1 dc c1 36 99 4c 6c b9
       -1.6020347e-05 0.00020129446 5.7775474e-06 -0.00022535249
0003b0 b0 48 a0 3a 23 ec 91 bb f3 76 80 b8 08 bd d8 3b
       0.0012228694 -0.0044531985 -6.125672e-05 0.006614331
0003c0 24 f8 6b 39 23 c8 de ba e6 c1 a8 b8 aa 51 01 3b
       0.00022503786 -0.0016996901 -8.046981e-05 0.0019732513
0003d0 62 90 40 38 af ba e7 38 08 5f 96 37 80 17 03 38
       4.5910834e-05 0.00011049711 1.7925646e-05 3.125472e-05
0003e0 f1 10 57 36 af 13 29 b8 42 21 fb b7 68 33 e5 b7
       3.2047358e-06 -4.031107e-05 -2.9937019e-05 -2.7322865e-05
0003f0 4e ff 8b 3a 71 cf a6 bb 00 7f c3 b8 eb 2e e0 3b
       0.0010680945 -0.005090647 -9.32198e-05 0.0068415306

exp_avg_sq f4 [64, 4]
000000 10 7b 1b 35 89 de 9c 37 d8 8f 21 34 8c 9f da 37
       5.792108e-07 1.8700275e-05 1.5046624e-07 2.606192e-05
000010 7f 4e 42 35 84 ac 3f 36 98 08 22 34 65 2b 2c 36
       7.238486e-07 2.8561635e-06 1.5090552e-07 2.5655256e-06
000020 56 50 71 35 2d 26 98 36 09 07 6d 34 ab e4 fc 36
       8.98964e-07 4.5343972e-06 2.2074904e-07 7.5368057e-06
000030 c6 a6 7c 36 0f ed b4 37 58 bd 6e 35 ea 51 12 38
       3.7648e-06 2.1568061e-05 8.893744e-07 3.48854e-05
000040 12 46 9c 35 2f 23 cd 37 02 92 1b 35 b6 7d 4b 38
       1.1643299e-06 2.4454288e-05 5.795447e-07 4.851605e-05
000050 d3 e7 39 31 14 2f f8 32 27 2f 1e 30 15 e2 7f 33
       2.705282e-09 2.8892408e-08 5.754707e-10 5.9577435e-08
000060 8c 7e 11 35 d4 8a ac 36 81 92 fb 34 c1 21 9d 37
       5.420086e-07 5.142161e-06 4.685899e-07 1.8731576e-05
000070 40 39 57 35 0b 44 0b 37 a4 04 19 34 1c 45 86 37
       8.017705e-07 8.300888e-06 1.4250924e-07 1.6006226e-05
000080 a1 d9 75 34 b0 24 8f 37 f4 ec fb 33 3a 18 da 37
       2.2896576e-07 1.7064012e-05 1.17312e-07 2.5998906e-05
000090 4e 70 88 34 65 0c cb 36 ee 5e 85 33 91 a9 11 37
       2.5413686e-07 6.0513144e-06 6.210563e-08 8.682154e-06
0000a0 6c 21 91 35 04 ef c7 37 70 d7 24 34 5d 8c d3 37
       1.0813069e-06 2.3833949e-05 1.5352066e-07 2.5218522e-05
0000b0 f0 b1 f1 36 41 c6 c2 38 7b 2f 5b 35 75 54 d7 38
       7.2030743e-06 9.2875685e-05 8.165295e-07 0.0001026773
0000c0 67 4f ad 34 f2 4c 39 36 fe 83 95 33 ee dc 8c 36
       3.2281534e-07 2.7611936e-06 6.9623624e-08 4.1980447e-06
0000d0 9d ee 0f 36 e3 9a 6b 37 ea 9a 8b 34 11 28 53 37
       2.1447552e-06 1.4043154e-05 2.6003482e-07 1.2585909e-05
0000e0 f4 45 8b 34 45 73 e6 37 c0 34 08 34 c4 65 14 38
       2.5941665e-07 2.7471813e-05 1.2685177e-07 3.5380726e-05
0000f0 a9 c3 ba 33 20 49 5d 36 98 4e aa 33 c7 a7 2b 37
       8.69689e-08 3.297413e-06 7.930538e-08 1.0231458e-05
000100 31 1c 6c 34 f5 f4 94 36 83 d7 e1 32 f7 72 a9 36
       2.1989469e-07 4.4392605e-06 2.629145e-08 5.049976e-06
000110 33 71 09 32 23 80 9f 33 b8 08 4a 31 ff 84 99 33
       8.000188e-09 7.4273224e-08 2.9399825e-09 7.1488095e-08
000120 d5 f4 d8 35 2c 0e a5 37 50 17 10 35 86 61 2a 38
       1.616451e-06 1.9676132e-05 5.3678104e-07 4.0621984e-05
000130 1d a8 85 34 b2 a1 87 36 7c 57 89 33 2a 8a 8c 36
       2.48955e-07 4.0421373e-06 6.395473e-08 4.1884095e-06
000140 e7 01 05 34 4a 03 02 36 44 f9 d2 32 51 ee 45 36
       1.2387282e-07 1.9373424e-06 2.456057e-08 2.9494006e-06
000150 3d 26 03 34 d2 fd 07 36 82 81 d9 32 72 8d 45 36
       1.2214237e-07 2.026431e-06 2.5321018e-08 2.943762e-06
000160 ec 9b 19 36 88 53 50 38 06 0a a3 35 00 7a fb 38
       2.2889535e-06 4.966886e-05 1.2147364e-06 0.00011991337
000170 0c fd 88 33 53 22 8b 36 01 84 07 33 4c 5f c6 36
       6.3790225e-08 4.1465187e-06 3.1552194e-08 5.911954e-06
000180 7a e2 8e 34 21 b1 47 37 e5 b0 cd 33 0c 79 bb 37
       2.6614345e-07 1.1902565e-05 9.578233e-08 2.2348504e-05
000190 db 96 37 36 eb 0a ff 37 57 9a a9 34 c7 a2 d8 37
       2.7356934e-06 3.0403453e-05 3.1591e-07 2.5825006e-05
0001a0 80 f8 a3 33 2f ac 12 36 f3 0c 80 34 b4 4b 16 37
       7.635481e-08 2.185592e-06 2.385128e-07 8.958323e-06
0001b0 cd 4d 91 33 f7 d4 06 36 e7 be 62 33 f3 79 d2 36
       6.7662405e-08 2.0091518e-06 5.279335e-08 6.2726845e-06
0001c0 b2 35 8c 30 b2 80 80 33 1b a6 10 31 bf 0a 46 34
       1.0201602e-09 5.983874e-08 2.1049178e-09 1.8444096e-07
0001d0 25 1f 07 36 61 f3 e7 37 3f 56 a3 34 2c 0c 1f 38
       2.0134696e-06 2.7650678e-05 3.0423868e-07 3.791989e-05
0001e0 2d 51 b5 35 35 f8 c5 37 00 61 3a 35 5a 6e 5d 38
       1.3509176e-06 2.359981e-05 6.9431553e-07 5.279328e-05
0001f0 04 85 32 34 10 a9 09 36 75 09 06 33 bb 38 31 36
       1.6625933e-07 2.0512998e-06 3.1207907e-08 2.6408077e-06
000200 7c 31 1a 35 9c 9c 36 37 9d 91 71 34 53 12 ae 37
       5.744148e-07 1.0884509e-05 2.2497848e-07 2.075095e-05
000210 92 97 12 36 70 52 9c 37 07 00 4c 35 e5 5a 27 38
       2.184392e-06 1.8635037e-05 7.599596e-07 3.9900555e-05
000220 ed 20 8f 34 c0 86 3e 36 04 82 b9 33 3a 2d 97 36
       2.6659782e-07 2.839064e-06 8.6383835e-08 4.5054157e-06
000230 8d a4 89 36 53 0c 21 38 c3 41 bd 35 4b fc a5 38
       4.1020744e-06 3.839687e-05 1.4100737e-06 7.914806e-05
000240 8f ab d3 34 db f6 cd 36 09 52 09 33 2a 77 27 37
       3.9426638e-07 6.138214e-06 3.197241e-08 9.981721e-06
000250 6f 26 3b 34 5f f3 21 37 5f 70 d3 34 df 5f 94 36
       1.7429714e-07 9.653012e-06 3.9383573e-07 4.4219046e-06
000260 88 a6 a6 36 b9 a1 63 38 55 f6 3a 35 a3 06 90 38
       4.9665723e-06 5.4271633e-05 6.964886e-07 6.867691e-05
000270 d3 14 e9 34 63 41 a3 36 25 86 91 33 6b 46 e3 36
       4.3414784e-07 4.8653906e-06 6.7764894e-08 6.773325e-06
000280 3f 47 a0 34 85 0f 27 36 f6 9d 42 33 25 19 55 36
       2.985416e-07 2.4893973e-06 4.531281e-08 3.175411e-06
000290 17 b6 4e 35 5f c2 f0 37 34 98 66 34 92 c0 24 38
       7.7005956e-07 2.870074e-05 2.147579e-07 3.9279992e-05
0002a0 cb f0 01 34 47 7c 10 36 90 ce e4 32 8a 8a 62 36
       1.2101661e-07 2.153001e-06 2.6636627e-08 3.3757265e-06
0002b0 a1 c9 fa 33 19 4e bf 35 9b fb ce 32 a3 90 0a 36
       1.1678208e-07 1.4253338e-06 2.4095973e-08 2.0647792e-06
0002c0 67 0a 9b 36 d2 14 b6 38 17 45 3b 36 21 98 89 39
       4.620571e-06 8.6823144e-05 2.7905387e-06 0.0002624402
0002d0 59 93 4b 35 31 8d 38 37 59 a6 fc 33 e8 12 6a 37
       7.583781e-07 1.1000128e-05 1.1764923e-07 1.3951889e-05
0002e0 9f a9 16 32 82 59 0d 35 9f b6 15 32 ec f7 a1 35
       8.7697165e-09 5.2656844e-07 8.714465e-09 1.206759e-06
0002f0 d8 19 11 35 3e d9 d2 36 40 19 9a 33 2c b9 df 36
       5.4054317e-07 6.283778e-06 7.175777e-08 6.6674747e-06
000300 c6 3e 13 35 a4 1a ff 36 e7 bb 3a 34 11 21 30 37
       5.4853115e-07 7.6026936e-06 1.7390958e-07 1.0498116e-05
000310 b1 2e 14 35 83 da 28 36 89 59 da 33 dc c9 54 36
       5.520224e-07 2.5161141e-06 1.01677024e-07 3.170796e-06
000320 05 54 5e 34 bc 05 b5 36 b2 06 87 33 cc 62 2f 37
       2.0705927e-07 5.394888e-06 6.287645e-08 1.0453816e-05
000330 c9 7f 83 35 12 b8 fb 37 ed 52 ac 34 12 3f 4a 38
       9.797451e-07 3.0007246e-05 3.2097833e-07 4.821929e-05
000340 8a b9 a3 34 22 84 b8 35 05 09 32 34 e1 59 b9 36
       3.0496113e-07 1.3747524e-06 1.6580823e-07 5.523893e-06
000350 92 1f f1 31 9b 47 53 34 dc 10 b0 32 3c fd 34 34
       7.0176123e-09 1.9676956e-07 2.0496763e-08 1.6855932e-07
000360 dd 07 0f 33 a7 80 08 36 56 f6 fd 32 76 55 8b 36
       3.3301934e-08 2.0340465e-06 2.9565097e-08 4.152472e-06
000370 b8 0b 51 34 d0 8e 6b 36 ac 5d 73 33 24 f6 e1 36
       1.9468905e-07 3.5100857e-06 5.666304e-08 6.734177e-06
000380 b3 ec 4b 34 d0 d5 4f 36 38 5b 49 33 07 68 98 36
       1.8991959e-07 3.096986e-06 4.6881922e-08 4.5420634e-06
000390 2b 8e 26 35 94 0f 82 37 a1 02 49 34 32 07 00 38
       6.20467e-07 1.5504462e-05 1.872054e-07 3.052428e-05
0003a0 8c f2 d0 32 f7 a8 fa 35 85 a9 49 32 5d c5 31 36
       2.4324684e-08 1.8675627e-06 1.1738284e-08 2.6489936e-06
0003b0 de 3a 11 35 e7 fd 3e 37 da c9 0b 34 e1 0e a5 37
       5.410237e-07 1.1383999e-05 1.3018817e-07 1.9676461e-05
0003c0 a0 8f 36 32 ee 9b e2 34 11 ec 01 31 b5 54 19 35
       1.0626451e-08 4.2209234e-07 1.8906159e-09 5.7120207e-07
0003d0 61 4d 11 34 d5 8b 3d 35 09 04 f2 32 8d 33 f4 34
       1.3532328e-07 7.061147e-07 2.8174343e-08 4.548605e-07
0003e0 2c 8c 78 32 06 9a f1 33 93 29 a8 32 ee 6a b5 34
       1.4467371e-08 1.1250454e-07 1.957668e-08 3.379168e-07
0003f0 c6 c6 13 35 8b 4d 77 37 17 fb 2d 34 0f d6 bc 37
       5.505102e-07 1.4740402e-05 1.6203226e-07 2.2511025e-05

exp_avg f4 [64]
000000 71 1a 06 bd 76 4f 26 bd 38 36 15 bd 11 81 8d bd
       -0.03274006 -0.040603124 -0.03642866 -0.06909383
000010 58 20 3f bd 31 c7 b8 bb f4 0f 54 bd 1d da d8 3a
       -0.046661705 -0.00563898 -0.051773027 0.0016544495
000020 f2 4d f8 3a a7 e9 d8 bc 28 df f7 3b cd f8 af bd
       0.0018944128 -0.026478602 0.007564444 -0.08592377
000030 e7 ec 0b bd d6 ec 72 bd 66 2c 7a 3a 20 6f 4f 3a
       -0.034161475 -0.059307896 0.0009543359 0.0007912982
000040 ac 8d 12 3b 83 dc 6a ba d3 4e 50 bd b8 01 18 bd
       0.0022362275 -0.00089592504 -0.050856423 -0.037111014
000050 82 de a4 bc a6 3b d2 bc 14 7a 8e bd a0 e2 c7 37
       -0.020125631 -0.025663208 -0.06956878 2.382818e-05
000060 46 4d 0c 3c 14 a5 6e bd a8 4f 98 3a 91 59 c9 39
       0.008563345 -0.0582629 0.0011620419 0.0003840444
000070 c8 5c 8f ba 56 b7 3f bd 47 89 83 bd 2e f9 da bc
       -0.0010937685 -0.046805702 -0.06422668 -0.026730146
000080 82 64 16 bd b0 d9 da 3b 96 23 11 bd 8e b5 a3 bd
       -0.036716945 0.0066787824 -0.035434328 -0.07993613
000090 5f f9 86 3b 31 f5 cd 3b 54 be 9b bd cc d8 f8 bc
       0.004119083 0.0062853326 -0.076046616 -0.030376814
0000a0 71 56 fe bc ca 95 1c bd 27 7e cc bc 10 61 d0 bc
       -0.031047078 -0.038228787 -0.024962498 -0.025436908
0000b0 a1 f5 05 be f4 a0 08 bd 85 38 80 bb 2b f3 03 bd
       -0.13081981 -0.03335662 -0.0039129877 -0.032214325
0000c0 2f 9c 48 bd a6 42 10 bd 6f 89 23 3b ed 35 16 bd
       -0.048977073 -0.03521981 0.0024953743 -0.03667252
0000d0 6a 36 36 bd ad d5 ee 36 b9 4d c9 3a b8 60 a9 bc
       -0.044485487 7.117828e-06 0.0015358246 -0.020676002
0000e0 38 ce e4 bc 7a 7f 12 3c 5b 4d 11 3a 9f 4b 02 bd
       -0.027930364 0.008941526 0.0005542838 -0.0318104
0000f0 5b 67 05 bc 77 e7 bf 39 89 ff 31 39 38 40 0d bd
       -0.008142318 0.00036602814 0.0001697523 -0.034485072

exp_avg_sq f4 [64]
000000 a2 1f 90 39 82 93 4d 39 1f cc 3e 39 e8 1f 54 3a
       0.0002748939 0.00019605274 0.00018195853 0.00080919126
000010 c1 b9 05 3a f7 5a 6a 35 1e c6 d2 39 73 78 61 38
       0.0005101227 8.7304164e-07 0.0004020193 5.3756357e-05
000020 ca be b4 38 09 56 f3 38 54 02 f7 38 a0 f0 be 3a
       8.618606e-05 0.00011603168 0.000117783115 0.0014567561
000030 4b f3 f4 38 3c 09 1a 3a 7a 7d f1 38 0d 48 e5 37
       0.000116801435 0.000587601 0.00011515147 2.7332479e-05
000040 cb a5 bc 37 1f e4 12 36 b2 c9 05 3a 60 71 32 39
       2.248855e-05 2.188848e-06 0.00051036023 0.00017017638
000050 6f 10 08 38 c1 8a 91 38 b2 31 81 3a ac 17 a8 37
       3.244023e-05 6.939984e-05 0.0009856729 2.0038184e-05
000060 e5 25 9d 38 6f be 22 3a 34 61 12 38 88 e5 8c 37
       7.493402e-05 0.00062081864 3.489964e-05 1.6796184e-05
000070 86 28 0c 35 0e 9d b7 39 58 a4 3d 3a 6e 38 79 38
       5.2213034e-07 0.00035021495 0.0007234267 5.941878e-05
000080 2b 38 82 39 03 0a 3a 39 81 35 25 39 da 23 9c 3a
       0.0002483738 0.00017742072 0.00015755558 0.001191254
000090 f4 e5 2e 38 15 7c 9c 38 ef 10 8a 3a 7d 5e cd 38
       4.1698993e-05 7.461772e-05 0.0010533611 9.7927616e-05
0000a0 51 b7 b1 38 ff a5 d2 39 87 1a 89 38 ed 97 83 38
       8.474163e-05 0.00040177998 6.53761e-05 6.274865e-05
0000b0 1b 9f 88 3b 72 47 1e 39 38 05 90 36 8d 62 05 39
       0.0041693575 0.0001509467 4.292142e-06 0.00012720581
0000c0 f5 22 bb 39 b6 3a 0f 39 87 50 f9 37 88 68 de 39
       0.00035693464 0.00013659414 2.9720612e-05 0.00042421021
0000d0 8a ce 8d 39 23 71 42 36 ad 45 88 37 c5 7a 97 38
       0.000270475 2.8974107e-06 1.6244909e-05 7.223109e-05
0000e0 65 ec cc 38 8d 9e ce 38 6e ab 4a 37 d6 8c 5b 39
       9.77151e-05 9.852378e-05 1.2080052e-05 0.00020937933
0000f0 d7 72 be 36 02 5a 95 37 f6 a0 2b 36 bd b7 83 39
       5.6758104e-06 1.7804097e-05 2.5574677e-06 0.00025123163

exp_avg f4 [2, 64]
000000 84 1d 1d ba e1 54 b1 b9 dd eb ee b9 f0 14 c2 b9
       -0.0005993473 -0.0003382331 -0.0004557063 -0.00037018163
000010 9a 30 1b ba b9 ba ad b7 03 a4 1f 3a 9b 68 32 37
       -0.0005920023 -2.0710157e-05 0.00060898083 1.0633982e-05
000020 cd 8a 12 b6 42 3f 0b ba 08 52 0a b8 b3 4f 8c 39
       -2.1836488e-06 -0.00053118553 -3.297816e-05 0.0002676226
000030 fc 31 f5 39 ee 49 8e 39 37 47 39 35 95 d7 0a 37
       0.00046767283 0.00027139432 6.90215e-07 8.275635e-06
000040 c9 34 b4 b7 e8 de 00 b7 fd a0 f8 b9 15 9d 64 b9
       -2.1482252e-05 -7.681294e-06 -0.00047422192 -0.00021802292
000050 82 0b 24 3a 0f 4f c6 b9 6f 51 55 3a f9 4b 39 b3
       0.00062578183 -0.00037824406 0.000813744 -4.3142766e-08
000060 e6 a2 2f 39 ae 08 18 39 a5 35 a3 37 94 87 99 35
       0.00016749985 0.00014499083 1.9456094e-05 1.1438847e-06
000070 2d 15 5e 38 27 de 2a 3a 81 29 fc 39 32 59 96 39
       5.2948646e-05 0.00065180886 0.00048096108 0.00028676685
000080 1b 69 0b ba 2c 08 82 37 88 06 ef b9 8f 4c 14 3a
       -0.0005318091 1.5501013e-05 -0.00045590498 0.000565716
000090 1f 13 4f 36 d0 90 9c 38 c2 ea b5 39 1c 55 23 3a
       3.0856534e-06 7.465633e-05 0.00034697918 0.0006230639
0000a0 84 94 d8 39 a8 57 1a ba 1e f5 ea b9 97 f7 e0 b9
       0.00041309383 -0.00058876956 -0.00044814585 -0.00042909078
0000b0 32 bd ae 39 75 c3 06 3a 54 95 c1 39 93 6c a8 39
       0.00033328828 0.00051408197 0.00036923087 0.0003212435
0000c0 17 bd 9c b9 e5 f1 d2 b9 89 da fd 37 fe c9 55 ba
       -0.00029895522 -0.00040234547 3.0261714e-05 -0.00081554044
0000d0 d5 2d c8 39 cd 99 85 33 2d b9 a6 b8 67 31 37 ba
       0.0003818112 6.221271e-08 -7.9499885e-05 -0.00069882575
0000e0 ab 69 01 ba 4e 10 25 39 62 cd 82 b9 ea 78 fc b9
       -0.0004936705 0.000157417 -0.00024948554 -0.00048155274
0000f0 80 d4 a7 b9 8e 3b 15 b7 27 04 24 b6 4e 71 0b ba
       -0.00032011047 -8.894958e-06 -2.4440321e-06 -0.0005319313
000100 85 1d 1d 3a e2 54 b1 39 e0 eb ee 39 f3 14 c2 39
       0.00059934735 0.00033823313 0.00045570638 0.00037018172
000110 9b 30 1b 3a bd ba ad 37 03 a4 1f ba 99 68 32 b7
       0.00059200235 2.0710164e-05 -0.00060898083 -1.063398e-05
000120 ce 8a 12 36 43 3f 0b 3a 04 52 0a 38 b2 4f 8c b9
       2.183649e-06 0.0005311856 3.2978147e-05 -0.00026762258
000130 fc 31 f5 b9 ee 49 8e b9 39 47 39 b5 95 d7 0a b7
       -0.00046767283 -0.00027139432 -6.9021513e-07 -8.275635e-06
000140 c8 34 b4 37 ed de 00 37 fd a0 f8 39 18 9d 64 39
       2.148225e-05 7.6812985e-06 0.00047422192 0.00021802296
000150 81 0b 24 ba 10 4f c6 39 71 51 55 ba f8 4b 39 33
       -0.0006257818 0.0003782441 -0.0008137441 4.3142762e-08
000160 e7 a2 2f b9 af 08 18 b9 a3 35 a3 b7 8a 87 99 b5
       -0.00016749986 -0.00014499085 -1.945609e-05 -1.1438835e-06
000170 2d 15 5e b8 29 de 2a ba 82 29 fc b9 32 59 96 b9
       -5.2948646e-05 -0.000651809 -0.0004809611 -0.00028676685
000180 1c 69 0b 3a 29 08 82 b7 8a 06 ef 39 8f 4c 14 ba
       0.0005318092 -1.5501008e-05 0.00045590504 -0.000565716
000190 11 13 4f b6 cf 90 9c b8 c1 ea b5 b9 1d 55 23 ba
       -3.0856502e-06 -7.4656324e-05 -0.00034697916 -0.00062306394
0001a0 86 94 d8 b9 a8 57 1a 3a 1f f5 ea 39 96 f7 e0 39
       -0.0004130939 0.00058876956 0.00044814587 0.00042909075
0001b0 34 bd ae b9 75 c3 06 ba 54 95 c1 b9 94 6c a8 b9
       -0.00033328834 -0.00051408197 -0.00036923087 -0.00032124354
0001c0 18 bd 9c 39 e9 f1 d2 39 8b da fd b7 fe c9 55 3a
       0.00029895524 0.00040234558 -3.0261717e-05 0.00081554044
0001d0 d4 2d c8 b9 cd 99 85 b3 2e b9 a6 38 67 31 37 3a
       -0.00038181117 -6.221271e-08 7.949989e-05 0.00069882575
0001e0 ac 69 01 3a 4f 10 25 b9 63 cd 82 39 ea 78 fc 39
       0.0004936706 -0.00015741702 0.00024948557 0.00048155274
0001f0 81 d4 a7 39 8e 3b 15 37 29 04 24 36 4f 71 0b 3a
       0.0003201105 8.894958e-06 2.4440326e-06 0.00053193135

exp_avg_sq f4 [2, 64]
000000 30 91 16 35 c7 46 fd 33 e4 5d 89 34 c1 c6 05 34
       5.609063e-07 1.1794105e-07 2.5586553e-07 1.2458896e-07
000010 d0 bf d0 34 e8 d8 9c 30 3d 8d 41 34 61 3c 8d 32
       3.888258e-07 1.1412142e-09 1.8025908e-07 1.6442018e-08
000020 19 2d 64 32 9f 9a 9a 34 c8 b2 7f 33 10 f2 1c 34
       1.3281601e-08 2.8797237e-07 5.9534415e-08 1.4616694e-07
000030 b1 fb 22 34 20 09 a2 33 e6 96 ef 31 5d e1 98 32
       1.517899e-07 7.545373e-08 6.9729706e-09 1.7797612e-08
000040 ec 8b 46 33 e4 70 06 32 ec b1 7e 34 fb a1 9b 33
       4.6227726e-08 7.825495e-09 2.3720321e-07 7.247214e-08
000050 90 1b e7 34 c5 17 46 34 ef 56 16 35 f4 9a 14 31
       4.3047157e-07 1.8448834e-07 5.600586e-07 2.1624915e-09
000060 8f 18 96 34 46 24 ec 33 b1 35 ba 31 7f a5 26 32
       2.7957546e-07 1.09962045e-07 5.4194165e-09 9.700101e-09
000070 d5 73 80 31 d3 a8 1e 35 ec 9d 3e 34 98 8c db 33
       3.738459e-09 5.910526e-07 1.775258e-07 1.0223556e-07
000080 9f c6 a1 34 ce fa 89 33 dc b5 fe 33 ec 3b 4c 34
       3.0133103e-07 6.425181e-08 1.1860877e-07 1.902078e-07
000090 b8 05 10 33 72 12 4b 32 cb ce 18 34 68 c4 cd 34
       3.3532814e-08 1.1820349e-08 1.4231334e-07 3.832713e-07
0000a0 1d 44 13 34 ac f8 22 35 6e 57 81 34 67 98 05 34
       1.3715221e-07 6.071157e-07 2.4091736e-07 1.2442034e-07
0000b0 e6 23 fa 33 a1 e4 e6 34 8c 23 ad 34 89 48 73 34
       1.1648062e-07 4.3007188e-07 3.2249625e-07 2.2657527e-07
0000c0 d0 fd 89 33 7a 73 36 34 09 e1 7d 33 fd 02 a4 35
       6.425728e-08 1.6992081e-07 5.911082e-08 1.2219822e-06
0000d0 8f 4e e2 33 b5 ee 48 2e e3 41 29 34 ad 12 49 35
       1.0538235e-07 4.568675e-11 1.5763321e-07 7.490551e-07
0000e0 d3 6b 5f 34 64 66 5d 34 6a cc a3 34 18 dc e4 34
       2.080772e-07 2.0619478e-07 3.0509847e-07 4.262845e-07
0000f0 02 65 07 34 90 fe 87 31 8e ef b7 30 34 f2 b0 34
       1.2609601e-07 3.9579575e-09 1.3383088e-09 3.295878e-07
000100 31 91 16 35 c7 46 fd 33 e4 5d 89 34 c2 c6 05 34
       5.6090636e-07 1.1794105e-07 2.5586553e-07 1.2458898e-07
000110 cf bf d0 34 e8 d8 9c 30 3d 8d 41 34 63 3c 8d 32
       3.8882578e-07 1.1412142e-09 1.8025908e-07 1.6442021e-08
000120 18 2d 64 32 9f 9a 9a 34 ca b2 7f 33 10 f2 1c 34
       1.32816e-08 2.8797237e-07 5.9534422e-08 1.4616694e-07
000130 b0 fb 22 34 1f 09 a2 33 e6 96 ef 31 5d e1 98 32
       1.5178989e-07 7.545372e-08 6.9729706e-09 1.7797612e-08
000140 eb 8b 46 33 e4 70 06 32 ec b1 7e 34 fa a1 9b 33
       4.6227722e-08 7.825495e-09 2.3720321e-07 7.247213e-08
000150 8e 1b e7 34 c4 17 46 34 ee 56 16 35 f3 9a 14 31
       4.3047152e-07 1.8448833e-07 5.6005854e-07 2.1624913e-09
000160 8f 18 96 34 47 24 ec 33 b2 35 ba 31 7f a5 26 32
       2.7957546e-07 1.0996205e-07 5.419417e-09 9.700101e-09
000170 d4 73 80 31 d3 a8 1e 35 ed 9d 3e 34 9a 8c db 33
       3.7384584e-09 5.910526e-07 1.7752582e-07 1.02235575e-07
000180 9d c6 a1 34 cf fa 89 33 dc b5 fe 33 ea 3b 4c 34
       3.0133097e-07 6.4251815e-08 1.1860877e-07 1.9020777e-07
000190 b8 05 10 33 71 12 4b 32 cd ce 18 34 68 c4 cd 34
       3.3532814e-08 1.1820348e-08 1.4231337e-07 3.832713e-07
0001a0 1d 44 13 34 ab f8 22 35 6d 57 81 34 67 98 05 34
       1.3715221e-07 6.071156e-07 2.4091733e-07 1.2442034e-07
0001b0 e6 23 fa 33 a3 e4 e6 34 8b 23 ad 34 89 48 73 34
       1.1648062e-07 4.3007194e-07 3.2249622e-07 2.2657527e-07
0001c0 d0 fd 89 33 77 73 36 34 07 e1 7d 33 fe 02 a4 35
       6.425728e-08 1.6992077e-07 5.9110814e-08 1.2219823e-06
0001d0 8f 4e e2 33 b6 ee 48 2e e2 41 29 34 ac 12 49 35
       1.0538235e-07 4.5686753e-11 1.576332e-07 7.4905506e-07
0001e0 cf 6b 5f 34 65 66 5d 34 68 cc a3 34 19 dc e4 34
       2.0807714e-07 2.061948e-07 3.050984e-07 4.2628452e-07
0001f0 02 65 07 34 8f fe 87 31 8e ef b7 30 33 f2 b0 34
       1.2609601e-07 3.957957e-09 1.3383088e-09 3.2958778e-07

exp_avg f4 [2]
000000 7c 0d b6 39 7b 0d b6 b9
       0.00034723792 -0.0003472379

exp_avg_sq f4 [2]
000000 78 cb e4 36 78 cb e4 36
       6.8186164e-06 6.8186164e-06

exp_avg f4 [1, 64]
000000 21 86 1e bd 0c bc 1c bd d5 79 16 bd ff 9c 00 bd
       -0.038702134 -0.038265273 -0.03673728 -0.031399723
000010 7d a9 02 bd 65 ac 87 bb d6 4d 1a bd 75 00 44 b9
       -0.031899918 -0.004140424 -0.037671886 -0.00018692187
000020 39 d3 0c b9 9f c1 0a bd 93 73 7b bb f8 c6 1e bd
       -0.00013430127 -0.033876058 -0.0038368448 -0.03876397
000030 90 dc 39 bd 2a eb 18 bd b5 27 e6 b7 c0 e5 75 b9
       -0.04537636 -0.037333645 -2.7436627e-05 -0.0002345061
000040 ff 53 60 bb d0 20 9a ba 78 6f 00 bd 5c 57 0d bd
       -0.0034229753 -0.0011759046 -0.031356305 -0.03450714
000050 25 5d 54 bd e2 d8 2a bd f9 05 38 bd 6e 34 45 b5
       -0.051846642 -0.04171074 -0.04492757 -7.3464514e-07
000060 86 dc 0e bc 6a ca 20 bd 2b ba 68 b9 f7 bc f2 b8
       -0.008719569 -0.039255537 -0.00022194597 -0.00011574657
000070 4f 7d a4 ba 4d 70 53 bd 26 7b 14 bd 1a 26 2a bd
       -0.0012549552 -0.05162077 -0.036250256 -0.041540243
000080 61 59 06 bd 73 63 da ba 50 3a 01 bd 97 0c 19 bd
       -0.032800082 -0.0016661718 -0.03154975 -0.037365522
000090 87 64 02 bb 28 7d cb ba 82 a7 1c bd 0c f9 59 bd
       -0.0019896345 -0.001552497 -0.038245685 -0.053216025
0000a0 37 90 3b bd ca fb 23 bd 70 ef 2a bd d8 31 11 bd
       -0.04579183 -0.040035047 -0.04173225 -0.035447925
0000b0 50 cd f4 bc 51 12 4d bd 8c ea 93 bc 51 2b 47 bd
       -0.029883057 -0.050066296 -0.018056177 -0.048625294
0000c0 78 48 ee bc d3 f3 22 bd f5 9a 6e ba b9 0c 39 bd
       -0.02908729 -0.03978331 -0.000910207 -0.04517815
0000d0 c6 35 0b bd 28 86 29 b5 34 01 85 bb 79 39 36 bd
       -0.03398683 -6.315263e-07 -0.0040589813 -0.044488404
0000e0 71 cc 0e bd aa e7 ad bb ce cc 0f bc 2b 56 22 bd
       -0.03486294 -0.0053071575 -0.008776857 -0.039632957
0000f0 d5 e4 a6 bc 74 b8 bf b8 d7 3d 2a b8 e8 f5 07 bd
       -0.020372787 -9.141947e-05 -4.058875e-05 -0.0331935

exp_avg_sq f4 [1, 64]
000000 da 9b 0f 3a 99 fb 67 39 c5 63 9c 39 f6 0e 36 39
       0.0005478241 0.00022123604 0.00029828973 0.00017362446
000010 e1 05 ae 39 1e c4 3f 35 8b 2e 4f 39 2f 8e ca 36
       0.00033192246 7.143843e-07 0.00019758397 6.0366215e-06
000020 62 46 1d 37 27 e5 ae 39 85 1e 8c 38 d4 1b 7d 39
       9.3743165e-06 0.00033358598 6.681405e-05 0.00024138327
000030 41 e4 73 39 8e 3e 2e 39 0a f0 5b 36 01 e3 10 37
       0.00023259317 0.00016617237 3.2773264e-06 8.635922e-06
000040 fc 86 50 38 99 81 a5 36 f7 5d 79 39 f9 bc 47 39
       4.971678e-05 4.9324703e-06 0.00023781495 0.00019048517
000050 83 bf d8 39 17 21 a6 39 6c 69 e6 39 cf 8a ce 35
       0.00041341418 0.0003168664 0.00043947564 1.5388595e-06
000060 10 6b 36 39 99 0e 81 39 5c b6 35 36 0f aa 98 36
       0.00017396756 0.00024615673 2.707725e-06 4.5497504e-06
000070 b1 c3 bb 35 0c 3d 13 3a 79 0f 4d 39 ba a4 37 39
       1.3989539e-06 0.00056167017 0.00019556087 0.00017513605
000080 38 16 99 39 56 96 d4 37 59 24 50 39 c9 ce 4b 39
       0.00029198988 2.5342375e-05 0.00019849966 0.00019436622
000090 fe 84 97 37 9f 32 26 37 91 b0 59 39 d8 16 e6 39
       1.8062532e-05 9.906157e-06 0.00020760509 0.00043886038
0000a0 f6 fa 60 39 06 d4 1c 3a 48 5e b5 39 78 79 59 39
       0.00021455795 0.00059825217 0.00034593255 0.00020739983
0000b0 d6 25 2d 39 ad ea fd 39 42 7e 3c 39 51 01 c5 39
       0.0001651266 0.00048430767 0.00017976112 0.0003757575
0000c0 69 8e 1a 39 14 03 89 39 92 34 f4 37 ea 06 77 3a
       0.00014739636 0.0002613297 2.9111547e-05 0.00094233325
0000d0 5f 02 43 39 b1 2d ae 32 60 e9 83 38 9c 46 25 3a
       0.00018597532 2.0277044e-08 6.290036e-05 0.0006304772
0000e0 8c 3f 92 39 59 81 e7 38 2c 62 33 39 72 96 dd 39
       0.00027894636 0.00011039031 0.00017107342 0.00042264495
0000f0 97 23 d3 38 98 10 0b 36 97 ea 04 35 62 f7 b0 39
       0.00010067893 2.0722273e-06 4.9515205e-07 0.0003375365
