savedModels/ppo_cartpole_92160.pth (torch, 13659 bytes, 15 tensors)

shared_fc.0.weight f4 [64, 4]
-0.100661986 0.40542695 0.04084488 -0.39773664 -0.031695828 -0.1598733 -0.5990658 -0.20440775
0.084446095 -0.2843877 -0.32880324 -0.46507147 -0.0044477703 -0.092260435 -0.4252469 -0.2451364
0.13575631 0.11836628 -0.69514537 -0.2934991 -0.13179229 -0.005017049 -0.34480625 0.045317426
-0.04955754 0.149006 0.24997862 0.38728526 -0.62851983 -0.27610397 0.05652377 -0.12850887
0.7452083 0.021980315 -0.65397304 -0.22149292 0.20265387 0.12462704 0.13050933 -0.30998254
0.84209645 -0.18473667 -0.60460806 -0.44553143 0.08494198 -0.21784192 -0.16114002 0.15183178
0.06752238 -0.08232991 -0.0077215824 0.32324752 -0.025972363 -0.09334226 -0.044432536 0.13540867
-0.64373976 -0.05763552 0.56689435 0.24237815 0.61683685 0.2719126 -0.042540625 0.17957453
-0.5701443 -0.4707716 -0.124481425 -0.34024802 0.33918616 0.062447544 -0.22665346 0.318625
0.11548509 0.038354658 -0.3098065 -0.3518526 -0.019452726 0.31942028 -0.028032467 0.0024806815
0.11252289 -0.33039477 -0.058361154 0.4629084 -0.060584873 0.2876183 0.1920213 -0.2586828
0.08140945 -0.007004811 0.0880911 0.5679075 -0.4906624 -0.2908512 -0.049802992 -0.19307296
0.7805001 0.23176675 -0.7517186 0.06411779 0.13233405 -0.33328235 -0.17798212 0.029358998
0.4763222 0.29173774 0.19877699 0.2530307 0.69369894 0.2258933 0.061144624 0.13100001
0.003887092 -0.005809735 0.021088142 0.22633635 0.07888463 -0.31763142 0.26224878 0.33922324
0.24793802 -0.097907506 0.2943268 0.2688158 0.14176528 -0.30387786 -0.042106397 0.18973328
0.1395007 0.112919174 -0.37317353 -0.3229896 -0.36459577 -0.45547807 -0.028072357 -0.44149917
0.3526631 0.015301596 -0.26684693 -0.1621246 -0.08272771 0.056700926 0.22140227 0.317903
-0.88114375 -0.24199167 0.5130162 0.0582824 0.3053413 0.39395195 0.22616243 0.405425
0.050644964 -0.15550815 0.1058282 0.14957486 -0.13639686 -0.06555322 -0.21794151 0.42960042
-0.06639932 -0.14350533 0.12074255 0.17232125 -0.21089494 0.540146 -0.025860023 -0.39104545
-0.15277822 0.35953188 -0.19267067 -0.2515066 0.21557821 0.12031261 0.018944694 -0.23554498
0.36682108 -0.09224625 -0.048778 0.27131087 0.31368548 -0.49146533 0.18197776 0.29491514
0.08836403 -0.30308986 0.38582066 0.36790797 0.21939223 -0.44337165 0.058003522 0.13996494
0.31736842 0.031418104 0.07516787 -0.12974201 -0.03390872 -0.18994142 -0.34136558 -0.3523698
-0.68011314 -0.04366725 0.73015034 0.29713923 -0.04460403 0.36871248 0.019759491 -0.6669851
0.32565153 0.043210816 0.13404363 0.30914313 0.57343847 0.22062913 0.18588367 0.16081196
0.5379183 -0.039435267 -0.75695074 -0.30882433 -0.019369107 0.19497928 -0.1104601 -0.6468568
0.23716149 0.10299135 -0.037184555 -0.24571954 -0.7527824 0.016040439 0.5036102 0.39741597
0.01518329 0.268553 -0.1284473 -0.24265565 -0.27088842 0.36296722 -0.13963622 -0.45743653
0.03260809 0.2944269 -0.04648701 -0.23762311 0.9060681 0.18674102 0.1375977 0.08206446
-0.54608095 -0.28276783 -0.30132765 -0.23361503 0.092775054 0.1940252 -0.16015561 -0.29602468
00000000: df27 cebd 1f94 cf3e f64c 273d 23a4 cbbe
00000010: 7cd3 01bd d4b5 23be 605c 19bf 4450 51be
00000020: 13f2 ac3d 449b 91be e658 a8be d91d eebe
00000030: 9abe 91bb 0af3 bcbd f6b9 d9be 0905 7bbe
00000040: b403 0b3e 056a f23d 0cf5 31bf 8445 96be
00000050: 8ff4 06be 0f66 a4bb 728a b0be c49e 393d
00000060: d9fc 4abd 0795 183e 65fa 7f3e 414a c63e
00000070: ade6 20bf 805d 8dbe 7885 673d d497 03be
00000080: f9c5 3e3f 1010 b43c c76a 27bf 0acf 62be
00000090: 7f84 4f3e 763c ff3d 3da4 053e 08b6 9ebe
000000a0: a293 573f 9c2b 3dbe 98c7 1abf b21c e4be
000000b0: 10f6 ad3d f411 5fbe e401 25be ca79 1b3e
000000c0: 2c49 8a3d 959c a8bd 5405 fdbb b380 a53e
000000d0: fec3 d4bc 3a2a bfbd e4fe 35bd 92a8 0a3e
000000e0: 21cc 24bf 3913 6cbd fd1f 113f fa31 783e
000000f0: 05e9 1d3f 2138 8b3e 143f 2ebd 63e2 373e
00000100: faf4 11bf fa08 f1be 1ef0 febd fd34 aebe
00000110: cfa9 ad3e ffc8 7f3d d817 68be d122 a33e
00000120: 7283 ec3d c619 1d3d f59e 9ebe 0626 b4be
00000130: 535b 9fbc 0e8b a33e 58a4 e5bc ee92 223b
00000140: 6772 e63d 8129 a9be 1b0c 6fbd 5402 ed3e
00000150: d827 78bd b542 933e 3ba1 443e 1272 84be
00000160: ffb9 a63d 9d88 e5bb 1b69 b43d 6362 113f
00000170: 1a38 fbbe 73ea 94be 39fe 4bbd ebb4 45be
00000180: dbce 473f 4354 6d3e a170 40bf 3050 833d
00000190: 9482 073e fca3 aabe f240 36be 4882 f03c
000001a0: 81e0 f33e a65e 953e 328c 4b3e 3d8d 813e
000001b0: 4196 313f 9350 673e c972 7a3d de24 063e
000001c0: 95be 7e3b 975f bebb 0ac1 ac3c b7c4 673e
000001d0: 448e a13d 96a0 a2be 7945 863e abae ad3e
000001e0: 77e3 7d3e bb83 c8bd 01b2 963e 39a2 893e
000001f0: eb2a 113e e195 9bbe c277 2cbd 7149 423e
00000200: 46d9 0e3e 2b42 e73d 9a10 bfbe e55e a5be
00000210: 4cac babe 6c34 e9be 00f8 e5bc 2e0c e2be
00000220: 4290 b43e 8cb3 7a3c 29a0 88be fe03 26be
00000230: 256d a9bd 3b3f 683d 47b7 623e 2fc4 a23e
00000240: a392 61bf aacc 77be 0855 033f 87b9 6e3d
00000250: b255 9c3e 12b4 c93e 2097 673e de93 cf3e
00000260: 1871 4f3d 873d 1fbe 75bc d83d 272a 193e
00000270: 9eab 0bbe c440 86bd 0f2c 5fbe 96f4 db3e
00000280: 5efc 87bd 10f3 12be df47 f73d fb74 303e
00000290: d8f4 57be 0247 0a3f 66d8 d3bc 1c37 c8be
000002a0: e571 1cbe 9014 b83e 764b 45be 79c5 80be
000002b0: 89c0 5c3e 7566 f63d e731 9b3c b432 71be
000002c0: f9cf bb3e 9aeb bcbd 71cb 47bd 42e9 8a3e
000002d0: 629b a03e 58a1 fbbe 6158 3a3e 1eff 963e
000002e0: 33f8 b43d 982e 9bbe 498a c53e 6f5e bc3e
000002f0: 5ba8 603e 9c01 e3be 1a95 6d3d f852 0f3e
00000300: 1d7e a23e 45b0 003d 9df1 993d 17db 04be
00000310: dfe3 0abd 0180 42be 78c7 aebe d069 b4be
00000320: e51b 2ebf 6edc 32bd 22eb 3a3f a222 983e
00000330: b7b2 36bd e2c7 bc3e a8de a13c 89bf 2abf
00000340: ccbb a63e d3fd 303d bc42 093e 0248 9e3e
00000350: ddcc 123f 9aec 613e 4a58 3e3e e4ab 243e
00000360: 04b5 093f e086 21bd 86c7 41bf 391e 9ebe
00000370: f6ab 9ebc a6a8 473e e838 e2bd 6898 25bf
00000380: 76da 723e 21ed d23d d54e 18bd e79d 7bbe
00000390: 59b6 40bf 3d67 833c 99ec 003f 1b7a cb3e
000003a0: 55c3 783c c77f 893e b087 03be b97a 78be
000003b0: e3b1 8abe d7d6 b93e ccfc 0ebe 1f35 eabe
000003c0: 1090 053d 1fbf 963e 2a69 3ebd 7953 73be
000003d0: 14f4 673f 0a39 3f3e 69e6 0c3e 6911 a83d
000003e0: f6cb 0bbf f2c6 90be 9e47 9abe c738 6fbe
000003f0: d900 be3d 8bae 463e d5ff 23be 8c90 97be

shared_fc.0.bias f4 [64]
0.97511566 1.0054096 1.0112746 0.91490775 0.9475878 1.0217267 0.9495731 -0.14363131
-0.09027084 1.0419292 -0.07643187 0.8904451 1.0303272 0.9365859 -0.094340935 -0.10409217
-0.10715925 1.0284326 0.9331136 1.0060594 1.0753043 1.0589268 0.9060736 -0.102977715
-0.13262719 0.93758273 -0.059726432 -0.11257123 1.0242088 0.96852744 0.92077553 1.0467196
0.97877795 -0.06994989 1.0225828 0.8920779 -0.17199214 -0.05077726 0.90634745 1.0540142
1.0503072 0.9389701 1.0577819 1.0632057 0.85071373 1.0005614 1.0376142 1.0291233
0.9659543 1.0270123 -0.100541405 0.9464001 0.99436134 -0.0746041 -0.06539106 1.0464015
1.0515606 -0.11677369 0.9132642 0.966092 1.0786592 -0.13537127 -0.07792895 0.9871055
00000000: 2ea1 793f 43b1 803f 7271 813f 6537 6a3f
00000010: 1d95 723f f1c7 823f 3917 733f 1614 13be
00000020: ebdf b8bd f05d 853f 5088 9cbd 36f4 633f
00000030: c3e1 833f 18c4 6f3f d235 c1bd 472e d5bd
00000040: 4f76 dbbd aea3 833f 88e0 6e3f 8ec6 803f
00000050: 92a3 893f ea8a 873f 70f4 673f fbe5 d2bd
00000060: 6ccf 07be 6c05 703f b4a3 74bd bf8b e6bd
00000070: 4619 833f 6af1 773f f2b7 6b3f e8fa 853f
00000080: 3191 7a3f e341 8fbd fee3 823f 385f 643f
00000090: b51e 30be d1fb 4fbd 6306 683f f0e9 863f
000000a0: 7770 863f 5860 703f 6665 873f 2017 883f
000000b0: 60c8 593f 6512 803f 8bd0 843f 50ba 833f
000000c0: c848 773f 2475 833f a7e8 cdbd 4747 723f
000000d0: 778e 7e3f 09ca 98bd c0eb 85bd 7cf0 853f
000000e0: 8a99 863f 0b27 efbd afcb 693f ce51 773f
000000f0: 8111 8a3f c49e 0abe 3799 9fbd f2b2 7c3f

actor_head.weight f4 [2, 64]
-0.012167619 0.20510861 0.23848312 0.21535385 0.15399435 0.0465832 -0.27271983 0.07402423
0.112117596 0.029638058 0.3431365 -0.003757773 -0.13375515 -0.048478577 -0.15984978 -0.08254936
0.10087158 -0.10522067 0.15879734 -0.087869436 -0.0639224 -0.017663918 -0.20400575 0.15365459
0.026311731 0.06631131 -0.150996 -0.059677545 -0.16194727 -0.070661396 -0.1520657 -0.015711276
0.12875003 0.18504733 0.12882042 -0.2394649 -0.03351322 -0.2183058 -0.07874328 -0.113761105
-0.089896224 -0.017735716 0.028365042 0.07269875 -0.117095485 0.00740942 -0.0711611 0.013314422
0.06941852 0.21636431 -0.18206932 0.0803436 -0.18883875 -0.120267764 0.24790944 0.10715006
0.061277077 -0.1937297 -0.011372752 0.04717534 0.013245862 -0.057379644 0.20008951 0.035019465
0.016560245 -0.21555524 -0.24954261 -0.2184298 -0.17870624 -0.042511497 0.28222552 -0.070635766
-0.12796195 -0.05852686 -0.3006949 -0.007112037 0.1444404 0.07516807 0.14345925 0.06880396
-0.1618331 0.10333359 -0.17075758 0.08145895 0.037450507 -0.0014787387 0.21555631 -0.17370988
-0.04714369 -0.07662816 0.1700474 0.065416306 0.12731461 0.07959415 0.17029119 0.03992512
-0.13550001 -0.17978814 -0.11251349 0.2512409 0.04668979 0.20445244 0.06767665 0.10213235
0.07669382 0.029304923 -0.02529765 -0.082130454 0.08548374 0.01595519 0.05676747 -0.01345505
-0.047348898 -0.21880834 0.1827287 -0.057585683 0.20296936 0.12239372 -0.25548077 -0.116634704
-0.061172258 0.1933349 0.013925394 -0.04012379 -0.0019461819 0.05901398 -0.18954429 -0.06907642
00000000: b15a 47bc fe07 523e eb34 743e b885 5c3e
00000010: b2b0 1d3e 07ce 3e3d efa1 8bbe 049a 973d
00000020: e99d e53d 83cb f23c 96af af3e f844 76bb
00000030: 1cf7 08be 7991 46bd a9af 23be a40f a9bd
00000040: c295 ce3d ef7d d7bd c59b 223e e4f4 b3bd
00000050: bfe9 82bd ecb3 90bc e2e6 50be a157 1d3e
00000060: b38b d73c 39ce 873d b29e 1abe 7170 74bd
00000070: 81d5 25be ecb6 90bd 1cb7 1bbe efb4 80bc
00000080: 0cd7 033e 0c7d 3d3e 80e9 033e 4936 75be
00000090: 2845 09bd 8e8b 5fbe 2844 a1bd 95fb e8bd
000000a0: 831b b8bd 7e4a 91bc ce5d e83c 15e3 943d
000000b0: c2cf efbd b8ca f23b e9bc 91bd bc24 5a3c
000000c0: 4c2b 8e3d 9b8e 5d3e 6170 3abe 2f8b a43d
000000d0: f25e 41be f24e f6bd f9db 7d3e 7e71 db3d
000000e0: acfd 7a3d 1461 46be c754 3abc ee3a 413d
000000f0: 2c05 593c eb06 6bbd 44e4 4c3e 9270 0f3d
00000100: 5aa9 873c 83ba 5cbe 1988 7fbe 10ac 5fbe
00000110: c5fe 36be 8920 2ebd dd7f 903e 7ca9 90bd
00000120: 7508 03be dcb9 6fbd aff4 99be 170c e9bb
00000130: 2fe8 133e b8f1 993d fbe6 123e 17e9 8c3d
00000140: 93b7 25be 90a0 d33d 13db 2ebe f3d3 a63d
00000150: b465 193d 3dd2 c1ba cbba 5c3e 01e1 31be
00000160: be19 41bd 3aef 9cbd e820 2e3e fcf8 853d
00000170: c35e 023e 4202 a33d d060 2e3e 8688 233d
00000180: 84c0 0abe 621a 38be 796d e6bd a6a2 803e
00000190: cb3d 3f3d fb5b 513e 0e9a 8a3d c42a d13d
000001a0: a611 9d3d e110 f03c 043d cfbc 0334 a8bd
000001b0: 1912 af3d 75b4 823c 0285 683d 9272 5cbc
000001c0: ebf0 41bd 4b0f 60be 3b1d 3b3e f7de 6bbd
000001d0: 33d7 4f3e 8fa9 fa3d 60ce 82be 2dde eebd
000001e0: c38f 7abd 96f9 453e 5627 643c d858 24bd
000001f0: 0717 ffba a5b8 713d e617 42be f077 8dbd

actor_head.bias f4 [2]
-0.026250584 0.026250588
00000000: 770b d7bc 790b d73c

critic_head.weight f4 [1, 64]
0.9429497 0.9739101 0.95104593 1.1051403 1.0637243 1.0238605 1.0567734 -0.6984391
-0.7733167 0.96148294 -0.6801637 1.1566446 0.98607576 1.0635325 -0.9093881 -0.5606796
-0.41470614 1.039397 1.0767939 1.0219371 0.87435347 0.9510748 1.1113127 -0.6370053
-0.5278109 1.0396768 -0.5697146 -0.572317 1.0265204 0.9333986 1.1220953 0.9565282
1.0178387 -0.6209105 1.0194485 1.1514674 -0.64613175 -0.48934618 1.1267576 0.9071289
0.946208 0.96294856 0.94207996 0.97969604 1.4120165 0.92823696 0.8323384 0.9254527
1.0795652 0.9473081 -0.70010144 0.9009243 1.0482233 -0.64392406 -0.46586278 0.8868183
0.97553736 -0.69295835 0.7235177 0.9618099 0.9379271 -0.53995025 -0.6000296 1.0057492
00000000: 2765 713f 2c52 793f bf77 733f 3d75 8d3f
00000010: 1e28 883f dc0d 833f 5a44 873f e8cc 32bf
00000020: 15f8 45bf bf23 763f 351f 2ebf ee0c 943f
00000030: 766f 7c3f d521 883f a9cd 68bf b388 0fbf
00000040: 5d54 d4be f60a 853f 62d4 893f d6ce 823f
00000050: a1d5 5f3f a379 733f 7f3f 8e3f c812 23bf
00000060: 9d1e 07bf 2114 853f d1d8 11bf 5e83 12bf
00000070: 0565 833f 36f3 6e3f d2a0 8f3f 08df 743f
00000080: 8a48 823f fef3 1ebf 4a7d 823f 4963 933f
00000090: e468 25bf 958b fabe 9839 903f 9939 683f
000000a0: b03a 723f cc83 763f 272c 713f 5ccd 7a3f
000000b0: f5bc b43f f0a0 6d3f 2114 553f 78ea 6c3f
000000c0: 312f 8a3f c982 723f d939 33bf faa2 663f
000000d0: 2e2c 863f 35d8 24bf 9185 eebe 8606 633f
000000e0: d1bc 793f b865 31bf 7538 393f 2c39 763f
000000f0: fe1b 703f 2e3a 0abf 8a9b 19bf 64bc 803f

exp_avg f4 [64, 4]
0.0053203404 -0.0128631 -0.00627821 -0.02038689 0.0096332105 -0.007452544 -0.006158731 -0.021347139
0.00953067 -0.007075804 -0.0059902454 -0.020757336 0.010862888 -0.008571693 -0.0070028873 -0.02427798
0.010323961 -0.008472596 -0.0067688827 -0.023474054 0.009566594 -0.008765696 -0.0065878388 -0.022866335
0.00884848 -0.01075412 -0.007008095 -0.024382822 -0.0064783976 0.00887266 0.0056448127 0.016427977
0.000633665 0.004373801 0.0005464496 -0.0014199604 0.008989569 -0.008225429 -0.0061867777 -0.021472761
0.0078070667 0.028427446 0.005619007 0.0065971343 0.010653226 -0.010161847 -0.007474168 -0.025952412
0.008636217 -0.009403619 -0.0064622285 -0.022462495 0.00959456 -0.009677528 -0.006913196 -0.024015492
-0.01563269 -0.010280965 0.0018414011 0.0094941575 2.0073145e-05 0.00032147297 -5.7648675e-05 -0.00016675144
-0.0036169442 0.004657605 0.0032273415 0.009774345 0.009239711 -0.009686151 -0.006784867 -0.023576431
0.010438652 -0.008596855 -0.0068541784 -0.023771223 0.009141499 -0.00942821 -0.0066593126 -0.023137828
0.007886086 -0.007954606 -0.0056821113 -0.019737197 0.00873202 -0.008401788 -0.0061521325 -0.021363754
0.009563918 -0.010875847 -0.00731605 -0.02543939 -0.005673417 0.007553909 0.0050167693 0.014653125
4.383986e-05 0.00034646955 6.443201e-06 -2.6269981e-05 0.009797785 -0.00876571 -0.006673427 -0.02315955
3.081252e-05 0.00022433647 -0.0001909929 -0.00029575187 3.4133842e-05 0.00029258907 -4.91217e-05 -0.00013906484
0.008991594 -0.0097885085 -0.006727489 -0.023385033 0.008352257 -0.008603647 -0.006079622 -0.02112281
0.009819466 -0.010716347 -0.0073559554 -0.02557082 0.0087169 -0.008557974 -0.006199705 -0.021531574
0.0097925905 -0.008249837 -0.0064941556 -0.022526419 -0.005408861 0.0070439884 0.0047438405 0.014208779
0.009770555 -0.0083238715 -0.0065114656 -0.022588177 0.009821975 -0.011418728 -0.0075996104 -0.026431782
-0.006364957 0.0030296538 0.004014612 0.01593693 3.7842754e-05 9.33428e-05 -0.00018692152 -0.00011744474
0.010140558 -0.010294203 -0.0073292493 -0.025462702 0.008006627 -0.008544123 -0.0059309416 -0.020611305
0.0084455935 -0.008759361 -0.0061684367 -0.021432977 0.0031039633 -0.018652953 -0.0067889104 -0.019150363
0.008760031 -0.008137708 -0.006071449 -0.021076847 0.009267103 -0.008202274 -0.0062821778 -0.02179994
0.0126802325 -0.012949529 -0.009191865 -0.03193605 0.008488524 -0.007910801 -0.0059885154 -0.020917295
0.007456709 -0.0076549514 -0.005418735 -0.018825348 0.008561283 -0.0080680195 -0.005972316 -0.020734964
0.010126348 -0.009181421 -0.006940045 -0.024088034 0.0094115455 -0.007181044 -0.005982349 -0.020734057
-0.013205063 -0.015015055 0.00014235683 0.008230911 0.0033839925 -0.016376635 -0.006229728 -0.017877515
0.009030474 -0.010248564 -0.0069012777 -0.023997616 5.4746994e-05 0.00018739924 -0.0001543533 -0.00026925548
0.0035615359 0.010942872 0.002425167 0.0050046495 0.008522815 -0.007205789 -0.0056610494 -0.019637976
0.009177895 -0.008251766 -0.0062661357 -0.0217472 -0.014651863 -0.018814633 -0.00032749408 0.0073899594
0.004118836 -0.009702084 -0.004825514 -0.015771752 0.00900227 -0.008263311 -0.006186933 -0.02145668
0.0053899316 -0.012485109 -0.0062411292 -0.020382475 4.7895828e-05 0.00023037402 -1.904704e-05 -4.2493743e-05
-0.0052455664 0.0069102948 0.0047029452 0.014056595 0.009427398 -0.008565876 -0.0064676004 -0.022448605
00000000: 4056 ae3b c0bf 52bc 71b9 cdbb 6802 a7bc
00000010: 9dd4 1d3c 7834 f4bb 2ecf c9bb 32e0 aebc
00000020: 8726 1c3c 25dc e7bb d249 c4bb 4a0b aabc
00000030: 41fa 313c 4970 0cbc 7a78 e5bb 9de2 c6bc
00000040: d525 293c a5d0 0abc 81cd ddbb a94c c0bc
00000050: 34bd 1c3c fe9d 0fbc ccde d7bb 2e52 bbbc
00000060: 37f9 103c 0c32 30bc 29a4 e5bb 7cbe c7bc
00000070: bd48 d4bb a25e 113c 1ff8 b83b f793 863c
00000080: 8a1c 263a 1a52 8f3b 9d3f 0f3a f71d baba
00000090: fc48 133c f3c3 06bc 74ba cabb a5e7 afbc
000000a0: 6cd2 ff3b ade0 e83c a61f b83b c62c d83b
000000b0: de8a 2e3c e07d 26bc dee9 f4bb 279a d4bc
000000c0: eb7e 0d3c a311 1abc 1ac1 d3bb 4403 b8bc
000000d0: 8032 1d3c 7f8e 1ebc 1788 e2bb 23bc c4bc
000000e0: 2110 80bc 7e71 28bc 2b5b f13a 628d 1b3c
000000f0: c062 a837 5f8b a839 cbcb 71b8 00da 2eb9
00000100: 410a 6dbb d39e 983b ce81 533b 9324 203c
00000110: 2862 173c a9b2 1ebc 9753 debb 5c23 c1bc
00000120: e106 2b3c d3d9 0cbc 0499 e0bb debb c2bc
00000130: 3ac6 153c c778 1abc 5d36 dabb 8b8b bdbc
00000140: a434 013c 0954 02bc 0131 babb e7af a1bc
00000150: bf10 0f3c a7a7 09bc d497 c9bb 0a03 afbc
00000160: fbb1 1c3c 9c30 32bc 7abb efbb 4566 d0bc
00000170: 12e8 b9bb c886 f73b b663 a43b a913 703c
00000180: b1e0 3738 5ba6 b539 ad32 d836 5b5e dcb7
00000190: e486 203c 0d9e 0fbc c3ac dabb 19b9 bdbc
000001a0: b13c 0138 dd3b 6b39 4445 48b9 250f 9bb9
000001b0: ef2a 0f38 a466 9939 0608 4eb8 efd1 11b9
000001c0: 7b51 133c fb5f 20bc 4572 dcbb f891 bfbc
000001d0: e8d7 083c 50f6 0cbc 9137 c7bb be09 adbc
000001e0: d3e1 203c 9e93 2fbc 3a0a f1bb e579 d1bc
000001f0: 54d1 0e3c bf36 0cbc e526 cbbb fc62 b0bc
00000200: 1a71 203c 532a 07bc edcc d4bb 5389 b8bc
00000210: d13c b1bb 42d1 e63b 3872 9b3b f0cb 683c
00000220: ae14 203c d960 08bc 225e d5bb d70a b9bc
00000230: 59ec 203c 9e15 3bbc 2706 f9bb 7787 d8bc
00000240: 2191 d0bb 288d 463b 028d 833b 2a8e 823c
00000250: 59b9 1e38 09c1 c338 5d00 44b9 aa4c f6b8
00000260: 9524 263c 04a9 28bc 332a f0bb 2897 d0bc
00000270: 3a2e 033c a6fc 0bbc 5858 c2bb 0ad9 a8bc
00000280: 635f 0a3c 6c83 0fbc 9920 cabb 3694 afbc
00000290: dd6b 4b3b 14ce 98bc 8275 debb 39e1 9cbc
000002a0: 3c86 0f3c 0554 05bc 01f3 c6bb 5aa9 acbc
000002b0: 0cd5 173c d562 06bc bada cdbb ca95 b2bc
000002c0: c0c0 4f3c 432a 54bc 7a99 16bc 60cf 02bd
000002d0: 7313 0b3c 4e9c 01bc 4f3b c4bb bf5a abbc
000002e0: 6957 f43b 63d6 fabb a58f b1bb 9e37 9abc
000002f0: a044 0c3c ba2f 04bc 6bb3 c3bb 5fdc a9bc
00000300: fbe8 253c ac6d 16bc 5169 e3bb 4554 c5bc
00000310: e232 1a3c f74e ebbb 9507 c4bb 78da a9bc
00000320: 0c5a 58bc b501 76bc 9f45 1539 f1da 063c
00000330: f9c5 5d3b 4b28 86bc bf22 ccbb de73 92bc
00000340: 8ef4 133c 98e9 27bc 1d24 e2bb a696 c4bc
00000350: 23a0 6538 9a80 4439 e6d9 21b9 dc2a 8db9
00000360: a868 693b bb49 333c 8def 1e3b 0bfe a33b
00000370: 47a3 0b3c 8a1e ecbb 5380 b9bb d2df a0bc
00000380: e25e 163c 6a32 07bc 2854 cdbb 2f27 b2bc
00000390: 5e0e 70bc 2521 9abc 83b3 abb9 7927 f23b
000003a0: 4df7 863b 7df5 1ebc 581f 9ebb c333 81bc
000003b0: 427e 133c d762 07bc c1bb cabb ebc5 afbc
000003c0: 069e b03b 588e 4cbc 6382 ccbb 26f9 a6bc
000003d0: c1e3 4838 8e90 7139 35c7 9fb7 4f3b 32b8
000003e0: 00e3 abbb c16f e23b 2a1b 9a3b a24d 663c
000003f0: 6075 1a3c e357 0cbc 2aee d3bb 23e6 b7bc

exp_avg_sq f4 [64, 4]
0.00073355756 0.0005705419 3.5012825e-05 0.00017004352 0.0008342141 0.0006840407 3.884934e-05 0.00019114111
0.0008019828 0.00065748405 3.718384e-05 0.00018270199 0.0010888475 0.0008944536 5.0693285e-05 0.000250869
0.0009771202 0.0008024149 4.6422727e-05 0.00022809774 0.00090903154 0.00074605213 4.2916352e-05 0.00021132192
0.0009638792 0.0007983114 4.5915902e-05 0.00022672299 0.00024577658 0.00018798508 5.7001293e-06 3.8304977e-05
0.0003026421 0.00018501206 8.227105e-06 4.6685993e-05 0.0007780533 0.0006354474 3.751575e-05 0.0001830975
0.00023365147 0.00019912407 8.917773e-06 4.2540578e-05 0.0011852285 0.0009771537 5.597744e-05 0.00027779143
0.0008345128 0.00068717764 3.9769948e-05 0.00019540568 0.0009836864 0.00080983405 4.6697933e-05 0.00023041497
0.00047812992 0.0003625024 1.3978916e-05 6.9516616e-05 0.00014797182 8.6452725e-05 2.5342408e-06 1.503116e-05
6.8402165e-05 5.3134238e-05 1.9359188e-06 1.3665595e-05 0.0009229012 0.0007662292 4.3930057e-05 0.00021420053
0.0010203882 0.0008365555 4.780271e-05 0.00023571549 0.00089117326 0.0007317464 4.2415293e-05 0.00020829035
0.00065044663 0.0005272908 3.098957e-05 0.00014886099 0.0007677157 0.000627196 3.6475514e-05 0.00017847985
0.0010763801 0.0008891757 5.114994e-05 0.00025202354 0.00019188525 0.00014969219 4.7576764e-06 3.2664822e-05
0.00012681771 7.581818e-05 2.1100273e-06 1.2595328e-05 0.00095054804 0.0007766601 4.4837932e-05 0.00022011632
0.00015211708 8.831727e-05 3.970271e-06 2.0456484e-05 0.00015400194 9.0257505e-05 2.4980013e-06 1.4577865e-05
0.0009072068 0.00074736745 4.319716e-05 0.00021250563 0.0007520686 0.0006145165 3.5700446e-05 0.00017274838
0.0011010743 0.00090876204 5.236224e-05 0.0002586581 0.00079123455 0.0006486741 3.750614e-05 0.00018363862
0.00089117326 0.0007285117 4.236792e-05 0.00020731277 0.00017969323 0.00014779707 5.7312604e-06 4.1366588e-05
0.00088901276 0.0007274757 4.2702384e-05 0.00020861377 0.0011622199 0.000963119 5.523733e-05 0.00027438547
0.00021805111 0.00015795816 4.584032e-06 3.4005156e-05 0.00010790023 6.468239e-05 3.1913755e-06 1.7594877e-05
0.0011169979 0.00092140964 5.2903528e-05 0.00026193168 0.0006967082 0.0005751855 3.3261287e-05 0.00016260323
0.0007676665 0.00063328544 3.653183e-05 0.00017959095 0.0007548632 0.00056402537 3.5774618e-05 0.00017167762
0.00075087365 0.0006125017 3.5598616e-05 0.00017355147 0.0008178991 0.00066606916 3.9064747e-05 0.0001910083
0.0017043938 0.0014805021 8.5150576e-05 0.0004210073 0.0007391552 0.0006076031 3.5625337e-05 0.00016858931
0.0005826217 0.0004743252 2.7823799e-05 0.0001335354 0.0007406536 0.0006044717 3.5108416e-05 0.00016991448
0.0010102283 0.00082128716 4.8158327e-05 0.0002363633 0.00078936626 0.00064712146 3.67238e-05 0.00018054037
0.000264588 0.00020554013 8.1712815e-06 3.7686943e-05 0.00064137735 0.0004986902 3.1332827e-05 0.00014377049
0.0009322928 0.00077433465 4.480109e-05 0.00022026122 0.00020154366 0.000116812436 4.3730934e-06 2.5009336e-05
9.491291e-05 6.7957364e-05 3.2737967e-06 1.6484568e-05 0.00066124595 0.0005329715 3.12509e-05 0.00015162834
0.0008071757 0.0006553266 3.8721242e-05 0.00018846481 0.0002633049 0.00020881038 7.4753584e-06 3.7325455e-05
0.00040659908 0.00032647772 1.978615e-05 9.462058e-05 0.0007841846 0.00064000976 3.7058267e-05 0.00018073434
0.0007325432 0.00059662835 3.5350415e-05 0.00017212928 0.00013427113 7.912205e-05 1.9449624e-06 1.0879896e-05
0.00016574125 0.00012875083 4.715005e-06 3.1788208e-05 0.000855796 0.00070082385 4.1182066e-05 0.00020181044
00000000: 374c 403a 6b90 153a bcda 1238 b64d 3239
00000010: 29af 5a3a 3251 333a 29f2 2238 0d6d 4839
00000020: 283c 523a 025b 2c3a d8f5 1b38 b193 3f39
00000030: a9b7 8e3a c479 6a3a 809f 5438 1187 8339
00000040: b712 803a 2759 523a 06b6 4238 852d 6f39
00000050: 134c 6e3a b692 433a 1501 3438 4c96 5d39
00000060: d7ac 7c3a c545 513a d395 4038 7dbc 6d39
00000070: 93db 8039 dc1d 4539 bd43 bf36 a8a9 2038
00000080: efab 9e39 ccff 4139 2607 0a37 b4d0 4338
00000090: 46f6 4b3a 2794 263a 3b5a 1d38 dcfd 3f39
000000a0: 5700 7539 f6cb 5039 8b9d 1537 996d 3238
000000b0: ab59 9b3a d613 803a 52c9 6a38 89a4 9139
000000c0: 35c3 5a3a b623 343a a8ce 2638 d0e5 4c39
000000d0: 0aef 803a 0b4b 543a 86dd 4338 8c9b 7139
000000e0: 83ad fa39 400e be39 fd86 6a37 73c9 9138
000000f0: e228 1b39 f44d b538 ed11 2a36 572e 7c37
00000100: 2273 8f38 74dc 5e38 d5ea 0136 4945 6537
00000110: daee 713a c5dc 483a 8a41 3838 049b 6039
00000120: 8cbe 853a 4a4c 5b3a c57f 4838 652a 7739
00000130: a09d 693a abd2 3f3a 13e7 3138 8468 5a39
00000140: bc82 2a3a e339 0a3a ccfa 0138 9117 1c39
00000150: 8740 493a 696a 243a 49fd 1838 5226 3b39
00000160: 5315 8d3a 9217 693a d489 5638 0722 8439
00000170: ce34 4939 b1f6 1c39 21a4 9f36 9601 0938
00000180: 5ffa 0439 9300 9f38 fe99 0d36 8650 5337
00000190: 332e 793a c798 4b3a 5d10 3c38 06cf 6639
000001a0: 9e81 1f39 f936 b938 5e38 8536 f799 ab37
000001b0: 957b 2139 a148 bd38 56a3 2736 7493 7437
000001c0: 9ed1 6d3a fbea 433a 992e 3538 0cd4 5e39
000001d0: 7826 453a 8117 213a 10bd 1538 ca23 3539
000001e0: ec51 903a fd39 6e3a 879f 5b38 819c 8739
000001f0: da6a 4f3a c80b 2a3a e94f 1d38 1e8f 4039
00000200: a09d 693a 98f9 3e3a 35b4 3138 1962 5939
00000210: 096c 3c39 f9f9 1a39 274f c036 0981 2d38
00000220: a30c 693a 11b4 3e3a 561b 3338 55bf 5a39
00000230: a155 983a d279 7c3a a2ae 6738 65db 8f39
00000240: a6a4 6439 92a1 2539 89d0 9936 c2a0 0e38
00000250: 7f48 e238 18a6 8738 6a2b 5636 b698 9337
00000260: 3b68 923a c18a 713a bbe4 5d38 e053 8939
00000270: 4ca3 363a 0cc8 163a 0982 0b38 7980 2a39
00000280: 3a3d 493a 1103 263a c139 1938 9450 3c39
00000290: 03e2 453a 1adb 133a b40c 1638 5c04 3439
000002a0: 47d6 443a 4b90 203a b94f 1538 5efb 3539
000002b0: 4868 563a 259b 2e3a 74d9 2338 6649 4839
000002c0: f765 df3a 680d c23a de92 b238 a5ba dc39
000002d0: dec3 413a 8e47 1f3a 6a6c 1538 59c7 3039
000002e0: 15bb 183a daae f839 2767 e937 a305 0c39
000002f0: 6c28 423a 6975 1e3a 6041 1338 122b 3239
00000300: a369 843a a64b 573a 9cfd 4938 4ad8 7739
00000310: 79ed 4e3a 96a3 293a e107 1a38 704f 3d39
00000320: 66b8 8a39 4286 5739 6317 0937 0c12 1e38
00000330: 1b22 283a 88ba 023a 5e6b 0338 19c1 1639
00000340: 1c65 743a b8fc 4a3a cee8 3b38 ecf5 6639
00000350: 7755 5339 33f9 f438 96bc 9236 24cb d137
00000360: fb0b c738 5584 8e38 66b3 5b36 5748 8a37
00000370: 7757 2d3a 1db7 0b3a 6613 0338 6cfe 1e39
00000380: a598 533a 39ca 2b3a 9e68 2238 a39e 4539
00000390: 2f0c 8a39 1cf4 5a39 d7d4 fa36 e78d 1c38
000003a0: ce2c d539 192b ab39 6ffa a537 096f c638
000003b0: bd91 4d3a 54c6 273a 036f 1b38 8183 3d39
000003c0: 2408 403a 0d67 1c3a 3845 1438 9a7d 3439
000003d0: 22cb 0c39 54ee a538 3386 0236 cc88 3637
000003e0: d4ca 2d39 4a01 0739 9635 9e36 5454 0538
000003f0: 7f57 603a 7eb7 373a e8ba 2c38 149d 5339

exp_avg f4 [64]
-0.0009927867 -0.0036323841 -0.0037304799 -0.0040224586 -0.0036734869 -0.0029910514 -0.0015725435 -0.01323508
0.00320213 -0.002819286 -0.022746064 -0.003155052 -0.002027729 -0.002602399 0.005617871 -3.8899638e-05
-0.0051705656 -0.0023368243 -0.003702188 -0.002381331 -0.0021352621 -0.0025472457 -0.0020368975 -0.008897841
0.00031771613 -0.0031629112 -0.00073952076 3.5643911e-06 -0.0021130384 -0.0021833896 -0.0022974948 -0.0024693876
-0.0033876414 -0.0068210196 -0.0033376135 -0.0019829439 -0.010518041 -0.0003517117 -0.0027225697 -0.0019561949
-0.002180904 0.00221827 -0.0026856365 -0.0030261006 -0.003372503 -0.002345158 -0.0019577714 -0.0025782164
-0.0032105455 -0.0035947291 0.009897017 0.0012592822 -0.0019329897 -0.0005285454 -0.008431691 -0.0029367316
-0.0029395935 0.01499967 -0.00085162086 -0.002794877 -0.0012117738 0.0001152823 -0.00761088 -0.0029796534
00000000: 6520 82ba 4b0d 6ebb 117b 74bb d4ce 83bb
00000010: e2be 70bb 8405 44bb ce1d ceba f3d7 58bc
00000020: d4da 513b c5c3 38bb f455 babc fdc4 4ebb
00000030: a6e3 04bb 038d 2abb 1e16 b83b 2b28 23b8
00000040: d96d a9bb 6825 19bb 68a0 72bb 1b10 1cbb
00000050: c1ef 0bbb b1ef 26bb 787d 05bb 40c8 11bc
00000060: 2393 a639 d848 4fbb 66dc 41ba c633 6f36
00000070: e77a 0abb 3317 0fbb 9191 16bb 73d5 21bb
00000080: 3103 5ebb dc82 dfbb ddbb 5abb 47f4 01bb
00000090: dd53 2cbc f265 b8b9 246d 32bb 8133 00bb
000000a0: 7fed 0ebb 6560 113b 8101 30bb 8b51 46bb
000000b0: 3605 5dbb 39b1 19bb f44d 00bb 4bf7 28bb
000000c0: 0468 52bb 8c95 6bbb 1927 223c 800e a53a
000000d0: 5f5c fdba 158e 0aba 1325 0abc 2e76 40bb
000000e0: 32a6 40bb 2dc1 753c 4f3f 5fba 412a 37bb
000000f0: 62d4 9eba b7c3 f138 b064 f9bb 4a46 43bb

exp_avg_sq f4 [64]
0.0013837151 0.0015159446 0.0014504493 0.0020134028 0.0018193562 0.0016692516 0.0017854435 0.0001969624
0.0002807428 0.001442349 0.00025684535 0.002234475 0.0015330244 0.0018315564 0.00042917675 9.583173e-05
6.1423474e-05 0.0016973234 0.0018754895 0.0016375507 0.0011917024 0.0014007943 0.002008234 0.00015909996
8.639934e-05 0.0017667944 0.0001171982 9.84346e-05 0.0016664519 0.0013990453 0.0020527027 0.0014493448
0.0016423892 0.00018234119 0.0016511492 0.002189282 0.00019257398 8.957067e-05 0.002096889 0.0012799044
0.0014132857 0.0014266889 0.001368603 0.0015019716 0.0034614734 0.0013630843 0.0010572784 0.001364576
0.001875022 0.0014308287 0.00024804237 0.001261981 0.0017526229 0.00014623647 9.298867e-05 0.0012093538
0.0014882054 0.00024045611 0.00071779575 0.001439124 0.001350742 8.7736364e-05 0.00015272622 0.0015932285
00000000: c65d b53a a9b2 c63a 011d be3a 4bf3 033b
00000010: 7777 ee3a caca da3a 8b05 ea3a b187 4e39
00000020: a930 9339 340d bd3a 33a9 8639 4570 123b
00000030: c3ef c83a d610 f03a 2103 e139 45f9 c838
00000040: 7ad0 8038 b978 de3a fcd2 f53a 15a3 d63a
00000050: e632 9c3a db9a b73a 939c 033b 12d4 2639
00000060: 4b31 b538 c893 e73a 4ec8 f538 ac6e ce38
00000070: d96c da3a 2c60 b73a a386 063b f1f7 bd3a
00000080: 7045 d73a d732 3f39 606b d83a 0f7a 0f3b
00000090: afed 4939 e3d7 bb38 f66b 093b 77c2 a73a
000000a0: 003e b93a bcff ba3a b262 b33a cedd c43a
000000b0: e3d9 623b 85a9 b23a 6094 8a3a 93db b23a
000000c0: 4cc3 f53a a58a bb3a af0b 8239 0e69 a53a
000000d0: 44b8 e53a 0e57 1939 e902 c338 2e83 9e3a
000000e0: e30f c33a f222 7c39 752a 3c3a fda0 bc3a
000000f0: 610b b13a 1aff b738 2225 2039 e1d3 d03a

exp_avg f4 [2, 64]
-0.0018889902 -0.00326751 -0.0036587245 -0.0028274702 -0.0022721686 -0.0026642983 -0.0013442495 -0.0014507931
-6.389297e-05 -0.0021200902 -0.00030289215 -0.002388195 -0.0021227847 -0.0023235793 -0.00066670397 -2.5003486e-05
-0.0022476097 -0.0013828273 -0.0024277957 -0.0015402583 -0.0026583774 -0.0020612304 -0.0012799553 -0.0014711209
-3.932663e-05 -0.0028846327 -1.405831e-05 -2.8216276e-05 -0.0021160399 -0.0024756521 -0.0015912496 -0.0028052167
-0.0022842682 -0.0020811693 -0.0020756416 -0.001601429 -0.001354483 -2.0459581e-06 -0.0022299585 -0.0023942068
-0.0026862056 -0.0016849863 -0.0021309578 -0.0021057022 -0.0013340195 -0.0027203471 -0.0025076293 -0.0030390774
-0.0018050974 -0.0034982623 -0.0006521103 -0.0022144762 -0.001269433 -2.104788e-05 -0.00020680652 -0.002787504
-0.0021211987 -0.00062691345 -0.0017527356 -0.0023299886 -0.002001742 -3.698097e-05 -0.001741452 -0.002060126
0.0018889902 0.0032675099 0.0036587238 0.0028274695 0.0022721684 0.002664298 0.0013442491 0.0014507929
6.389298e-05 0.0021200902 0.00030289215 0.0023881944 0.0021227843 0.0023235783 0.00066670374 2.5003486e-05
0.0022476092 0.0013828274 0.0024277954 0.0015402578 0.002658377 0.0020612301 0.0012799546 0.0014711206
3.932663e-05 0.002884632 1.40583115e-05 2.821629e-05 0.00211604 0.0024756507 0.0015912491 0.002805216
0.0022842675 0.0020811688 0.0020756412 0.0016014285 0.0013544827 2.0459609e-06 0.002229958 0.0023942061
0.0026862053 0.0016849863 0.0021309576 0.0021057015 0.0013340191 0.0027203464 0.002507629 0.0030390772
0.0018050972 0.003498262 0.0006521102 0.002214476 0.0012694328 2.1047883e-05 0.00020680652 0.0027875039
0.0021211985 0.0006269135 0.0017527356 0.0023299889 0.002001742 3.6980997e-05 0.0017414518 0.0020601253
00000000: fe97 f7ba b923 56bb 36c7 6fbb 144d 39bb
00000010: aae8 14bb 829b 2ebb 8731 b0ba 8a28 beba
00000020: 47fe 85b8 36f1 0abb 7fcd 9eb9 4383 1cbb
00000030: 6b1e 0bbb 3147 18bb bfc5 2eba 94be d1b7
00000040: a24c 13bb fc3f b5ba a71b 1fbb 7ee2 c9ba
00000050: 2c38 2ebb b515 07bb 2cc4 a7ba a0d2 c0ba
00000060: a6f2 24b8 1b0c 3dbb fbdb 6bb7 feb1 ecb7
00000070: 42ad 0abb 8d3e 22bb 7a91 d0ba bad7 37bb
00000080: a9b3 15bb 3a64 08bb 7d07 08bb 0ae7 d1ba
00000090: e888 b1ba 4b4d 09b6 7f24 12bb 20e8 1cbb
000000a0: 0d0b 30bb c2da dcba 8aa7 0bbb d2ff 09bb
000000b0: 44da aeba da47 32bb 0a57 24bb 422b 47bb
000000c0: 0599 ecba 1a43 65bb 62f2 2aba bf20 11bb
000000d0: 1a63 a6ba fa8f b0b7 34da 58b9 8fae 36bb
000000e0: cf03 0bbb 7357 24ba 0cbc e5ba b9b2 18bb
000000f0: a82f 03bb 041c 1bb8 6f41 e4ba 2e03 07bb
00000100: fe97 f73a b823 563b 33c7 6f3b 114d 393b
00000110: a9e8 143b 819b 2e3b 8431 b03a 8828 be3a
00000120: 48fe 8538 36f1 0a3b 7fcd 9e39 4183 1c3b
00000130: 691e 0b3b 2d47 183b bbc5 2e3a 94be d137
00000140: a04c 133b fd3f b53a a61b 1f3b 7ae2 c93a
00000150: 2a38 2e3b b415 073b 26c4 a73a 9ed2 c03a
00000160: a6f2 2438 180c 3d3b fddb 6b37 05b2 ec37
00000170: 43ad 0a3b 873e 223b 7691 d03a b7d7 373b
00000180: a6b3 153b 3864 083b 7b07 083b 06e7 d13a
00000190: e688 b13a 574d 0936 7d24 123b 1de8 1c3b
000001a0: 0c0b 303b c2da dc3a 89a7 0b3b cfff 093b
000001b0: 41da ae3a d747 323b 0957 243b 412b 473b
000001c0: 0399 ec3a 1943 653b 60f2 2a3a be20 113b
000001d0: 1963 a63a fc8f b037 34da 5839 8eae 363b
000001e0: ce03 0b3b 7457 243a 0cbc e53a bab2 183b
000001f0: a82f 033b 0b1c 1b38 6d41 e43a 2b03 073b

exp_avg_sq f4 [2, 64]
2.5064013e-05 2.8702558e-05 2.9724075e-05 2.1538266e-05 2.1470616e-05 2.789783e-05 2.1114802e-05 9.032701e-06
5.769124e-06 2.6334792e-05 5.362848e-06 2.249215e-05 2.6990932e-05 2.3440505e-05 6.8467016e-06 6.046703e-06
1.2159034e-05 2.5305098e-05 2.022151e-05 2.3544413e-05 3.892572e-05 2.6671261e-05 2.0340649e-05 5.899612e-06
8.237411e-06 2.709748e-05 4.1863186e-06 6.803987e-06 2.5651836e-05 3.273761e-05 1.992197e-05 3.2364427e-05
2.263536e-05 6.6658818e-06 2.5762029e-05 1.9916932e-05 1.734534e-05 3.0133135e-06 2.207536e-05 3.3817778e-05
3.266647e-05 2.5081581e-05 2.7089653e-05 2.7050977e-05 1.7383363e-05 3.4101235e-05 3.5107078e-05 3.524971e-05
2.2362185e-05 3.0591313e-05 7.579299e-06 2.5977079e-05 2.3491639e-05 4.811926e-06 2.4716899e-06 2.736923e-05
2.6646117e-05 8.16588e-06 1.9321304e-05 2.3986235e-05 2.8160273e-05 1.0644107e-05 7.1069894e-06 2.3260603e-05
2.5064013e-05 2.8702558e-05 2.9724075e-05 2.153827e-05 2.1470616e-05 2.7897826e-05 2.1114802e-05 9.032701e-06
5.7691245e-06 2.6334794e-05 5.362848e-06 2.2492148e-05 2.6990936e-05 2.3440509e-05 6.8467016e-06 6.046703e-06
1.2159034e-05 2.5305102e-05 2.0221512e-05 2.354441e-05 3.8925722e-05 2.6671261e-05 2.0340649e-05 5.899612e-06
8.237409e-06 2.709748e-05 4.186319e-06 6.8039863e-06 2.5651834e-05 3.273761e-05 1.9921972e-05 3.2364427e-05
2.2635362e-05 6.665881e-06 2.5762023e-05 1.9916932e-05 1.7345337e-05 3.013313e-06 2.2075365e-05 3.3817778e-05
3.266647e-05 2.5081583e-05 2.708965e-05 2.7050977e-05 1.7383361e-05 3.410124e-05 3.5107078e-05 3.5249726e-05
2.236218e-05 3.0591316e-05 7.579299e-06 2.5977073e-05 2.3491642e-05 4.8119264e-06 2.4716903e-06 2.7369228e-05
2.664612e-05 8.16588e-06 1.9321304e-05 2.3986235e-05 2.8160275e-05 1.06441075e-05 7.1069894e-06 2.3260602e-05
00000000: 8f40 d237 46c6 f037 f757 f937 13ad b437
00000010: cc1b b437 2206 ea37 b11f b137 288b 1737
00000020: 6694 c136 89e9 dc37 83f2 b336 86ad bc37
00000030: 966a e237 1aa2 c437 b8bc e536 c9e4 ca36
00000040: a7fe 4b37 4946 d437 5da1 a937 3e81 c537
00000050: 2c44 2338 19bc df37 36a1 aa37 48f5 c536
00000060: 6933 0a37 654f e337 3478 8c36 ce4d e436
00000070: e62e d737 be4f 0938 1b1e a737 0abf 0738
00000080: 11e1 bd37 7dab df36 891b d837 4913 a737
00000090: d680 9137 5538 4a36 7a2e b937 90d7 0d38
000000a0: 5b03 0938 4966 d237 963e e337 88eb e237
000000b0: 7dd2 9137 ec07 0f38 f03f 1338 17d9 1338
000000c0: 6d96 bb37 2c4f 0038 af51 fe36 5ae9 d937
000000d0: e90f c537 2176 a136 4fdf 2536 f996 e537
000000e0: 1a86 df37 3000 0937 2f14 a237 0c36 c937
000000f0: ba39 ec37 1794 3237 9378 ee36 c41f c337
00000100: 8f40 d237 46c6 f037 f757 f937 15ad b437
00000110: cc1b b437 2006 ea37 b11f b137 288b 1737
00000120: 6794 c136 8ae9 dc37 83f2 b336 85ad bc37
00000130: 986a e237 1ca2 c437 b8bc e536 c9e4 ca36
00000140: a7fe 4b37 4b46 d437 5ea1 a937 3c81 c537
00000150: 2d44 2338 19bc df37 36a1 aa37 48f5 c536
00000160: 6733 0a37 654f e337 3578 8c36 cc4d e436
00000170: e52e d737 be4f 0938 1c1e a737 0abf 0738
00000180: 12e1 bd37 7bab df36 861b d837 4913 a737
00000190: d480 9137 5338 4a36 7c2e b937 90d7 0d38
000001a0: 5b03 0938 4a66 d237 953e e337 88eb e237
000001b0: 7cd2 9137 ed07 0f38 f03f 1338 1bd9 1338
000001c0: 6a96 bb37 2d4f 0038 af51 fe36 57e9 d937
000001d0: eb0f c537 2276 a136 51df 2536 f896 e537
000001e0: 1b86 df37 3000 0937 2f14 a237 0c36 c937
000001f0: bb39 ec37 1894 3237 9378 ee36 c31f c337

exp_avg f4 [2]
-0.0023321246 0.0023321244
00000000: 8fd6 18bb 8ed6 183b

exp_avg_sq f4 [2]
3.2525295e-05 3.2525295e-05
00000000: c56b 0838 c56b 0838

exp_avg f4 [1, 64]
0.0012379544 0.0069355415 0.013189237 0.006629522 0.008810422 -0.002642588 -0.014563986 -0.0030004897
-0.00034713745 0.0041473056 0.004321237 -0.0019952192 -0.008568591 -0.0046224142 -0.014640218 -0.00013396142
0.0063765473 -0.005815774 0.008185847 -0.005503564 -0.008902807 -0.0013061145 -0.0148761105 0.0015178216
-0.00013620965 0.002186796 -3.324709e-05 -0.00011636254 -0.007821478 -0.008328823 -0.0072017033 -0.002761715
0.0073886835 0.01020102 0.005791119 -0.012158857 -0.014972617 2.5908432e-05 -0.004577327 -0.011687101
-0.0067605604 -0.0010076385 -0.00045860987 0.0032953995 -0.003804836 -0.0032262162 -0.00999983 -0.0003012379
0.002541269 0.008776635 -0.015722163 0.00798747 -0.007796672 -6.576599e-05 0.0025485223 0.010593802
0.004270054 -0.016690638 0.0015905077 0.0029518777 0.0004726854 -0.00011384977 0.0040244204 0.004240418
00000000: db42 a23a 8a43 e33b ab17 583c 763c d93b
00000010: 9759 103c 452f 2dbb c99d 6ebc dda3 44bb
00000020: 0000 b6b9 1fe6 873b 2a99 8d3b 39c2 02bb
00000030: 4763 0cbc 9f77 97bb 86dd 6fbc ff77 0cb9
00000040: 5bf2 d03b 4092 bebb ee1d 063c 3e57 b4bb
00000050: 14dd 11bc ee31 abba eeba 73bc a4f1 c63a
00000060: 80d3 0eb9 5950 0f3b cb72 0bb8 aa07 f4b8
00000070: a825 00bc 9e75 08bc 44fc ebbb e4fd 34bb
00000080: c51c f23b 2e22 273c 6dc3 bd3b f135 47bc
00000090: b54f 75bc ef55 d937 67fd 95bb 417b 3fbc
000000a0: b187 ddbb bd12 84ba 9371 f0b9 a1f7 573b
000000b0: 8e5a 79bb ed6e 53bb 54d6 23bc 77ef 9db9
000000c0: 6b8b 263b e0cb 0f3c c4cb 80bc e1dd 023c
000000d0: 3a7b ffbb d9eb 89b8 1c05 273b a091 2d3c
000000e0: cfeb 8b3b ceba 88bc 9578 d03a 4a74 413b
000000f0: c3d2 f739 a1c2 eeb8 49df 833b 34f3 8a3b

exp_avg_sq f4 [1, 64]
0.0016071055 0.0017201388 0.0017760514 0.0013661868 0.0014991141 0.0017090592 0.0014358152 0.0002560192
0.00028877208 0.0017892427 0.00031111675 0.0012915098 0.0017232983 0.0014042837 0.00022845498 0.00026188217
0.0003305778 0.0017474251 0.001415776 0.001628636 0.002045891 0.0018362226 0.0013349548 0.00016939014
0.00038174522 0.001482496 0.00017422877 0.0003032786 0.001670567 0.0016325094 0.0013465253 0.0018492645
0.0015789531 0.0001897955 0.0017686982 0.001262892 0.0005025805 0.00011794172 0.0013106187 0.0019038762
0.0018490315 0.0015514232 0.0018536157 0.0018701622 0.0011800718 0.0017768957 0.0018420102 0.0018466066
0.0015326204 0.0018073814 0.00026046805 0.0016102392 0.0016241953 0.00021057477 0.00013894142 0.0018713982
0.001832543 0.00028919833 0.0012808045 0.0015894014 0.0019142422 0.0004886456 0.00021285296 0.0015903661
00000000: 83a5 d23a 4876 e13a 65ca e83a 9f11 b33a
00000010: ec7d c43a 8302 e03a f731 bc3a 513a 8639
00000020: 5566 9739 0685 ea3a 621d a339 e147 a93a
00000030: 4ce0 e13a f10f b83a 6b8d 6f39 3b4d 8939
00000040: 6751 ad39 db09 e53a 8f91 b93a f577 d53a
00000050: 5b14 063b 68ad f03a a6f9 ae3a 529e 3139
00000060: fa24 c839 5050 c23a 2eb1 3639 5d01 9f39
00000070: edf6 da3a edf9 d53a e47d b03a 0563 f23a
00000080: e0f4 ce3a d703 4739 aad3 e73a a087 a53a
00000090: 9bbf 033a 7b57 f738 11c9 ab3a 7c8b f93a
000000a0: 345b f23a 2059 cb3a 06f5 f23a 3b20 f53a
000000b0: a4ac 9a3a bae6 e83a 9b6f f13a d609 f23a
000000c0: 35e2 c83a a8e5 ec3a 6e8f 8839 a90e d33a
000000d0: f3e2 d43a bccd 5c39 ceb0 1139 b449 f53a
000000e0: f131 f03a 8b9f 9739 abe0 a73a 7653 d03a
000000f0: 4fe7 fa3a 7318 003a 4831 5f39 d573 d03a
