savedModels/cartpole/ppo_cartpole_51200.pth (torch, 13659 bytes, 15 tensors)

shared_fc.0.weight f4 [64, 4]
00000000: 2cdf e0bb 20e1 f83e 30bd 933d 35a8 e7be
00000010: 2528 dcbd 78b5 43be b16e fcbe 6441 4bbe
00000020: e44a 713b ba9d a2be aec9 60be 3991 eabe
00000030: 7ebe a0bd 3a1a fdbd bd33 a5be e37b 76be
00000040: 16fa c13d 6ead fc3d 700a 1abf 3ac1 a4be
00000050: 747b 4ebe e9cc 1fbd 0ef8 81be 9ee2 313d
00000060: 1425 ddbd f824 e23d ce2d a03e d8fa bd3e
00000070: 6c64 8cbe 72dd 11be 683b f6bd 2adc 16be
00000080: fae4 cd3e e4ad 513c 67ff a0be 5b3b b0bd
00000090: 68cc 3f3e c724 173e 621c 5f3e 88ab b3be
000000a0: 0441 fa3e 3c25 63be 30e4 96be 5934 9cbe
000000b0: e895 813b e94d 88be 8437 9fbd f89f 1b3e
000000c0: 0842 8f3b 790e f5bd b132 873d acd6 9f3e
000000d0: 8f81 bbbd 8754 03be 7a5c 153d cb2a 033e
000000e0: df35 90be 09d0 1d3c 355e 183e 4d6a d73d
000000f0: 8d9d 873e af7d 233e 5b70 efbc c7c3 303e
00000100: 034c 54be a04e acbe 9be7 42be 9e62 68be
00000110: bc18 923e cf74 083d 775a 19be 4f92 a13e
00000120: d2c1 333d f4e8 fc3b c55e 58be b504 b4be
00000130: 88f3 aabd 5c63 923e 0cda 553d 6493 ebbb
00000140: 8b0c 4ebb fff1 d3be 29a0 123d d13a f43e
00000150: a840 f9bd 94b7 873e 21f3 8e3e 0c97 8bbe
00000160: 7cbe ac3c f68b 34bd af23 223e 886d 0e3f
00000170: 4b36 0fbe 1fab 1ebe c54a 24be 7941 1dbe
00000180: 2f2e c83e 3328 fb3d 72cc 04bf 91fd 613e
00000190: 622f 323d db9e c4be bf4d b0bd 3463 0a3d
000001a0: 4c22 163e 5280 313e bfbc ed3d 711b 373e
000001b0: 6dd0 ad3e 5186 e93d 6523 ba3d 2093 073e
000001c0: 1ab4 72bd 6bf7 2fbd 3391 c23d 86a7 5c3e
000001d0: 0750 6abd 2866 d5be f7da b73e 6ca9 b73e
000001e0: cce8 3d3e 5b16 0abe 0dd3 bb3e efc9 833e
000001f0: 4325 853d fe61 b3be 952c 293d 6084 403e
00000200: c939 a83d 4a79 ce3d a953 8ebe d10b aebe
00000210: 9b44 42bd 3386 a7be bb60 dcbc 09ee a4be
00000220: 4d96 903e fa62 6fbc d1a7 2dbe 31b9 29be
00000230: 26cd 11be d1b8 9d3c 5578 933e fbaa 9b3e
00000240: a83c 01bf e433 e9bd 7ee3 353e fed8 bebd
00000250: 186b c13c 2857 923e dd1c 923d c497 933e
00000260: 7035 8fbc 6e7b 47be ae5d 3d3e 6a30 133e
00000270: a2bc 66be 381f 00be 9c89 0fbe 0b7f dd3e
00000280: 128c 14be 8ac1 45be 4868 4b3e 5bb7 2d3e
00000290: 7323 e9bd 1e41 183f 6117 3abc 02e0 d8be
000002a0: 2907 57be 2558 b03e 21c4 d3bd e1f8 89be
000002b0: a317 1f3e 6627 d23d 20e3 e73d 531a 7fbe
000002c0: c477 a73e 6709 ecbd a326 b83c 77d0 883e
000002d0: ecc5 553e 43ad 0bbf 6ee1 8f3e 7c71 953e
000002e0: 1e1c d7bc 12d8 c6be a143 f43e 856d c33e
000002f0: 9a55 e83d 7a05 03bf c49f 1c3e 104c 173e
00000300: 86f4 7c3e f58d 27bb 21be 2a3e 1b16 07be
00000310: 910b e8bd e80f 64be 1a8d 6fbe b669 b1be
00000320: fffa 90be 2acc 9c3b 1645 803e 6099 193e
00000330: 100d 083e e7c5 f13e 8ac3 4a3b 38fd 3bbf
00000340: d9d3 8c3e 78a8 4a3c 93e3 503e 9034 9a3e
00000350: c4de 713e 8248 d93d 2738 253e 4be2 fd3d
00000360: 8eaa 053e 7518 103c b1d8 aabe 5688 58be
00000370: 1003 e1bc 7026 6f3e 097a dabc f52a 33bf
00000380: adcb 413e ed6b c63d ee86 5c3d fc85 89be
00000390: 3eea b6be ce13 aa3d c9e3 0f3d 002f 8a3e
000003a0: 5260 af3d 1800 b73e aef4 8bbd 59ac 9ebe
000003b0: 4f7a a5be 85fb ad3e 3aeb 6cbd 9b1d f0be
000003c0: cbb5 6b3c f494 a33e 5b51 1e3d 03fa 8fbe
000003d0: cc6c 0b3f 86cf 913d aa2c 443e f837 c33d
000003e0: 55a0 4dbe 689a 10be 3ac7 b7be 0c72 18be
000003f0: 109d 8d3d e43b 5a3e bd5b 93bd 3acb aabe
-0.0068625417 0.48609257 0.07213819 -0.4524552 -0.107498445 -0.19112194 -0.493032 -0.19849163
0.003681832 -0.3176096 -0.21951935 -0.4581392 -0.078488335 -0.12358518 -0.32266036 -0.24070697
0.09471528 0.123377666 -0.60172176 -0.3217867 -0.20164281 -0.039013777 -0.25384563 0.04342901
-0.10798088 0.110422075 0.31284946 0.3710544 -0.27420366 -0.14244631 -0.120230496 -0.14732423
0.40213758 0.012797806 -0.31444857 -0.08605071 0.18730319 0.14760123 0.21788171 -0.35091805
0.48877728 -0.22182173 -0.29470968 -0.30508688 0.003954638 -0.2662194 -0.07774261 0.15197742
0.004371885 -0.11965651 0.066014655 0.3121847 -0.09155571 -0.12825213 0.036465146 0.12809293
-0.281661 0.009632119 0.14879687 0.10518322 0.2648739 0.15965913 -0.02922838 0.17262183
-0.20732121 -0.33653736 -0.19033663 -0.2269387 0.28534496 0.033314522 -0.14975916 0.31556937
0.043886013 0.0077182 -0.21129902 -0.3515984 -0.08347231 0.2859143 0.0522099 -0.007189201
-0.0031440582 -0.41395566 0.035797272 0.47701123 -0.12170535 0.26507246 0.27919868 -0.27263677
0.021086924 -0.04407879 0.15833925 0.5563588 -0.13985555 -0.15494965 -0.16044147 -0.15357007
0.39097735 0.12263527 -0.5187446 0.22069384 0.04350222 -0.38402447 -0.08608579 0.033786014
0.1466152 0.17334107 0.11608266 0.17881562 0.3394808 0.11402572 0.09088782 0.13239717
-0.05925379 -0.042960566 0.09500351 0.2154828 -0.057205226 -0.41679502 0.35909244 0.35871446
0.18545836 -0.1348509 0.36684456 0.2574 0.06501248 -0.350357 0.041302282 0.18800497
0.08214147 0.10081728 -0.27798203 -0.3399339 -0.04742871 -0.32719573 -0.026901593 -0.32212856
0.2823967 -0.014611 -0.16958548 -0.16574551 -0.14238414 0.019253166 0.28802744 0.30403885
-0.5048318 -0.113868505 0.17762563 -0.09318732 0.023610637 0.2858212 0.071344115 0.28826725
-0.017481536 -0.19480678 0.18492767 0.14373937 -0.22532895 -0.12511909 -0.14017338 0.4326099
-0.14506558 -0.1931211 0.19863999 0.16964476 -0.113837145 0.5947436 -0.011358113 -0.42358404
-0.20998825 0.3444225 -0.10340143 -0.26947692 0.1553636 0.10261421 0.113226175 -0.24912386
0.3270856 -0.11525231 0.02247936 0.26721546 0.20876282 -0.5456125 0.28101677 0.29188144
-0.026258525 -0.38836724 0.47707847 0.38169494 0.11344452 -0.5118023 0.15295321 0.1477511
0.24702653 -0.002556679 0.16674091 -0.13192026 -0.11330331 -0.22271693 -0.2339367 -0.34650964
-0.28316495 0.0047850804 0.25052708 0.14999914 0.13286233 0.472213 0.0030939304 -0.73433256
0.27505377 0.012369268 0.20399313 0.30118227 0.23620135 0.10609533 0.16134702 0.123966776
0.13053343 0.0087948935 -0.33368447 -0.21145758 -0.02746728 0.23354506 -0.026669519 -0.6998742
0.18925352 0.09688554 0.053839616 -0.26860034 -0.35725588 0.08304559 0.035129342 0.26988983
0.085632935 0.3574226 -0.06833778 -0.30990866 -0.32319877 0.33980957 -0.057841517 -0.46897587
0.014386605 0.3194958 0.038651805 -0.2812043 0.54462886 0.0711966 0.19157663 0.095321596
-0.20080693 -0.14121401 -0.35894185 -0.14887255 0.06914723 0.21311909 -0.07195232 -0.33358175

shared_fc.0.bias f4 [64]
00000000: b61f 2f3f febc 3d3f 8dd0 3e3f 0449 283f
00000010: 6e62 2d3f 99b5 413f d0d5 2f3f 3646 98bd
00000020: 19a5 71bd 83e7 423f 4c66 80bd e512 223f
00000030: f571 433f d902 2d3f 3c62 38bd e2d2 36bd
00000040: e87d a5bd 881e 413f 06c8 2b3f 1643 3d3f
00000050: dd8d 4b3f f6a1 493f 255d 253f 0023 84bd
00000060: 8503 fabd 0da0 2c3f 84be 25bd 42e1 20bd
00000070: 0ebb 413f aee2 303f 8802 293f 2e0c 473f
00000080: 367c 353f 1dd9 c6bd 654d 413f 03ce 223f
00000090: 7617 c3bd a446 5dbd 790c 263f c911 483f
000000a0: 532f 483f 9395 283f 01f2 483f c2a3 4a3f
000000b0: 3ea8 183f c644 3b3f 5f51 403f 87aa 413f
000000c0: 22c6 333f bfee 423f d93f 69bd 1616 253f
000000d0: 5e9f 393f a848 06bd 71ce f6bc 11f1 413f
000000e0: 9ffc 463f 94fd 95bd 3bed 153f 53b6 323f
000000f0: 017d 4b3f 0a73 4bbd 51fd 8cbd cbe6 353f
0.6840776 0.74116504 0.74536973 0.65736413 0.67728317 0.7566772 0.68685627 -0.07435267
-0.05899534 0.7613451 -0.062695116 0.6331008 0.7634576 0.6758247 -0.04501556 -0.044634707
-0.08080655 0.7543721 0.67102087 0.7393049 0.7951334 0.7876276 0.6459525 -0.06451988
-0.122077025 0.6743172 -0.040464893 -0.039277323 0.7567605 0.69095886 0.6601949 0.7775296
0.70892656 -0.0970938 0.7550872 0.635956 -0.09525959 -0.054022446 0.6486278 0.7815214
0.7819721 0.6585323 0.7849427 0.79156125 0.5963172 0.73151815 0.7512416 0.7565083
0.702242 0.7614555 -0.056945655 0.64486825 0.725088 -0.032784134 -0.030127736 0.75758463
0.7772922 -0.07323757 0.5856511 0.69809455 0.79487616 -0.049670257 -0.06884254 0.7105529

actor_head.weight f4 [2, 64]
00000000: 6e65 a1ba 0d86 373e 66cd 493e 46d3 413e
00000010: 85b9 d93d 970c 6b3d 728d 5abe 0635 ec3d
00000020: 1ddd 133d 3947 8e3c 2486 613e 5d7a cfbb
00000030: cabe e5bd d76a 02bd d7c4 7ebd 9ec6 babd
00000040: 73de de3d a317 e1bd 3ce9 fc3d 238e 79bd
00000050: 69ed 50bd c9da 853b 6cfb 21be 032e 343e
00000060: a8b9 95bc 9a0d 493d dd00 07be e7b6 94bd
00000070: 4436 0bbe e9b6 49bd 5e42 09be 2cc9 88bc
00000080: ec8f c33d 36d1 283e 5c95 b93d 2d5e 3ebe
00000090: d769 f43c caa1 30be b21a 82bd 194d aabd
000000a0: 4610 88bd 1a36 3b3b 0d9f 363d e5dc 733d
000000b0: c6e3 04be a01f 963a caa8 35bd 4064 693b
000000c0: eb66 4b3d d35e 453e 8842 9cbd 55e0 873d
000000d0: ab3a 36be f83c f5bd 13b9 dc3d dce7 b03d
000000e0: 7a00 2d3d fc46 acbd 6074 56bc 4b9a 813d
000000f0: eb08 993c 0184 a0bd c613 5f3e 52bb ae3c
00000100: 6849 b83b 9238 42be 9a20 55be a1f9 44be
00000110: cb2a 06be 165f 5abd 5649 643e 7f44 e5bd
00000120: 0fc3 54bd cb77 3dbd 4c10 36be 27b4 94bb
00000130: f2a0 fb3d b8bc 6f3d 09a2 3b3d 0ca0 9e3d
00000140: e6db 2dbe 463a dd3d f0b3 0abe 344c 5f3d
00000150: 3aff c83c c647 bebc 55cf 2d3e 63b7 48be
00000160: 7570 27bb 854f 73bd 1383 1a3e a477 a03d
00000170: 057f cf3d 8c4d 6e3d 13ec 1b3e a692 273d
00000180: e162 d1bd 8b6e 23be ce2f 98bd 3a6d 4a3e
00000190: 8578 88bc 3772 223e 73e1 563d 487c 923d
000001a0: c90c 5a3d 3bbf 0e3c bb0e 2abd 5d3f 8dbd
000001b0: 030a c93d 3205 b63c f867 f53c 879b 72bb
000001c0: 6102 e2bc 84df 47be 399c 9d3d 3c89 32bd
000001d0: ebb2 443e 9297 f93d a13a ecbd 8454 c4bd
000001e0: 8f92 2cbd ff77 ab3d 6123 803c 7c52 66bd
000001f0: 1ddf f1bb e0dc a33d 6a47 54be f2dc 62bd
-0.0012313554 0.1792223 0.1970726 0.1892825 0.10631088 0.057385053 -0.2134302 0.11533551
0.036099542 0.017367946 0.22023827 -0.0063317255 -0.11218031 -0.03184017 -0.06219944 -0.091199145
0.108822726 -0.109908365 0.123491734 -0.060926568 -0.051007662 0.004084919 -0.15818566 0.17595677
-0.018277004 0.049085237 -0.13183923 -0.07261448 -0.1359492 -0.049246702 -0.13404223 -0.016697489
0.09548935 0.16486058 0.09061691 -0.18590613 0.029835625 -0.17249218 -0.06352748 -0.083154865
-0.06643729 0.0028566183 0.044585276 0.059536833 -0.12977514 0.0011453517 -0.044350423 0.0035612732
0.049658697 0.19274454 -0.07629877 0.06634585 -0.17795818 -0.119745195 0.107774876 0.08637974
0.042236783 -0.08411977 -0.013089269 0.06328257 0.01868101 -0.07837678 0.21784887 0.021329556
0.005623985 -0.18966892 -0.20813218 -0.19235851 -0.13102262 -0.053313337 0.222936 -0.11194705
-0.051943835 -0.04625682 -0.17779654 -0.0045380774 0.12286557 0.058529586 0.045808826 0.0774537
-0.16978416 0.108021304 -0.13545203 0.054516032 0.024535764 -0.023227584 0.16973622 -0.19601206
-0.0025549207 -0.059402008 0.15089063 0.0783532 0.10131649 0.058179423 0.15226774 0.04091134
-0.10223938 -0.15960138 -0.07430993 0.19768229 -0.01665903 0.15863882 0.0524611 0.07152611
0.05323485 0.008712585 -0.041517954 -0.06896851 0.09816363 0.022219274 0.029956803 -0.003701897
-0.027589025 -0.19518858 0.07695813 -0.04358791 0.19208877 0.12187113 -0.1153462 -0.095864326
-0.042131957 0.08372497 0.01564187 -0.056231007 -0.0073813335 0.08001113 -0.20730367 -0.05538649

actor_head.bias f4 [2]
00000000: f3bc 8ebc f1bc 8e3c
-0.017424082 0.017424079

critic_head.weight f4 [1, 64]
00000000: 0528 313f eefc 383f b844 343f 53d6 583f
00000010: 9f08 4a3f f67d 443f bdc1 4a3f 2356 a9be
00000020: a548 c3be 9b08 313f 1ace 85be 43ef 663f
00000030: 07e4 393f 0f8c 4e3f c943 edbe c757 73be
00000040: e494 e4bd 1d90 413f e0cc 4e3f 00ef 3f3f
00000050: f9cc 223f 0612 303f 9dd7 583f 054b 8bbe
00000060: 10ca 2cbe fdae 4a3f 3fa6 85be d1ff 74be
00000070: c54d 433f 45df 333f 1bf9 593f 61c0 343f
00000080: d5ee 3e3f 9f4a a4be 78a4 3e3f 8271 643f
00000090: 5887 89be c5e9 6ebe 20c4 5e3f dd54 293f
000000a0: 6021 333f b21f 373f 31b9 2d3f 3d82 353f
000000b0: dbd4 903f 9ac1 2f3f 7461 173f db53 2f3f
000000c0: 31c0 4d3f 9a54 333f 6fa8 79be bd1d 2d3f
000000d0: 372c 453f fb5c 9ebe 6a66 6dbd 9c85 213f
000000e0: a41d 343f da4e 7bbe bcde e33e 31e3 343f
000000f0: a007 2b3f b8f9 52be 1700 72be e5ff 3b3f
0.6920169 0.7226094 0.70417356 0.8470203 0.78919405 0.767547 0.7920187 -0.3307353
-0.3814136 0.69153756 -0.26133806 0.90208834 0.7261357 0.8068246 -0.46340778 -0.23763953
-0.11161211 0.75610524 0.80781364 0.7497406 0.63594013 0.687775 0.84704 -0.27205673
-0.16873956 0.7917326 -0.26103398 -0.23925711 0.7629054 0.7026256 0.8514573 0.70606047
0.7458318 -0.3208818 0.7446971 0.892357 -0.26861072 -0.23331363 0.87018013 0.66145116
0.699728 0.7153274 0.67860705 0.7090185 1.1314958 0.6865479 0.59133077 0.6848733
0.80371386 0.70050967 -0.24380659 0.676235 0.7702059 -0.30930313 -0.057958998 0.63094497
0.7035773 -0.24541798 0.4450587 0.70659167 0.6680851 -0.20603073 -0.23632847 0.7343734

exp_avg f4 [64, 4]
00000000: ba8b 793c 08c6 c73c d705 6bbb 6c06 6abc
00000010: 78e4 d3bb 6bf9 8b3c 6102 d739 ca9d efbb
00000020: 4af0 d1bb 7ecf 873c eefe e539 4310 e6bb
00000030: 8fa3 f4bb 9db3 a43c b33e e539 9959 0ebc
00000040: a572 793b 99ac 0a3d ff4e 73ba f0e4 95bc
00000050: 7165 ccbb e915 983c 2f0e 4b39 77d7 09bc
00000060: 2129 aabb ee98 a33c c91c 90b9 ecf1 22bc
00000070: bbeb 443b 3bdc 9fbb c349 9dba 730a 1abb
00000080: 4f69 bcba c19a abbb 1135 2e3b f52a 493c
00000090: 68e7 283c dace 0a3d fac2 92ba bf0e 82bc
000000a0: 0822 daba 93ad 8dbb 04ba f63a d75d fc3b
000000b0: 2f0b e7bb d014 b43c 5fa2 ee38 00d8 26bc
000000c0: 2d0c a8bb 8af8 933c 5a57 e7b8 0529 0fbc
000000d0: 4382 c7bb 525a a23c 3cc7 d437 b9a5 18bc
000000e0: 70e3 ce3b e4b1 97bb 41b2 48bb c36f dfbb
000000f0: 0392 5bb8 a63e db37 b035 c937 66ce a237
00000100: 617f 063a 57cb edba 5cdc 58b9 e819 bab9
00000110: 683e 83bb 0e03 a33c 8fab a6b8 5ab4 0cbc
00000120: e75e e1bb cd61 9e3c 3c95 aa39 11c2 0bbc
00000130: f3fd b6bb ee4f 973c 836a 95b6 d81c 0fbc
00000140: 161b 9dbb 4501 803c c0ab 8137 b04b f1bb
00000150: 8b98 d9bb 4358 653c 2bf4 0938 f1ac d8bb
00000160: 8bf6 c1bb 9324 a83c d84d 1638 97e7 0ebc
00000170: c180 fd3a ad6e 99bb e29a 18ba 9c94 a9b9
00000180: 4d8d 44b8 84fb 1238 a19b 8a37 0751 2a37
00000190: fcda d2bb 8ab5 9c3c 88cd 4b39 ee49 0ebc
000001a0: f8a3 1237 7660 c137 ccfd 8f36 34be aab6
000001b0: ebac a6b8 d875 2d38 0e84 0638 2882 2938
000001c0: fb59 b1bb 885c 9b3c 2d48 e1b8 1611 16bc
000001d0: f74c b0bb b4b7 893c 03e5 ff38 fa4d f1bb
000001e0: 4f1b c4bb 6aa4 ad3c fb5a 11b9 ab40 28bc
000001f0: 6f68 b0bb bea9 8d3c 9852 2738 cbb4 04bc
00000200: 5413 71ba b2ff cb3c 5d35 79b9 f6d6 47bc
00000210: cbd5 183b 471e d1bb 4393 cdb9 fc4c ad3a
00000220: 7c50 e4bb cd28 8e3c 43c7 9939 aac1 ffbb
00000230: 49cc c7bb 4101 b73c d462 62b9 f680 33bc
00000240: bf9e 4c3b 7416 44bb 06d4 ebba 85ad 91bb
00000250: ef58 2837 ca36 9c37 1855 1c34 60eb c035
00000260: 77d7 d5bb b949 af3c ecf6 4037 9e4b 25bc
00000270: 0437 9ebb b7e4 853c dddd 4cb8 ee1f 00bc
00000280: 2d8f aabb f420 8d3c c278 68b7 60e5 05bc
00000290: 9810 703c 48e3 c03c 8c02 79bb 61e6 6fbc
000002a0: 4f4d d9bb 7e62 623c 461d b638 0a15 d2bb
000002b0: b37a 22bc bec9 4e3c 7df3 3539 8ef7 d3bb
000002c0: 9212 44bb 9545 013d 24dd 78b9 9f61 4abc
000002d0: 24e9 adbb d574 893c b8a6 8f38 a9ea ffbb
000002e0: ccd5 91bb 6b1c 6e3c 7121 3637 55a0 e0bb
000002f0: 8fd6 afbb 71a9 883c 5d4c c338 26df fcbb
00000300: ebab d2bb 7dbf 9f3c 29f6 2f39 84cd 11bc
00000310: e5cb cfbb 264d 873c 3325 de39 2405 e6bb
00000320: 3248 903b 33e7 d4ba 0171 c9ba d878 28bb
00000330: ea7f 7c3c 9169 b33c d161 7abb 6a28 55bc
00000340: 3f15 76bb 9ecb a73c 586f 5ab9 3aee 14bc
00000350: c184 6fb8 bf3d 8438 8e76 d237 ebc3 fa36
00000360: 01f8 08ba bf7b 71ba 0931 023a c717 dd3a
00000370: 62e3 ec3b 9080 db3c 1186 edba d8b6 6ebc
00000380: e7b7 e9bb 5dc7 813c ea02 fcb6 c94d 06bc
00000390: ddea ac3b b85f 31ba 98df c5ba 5826 16bb
000003a0: 7094 713c f4f5 ad3c cf32 22bb bdf1 24bc
000003b0: e3f1 62bb 9d90 993c eae0 09ba 2ea2 2dbc
000003c0: 8e18 b93b c19d cb3c d46d c3ba 21b4 6abc
000003d0: f6c7 97b8 1c20 1938 2763 ee37 cbb4 2e38
000003e0: bee7 a63a b342 a6bb 2090 3fb7 a24c f13a
000003f0: 9980 be3b a4d8 fe3c 24fa b3ba 8003 8ebc
0.015231067 0.02438642 -0.0035861635 -0.014283758 -0.0064664446 0.017086705 0.00041009768 -0.007312511
-0.0064068185 0.016578432 0.0004386822 -0.0070209815 -0.0074657868 0.020105178 0.00043724998 -0.008688354
0.0038062718 0.03385601 -0.00092814857 -0.018297642 -0.0062376787 0.018565135 0.00019364872 -0.008413187
-0.005192891 0.019970383 -0.00027487267 -0.009945374 0.0030047733 -0.0048785484 -0.0012000132 -0.0023504763
-0.0014374646 -0.005236954 0.0026581923 0.012278308 0.010309078 0.033888675 -0.0011197024 -0.015876172
-0.0016642222 -0.00432367 0.0018823748 0.0077016163 -0.0070508937 0.02198258 0.00011378968 -0.010183334
-0.0051284046 0.018062849 -0.00011031209 -0.008737807 -0.0060885265 0.019818459 2.5365145e-05 -0.009316855
0.0063137338 -0.0046293605 -0.0030623826 -0.006818743 -5.2349653e-05 2.6136007e-05 2.3986067e-05 1.9408017e-05
0.0005130675 -0.0018142265 -0.00020681455 -0.00035495986 -0.004005242 0.019898918 -7.947452e-05 -0.008587921
-0.0068777683 0.019333744 0.00032536115 -0.008530156 -0.0055844723 0.01847073 -4.4529456e-06 -0.008734904
-0.0047944887 0.015625605 1.5457976e-05 -0.007363759 -0.006640499 0.013998094 3.2890744e-05 -0.006612413
-0.005919283 0.020525252 3.5835285e-05 -0.0087222075 0.001934074 -0.004682383 -0.0005821419 -0.00032344915
-4.6861638e-05 3.5043355e-05 1.6523352e-05 1.0151655e-05 -0.0064347964 0.019129533 0.00019436155 -0.008684618
8.740455e-06 2.3052311e-05 4.291278e-06 -5.0885374e-06 -7.947705e-05 4.1356165e-05 3.2071075e-05 4.0413957e-05
-0.005412338 0.01896502 -0.0001074228 -0.009159347 -0.0053802687 0.01681123 0.00012202004 -0.007364032
-0.0059847008 0.021196563 -0.0001386217 -0.010269324 -0.005383543 0.017292853 3.9892824e-05 -0.008099745
-0.00091963005 0.024902198 -0.0002376637 -0.012197247 0.002332079 -0.006381783 -0.00039210366 0.0013221796
-0.0069676023 0.01735344 0.00029330896 -0.007805069 -0.0060973507 0.022339465 -0.00021589856 -0.01095604
0.003122255 -0.002992061 -0.0017992265 -0.004445734 1.0034287e-05 1.8622162e-05 1.4559589e-07 1.4373618e-06
-0.0065259296 0.021397458 1.1501583e-05 -0.010088829 -0.0048283357 0.016344411 -4.8844016e-05 -0.007820113
-0.005205056 0.017227627 -1.3856394e-05 -0.008172363 0.014652394 0.023545876 -0.0037995903 -0.014642329
-0.0066315304 0.013817428 8.683889e-05 -0.0064111995 -0.009916949 0.012621341 0.00017352212 -0.00646872
-0.0029918295 0.0315605 -0.00023733504 -0.012352376 -0.0053073335 0.016779343 6.849825e-05 -0.007809956
-0.0044505354 0.014533143 1.08558315e-05 -0.0068550506 -0.0053661535 0.016682358 9.312548e-05 -0.007717031
-0.0064291856 0.019500488 0.00016781002 -0.008899096 -0.006341445 0.01651628 0.00042370855 -0.007019656
0.0044031376 -0.0016243219 -0.0015368761 -0.0025706794 0.015411356 0.021900924 -0.0038205276 -0.013010124
-0.0037549285 0.020482834 -0.00020831579 -0.009090001 -5.7105677e-05 6.3057516e-05 2.5089157e-05 7.4733885e-06
-0.0005224944 -0.000921186 0.0004966413 0.0016868048 0.0072292546 0.026794702 -0.001812162 -0.014569961
-0.0071325186 0.015842134 -7.5105245e-06 -0.008197256 0.0052770213 -0.00067662774 -0.0015096543 -0.0022911038
0.014744863 0.021235444 -0.0024749523 -0.0100674005 -0.003462904 0.018745715 -0.000525965 -0.010597749
0.005648679 0.024855496 -0.0014910051 -0.014325173 -7.237487e-05 3.6507947e-05 2.8417982e-05 4.165321e-05
0.001273386 -0.005073869 -1.1418044e-05 0.0018409679 0.00581367 0.031109162 -0.0013731164 -0.017335653

exp_avg_sq f4 [64, 4]
00000000: 66fe 3339 037f 5f39 ce1d 2037 19a4 c938
00000010: 96e0 8639 2c47 bc39 172b 3e37 e1aa f138
00000020: 48aa 7839 f9d9 ac39 966f 3137 8e7b dd38
00000030: 873e c039 050b 053a e0eb 8737 dbb8 3039
00000040: 8181 8c39 3ab7 dd39 b569 6337 6ab7 1339
00000050: 6c88 9839 313d d139 d711 5637 e304 0939
00000060: fc5b a439 9f7c e539 fe0d 6b37 3371 1639
00000070: e4ed 1438 726e 2438 4a07 7535 a2f3 1537
00000080: a1e1 d837 717e d137 083a 4e35 7ac2 1737
00000090: 1908 4e39 5c23 af39 f9c9 2437 1aa2 d638
000000a0: 4c2e 7037 0895 9537 1e79 3535 b43f e836
000000b0: 493b cb39 cd40 123a 3a58 9837 6bb5 4f39
000000c0: 283b 8739 ae0a bb39 1485 3f37 030c f438
000000d0: 734c a439 c609 e839 79e7 7137 e4e8 1b39
000000e0: da50 7838 53e3 5338 cfa2 ca35 0027 6237
000000f0: 562d 3837 8350 5d37 5000 c034 4a3e 8236
00000100: b063 8736 ddd5 b736 672f ef33 d32c 9535
00000110: 7fb5 8239 d9cf bb39 e229 4537 460c fc38
00000120: 09e7 ac39 fc14 ed39 c947 7337 04dc 1c39
00000130: d60b 8e39 5fa4 c639 781b 4c37 07fc 0139
00000140: 2fe0 3639 2041 7739 d76c 0337 e3c8 a538
00000150: abef 6b39 9792 a139 bc3e 2837 2d83 d238
00000160: cd5c bf39 e1a8 043a 834c 8337 0b3c 2239
00000170: 2629 c937 961a f837 5262 3535 ef28 d236
00000180: 7be9 8236 bae8 9136 5662 ab33 ab52 0b36
00000190: 7ade 9739 e63d cf39 1017 5e37 4441 1339
000001a0: 3039 8037 0074 a937 75d9 3135 5580 da36
000001b0: 3b72 3137 fac4 4d37 8114 b634 78cf 6236
000001c0: 7f5c 9539 b65f ce39 936e 5237 9af8 0539
000001d0: 549f 6739 55a8 9939 aa3a 2637 6aca d738
000001e0: c47c be39 251e 053a b8b5 8837 e8c8 3239
000001f0: 1e52 7d39 2f58 ac39 ffa6 2f37 66f5 dc38
00000200: 949a 8939 ff50 c839 cba3 4a37 1755 0039
00000210: 2a31 1338 7d61 4b38 8149 a735 8394 5437
00000220: 99fa 8239 3149 bf39 4ff8 4337 550c fe38
00000230: 4496 d739 7c2b 173a 5797 9a37 af73 4c39
00000240: 1394 9e37 e457 9737 2e8d e234 52c0 8e36
00000250: f2e5 7737 3b1d a737 7692 4835 2424 d336
00000260: cb47 c639 4d60 0c3a 8f94 8e37 cd65 3b39
00000270: 143c 5639 123a 9c39 ded3 1337 c150 c038
00000280: 4025 6d39 1bfc b239 dbe6 2b37 494a e038
00000290: 8555 3c39 87e8 6539 fe06 2437 59a8 d738
000002a0: 6f37 6639 afa3 9c39 b807 2337 296b cc38
000002b0: 360f 6f39 c926 aa39 a8d0 3137 cde9 e138
000002c0: 2bfe 183a 444a 6f3a 65af fa37 f4e0 ad39
000002d0: 3476 6239 573d 8f39 7563 2037 6d0f cc38
000002e0: 2877 2039 d5b9 5439 fd83 d836 5208 8738
000002f0: 5890 5c39 630b 8f39 891b 2137 3efa d038
00000300: 8230 a339 4192 e239 d302 6d37 227a 1839
00000310: ab02 7739 0cf4 ac39 ccf7 3137 003d e038
00000320: f51c 3c37 d825 1337 6f1a b234 0c1a 5236
00000330: 8060 2139 072d 4e39 0de3 0c37 e592 ad38
00000340: 8df1 8c39 8940 ca39 7380 5537 9427 0939
00000350: 0918 a837 c89f cf37 8338 4035 a0ff d636
00000360: 2662 1235 3f45 2235 da0b da32 ef28 f234
00000370: e985 3039 fb5e 7539 fc42 0537 efe4 9638
00000380: 0285 5839 8e85 a539 3c47 2c37 e46d de38
00000390: fd35 5a37 3f50 2d37 6240 cc34 e6cc a636
000003a0: bc10 8338 caaa a538 4ee9 5836 25fc 0338
000003b0: f197 7a39 f1be a639 d7fc 3037 c326 db38
000003c0: 627e 4c39 880f 9739 6805 1837 69a6 c038
000003d0: 4cb8 e636 605f 0037 ffea 4c34 db26 ea35
000003e0: 53d3 9937 fa22 b837 ea28 0635 69e9 8b36
000003f0: a2e3 6839 0f4b b539 6f07 3e37 23d3 f838
0.00017165541 0.00021314253 9.543683e-06 9.6149925e-05 0.000257258 0.00035911181 1.1334915e-05 0.00011523604
0.00023714558 0.000329688 1.0576003e-05 0.00010561115 0.0003666768 0.00050751894 1.6203092e-05 0.00016853532
0.0002679937 0.0004228892 1.3554866e-05 0.0001408734 0.0002909334 0.00039909178 1.2759548e-05 0.00013067159
0.0003134905 0.00043771134 1.4010349e-05 0.00014347285 3.5507503e-05 3.9203507e-05 9.128022e-07 8.937817e-06
2.5854273e-05 2.497362e-05 7.6825427e-07 9.0455815e-06 0.00019648708 0.00033404946 9.822187e-06 0.00010234509
1.4315894e-05 1.7831582e-05 6.7604003e-07 6.921555e-06 0.00038763348 0.0005579114 1.8160896e-05 0.00019808642
0.0002579328 0.00035675376 1.1415472e-05 0.00011637064 0.00031337477 0.0004425777 1.4418613e-05 0.0001486871
5.9203107e-05 5.0518032e-05 1.5097556e-06 1.347973e-05 1.097781e-05 1.3191372e-05 3.5763014e-07 3.8815533e-06
4.0349187e-06 5.478722e-06 1.1137927e-07 1.1114411e-06 0.00024930757 0.00035822278 1.1751867e-05 0.000120185825
0.0003297853 0.00045219797 1.45006425e-05 0.00014959282 0.0002709317 0.0003788797 1.2165743e-05 0.00012396286
0.00017440387 0.00023580017 7.83355e-06 7.905231e-05 0.0002250063 0.0003081753 1.0028187e-05 0.00010038014
0.000364995 0.00050605653 1.5652045e-05 0.00015471892 2.3980228e-05 2.9576284e-05 6.757083e-07 6.263253e-06
3.9014826e-06 4.3484297e-06 7.980695e-08 2.0760733e-06 0.00028966722 0.00039528235 1.3237601e-05 0.00014043326
1.5285419e-05 2.0200387e-05 6.625408e-07 6.511846e-06 1.05766185e-05 1.2264814e-05 3.391506e-07 3.3797387e-06
0.0002848841 0.00039362692 1.25427205e-05 0.0001277648 0.00022089231 0.0002930785 9.90803e-06 0.000102897015
0.00036332582 0.0005078039 1.6297083e-05 0.00017050246 0.00024158551 0.00032872098 1.0469695e-05 0.000105361265
0.00026245846 0.0003820732 1.2078274e-05 0.0001223873 3.509332e-05 4.8489765e-05 1.2463862e-06 1.2670763e-05
0.00024982242 0.0003648489 1.168072e-05 0.00012113961 0.00041119952 0.00057666725 1.8428704e-05 0.00019498052
1.890402e-05 1.804153e-05 4.2198502e-07 4.254319e-06 1.4775886e-05 1.9921563e-05 7.4718935e-07 6.2924973e-06
0.00037818993 0.0005354926 1.6996897e-05 0.00017871633 0.00020431011 0.00029797904 8.811212e-06 9.170315e-05
0.00022615958 0.0003413864 1.02461445e-05 0.00010694989 0.00017960936 0.00021925765 9.77679e-06 0.00010283356
0.0002195516 0.00029876592 9.717354e-06 9.747438e-05 0.00022798483 0.00032453824 1.0598604e-05 0.00010772385
0.0005836214 0.0009128193 2.9883997e-05 0.00033164734 0.00021597074 0.00027320787 9.5599e-06 9.730351e-05
0.00015303178 0.00020287123 6.452667e-06 6.4388514e-05 0.00021034607 0.0002728357 9.602759e-06 9.964824e-05
0.00031125924 0.00043215047 1.4126958e-05 0.00014541348 0.0002355675 0.00032988226 1.0607717e-05 0.000106925145
1.1212415e-05 8.770694e-06 3.3174317e-07 3.13076e-06 0.00015390106 0.00019662465 8.397515e-06 8.276644e-05
0.0002688285 0.00038576525 1.2725696e-05 0.00013080082 2.0038353e-05 2.4750727e-05 7.160781e-07 6.4074557e-06
5.4532063e-07 6.045047e-07 2.538393e-08 4.5105796e-07 0.00016834553 0.00023400404 7.943014e-06 7.1951996e-05
0.00020648915 0.00031570758 1.0268584e-05 0.000106062536 1.3006383e-05 1.0330287e-05 3.8044806e-07 4.971039e-06
6.249684e-05 7.899625e-05 3.232231e-06 3.146766e-05 0.0002389846 0.0003180425 1.0549286e-05 0.00010449954
0.00019502037 0.00028812536 9.061165e-06 9.18627e-05 6.875989e-06 7.651601e-06 1.9084472e-07 1.7445667e-06
1.8337427e-05 2.1950797e-05 4.997843e-07 4.1696953e-06 0.00022210044 0.00034578933 1.1326613e-05 0.00011864889

exp_avg f4 [64]
00000000: bc12 3abb 9f93 bbba 9e25 d0ba f53b c0ba
00000010: 1471 1fbc 48ac afb9 cdb2 013b 39c7 123c
00000020: 70b5 91bc af3d 22bc 1d20 3ebc 0fe3 1b39
00000030: caee 923a a25a 083a 2a96 823c a155 f7b8
00000040: 53d7 0f3b f3b0 bf39 cd05 79ba aa9d 223a
00000050: 9a4b e739 28be 933a e0fb dc38 3ed3 a03b
00000060: 0e4f b9b8 3792 adb9 c360 3b38 d118 30b9
00000070: 71ea 943a 499f 4bb9 44e7 b13a 06e3 bd39
00000080: d419 90bb 10ce 5b3b 977f 69b9 d6e5 e73a
00000090: 2340 273c 61b6 8538 1fb9 263a cf4b 473a
000000a0: 2b4a 223a c44d d4ba 64e8 593a 4dbe ac3a
000000b0: ccbe b1ba bd12 6839 dab2 df39 67cd b938
000000c0: 4d26 3fb9 d3cd c6ba bd05 bf3b adf4 84ba
000000d0: 88f4 823a bb18 93b8 7cd5 3bbb d702 03bc
000000e0: 86f2 8fb8 8d9d 7d3b 599a cabb 0ebe 07bb
000000f0: dfdd c1bb 4f3c 24b9 96ac 013a fb44 0ebc
-0.0028392514 -0.0014310962 -0.0015880351 -0.0014666306 -0.00973155 -0.0003350696 0.0019790411 0.008958631
-0.017786711 -0.009902402 -0.011604336 0.00014866538 0.0011210081 0.00052014936 0.015940744 -0.000117938274
0.0021948412 0.00036562196 -0.00094994606 0.00062033033 0.0004411608 0.0011271881 0.00010537333 0.0049079945
-8.8362125e-05 -0.0003310607 4.467439e-05 -0.00016793913 0.0011361373 -0.00019418927 0.0013572951 0.00036218035
-0.00439761 0.003353957 -0.00022268142 0.0017692398 0.0102081625 6.375905e-05 0.00063599827 0.0007602544
0.00061908615 -0.0016197492 0.0008312522 0.0013179273 -0.001356089 0.00022132225 0.0004266713 8.8597466e-05
-0.00018229448 -0.0015167542 0.0058295415 -0.001014372 0.0009991089 -7.0141126e-05 -0.0028661182 -0.007996283
-6.863945e-05 0.0038698644 -0.0061829505 -0.0020712647 -0.0059163417 -0.00015662725 0.0004946677 -0.008683438

exp_avg_sq f4 [64]
00000000: a6a8 d63a 0318 043b 0ee8 f63a ba1c 453b
00000010: 2c6b 223b 522e 123b 3d29 243b 4ab7 7238
00000020: fb62 0c38 b706 e83a 04fb 1d38 7ac8 663b
00000030: 4b47 033b a228 2d3b b03a 9838 a0f1 ac37
00000040: 6d88 0937 f8e8 053b 7bf1 2b3b 621b 0d3b
00000050: 2bf0 b73a a331 e43a f030 413b 42cb 2f38
00000060: 9a2d 0037 18f8 243b 379b 1b38 5cf8 9e37
00000070: 0e79 0d3b ba81 f13a d97e 433b 4f3f f33a
00000080: b0c4 0b3b 6d28 a038 44ca 093b 38af 603b
00000090: da8c d337 5b5a 2438 77ca 523b 4546 d53a
000000a0: 5dcf f33a 953d e33a a9e2 dc3a 42a1 f43a
000000b0: 9335 c73b 717e dd3a 0258 933a 133b e13a
000000c0: 6135 273b 7e15 f53a 20bd 6b37 198a bf3a
000000d0: 4133 163b dbee 2a38 1297 0336 0298 b23a
000000e0: 4e51 f03a 7ec2 9f37 e127 ff39 1f57 f23a
000000f0: d71a ce3a 4d17 4637 e943 0338 ba35 063b
0.0016377165 0.0020155914 0.0018837468 0.0030076937 0.0024783118 0.002230544 0.0025048994 5.7867997e-05
3.3470784e-05 0.0017702196 3.7665493e-05 0.0035214708 0.0020031508 0.0026421924 7.258856e-05 2.0616513e-05
8.1976e-06 0.002043305 0.0026236463 0.0021531214 0.0014033368 0.0017409812 0.0029478632 4.191255e-05
7.640012e-06 0.002517229 3.7099435e-05 1.895072e-05 0.0021587047 0.0018425502 0.0029830246 0.0018558296
0.0021326952 7.6369244e-05 0.00210251 0.0034284126 2.521875e-05 3.9184797e-05 0.0032164135 0.0016271552
0.0018601228 0.0017337078 0.0016852218 0.0018663781 0.0060793846 0.0016898644 0.0011241438 0.0017183743
0.0025513994 0.0018698422 1.4051126e-05 0.00146133 0.0022918733 4.075361e-05 1.9608456e-06 0.0013625624
0.0018334778 1.9044845e-05 0.00048667102 0.0018489099 0.0015724552 1.1807145e-05 3.129608e-05 0.00204788

exp_avg f4 [2, 64]
00000000: 6e87 97bb fab8 64bb acdc 80bb 800d 55bb
00000010: cae0 95bb dce5 37bb 4c08 dfba 4f10 0d3a
00000020: 5da7 16b9 160e 96bb 59b5 f6b9 7ab2 03bb
00000030: 6ee2 15bb 47f4 0bbb 5171 193a df4b 0fb6
00000040: 03db ee39 2150 57bb f30a 81bb 9e62 5abb
00000050: f2bd d3ba 4431 7bbb 9ef4 a9ba 6cf7 8039
00000060: 64ce 53b6 d3d4 1bbb 32eb 47b4 8e5b 37b6
00000070: 52fc 1ebb 2657 88ba c3c9 09bb 2a7b 20bb
00000080: 8bf0 8ebb eb77 1639 3a0d 8ebb 7df0 bdba
00000090: 6eef 8c3a b2b7 4a35 8253 fcba 51cb e3ba
000000a0: d4c1 0bbb 08c9 92bb fb24 85bb 4697 8dbb
000000b0: accc 20bb 0ea7 f1ba df55 a4ba 55e7 11bb
000000c0: 944e 71bb f312 6ebb f9b1 1f3a 74a5 a5bb
000000d0: 45de 39bb da1a abb5 4cf5 f1b9 cbca a9bb
000000e0: 4bab 90bb 2631 263a 7ffd 80bb 98d2 7dbb
000000f0: 6e1b 96bb 7cad 10b7 c76c 8939 094b 90bb
00000100: 6f87 973b f9b8 643b acdc 803b 810d 553b
00000110: c9e0 953b dce5 373b 4c08 df3a 4b10 0dba
00000120: 5da7 1639 180e 963b 5bb5 f639 7cb2 033b
00000130: 6fe2 153b 47f4 0b3b 5171 19ba e04b 0f36
00000140: feda eeb9 2150 573b f40a 813b 9f62 5a3b
00000150: f0bd d33a 4531 7b3b a0f4 a93a 6af7 80b9
00000160: 68ce 5336 d3d4 1b3b 34eb 4734 8e5b 3736
00000170: 52fc 1e3b 2557 883a c4c9 093b 2b7b 203b
00000180: 8cf0 8e3b df77 16b9 3b0d 8e3b 78f0 bd3a
00000190: 6def 8cba b4b7 4ab5 8053 fc3a 4dcb e33a
000001a0: d5c1 0b3b 08c9 923b fb24 853b 4697 8d3b
000001b0: accc 203b 0aa7 f13a dd55 a43a 55e7 113b
000001c0: 944e 713b f512 6e3b f7b1 1fba 75a5 a53b
000001d0: 43de 393b dd1a ab35 4df5 f139 cbca a93b
000001e0: 4bab 903b 2831 26ba 7efd 803b 99d2 7d3b
000001f0: 6e1b 963b 7cad 1037 c96c 89b9 0a4b 903b
-0.004624299 -0.0034900294 -0.003932556 -0.0032509267 -0.004573916 -0.002806059 -0.0017016022 0.00053811533
-0.00014367462 -0.004579316 -0.0004705589 -0.0020095394 -0.0022870558 -0.0021355317 0.0005853372 -2.1352823e-06
0.00045558074 -0.0032854157 -0.003938073 -0.003332294 -0.001615463 -0.0038328925 -0.0012966578 0.00024598406
-3.1561585e-06 -0.0023777976 -1.8618883e-07 -2.7322417e-06 -0.0024259281 -0.0010401949 -0.00210248 -0.0024487474
-0.004362171 0.00014349788 -0.004335073 -0.0014491227 0.0010752508 7.5518176e-07 -0.0019250961 -0.0017379319
-0.0021325247 -0.004479531 -0.0040632463 -0.0043210117 -0.0024536056 -0.0018436627 -0.0012537799 -0.0022263129
-0.0036820518 -0.0036327213 0.00060918886 -0.005055124 -0.0028361243 -1.2748308e-06 -0.00046149862 -0.0051816455
-0.004414951 0.0006339721 -0.003936469 -0.003873026 -0.0045809066 -8.623461e-06 0.00026211722 -0.004403476
0.0046242992 0.0034900291 0.003932556 0.003250927 0.0045739156 0.002806059 0.0017016022 -0.0005381151
0.00014367462 0.004579317 0.00047055897 0.0020095399 0.002287056 0.0021355317 -0.0005853372 2.1352826e-06
-0.0004555806 0.0032854157 0.0039380733 0.0033322943 0.0016154628 0.0038328927 0.0012966581 -0.000245984
3.1561594e-06 0.0023777976 1.8618886e-07 2.7322417e-06 0.0024259281 0.0010401948 0.0021024803 0.0024487476
0.0043621715 -0.0001434977 0.0043350733 0.0014491221 -0.0010752507 -7.551819e-07 0.0019250959 0.0017379314
0.002132525 0.004479531 0.0040632463 0.0043210117 0.0024536056 0.0018436622 0.0012537796 0.0022263129
0.0036820518 0.0036327217 -0.00060918875 0.0050551244 0.0028361238 1.2748311e-06 0.00046149865 0.0051816455
0.004414951 -0.00063397223 0.0039364686 0.0038730262 0.0045809066 8.623461e-06 -0.00026211728 0.0044034766

exp_avg_sq f4 [2, 64]
00000000: f445 0338 b831 0138 b50a 0f38 695c b437
00000010: 7d36 bd37 6415 e137 6cb6 bb37 4be5 bb35
00000020: c152 5135 225b 0038 eed9 5235 c244 bb37
00000030: e104 e537 ad48 b937 f601 fd34 37c7 8135
00000040: 4406 6b36 3b2d d437 b428 a837 b471 d337
00000050: 2547 2d38 4ea3 f637 5797 b137 6ae1 2235
00000060: 7f84 6d35 6148 e737 c0f4 1435 f62f 9b35
00000070: e22b cf37 41c5 0d38 3f28 9d37 a3bc 0a38
00000080: e7d4 c137 0e50 b135 622c d937 31bf a137
00000090: 0330 5b36 92dc 4035 c1cb ae37 cfc8 1c38
000000a0: e90d 1238 b614 0138 da3a f937 8a2e f537
000000b0: 0f0c 8837 c480 0838 1d30 0e38 bef6 1538
000000c0: 5816 b237 0a6d 0c38 d49f e934 bcfe 1138
000000d0: d6b4 d037 b631 1835 4806 8434 d568 0338
000000e0: 73de f337 c8c9 0835 974d 9537 dd3b cd37
000000f0: 1ca1 0838 1fa1 2b36 e162 7735 a25f d637
00000100: f345 0338 b731 0138 b40a 0f38 6b5c b437
00000110: 7d36 bd37 6215 e137 6cb6 bb37 4ae5 bb35
00000120: c052 5135 225b 0038 eed9 5235 c344 bb37
00000130: e104 e537 ad48 b937 f501 fd34 37c7 8135
00000140: 4306 6b36 3a2d d437 b428 a837 b671 d337
00000150: 2547 2d38 4ea3 f637 5697 b137 6ae1 2235
00000160: 7d84 6d35 6148 e737 c0f4 1435 f62f 9b35
00000170: e22b cf37 41c5 0d38 3d28 9d37 a2bc 0a38
00000180: e6d4 c137 1050 b135 622c d937 32bf a137
00000190: 0130 5b36 91dc 4035 c0cb ae37 d0c8 1c38
000001a0: e90d 1238 b514 0138 da3a f937 8a2e f537
000001b0: 0f0c 8837 c480 0838 1d30 0e38 bcf6 1538
000001c0: 5816 b237 096d 0c38 d29f e934 bbfe 1138
000001d0: d6b4 d037 b631 1835 4606 8434 d368 0338
000001e0: 73de f337 c8c9 0835 974d 9537 de3b cd37
000001f0: 1ba1 0838 1fa1 2b36 e062 7735 a55f d637
3.1297983e-05 3.08023e-05 3.410383e-05 2.1500704e-05 2.2555929e-05 2.6832051e-05 2.2377084e-05 1.3999319e-06
7.797899e-07 3.0602452e-05 7.8548226e-07 2.2324155e-05 2.73012e-05 2.208756e-05 4.712635e-07 9.669228e-07
3.5021376e-06 2.5293431e-05 2.0046115e-05 2.5206107e-05 4.1312673e-05 2.940153e-05 2.1170517e-05 6.0677723e-07
8.848219e-07 2.757105e-05 5.5490455e-07 1.1562358e-06 2.4696757e-05 3.3800727e-05 1.87346e-05 3.3077446e-05
2.3106533e-05 1.3210827e-06 2.5889083e-05 1.9281726e-05 3.266149e-06 7.1846546e-07 2.0837297e-05 3.7380316e-05
3.4822067e-05 3.0775285e-05 2.9710518e-05 2.9227947e-05 1.6218079e-05 3.254485e-05 3.3900247e-05 3.5754165e-05
2.1229658e-05 3.348015e-05 4.3515922e-07 3.4807934e-05 2.487974e-05 5.669675e-07 2.4591486e-07 3.1330466e-05
2.9071443e-05 5.095758e-07 1.7798315e-05 2.446578e-05 3.257497e-05 2.557477e-06 9.215856e-07 2.555532e-05
3.129798e-05 3.0802297e-05 3.4103825e-05 2.1500708e-05 2.2555929e-05 2.6832047e-05 2.2377084e-05 1.3999318e-06
7.7978984e-07 3.0602452e-05 7.8548226e-07 2.2324157e-05 2.73012e-05 2.208756e-05 4.7126346e-07 9.669228e-07
3.5021374e-06 2.529343e-05 2.0046115e-05 2.520611e-05 4.1312673e-05 2.940153e-05 2.1170516e-05 6.0677723e-07
8.8482176e-07 2.757105e-05 5.5490455e-07 1.1562358e-06 2.4696757e-05 3.3800727e-05 1.8734596e-05 3.3077442e-05
2.3106531e-05 1.3210829e-06 2.5889083e-05 1.9281728e-05 3.2661485e-06 7.184654e-07 2.0837295e-05 3.738032e-05
3.4822067e-05 3.077528e-05 2.9710518e-05 2.9227947e-05 1.6218079e-05 3.254485e-05 3.3900247e-05 3.5754158e-05
2.1229658e-05 3.3480148e-05 4.3515917e-07 3.480793e-05 2.487974e-05 5.669675e-07 2.459148e-07 3.133046e-05
2.9071443e-05 5.095758e-07 1.7798315e-05 2.4465782e-05 3.2574968e-05 2.557477e-06 9.215855e-07 2.5555326e-05

exp_avg f4 [2]
00000000: 57a6 8abb 57a6 8a3b
-0.004231255 0.004231255

exp_avg_sq f4 [2]
00000000: 7cb6 b238 7cb6 b238
8.521692e-05 8.521692e-05

exp_avg f4 [1, 64]
00000000: 474f be3c c655 baba 20bf 1dbb cede fd39
00000010: e41e e83b 8ae2 ab39 a0c1 cdb9 85e3 9a3a
00000020: b461 663b 3263 f43b 59c4 df3b 89b9 03bc
00000030: 5670 ccbb 3571 6ebb afc4 fd3b ce86 d636
00000040: fe4a 3cbb c6f3 99bb 4e23 833b ad25 023c
00000050: 7140 79bc 9fed 2f3c c4f1 edbb bd37 51ba
00000060: 8091 5f38 32dd 21bc de3a 50b7 1e77 e237
00000070: 6df0 35bb 27da 5cbc 16e7 f1bb 5139 33bc
00000080: c52e c43b 0d1d 7abb 911f 01ba d95f d2ba
00000090: a645 033c 4940 57b7 30bb c4bb a43c c3bb
000000a0: cc78 abbb f63c c93c 569f 573c 70d3 8c3b
000000b0: 6223 05bc bf37 93bc 548d 59bc a435 72bc
000000c0: d42c 87b9 8cc0 e5b9 e025 183c f0b1 043d
000000d0: 084d a2bb 948f 1cb6 0c4e e73b 0329 923c
000000e0: 8286 803b 3f4f 3a3c ecf2 9c3c 8c2d 863c
000000f0: 69ce 373c 3e73 c838 5abb 8fb9 308c 203c
0.023231162 -0.0014216236 -0.0024070218 0.00048421923 0.0070837606 0.00032784446 -0.0003924491 0.0011817074
0.003515345 0.007458114 0.0068288264 -0.0080398405 -0.0062389774 -0.0036383395 0.007744394 6.3933903e-06
-0.0028731222 -0.0046982495 0.0040020114 0.007943553 -0.015213118 0.010737806 -0.0072614867 -0.0007981023
5.330285e-05 -0.009879397 -1.2411472e-05 2.6996768e-05 -0.0027761713 -0.013479746 -0.007382284 -0.010938958
0.0059870207 -0.0038164288 -0.0004925663 -0.0016050293 0.008012211 -1.2829966e-05 -0.00600376 -0.0059581567
-0.005232906 0.024565201 0.013160547 0.0042976663 -0.008126112 -0.017970918 -0.013278324 -0.014783297
-0.00025782606 -0.00043821742 0.009286374 0.032396257 -0.0049530305 -2.3329385e-06 0.0070588645 0.017841822
0.0039222846 0.011371433 0.019158803 0.01637914 0.011218646 9.558209e-05 -0.00027414673 0.009799048

exp_avg_sq f4 [1, 64]
00000000: 8fe9 013b f0a6 143b 42e8 183b 61d9 de3a
00000010: cf97 e43a 7cda 113b 5549 ed3a b134 2238
00000020: 0a31 f937 51de 103b ef93 2a38 b161 d83a
00000030: 7676 193b cfd4 ea3a 860d 9337 bf70 e737
00000040: 77c4 b438 8e1b 063b bb33 e03a 95f6 063b
00000050: e708 3e3b d69b 1d3b 16f1 da3a bbf1 8837
00000060: e5bb 1f38 75fe fc3a 7e2e 8b37 1794 0b38
00000070: ef4e 0d3b 8063 123b 1ca2 d83a 473b 263b
00000080: aacd f93a 7483 1738 9c84 0e3b 55db cc3a
00000090: 00e7 c838 5a0a b637 3620 da3a 92c0 2d3b
000000a0: 67c5 273b be2c f83a acc6 1d3b b5a9 1d3b
000000b0: 97ae ae3a 09a2 1c3b f8e1 1a3b 4ab5 263b
000000c0: 28d7 f03a 4e8f 1e3b c0f7 a437 2ba5 063b
000000d0: 0759 023b 28e6 8d37 4179 8237 5801 1a3b
000000e0: 7503 173b 8660 f537 0c8d 933a da93 fb3a
000000f0: e3f2 1b3b 6bc7 9738 8ae1 d037 b682 fa3a
0.001982305 0.002268251 0.0023331796 0.001700204 0.0017440262 0.002225547 0.001810352 3.8672883e-05
2.9705949e-05 0.0022105167 4.0668932e-05 0.0016508606 0.0023416555 0.0017916205 1.7530063e-05 2.7589847e-05
8.619663e-05 0.0020463201 0.0017105261 0.0020593752 0.0028997005 0.0024049184 0.0016703929 1.6325028e-05
3.8083544e-05 0.0019301908 1.659174e-05 3.3278102e-05 0.002156194 0.0022337139 0.0016527805 0.0025364922
0.0019058485 3.612363e-05 0.0021746522 0.0015629331 9.57977e-05 2.1700911e-05 0.001664168 0.0026512486
0.0025599839 0.0018934233 0.0024074716 0.0024057452 0.0013327178 0.0023900291 0.0023633223 0.0025437647
0.0018374668 0.0024194303 1.9665691e-05 0.0020545225 0.001988949 1.6915685e-05 1.555367e-05 0.0023499336
0.0023042832 2.9251223e-05 0.0011257245 0.0019193843 0.0023795895 7.2373856e-05 2.4900557e-05 0.0019112441
