savedModels/cartpole/ppo_cartpole_40960.pth (torch, 13659 bytes, 15 tensors)

shared_fc.0.weight f4 [64, 4]
00000000: 44fd 8c3d 11af dd3e d99c b83c 0982 87be
00000010: b568 eabd 0641 18be ec51 51bf 7691 a9be
00000020: 79cf 87bd 2dd0 bdbe 7259 06bf cd14 0abf
00000030: c7c7 8bbd ffb7 10be 9265 1dbf d6f3 91be
00000040: add1 673d 0274 873b 11e1 63bf 5d90 83be
00000050: b1fb ffbd a351 433d 6e7b 40be f442 1dbd
00000060: 58c9 2fbe f0cc 333e 801a 123f 8fa8 b03e
00000070: 5cae dfbd 2285 7cbd 3a1d 9abd 549f 05be
00000080: 31f8 2b3e a66a 17bd e7e7 c1bd 1aec f83c
00000090: b0c4 9c3e a8a5 013e e7ed a4bd b210 a0be
000000a0: 5fb4 a33e b487 b3be 9a42 9fbe ff5b 05be
000000b0: 3ff9 33bd 7ee5 69be 7288 02bd c53b 063e
000000c0: 1d24 d7bc 3831 903d 701d e93e 692d 943e
000000d0: 4600 babd 7c06 60bc d8a2 e13d aabc 983d
000000e0: 7c4a 2dbd 4f0f 0d3d 29ab 49be 6a4b 98bd
000000f0: 9d7c 8f3d 4a9e a33d 9cc7 f1bc 0f88 293e
00000100: e46d b3bd f1bd aabe 92ff a3be bb17 1ebe
00000110: 7235 9f3e 88d9 8a3e 2270 a73c e88e b83d
00000120: adca f83c 02ee a1bd c9bd 09bf 1efd a1be
00000130: 3bf9 5abe 04f0 9e3e e9a5 ba3e 5f5f cb3d
00000140: 6183 79bd 3cc6 febd 66f7 d53e 1f74 a73e
00000150: 39f5 fabd aaff 293e 9750 1e3d dbb3 37be
00000160: 844b d23c 298c e63d cd8e b33e ed70 f03e
00000170: e391 623d 56fa dabd 287c 48be 96ee 06bd
00000180: edef 1b3e cafa 893d 75e8 7dbe 7839 8a3e
00000190: 8185 183c bec6 b0be c796 5fbe cb2e f2bc
000001a0: f98d cfbd 91b8 983c f439 b33c 4053 043e
000001b0: ebd0 033e 1788 083d b859 873d 5cf4 043e
000001c0: 95e6 cabd 8b99 bc3d 173b f53e ee1c 7d3e
000001d0: 8bea 12be 547c 8fbe a5c1 213f 7c17 8f3e
000001e0: 55a7 e53d 57f5 55bc d957 243f 96f2 5b3e
000001f0: 2fb2 213d ce34 1abe 473f ce3e eda3 df3d
00000200: d44c 413d 49e3 8fbc 20ba 1ebf a7f9 9cbe
00000210: 3463 b13d 289e 4bbe e54d 24be c954 aebe
00000220: 1999 843e a7f9 fcbd 7e78 12bf bc57 75be
00000230: 81fd 16be 709d 053e 1c5f 0a3f 3bff 8d3e
00000240: 929b 89be f925 b2bb cc78 8d3e 13b0 03be
00000250: ad05 fbbd b0ab 983e 4bfd 103e 94af bf3d
00000260: 3117 66bd 4486 f3bd 0e3a d73e ada0 073e
00000270: 0651 aebe 301f 333d 6af8 583e 8d16 c43e
00000280: e347 6abe 1aab fbbc d9b3 1f3f 7610 3e3e
00000290: 759d 63bd 1de9 043f 535c a0bd 5643 6dbe
000002a0: eb4d 51be dd96 433e 2317 debe 764c 50be
000002b0: 14dd e83d af94 84bd b4d0 95be 9a55 86be
000002c0: 7c19 d13e 7e78 a6bc 42eb b0b9 0fd4 673e
000002d0: 28c0 1f3e 9a23 ccbe 7709 ff3e 0132 4a3e
000002e0: 8e8c 1abd 01ee 30be 1f15 463f a73c 573e
000002f0: d746 a23d f099 b6be ec56 d23e 3e8c c03d
00000300: 99a0 2d3e 2351 e8bd dd0d 31be 3da2 27be
00000310: f681 f7bd 3c45 7ebe a160 08bf 0979 dabe
00000320: 5e55 e4bd fb08 aebc 9f67 843d caa3 b03d
00000330: 19ad 8c3e a9a6 b33e 2393 36be 09a0 06bf
00000340: 4446 2a3e 9288 693d 2fb0 fc3e 170b a33e
00000350: 5ee7 1d3c f356 f93b 7ce0 6a3e 3140 e03d
00000360: 9c87 21bc 8834 26bd 400e a6be d11e 62be
00000370: 1d2e 22bb d6aa 47bb c9f3 d4be 08ed 08bf
00000380: c46a 4d3e 0465 5cbc a371 a6be 5db1 90be
00000390: dbf6 66be fa46 1d3d 79bd f1bd a112 683e
000003a0: 878c 793e d781 843e 0d9f 9fbe bdbb 09be
000003b0: 61d9 a0be fd43 5b3e 18da 90be 3396 b5be
000003c0: a24c 633c dd6b 393e 9816 11be 8f5b cdbd
000003d0: 00af c63e 8bd5 473d 1332 c23e 395f 5fbc
000003e0: d7a0 c43c b479 16bd 9552 34bf ec86 33be
000003f0: 0d4f f93d 8683 2a3e 51e5 9abe 5d8d 81be
0.06884244 0.43297628 0.022535728 -0.26466396 -0.114457525 -0.14868554 -0.8176563 -0.3311879
-0.06631369 -0.37072888 -0.5248023 -0.5393799 -0.06825214 -0.14132689 -0.6148311 -0.28506345
0.056596447 0.0041337023 -0.890153 -0.25696078 -0.12499178 0.047685277 -0.18797085 -0.03839393
-0.1716665 0.17558646 0.57071686 0.345036 -0.10921928 -0.061650403 -0.07525106 -0.1304906
0.16793896 -0.036966942 -0.0946806 0.03038602 0.3061881 0.12660849 -0.08053189 -0.31262738
0.3197355 -0.3506447 -0.311055 -0.13023375 -0.04393887 -0.2284145 -0.031868406 0.13108738
-0.026262337 0.07040638 0.45530272 0.28940895 -0.090820834 -0.013673421 0.11017388 0.0745786
-0.042307362 0.034438428 -0.19694199 -0.07436259 0.0700619 0.079891756 -0.029514126 0.16555808
-0.08761194 -0.3334804 -0.32030922 -0.1543874 0.31095463 0.27119088 0.020439211 0.09011632
0.03037008 -0.079067245 -0.53805214 -0.31638426 -0.21384136 0.31042492 0.36454704 0.099303
-0.06091631 -0.12440154 0.41790313 0.3270578 -0.12253804 0.16601434 0.038651075 -0.17939703
0.025670774 0.11257202 0.35069886 0.46961156 0.05531491 -0.10692279 -0.19578612 -0.032942377
0.15228243 0.06737287 -0.24795707 0.2699697 0.009309174 -0.34526628 -0.2183486 -0.029563328
-0.10134501 0.018642696 0.02187822 0.12922382 0.12872665 0.03333291 0.06608909 0.1298384
-0.09907261 0.092089735 0.47896644 0.24718067 -0.14347284 -0.28024542 0.63186103 0.27947605
0.11213557 -0.013058982 0.64196545 0.21479258 0.03947657 -0.15059206 0.40282652 0.10919938
0.04719241 -0.017564433 -0.62002754 -0.3065922 0.086614996 -0.1988455 -0.1604534 -0.3404906
0.25898054 -0.12352305 -0.57215106 -0.2395925 -0.14745142 0.13048339 0.54051375 0.27733788
-0.26876503 -0.0054366556 0.27631223 -0.12860136 -0.12256942 0.29818487 0.14159124 0.09359661
-0.05617446 -0.118908435 0.4203648 0.13244887 -0.3404619 0.043730915 0.21188512 0.38298455
-0.22878985 -0.030721236 0.623838 0.18560967 -0.055570085 0.519182 -0.078301094 -0.23170218
-0.2043988 0.19100519 -0.43377027 -0.20341668 0.11370292 -0.06473672 -0.2926079 -0.26237184
0.40839756 -0.020321127 -0.00033744617 0.22639488 0.15600646 -0.39870912 0.4981191 0.19745637
-0.0377317 -0.17278291 0.7737598 0.21019231 0.07923668 -0.3566432 0.4108194 0.09401749
0.16955794 -0.113436006 -0.17290445 -0.16370483 -0.12085335 -0.24831098 -0.53272444 -0.42670467
-0.11149095 -0.021244517 0.06465077 0.0862499 0.27475813 0.3508809 -0.17829566 -0.52587944
0.16628367 0.05701501 0.49353167 0.31844398 0.009637682 0.007609242 0.22937196 0.109497435
-0.009858992 -0.04057744 -0.32432747 -0.22082068 -0.0024746724 -0.0030466816 -0.41592243 -0.5348668
0.20060259 -0.013451818 -0.32508573 -0.28260317 -0.22555105 0.038397767 -0.11803717 0.22663356
0.24370013 0.2588031 -0.31176034 -0.13450523 -0.31415847 0.21412654 -0.28291392 -0.35466155
0.013873251 0.18107553 -0.14168775 -0.10027229 0.3880539 0.048787635 0.3792883 -0.013633543
0.024002476 -0.03673716 -0.7043851 -0.17531937 0.12173281 0.16651735 -0.3025308 -0.25303164

shared_fc.0.bias f4 [64]
00000000: d83b 9d3e 25db 9b3e e94a 9f3e f773 983e
00000010: 6601 a93e 8105 f7bd 284c a83e 573f e1bd
00000020: e6d4 d2bd 5b3a a83e 307b a2bd 4ee1 a03e
00000030: 0543 9d3e 6b2d ab3e 16dd 8dbd acf8 d4bd
00000040: 1cea 14bd ef77 e63d b6ef 983e 0ae4 a63e
00000050: 0cef c13e 2ef2 c23e 593f af3e 9df8 62bd
00000060: ce8f 0dbe 6796 a63e 7b5c 9bbd 6279 05be
00000070: ac47 793e d405 b13e 9d69 a53e 2f1f ae3e
00000080: 09cd a13e 310f 99bd 6426 a23e b085 a13e
00000090: a3c6 2abe dfea c1bc e11d a33e 3be1 b33e
000000a0: fde0 a43e b656 9a3e f043 b83e 78dc a33e
000000b0: 5191 a33e 4545 b43e 3318 5f3e 56ee bb3e
000000c0: df2a ac3e b999 963e b68c dbbd 169e 963e
000000d0: ced8 ba3e 3849 c0bd 3bff a7bd 9407 b53e
000000e0: 12b6 b03e f1b4 0abe a03f 34bc 7999 a73e
000000f0: cc58 9c3e 0aaf 96bc 7975 1b3e ef1f a63e
0.3070972 0.30440632 0.3111184 0.29775974 0.3300888 -0.12061597 0.32870603 -0.10998409
-0.102945134 0.32857022 -0.079336524 0.31421894 0.30715194 0.3343309 -0.069269344 -0.10398993
-0.036356077 0.11253344 0.29870385 0.32595855 0.3787769 0.38075393 0.34228018 -0.055412877
-0.13824388 0.32536623 -0.075859986 -0.13034585 0.24343747 0.3457476 0.3230714 0.34008166
0.31601742 -0.07473601 0.31669915 0.31547308 -0.16677336 -0.023671566 0.31858733 0.35132775
0.32202902 0.3014428 0.35989332 0.32004142 0.31946805 0.35209098 0.21786575 0.36705273
0.33626458 0.29414156 -0.10720198 0.29417485 0.36493534 -0.09388965 -0.08202978 0.35357344
0.3451391 -0.13545586 -0.0110014975 0.32734278 0.30536497 -0.018394012 0.15181531 0.32446238

actor_head.weight f4 [2, 64]
00000000: 0098 913c 45e8 8a3e ee27 6a3e c112 8a3e
00000010: 383e 493e 928a 03be 2b49 6cbe b702 1c3b
00000020: 9226 453d dab0 ff3c 13eb c53d 811a 3bbd
00000030: b2f3 41be b612 67bc 2d4b 1abe 4ce4 b43d
00000040: 6014 a63d 8a7e 98bd 4e06 433e cc35 c5bd
00000050: fec5 ebbd 593e 1a3d 513d 2dbe 5856 043e
00000060: 58b2 bd3b a04f dd3c ffbf 223e 7114 ba3d
00000070: 56b4 7ebe f216 ddbd 3374 74be fb98 b3bd
00000080: 002a 3a3e 54ce 9a3d 2398 223e b8d6 69be
00000090: 4cdf 29bd 100e 17be 2ef1 09be 4491 ecbd
000000a0: 9d94 1abe c6aa 063d 54e3 033e ee44 f03d
000000b0: 2cd3 fcbd 43eb c1bd 9a41 c4bd fc1a a3bd
000000c0: 830e 983d 7ad3 803e a22f 853c de59 833d
000000d0: 2405 65be af22 893e d251 44bd 5228 0c3e
000000e0: 4edc a73d c8ba d03c c31f 9a3c 8482 e43d
000000f0: 984e d53c df2e b3bd 355d b63e 081c 4f3d
00000100: a737 5bbc 8241 90be 1c7b 75be eea5 8bbe
00000110: 3d8c 62be f2b5 073e 0f05 763e 6c1c 843a
00000120: 3206 83bd 482c 76bd 7ffe 5dbd ad94 0e3d
00000130: c5e4 4c3e 7b16 273d 7c82 093e ec0a d1bd
00000140: 0877 11be 2da1 943d a245 4fbe d214 b83d
00000150: fd8e b53d d7a6 68bd 4611 393e c2df 18be
00000160: 5614 dabc 99e9 18bd de3d 0fbe b653 aebd
00000170: 923d 5b3e 5362 ef3d f08e 833e e42f e53d
00000180: 7713 41be fa08 90bd 5be5 11be c9e5 753e
00000190: 1bd8 5f3d 89de 083e b138 fd3d 61c0 d43d
000001a0: af0f 0d3e 348f aebc 41bf 00be 02cb 01be
000001b0: ae15 bc3d 1fc5 f13d 41c7 a63d 3fd1 a23d
000001c0: 82b7 55bd ce13 82be c391 7fbc 2b7c 29bd
000001d0: 5b7d 733e 100c 88be ae4e 253d b2de 15be
000001e0: 51a5 a7bd bcf6 d3bc 9e36 85bc 6a11 d6bd
000001f0: 5d7a 71bc c287 b63d 0af7 b0be a34d adbd
0.017772675 0.27130333 0.22866794 0.26967433 0.19652641 -0.12845829 -0.23074786 0.002380533
0.048132487 0.03121226 0.096639775 -0.045679573 -0.18940619 -0.014103582 -0.1506774 0.08832607
0.08109355 -0.074460104 0.19045374 -0.096294016 -0.115123734 0.037657116 -0.16917922 0.12923563
0.0057890825 0.027015507 0.15893553 0.0908593 -0.2487348 -0.10795392 -0.23872451 -0.08769413
0.18180084 0.07558885 0.15878348 -0.22835815 -0.041472718 -0.14751458 -0.13470909 -0.11551145
-0.15095754 0.032877706 0.12879688 0.11731897 -0.12344965 -0.09468701 -0.09582825 -0.07964131
0.07424643 0.25161344 0.016258065 0.06413625 -0.22365242 0.26784274 -0.047929592 0.13687256
0.08196317 0.02547969 0.018813973 0.111577064 0.026038453 -0.08749174 0.35617986 0.050563842
-0.013379968 -0.28174978 -0.23972744 -0.27275032 -0.22123809 0.13253 0.24025367 0.0010079271
-0.06397666 -0.060100824 -0.054197785 0.034809757 0.20009144 0.040792923 0.13428682 -0.10207161
-0.14205563 0.07257304 -0.20241407 0.08988346 0.088651635 -0.056799736 0.18072996 -0.14929107
-0.026621025 -0.03733215 -0.13988444 -0.0851206 0.21410206 0.11688676 0.2569499 0.11190775
-0.18855081 -0.07032962 -0.14247648 0.24013437 0.054649454 0.1336614 0.12364329 0.10388256
0.13775514 -0.021308519 -0.12572958 -0.12675098 0.091838226 0.11805176 0.081434734 0.07950067
-0.05217696 -0.25405735 -0.015598717 -0.04137818 0.23778288 -0.26571703 0.040358238 -0.14635733
-0.081858285 -0.025874488 -0.016261395 -0.1045254 -0.014738646 0.089126125 -0.34563476 -0.08462074

actor_head.bias f4 [2]
00000000: 8760 81bc 8c60 813c
-0.015793098 0.015793107

critic_head.weight f4 [1, 64]
00000000: 87e8 a43e c75d 8a3e 350c 873e dc8f ce3e
00000010: 815c d93e c463 f3bd 583d d63e 44b3 57be
00000020: 981d 1ebe ccf3 893e 9366 49bb 638b 003f
00000030: 797b b23e 57eb d23e 9146 91be ef9c 03be
00000040: b01e 68bc e03e c63d 152b d03e e77b c63e
00000050: e263 873e 18a4 a13e deda 023f 5d1b 843c
00000060: 3134 a8bd c5cc c63e afe1 3abe cfe7 00be
00000070: 6f36 983e 6c94 a83e 54eb f03e cc34 9d3e
00000080: 0a08 b93e c868 4ebe 8518 a13e 8dd0 043f
00000090: b4c8 17be 86ab 803c 0599 f13e 2119 8a3e
000000a0: 1a94 8b3e 5275 b93e 5b61 943e 0ead 9b3e
000000b0: e191 313f 7246 a23e fff6 033e 83cc 993e
000000c0: 6733 ca3e 169b 793e bf0a 01be f948 a93e
000000d0: cc95 bc3e fb14 4ebe d331 d4bd 2f62 883e
000000e0: 1fdb 923e 0eb5 10be 29ff 593c 9694 9b3e
000000f0: 3a32 523e 990e e1bc f97b 4c3e 717c a93e
0.32208654 0.2702467 0.263765 0.4034413 0.42453387 -0.11884263 0.41843677 -0.21064478
-0.15440977 0.26943815 -0.0030731305 0.5021269 0.34859827 0.41195175 -0.2837415 -0.12852834
-0.014167473 0.09679961 0.4065787 0.38766405 0.26443392 0.31570506 0.51115215 0.01612633
-0.0821308 0.38828102 -0.18250154 -0.12588428 0.2972903 0.32925737 0.4705454 0.30704343
0.36138946 -0.20157158 0.3146402 0.51880723 -0.14822656 0.015706789 0.47187057 0.26972297
0.2726143 0.3622232 0.28980526 0.30405468 0.6936322 0.3169437 0.1288719 0.30038843
0.39492342 0.24375567 -0.12601756 0.33063486 0.36833036 -0.20125191 -0.10361066 0.26637408
0.286828 -0.14131567 0.013305464 0.303868 0.20526972 -0.027472781 0.19969167 0.33102754

exp_avg f4 [64, 4]
00000000: 331e 9e3a 7224 d0b9 9a85 91b8 8977 803a
00000010: 3a74 c5ba a37f 99bb 0fa4 a939 acb5 203a
00000020: e7bf f73b db15 23b9 2748 d238 de3c 14ba
00000030: a46d 26bb b486 9cbb 18c4 a739 bf1c 393a
00000040: 0885 cd3b b6ca 88b8 7884 b639 7931 773a
00000050: b75f b8bb d276 9cba 5e70 b9b8 3520 073a
00000060: ad5f a8bb 0bc8 fcba 3f7b deb9 5fec 3c3b
00000070: 4172 6f39 1372 2739 47e0 7136 018c 88b9
00000080: 76e5 d2ba 773f 4438 d916 0039 298c fcb9
00000090: f178 0b3a 0f7d f3b9 bae7 bf36 4894 583a
000000a0: 7574 2aba 3d5a 5c38 d3b5 d538 f067 0db9
000000b0: d91b 1b3b 285d fbb6 c380 c2b8 7dfc 013b
000000c0: 3329 40bb 6b93 97ba 21eb 03ba 4f2d 233b
000000d0: f706 8e3a ee22 39ba 1d68 28b9 77dc ff3a
000000e0: 2823 8ebb 8fae 6db9 9a0f 9fb8 257c 06ba
000000f0: 55b4 09bb 5dd1 0c39 3441 4839 667e d6b9
00000100: 1b5c 8c3b 4507 f739 d7c7 9538 abac 15ba
00000110: a950 d43a 53c2 7f38 8ab4 0cb9 9a39 a739
00000120: f05a c83b 40fc 2738 3418 a839 19ce 583a
00000130: eaac 00bb eb2e 98ba aea6 9eb9 4618 e63a
00000140: 5701 2e3a 3420 3438 f4f4 5eb9 3de7 bc3a
00000150: 9aee 1f3b af33 c2b9 1848 6f37 9204 9d3a
00000160: 2375 25bb 341b d6ba c52d 07ba 946d 433b
00000170: 90da d6ba c749 1fba 664e 0239 158b 97b9
00000180: 823f 2aba 7886 6738 fca9 3b38 b4cf 83b9
00000190: 793d f73b dadf ff3a 5883 0739 9bb7 d73a
000001a0: 6f4e c73b cd75 af3a ea90 df38 1423 62ba
000001b0: 960f fbba 5cfc df38 8322 2c39 295a ddb9
000001c0: 3acc 27bb 0f0d 3eba 35ef 07ba 3a69 0e3b
000001d0: df69 2abb 778e f2b9 1189 99b8 648a c93a
000001e0: de9f 69bb f1b3 e8ba e014 2eba c48a 583b
000001f0: 04a2 aaba ebf9 93ba f72d 92b9 7320 043b
00000200: db53 b43b 75ef f0b7 dde5 a339 0675 483a
00000210: db11 9fbb d590 0abb 6d1f 9a38 e3fb 73b9
00000220: 0d68 ecba ae33 99ba f4df 1b39 692a 713a
00000230: ae23 99bb c0dc 03bb 2074 d9b9 ab2f 533b
00000240: 0ab5 dbba 4c02 88b9 690a cfb7 308c 7f38
00000250: 0899 0ebc 1567 2bbb f476 83b9 cfe8 3a39
00000260: 99fd 0b3a d8cf 31ba e950 a3b9 78e1 1f3b
00000270: 20cd 8abb c897 1aba 751e 9cb8 e846 703a
00000280: 45e3 b9bb e713 6cba e42e dab8 232c 963a
00000290: df5a 283b 4273 16b9 df8e 14b8 17e3 9f3a
000002a0: 3ac0 3e3b 8f00 5bb9 f07c 4039 cc46 0d3a
000002b0: f11f 583b 87b6 e0b9 eba3 2439 042e 823a
000002c0: 8916 ac3b e714 ccb8 7ebd aeb9 a193 153b
000002d0: 6b4b a2ba cc84 ceba 31f6 9ab9 c42a 1b3b
000002e0: fbf0 35bb 0f9d 2eba ecae 89b8 d6c5 943a
000002f0: d077 55ba b19e 9dba 54d8 73b9 8877 033b
00000300: 7087 2a3b 6ba9 05ba c36b fe37 2522 cb3a
00000310: 5f5d 223c f290 1a3a b357 cd38 4ffe 62ba
00000320: f09c 433a 7934 7139 2307 5937 cb29 71b9
00000330: 1d20 863a c636 01ba 0d0e e034 0abc 933a
00000340: ef2c 593b 34e3 82b9 65b4 eab9 1845 193b
00000350: 7ab4 34bb c1ae 27ba 1d8b 3fb8 8fa4 96ba
00000360: 80ba c2b9 26fd 8638 550a 19b7 44f9 f8b8
00000370: 3133 463b 984a 08ba 0b68 2e39 3a2c 6839
00000380: 4756 afb9 178d 44ba f3b3 2f38 561b 903a
00000390: 937d 923a acb8 a039 e01e a437 daea 9cb9
000003a0: f4aa 4db9 53e3 f4b7 8d87 c537 a21b 4a38
000003b0: ab26 873b 2371 083a c6e5 f238 f1f2 2439
000003c0: afde a43a 571f 90b9 0b34 fab6 b1e6 563a
000003d0: ca1f 9d3a 6040 9f39 99be 23b9 8378 30b9
000003e0: bd52 0b3c 175c 3f3a ebf0 363a 5f1e 4aba
000003f0: af49 233b f651 d2b9 eba6 5738 a986 963a
0.0012063443 -0.00039700005 -6.939024e-05 0.0009801249 -0.0015064545 -0.004684405 0.00032356425 0.0006130587
0.0075607183 -0.00015553033 0.0001002702 -0.0005654822 -0.002539494 -0.0047768 0.00031998823 0.00070614734
0.006271962 -6.522743e-05 0.00034812442 0.0009429674 -0.0056266445 -0.0011937267 -8.8424174e-05 0.00051546405
-0.0051383586 -0.0019285692 -0.00042434965 0.0028827412 0.00022835379 0.00015968857 3.6042345e-06 -0.00026044252
-0.0016090113 4.6789148e-05 0.00012215543 -0.00048169613 0.0005320451 -0.00046441748 5.71922e-06 0.0008261842
-0.0006502339 5.253613e-05 0.00010190499 -0.00013485528 0.0023667722 -7.4912277e-06 -9.2746246e-05 0.0019834333
-0.0029321432 -0.001156432 -0.00050322904 0.0024898832 0.0010835816 -0.0007062395 -0.00016060514 0.001952066
-0.004337687 -0.0002266711 -7.584617e-05 -0.00051301933 -0.0021012027 0.00013429434 0.00019097776 -0.00040911435
0.0042834408 0.00047116927 7.142097e-05 -0.00057096285 0.0016198355 6.0977716e-05 -0.00013418696 0.0003189564
0.006114356 4.005083e-05 0.0003206149 0.0008270457 -0.0019634315 -0.0011610662 -0.00030260294 0.0017554841
0.0006637773 4.2945336e-05 -0.00021262822 0.0014412176 0.0024403692 -0.0003704107 1.4262296e-05 0.0011979511
-0.002524682 -0.0016335011 -0.00051566615 0.0029819952 -0.0016392041 -0.00060763623 0.00012426972 -0.00028904589
-0.0006494449 5.5199926e-05 4.4742585e-05 -0.00025141018 0.00754517 0.0019521669 0.00012923533 0.0016457917
0.006082348 0.0013386548 0.00010660461 -0.0008626443 -0.0019154425 0.00010680474 0.00016416055 -0.0004221958
-0.0025603906 -0.00072498707 -0.0005185486 0.00217302 -0.0026003045 -0.00046263981 -7.321139e-05 0.0015376327
-0.0035648267 -0.0017753822 -0.0006640684 0.0033041695 -0.0013018255 -0.0011289691 -0.00027881537 0.0020160943
0.0055031604 -2.8721735e-05 0.00031261044 0.00076468324 -0.0048544235 -0.0021143456 7.349146e-05 -0.00023268121
-0.0018036381 -0.0011688375 0.00014865381 0.000919974 -0.004673443 -0.002012059 -0.00041475985 0.0032224457
-0.0016762328 -0.00025941653 -2.468117e-05 6.0927297e-05 -0.008703478 -0.002615397 -0.00025074894 0.0001782507
0.0005340218 -0.00067829853 -0.00031150065 0.0024395864 -0.0042358786 -0.0005897251 -7.444333e-05 0.00091658393
-0.0056728446 -0.0009005651 -0.00010403784 0.0011457246 0.002568893 -0.00014348052 -3.541901e-05 0.0012198415
0.0029106275 -0.00020885676 0.0001835709 0.00053892727 0.0032978023 -0.00042860603 0.00015701323 0.0009931927
0.00525171 -9.7313714e-05 -0.0003332905 0.002282359 -0.0012382095 -0.0015756129 -0.00029556596 0.0023676613
-0.0027762044 -0.0006660977 -6.565251e-05 0.0011350464 -0.00081431586 -0.0012025443 -0.00023254874 0.002006026
0.0026020668 -0.00050987926 3.032934e-05 0.0015497847 0.009909957 0.00058962323 9.791497e-05 -0.0008659111
0.0007462045 0.00023003099 1.293587e-05 -0.0002299912 0.0010232959 -0.00049291214 4.1733475e-07 0.001127125
0.0033138355 -0.00024964812 -0.00044766362 0.002338713 -0.0027573393 -0.0006396585 -4.5667508e-05 -0.0011493134
-0.00037141517 6.4367705e-05 -9.121916e-06 -0.00011871991 0.0030242915 -0.00051991036 0.00016632692 0.0002214172
-0.00033442883 -0.00074978307 4.1890842e-05 0.0010994475 0.001117634 0.0003065517 1.95647e-05 -0.00029929617
-0.00019614008 -2.9192923e-05 2.354735e-05 4.8186288e-05 0.0041244826 0.0005204847 0.00011582258 0.00015730762
0.0012578572 -0.0002748917 -7.456639e-06 0.0008197828 0.0011987623 0.00030374806 -0.00015615895 -0.00016829562
0.008503613 0.0007299794 0.00069786486 -0.0007710214 0.0024915745 -0.00040115387 5.141545e-05 0.0011484224

exp_avg_sq f4 [64, 4]
00000000: 6a52 7e39 daf8 6e38 6d4b 1635 e604 7537
00000010: f6f0 c43a d1ec db39 1cc4 9336 70a5 9238
00000020: 4978 923a 14e6 9b39 995a 5c36 aca7 5938
00000030: 295f 053b 89a5 0c3a 4255 b136 eeb8 bd38
00000040: 81e2 ec3a cbca e539 63b5 8b36 1606 a738
00000050: 5008 9239 afbd 9638 f9a8 2c35 d97e 1c37
00000060: 3508 ec3a 2b0b fe39 e71a 9436 e428 cb38
00000070: ecb9 ab38 9282 b437 56c7 4834 2a9b 6c36
00000080: 66a8 d938 1a23 bc37 4d94 6a34 dd81 c036
00000090: 7033 5539 969c 4538 69a5 0b35 e87f 7237
000000a0: b1a2 c638 6a30 ce37 5424 7834 ea87 aa36
000000b0: aee8 413a 9d3b 2939 7fa9 1136 f9a5 6a38
000000c0: 9d91 ba3a ee21 bb39 040a 7336 68f8 9438
000000d0: 66ac 2d3a 31e6 2c39 ecc5 dd35 1d17 3238
000000e0: 48b1 1c39 dbe5 ad37 4317 de34 e285 0237
000000f0: b82f 2b39 0e11 1338 bf8a 7f34 9e0e 0137
00000100: 19f7 2f39 37cc 4938 2c36 0235 c74b f336
00000110: 025e ce38 7507 be37 f39c 7934 7269 b636
00000120: 7b27 d93a d093 db39 7186 7d36 a37b 9738
00000130: 5248 303a 1d9f 4439 5b5e ce35 f650 0d38
00000140: 7c5c e939 44d6 d038 ded0 9f35 9537 c437
00000150: d3a1 d339 756d d638 7469 7435 d078 9c37
00000160: 83ec dc3a 7528 db39 47e0 8936 699c c038
00000170: 3b07 5739 63b1 7338 5559 2035 3b83 5237
00000180: 7ca5 ab37 10f1 9136 c100 3933 855b ab35
00000190: 1171 013a 4a51 de38 f8fa b235 7753 1538
000001a0: 606c ab39 b943 c438 4cd9 4635 a8e7 4637
000001b0: 36f1 1c39 c42b 0538 35d0 9834 93dd f236
000001c0: da0c d33a 5984 d839 4b2f 7f36 be3b a038
000001d0: c771 eb39 b78f dc38 968a a035 5997 0238
000001e0: 7099 113b d3eb 133a a008 b636 d59a f038
000001f0: a514 193a baaa 1639 ba5d c635 9385 0938
00000200: 8563 b43a defe af39 8810 5236 22ba 6838
00000210: f739 b038 04a7 ad37 8933 cc34 fe31 9636
00000220: 2255 1a3a 1fef 1339 3c71 e535 bd89 1e38
00000230: 548f 0b3b 07b8 133a aed4 aa36 50af f538
00000240: 1f1f b538 d389 c737 0581 4a34 8015 6636
00000250: f1e8 6c39 64eb 6438 db1b e834 61b0 0937
00000260: 3458 8c3a 42c2 7c39 4b72 4836 1a7a 8738
00000270: 9b5b a039 3692 ba38 c138 8335 0c3d ab37
00000280: 2c13 e239 e32d 0239 7834 ba35 88e6 ea37
00000290: 9f76 b939 0ad9 a438 ea17 4e35 48af 8637
000002a0: 5494 183a f487 3039 bad7 bf35 c66b cb37
000002b0: 7397 3f3a eacd 3339 1300 e835 6474 1438
000002c0: 4243 b13a 2e59 a639 0d2e 6236 8a35 cf38
000002d0: e91b 1d3a cf6b 0f39 74bf c735 10a2 0638
000002e0: c016 2e39 2b78 0f38 a1df d834 54b9 1837
000002f0: 038b e439 e5b7 c838 53b8 9835 6513 d737
00000300: 7498 313a 6d39 2e39 25eb de35 ea40 2738
00000310: 5e0a 923a 1b49 a539 c9c2 6c36 5b2c 6338
00000320: 3406 fd37 15df 0c37 0360 8a33 700e c535
00000330: b911 9839 d82d 9138 ba9e 3635 2243 9337
00000340: 61bf a63a 4755 a139 bcd7 4c36 9168 a238
00000350: 13fb 0939 648e 2838 2a65 ee34 787e d937
00000360: fa8b 4137 f8b5 2036 2282 5f33 fd4a 7e35
00000370: db19 443a deee 3c39 6247 d735 66cd c937
00000380: 568d a639 7c09 9838 fb83 6c35 3f6d b237
00000390: 8d2a 3338 8172 4737 1205 d133 6a98 1036
000003a0: a326 8e36 3b86 6a35 494c 1732 fedc 6534
000003b0: 2ecc cd39 2430 0139 78db 8835 9382 a537
000003c0: fc89 1439 9438 f537 f337 a334 8954 0437
000003d0: 0f35 dd38 a97d ca37 9f77 7834 bf83 ae36
000003e0: 56d3 5b3b de52 5c3a eeb1 fc36 e982 0b39
000003f0: a141 b739 8484 9e38 5087 6f35 8a74 bf37
0.00024254029 5.6975383e-05 5.5989113e-07 1.46042785e-05 0.0015025425 0.00041947377 4.4037715e-06 6.992638e-05
0.0011174764 0.00029735325 3.283529e-06 5.189299e-05 0.002035091 0.0005365243 5.2849364e-06 9.046668e-05
0.0018072875 0.00043829376 4.163639e-06 7.964314e-05 0.00027853483 7.187889e-05 6.432088e-07 9.327859e-06
0.0018007817 0.00048454976 4.4138756e-06 9.687411e-05 8.188546e-05 2.1518474e-05 1.869897e-07 3.5257058e-06
0.00010378733 2.2427692e-05 2.18469e-07 5.737164e-06 0.00020332425 4.7114292e-05 5.202224e-07 1.44541045e-05
9.4716794e-05 2.4579658e-05 2.3110016e-07 5.0822173e-06 0.00073970377 0.00016139304 2.1705343e-06 5.594452e-05
0.001423407 0.000356927 3.6215652e-06 7.103459e-05 0.00066251156 0.00016488951 1.6523386e-06 4.2460033e-05
0.00014943362 2.0730242e-05 4.1367647e-07 7.779776e-06 0.00016325607 3.5063415e-05 2.3799201e-07 7.6924025e-06
0.00016781352 4.8112324e-05 4.8507604e-07 7.250786e-06 9.840356e-05 2.2653237e-05 2.324703e-07 5.436298e-06
0.0016567552 0.00041881064 3.7778193e-06 7.22327e-05 0.0006724644 0.00018751291 1.5375657e-06 3.369242e-05
0.0004451013 9.958123e-05 1.1907212e-06 2.3390903e-05 0.00040365625 0.00010224703 9.105054e-07 1.8652907e-05
0.0016855154 0.00041801078 4.1090275e-06 9.184407e-05 0.00020506691 5.810092e-05 5.973464e-07 1.254753e-05
2.0461848e-05 4.3494e-06 4.3074355e-08 1.2767129e-06 0.00049378077 0.00010600926 1.3335075e-06 3.56021e-05
0.00032696407 9.3586226e-05 7.4076956e-07 1.1855656e-05 0.00014967177 3.175043e-05 2.8463697e-07 7.2379567e-06
0.0016101853 0.00041297337 3.802549e-06 7.6405224e-05 0.00044907464 0.000105171865 1.1961263e-06 3.113537e-05
0.00222167 0.00056427455 5.4250268e-06 0.000114729315 0.0005839563 0.00014368715 1.4779428e-06 3.2787746e-05
0.0013762569 0.00033568492 3.130206e-06 5.548646e-05 8.403131e-05 2.070098e-05 3.8035458e-07 4.476168e-06
0.00058873196 0.00014108092 1.7094785e-06 3.7798414e-05 0.0021295147 0.0005635027 5.091154e-06 0.00011715165
8.636549e-05 2.3786828e-05 1.8859653e-07 3.4285185e-06 0.00022593491 5.457866e-05 4.3233635e-07 8.206903e-06
0.0010707439 0.0002410496 2.986885e-06 6.460045e-05 0.0003058583 8.896405e-05 9.776778e-07 2.0413216e-05
0.00043120363 0.0001241486 1.387335e-06 2.8002323e-05 0.0003537433 7.860556e-05 7.677578e-07 1.6055666e-05
0.00058204425 0.00016835314 1.4293394e-06 2.4249672e-05 0.00073086395 0.00017147479 1.7285369e-06 3.5394347e-05
0.0013524073 0.0003172843 3.370343e-06 9.8805016e-05 0.00059932336 0.00013677705 1.4882376e-06 3.2099022e-05
0.00016602408 3.4205772e-05 4.0395847e-07 9.103056e-06 0.0004359112 9.570996e-05 1.1378528e-06 2.5639029e-05
0.00067747314 0.00016615326 1.6608725e-06 3.987636e-05 0.0011142006 0.0003152572 3.528012e-06 5.4162327e-05
3.0162839e-05 8.396591e-06 6.44359e-08 1.4681846e-06 0.00029004904 6.922678e-05 6.803126e-07 1.7555027e-05
0.001272183 0.0003077185 3.0523943e-06 7.744239e-05 0.0001315887 4.0186933e-05 4.440456e-07 2.5927307e-05
1.1536287e-05 2.3947778e-06 5.203959e-08 9.4731496e-07 0.00074806594 0.00018018062 1.6039523e-06 2.4056713e-05
0.0003176729 7.2496914e-05 8.810891e-07 2.1270125e-05 4.2716554e-05 1.1887984e-05 9.733243e-08 2.1546389e-06
4.2364277e-06 8.7367124e-07 8.806702e-09 2.1407683e-07 0.00039252773 0.00012320332 1.0196663e-06 1.9730336e-05
0.00014165783 2.9232622e-05 3.0401824e-07 7.8874955e-06 0.00010547984 2.4138792e-05 2.3140318e-07 5.2009414e-06
0.0033542714 0.0008404682 7.530899e-06 0.00013304841 0.00034953377 7.55871e-05 8.9231344e-07 2.2823242e-05

exp_avg f4 [64]
00000000: 7031 6b3a 2486 b6bb 13b3 75ba ff76 c0bb
00000010: 25e9 05ba ac71 2a3b f706 023b b25a 17b8
00000020: 11cf 21ba 029c 853a b4fd 6e39 bd96 013b
00000030: f46f 103b e15b 903a 29bf 323b d1d5 4dba
00000040: f1eb 61ba 5aef 3739 991b 17ba 8f27 843a
00000050: 7047 083b a365 cf39 7f84 333b df59 1eba
00000060: 672c 7db9 509c 383b 6ceb 19bb a23d 3fba
00000070: a578 433b 3bb3 863a 26a5 3c3b 88a5 a03a
00000080: 7560 00ba 8ebb 023a 0fd4 3a3b d6ce 123b
00000090: ab4e 273a 76cf 933a 4d12 2a3b 19cc a239
000000a0: dcbe 5639 9846 e739 897e 50ba 0c3b c038
000000b0: 7961 253a bcec 6a3a e84e de39 1356 763a
000000c0: 80c5 233a d71d 0fb9 ea62 90b9 3e64 813a
000000d0: 321f 50ba 7df7 9eba 9197 9439 569e 73ba
000000e0: 8df4 f73a 402f d4b9 a3f7 99b7 2a3a f4b8
000000f0: ed30 ab39 0474 f6b8 775f 0bbb 215f 123a
0.00089719053 -0.00557019 -0.00093726924 -0.0058735604 -0.00051082886 0.0026007695 0.0019840577 -3.6085672e-05
-0.0006172518 0.0010193589 0.0002279196 0.0019773685 0.0022039386 0.001101371 0.0027274585 -0.00078519905
-0.0008618227 0.00017541405 -0.0005764305 0.001008259 0.0020794533 0.00039557842 0.0027392206 -0.00060406135
-0.00024144501 0.0028169341 -0.002348627 -0.0007295256 0.0029826548 0.0010276804 0.002878496 0.0012256363
-0.0004897186 0.0004987054 0.0028507744 0.0022401116 0.0006382267 0.0011277038 0.002595085 0.00031051112
0.00020479731 0.0004411235 -0.00079534255 9.166272e-05 0.0006308775 0.0008961668 0.0004240193 0.00093969813
0.00062473863 -0.00013648659 -0.00027539517 0.0009871793 -0.0007939219 -0.0012128201 0.00028341686 -0.0009293308
0.0018917486 -0.00040470995 -1.8354336e-05 -0.000116456606 0.00032652114 -0.00011751804 -0.0021266618 0.00055836333

exp_avg_sq f4 [64]
00000000: 13e5 1a39 2a67 233a 7a25 f839 ac14 633a
00000010: 98d7 4e3a 1196 9938 8728 533a 5a4f c937
00000020: bee8 d937 edf0 f538 72b4 f337 abc8 083a
00000030: 2244 1b3a 4aa6 d739 4a8e 3638 77b2 1e38
00000040: d78d 6438 c024 1338 6a18 3e3a d95d c039
00000050: 3df1 6039 6cc9 7439 9f03 5f3a 6c3e 7c38
00000060: c795 b636 66ed a739 10b6 ba38 6b4e 1338
00000070: 8e4d 203a fca5 7d39 c219 833a c2d3 9739
00000080: de6e 193a 670a 0138 2241 a139 4afa 863a
00000090: 5077 d337 10f6 9f38 4d50 223a 72e4 3c39
000000a0: c4fe 7339 5b86 5339 fea1 9139 d8d7 af39
000000b0: 5486 563a ceaa 9339 7c90 8b38 696b 7339
000000c0: 19a3 ce39 4786 ff39 b848 1137 c0d4 1f39
000000d0: 15ba 1a3a ba62 2e38 6b36 7936 891c a139
000000e0: d0b6 4939 740f 5e37 a6c3 a335 6c14 6439
000000f0: a4fb ab38 f07d 0438 0167 903a 0d3e 6439
0.00014771921 0.0006233329 0.00047330168 0.0008662443 0.00078904023 7.3235606e-05 0.000805505 2.3998018e-05
2.5976795e-05 0.00011727386 2.9051884e-05 0.000521789 0.00059229333 0.0004113189 4.35247e-05 3.7836344e-05
5.4491535e-05 3.5081757e-05 0.0007251563 0.00036691016 0.00021452173 0.00023344689 0.00085073145 6.0139617e-05
5.441459e-06 0.00032029598 8.903083e-05 3.5120564e-05 0.0006115072 0.00024189794 0.0010002183 0.00028958736
0.00058530073 3.0765685e-05 0.0003075684 0.0010297981 2.520872e-05 7.6275435e-05 0.00061917753 0.0001801418
0.00023269193 0.0002017258 0.0002777725 0.00033539417 0.00081834686 0.00028165284 6.654949e-05 0.000232143
0.000394129 0.00048737435 8.659605e-06 0.00015242677 0.0005902362 4.157678e-05 3.7135567e-06 0.00030729573
0.00019236957 1.3235829e-05 1.2201388e-06 0.00021751382 8.200787e-05 3.158854e-05 0.0011017026 0.0002176689

exp_avg f4 [2, 64]
00000000: 7f8b 19ba ceb2 15bb d6b2 67ba 59ae 12bb
00000010: 4e45 6dba 9039 a8ba 72f3 49bb 8541 9eba
00000020: f7db 82ba 70b3 c9ba e9f2 ddba dfea 18bb
00000030: 8d1d caba 49c6 19bb f9d2 feb8 0863 84b9
00000040: b42a feba 4bcd 27bb 4c91 35ba 83b8 45bb
00000050: 72e1 41bb 2ef1 07bb fe11 ceba ee8e cab7
00000060: 0a71 72ba 29c2 bcba f687 d1ba 5b01 0eba
00000070: c99a feba 8bab 8ebb 84da 6039 9bcf 6bba
00000080: 8023 19ba b28e b538 b18e 1bba 7387 2fbb
00000090: 2e3a 69bb 7b31 67ba 8499 08bb 1412 f4bb
000000a0: d498 9ebb 3073 b3ba 4e99 79bb 6949 9939
000000b0: a217 06bb 10b9 73ba a772 02bb 13f1 acba
000000c0: 54f9 2d3a 5eb8 05bb aad3 d2ba 0008 14bb
000000d0: 8caa a839 287f 7fb8 0c56 0638 a03a 22ba
000000e0: f7d5 f838 420c 77bb 3274 18bb dbc5 b1bb
000000f0: 1945 1bba a8a9 2ebb 9c3a 31ba bb99 62b9
00000100: 8b8b 193a cbb2 153b ddb2 673a 58ae 123b
00000110: 5745 6d3a 9139 a83a 76f3 493b 8641 9e3a
00000120: f7db 823a 77b3 c93a eaf2 dd3a e2ea 183b
00000130: 8d1d ca3a 4ac6 193b fad2 fe38 0463 8439
00000140: b12a fe3a 45cd 273b 5891 353a 80b8 453b
00000150: 72e1 413b 31f1 073b 0412 ce3a f38e ca37
00000160: 0b71 723a 2bc2 bc3a f787 d13a 5f01 0e3a
00000170: ce9a fe3a 8cab 8e3b 60da 60b9 a6cf 6b3a
00000180: 8023 193a af8e b5b8 ac8e 1b3a 7587 2f3b
00000190: 2d3a 693b 7b31 673a 8599 083b 1312 f43b
000001a0: d598 9e3b 3473 b33a 5199 793b 6049 99b9
000001b0: a517 063b 0fb9 733a a772 023b 1bf1 ac3a
000001c0: 53f9 2dba 62b8 053b a7d3 d23a 0408 143b
000001d0: a7aa a8b9 2b7f 7f38 1356 06b8 a03a 223a
000001e0: 01d6 f8b8 430c 773b 2d74 183b dac5 b13b
000001f0: 2345 1b3a a9a9 2e3b 9f3a 313a 9299 6239
-0.00058572734 -0.0022842172 -0.00088385993 -0.0022381751 -0.000905116 -0.0012834538 -0.003081527 -0.001207397
-0.0009983768 -0.001538856 -0.0016933355 -0.0023333353 -0.0015420184 -0.0023464134 -0.000121509605 -0.00025250786
-0.0019391389 -0.0025604542 -0.0006926253 -0.0030169792 -0.0029583839 -0.002074312 -0.0015721915 -2.4146833e-05
-0.00092484115 -0.0014401126 -0.0015985954 -0.0005417072 -0.0019424792 -0.0043539456 0.00021443708 -0.0008995474
-0.0005841777 8.657332e-05 -0.00059340434 -0.0026783615 -0.0035587656 -0.0008819324 -0.0020843456 -0.007448444
-0.004839996 -0.0013690945 -0.0038085761 0.0002923713 -0.0020460864 -0.0009297291 -0.0019904764 -0.0013194404
0.0006636579 -0.002040408 -0.0016084809 -0.0022587776 0.00032170524 -6.091516e-05 3.2028227e-05 -0.00061885454
0.000118654156 -0.0037696515 -0.0023262617 -0.0054251975 -0.0005923077 -0.0026651416 -0.00067607476 -0.00021610309
0.00058572803 0.0022842165 0.00088386034 0.002238175 0.0009051165 0.0012834539 0.003081528 0.0012073971
0.0009983768 0.0015388568 0.0016933356 0.002333336 0.0015420184 0.0023464137 0.00012150961 0.00025250774
0.0019391385 0.0025604528 0.000692626 0.0030169785 0.0029583839 0.0020743127 0.0015721922 2.4146842e-05
0.0009248412 0.0014401128 0.0015985955 0.00054170744 0.0019424798 0.004353946 -0.00021443656 0.00089954806
0.0005841777 -8.6573295e-05 0.00059340405 0.002678362 0.0035587654 0.0008819324 0.0020843458 0.0074484437
0.0048399963 0.0013690949 0.0038085768 -0.00029237103 0.002046087 0.000929729 0.0019904764 0.0013194414
-0.00066365785 0.002040409 0.0016084806 0.0022587785 -0.00032170603 6.0915172e-05 -3.2028252e-05 0.00061885454
-0.00011865423 0.0037696518 0.0023262606 0.005425197 0.0005923083 0.0026651418 0.00067607494 0.00021610249

exp_avg_sq f4 [2, 64]
00000000: f52e 1d3a 7353 f039 0098 163a f4f9 ac39
00000010: 4785 9039 be72 3437 ee83 9939 0f2c cc37
00000020: 1344 2b38 d96a 753a bce2 0239 def6 d139
00000030: a29e 5139 f6fa 9339 e8af e734 5775 5437
00000040: d6a1 4439 3d52 453a 22b5 5739 87ae 8c39
00000050: f539 ec39 7905 a339 4356 a039 f13d 4036
00000060: e8b7 5438 928c e439 173c 3337 7167 d137
00000070: c060 1b39 ee82 493a f597 9d39 d9a6 8b39
00000080: 3501 7a39 2fc9 6136 365e 073a cd90 8839
00000090: 8e2a fb38 a76f 4437 24bc 9c39 4ece 733a
000000a0: b549 193a eb7f e739 9e2d d239 8d0b 8d39
000000b0: 867a 923a ef8a e639 c3c1 6139 cfb9 e239
000000c0: cd3c b239 749f 0b3a 9235 9037 19ba 943a
000000d0: 6ee6 0a3a 8163 7d34 d666 3835 4003 a439
000000e0: 58e7 033a da27 a938 4797 d439 94d2 133a
000000f0: 70ae 8039 8982 103a 326c 8d38 f3e0 ec39
00000100: f42e 1d3a 7353 f039 0098 163a f3f9 ac39
00000110: 4785 9039 be72 3437 ee83 9939 0d2c cc37
00000120: 1444 2b38 d96a 753a bce2 0239 def6 d139
00000130: a19e 5139 f5fa 9339 e8af e734 5675 5437
00000140: d6a1 4439 3d52 453a 24b5 5739 86ae 8c39
00000150: f439 ec39 7805 a339 4356 a039 f13d 4036
00000160: e9b7 5438 938c e439 173c 3337 6f67 d137
00000170: c260 1b39 ed82 493a f797 9d39 d9a6 8b39
00000180: 3801 7a39 32c9 6136 355e 073a cd90 8839
00000190: 8b2a fb38 a46f 4437 24bc 9c39 4cce 733a
000001a0: b549 193a e97f e739 9a2d d239 8e0b 8d39
000001b0: 847a 923a ef8a e639 c3c1 6139 d1b9 e239
000001c0: cd3c b239 769f 0b3a 9135 9037 19ba 943a
000001d0: 6ee6 0a3a 8363 7d34 d566 3835 4203 a439
000001e0: 58e7 033a da27 a938 4797 d439 96d2 133a
000001f0: 6dae 8039 8d82 103a 326c 8d38 f0e0 ec39
0.0005996072 0.00045838542 0.00057446957 0.00032992626 0.0002756512 1.0755552e-05 0.0002928073 2.4339211e-05
4.0832976e-05 0.000936193 0.00012482231 0.00040047517 0.00019990889 0.00028225005 4.3155092e-07 1.2663505e-05
0.00018752305 0.0007527208 0.00020571475 0.00026832914 0.0004505661 0.0003109386 0.00030581848 2.8646284e-06
5.0716015e-05 0.00043592282 1.0683222e-05 2.496291e-05 0.00014817994 0.00076870515 0.0003005859 0.00026636457
0.00023842308 3.3644717e-06 0.000516388 0.00026047826 0.00011976539 1.17085065e-05 0.00029894814 0.0009300456
0.000584747 0.0004415506 0.0004008831 0.00026902222 0.0011175431 0.00043972532 0.00021529854 0.00043244517
0.00033996106 0.00053261896 1.7191083e-05 0.0011346965 0.0005298619 2.359866e-07 6.869499e-07 0.0003128294
0.00050317263 8.065971e-05 0.000405485 0.00056389836 0.0002454403 0.00055126153 6.743557e-05 0.00045181028
0.0005996071 0.00045838542 0.00057446957 0.00032992623 0.0002756512 1.0755552e-05 0.0002928073 2.4339208e-05
4.083298e-05 0.000936193 0.00012482231 0.00040047517 0.00019990887 0.00028225002 4.3155092e-07 1.2663504e-05
0.00018752305 0.0007527208 0.00020571478 0.0002683291 0.00045056606 0.00031093857 0.00030581848 2.8646284e-06
5.071602e-05 0.00043592285 1.0683222e-05 2.4962907e-05 0.00014817997 0.0007687051 0.00030058596 0.00026636457
0.00023842312 3.3644724e-06 0.0005163879 0.00026047826 0.00011976537 1.1708504e-05 0.00029894814 0.0009300455
0.000584747 0.00044155054 0.00040088297 0.00026902225 0.0011175429 0.00043972532 0.00021529854 0.00043244523
0.00033996106 0.0005326191 1.7191081e-05 0.0011346965 0.0005298619 2.3598663e-07 6.869498e-07 0.00031282945
0.00050317263 8.065971e-05 0.000405485 0.0005638985 0.0002454402 0.00055126176 6.743557e-05 0.0004518102

exp_avg f4 [2]
00000000: 43a9 72bb 48a9 723b
-0.0037027157 0.003702717

exp_avg_sq f4 [2]
00000000: 00ef 113b 02ef 113b
0.00222677 0.0022267704

exp_avg f4 [1, 64]
00000000: a0e9 35b9 7146 dcb8 95d7 84b9 f64c 52b9
00000010: d4e9 1e38 738e ff37 8aa5 9c3a f1d6 adb7
00000020: 0b7d 4f3a 1a4f 9b3a d9e3 b73a a5ef 9b3a
00000030: 3b0e d53a 5c8e 333a 0263 f2b7 baa9 213a
00000040: c40c 1b39 7c4a fb3a 0510 beb9 ec78 90b9
00000050: a0af 013b 9c6a 3bba ca9f 2e3b 26fa 0b38
00000060: e4e7 b13a d662 603a 987c 7439 634d 483a
00000070: cebc 863a b562 513a 38ca 033b 3c37 c73a
00000080: b849 95b9 9ab3 02b9 5f12 bd3a 8170 8b3a
00000090: 0f3b ba38 b2f8 05b9 68a1 943a 6b2c 5a3a
000000a0: f0b1 083a 5eff 4fba ba17 00ba bdd4 4139
000000b0: 4f4e 653b 9737 353b 8376 973a affe 013b
000000c0: 299b 743a 47af 05b9 08ac 6139 379f 0939
000000d0: 3b8c 233b 3a53 da38 e137 d4b8 5c1e a9ba
000000e0: f9b8 673a d5cf ef39 5d38 343a a063 f2b9
000000f0: eeeb 6938 aefc ea3a 2a13 efb8 20db e039
-0.00017348537 -0.00010503538 -0.00025337623 -0.00020055831 3.7887905e-05 3.0464702e-05 0.001195119 -2.0723297e-05
0.0007915056 0.0011849136 0.0014029696 0.0011896981 0.0016254851 0.00068495213 -2.8894752e-05 0.0006166954
0.00014786707 0.0019171978 -0.0003625156 -0.00027555914 0.0019788519 -0.000714937 0.0026645535 3.337315e-05
0.0013573137 0.00085596496 0.00023316068 0.0007640926 0.0010279657 0.0007987426 0.0020109545 0.0015198956
-0.0002847442 -0.00012464673 0.0014425031 0.0010638387 8.880172e-05 -0.00012776515 0.0011339607 0.0008322659
0.0005214503 -0.0007934476 -0.0004886348 0.00018485165 0.0034989303 0.0027651542 0.0011555705 0.001983564
0.0009330982 -0.00012749164 0.00021521759 0.0001312465 0.002495541 0.00010410552 -0.00010119356 -0.0012902725
0.0008839514 0.0004574048 0.0006874854 -0.00046232063 5.5771256e-05 0.0017928088 -0.00011399978 0.0004288787

exp_avg_sq f4 [1, 64]
00000000: 6064 143a cebd c239 8a00 f139 840c 9839
00000010: 6d8f a639 4b01 ba36 fde0 a739 bbb8 6737
00000020: 1d70 f237 fee6 563a 9099 b138 511c bf39
00000030: 0a6f 8339 1dc7 9939 6c9b 6234 b875 2637
00000040: 4f2b f038 a791 1b3a 492c 7739 a96b 8e39
00000050: c2a0 fa39 1db9 b039 d2ec bd39 e8f0 dd35
00000060: ce8b 2838 4f5d c939 4d9a fd36 d851 9737
00000070: f514 3139 e959 2d3a 09a6 aa39 b597 9e39
00000080: 5a98 9139 5c3f a136 6924 fd39 e268 9439
00000090: a171 8d38 d6bc 0137 4d3e a039 ff0d 453a
000000a0: 1ebd 013a 98b7 e539 0ef4 bd39 544d 9c39
000000b0: 5343 723a 8eeb e539 e203 5939 0c0d e139
000000c0: 5a36 b739 c0b0 d939 5d9d 3e37 3b21 843a
000000d0: 99b0 073a e28a cf34 7fdb a035 6449 ba39
000000e0: 0cb9 003a c929 5e38 eef9 a639 70ce de39
000000f0: 44d1 8839 01fd d239 7790 9c38 95c8 ea39
0.0005660709 0.0003714398 0.00045967504 0.00029001024 0.00031768848 5.5433825e-06 0.00032020352 1.3811684e-05
2.8900855e-05 0.00081978727 8.468621e-05 0.00036451456 0.00025068998 0.00029330785 2.1104432e-07 9.92178e-06
0.00011452159 0.00059344847 0.00023572253 0.00027164564 0.0004780349 0.00033707256 0.00036225334 1.6535896e-06
4.0184525e-05 0.00038407228 7.5579505e-06 1.8038714e-05 0.00016887843 0.0006612824 0.00032548633 0.0003024914
0.00027770066 4.80555e-06 0.00048283048 0.00028306904 6.744569e-05 7.732966e-06 0.00030563996 0.0007517039
0.000494914 0.00043815072 0.00036230724 0.00029812253 0.00092415995 0.00043853786 0.00020696179 0.00042925065
0.00034944975 0.00041521154 1.13615215e-05 0.0010080704 0.00051761564 3.8657805e-07 1.1984811e-06 0.00035531365
0.00049103866 5.296784e-05 0.000318482 0.00042496948 0.00026095856 0.00040242824 7.465568e-05 0.00044781403
