savedModels/cartpole/ppo_cartpole_71680.pth (torch, 13659 bytes, 15 tensors)

shared_fc.0.weight f4 [64, 4]
0	0xbda325d2	-0.07966198
1	0x3ed48473	0.415073
2	0x3d70a0f3	0.058747243
3	0xbee05342	-0.4381352
4	0xbd3316a5	-0.043722767
5	0xbe3a185e	-0.18173358
6	0xbf10b265	-0.5652221
7	0xbe61fb01	-0.22068407
8	0x3d9325b2	0.07184924
9	0xbe9ccecf	-0.30626532
10	0xbe965cc3	-0.29367647
11	0xbef62629	-0.4807599
12	0xbc833c55	-0.01601998
13	0xbde93881	-0.113877304
14	0xbec8ed61	-0.39243606
15	0xbe85e972	-0.26154667
16	0x3e00b7a9	0.12570061
17	0x3dc929f4	0.09822455
18	0xbf29d806	-0.6634525
19	0xbea01fd0	-0.3127427
20	0xbe10ba65	-0.14133604
21	0xbcda3a43	-0.02663911
22	0xbea1f656	-0.31633252
23	0x3cd87e97	0.02642755
24	0xbd5f44c8	-0.054508954
25	0x3e033d51	0.12816359
26	0x3e89a14d	0.26880875
27	0x3eba39c9	0.36372212
28	0xbeefcd47	-0.46836302
29	0xbe414315	-0.18873246
30	0x3ce11842	0.027477387
31	0xbdbd1eb8	-0.09234375
32	0x3f117e6d	0.56833535
33	0xbc24699a	-0.010034943
34	0xbf0c9aae	-0.5492352
35	0xbe38ce88	-0.18047535
36	0x3e42b8f1	0.19015862
37	0x3dcd7aa1	0.10033155
38	0x3e2416dd	0.16024347
39	0xbea7c7e2	-0.32769686
40	0x3f28f5c1	0.6599999
41	0xbe6a26a7	-0.22866307
42	0xbf00f79a	-0.5037781
43	0xbecfc23f	-0.40577886
44	0x3d9be715	0.07612435
45	0xbe74e45c	-0.23915237
46	0xbe09a889	-0.13443197
47	0x3e07ae01	0.13249971
48	0x3d789401	0.060688023
49	0xbdd44a62	-0.1036575
50	0x3c76c914	0.015062589
51	0x3e9a47d9	0.3013294
52	0xbd0b4b19	-0.034007166
53	0xbdeaeb2e	-0.11470638
54	0xbc9e0364	-0.019288726
55	0x3deb8691	0.11500276
56	0xbef9d422	-0.48794657
57	0xbb56d63f	-0.003278151
58	0x3ed97a35	0.4247605
59	0x3e633be9	0.22190823
60	0x3edaed33	0.42759094
61	0x3e525352	0.20539597
62	0xbd70aa94	-0.058756426
63	0x3e181e6a	0.14855352
64	0xbec832b1	-0.39101174
65	0xbec180b0	-0.37793493
66	0xbdca6c07	-0.09883886
67	0xbe6eb2ca	-0.2331039
68	0x3eacc2ee	0.3374247
69	0x3d3896f6	0.045065843
70	0xbe4ef16e	-0.20209286
71	0x3e99bd4e	0.3002724
72	0x3dd5f683	0.10447409
73	0x3c88a2f5	0.016679266
74	0xbe8e655d	-0.2781171
75	0xbebcf9e0	-0.3690939
76	0xbcdc9670	-0.026927203
77	0x3e98cbc6	0.29842967
78	0xbb5a52ac	-0.0033313436
79	0xbc9b0223	-0.018921917
80	0x3db2d863	0.08732679
81	0xbec3b8a3	-0.38226804
82	0xbcef0a5b	-0.029179743
83	0x3eea72ff	0.4579086
84	0xbd8c65f1	-0.06855381
85	0x3e897fd2	0.26855332
86	0x3e604062	0.2189956
87	0xbe8f9cd4	-0.28049338
88	0x3d9a47bd	0.07533214
89	0xbce5821b	-0.02801614
90	0x3ddf9c62	0.109184995
91	0x3f0ba352	0.5454608
92	0xbea70f33	-0.32628784
93	0xbe4ed035	-0.20196612
94	0xbd46dc28	-0.0485498
95	0xbdfcbab7	-0.123403005
96	0x3f15c7ad	0.58507806
97	0x3e25e9c2	0.16202453
98	0xbf2fe4d4	-0.6870854
99	0x3ddffab8	0.10936493
100	0x3df7aeda	0.12093897
101	0xbeb76593	-0.35819682
102	0xbe18165e	-0.14852282
103	0x3c5372fc	0.012905832
104	0x3e951b4f	0.29122397
105	0x3e6234c8	0.22090447
106	0x3e049669	0.12948002
107	0x3e41900f	0.1890261
108	0x3f0137e7	0.50475925
109	0x3e245da1	0.16051342
110	0x3d52da11	0.051477496
111	0x3dd138ac	0.102158874
112	0xbb3fc504	-0.0029261718
113	0xbcddbb7d	-0.02706694
114	0x3d33897a	0.04383228
115	0x3e5165e9	0.20449032
116	0x3d45bce3	0.04827584
117	0xbec20535	-0.37894598
118	0x3e94efb6	0.29089135
119	0x3eacd88d	0.33758965
120	0x3e76fae3	0.24119143
121	0xbdf3bfbf	-0.11901807
122	0x3ea230b9	0.31677797
123	0x3e7d021a	0.24707833
124	0x3e0802fe	0.13282391
125	0xbea72b5e	-0.32650274
126	0xbc7c6a56	-0.015406212
127	0x3e2e5ea1	0.17028286
128	0x3e03a577	0.12856089
129	0x3dbb4d67	0.09145623
130	0xbeaeedbd	-0.34165755
131	0xbeaecb9d	-0.3413972
132	0xbe4ca42a	-0.19984499
133	0xbebf08ed	-0.37311497
134	0x3c7a4691	0.015275613
135	0xbeb31323	-0.34975538
136	0x3eacdc50	0.33761835
137	0xbc29b6c0	-0.010358512
138	0xbe7025e4	-0.23451954
139	0xbe35f825	-0.17770441
140	0xbdb503fe	-0.08838652
141	0x3d12fe25	0.035886902
142	0x3e774e7c	0.24151033
143	0x3e973c7f	0.29538342
144	0xbf386026	-0.7202171
145	0xbe2a7697	-0.16646801
146	0x3ed0954e	0.4073891
147	0x3cda565e	0.026652511
148	0x3def48f7	0.11683839
149	0x3eaa8057	0.3330104
150	0x3e027302	0.12739184
151	0x3ea678ed	0.32514134
152	0x3d2f39ad	0.042779613
153	0xbe34f91a	-0.1767315
154	0x3e05bc5b	0.13060133
155	0x3e044bb5	0.12919505
156	0xbe13da74	-0.14438802
157	0xbdb451a2	-0.08804633
158	0xbe46afdb	-0.19403021
159	0x3ed131c4	0.4085828
160	0xbd97bf93	-0.07409587
161	0xbe28e862	-0.16494897
162	0x3e14cb24	0.14530617
163	0x3e1aedd9	0.15129794
164	0xbe348bb6	-0.1763142
165	0x3f0bf8c0	0.5467644
166	0xbc9bb313	-0.019006288
167	0xbed98692	-0.42485482
168	0xbe24895f	-0.16068028
169	0x3eaed178	0.34144187
170	0xbe28f8b4	-0.16501123
171	0xbe8c8780	-0.27447128
172	0x3e519a97	0.20469128
173	0x3dc88797	0.09791487
174	0x3d4aa51e	0.049473874
175	0xbe81dd13	-0.2536398
176	0x3ebd253a	0.36942464
177	0xbddae9b7	-0.10689109
178	0xbcca7fbc	-0.024719112
179	0x3e81f5b0	0.25382757
180	0x3e921553	0.28531894
181	0xbf096673	-0.5367195
182	0x3e5c9bdd	0.21543832
183	0x3e90ee51	0.2830682
184	0x3d878499	0.06617088
185	0xbeb39772	-0.3507648
186	0x3ed3e1c6	0.4138319
187	0x3eb88628	0.36039853
188	0x3e48caa1	0.19608547
189	0xbefbd085	-0.49182525
190	0x3db5bbd4	0.08873716
191	0x3e09089d	0.13382192
192	0x3e9cec5c	0.30649078
193	0x3c08028b	0.008301388
194	0x3dd63c6b	0.104607426
195	0xbe16dfb0	-0.14733768
196	0xbd3d20bd	-0.0461738
197	0xbe58eb0b	-0.21183412
198	0xbe9d2fd1	-0.30700544
199	0xbebca0ee	-0.3684153
200	0xbf03f602	-0.51547253
201	0x3c1b9921	0.009496958
202	0x3f121e4b	0.57077473
203	0x3e8dcfea	0.27697688
204	0x3c196499	0.009362363
205	0x3ecbc4aa	0.3979848
206	0x3cd4665c	0.025927715
207	0xbf377441	-0.71661764
208	0x3ea779fd	0.32710257
209	0x3cd92bd8	0.026510164
210	0x3e209ec5	0.15685566
211	0x3e94a1f5	0.29029813
212	0x3ec7d370	0.39028502
213	0x3e1b4561	0.15163185
214	0x3e1948d1	0.14969184
215	0x3dee6ca8	0.11641818
216	0x3eaafbf1	0.3339534
217	0xbd9d756f	-0.07688414
218	0xbf221ee2	-0.63328373
219	0xbe8da19c	-0.2766236
220	0xbcc34cc5	-0.023840318
221	0x3e3ea9ca	0.18619457
222	0xbda5d68b	-0.080975614
223	0xbf2d8ae0	-0.6779003
224	0x3e667f70	0.22509551
225	0x3da18cf6	0.07888214
226	0xbbecfcef	-0.0072323005
227	0xbe86ca64	-0.26326287
228	0xbf16a3f0	-0.588439
229	0x3d9b56be	0.07584904
230	0x3eb41334	0.351709
231	0x3ec24142	0.37940413
232	0x3c347e78	0.011016481
233	0x3e83e965	0.25764003
234	0xbdcdff31	-0.100584395
235	0xbe8c39c2	-0.27387816
236	0xbe8d1cdd	-0.27561083
237	0x3eafb63c	0.3431872
238	0xbdea83a6	-0.11450891
239	0xbef57fca	-0.47949058
240	0x3cc3c59b	0.023897937
241	0x3e8d82c1	0.2763882
242	0xbc9481a9	-0.018128233
243	0xbe854f3f	-0.26037022
244	0x3f376d97	0.71651596
245	0x3df368f7	0.11885255
246	0x3e0b765d	0.13619371
247	0x3d7df42c	0.06200044
248	0xbec4872b	-0.38384375
249	0xbe40c18d	-0.18823834
250	0xbe8a7213	-0.27040157
251	0xbe117439	-0.14204492
252	0x3da82d64	0.082117826
253	0x3e30a458	0.17250192
254	0xbe05c969	-0.13065113
255	0xbea17ec8	-0.3154204

shared_fc.0.bias f4 [64]
0	0x3f575f30	0.8412962
1	0x3f61a9bd	0.88149625
2	0x3f6321ed	0.8872364
3	0x3f4b171c	0.7933214
4	0x3f52cb4e	0.8234147
5	0x3f65c078	0.8974681
6	0x3f53499b	0.8253419
7	0xbdff2d90	-0.12459862
8	0xbd43f43c	-0.047840342
9	0x3f6a970a	0.9163672
10	0xbd50c155	-0.050965626
11	0x3f44f586	0.7693714
12	0x3f67a032	0.90478814
13	0x3f503921	0.8133717
14	0xbdb65849	-0.08903558
15	0xbd2f47c0	-0.042793036
16	0xbe02b966	-0.12766036
17	0x3f666d5b	0.90010613
18	0x3f4f52ec	0.80985904
19	0x3f616e6a	0.88059103
20	0x3f7150e4	0.94264054
21	0x3f6ea799	0.93224484
22	0x3f486e43	0.78293246
23	0xbdd494d5	-0.1037995
24	0xbd92bedb	-0.07165309
25	0x3f506c22	0.81415
26	0xbd1b9215	-0.03798111
27	0xbd27f316	-0.04100331
28	0x3f661a53	0.8988392
29	0x3f56064b	0.8360335
30	0x3f4c2523	0.79744166
31	0x3f6bd0cc	0.92115474
32	0x3f5a9658	0.85385656
33	0xbdc291de	-0.09500478
34	0x3f6604ef	0.8985128
35	0x3f4535d1	0.7703524
36	0xbe190580	-0.14943504
37	0xbd77a1ad	-0.06045692
38	0x3f48d1ad	0.7844494
39	0x3f6d881e	0.92785823
40	0x3f6cd89e	0.9251803
41	0x3f4ecb95	0.8077939
42	0x3f6e4722	0.9307729
43	0x3f6ff8a0	0.93738747
44	0x3f3a9c80	0.7289505
45	0x3f5f1de3	0.8715498
46	0x3f677434	0.90411687
47	0x3f660ce8	0.89863443
48	0x3f579165	0.8420623
49	0x3f6724bb	0.9029042
50	0xbdcb713f	-0.09933709
51	0x3f4e8131	0.8066588
52	0x3f5ddf48	0.86668825
53	0xbcfb5a90	-0.030682832
54	0xbce6647c	-0.028124087
55	0x3f6a7a8d	0.9159325
56	0x3f6d0b23	0.9259512
57	0xbde6b3fa	-0.112647966
58	0x3f46154b	0.7737624
59	0x3f5744f5	0.84089595
60	0x3f7367dd	0.9508036
61	0xbd4955ce	-0.049154095
62	0xbdc9613d	-0.09833
63	0x3f5ca358	0.8618674

actor_head.weight f4 [2, 64]
0	0xbc1d029a	-0.00958314
1	0x3e4ed20e	0.20197317
2	0x3e6d88ea	0.2319676
3	0x3e58fed6	0.21190962
4	0x3e0d9e9f	0.1383004
5	0x3d5f195c	0.054467544
6	0xbe7fc766	-0.24978408
7	0x3dc3d016	0.095611736
8	0x3da85d69	0.082209416
9	0x3ce2bac2	0.027676944
10	0x3e9e182b	0.30877814
11	0x3b2b68c2	0.002615497
12	0xbdf7f628	-0.121074975
13	0xbd17924f	-0.037004765
14	0xbe000d84	-0.12505156
15	0xbdd5d2cd	-0.10440598
16	0x3de4f9a6	0.11180429
17	0xbdd8fd6d	-0.10595212
18	0x3e1997ef	0.14999364
19	0xbda2e8d0	-0.07954562
20	0xbd556a29	-0.052103195
21	0xbc1827fd	-0.009286878
22	0xbe3cc441	-0.1843424
23	0x3e2fa40f	0.17152427
24	0xbadc9e60	-0.0016831867
25	0x3d8d6bcc	0.06905326
26	0xbe2c6399	-0.16834868
27	0xbda351c1	-0.07974578
28	0xbe181e53	-0.14855318
29	0xbd62bd3b	-0.055356245
30	0xbe0f8229	-0.14014496
31	0xbc059dbb	-0.008155282
32	0x3df39844	0.11894277
33	0x3e42111a	0.18951836
34	0x3df1d17e	0.118075356
35	0xbe5e67ce	-0.21719286
36	0xbbf9025f	-0.0075991596
37	0xbe6c5f5b	-0.2308325
38	0xbd886e78	-0.06661695
39	0xbdc96be8	-0.098350346
40	0xbd9a2c64	-0.07527998
41	0xbc6ab35b	-0.014324988
42	0x3d094760	0.033515334
43	0x3d8f7c80	0.07006168
44	0xbdf06b2f	-0.11739194
45	0x3c6d8dab	0.014499108
46	0xbd5c75f3	-0.053823423
47	0x3c9d4c52	0.019201431
48	0x3d85bef7	0.06530564
49	0x3e5c139f	0.2149186
50	0xbe147b3c	-0.14500135
51	0x3d97ee1a	0.07418461
52	0xbe3b8849	-0.18313707
53	0xbe0e342e	-0.13887092
54	0x3e504f34	0.20342714
55	0x3dd0f55e	0.1020305
56	0x3d68773c	0.056754336
57	0xbe20ae2b	-0.1569144
58	0xbc467454	-0.012112696
59	0x3d58b1c3	0.0529039
60	0x3c76aa8b	0.015055309
61	0xbd9a1072	-0.07522668
62	0x3e5b730c	0.21430606
63	0x3cfe23e2	0.03102297
64	0x3c64faa3	0.013975772
65	0xbe598493	-0.2124198
66	0xbe78dc1d	-0.24302717
67	0xbe5c252e	-0.21498558
68	0xbe26ecb2	-0.1630123
69	0xbd4e6bdd	-0.050395835
70	0x3e84c1a1	0.25928977
71	0xbdbcdf8f	-0.09222328
72	0xbdc8d064	-0.09805372
73	0xbd67b18e	-0.056565814
74	0xbe885d43	-0.26633653
75	0xbc5cf174	-0.013485301
76	0x3e06ec23	0.13176017
77	0x3d827220	0.06369424
78	0x3dde89a5	0.10866097
79	0x3db9ac3d	0.09066055
80	0xbe30e97b	-0.17276566
81	0x3dd52010	0.10406506
82	0xbe25d73d	-0.16195388
83	0x3d95c7e0	0.07313514
84	0x3cd1f8c2	0.025631312
85	0xbc217a20	-0.009855777
86	0x3e489829	0.19589294
87	0xbe442d6f	-0.19157957
88	0xbc9cddd2	-0.01914874
89	0xbda28cce	-0.079370126
90	0x3e3fe5cf	0.18740009
91	0x3daf127f	0.0854845
92	0x3de94f20	0.11392045
93	0x3d83a9f3	0.064288996
94	0x3e222bdd	0.15837045
95	0x3d049587	0.032369163
96	0xbe00b59b	-0.12569277
97	0xbe3cae6f	-0.18425916
98	0xbdd06bed	-0.10176835
99	0x3e6a76dc	0.22896904
100	0x3caa31e9	0.020775752
101	0x3e5e2fc8	0.21697915
102	0x3d6388bb	0.05555032
103	0x3db19b18	0.0867216
104	0x3d7e4516	0.062077604
105	0x3cd4200f	0.025894193
106	0xbcf96e09	-0.030447977
107	0xbda2cd6d	-0.07949338
108	0x3dafad87	0.085780196
109	0x3c114096	0.008865496
110	0x3d21811f	0.03942978
111	0xbc9e7339	-0.019342052
112	0xbd31182d	-0.043235946
113	0xbe5e9450	-0.21736264
114	0x3e152816	0.14566073
115	0xbd52a4e3	-0.05142678
116	0x3e4a0089	0.19726767
117	0x3e106179	0.14099683
118	0xbe580ffc	-0.21099848
119	0xbde4620a	-0.11151512
120	0xbd680952	-0.056649514
121	0x3e2046ac	0.15651959
122	0x3c7046ce	0.014665319
123	0xbd3bcfb0	-0.045852363
124	0xbb7620f6	-0.0037556267
125	0x3d9d6952	0.07686104
126	0xbe50a6af	-0.20376085
127	0xbd854898	-0.06507987

actor_head.bias f4 [2]
0	0xbc9b0a47	-0.018925799
1	0x3c9b0a48	0.0189258

critic_head.weight f4 [1, 64]
0	0x3f521020	0.82055855
1	0x3f5b67cb	0.8570525
2	0x3f56cdc3	0.8390772
3	0x3f7c4925	0.9854911
4	0x3f706662	0.93906224
5	0x3f66d382	0.90166485
6	0x3f6d88c4	0.9278681
7	0xbf04aacd	-0.5182312
8	0xbf146985	-0.5797351
9	0x3f567aa7	0.837809
10	0xbef814c8	-0.48453355
11	0x3f84b45f	1.0367545
12	0x3f5cc199	0.86232907
13	0x3f70f362	0.9412137
14	0xbf3b5a38	-0.7318454
15	0xbec084df	-0.37601373
16	0xbe74a788	-0.23892033
17	0x3f68f12a	0.9099299
18	0x3f7446c9	0.9542051
19	0x3f6480a3	0.89258784
20	0x3f428e0b	0.7599799
21	0x3f5396c8	0.8265195
22	0x3f7bcf11	0.98362833
23	0xbee3cea9	-0.44493607
24	0xbeabfe10	-0.33592272
25	0x3f6ca5b2	0.9244033
26	0xbec45c09	-0.38351467
27	0xbec56771	-0.38555482
28	0x3f66b2c9	0.90116554
29	0x3f522d80	0.8210068
30	0x3f7effa5	0.9960883
31	0x3f56e04c	0.83936
32	0x3f64d199	0.8938232
33	0xbeded401	-0.4352112
34	0x3f6566e2	0.8961011
35	0x3f8335ea	1.0250828
36	0xbef5aab3	-0.47981796
37	0xbea21cbd	-0.3166255
38	0x3f80abec	1.0052466
39	0x3f496ab6	0.7867845
40	0x3f53eed6	0.8278631
41	0x3f576bdc	0.84148955
42	0x3f511ab9	0.816814
43	0x3f5b10d8	0.85572577
44	0x3fa47270	1.2847424
45	0x3f513069	0.81714493
46	0x3f3777a0	0.7166691
47	0x3f504cb5	0.81367046
48	0x3f746e66	0.95480955
49	0x3f553d71	0.8329688
50	0xbf05958a	-0.52181304
51	0x3f49f729	0.7889276
52	0x3f6b7a99	0.91983944
53	0xbee901bb	-0.45509133
54	0xbe8573cb	-0.26064906
55	0x3f44aac7	0.76823086
56	0x3f5a021e	0.8515948
57	0xbf0511fa	-0.51980555
58	0x3f177578	0.5916362
59	0x3f571cb6	0.84028184
60	0x3f4fd019	0.81176907
61	0xbeb61d1f	-0.35569093
62	0xbed03f8d	-0.40673485
63	0x3f615a83	0.88028735

exp_avg f4 [64, 4]
0	0xbb897846	-0.004195246
1	0x3a885c2f	0.0010403449
2	0x3869778b	5.5662862e-05
3	0xbc34629e	-0.01100984
4	0xbc3fff6a	-0.01171861
5	0xbb57ac1b	-0.003290898
6	0x3911d4a9	0.000139075
7	0xbc3be840	-0.011468947
8	0xbc3b359c	-0.011426356
9	0xbb493210	-0.0030700006
10	0x39201c08	0.00015269232
11	0xbc383711	-0.011243598
12	0xbc5d5134	-0.01350813
13	0xbb7f0b31	-0.0038916583
14	0x391b8e39	0.00014834934
15	0xbc57e6ff	-0.013177632
16	0xbc540858	-0.012941442
17	0xbb810ddb	-0.0039384193
18	0x38f389bc	0.00011612798
19	0xbc4d5a25	-0.012533699
20	0xbc4db54b	-0.012555431
21	0xbb8955c9	-0.0041911346
22	0x388d6661	6.7424735e-05
23	0xbc448e4b	-0.011996816
24	0xbc5a9744	-0.013341729
25	0xbbb9d70a	-0.0056713866
26	0xb8a31b08	-7.777481e-05
27	0xbc48242a	-0.012215653
28	0x3c807772	0.015681956
29	0x3b4ff748	0.0031733084
30	0xbab43e4b	-0.0013751475
31	0x3a0a49b3	0.0005275264
32	0xbc165b74	-0.009177078
33	0x39d2857c	0.00040153775
34	0x3acf58a1	0.001581926
35	0x3bcf0012	0.006317147
36	0xbc3f4048	-0.011673041
37	0xbb807ba1	-0.0039209877
38	0x38798a04	5.9494763e-05
39	0xbc3694e0	-0.011143893
40	0xbc08c616	-0.008348009
41	0xb98173d6	-0.00024691102
42	0x3aacc128	0.0013180124
43	0x3bac690d	0.0052615465
44	0xbc6dad01	-0.014506579
45	0xbba57164	-0.0050489176
46	0x385d1b54	5.2715957e-05
47	0xbc61a12c	-0.0137713365
48	0xbc48adf7	-0.012248508
49	0xbb9cdf03	-0.0047873273
50	0xb7a7aee4	-1.9989391e-05
51	0xbc3abf70	-0.011398181
52	0xbc591731	-0.013250158
53	0xbb9e8d1c	-0.004838599
54	0x37a9dc48	2.0248946e-05
55	0xbc4c7446	-0.012478894
56	0x3cb0351b	0.021509698
57	0x3b6a1bc3	0.0035722114
58	0xbaf797c2	-0.0018889832
59	0x3af475be	0.0018650813
60	0xbbb8cf05	-0.005639913
61	0x39646ef8	0.00021785113
62	0x3a808bec	0.0009807325
63	0x3b875cbb	0.0041309274
64	0x3bf7bd64	0.007560419
65	0x3ad650c0	0.001635097
66	0xba2b21d0	-0.0006528171
67	0x39779038	0.00023609481
68	0xbc4a580f	-0.012350096
69	0xbba51d37	-0.005038883
70	0xb88ec8f7	-6.80852e-05
71	0xbc3e01b7	-0.011597089
72	0xbc57697f	-0.013147711
73	0xbb82c1d7	-0.0039903927
74	0x38fa701f	0.00011941813
75	0xbc50b25d	-0.012737838
76	0xbc4e7a86	-0.012602454
77	0xbb9a5c7e	-0.004710733
78	0x36bebc09	5.6843314e-06
79	0xbc41b102	-0.011821987
80	0xbc2f3a80	-0.0106951
81	0xbb7fa664	-0.0039009089
82	0x378ce6c0	1.6796752e-05
83	0xbc251059	-0.010074698
84	0xbc3da188	-0.011574157
85	0xbb84b839	-0.0040502814
86	0x382406eb	3.910709e-05
87	0xbc33dc34	-0.0109777935
88	0xbc65e4a2	-0.014031561
89	0xbbb979e3	-0.005660282
90	0xb83a89af	-4.4474084e-05
91	0xbc54ae47	-0.012981004
92	0x3c620cf7	0.013797036
93	0x3b48984c	0.0030608354
94	0xba9baa9f	-0.001187641
95	0x39bb4683	0.00035719955
96	0xbbaae6f9	-0.0052155224
97	0x390b0daf	0.0001326117
98	0x3a6f38e8	0.0009125606
99	0x3b7c1097	0.0038462037
100	0xbc526d04	-0.012843374
101	0xbb89e1dd	-0.004207833
102	0x38a543da	7.8804514e-05
103	0xbc49a350	-0.012307003
104	0xbb9d103d	-0.0047931955
105	0x3a290917	0.0006448193
106	0x3a4a07ea	0.0007706868
107	0x3b2ff212	0.0026847166
108	0xbbbdfa9f	-0.0057976986
109	0x3963f873	0.00021740962
110	0x3a83624b	0.00100238
111	0x3b8a9a9e	0.0042298576
112	0xbc51b5a6	-0.012799656
113	0xbba3cb2e	-0.004998586
114	0xb7aa97a7	-2.0336198e-05
115	0xbc432db8	-0.011912756
116	0xbc3db7c0	-0.011579454
117	0xbb8ca772	-0.004292422
118	0x372588d2	9.866622e-06
119	0xbc323724	-0.010877404
120	0xbc67d87b	-0.014150734
121	0xbbb5991b	-0.0055419332
122	0xb7ccbc45	-2.4406365e-05
123	0xbc57aea0	-0.013164192
124	0xbc4108d2	-0.011781888
125	0xbb89e226	-0.004207867
126	0x37f7c2d6	2.9535422e-05
127	0xbc367a87	-0.011137611
128	0xbc4a4d3b	-0.012347515
129	0xbb7bcd1d	-0.0038421818
130	0x38d29c6c	0.00010042716
131	0xbc4351cf	-0.01192136
132	0x3c4d1c83	0.012519005
133	0x3b175e0c	0.0023096828
134	0xba707bba	-0.000917371
135	0x3b15d889	0.002286466
136	0xbc4b0f32	-0.01239376
137	0xbb800829	-0.0039072228
138	0x38c63a44	9.4522286e-05
139	0xbc43b2ce	-0.011944486
140	0xbc7034a7	-0.014660991
141	0xbbc4ed26	-0.0060097156
142	0xb8734b6f	-5.8005968e-05
143	0xbc5d85ed	-0.0135207
144	0x3c66e22b	0.014092009
145	0x3b22dbae	0.0024850178
146	0xbaa1b36a	-0.0012336795
147	0x3a46c8ee	0.00075830414
148	0x39a85864	0.00032109313
149	0x390e9711	0.00013598452
150	0xb83be04f	-4.4793178e-05
151	0x38b94179	8.833683e-05
152	0xbc68036f	-0.014160975
153	0xbbaa60a8	-0.0051995106
154	0x3798e7ef	1.8227815e-05
155	0xbc5a4f20	-0.013324529
156	0xbc369a3b	-0.01114517
157	0xbb8bdb5b	-0.0042680926
158	0xb6f85a82	-7.4015124e-06
159	0xbc2a8ca7	-0.010409511
160	0xbc3f82a2	-0.01168886
161	0xbb8f061f	-0.0043647434
162	0x36ca1df1	6.0235548e-06
163	0xbc33aae5	-0.010966037
164	0xbaab13ee	-0.0013052204
165	0x395168a7	0.00019970779
166	0xb9ab5fbe	-0.00032686995
167	0xbc240c91	-0.010012762
168	0xbc3ab288	-0.011395104
169	0xbb7d2eed	-0.0038632706
170	0x38617bf8	5.3759635e-05
171	0xbc31f679	-0.010861986
172	0xbc429cef	-0.011878236
173	0xbb7d43a6	-0.0038645058
174	0x389f3141	7.590885e-05
175	0xbc3ab15a	-0.011394823
176	0xbc3f65db	-0.011681999
177	0xbb0e7fd8	-0.0021743681
178	0x37ce67a1	2.460537e-05
179	0xbc83b02d	-0.016075218
180	0xbc3b668c	-0.011438023
181	0xbb82fed2	-0.003997662
182	0x38254b58	3.9409235e-05
183	0xbc31c892	-0.010851042
184	0xbc257a83	-0.01010001
185	0xbb74018b	-0.0037232365
186	0x3738d159	1.1015997e-05
187	0xbc1b9804	-0.009496693
188	0xbc3a41a6	-0.011368191
189	0xbb8011c7	-0.003908369
190	0x3845c9c1	4.7156358e-05
191	0xbc31288a	-0.010812888
192	0xbc59c864	-0.013292406
193	0xbb917cb8	-0.0044399165
194	0x3894a3af	7.0876784e-05
195	0xbc501938	-0.012701325
196	0xbc3a49d5	-0.011370142
197	0xbb4d618b	-0.0031338658
198	0x3915254b	0.0001422364
199	0xbc36bd90	-0.011153594
200	0x3c77d6af	0.015126868
201	0x3b1996f2	0.0023435918
202	0xbab062ab	-0.001345714
203	0x3ab48c28	0.001377468
204	0x3ba882ec	0.00514256
205	0x3bd8754d	0.00660578
206	0xb941c8f1	-0.00018480771
207	0xbc20c822	-0.00981334
208	0xbc6b1297	-0.014347694
209	0xbbd6b0e0	-0.006551847
210	0xb8a315d3	-7.776511e-05
211	0xbc42544f	-0.011860921
212	0xbbde134b	-0.0067772022
213	0x3969c000	0.00022292137
214	0x3a9aaa7c	0.0011800076
215	0x3ba55ace	0.005046225
216	0xbb98c7b3	-0.004662478
217	0xb819d9dd	-3.6680944e-05
218	0x3a3ccf06	0.000720248
219	0x3b2f0fff	0.0026712415
220	0xbc2dca23	-0.010607275
221	0xbb58b3c8	-0.0033066142
222	0x38b3ec6c	8.579422e-05
223	0xbc27ba3f	-0.010237276
224	0xbc4212f6	-0.011845341
225	0xbb8096a1	-0.0039242064
226	0x388ca2f7	6.706075e-05
227	0xbc39abc4	-0.011332456
228	0x3c7a29e7	0.015268779
229	0x3b30051b	0.0026858512
230	0xbaa9adf4	-0.0012945519
231	0x3ac5713d	0.0015063655
232	0xbbc1f5a8	-0.005919177
233	0xb984297b	-0.00025207907
234	0x38c0cd9c	9.193571e-05
235	0xbc0ada17	-0.008474848
236	0xbc3fb20f	-0.011700167
237	0xbb806ae8	-0.003918994
238	0x3881ac62	6.183308e-05
239	0xbc36fae1	-0.011168213
240	0xbc39e6b6	-0.01134651
241	0xbb80b794	-0.003928134
242	0x3833791b	4.2789714e-05
243	0xbc30bedd	-0.010787693
244	0xbbaefc8e	-0.0053401655
245	0x392cd9a3	0.00016484274
246	0x3a724a31	0.0009242623
247	0x3b80f09a	0.003934932
248	0x3c510498	0.012757443
249	0x3b3cbed7	0.0028800273
250	0xba8ff592	-0.001098322
251	0x39a57c6f	0.00031563963
252	0xbc48e4c1	-0.01226157
253	0xbb868121	-0.004104749
254	0x38870c2a	6.4395674e-05
255	0xbc3fdc59	-0.01171025

exp_avg_sq f4 [64, 4]
0	0x3a06c96a	0.00051417074
1	0x39e567e7	0.00043755697
2	0x378f385e	1.7073176e-05
3	0x3909cf05	0.00013142459
4	0x3a1af36d	0.0005910907
5	0x3a0e3fad	0.00054263585
6	0x37aa8f5c	2.0332336e-05
7	0x392403b0	0.00015641632
8	0x3a149ccc	0.00056691165
9	0x3a0813c7	0.00051909353
10	0x37a2f8c0	1.9427738e-05
11	0x391bd91a	0.00014862829
12	0x3a50777b	0.0007952374
13	0x3a402c96	0.00073308626
14	0x37e66cde	2.7468832e-05
15	0x395f61d3	0.0002130338
16	0x3a308144	0.0006733129
17	0x3a2890e4	0.0006430282
18	0x37c9d559	2.4060415e-05
19	0x39459886	0.00018844203
20	0x3a2ab9e2	0.0006512684
21	0x3a1d5240	0.0006001331
22	0x37bcea84	2.2520551e-05
23	0x3935fae2	0.00017354966
24	0x3a3723d9	0.0006986238
25	0x3a2a4a02	0.00064960134
26	0x37c8f362	2.3955192e-05
27	0x3941d545	0.00018485363
28	0x3914e7b8	0.00014200702
29	0x39014468	0.00012327882
30	0x362ed3ae	2.6051234e-06
31	0x379be0fe	1.858221e-05
32	0x38c47044	9.3669194e-05
33	0x389b4ead	7.4056305e-05
34	0x368023fe	3.8188873e-06
35	0x37effb6d	2.86081e-05
36	0x3a083e20	0.00051972456
37	0x3a041192	0.00050380186
38	0x379c67bc	1.8644954e-05
39	0x3919b02e	0.00014656849
40	0x3885767c	6.364004e-05
41	0x3888eb3e	6.5288026e-05
42	0x365eeafc	3.3217357e-06
43	0x37b27b99	2.1276808e-05
44	0x3a65adc9	0.0008761553
45	0x3a566b63	0.0008179454
46	0x37ff88fa	3.0462154e-05
47	0x397a22d0	0.00023854827
48	0x3a1afb11	0.00059120456
49	0x3a0f4f89	0.0005466869
50	0x37aad2fd	2.0363828e-05
51	0x392433f3	0.00015659611
52	0x3a3a96a8	0.00071177864
53	0x3a2d1efb	0.0006604043
54	0x37cf98d8	2.4747496e-05
55	0x39487711	0.00019117842
56	0x399a433d	0.00029423265
57	0x3973c79f	0.0002324865
58	0x36fd56e9	7.5501052e-06
59	0x385b1d58	5.2240997e-05
60	0x3820036b	3.8150156e-05
61	0x38018f35	3.088937e-05
62	0x359edcf8	1.1836228e-06
63	0x370ac12c	8.270417e-06
64	0x37de8d44	2.6530244e-05
65	0x37c0312f	2.2911086e-05
66	0x35076bc8	5.044826e-07
67	0x366d2086	3.5334683e-06
68	0x3a285dd6	0.0006422674
69	0x3a1c19cd	0.00059547724
70	0x37ba4c24	2.2208384e-05
71	0x3930e492	0.00016869817
72	0x3a3f4fec	0.0007297981
73	0x3a2fa5df	0.0006700437
74	0x37d43dd1	2.5301155e-05
75	0x394d3fe3	0.00019574123
76	0x3a241e74	0.00062606414
77	0x3a16f791	0.0005758936
78	0x37b60656	2.1699041e-05
79	0x392ed7ce	0.00016674327
80	0x39e8441f	0.00044301242
81	0x39d0109d	0.0003968523
82	0x3781bd21	1.5466068e-05
83	0x38ee0ccc	0.00011351108
84	0x3a0aa1f1	0.00052884134
85	0x39fc1a4c	0.00048084778
86	0x379acf4a	1.8454757e-05
87	0x3913db62	0.00014100739
88	0x3a4e8b31	0.00078790175
89	0x3a3fb58c	0.00073131244
90	0x37e25af9	2.6983662e-05
91	0x3958721a	0.00020641871
92	0x38d6faec	0.00010251053
93	0x38bdf655	9.058105e-05
94	0x35ff06a0	1.9000909e-06
95	0x376c7288	1.4093363e-05
96	0x37de9fbd	2.6538846e-05
97	0x37a9efaa	2.0257972e-05
98	0x35578ad3	8.029576e-07
99	0x36ab7e61	5.1109096e-06
100	0x3a3326a2	0.0006834065
101	0x3a230361	0.000621846
102	0x37c77987	2.377924e-05
103	0x393ed133	0.00018197745
104	0x382846f5	4.0120405e-05
105	0x38106ae4	3.4431825e-05
106	0x35d484ec	1.5833916e-06
107	0x374de842	1.2273029e-05
108	0x382471df	3.9206698e-05
109	0x38082e89	3.2468266e-05
110	0x359e7fea	1.1809145e-06
111	0x36f881ce	7.406087e-06
112	0x3a29fcaa	0.0006484488
113	0x3a1d4022	0.0005998631
114	0x37bb49cb	2.23265e-05
115	0x39340747	0.00017168849
116	0x3a09bb76	0.0005254069
117	0x39f661ef	0.00046993743
118	0x379b1438	1.8486855e-05
119	0x390e8324	0.00013591029
120	0x3a51f5d8	0.0008009351
121	0x3a434695	0.0007449177
122	0x37e863f3	2.7703098e-05
123	0x39613f34	0.00021481217
124	0x3a12a2a4	0.00055936933
125	0x3a06bb1e	0.0005139577
126	0x37a146ce	1.9225667e-05
127	0x3919f504	0.00014682492
128	0x3a214854	0.00061524403
129	0x3a1613e0	0.00057250075
130	0x37b6aa25	2.177532e-05
131	0x392f4141	0.0001671361
132	0x38e79c93	0.000110441026
133	0x38d5c87d	0.00010193975
134	0x362a7696	2.5401e-06
135	0x37c8da95	2.3943643e-05
136	0x3a224747	0.0006190431
137	0x3a178216	0.0005779577
138	0x37b69fe8	2.1770553e-05
139	0x3930d1b7	0.00016862793
140	0x3a633d6e	0.00086685165
141	0x3a5466d1	0.0008102479
142	0x37fb1343	2.9930501e-05
143	0x3974cc07	0.0002334566
144	0x38f12172	0.00011498005
145	0x38c8705a	9.55767e-05
146	0x360de362	2.1142991e-06
147	0x377e6fa6	1.5165575e-05
148	0x37ed7e4b	2.8311411e-05
149	0x37da65c1	2.6035008e-05
150	0x359dbb29	1.1751882e-06
151	0x3715d728	8.931187e-06
152	0x3a582eb7	0.0008246707
153	0x3a4996df	0.0007690023
154	0x37ef5afd	2.853339e-05
155	0x396892e2	0.00022179962
156	0x39fdb57f	0.00048391146
157	0x39ef0be7	0.000455945
158	0x378bf273	1.668299e-05
159	0x390532c2	0.00012702777
160	0x3a0e36b4	0.00054250215
161	0x3a05663c	0.00050887815
162	0x379d2d1a	1.873686e-05
163	0x391786b9	0.0001445067
164	0x3a0bdf59	0.00053357106
165	0x39d47a9f	0.0004052715
166	0x37932f16	1.7545692e-05
167	0x390b8c7b	0.00013308406
168	0x3a06dc79	0.00051445473
169	0x39f3dbde	0.00046512386
170	0x37969500	1.7950777e-05
171	0x39113a6e	0.00013850044
172	0x3a12d319	0.0005600914
173	0x3a066865	0.00051272503
174	0x37a584f0	1.9731437e-05
175	0x391e21c4	0.00015080633
176	0x3aa80ad5	0.0012820611
177	0x3aa8d198	0.0012879847
178	0x3848b0e3	4.7848454e-05
179	0x39c3eaa4	0.0003736812
180	0x3a069fc2	0.00051355
181	0x39edd200	0.00045360625
182	0x3798a660	1.8197286e-05
183	0x390e49ef	0.00013569718
184	0x39ceafed	0.00039422457
185	0x39ba0073	0.0003547702
186	0x376433b1	1.3601894e-05
187	0x38d30a64	0.000100631994
188	0x3a06ac40	0.00051373616
189	0x39f204a0	0.00046161283
190	0x37975b64	1.804316e-05
191	0x390e314b	0.00013560538
192	0x3a3c6339	0.0007186416
193	0x3a2da8d8	0.0006624586
194	0x37d21bac	2.5046837e-05
195	0x394a43c8	0.00019289472
196	0x3a11fd0d	0.00055690185
197	0x3a05e0ef	0.0005107065
198	0x37a0e49a	1.9179937e-05
199	0x391a3fee	0.000147104
200	0x390a24ed	0.00013174461
201	0x38cd8345	9.7996126e-05
202	0x366b9433	3.5103992e-06
203	0x37c75d00	2.3765955e-05
204	0x39e11d2c	0.0004293708
205	0x39bb36a3	0.00035708127
206	0x377c0aaa	1.5022853e-05
207	0x38dbf2b3	0.0001048794
208	0x3a2de4dc	0.0006633529
209	0x3a22d664	0.0006211756
210	0x37c0e1b0	2.2993278e-05
211	0x3938827c	0.00017596217
212	0x38760f2a	5.8665093e-05
213	0x384ffb06	4.958643e-05
214	0x3614ee39	2.2192382e-06
215	0x3787ab67	1.617307e-05
216	0x37561253	1.275966e-05
217	0x3744a798	1.1721531e-05
218	0x353cac3e	7.0286103e-07
219	0x368d4338	4.2099527e-06
220	0x39e2465d	0.00043158504
221	0x39cf3f46	0.0003952926
222	0x37801d5d	1.5272462e-05
223	0x38f3b838	0.00011621456
224	0x3a0db945	0.00054063305
225	0x3a03caf5	0.00050274964
226	0x37a2eea6	1.9423034e-05
227	0x391cab15	0.00014941052
228	0x390ccea0	0.00013428414
229	0x38d21a97	0.00010018533
230	0x366d3032	3.5343805e-06
231	0x37cc0e71	2.432542e-05
232	0x39704bad	0.00022916375
233	0x39603303	0.00021381308
234	0x3706e8c3	8.0412165e-06
235	0x3885dffe	6.383656e-05
236	0x3a119c4c	0.0005554601
237	0x39fcb189	0.0004819746
238	0x379e9c01	1.8907713e-05
239	0x391884ae	0.00014545277
240	0x3a001817	0.0004886402
241	0x39f12b35	0.00045999294
242	0x3791f00e	1.7397131e-05
243	0x390e30e6	0.00013560391
244	0x38062b17	3.198822e-05
245	0x37e0d16f	2.6800406e-05
246	0x35874c2b	1.0080452e-06
247	0x36c743bb	5.938547e-06
248	0x38b338ac	8.545941e-05
249	0x389eb3b2	7.567498e-05
250	0x35dec7b2	1.6598408e-06
251	0x375fb16a	1.3333143e-05
252	0x3a1757fa	0.00057733024
253	0x3a11db4e	0.000556399
254	0x37ae9948	2.0813794e-05
255	0x392c835e	0.00016452136

exp_avg f4 [64]
0	0x3bd712d7	0.006563525
1	0x3bfb8585	0.007675829
2	0x3bf239fe	0.007392167
3	0x3c11f6ce	0.0089089405
4	0x3c0e2ae7	0.008677221
5	0x3c0de29a	0.008659983
6	0x3c23e3d7	0.010003052
7	0x3b50be4f	0.0031851714
8	0xbc5b50fa	-0.013386006
9	0x3c043be9	0.008070924
10	0xbc3a9295	-0.011387487
11	0x3c261aba	0.010138208
12	0x3c11fb8a	0.008910069
13	0x3c1a309b	0.0094110025
14	0x3bacd077	0.0052738744
15	0xbc0bf1ca	-0.008541534
16	0x3acf5e27	0.0015820906
17	0x3c13fc7d	0.009032366
18	0x3c104877	0.008806339
19	0x3c13e07b	0.009025688
20	0x3bf90072	0.00759893
21	0x3c04d60e	0.008107675
22	0x3c2919fd	0.0103211375
23	0x3b2e388d	0.0026584
24	0xbc017b41	-0.007902921
25	0x3c10457d	0.00880563
26	0xbbe8a0a7	-0.0070992294
27	0xbc0ee8b8	-0.008722477
28	0x3c187a01	0.009306432
29	0x3c077922	0.008268626
30	0x3c28bb88	0.010298617
31	0x3c082432	0.008309411
32	0x3c089039	0.008335167
33	0x3a96ab6a	0.0011495177
34	0x3c09a7f2	0.008401858
35	0x3c31a10e	0.010841621
36	0x3b662c56	0.003512164
37	0x3a7e9853	0.0009712029
38	0x3c25113d	0.010074911
39	0x3c03e64f	0.008050515
40	0x3c0916a3	0.008367213
41	0x3c0bfd63	0.008544299
42	0x3c01724c	0.007900786
43	0x3c0536a9	0.008130708
44	0x3c27169b	0.010198261
45	0x3c033e32	0.008010434
46	0x3bec089e	0.0072031757
47	0x3c01b9ac	0.007917803
48	0x3c1647e8	0.009172417
49	0x3bf2bec1	0.0074079935
50	0x3b71a764	0.0036873454
51	0x3b978cd2	0.0046249414
52	0x3c26dc31	0.010184334
53	0xbc26860e	-0.010163797
54	0xbbc93a63	-0.0061409934
55	0x3beafc95	0.0071712234
56	0x3c059ab9	0.008154565
57	0x3b4e52b8	0.003148241
58	0x3b9af7e9	0.00472926
59	0x3c046672	0.0080810655
60	0x3c01e5a3	0.007928285
61	0xbc0371c1	-0.0080227265
62	0x3b23cb3d	0.0024992966
63	0x3c0ab48d	0.008465898

exp_avg_sq f4 [64]
0	0x3accce34	0.0015625418
1	0x3aeafb98	0.0017927764
2	0x3adf9ee7	0.0017060906
3	0x3b22f7b6	0.0024866886
4	0x3b0df8e9	0.0021663255
5	0x3b0203e8	0.0019838754
6	0x3b0c2acc	0.0021387814
7	0x38e4b8c9	0.00010906306
8	0x3930a112	0.00016844671
9	0x3ad8ca9e	0.0016539877
10	0x3913d61a	0.00014098771
11	0x3b387811	0.0028147737
12	0x3aead3cc	0.0017915904
13	0x3b11ece7	0.002226645
14	0x397cf2e8	0.00024123082
15	0x3859c3af	5.1919076e-05
16	0x37ba90e0	2.224039e-05
17	0x3afdcada	0.0019362823
18	0x3b13dacf	0.002256084
19	0x3afb38b4	0.0019166679
20	0x3ab083db	0.001346703
21	0x3ad31005	0.0016102797
22	0x3b20a766	0.002451384
23	0x38aa89cc	8.131898e-05
24	0x3818cb73	3.64291e-05
25	0x3b0cbd2e	0.0021475065
26	0x38839de4	6.275976e-05
27	0x385cfe6a	5.268903e-05
28	0x3b000f2d	0.0019540295
29	0x3ad814e6	0.001648572
30	0x3b238f21	0.0024957138
31	0x3add8941	0.0016901867
32	0x3afbe80f	0.0019218939
33	0x38d259e4	0.00010030324
34	0x3afa7ec3	0.0019111264
35	0x3b339a60	0.0027405247
36	0x38ab503f	8.1688624e-05
37	0x384c90fb	4.8772414e-05
38	0x3b2b067d	0.0026096397
39	0x3ac22a7d	0.0014813688
40	0x3ad9c9ac	0.0016615889
41	0x3ad466a7	0.0016204909
42	0x3acd7d36	0.0015677575
43	0x3ae2449a	0.0017262876
44	0x3b9459d6	0.004527311
45	0x3acdc1ce	0.0015698017
46	0x3a97cb03	0.0011580888
47	0x3acf7759	0.0015828415
48	0x3b11ef10	0.0022267736
49	0x3adcbce1	0.0016840958
50	0x38e101e5	0.00010729189
51	0x3ab7fbf9	0.0014036886
52	0x3b058d2f	0.0020378341
53	0x38bc6000	8.98242e-05
54	0x37f22665	2.8866527e-05
55	0x3ab0d051	0.0013489818
56	0x3adfcbc5	0.0017074278
57	0x38e023bc	0.000106878084
58	0x3a302d8f	0.0006720656
59	0x3adcb5d0	0.0016838852
60	0x3ac79ad4	0.0015228637
61	0x3836956e	4.353135e-05
62	0x38941938	7.061887e-05
63	0x3af39d5b	0.0018586324

exp_avg f4 [2, 64]
0	0xba2b3f87	-0.00065325986
1	0xbb0880c9	-0.0020828715
2	0xbb0e30cd	-0.0021696568
3	0xbadfe548	-0.0017081881
4	0xbaa3c88c	-0.0012495681
5	0xbaefa469	-0.0018283251
6	0xbaa1306a	-0.0012297754
7	0xba861282	-0.0010228904
8	0xba22cd06	-0.00062103604
9	0xba98cd0c	-0.0011657788
10	0xba4ed5cc	-0.00078901346
11	0xbaf8e937	-0.0018990402
12	0xbaf27bef	-0.001850007
13	0xbae50ab1	-0.00174745
14	0xba654fe9	-0.0008747564
15	0xb99370f4	-0.00028122182
16	0xba98ba80	-0.0011652261
17	0xbab3d929	-0.0013721335
18	0xbaac9505	-0.001316697
19	0xba70acaa	-0.00091810024
20	0xbb27880f	-0.0025563275
21	0xba82b1fa	-0.0009971254
22	0xbac2a391	-0.0014849772
23	0xba50e4dc	-0.0007968673
24	0xba0afe4e	-0.00053021766
25	0xbb0f70df	-0.0021887345
26	0xb8dcfac5	-0.00010537127
27	0xb9bf4974	-0.00036485086
28	0xbadd2f5f	-0.001687508
29	0xbb15d2c0	-0.0022861212
30	0xbac2c1f6	-0.001485883
31	0xbb16cd27	-0.0023010464
32	0xbaa1b8de	-0.001233842
33	0xba4ebc88	-0.000788637
34	0xbab7afd6	-0.0014014195
35	0xbab12e7c	-0.0013517882
36	0xbabfd4bd	-0.0014635545
37	0x379f20e9	1.8969602e-05
38	0xbae504fa	-0.0017472797
39	0xbb07a8ee	-0.0020700055
40	0xbb0681ed	-0.002052422
41	0xba024883	-0.00049699115
42	0xba81c22b	-0.0009899786
43	0xbaa28160	-0.0012398176
44	0xbaadff87	-0.0013275006
45	0xbb26772f	-0.0025400629
46	0xbb1737b1	-0.0023073966
47	0xbb271df2	-0.0025500027
48	0xba9e3f0d	-0.0012073234
49	0xbb096b6a	-0.0020968565
50	0xba6e77ec	-0.0009096849
51	0xba53caaa	-0.00080792105
52	0xbaa70e5d	-0.001274537
53	0xb98097af	-0.00024527076
54	0xb9f09d99	-0.00045893787
55	0xba915d10	-0.0011090357
56	0xbaa50a0c	-0.0012591495
57	0xba785aa8	-0.0009473958
58	0xba485a21	-0.0007642825
59	0xba5f66f7	-0.0008522118
60	0xba84546a	-0.0010095958
61	0xba15e467	-0.00057179335
62	0xba62597f	-0.0008634552
63	0xba8a7aa4	-0.0010565114
64	0x3a2b3f8b	0.0006532601
65	0x3b0880ce	0.0020828727
66	0x3b0e30cf	0.0021696573
67	0x3adfe54a	0.0017081883
68	0x3aa3c88d	0.0012495682
69	0x3aefa469	0.0018283251
70	0x3aa1306d	0.0012297757
71	0x3a861285	0.0010228908
72	0x3a22cd07	0.0006210361
73	0x3a98cd0e	0.0011657791
74	0x3a4ed5cd	0.0007890135
75	0x3af8e93f	0.0018990411
76	0x3af27bf3	0.0018500075
77	0x3ae50ab0	0.0017474499
78	0x3a654fed	0.00087475666
79	0x399370f5	0.00028122184
80	0x3a98ba83	0.0011652265
81	0x3ab3d929	0.0013721335
82	0x3aac950b	0.0013166977
83	0x3a70acad	0.0009181004
84	0x3b278810	0.0025563277
85	0x3a82b1f9	0.0009971253
86	0x3ac2a399	0.0014849781
87	0x3a50e4de	0.0007968674
88	0x3a0afe4f	0.0005302177
89	0x3b0f70e2	0.0021887352
90	0x38dcfac9	0.0001053713
91	0x39bf4975	0.0003648509
92	0x3add2f64	0.0016875085
93	0x3b15d2c2	0.0022861217
94	0x3ac2c1f8	0.0014858833
95	0x3b16cd27	0.0023010464
96	0x3aa1b8de	0.001233842
97	0x3a4ebc86	0.00078863685
98	0x3ab7afd9	0.0014014199
99	0x3ab12e7f	0.0013517885
100	0x3abfd4bf	0.0014635547
101	0xb79f20e7	-1.8969598e-05
102	0x3ae504fe	0.0017472801
103	0x3b07a8f2	0.0020700064
104	0x3b0681ef	0.0020524224
105	0x3a024884	0.0004969912
106	0x3a81c22e	0.0009899789
107	0x3aa28163	0.0012398179
108	0x3aadff8a	0.0013275009
109	0x3b267732	0.0025400636
110	0x3b1737b3	0.002307397
111	0x3b271df3	0.002550003
112	0x3a9e3f11	0.0012073239
113	0x3b096b6d	0.0020968572
114	0x3a6e77ed	0.000909685
115	0x3a53caab	0.0008079211
116	0x3aa70e62	0.0012745375
117	0x398097b0	0.00024527078
118	0x39f09d9c	0.00045893795
119	0x3a915d12	0.0011090359
120	0x3aa50a0f	0.0012591499
121	0x3a785aae	0.00094739615
122	0x3a485a22	0.00076428254
123	0x3a5f66fa	0.00085221196
124	0x3a84546b	0.0010095959
125	0x3a15e466	0.0005717933
126	0x3a625984	0.00086345547
127	0x3a8a7aa8	0.0010565119

exp_avg_sq f4 [2, 64]
0	0x37b33a01	2.1365473e-05
1	0x380d0cff	3.3629123e-05
2	0x38105e94	3.4420358e-05
3	0x37c6ac92	2.3683799e-05
4	0x379ab09d	1.8440473e-05
5	0x3806e285	3.2159052e-05
6	0x37b5b890	2.1662825e-05
7	0x370dcdc3	8.452163e-06
8	0x35d285bc	1.5685141e-06
9	0x37bc40ff	2.2441613e-05
10	0x35fa5853	1.8652157e-06
11	0x37cf6ed1	2.4727926e-05
12	0x37ef837d	2.855225e-05
13	0x37db21ac	2.6122514e-05
14	0x36d4ee2a	6.3458183e-06
15	0x35a2ab3e	1.2119779e-06
16	0x3737819d	1.0937828e-05
17	0x37a4deae	1.9654017e-05
18	0x3798c0f7	1.8209668e-05
19	0x37a9da2c	2.0247964e-05
20	0x38412254	4.6046756e-05
21	0x37cd7571	2.4492592e-05
22	0x37ac379f	2.0529898e-05
23	0x36998575	4.5752918e-06
24	0x35e0252a	1.6700117e-06
25	0x37ff1505	3.0408157e-05
26	0x3538eb71	6.8887954e-07
27	0x35c576f7	1.4712267e-06
28	0x37e25639	2.698145e-05
29	0x38266762	3.9673767e-05
30	0x37926a8b	1.745417e-05
31	0x3815f120	3.5748933e-05
32	0x37a1db28	1.9294748e-05
33	0x369dc99c	4.702435e-06
34	0x37ac5b62	2.0546551e-05
35	0x37b6d5a4	2.1795575e-05
36	0x379c0c2f	1.8602323e-05
37	0x351fce82	5.9532624e-07
38	0x37c882ca	2.3902761e-05
39	0x382dc749	4.1432013e-05
40	0x3822ee35	3.8845657e-05
41	0x37affd64	2.097962e-05
42	0x37d570c9	2.5444098e-05
43	0x37bd10ce	2.2538381e-05
44	0x375eafbb	1.3273147e-05
45	0x38192e2c	3.6521044e-05
46	0x382b24f5	4.0803996e-05
47	0x38272738	3.9852428e-05
48	0x378fb59f	1.7131502e-05
49	0x3817fbc9	3.62357e-05
50	0x36ec56fb	7.043474e-06
51	0x37bc8351	2.2472495e-05
52	0x379b834c	1.853858e-05
53	0x35628a4e	8.439282e-07
54	0x35179834	5.647337e-07
55	0x37d63398	2.5534813e-05
56	0x37ba085d	2.2176822e-05
57	0x3703ae2e	7.848763e-06
58	0x3779b5a5	1.4883849e-05
59	0x37c613fa	2.3612742e-05
60	0x37cd1b00	2.4450477e-05
61	0x363fb6df	2.8567663e-06
62	0x36c17d4f	5.766436e-06
63	0x37a64cb5	1.9824462e-05
64	0x37b339fd	2.1365466e-05
65	0x380d0d00	3.3629127e-05
66	0x38105e95	3.442036e-05
67	0x37c6ac97	2.3683808e-05
68	0x379ab09e	1.8440474e-05
69	0x3806e284	3.215905e-05
70	0x37b5b88f	2.1662823e-05
71	0x370dcdc2	8.452162e-06
72	0x35d285bc	1.5685141e-06
73	0x37bc40fe	2.244161e-05
74	0x35fa5858	1.8652163e-06
75	0x37cf6ed4	2.4727931e-05
76	0x37ef837f	2.8552253e-05
77	0x37db21ae	2.6122518e-05
78	0x36d4ee29	6.345818e-06
79	0x35a2ab3f	1.211978e-06
80	0x3737819f	1.093783e-05
81	0x37a4deaf	1.9654019e-05
82	0x3798c0f7	1.8209668e-05
83	0x37a9da2d	2.0247966e-05
84	0x38412255	4.604676e-05
85	0x37cd7571	2.4492592e-05
86	0x37ac379f	2.0529898e-05
87	0x36998575	4.5752918e-06
88	0x35e0252a	1.6700117e-06
89	0x37ff1507	3.040816e-05
90	0x3538eb71	6.8887954e-07
91	0x35c576f8	1.4712268e-06
92	0x37e25639	2.698145e-05
93	0x38266761	3.9673763e-05
94	0x37926a8a	1.7454167e-05
95	0x3815f120	3.5748933e-05
96	0x37a1db29	1.929475e-05
97	0x369dc99c	4.702435e-06
98	0x37ac5b60	2.0546548e-05
99	0x37b6d5a4	2.1795575e-05
100	0x379c0c2f	1.8602323e-05
101	0x351fce81	5.953262e-07
102	0x37c882ca	2.3902761e-05
103	0x382dc749	4.1432013e-05
104	0x3822ee34	3.8845654e-05
105	0x37affd64	2.097962e-05
106	0x37d570c8	2.5444097e-05
107	0x37bd10cf	2.2538383e-05
108	0x375eafbb	1.3273147e-05
109	0x38192e2c	3.6521044e-05
110	0x382b24f6	4.0804e-05
111	0x38272738	3.9852428e-05
112	0x378fb5a0	1.7131504e-05
113	0x3817fbc9	3.62357e-05
114	0x36ec56fb	7.043474e-06
115	0x37bc8351	2.2472495e-05
116	0x379b834d	1.8538582e-05
117	0x35628a4e	8.439282e-07
118	0x35179834	5.647337e-07
119	0x37d63397	2.5534811e-05
120	0x37ba085b	2.2176819e-05
121	0x3703ae2f	7.848764e-06
122	0x3779b5a6	1.488385e-05
123	0x37c613fa	2.3612742e-05
124	0x37cd1aff	2.4450475e-05
125	0x363fb6de	2.856766e-06
126	0x36c17d4f	5.766436e-06
127	0x37a64cb3	1.9824458e-05

exp_avg f4 [2]
0	0xbae823c1	-0.0017710851
1	0x3ae823c1	0.0017710851

exp_avg_sq f4 [2]
0	0x384b15e4	4.841936e-05
1	0x384b15e5	4.8419362e-05

exp_avg f4 [1, 64]
0	0x3c5e227a	0.013558025
1	0x3c565d2b	0.013083736
2	0x3c7f934f	0.015599086
3	0x3c4577e2	0.012052508
4	0x3c23b84e	0.009992672
5	0x3c2d4ee0	0.010577887
6	0x3b6209ac	0.0034490628
7	0x3c82211a	0.015884925
8	0x3c3666d6	0.011132916
9	0x3c2795a7	0.010228551
10	0x3c73d96d	0.014883381
11	0x3bc200c6	0.0059205024
12	0x3b958b70	0.0045637414
13	0x3bf67eed	0.007522455
14	0x3c8143d5	0.015779415
15	0x3b808296	0.003921817
16	0x3c6c1ade	0.0144107025
17	0x362dc41d	2.5893162e-06
18	0x3c398558	0.0113232955
19	0x3c006f5a	0.007839048
20	0x3b7be2ac	0.0038434668
21	0x3c4dc178	0.012558334
22	0xb9e74035	-0.0004410759
23	0x3c3b1d0d	0.0114205
24	0x3c00c8eb	0.007860403
25	0x3c017748	0.007901974
26	0x3a8718ba	0.0010307052
27	0x3bb14502	0.0054098377
28	0x3bcebc00	0.0063090324
29	0x3ba20b88	0.0049452223
30	0x3aeb95b0	0.0017973687
31	0x3bd66904	0.0065432806
32	0x3c2efb8e	0.0106800925
33	0x3c15b86c	0.009138208
34	0x3bd59c78	0.0065188967
35	0x3b9b695a	0.0047427835
36	0x3cc69f43	0.024245864
37	0xb9458c95	-0.00018839755
38	0x3bcdff5b	0.0062865443
39	0x3bc980da	0.0061493935
40	0x3c129e66	0.008948898
41	0x3c60085b	0.013673867
42	0x3c5b3004	0.013378147
43	0x3c1799cb	0.009252976
44	0xba450760	-0.00075160526
45	0x3b632f94	0.003466581
46	0x3ba16eb6	0.004926528
47	0x3bdcbd64	0.0067364443
48	0x3bc223f9	0.0059246984
49	0x3c7d2017	0.015449545
50	0x3c8a006f	0.01684591
51	0x3c8ccbfd	0.017187113
52	0x386e2167	5.677473e-05
53	0x3b62d514	0.0034611868
54	0x3c15a0b1	0.00913255
55	0x3c8edf98	0.017440602
56	0x3c14ab79	0.009074085
57	0x3c92d835	0.017925361
58	0x3c2199e5	0.0098633515
59	0x3c89d22d	0.016823852
60	0x3c365508	0.0111286715
61	0x3c0f57b0	0.008748934
62	0x3c4bf7b6	0.012449196
63	0x3c2ef183	0.010677698

exp_avg_sq f4 [1, 64]
0	0x3aea4b07	0.0017875143
1	0x3b0891f5	0.002083895
2	0x3b0e3aa8	0.0021702442
3	0x3ad27c6b	0.0016058808
4	0x3add1f57	0.0016870302
5	0x3b05929d	0.0020381578
6	0x3ad2e0b0	0.0016088691
7	0x3913331b	0.0001403805
8	0x38e4bfb1	0.000109075925
9	0x3b054da0	0.0020340458
10	0x391b39ba	0.00014803457
11	0x3ac81534	0.0015265108
12	0x3b065a9f	0.0020500792
13	0x3ad7f243	0.0016475398
14	0x390f0a82	0.00013641457
15	0x388f2d14	6.827168e-05
16	0x393ea570	0.00018181442
17	0x3afcbd04	0.0019282405
18	0x3ad44de1	0.0016197526
19	0x3aeff68b	0.0018307728
20	0x3b2605c9	0.0025333038
21	0x3b0aae57	0.0021161044
22	0x3ac3eb55	0.0014947454
23	0x3895a0dd	7.134837e-05
24	0x38e7de4d	0.00011056345
25	0x3aead2ee	0.0017915645
26	0x38246493	3.9194314e-05
27	0x38b07aec	8.41523e-05
28	0x3b002624	0.0019553984
29	0x3b024e01	0.001988292
30	0x3ac57ae7	0.0015066535
31	0x3b144e89	0.0022629818
32	0x3aeb5d1a	0.0017956824
33	0x38abb4a9	8.187566e-05
34	0x3b048d4f	0.0020225828
35	0x3abab65d	0.0014245022
36	0x39b4b135	0.00034464305
37	0x380700b7	3.2187174e-05
38	0x3ac8af49	0.0015311028
39	0x3b175f91	0.0023097734
40	0x3b135fdb	0.0022487554
41	0x3adfa6b8	0.0017063236
42	0x3b0c19b9	0.0021377637
43	0x3b0d5b8d	0.002156946
44	0x3aa733c8	0.0012756521
45	0x3b0e4181	0.0021706524
46	0x3b0fd836	0.002194894
47	0x3b15ecda	0.002287677
48	0x3ae055b0	0.0017115381
49	0x3b10a874	0.0022073062
50	0x39296d06	0.0001615771
51	0x3af00e47	0.0018314802
52	0x3aeaa231	0.001790112
53	0x3850ca54	4.9779497e-05
54	0x384b7c4c	4.8514732e-05
55	0x3b0d852a	0.0021594265
56	0x3b09bf6f	0.0021018644
57	0x3945c10a	0.00018859297
58	0x3aa7f54b	0.0012814192
59	0x3aea97b2	0.0017897992
60	0x3b0e6495	0.0021727432
61	0x392803d9	0.00016023162
62	0x38be62ec	9.078332e-05
63	0x3aea3e5f	0.0017871371
