savedModels/cartpole/ppo_cartpole_122880.pth (torch, 13659 bytes, 15 tensors)

shared_fc.0.weight f4 [64, 4]
0.010788297 0.4621822 0.017269904 -0.41120204 -0.068122745 -0.1656913 -0.72406435 -0.2891648
0.0012758363 -0.36049065 -0.4556179 -0.5297834 -0.049065482 -0.112593494 -0.5022584 -0.23855948
0.094798334 0.049830187 -0.7799422 -0.270438 -0.1030364 -0.0032105902 -0.48023546 -0.04445021
-0.1319461 0.2320932 0.6008828 0.36880872 -0.14488877 -0.10248341 -0.24752764 -0.096456654
0.275137 0.0007667499 0.019195944 0.0061349105 0.20990418 0.09721546 0.005314603 -0.37509215
0.4047511 -0.24343331 -0.12106245 -0.15796992 -0.0051865103 -0.24086246 0.008805489 0.21402301
-0.0049404493 0.039960053 0.36497572 0.33015618 -0.09356727 -0.0056667896 0.12544057 0.08830589
-0.14253075 -0.05415854 -0.22206746 -0.0006298331 0.14868386 0.10273658 0.13732465 0.13145356
-0.051251154 -0.33335295 -0.28758332 -0.12113203 0.2841145 0.2690955 0.083328225 0.2981403
0.0060467552 -0.07052323 -0.41093078 -0.31371525 -0.2172092 0.30460456 0.21128203 0.05971746
-0.015230701 -0.17533857 0.37125352 0.44381893 -0.19811048 0.20844406 0.12324206 -0.25884074
-0.009453059 0.07716167 0.37345967 0.5198567 0.18887775 -0.027865611 -0.06424777 -0.019547367
0.19817774 0.07462652 -0.16711403 0.22047567 0.035539355 -0.41041565 -0.084686205 0.09579098
0.020287504 0.12418761 0.23740464 0.11781693 0.21778189 0.06168797 0.25131175 0.08951427
-0.0641692 0.14687447 0.4500791 0.2623946 -0.08409406 -0.33098587 0.63253367 0.42951137
0.1392058 -0.030445822 0.607701 0.23833296 0.054337323 -0.18186401 0.33717662 0.17689884
0.051342428 0.012902149 -0.49351642 -0.31531087 0.010375598 -0.27244127 -0.13022369 -0.28640357
0.2720158 -0.13662462 -0.44643852 -0.15972956 -0.13719176 0.14871183 0.5455333 0.28612718
-0.32050094 -0.08748576 -0.013116687 -0.09818788 -0.032083537 0.27130386 0.16589274 0.20085333
-0.022518693 -0.09588108 0.36776692 0.14416547 -0.22337538 0.08844643 0.22096607 0.47009274
-0.16158944 -0.012972399 0.5522332 0.19175746 -0.12683603 0.56442064 -0.03851323 -0.37301517
-0.25953865 0.25875887 -0.28714466 -0.24598727 0.11997391 -0.0028683846 -0.1394265 -0.25178233
0.37054068 -0.0967758 -0.010348214 0.31772104 0.19691224 -0.4675864 0.42928845 0.32314762
-0.021349056 -0.09722359 0.85241693 0.2892752 0.09515142 -0.44488546 0.31604257 0.20339222
0.1797332 -0.08960093 -0.025621997 -0.11419341 -0.0716168 -0.21444315 -0.46007368 -0.42238212
-0.1116018 -0.032358464 0.15920825 0.087965585 0.18359327 0.38172182 -0.16770783 -0.6919785
0.19759707 0.053316247 0.41310945 0.35824126 0.14328928 0.044650577 0.25929245 0.04375089
0.013975348 -0.03183732 -0.48603365 -0.18954958 -0.03790402 0.06315997 -0.27225974 -0.61804354
0.1823161 0.014650429 -0.17901336 -0.24700022 -0.21479584 0.008262898 -0.13176467 0.2231859
0.21857625 0.24637206 -0.35826766 -0.19901603 -0.33660358 0.31575677 -0.11347804 -0.4496441
-0.018549284 0.20957243 -0.09826265 -0.21789159 0.3879895 0.04545228 0.390174 0.046330754
0.040803887 -0.10061526 -0.642682 -0.083272554 0.06409667 0.15623625 -0.22802922 -0.29615775
00000000: 66c1 303c 25a3 ec3e 9d79 8d3c 1389 d2be
00000010: f083 8bbd fbaa 29be 485c 39bf 690d 94be
00000020: f639 a73a 3b92 b8be c046 e9be e39f 07bf
00000030: e3f8 48bd 6b97 e6bd 0294 00bf f048 74be
00000040: a125 c23d bd1a 4c3d 4baa 47bf d976 8abe
00000050: c004 d3bd c468 52bb 6ce1 f5be 6c11 36bd
00000060: e11c 07be d7a9 6d3e 75d3 193f 7fd4 bc3e
00000070: b95d 14be d2e2 d1bd e377 7dbe 118b c5bd
00000080: c2de 8c3e b7ff 483a d040 9d3c 5c07 c93b
00000090: 1ff1 563e e618 c73d 1f26 ae3b 140c c0be
000000a0: 893b cf3e 9546 79be 97ef f7bd dec2 21be
000000b0: 9af3 a9bb a6a4 76be e644 103c d928 5b3e
000000c0: 7ee3 a1bb 27ad 233d 19de ba3e 3b0a a93e
000000d0: 32a0 bfbd 7ab0 b9bb 7e73 003e b8d9 b43d
000000e0: 95f3 11be 58d5 5dbd a765 63be 621b 25ba
000000f0: 9540 183e 8e67 d23d d59e 0c3e c39b 063e
00000100: bbec 51bd 3dad aabe 1f3e 93be 1214 f8bd
00000110: 7577 913e e3c6 893e fda7 aa3d d8a5 983e
00000120: dc23 c63b 7c6e 90bd 8565 d2be 499f a0be
00000130: 176c 5ebe 21f5 9b3e 515a 583e 4c9a 743d
00000140: 318a 79bc f48b 33be f114 be3e 3c3c e33e
00000150: 79dd 4abe 5c72 553e 5566 fc3d c686 84be
00000160: 01e1 1abc f006 9e3d 1b36 bf3e 5415 053f
00000170: 2b69 413e 6c46 e4bc 5694 83bd cd21 a0bc
00000180: 1bef 4a3e cad5 983d f11f 2bbe 60c4 613e
00000190: b791 113d 0022 d2be f66f adbd 102e c43d
000001a0: fb31 a63c 1356 fe3d 341a 733e 014a f13d
000001b0: 3702 5f3e 86ac 7c3d efab 803e 4253 b73d
000001c0: 246b 83bd 4366 163e c570 e63e 9658 863e
000001d0: 8239 acbd fb76 a9be baed 213f eae8 db3e
000001e0: f78b 0e3e 8469 f9bc 4b92 1b3f 8e0d 743e
000001f0: d090 5e3d 8f3a 3abe 6aa2 ac3e f824 353e
00000200: 704c 523d 8963 533c 2fae fcbe 6d70 a1be
00000210: 6afe 293c 6c7d 8bbe 5c59 05be 7da3 92be
00000220: a845 8b3e 53e7 0bbe 9793 e4be 2590 23be
00000230: ff7b 0cbe ea47 183e 12a8 0b3f 437f 923e
00000240: b318 a4be bc2b b3bd 5fe7 56bc ba16 c9bd
00000250: 076a 03bd 57e8 8a3e c9df 293e 7fac 4d3e
00000260: 1f79 b8bc 4d5d c4bd f24b bc3e 1da0 133e
00000270: 84bc 64be 6723 b53d ee44 623e ffaf f03e
00000280: b477 25be 2f8a 54bc 285f 0d3f 115c 443e
00000290: 4ee1 01be df7d 103f 0cc0 1dbd d8fb bebe
000002a0: 40e2 84be 0b7c 843e a004 93be 16e4 7bbe
000002b0: e2b4 f53d 82fb 3bbb d2c5 0ebe 9de9 80be
000002c0: 82b7 bd3e 6432 c6bd 8e8b 29bc 55ac a23e
000002d0: 5da3 493e 7c67 efbe b2cb db3e 9b73 a53e
000002e0: 37e4 aebc 291d c7bd ff37 5a3f e11b 943e
000002f0: bfde c23d 07c8 e3be 55d0 a13e 0d46 503e
00000300: fb0b 383e b180 b7bd 39e5 d1bc 3cde e9bd
00000310: d4ab 92bd fc96 5bbe c78e ebbe 7842 d8be
00000320: 7c8f e4bd 4f8a 04bd 7d07 233e 4d27 b43d
00000330: e0ff 3b3e 0b71 c33e 9abb 2bbe 8125 31bf
00000340: e356 4a3e 2362 5a3d 1583 d33e 666b b73e
00000350: 6dba 123e 86e3 363d fbc1 843e 2234 333d
00000360: dcf8 643c da67 02bd 67d9 f8be 4919 42be
00000370: 3f41 1bbd 045a 813d a165 8bbe 1a38 1ebf
00000380: 12b1 3a3e 5a08 703c 474f 37be a0ed 7cbe
00000390: 71f3 5bbe 1b61 073c 51ed 06be d88a 643e
000003a0: 74d2 5f3e f548 7c3e dc6e b7be dcca 4bbe
000003b0: 4e57 acbe dfaa a13e 2d67 e8bd c037 e6be
000003c0: abf4 97bc 289a 563e ee3d c9bd f91e 5fbe
000003d0: 8fa6 c63e 2c2c 3a3d e3c4 c73e 51c5 3d3d
000003e0: fa21 273d 600f cebd cf86 24bf cd8a aabd
000003f0: 1d45 833d 65fc 1f3e 7e80 69be fda1 97be

shared_fc.0.bias f4 [64]
0.54448897 0.6378435 0.6220638 0.5758038 0.57886577 0.56893533 0.5729605 -0.13344537
-0.15527093 0.63718885 -0.10973607 0.55829203 0.6207013 0.5802664 -0.12488961 -0.11846609
0.036787316 0.53472674 0.56217986 0.61241597 0.6789224 0.6606803 0.56615317 -0.08437907
-0.13663842 0.57709235 -0.028913084 -0.12884049 0.5533263 0.5938186 0.5692735 0.6574707
0.58467376 -0.10224257 0.62686664 0.553194 -0.18924482 -0.065969236 0.5713092 0.684211
0.6818552 0.52436614 0.6664293 0.64643586 0.54021156 0.59964657 0.54076505 0.63408726
0.5911827 0.6452193 -0.115440935 0.5181848 0.65558225 -0.10838382 0.26835802 0.61754197
0.65935355 -0.17438374 0.07272932 0.6047803 0.601771 -0.09434764 0.42150706 0.6084611
00000000: a163 0b3f b649 233f 933f 1f3f e167 133f
00000010: 8c30 143f bfa5 113f 8aad 123f e7a5 08be
00000020: 58ff 1ebe cf1e 233f 4ebd e0bd 3aec 0e3f
00000030: 48e6 1e3f 578c 143f 20c6 ffbd 599e f2bd
00000040: 4cae 163d dae3 083f 05eb 0f3f 4bc7 1c3f
00000050: dccd 2d3f 5822 293f 6aef 103f efce acbd
00000060: f1ea 0bbe 53bc 133f 22db ecbc c3ee 03be
00000070: cba6 0d3f 7f04 183f e8bb 113f 0050 283f
00000080: 2ead 153f 8d64 d1bd 557a 203f 1f9e 0d3f
00000090: 65c9 41be e11a 87bd 5241 123f 7428 2f3f
000000a0: 108e 2e3f dc3c 063f 1c9b 2a3f d27c 253f
000000b0: 4e4b 0a3f 7082 193f 946f 0a3f 8b53 223f
000000c0: c057 173f 182d 253f 4c6c ecbd c2a7 043f
000000d0: 3dd4 273f 56f8 ddbd 3966 893e 3b17 1e3f
000000e0: 65cb 283f a791 32be 1cf3 943d e2d2 1a3f
000000f0: aa0d 1a3f 5639 c1bd c6cf d73e 1bc4 1b3f

actor_head.weight f4 [2, 64]
0.02904127 0.23150508 0.22628398 0.24081777 0.1647673 0.10788562 -0.2568477 0.11040395
0.021414278 0.046139944 0.120043114 -0.034667775 -0.1765867 -0.044183638 0.022172296 -0.07435269
0.067181386 -0.1004033 0.17518514 -0.08703345 -0.12630564 0.018383278 -0.18986832 0.07826119
-0.057720084 0.03675569 -0.13027304 -0.0560961 -0.2639978 -0.10961245 -0.2050102 -0.084515065
0.15126392 0.15657309 0.14649872 -0.24954936 0.055574927 -0.12820585 -0.12718815 -0.13359186
-0.13546874 0.036436353 0.0878555 0.098409526 -0.13500835 -0.066292636 -0.1660573 -0.05034873
0.072128944 0.23386434 -0.06136797 0.09125444 -0.19325826 -0.020263383 0.16259329 0.12028911
0.08183827 -0.042320807 0.048265282 0.092322454 0.04196781 -0.056471355 0.31086132 0.057442546
-0.024648683 -0.24195175 -0.23734349 -0.24389361 -0.18947902 -0.10381387 0.26635358 -0.10701539
-0.037258696 -0.07502847 -0.077601545 0.02379792 0.187272 0.07087297 -0.03856292 0.060607024
-0.1281431 0.09851625 -0.18714532 0.0806229 0.09983384 -0.03752573 0.20141904 -0.09831646
0.03688804 -0.047072407 0.14932416 0.06183471 0.2293646 0.11854511 0.22323568 0.108728826
-0.15801394 -0.1513139 -0.13019186 0.2613258 -0.04239829 0.11435271 0.11612191 0.12196328
0.12226558 -0.024867186 -0.084788196 -0.10784121 0.10339684 0.08965718 0.15166374 0.050208077
-0.050059464 -0.23630837 0.06202732 -0.06849628 0.20738879 0.0223893 -0.17016448 -0.12977386
-0.08173344 0.04192603 -0.04571274 -0.085270785 -0.030668119 0.058105722 -0.30031636 -0.09149967
00000000: f5e7 ed3c ab0f 6d3e fdb6 673e ef98 763e
00000010: c2b8 283e 23f3 dc3d 8b81 83be 771b e23d
00000020: ff6c af3c 3dfd 3c3d 2ad9 f53d ccff 0dbd
00000030: 25d3 34be e7f9 34bd ada2 b53c 3946 98bd
00000040: 6596 893d 3fa0 cdbd bc63 333e 983e b2bd
00000050: 4456 01be 8798 963c d76c 42be 6747 a03d
00000060: e56b 6cbd 228d 163d 4c66 05be 06c5 65bd
00000070: b82a 87be 7e7c e0bd 32ee 51be 3c16 adbd
00000080: eee4 1a3e b254 203e c303 163e de89 7fbe
00000090: 89a2 633d 6548 03be 9c3d 02be 4ecc 08be
000000a0: 51b8 0abe 493e 153d 96ed b33d ef8a c93d
000000b0: a13f 0abe 6fc4 87bd ed0a 2abe 783a 4ebd
000000c0: 57b8 933d 227a 6f3e fb5c 7bbd 9ce3 ba3d
000000d0: 7ee5 45be 65ff a5bc db7e 263e 235a f63d
000000e0: d39a a73d 9558 2dbd d1b1 453d 8e13 bd3d
000000f0: 70e6 2b3d 824e 67bd 3729 9f3e e048 6b3d
00000100: 09ec c9bc 33c2 77be 2c0a 73be 3fbf 79be
00000110: ca06 42be 5e9c d4bd 7f5f 883e e32a dbbd
00000120: 939c 18bd 87a8 99bd 8fed 9ebd dbf3 c23c
00000130: 3bc4 3f3e d925 913d 27f4 1dbd 123f 783d
00000140: f237 03be e3c2 c93d 06a3 3fbe 9e1d a53d
00000150: af75 cc3d 94b4 19bd cb40 4e3e 245a c9bd
00000160: ea17 173d ffce 40bd 6fe8 183e 6546 7d3d
00000170: 8ede 6a3e c7c7 f23d e597 643e 38ad de3d
00000180: 68ce 21be 08f2 1abe 0451 05be 7fcc 853e
00000190: d4a9 2dbd c131 ea3d 53d1 ed3d e2c7 f93d
000001a0: 6066 fa3d 45b6 cbbc 6fa5 adbd dadb dcbd
000001b0: b9c1 d33d 2f9e b73d bd4d 1b3e fca6 4d3d
000001c0: 270b 4dbd d2fa 71be 5c10 7e3d c747 8cbd
000001d0: ba5d 543e c469 b73c 993f 2ebe 70e3 04be
000001e0: dd63 a7bd a1ba 2b3d 483d 3bbd 73a2 aebd
000001f0: b53b fbbc 4400 6e3d 11c3 99be 2e64 bbbd

actor_head.bias f4 [2]
-0.02462892 0.024628911
00000000: 97c2 c9bc 92c2 c93c

critic_head.weight f4 [1, 64]
0.47434175 0.5625948 0.5380325 0.7219409 0.61799896 0.5125525 0.6803536 -0.29122764
-0.31903237 0.41880664 -0.15874706 0.74934626 0.61246794 0.7114916 -0.42169145 -0.20180166
0.01581576 0.28693685 0.70656 0.6379456 0.52062076 0.58321047 0.75137836 -0.2148224
-0.17339183 0.6250601 -0.05226584 -0.19719654 0.59550375 0.53896815 0.6995015 0.59992975
0.6142906 -0.14407137 0.5344888 0.79433095 -0.19468111 -0.022551795 0.76666266 0.5241356
0.56971276 0.534325 0.570678 0.55412704 0.8090468 0.5717401 0.42824858 0.5524614
0.64035267 0.5320094 -0.19670288 0.4510303 0.5118087 -0.30320737 0.28365928 0.5202122
0.49650475 -0.23322149 0.02260152 0.57354915 0.44899344 -0.09359797 0.5368806 0.5210633
00000000: ecdc f23e 3606 103f 7fbc 093f 1ed1 383f
00000010: 2e35 1e3f a436 033f a72b 2e3f ca1b 95be
00000020: 3658 a3be d36d d63e 978e 22be 28d5 3f3f
00000030: b3ca 1c3f 5024 363f f1e7 d7be 18a5 4ebe
00000040: 0d90 813c 63e9 923e 1ee1 343f 6750 233f
00000050: 6747 053f 484d 153f 555a 403f 67fa 5bbe
00000060: a18d 31be f003 203f b514 56bd e4ed 49be
00000070: ef72 183f d1f9 093f 8812 333f ff94 193f
00000080: 2642 1d3f 7287 13be 42d4 083f 4659 4b3f
00000090: 7c5a 47be 8bbe b8bc 0144 443f c02d 063f
000000a0: b2d8 113f 86c9 083f f417 123f 45db 0d3f
000000b0: b11d 4f3f 8f5d 123f 6643 db3e 1c6e 0d3f
000000c0: 27ee 233f c531 083f 7b6c 49be 72ed e63e
000000d0: e505 033f ff3d 9bbe ca3b 913e a02c 053f
000000e0: df35 fe3e 9dd1 6ebe d326 b93c 1ed4 123f
000000f0: 78e2 e53e 4bb0 bfbd 0271 093f 6864 053f

exp_avg f4 [64, 4]
0.013671101 0.0037555683 0.00028961015 0.0047760666 0.0077327476 0.00086363207 0.00073656713 0.007104475
0.00738802 0.00085886644 0.000707264 0.0067921253 0.009996478 0.00072301546 0.00091225834 0.0091402
0.009183815 0.0008235526 0.00074094057 0.0076003387 0.0071709473 9.2200615e-05 0.0006119752 0.0065143406
0.009986422 -0.0024146286 0.00059624837 0.008800536 -0.0022850782 -0.0004216986 -0.00020605874 -0.0023263611
-0.0020012301 0.000761728 -9.032169e-05 -0.0011665289 0.016351983 0.006515604 0.00021220735 0.0036321566
-0.0013605265 0.00043020616 -1.1762219e-06 -0.0005019003 0.010627628 -1.1648933e-06 0.0007924855 0.009069168
0.008927199 -0.0018384183 0.0005654175 0.007902763 0.010193449 -0.0011611829 0.0007396656 0.009121177
-0.0034547509 -0.0010684828 -0.000315752 -0.003446712 -0.0011313707 1.6168154e-06 -0.00011698186 -0.00038147208
-0.00014139504 0.0006814448 8.926821e-05 0.00012014903 0.0028321312 -0.0013985821 -6.0253034e-05 0.0014605187
0.00984836 0.00035383212 0.00086263753 0.008966198 0.009177197 -0.0012419568 0.0006459598 0.008189217
0.0074988157 -0.0005381251 0.00050216395 0.006299731 0.008268072 -0.00047505784 0.00064674625 0.007446216
0.010922672 -0.0020788785 0.0007085944 0.00968534 -0.0016579556 0.00052184606 -2.5029838e-05 -0.00069615594
-0.0014772007 -0.00016486117 -5.6285546e-05 -0.00014718482 0.008796512 0.00046017417 0.00069941685 0.0075056907
-0.00044476936 0.00018474039 7.147189e-06 -0.000112149086 -0.0013220357 0.00043251805 -9.872686e-06 -0.00046088579
0.008760235 -0.0022273248 0.0005122641 0.0077096852 0.01049927 0.00058825966 0.00021387714 0.0046254527
0.010205961 -0.0021377748 0.0006423539 0.009028191 0.008649427 -0.001286993 0.00059765676 0.0077102175
0.008565808 0.0002897988 0.00074838544 0.0077958205 -0.0030505122 0.0002540168 7.56347e-05 -0.0010944703
0.011572419 0.0011042019 0.00047532143 0.006662412 0.011602435 -0.002502603 0.0007230392 0.010255908
-0.0015402046 -0.00040223476 -0.00014692123 -0.0015568341 -0.00024874505 7.410071e-05 2.399789e-05 -3.352785e-05
0.011053338 -0.0016289548 0.0007649045 0.009851762 0.0076057212 -0.0013974713 0.0004989441 0.006752403
0.008255755 -0.001455134 0.0005477089 0.0073352577 0.016421998 0.0046953275 0.00026845967 0.0047238455
0.008384132 -0.00012918717 0.0006712566 0.007361896 0.0077688093 3.071281e-05 0.00065548444 0.0070463377
0.0016004192 -0.0049400367 0.000499544 0.0050318604 0.008212513 -0.0003315074 0.00057382736 0.006907156
0.0062336363 -0.00090758235 0.00037643473 0.0052388567 0.007892345 -0.00017140426 0.0005694644 0.006667514
0.009046054 -0.00033171778 0.00072625774 0.008165943 0.007298658 0.000887231 0.00070255477 0.006713699
-0.001780605 -0.00076144264 -0.00014033544 -0.0016573598 0.010636738 0.0017069197 0.0001222985 0.004180104
0.007566007 -0.0018180498 0.00044596542 0.0066305236 -0.00081262074 0.00073004304 -0.00021990054 -0.0012335177
0.003840475 0.00072810205 0.00039635703 0.003562743 0.007226955 0.00010059394 0.0006276697 0.0066590672
0.0074508963 0.0002800702 0.00056253735 0.006127905 -0.0016407918 -0.0005959473 -0.00018080296 -0.0017718084
-3.2532007e-05 -0.00012323399 2.5865478e-05 0.0001488643 0.0059463447 -0.00094697525 0.0005975846 0.007342136
0.006941576 0.0003978856 0.0005070183 0.0055333003 -0.00027081234 0.00021201897 -5.937371e-05 -0.00041533937
0.0072877863 0.0013262696 0.0007456549 0.0067500114 0.008985196 0.0012683293 0.0005649745 0.0061742403
00000000: c1fc 5f3c fb1f 763b d1d6 9739 8d80 9c3b
00000010: fd62 fd3b 5e65 623a 2f16 413a a8cc e83b
00000020: 3417 f23b 8d25 613a af67 393a 7a90 de3b
00000030: 45c8 233c bf88 3d3a 9f24 6f3a c7c0 153c
00000040: b677 163c aee3 573a ae3b 423a 430c f93b
00000050: 44fa ea3b d45b c138 f66c 203a 4076 d53b
00000060: 179e 233c bf3e 1ebb 8d4d 1c3a 2030 103c
00000070: 40c1 15bb 6e17 ddb9 7911 58b9 dd75 18bb
00000080: 1227 03bb b3ae 473a 176b bdb8 37e6 98ba
00000090: 98f4 853c d980 d53b fa83 5e39 7a09 6e3b
000000a0: b253 b2ba 4b8d e139 adde 9db5 f591 03ba
000000b0: 811f 2e3c 6e59 9cb5 cdbe 4f3a d996 143c
000000c0: 6343 123c 15f7 f0ba 8738 143a 977a 013c
000000d0: 6d02 273c d532 98ba 1ee6 413a fd70 153c
000000e0: 1a69 62bb 550c 8cba 848b a5b9 3be2 61bb
000000f0: 804a 94ba 5b01 d935 2854 f5b8 5100 c8b9
00000100: 7143 14b9 fda2 323a 8135 bb38 85f8 fb38
00000110: 479b 393b a150 b7ba 34b8 7cb8 e06e bf3a
00000120: 045b 213c 8b82 b939 a022 623a f6e6 123c
00000130: f45b 163c 28c9 a2ba a155 293a 112c 063c
00000140: a0b8 f53b f710 0dba a7a3 033a f96d ce3b
00000150: cf76 073c 2f11 f9b9 688a 293a 63ff f33b
00000160: 02f5 323c cb3d 08bb f7c0 393a 43af 1e3c
00000170: c24f d9ba 7fcc 083a 2bf7 d1b7 3c7e 36ba
00000180: a19e c1ba 95de 2cb9 2514 6cb8 a055 1ab9
00000190: 3f1f 103c 8843 f139 1259 373a 4cf2 f53b
000001a0: ef2f e9b9 dfb6 4139 e3d1 ef36 9531 ebb8
000001b0: 2848 adba 97c3 e239 dda2 25b7 0ba3 f1b9
000001c0: 1787 0f3c 4ff8 11bb 7649 063a 87a1 fc3b
000001d0: 2105 2c3c 7035 1a3a 3544 6039 1c91 973b
000001e0: e736 273c e919 0cbb a463 283a faea 133c
000001f0: 54b6 0d3c 52b0 a8ba 11ac 1c3a fea5 fc3b
00000200: 9a57 0c3c 23f0 9739 4c2f 443a 1574 ff3b
00000210: 1aeb 47bb 8f2d 8539 129e 9e38 5474 8fba
00000220: 3e9a 3d3c deba 903a 9034 f939 5d50 da3b
00000230: 2418 3e3c b602 24bb 578a 3d3a 6508 283c
00000240: b1e0 c9ba 09e3 d2b9 de0e 1ab9 af0e ccba
00000250: ff69 82b9 8466 9b38 144f c937 41a0 0cb8
00000260: 0f19 353c a782 d5ba df83 483a 4969 213c
00000270: 6a39 f93b 5b2b b7ba 92cb 023a 4343 dd3b
00000280: 2543 073c 32ba beba 1f94 0f3a 9a5c f03b
00000290: 6d87 863c 43db 993b 0cc0 8c39 7dca 9a3b
000002a0: 995d 093c 6b76 07b9 45f7 2f3a 0f3c f13b
000002b0: 7f91 fe3b a1d1 0038 d1d4 2b3a f7e4 e63b
000002c0: 28c5 d13a 08e0 a1bb d5f3 023a 4ee2 a43b
000002d0: c78d 063c 2cce adb9 e76c 163a 6d55 e23b
000002e0: 8843 cc3b d2ea 6dba 375c c539 b7aa ab3b
000002f0: e54e 013c fbba 33b9 1c48 153a 297b da3b
00000300: e735 143c 68ea adb9 5562 3e3a 73ca 053c
00000310: 9529 ef3b 1195 683a a72b 383a 97fe db3b
00000320: 3063 e9ba 8d9b 47ba 0227 13b9 c43b d9ba
00000330: b645 2e3c b9ba df3a 413d 0039 41f9 883b
00000340: 44ec f73b a14b eeba 77d0 e939 dd44 d93b
00000350: 0e06 55ba 5c60 3f3a 1a95 66b9 fcad a1ba
00000360: 7bb0 7b3b 1ade 3e3a 24ce cf39 e97c 693b
00000370: 18d0 ec3b f6f5 d238 338a 243a 4e34 da3b
00000380: a626 f43b 63d6 9239 3e77 133a 98cc c83b
00000390: d60f d7ba 5939 1cba ed95 3db9 063c e8ba
000003a0: fa72 08b8 5f38 01b9 b1f9 d837 7518 1c39
000003b0: 8ed9 c23b 6f3e 78ba 39a7 1c3a 4d96 f03b
000003c0: 2976 e33b 4d9b d039 6ce9 043a b050 b53b
000003d0: d1fb 8db9 6951 5e39 0908 79b8 e8c1 d9b9
000003e0: 62ce ee3b 39d6 ad3a 0e78 433a 332f dd3b
000003f0: a536 133c 123e a63a cc1a 143a 4851 ca3b

exp_avg_sq f4 [64, 4]
0.00083807093 0.00017989773 2.525266e-06 4.5222623e-05 0.0019255566 0.0006108586 5.151078e-06 0.00011783435
0.001743019 0.00053575146 4.635813e-06 0.00010693801 0.0030687763 0.0010196758 8.476355e-06 0.00019096662
0.0021108598 0.0006985058 5.746818e-06 0.00012887144 0.0013479257 0.0004470823 3.886262e-06 8.754387e-05
0.002639159 0.00089862547 8.501206e-06 0.00016226222 0.0003104315 9.7687116e-05 6.9804827e-07 1.4554791e-05
0.00014956093 4.0132352e-05 4.311002e-07 8.393479e-06 0.0006472673 0.00017388506 1.952744e-06 3.928439e-05
5.40767e-05 1.4689016e-05 2.2695673e-07 2.8721847e-06 0.0026824914 0.0008221749 8.35621e-06 0.00017365761
0.0019671565 0.0006672481 6.318967e-06 0.00012461029 0.002492852 0.00084928534 7.816525e-06 0.00016565286
0.00059860677 0.0001842747 1.3666087e-06 2.939427e-05 6.48067e-05 1.8718401e-05 1.5806914e-07 3.4185077e-06
4.6007557e-05 1.4028286e-05 1.02525924e-07 1.718005e-06 0.00017790051 6.2125844e-05 9.920439e-07 1.5604543e-05
0.0027416863 0.0009190993 7.843937e-06 0.00017533009 0.0020036253 0.0006843665 6.3270877e-06 0.00013201046
0.0013335856 0.0004267077 4.2277948e-06 8.236092e-05 0.0016482072 0.00055763585 5.009351e-06 0.00010785085
0.0029708003 0.001013819 9.487864e-06 0.00018604832 7.99162e-05 2.1092503e-05 2.4630475e-07 4.0791424e-06
4.1044394e-05 9.95146e-06 1.0313038e-07 2.218281e-06 0.0018286289 0.0005338395 5.4085963e-06 0.00011572141
4.5050798e-05 1.6820108e-05 1.2553097e-07 1.9407348e-06 5.908525e-05 1.6648884e-05 1.5412918e-07 3.2488133e-06
0.002038476 0.0006897082 6.5569793e-06 0.00012371107 0.0013223019 0.00039225377 4.200818e-06 7.920357e-05
0.0026025514 0.00088698993 8.324724e-06 0.00016357681 0.0017529142 0.00058842375 5.556323e-06 0.000114994495
0.0020276322 0.0006768963 5.7908405e-06 0.00012932015 0.00012882662 5.1297164e-05 3.550387e-07 6.0662014e-06
0.0015113928 0.0005073338 4.1464014e-06 9.4436415e-05 0.003480724 0.0011916311 1.1217841e-05 0.0002190529
0.00012381247 3.8102222e-05 2.944142e-07 6.0087837e-06 3.224568e-05 1.4609591e-05 1.0330974e-07 1.3954511e-06
0.0029521978 0.0010008446 9.379802e-06 0.00019389574 0.0013432064 0.0004459189 4.3558166e-06 8.573675e-05
0.0016322996 0.00054908247 5.2182772e-06 0.00010550303 0.0012327473 0.00027489927 3.41256e-06 6.132515e-05
0.0016185043 0.0005515117 4.7697076e-06 0.00010235308 0.0015539592 0.0005199829 4.520909e-06 0.00010099729
0.0015260638 0.000795048 7.463936e-06 0.00014967282 0.0015102748 0.00046711793 4.7224694e-06 8.578353e-05
0.0009600302 0.0003102125 3.0736037e-06 5.801351e-05 0.0014236122 0.00042525257 4.434939e-06 8.652503e-05
0.002012785 0.0006801482 6.033313e-06 0.00013313035 0.0017330719 0.00054306857 4.6383216e-06 0.00010567211
0.00012650316 3.7421694e-05 2.0089252e-07 5.51187e-06 0.00055821677 0.00013922507 1.9685383e-06 4.0913677e-05
0.0013926079 0.00048162535 4.322266e-06 8.190034e-05 0.00012476231 3.354426e-05 2.9519808e-07 6.806503e-06
0.0005365081 0.00016885994 1.3296178e-06 2.9779205e-05 0.0014145921 0.0004613699 4.009896e-06 8.459807e-05
0.0012067857 0.00040540547 3.4855693e-06 7.674977e-05 0.00017070242 5.041366e-05 3.343656e-07 7.889694e-06
6.4614173e-06 2.4851902e-06 2.2638188e-08 3.2897427e-07 0.0015659181 0.0005435129 4.5165402e-06 9.37718e-05
0.00095319643 0.00030857557 2.803467e-06 6.0667648e-05 1.6540462e-05 4.695417e-06 4.671436e-08 9.2258e-07
0.0020841404 0.00067895907 5.424176e-06 0.00011910203 0.001338164 0.00041749104 3.6705458e-06 7.773636e-05
00000000: fdb1 5b3a eea2 3c39 bd77 2936 6cad 3d38
00000010: f562 fc3a 0722 203a 6cd7 ac36 d61d f738
00000020: 0376 e43a ac71 0c3a 558d 9b36 e843 e038
00000030: 861d 493b a4a6 853a ab35 0e37 363e 4839
00000040: 5a56 0a3b ee1b 373a cad4 c036 aa21 0739
00000050: e2ac b03a 5f66 ea39 bd66 8236 c297 b738
00000060: bef5 2c3b bc91 6b3a 67a0 0e37 ef24 2a39
00000070: 69c1 a239 5fdd cc38 8361 3b35 5a30 7437
00000080: 75d3 1c39 c953 2838 f671 e734 b8d1 0c37
00000090: 60ad 293a ea54 3639 e30b 0336 4bc5 2438
000000a0: 6ad0 6238 d870 7637 64b1 7334 c2bf 4036
000000b0: bdcc 2f3b 3987 573a a631 0c37 dc17 3639
000000c0: 69eb 003b 43ea 2e3a 8307 d436 d2a9 0239
000000d0: 1e5f 233b 93a2 5e3a b823 0337 1ab3 2d39
000000e0: d2eb 1c3a dd39 4139 516c b735 b793 f637
000000f0: d5e8 8738 7605 9d37 b7b9 2934 8469 6536
00000100: 3df8 4038 085b 6b37 392c dc33 3496 e635
00000110: ce8a 3a39 8f49 8238 5e26 8535 80e6 8237
00000120: ddad 333b b6ef 703a 7499 0337 d0d8 3739
00000130: 414f 033b 0f67 333a 454d d436 4a6c 0a39
00000140: b5cb ae3a bdb7 df39 7bdc 8d36 2fb9 ac38
00000150: a808 d83a 4f2e 123a ff15 a836 fc2d e238
00000160: c2b1 423b 1fe2 843a 112e 1f37 f715 4339
00000170: af98 a738 ceef b037 de3b 8434 91df 8836
00000180: 1527 2c38 32f5 2637 8778 dd33 c7dd 1436
00000190: 9bae ef3a 5df1 0b3a 7d7b b536 75af f238
000001a0: edf4 3c38 e818 8d37 b1c9 0634 923d 0236
000001b0: 4ed2 7738 35a9 8b37 b57e 2534 3006 5a36
000001c0: f497 053b 89cd 343a 0604 dc36 70b8 0139
000001d0: 1751 ad3a 69a7 cd39 c0f4 8c36 181a a638
000001e0: 918f 2a3b e384 683a 6baa 0b37 d185 2b39
000001f0: 0ac2 e53a 7340 1a3a 7370 ba36 3329 f138
00000200: 06e2 043b be71 313a f14e c236 1d9a 0739
00000210: a215 0739 e927 5738 269c be34 468c cb36
00000220: ed19 c63a 98fe 043a 5121 8b36 2a0c c638
00000230: dc1c 643b 8130 9c3a 4334 3c37 91b1 6539
00000240: a8d3 0139 f3cf 1f38 fb0f 9e34 0f9f c936
00000250: 893f 0738 b71b 7537 21db dd33 564b bb35
00000260: a979 413b c62e 833a f15d 1d37 7e50 4b39
00000270: 870e b03a 39ca e939 2e28 9236 91cd b338
00000280: e3f2 d53a 4df0 0f3a a918 af36 8241 dd38
00000290: 2394 a13a 5b20 9039 5603 6536 b09b 8038
000002a0: fe23 d43a 5393 103a 7a0b a036 64a6 d638
000002b0: 38ae cb3a 764f 083a 50b2 9736 82ce d338
000002c0: 3406 c83a c56a 503a b972 fa36 7ef1 1c39
000002d0: 6af4 c53a 82e7 f439 b475 9e36 afe6 b338
000002e0: 89aa 7b3a 04a4 a239 1c44 4e36 8853 7338
000002f0: 8098 ba3a 6ff4 de39 d6cf 9436 c674 b538
00000300: eee8 033b f94b 323a c471 ca36 e898 0b39
00000310: 3e28 e33a b75c 0e3a e1a2 9b36 489c dd38
00000320: efa5 0439 3df5 1c38 eab4 5734 9af2 b836
00000330: 4b55 123a f2fc 1139 3b1b 0436 ba9a 2b38
00000340: 2b88 b63a a982 fc39 fb07 9136 e9c1 ab38
00000350: a1d2 0239 e0b1 0c38 b77b 9e34 6a63 e436
00000360: 73a4 0c3a ff0f 3139 5275 b235 5bce f937
00000370: d669 b93a 05e4 f139 bf8c 8636 3e6a b138
00000380: 022d 9e3a 9a8c d439 a0e9 6936 b8f4 a038
00000390: 95fe 3239 4173 5338 dc82 b334 fa5d 0437
000003a0: 27cf d836 3ec7 2636 e775 c232 e19d b034
000003b0: 7e3f cd3a 897a 0e3a c98c 9736 5aa7 c438
000003c0: eedf 793a 50c8 a139 3223 3c36 6475 7e38
000003d0: 5fc0 8a37 538d 9d36 fba2 4833 37a7 7735
000003e0: 1396 083b 2cfc 313a 5101 b636 6ac6 f938
000003f0: 5565 af3a b3e2 da39 7f53 7636 6406 a338

exp_avg f4 [64]
-0.0102254115 -0.011735281 -0.01127932 -0.014403589 -0.012259396 -0.009510876 -0.008311789 0.0032982512
0.00094080815 -0.011842728 0.00011985063 -0.011471799 -0.008054524 -0.011011372 0.0051281997 0.00058681495
-0.0012784739 -0.0009638441 -0.013494177 -0.009528335 -0.0069333753 -0.00983245 -0.010181689 0.0003186392
-9.081709e-05 -0.010243073 0.00038458273 0.00049545034 -0.0070821694 -0.0047127083 -0.00913358 -0.008764176
-0.011700317 0.0006893279 -0.011959305 -0.010242437 0.0022713696 6.9843714e-05 -0.01122446 -0.0071921577
-0.0079251835 -0.012197462 -0.010075547 -0.010162708 -0.0012077489 -0.008128069 -0.005024451 -0.008131378
-0.011121866 -0.011216956 0.002655957 -0.008388619 -0.0062333113 0.0019603572 -0.0064130104 -0.009782746
-0.009198615 0.0027668022 -0.0001714765 -0.011087853 -0.008007238 0.0006068422 -0.012053445 -0.009994059
00000000: 7c88 27bc 5645 40bc e6cc 38bc 08fd 6bbc
00000010: a2db 48bc 81d3 1bbc 2b2e 08bc 7927 583b
00000020: 91a0 763a 0008 42bc 5158 fb38 36f4 3bbc
00000030: 1ff7 03bc 0b69 34bc 750a a83b 7cd4 193a
00000040: 7792 a7ba 7caa 7cba ae16 5dbc bc1c 1cbc
00000050: 5e31 e3bb 4918 21bc 19d1 26bc 080f a739
00000060: 0e75 beb8 90d2 27bc d2a1 c939 1ce1 013a
00000070: 8b11 e8bb 106d 9abb 03a5 15bc 9e97 0fbc
00000080: b0b2 3fbc 03b4 343a f6f0 43bc e5cf 27bc
00000090: 42db 143b 0f79 9238 cce6 37bc 31ac ebbb
000000a0: a1d8 01bc ddd7 47bc e813 25bc 7d81 26bc
000000b0: 544d 9eba 982b 05bc 26a4 a4bb 7939 05bc
000000c0: 7d38 36bc 53c7 37bc 900f 2e3b 6b70 09bc
000000d0: ce40 ccbb 5679 003b 3b24 d2bb d047 20bc
000000e0: cab5 16bc 3d53 353b 5fce 33b9 d4a9 35bc
000000f0: ca30 03bc 7e14 1f3a d07b 45bc 1fbe 23bc

exp_avg_sq f4 [64]
0.00047562388 0.00095137715 0.0008600571 0.0015538376 0.0010886656 0.0007106452 0.0013854385 9.23112e-05
4.9556405e-05 0.0003943236 1.9915884e-05 0.0015087047 0.0010574921 0.0013872593 0.00017380583 2.0126066e-05
1.2438239e-05 0.00014282626 0.0014293842 0.0011114031 0.000725649 0.0009099758 0.0016130189 2.6636868e-05
1.2739613e-05 0.0010060464 1.6165382e-05 1.9814639e-05 0.0010550615 0.00072441413 0.0014022518 0.0009682192
0.0010568381 4.0499977e-05 0.0007712515 0.0018685375 3.753527e-05 1.2224385e-05 0.0016375097 0.0007434552
0.0008948213 0.0006385963 0.000877176 0.00082630484 0.0012363344 0.0008019335 0.00050251023 0.0007779875
0.0010995991 0.00085201627 3.341232e-05 0.00035030153 0.0007519574 3.7824997e-05 0.00023644703 0.0007368175
0.00065120717 4.6834557e-05 2.6597788e-06 0.00083480554 0.00051810377 6.178469e-06 0.00094418897 0.0007289711
00000000: 285d f939 d765 793a 7475 613a 23aa cb3a
00000010: 8eb1 8e3a 984a 3a3a 9a97 b53a 3397 c138
00000020: c9da 4f38 38bd ce39 0911 a737 bbbf c53a
00000030: 8c9b 8a3a b3d4 b53a a63f 3639 66d4 a837
00000040: d4ad 5037 a2c3 1539 2d5a bb3a 80ac 913a
00000050: 7b39 3e3a 718b 6e3a ef6b d33a 3d72 df37
00000060: 39bc 5537 51dd 833a e59a 8737 9d37 a637
00000070: fd49 8a3a 9ce6 3d3a c3cb b73a 17d0 7d3a
00000080: 9a85 8a3a 85de 2938 d02d 4a3a b7e9 f43a
00000090: 306f 1d38 5517 4d37 b5a1 d63a 6fe4 423a
000000a0: 7192 6a3a 7967 273a 49f2 653a 619c 583a
000000b0: 800c a23a d938 523a e4ba 033a dbf1 4b3a
000000c0: 6c20 903a d859 5f3a 3524 0c38 ada8 b739
000000d0: 021f 453a 48a6 1e38 c4ee 7739 fc26 413a
000000e0: c6b5 2a3a 3970 4438 a77e 3236 dad6 5a3a
000000f0: 5bd1 073a a550 cf36 7383 773a 6c18 3f3a

exp_avg f4 [2, 64]
-0.001672373 -0.0040486855 -0.0045016496 -0.0035092512 -0.0031643487 -0.0031276722 -0.0021824525 -0.00012610531
-0.0002658456 -0.0030078376 -0.00082579005 -0.0037931253 -0.0031749115 -0.0030671237 -2.2359673e-05 -2.4814915e-05
-0.0013526428 -0.0023032823 -0.0032967671 -0.0021598674 -0.004177728 -0.0026955137 -0.002794923 -0.00026371106
-6.872735e-05 -0.0044612465 -5.2367715e-05 -8.292864e-05 -0.0024060826 -0.004081355 -0.0031215285 -0.0040848954
-0.0032019722 -0.0005723494 -0.004054542 -0.002335405 -0.00017079555 -9.01049e-05 -0.0032913284 -0.003301894
-0.003503227 -0.0016160411 -0.0026474155 -0.0035406938 -0.0035681108 -0.0047942246 -0.0030312694 -0.0048260023
-0.0035488913 -0.0041438933 5.0312636e-05 -0.0016412046 -0.0034301798 -2.4215358e-05 -0.0016408728 -0.0030521713
-0.0036023972 0.00016833328 -0.00073439255 -0.0019343789 -0.0025467223 -0.0005582867 -0.0027593176 -0.0028404803
0.001672373 0.004048686 0.004501649 0.0035092507 0.003164349 0.003127672 0.0021824527 0.00012610541
0.00026584562 0.003007837 0.00082579005 0.0037931253 0.0031749115 0.0030671232 2.235973e-05 2.4814963e-05
0.001352643 0.0023032825 0.0032967657 0.002159868 0.004177728 0.0026955132 0.0027949233 0.00026371115
6.8727415e-05 0.004461246 5.236772e-05 8.2928775e-05 0.0024060828 0.004081355 0.003121528 0.0040848968
0.0032019722 0.0005723494 0.0040545426 0.0023354045 0.00017079567 9.01049e-05 0.0032913287 0.0033018931
0.0035032276 0.0016160411 0.0026474155 0.0035406933 0.0035681105 0.004794225 0.0030312703 0.0048260023
0.0035488906 0.0041438937 -5.0312665e-05 0.0016412046 0.00343018 2.4215407e-05 0.0016408726 0.0030521709
0.003602397 -0.00016833322 0.0007343925 0.0019343789 0.0025467228 0.00055828673 0.0027593176 0.0028404798
00000000: 8733 dbba d6aa 84bb 9382 93bb 77fb 65bb
00000010: f660 4fbb a2f9 4cbb 7a07 0fbb 233b 04b9
00000020: 3161 8bb9 241f 45bb d579 58ba 1596 78bb
00000030: 2d12 50bb cc01 49bb 0891 bbb7 a029 d0b7
00000040: 294b b1ba aaf2 16bb 930e 58bb 908c 0dbb
00000050: 53e5 88bb 37a7 30bb 072b 37bb b342 8ab9
00000060: b721 90b8 a62f 92bb 68a5 5bb8 f9e9 adb8
00000070: 5eaf 1dbb e3bc 85bb 8f92 4cbb 96da 85bb
00000080: 2ed8 51bb b809 16ba f7db 84bb 980d 19bb
00000090: 9517 33b9 b3f6 bcb8 54b3 57bb 9764 58bb
000000a0: 6596 65bb 57d1 d3ba 4380 2dbb fc0a 68bb
000000b0: f7d6 69bb df18 9dbb 43a8 46bb 7123 9ebb
000000c0: 8494 68bb 7fc9 87bb c806 5338 b01d d7ba
000000d0: decc 60bb 1622 cbb7 8e12 d7ba f006 48bb
000000e0: 3216 6cbb 9f82 3039 4084 40ba fc8a fdba
000000f0: e9e6 26bb fc59 12ba abd5 34bb 5a27 3abb
00000100: 8733 db3a d7aa 843b 9282 933b 75fb 653b
00000110: f760 4f3b a1f9 4c3b 7b07 0f3b 2a3b 0439
00000120: 3261 8b39 221f 453b d579 583a 1596 783b
00000130: 2d12 503b ca01 493b 2891 bb37 ba29 d037
00000140: 2b4b b13a abf2 163b 8d0e 583b 928c 0d3b
00000150: 53e5 883b 35a7 303b 082b 373b b642 8a39
00000160: c021 9038 a52f 923b 69a5 5b38 0cea ad38
00000170: 5faf 1d3b e3bc 853b 8d92 4c3b 99da 853b
00000180: 2ed8 513b b809 163a f8db 843b 960d 193b
00000190: 9d17 3339 b3f6 bc38 55b3 573b 9364 583b
000001a0: 6896 653b 57d1 d33a 4380 2d3b fa0a 683b
000001b0: f6d6 693b e018 9d3b 47a8 463b 7123 9e3b
000001c0: 8194 683b 80c9 873b d006 53b8 b01d d73a
000001d0: dfcc 603b 3122 cb37 8c12 d73a ee06 483b
000001e0: 3116 6c3b 9b82 30b9 3f84 403a fc8a fd3a
000001f0: ebe6 263b fd59 123a abd5 343b 5827 3a3b

exp_avg_sq f4 [2, 64]
0.00022390537 0.00027476042 0.0002868584 0.00019767538 0.00014914825 0.00019415868 0.00016546914 1.5400463e-05
1.562252e-05 0.0002657043 3.380179e-05 0.00022219849 0.00017287901 0.00019394973 1.0299496e-05 7.013197e-06
6.69735e-05 0.00028657247 0.00015100704 0.0002242804 0.0002940265 0.00026737043 0.0001481324 7.2894777e-06
7.681435e-06 0.0002810712 2.0807781e-06 1.3485613e-05 0.00013642272 0.00038439178 0.000137405 0.00022098988
0.00014611505 6.0911457e-06 0.00020274553 0.00016994798 7.223034e-05 4.783698e-06 0.00017644862 0.0003597841
0.00032340107 0.00021119049 0.00031215802 0.0001747119 0.00026070589 0.00025580035 0.00016668403 0.00030134062
0.00014888392 0.00029912713 4.901971e-06 0.00029269146 0.0002340241 3.738844e-06 3.0367031e-05 0.00019595906
0.00020683938 1.7469043e-05 8.277177e-05 0.000341857 0.00016188424 6.914413e-05 8.339502e-05 0.00018040228
0.00022390537 0.00027476044 0.00028685838 0.00019767538 0.00014914825 0.00019415868 0.00016546914 1.5400463e-05
1.562252e-05 0.00026570426 3.380179e-05 0.00022219852 0.00017287901 0.00019394972 1.0299499e-05 7.013197e-06
6.697347e-05 0.00028657247 0.00015100704 0.00022428045 0.00029402645 0.0002673704 0.0001481324 7.289477e-06
7.681435e-06 0.00028107123 2.0807781e-06 1.3485613e-05 0.00013642274 0.00038439178 0.000137405 0.0002209899
0.00014611507 6.091145e-06 0.00020274553 0.00016994799 7.223034e-05 4.7836975e-06 0.00017644864 0.00035978417
0.00032340112 0.00021119053 0.000312158 0.0001747119 0.00026070589 0.00025580023 0.00016668403 0.00030134062
0.00014888392 0.00029912713 4.901971e-06 0.00029269146 0.0002340241 3.738844e-06 3.0367024e-05 0.00019595903
0.00020683941 1.7469045e-05 8.277176e-05 0.000341857 0.0001618842 6.914414e-05 8.339502e-05 0.00018040228
00000000: 24c8 6a39 b80d 9039 7c65 9639 1547 4f39
00000010: ae64 1c39 1397 4b39 c981 2d39 3e30 8137
00000020: 1b0d 8337 3a4e 8b39 65c6 0d38 f4fd 6839
00000030: db46 3539 fc5e 4b39 00cc 2c37 e752 eb36
00000040: 2074 8c38 1b3f 9639 a557 1e39 d02c 6b39
00000050: 9227 9a39 da2d 8c39 fd53 1b39 2398 f436
00000060: 83df 0037 bd5c 9339 7fa3 0b36 4440 6237
00000070: b20c 0f39 3188 c939 6014 1039 85b9 6739
00000080: 7636 1939 8b62 cc36 1798 5439 1034 3239
00000090: 5e7a 9738 a783 a036 1105 3939 68a1 bc39
000000a0: 288e a939 0473 5d39 24a9 a339 de32 3739
000000b0: 5aaf 8839 f11c 8639 e7c7 2e39 41fd 9d39
000000c0: b91d 1c39 2ad4 9c39 9c7b a436 6274 9939
000000d0: 5e64 7539 dae8 7a36 b4bc fe37 5c7a 4d39
000000e0: 06e3 5839 7c8a 9237 c195 ad38 453b b339
000000f0: 78bf 2939 7901 9138 5ce4 ae38 5e2a 3d39
00000100: 24c8 6a39 b90d 9039 7b65 9639 1547 4f39
00000110: ae64 1c39 1397 4b39 c981 2d39 3e30 8137
00000120: 1b0d 8337 394e 8b39 65c6 0d38 f6fd 6839
00000130: db46 3539 fb5e 4b39 03cc 2c37 e752 eb36
00000140: 1c74 8c38 1b3f 9639 a557 1e39 d32c 6b39
00000150: 9027 9a39 d92d 8c39 fd53 1b39 2198 f436
00000160: 83df 0037 be5c 9339 7fa3 0b36 4440 6237
00000170: b30c 0f39 3188 c939 6014 1039 86b9 6739
00000180: 7736 1939 8a62 cc36 1798 5439 1134 3239
00000190: 5e7a 9738 a683 a036 1205 3939 6aa1 bc39
000001a0: 2a8e a939 0773 5d39 23a9 a339 de32 3739
000001b0: 5aaf 8839 ed1c 8639 e7c7 2e39 41fd 9d39
000001c0: b91d 1c39 2ad4 9c39 9c7b a436 6274 9939
000001d0: 5e64 7539 dae8 7a36 b0bc fe37 5a7a 4d39
000001e0: 08e3 5839 7d8a 9237 c095 ad38 453b b339
000001f0: 76bf 2939 7a01 9138 5ce4 ae38 5e2a 3d39

exp_avg f4 [2]
-0.0053730705 0.005373071
00000000: 9510 b0bb 9610 b03b

exp_avg_sq f4 [2]
0.0005218764 0.0005218764
00000000: 88ce 083a 88ce 083a

exp_avg f4 [1, 64]
-0.0116970865 -0.015692689 -0.017016592 -0.013576698 -0.012449102 -0.011846506 -0.0061270753 -0.00083436025
0.0021510718 -0.010662301 0.0026890095 -0.006314814 -0.00563597 -0.009539277 2.0514317e-05 0.001521393
-0.0028854285 -0.00039734066 -0.013476688 -0.012442646 -0.005171133 -0.017023915 -0.00241348 0.0013510127
0.0018581197 -0.0076110563 0.0004434906 0.0019163955 -0.0062701274 -0.004989328 -0.003574225 -0.0071378243
-0.013401478 -0.002160549 -0.008703121 -0.006903474 -0.0013932228 4.5971145e-05 -0.0073035946 -0.00820692
-0.01037704 -0.014019299 -0.018345747 -0.012220294 0.0014431995 -0.002405221 -0.004410314 -0.005943245
-0.0084853005 -0.017227028 0.0012361531 -0.009733136 -0.0029243862 0.0013427945 -0.0070926817 -0.018901935
-0.0115326885 0.002103842 -0.00096707314 -0.020975241 -0.013211271 0.0027844063 -0.00795215 -0.013116582
00000000: 23a5 3fbc f48d 80bc 6166 8bbc cc70 5ebc
00000010: 51f7 4bbc d917 42bc a2c5 c8bb f8b8 5aba
00000020: fff8 0c3b efb0 2ebc 183a 303b 80ec cebb
00000030: f1ad b8bb a14a 1cbc 2916 ac37 7a69 c73a
00000040: 7519 3dbb 2952 d0b9 54cd 5cbc 3ddc 4bbc
00000050: 9c72 a9bb bd75 8bbc 7a2b 1ebb 7714 b13a
00000060: 278c f33a 2b66 f9bb 4d84 e839 902f fb3a
00000070: a475 cdbb 847d a3bb 8b3d 6abb 69e4 e9bb
00000080: df91 5bbc ff97 0dbb 8997 0ebc 8a36 e2bb
00000090: cd9c b6ba 24d1 4038 fe52 efbb 5176 06bc
000000a0: 7604 2abc 34b1 65bc d249 96bc a137 48bc
000000b0: bd29 bd3a eaa0 1dbb 6584 90bb 8dbf c2bb
000000c0: ee05 0bbc b21f 8dbc 6a06 a23a bb77 1fbc
000000d0: 0fa7 3fbb b500 b03a ba69 e8bb 3bd8 9abc
000000e0: 9af3 3cbc 9de0 093b 2e83 7dba 45d4 abbc
000000f0: 1674 58bc 967a 363b bc49 02bc efe6 56bc

exp_avg_sq f4 [1, 64]
0.0011010162 0.0015069436 0.0015576335 0.0011266774 0.00089024886 0.0010869359 0.0009564645 5.33e-05
5.15031e-05 0.0012422476 0.000114592236 0.0011567556 0.0010315449 0.0010902861 3.6064386e-05 2.1863976e-05
0.0002515049 0.0011194401 0.00093452167 0.001235314 0.001594573 0.001504912 0.0008744207 2.4265984e-05
2.7004278e-05 0.001400099 6.5582317e-06 4.2560205e-05 0.0008170599 0.0018420517 0.00077034824 0.0012660106
0.0009221401 2.4999461e-05 0.0010306308 0.00095885555 0.00025432644 1.5128434e-05 0.0010034371 0.0018482264
0.0017179425 0.0010794129 0.0016818036 0.0010587237 0.001023412 0.0013004435 0.0009299335 0.0015434207
0.00084893155 0.0016262775 1.921943e-05 0.0013419903 0.0011043904 1.2341761e-05 0.00019423538 0.0012362569
0.001131489 6.8049034e-05 0.0002981403 0.0017270311 0.00097288424 0.00022043267 0.00049681007 0.0010073524
00000000: f94f 903a a384 c53a 8229 cc3a 05ad 933a
00000010: 975f 693a 8477 8e3a 3fbb 7a3a 708e 5f38
00000020: 0805 5838 ead2 a23a 3d51 f038 479e 973a
00000030: e734 873a eee7 8e3a d743 1738 8868 b737
00000040: 6bdc 8339 2dba 923a b0fa 743a 42ea a13a
00000050: fe00 d13a 7840 c53a 6139 653a ce8e cb37
00000060: 3f87 e237 8783 b73a c80e dc36 ac82 3238
00000070: f62f 563a 0071 f13a 32f1 493a 44f0 a53a
00000080: c6bb 713a efb5 d137 3b16 873a b55b 7b3a
00000090: 1e57 8539 21d0 7d37 c385 833a 3040 f23a
000000a0: 962c e13a 167b 8d3a f76f dc3a dfc4 8a3a
000000b0: 0224 863a a573 aa3a c8c6 733a 9b4c ca3a
000000c0: d58a 5e3a d128 d53a 6939 a137 b9e5 af3a
000000d0: 31c1 903a 760f 4f37 aaab 4b39 e609 a23a
000000e0: 794e 943a 8cb5 8e38 b74f 9c39 8c5d e23a
000000f0: 2809 7f3a f223 6739 5c3c 023a 2309 843a
