savedModels/cartpole/ppo_cartpole_20480.pth (torch, 13659 bytes, 15 tensors)

shared_fc.0.weight f4 [64, 4]
0	0x3d8f4b91	0.06996835
1	0x3ecbff01	0.3984299
2	0xb9c1f536	-0.00036994525
3	0xbe85c87f	-0.2612953
4	0xbddea200	-0.10870743
5	0xbe27c330	-0.16383052
6	0xbf3e0768	-0.7423005
7	0xbea079d2	-0.31342942
8	0xbd3479de	-0.044061534
9	0xbebff13e	-0.3748874
10	0xbee7c387	-0.45266363
11	0xbf05aa9f	-0.5221347
12	0xbd7e5ebd	-0.06210207
13	0xbe22433b	-0.15845959
14	0xbf0a77ee	-0.5408925
15	0xbe8b3ebf	-0.2719631
16	0x3da1e0e0	0.079042196
17	0xb9b749be	-0.00034959422
18	0xbf529e75	-0.82273036
19	0xbe8148b8	-0.25250793
20	0xbe067928	-0.13132155
21	0x3d83696c	0.06416592
22	0xbe40131d	-0.18757291
23	0xbd5ed2c0	-0.054400206
24	0xbe4049d9	-0.1877817
25	0x3e394593	0.18092947
26	0x3f050bd8	0.519712
27	0x3ea5333e	0.32265657
28	0xbdd97d69	-0.10619623
29	0xbd20af3a	-0.03922961
30	0xbd1b8df3	-0.03797717
31	0xbdefe629	-0.117138214
32	0x3e30d1a7	0.17267476
33	0xbd75b57f	-0.05998754
34	0xbdf21301	-0.11820031
35	0x3d3fdcd4	0.046841457
36	0x3ea1ed7c	0.316265
37	0x3de63c81	0.11242009
38	0xbcf76267	-0.03019829
39	0xbe9a6aeb	-0.30159697
40	0x3ea0a028	0.3137219
41	0xbec49257	-0.38392898
42	0xbe81d475	-0.25357404
43	0xbdcfeca9	-0.10152561
44	0xbd70e310	-0.058810294
45	0xbe71014f	-0.23535655
46	0xbd43013f	-0.04760861
47	0x3de4f369	0.11179239
48	0xbd39fa24	-0.04540457
49	0x3d8dc39f	0.069220774
50	0x3eca18d0	0.39472055
51	0x3e886a3b	0.26643547
52	0xbdd954a7	-0.10611849
53	0xbd1fb64f	-0.038992222
54	0x3dcc9dd6	0.09991042
55	0x3d8b3ea1	0.06799055
56	0xbd142591	-0.03616864
57	0x3d56fd27	0.05248752
58	0xbe14f849	-0.14547838
59	0xbd35c8bc	-0.04438089
60	0x3d8f089f	0.06984066
61	0x3d776176	0.06039568
62	0xbd507937	-0.05089685
63	0x3e321183	0.17389493
64	0xbd779de9	-0.06045333
65	0xbeb15123	-0.34632215
66	0xbe832486	-0.25613803
67	0xbdd4bb52	-0.10387291
68	0x3e9a3995	0.30122057
69	0x3e890de1	0.267684
70	0xbc6b4bdc	-0.014361348
71	0x3dbcff85	0.09228424
72	0x3d248d24	0.040173665
73	0xbdbe8559	-0.09302778
74	0xbef26f2f	-0.4735045
75	0xbe9ffc31	-0.31247094
76	0xbe601840	-0.2188425
77	0x3e961c83	0.29318628
78	0x3ea14b82	0.3150292
79	0x3daf2cd1	0.0855347
80	0xbda257a6	-0.07926874
81	0xbdf354bb	-0.118813954
82	0x3eb3f315	0.35146394
83	0x3e9338e1	0.28754333
84	0xbdffeaba	-0.124959424
85	0x3e13c830	0.14431834
86	0x3d7de076	0.06198164
87	0xbe4818c0	-0.19540691
88	0x3c8e1fa8	0.01734908
89	0x3de73551	0.11289466
90	0x3ea02e59	0.3128536
91	0x3ee2adaf	0.44273135
92	0x3d6e29bf	0.05814528
93	0xbe08a675	-0.13344748
94	0xbe0f947a	-0.14021483
95	0x3caaf432	0.020868395
96	0x3e168d9f	0.14702462
97	0x3cf3c743	0.029758101
98	0xbe9b46b0	-0.30327368
99	0x3e9da6ae	0.3079123
100	0x3b40f0e0	0.0029440448
101	0xbeb8174b	-0.3595527
102	0xbe47b9aa	-0.19504419
103	0xbd02f6cf	-0.031973656
104	0xbdaf8bb7	-0.0857157
105	0x3cad6665	0.02116699
106	0x3d89c85e	0.0672767
107	0x3e1f9a42	0.15586188
108	0x3e0be5a4	0.1366182
109	0x3c5a42a3	0.0133215515
110	0x3d6fdc06	0.05855944
111	0x3e162c1e	0.14665267
112	0xbdf665c4	-0.12031129
113	0x3dca1fc4	0.0986934
114	0x3ed53e6c	0.41649187
115	0x3e5f5d94	0.21813041
116	0xbe2ec239	-0.17066278
117	0xbe8b9860	-0.2726469
118	0x3f11b0b2	0.5691024
119	0x3e6c007a	0.23047057
120	0x3dbcde6f	0.09222113
121	0xbc8aa09e	-0.016922291
122	0x3f17d64c	0.59311366
123	0x3e45d3df	0.19319104
124	0x3cbd28c6	0.023090731
125	0xbe1e9509	-0.1548654
126	0x3eb5bc27	0.3549511
127	0x3dac5623	0.08414867
128	0x3d681842	0.05666376
129	0xbd16bef0	-0.036803186
130	0xbf0c4731	-0.5479613
131	0xbe98ee6a	-0.29869395
132	0x3def8ac5	0.1169639
133	0xbe52064f	-0.20510219
134	0xbdd02336	-0.10162966
135	0xbea75e56	-0.3268916
136	0x3e94b0c1	0.29041103
137	0xbdcac123	-0.09900119
138	0xbef8816b	-0.48536238
139	0xbe781ca9	-0.24229683
140	0xbe2a06a7	-0.166041
141	0x3e03e8eb	0.1288182
142	0x3efcbdf8	0.49363685
143	0x3e840554	0.25785315
144	0xbe8f5f00	-0.28002167
145	0x3c029500	0.007970095
146	0x3e90dcf5	0.28293577
147	0xbe0a0803	-0.13479619
148	0xbddbbc6b	-0.10729297
149	0x3e96be22	0.29441935
150	0x3e11036f	0.14161466
151	0x3e156ca8	0.1459223
152	0xbd9af6f5	-0.075666346
153	0xbe0117e9	-0.12606777
154	0x3eb934d3	0.36173114
155	0x3de29bbb	0.110648595
156	0xbeb9d1ea	-0.36292964
157	0x3d2b7ee1	0.041869048
158	0x3e0dc6d1	0.13845374
159	0x3eaf090f	0.341866
160	0xbe84c4d2	-0.25931412
161	0xbd07b704	-0.03313352
162	0x3f0c3ceb	0.54780453
163	0x3e174eee	0.14776203
164	0xbd51e152	-0.051240273
165	0x3ef97c39	0.48727587
166	0xbdd8047a	-0.10547729
167	0xbe63b7a4	-0.22238022
168	0xbe5174f2	-0.20454767
169	0x3e2d1675	0.16903098
170	0xbec809d2	-0.39069992
171	0xbe4f2e41	-0.20232488
172	0x3e1b8cc5	0.15190418
173	0xbd38f3f2	-0.04515452
174	0xbe5b5c42	-0.21421912
175	0xbe84892e	-0.2588591
176	0x3ed3cd5f	0.41367623
177	0x3b4e6214	0.0031491565
178	0x3d06ecc5	0.032940645
179	0x3e5d6573	0.21620731
180	0x3e0fe5f5	0.14052565
181	0xbec6c09a	-0.38818818
182	0x3ee77797	0.45208427
183	0x3e199b53	0.15000658
184	0xbd883bdb	-0.066520415
185	0xbe1f9291	-0.15583254
186	0x3f311c23	0.6918356
187	0x3e1b55a9	0.15169396
188	0x3d5c1da1	0.053739194
189	0xbeb97b93	-0.36227092
190	0x3eb8ef25	0.36119953
191	0x3d8340d6	0.06408851
192	0x3e54f80d	0.20797749
193	0xbdb8336f	-0.08994185
194	0xbdf197e3	-0.11796548
195	0xbe25eed7	-0.16204391
196	0xbdd59500	-0.1042881
197	0xbe81acee	-0.25327247
198	0xbeec3e9b	-0.46141514
199	0xbed1af0d	-0.40953866
200	0xbdceaead	-0.100919105
201	0xbb98e55e	-0.0046660146
202	0x3dc97645	0.09837011
203	0x3dd2180e	0.10258494
204	0x3e88d517	0.26725075
205	0x3ea39da2	0.31956202
206	0xbe338fd1	-0.1753533
207	0xbf05d008	-0.52270555
208	0x3e3ab829	0.18234314
209	0x3dc7c937	0.097551756
210	0x3ee55914	0.44794524
211	0x3e932e4e	0.28746265
212	0x3cbb9437	0.022897823
213	0xbbd32c8c	-0.0064445194
214	0x3e6d28ec	0.23160142
215	0x3e069cb0	0.13145709
216	0x3cd126b0	0.025531143
217	0xbc1a4d24	-0.009417806
218	0xbe89d076	-0.26916856
219	0xbe51a9a1	-0.20474865
220	0x3c51a01e	0.012794523
221	0xbc1ea8ff	-0.0096838465
222	0xbeadfb2a	-0.33980685
223	0xbf095343	-0.5364267
224	0x3e76786a	0.24069372
225	0x3c915a74	0.017743327
226	0xbe826bcd	-0.2547287
227	0xbe8bc63c	-0.27299678
228	0xbe5c0eda	-0.2149004
229	0x3d63d10f	0.055619296
230	0xbda387bd	-0.079848744
231	0x3e828e3c	0.2549914
232	0x3e8238db	0.25434002
233	0x3e81563d	0.25261107
234	0xbe8f0203	-0.27931222
235	0xbe0edd11	-0.13951518
236	0xbe9dec56	-0.30844373
237	0x3e4257bc	0.1897878
238	0xbe856540	-0.2605381
239	0xbeb1e494	-0.34744704
240	0x3d5b884a	0.053596772
241	0x3e4b4cc5	0.19853504
242	0xbdf007f0	-0.11720264
243	0xbdf7e29d	-0.1210377
244	0x3ec33b53	0.38131198
245	0x3d8a5a9b	0.06755563
246	0x3e9edeb6	0.3102929
247	0xbc8ee43b	-0.017442813
248	0x3d2d1140	0.04225278
249	0xbd33e683	-0.043921005
250	0xbf22c5c8	-0.6358304
251	0xbe25481f	-0.16140793
252	0x3e1195c7	0.14217292
253	0x3e2c452a	0.16823259
254	0xbe895652	-0.2682367
255	0xbe80705b	-0.2508572

shared_fc.0.bias f4 [64]
0	0x3e419210	0.18903375
1	0x3e661fed	0.22473116
2	0x3e778c9e	0.24174735
3	0x3e531543	0.2061358
4	0x3e685cb3	0.22691612
5	0xbdc2cab0	-0.09511316
6	0x3e7ac68b	0.244898
7	0xbd81b012	-0.06332411
8	0xbd85a4e4	-0.06525591
9	0x3e5fe232	0.2186363
10	0xbd908077	-0.07055753
11	0x3e4cda8c	0.20005244
12	0x3e657857	0.22409187
13	0x3e5c6372	0.2152231
14	0xbd85b0f8	-0.06527895
15	0xbda1ca40	-0.07899904
16	0xbcfcca19	-0.030858086
17	0x3d0fb969	0.03508893
18	0x3e4efd42	0.20213798
19	0x3e690c86	0.22758684
20	0x3e90bb5e	0.2826795
21	0x3e81b320	0.25331974
22	0x3e70599d	0.23471685
23	0xbcdbd9cd	-0.026837254
24	0xbdc1df13	-0.09466376
25	0x3e553c77	0.20823847
26	0xbd943701	-0.07237054
27	0xbdb97b25	-0.09056691
28	0x3e34eca8	0.17668402
29	0x3e77bd18	0.24193227
30	0x3e6af35a	0.22944394
31	0x3e6f9545	0.23396786
32	0x3e6297c5	0.22128208
33	0xbd5f19a5	-0.054467816
34	0x3e649098	0.22320783
35	0x3e642f05	0.22283562
36	0xbddfca00	-0.109272
37	0xbd22a5b9	-0.039708827
38	0x3e5a3699	0.2130989
39	0x3e8567bc	0.26055706
40	0x3e6c8cb3	0.23100547
41	0x3e4122a7	0.18860875
42	0x3e7bdf54	0.24596912
43	0x3e583473	0.21113758
44	0x3e4a9f4d	0.19787331
45	0x3e7d48a1	0.24734737
46	0x3e0ee8e9	0.13956036
47	0x3e81828b	0.2529491
48	0x3e5ba535	0.2144974
49	0x3e6783d6	0.22608885
50	0xbd9c2e53	-0.07626023
51	0x3e3c732c	0.1840331
52	0x3e7d0669	0.24709477
53	0xbd75e0c1	-0.060028795
54	0xbda8226a	-0.08209689
55	0x3e7ec956	0.24881491
56	0x3e6dc6ed	0.23220415
57	0xbdd00fa9	-0.10159237
58	0xbd040475	-0.032230813
59	0x3e544bdc	0.20732063
60	0x3e25df78	0.16198528
61	0xbcef158e	-0.029185083
62	0x3dd2d4a5	0.10294465
63	0x3e559562	0.20857766

actor_head.weight f4 [2, 64]
0	0x3cc413c1	0.0239352
1	0x3e783a64	0.24241024
2	0x3e55e0f8	0.208866
3	0x3e786dbb	0.24260609
4	0x3e290e68	0.16509402
5	0xbe117287	-0.14203845
6	0xbe6a2c0e	-0.22868368
7	0xbbfd2ed0	-0.0077265278
8	0x3d6a8d33	0.057263564
9	0x3d30557c	0.043050274
10	0x3df699e9	0.12041075
11	0xbd24b6a9	-0.04021326
12	0xbe320e15	-0.17388184
13	0xbc9b940a	-0.018991489
14	0xbdcc67ed	-0.0998076
15	0x3d9d9174	0.076937586
16	0x3d971443	0.073769115
17	0xbd8f5c3d	-0.07000015
18	0x3e2bc75b	0.16775267
19	0xbde3c88a	-0.11122234
20	0xbdd0ab2f	-0.10188901
21	0x3c7eb00e	0.015544904
22	0xbe122f7c	-0.14275926
23	0x3e21dc1f	0.15806626
24	0x3ba74a9c	0.0051053297
25	0x3cf08234	0.02935896
26	0x3e291488	0.16511738
27	0x3dba53cc	0.09098014
28	0xbe7744d9	-0.24147357
29	0xbdc2c3fc	-0.09510037
30	0xbe5191f7	-0.20465837
31	0xbd91c24e	-0.07117139
32	0x3e1f0665	0.15529783
33	0x3da4de09	0.08050162
34	0x3e28c81e	0.16482589
35	0xbe668419	-0.22511329
36	0xbd548f1b	-0.05189429
37	0xbe0f8f66	-0.14019546
38	0xbe000df9	-0.1250533
39	0xbdf8f4db	-0.121560775
40	0xbe1aa22b	-0.15100925
41	0x3d20bc64	0.039242163
42	0x3dc78803	0.09742739
43	0x3de4d885	0.1117411
44	0xbdd1d4f0	-0.10245693
45	0xbd7dfcb9	-0.062008593
46	0xbd86fadf	-0.065908186
47	0xbd7371e7	-0.059434798
48	0x3da76892	0.08174242
49	0x3e6a03d6	0.22853026
50	0x3c98196a	0.018566806
51	0x3d92ed68	0.07174188
52	0xbe4689c7	-0.19388495
53	0x3e903790	0.2816739
54	0xbb99c384	-0.0046924967
55	0x3de1d185	0.11026291
56	0x3db6cca3	0.0892575
57	0x3c946bd5	0.018117825
58	0x3cbc1608	0.022959724
59	0x3daa5107	0.08316236
60	0x3ce80815	0.028324166
61	0xbd9fc96e	-0.078020915
62	0x3ea38af0	0.31941938
63	0x3d600c1a	0.05469904
64	0xbca0179e	-0.019542512
65	0xbe81767a	-0.25285703
66	0xbe613426	-0.2199255
67	0xbe7b9411	-0.24568202
68	0xbe425c6f	-0.18980573
69	0x3e159de7	0.14611016
70	0x3e73e7f4	0.23818952
71	0x3c361ba7	0.011114991
72	0xbd95b97c	-0.07310769
73	0xbd9354c4	-0.07193902
74	0xbd9fae1d	-0.07796881
75	0x3cf061ba	0.029343475
76	0x3e3cff29	0.18456711
77	0x3d3b1bd6	0.045680843
78	0x3daad68a	0.08341701
79	0xbdb9b814	-0.09068313
80	0xbe09f6f6	-0.13473114
81	0x3d8b7ee1	0.068113096
82	0xbe3806af	-0.179713
83	0x3dd6a790	0.10481179
84	0x3d9a742f	0.075416915
85	0xbd0e1477	-0.034687486
86	0x3e1e0372	0.15431002
87	0xbe366589	-0.1781217
88	0xbcd47a63	-0.025937265
89	0xbd22830f	-0.03967577
90	0xbe159266	-0.14606628
91	0xbdae9312	-0.08524145
92	0x3e53ce19	0.20684089
93	0x3dd50f5d	0.10403321
94	0x3e643ba9	0.22288384
95	0x3dc35937	0.09538501
96	0xbe25efdc	-0.1620478
97	0xbd9a18b0	-0.0752424
98	0xbe181555	-0.14851888
99	0x3e72932c	0.23688954
100	0x3d8543f1	0.065070994
101	0x3e015fdb	0.12634222
102	0x3de971f6	0.113986894
103	0x3de123fb	0.10993191
104	0x3e0d1d3f	0.13780688
105	0xbce2b260	-0.027672946
106	0xbdc13fd9	-0.09436006
107	0xbdf8297e	-0.12117289
108	0x3d911778	0.070845544
109	0x3daed83b	0.085373364
110	0x3d5300e3	0.051514518
111	0x3d72de75	0.059294183
112	0xbd746b82	-0.05967284
113	0xbe6c8487	-0.2309743
114	0xbc92b2ac	-0.017907463
115	0xbd48a33a	-0.04898379
116	0x3e5501fe	0.20801541
117	0xbe8f20f0	-0.27954817
118	0xbb3caa46	-0.0028788014
119	0xbdf53e37	-0.11974757
120	0xbdb695a8	-0.089152634
121	0xbc97a7c6	-0.018512618
122	0xbca72cd6	-0.020407122
123	0xbd9bdfed	-0.0761107
124	0xbc8b76be	-0.017024394
125	0x3da32252	0.079655305
126	0xbe9e24c4	-0.30887425
127	0xbdb5c5ae	-0.08875595

actor_head.bias f4 [2]
0	0xbc93bef5	-0.018035391
1	0x3c93bef6	0.018035393

critic_head.weight f4 [1, 64]
0	0x3e791398	0.2432388
1	0x3e5253be	0.20539758
2	0x3e550dc3	0.20806031
3	0x3ea7ea28	0.32795835
4	0x3ea0b094	0.31384718
5	0xbda3b0be	-0.07992695
6	0x3e9f5f9f	0.3112764
7	0xbe30924d	-0.1724331
8	0xbe0b512d	-0.13605185
9	0x3e499e49	0.19689287
10	0xbd38470a	-0.044989623
11	0x3edac665	0.42729488
12	0x3e6f2f01	0.23357774
13	0x3e9e0fb4	0.30871356
14	0xbe845249	-0.2584403
15	0xbdd28ac3	-0.10280373
16	0xbc4059c2	-0.01174015
17	0x3d83eda2	0.06441809
18	0x3e9c8c29	0.30575684
19	0x3e863c20	0.26217747
20	0x3e31f9a0	0.1738038
21	0x3e4a47ee	0.19754001
22	0x3ece0614	0.40239012
23	0x3b29c36f	0.002590384
24	0xbd9cdbce	-0.07659112
25	0x3ea247ff	0.31695554
26	0xbe21b25c	-0.15790695
27	0xbdb82091	-0.089905865
28	0x3e431a62	0.19053033
29	0x3e895733	0.2682434
30	0x3eb8db2f	0.36104724
31	0x3e4f8b14	0.20267898
32	0x3e820c3c	0.2539996
33	0xbe4c1e3c	-0.19933408
34	0x3e6298b7	0.22128569
35	0x3ed35ccb	0.41281733
36	0xbe0220ad	-0.12707777
37	0xbd82c2a1	-0.06384779
38	0x3ec380d3	0.38184223
39	0x3e519710	0.20467782
40	0x3e4f6c87	0.20256244
41	0x3e8e67c2	0.27813536
42	0x3e40148d	0.1875784
43	0x3e45731e	0.19282195
44	0x3f2153c1	0.63018423
45	0x3e6c0e50	0.23052335
46	0x3d77665e	0.06040036
47	0x3e5dc559	0.21657313
48	0x3e9002fa	0.2812727
49	0x3e3f0885	0.18655594
50	0xbdc7e281	-0.09759999
51	0x3e89120a	0.26771575
52	0x3e8cc2c7	0.27492353
53	0xbe211896	-0.15732035
54	0xbd98f251	-0.07468093
55	0x3e2ec094	0.1706565
56	0x3e475e8e	0.19469664
57	0xbe02eeab	-0.12786357
58	0xbbb673c2	-0.0055679986
59	0x3e62fdd7	0.22167145
60	0x3dd4a433	0.10382881
61	0xbcfa65c9	-0.030566113
62	0x3dd99412	0.10623945
63	0x3e796cda	0.2435793

exp_avg f4 [64, 4]
0	0xbab82be7	-0.001405117
1	0xb910e0a1	-0.00013816591
2	0x3902f949	0.00012490632
3	0xb8fa9b73	-0.000119498836
4	0xbb5afed2	-0.0033416045
5	0xbba44699	-0.0050132987
6	0x398ecf18	0.00027238647
7	0x3b388320	0.0028154328
8	0xbb33ec4b	-0.0027454074
9	0xbb7a4cf8	-0.003819285
10	0x393c42fc	0.00017954031
11	0x3b157dd3	0.0022810593
12	0xbb7b75fa	-0.003836988
13	0xbbaf9b2a	-0.005359073
14	0x3978f95e	0.0002374402
15	0x3b3e2fcd	0.002902019
16	0xbbf1971a	-0.007372749
17	0xbbb10d0e	-0.0054031676
18	0xb9137d01	-0.0001406558
19	0xb91896db	-0.00014552048
20	0xba9a257a	-0.0011760436
21	0xba305c57	-0.0006727627
22	0x36f51e44	7.3050924e-06
23	0xba237674	-0.00062356074
24	0x3aa4dc88	0.001257793
25	0x3b981ec7	0.004642341
26	0x3a5896b8	0.0008262205
27	0x3a784e8a	0.00094721525
28	0x3a8f9d4c	0.0010956912
29	0x3a10f099	0.0005529016
30	0xb81bd809	-3.7156078e-05
31	0x392d44d1	0.00016524202
32	0xba735cc3	-0.0009283537
33	0xba24eaed	-0.000629111
34	0xb984acf7	-0.0002530587
35	0xbaa26d2a	-0.0012392153
36	0xbaeda89e	-0.0018131917
37	0xba9588a3	-0.0011408519
38	0xb7cffd89	-2.4794384e-05
39	0x368883e8	4.0684718e-06
40	0xb9194a1d	-0.00014618826
41	0xb9de4e4c	-0.00042401475
42	0xb7864839	-1.6007676e-05
43	0xb6139974	-2.1994028e-06
44	0xbb5fff74	-0.0034179362
45	0xbadf2232	-0.0017023741
46	0x3a129ad6	0.00055925304
47	0x3b0829aa	0.0020776787
48	0x3b6167b7	0.0034394094
49	0x3b9769d7	0.0046207714
50	0x3a2fc5c1	0.0006705188
51	0x3abeb061	0.0014548415
52	0xbb15d4a2	-0.0022862335
53	0xba4fcbaa	-0.00079267717
54	0x39e74820	0.0004411349
55	0x3abcd065	0.0014405368
56	0x39c493e8	0.00037494232
57	0x381b68aa	3.7052356e-05
58	0xb74aa37e	-1.2078204e-05
59	0x38ec9488	0.00011281023
60	0xba9388b3	-0.001125595
61	0xba88db27	-0.0010441289
62	0xb9aa7a15	-0.00032515885
63	0xba9de44e	-0.001204619
64	0x3a0ceecb	0.0005376159
65	0xba01b7f9	-0.00049483735
66	0xb7912850	-1.7304119e-05
67	0x3a09040e	0.00052267394
68	0x3abfc215	0.0014629985
69	0x3af1b4fd	0.001844078
70	0x391824f9	0.00014509623
71	0xb8067631	-3.2058164e-05
72	0xbbb68c2f	-0.0055709104
73	0xbb9908f1	-0.0046702554
74	0x3924845b	0.00015689565
75	0x3a91944d	0.0011106819
76	0x39638b21	0.00021700237
77	0x3aa5cec1	0.0012650118
78	0x39ffa4b5	0.00048760106
79	0x3aab4e47	0.0013069593
80	0x393599d7	0.00017318815
81	0x3ab99d29	0.0014161217
82	0x39d0aa2f	0.00039799648
83	0x3a5273b4	0.00080281054
84	0xbab314c2	-0.0013662803
85	0xba981d6a	-0.0011605446
86	0x3915e1df	0.00014293891
87	0x3a1f1e7e	0.00060699123
88	0x3b30455c	0.002689681
89	0x3b6a8cf1	0.0035789574
90	0x3a6d64e9	0.00090558693
91	0x3b41cce8	0.0029571597
92	0xbb6914a6	-0.0035565286
93	0xbb373a84	-0.0027958462
94	0xb9207a12	-0.00015304264
95	0x393e4f24	0.00018149294
96	0xb8b8056d	-8.774814e-05
97	0xb8a725ce	-7.970222e-05
98	0xb8fc604c	-0.00012034233
99	0xba1b66d3	-0.0005928103
100	0xbb71f1d6	-0.0036917827
101	0xbb235d44	-0.0024927417
102	0x39896c02	0.00026211148
103	0x3a89feb1	0.0010528174
104	0x39871675	0.00025765938
105	0xb7948281	-1.7703745e-05
106	0xb9a49c04	-0.00031396758
107	0xba9cfbd5	-0.0011976907
108	0xbab9ec20	-0.0014184751
109	0xba870929	-0.0010302413
110	0xb99ec45a	-0.00030282402
111	0xba9e12f9	-0.0012060098
112	0x3b0cf123	0.0021506033
113	0x3ba4d209	0.005029921
114	0x3a2b087e	0.0006524398
115	0x39b848dd	0.00035149502
116	0xbab5422e	-0.0013828927
117	0xb93de85d	-0.00018111007
118	0x39ee3e4d	0.00045441315
119	0x3ab19f5e	0.0013551523
120	0x3ba8558b	0.0051371506
121	0x3bb7041c	0.0055852067
122	0x3a5d3b32	0.0008439302
123	0x3b33a149	0.0027409366
124	0xb93fc909	-0.00018290071
125	0x3a971a7b	0.0011528278
126	0x39d84f55	0.00041257837
127	0x3a5b7773	0.00083719863
128	0xbb9798c8	-0.0046263672
129	0xbb985079	-0.004648265
130	0xb7d23adf	-2.5061365e-05
131	0x3a538c8a	0.0008069953
132	0x3aa07ad3	0.0012243636
133	0x39bd2b49	0.0003608114
134	0x38040202	3.1473122e-05
135	0x3a3d520e	0.0007222005
136	0xbb8a4001	-0.0042190556
137	0xbb804ae0	-0.003915176
138	0xb919c786	-0.00014665545
139	0x39385079	0.00017577586
140	0x39b51e76	0.00034545705
141	0x3b850f22	0.004060642
142	0x3a7c3880	0.0009621456
143	0x3ac5ab20	0.0015080906
144	0x3a186a74	0.00058142026
145	0x398d480a	0.0002694729
146	0xb87a55fc	-5.9684724e-05
147	0xb7b2d8fd	-2.1320297e-05
148	0x3b50607f	0.0031795797
149	0x3b32280f	0.0027184521
150	0x38c1db7b	9.2438386e-05
151	0x39a1a779	0.0003083309
152	0xbad7b4fa	-0.0016457133
153	0x3a409fc8	0.0007348028
154	0x3a34a8f7	0.0006891633
155	0x3ae55d30	0.0017499086
156	0x39ec0c5e	0.00045022642
157	0x3acb9d49	0.0015534546
158	0x3a014433	0.0004931122
159	0x3a8dd84e	0.001082191
160	0x39e56692	0.00043754705
161	0x3ae5bab5	0.0017526957
162	0x3a039b4e	0.00050203956
163	0x3a735020	0.0009281654
164	0xb8ea470e	-0.000111712245
165	0xb99abb2b	-0.0002951262
166	0x38188114	3.6359837e-05
167	0x380b8c7c	3.327102e-05
168	0xbb5c00b7	-0.0033569762
169	0xbb739e42	-0.0037173186
170	0xb85184c0	-4.9953116e-05
171	0x3a733d82	0.000927888
172	0xbb4ce5e8	-0.0031264964
173	0xbb307939	-0.0026927723
174	0xb84f9b5a	-4.949733e-05
175	0x39243e75	0.00015663526
176	0x3a6453d7	0.0008710003
177	0x3ad333ec	0.0016113496
178	0x3a766477	0.00093991257
179	0x3b81872d	0.003952882
180	0xba701c86	-0.0009159524
181	0x39a2111d	0.00030911798
182	0x39ea27d2	0.00044661626
183	0x3a9f3a41	0.0012148098
184	0xb8926aab	-6.981691e-05
185	0x3a2adfac	0.0006518315
186	0x39391afb	0.00017653026
187	0x39875b23	0.0002581711
188	0xbaca5ede	-0.001543965
189	0xb966fd70	-0.00022028922
190	0x39afa545	0.00033501736
191	0x3a64fd6e	0.0008735274
192	0xbb4c05ac	-0.003113131
193	0xbb32facd	-0.0027310133
194	0x394dda76	0.00019631707
195	0x3abaebd8	0.0014260961
196	0xbb0b866e	-0.0021289843
197	0xbb7c1100	-0.0038462281
198	0x3956af4f	0.00020473938
199	0x3b2c8e90	0.002633009
200	0x3a592191	0.0008282895
201	0x3a4560e7	0.0007529393
202	0xb8ad162d	-8.2534134e-05
203	0xb9cd67c3	-0.00039177955
204	0xbb0be065	-0.0021343466
205	0xba71ff7f	-0.00092314923
206	0x380a2267	3.2933804e-05
207	0xb951362b	-0.00019951972
208	0x3b84a147	0.004047546
209	0x3b89c81a	0.004204762
210	0x3a5dd84a	0.00084627105
211	0x3b1953e0	0.002339594
212	0xbacb1faf	-0.0015497113
213	0xbb1c6bc5	-0.0023867947
214	0xba8f9451	-0.0010954236
215	0xbb875fff	-0.0041313167
216	0x39a757f6	0.00031918258
217	0x38c7a4d7	9.519763e-05
218	0x34f5dcec	4.5795548e-07
219	0x390f1a4a	0.00013647336
220	0xbb057350	-0.002036292
221	0xbb62f22e	-0.0034629214
222	0xb70b0264	-8.285602e-06
223	0x3a7860ad	0.0009474855
224	0xbb41f81a	-0.0029597343
225	0xbb0f5be6	-0.0021874844
226	0xb8043757	-3.152279e-05
227	0xb8852cfc	-6.350313e-05
228	0x3a8ac9e2	0.001058873
229	0x3a86b4f8	0.0010277322
230	0xb8d7bd2b	-0.00010287234
231	0xba13a292	-0.000563183
232	0xb9e8c624	-0.00044398115
233	0xba055244	-0.0005085806
234	0xb8485e1e	-4.777137e-05
235	0xb833c41e	-4.2859574e-05
236	0xbad0efe5	-0.0015940635
237	0xbade0826	-0.0016939684
238	0x38db0883	0.00010444319
239	0x3a1c5cf1	0.0005964777
240	0xba8b4668	-0.0010625841
241	0xb9c2e8c5	-0.0003717599
242	0x3818806b	3.6359223e-05
243	0xb920b3ff	-0.00015325843
244	0x3ae8517b	0.0017724478
245	0x3ae0a550	0.0017139111
246	0x39213aa8	0.00015376008
247	0x394f9306	0.00019795829
248	0xbb4d8742	-0.0031361138
249	0xbba9ebd6	-0.0051855845
250	0x39d3670d	0.00040321835
251	0x3b665a9f	0.003514923
252	0xbb4f14ca	-0.0031598085
253	0xbace18fd	-0.0015724
254	0x37bf4f92	2.2806027e-05
255	0xb9dfda57	-0.0004269655

exp_avg_sq f4 [64, 4]
0	0x382539f1	3.9393028e-05
1	0x37a95cc9	2.0189576e-05
2	0x34b9aee7	3.4586193e-07
3	0x3718c3ca	9.105492e-06
4	0x3a1be7c9	0.00059473194
5	0x39aead2e	0.00033316895
6	0x3667c95e	3.4538893e-06
7	0x388abf07	6.6159344e-05
8	0x39ee905b	0.0004550245
9	0x39817d0b	0.00024697962
10	0x36329a11	2.6613745e-06
11	0x38574e69	5.133302e-05
12	0x3a2bdfb8	0.0006556469
13	0x39bb08d4	0.00035673997
14	0x36852917	3.9684924e-06
15	0x38a92e34	8.067154e-05
16	0x3a0191fa	0.00049427117
17	0x3958dcc4	0.00020681607
18	0x36416bb0	2.8821923e-06
19	0x384e3bcf	4.916993e-05
20	0x396165c4	0.00021495583
21	0x38d46430	0.00010127609
22	0x354e2020	7.678773e-07
23	0x3784e52e	1.5842346e-05
24	0x3a6399d6	0.0008682286
25	0x39ef6a09	0.00045664635
26	0x36c1d968	5.7771576e-06
27	0x38e7de7c	0.00011056379
28	0x37d8d4ea	2.5848352e-05
29	0x3705b3a4	7.969244e-06
30	0x34085d2f	1.2699887e-07
31	0x365b6d39	3.269712e-06
32	0x38092659	3.269906e-05
33	0x37585137	1.2893513e-05
34	0x347307d4	2.2633986e-07
35	0x36ccd36e	6.1042874e-06
36	0x382ae85a	4.0747553e-05
37	0x37add002	2.0720068e-05
38	0x34ee52f7	4.439132e-07
39	0x3703c052	7.8529865e-06
40	0x38a17e22	7.700572e-05
41	0x3837eb35	4.3849654e-05
42	0x350c97a9	5.237476e-07
43	0x372c4af5	1.0269451e-05
44	0x3939abbe	0.00017706954
45	0x38a1cdb3	7.715393e-05
46	0x35b5f347	1.3556354e-06
47	0x3866cf3e	5.5029283e-05
48	0x3a052766	0.0005079418
49	0x398cd84c	0.00026864035
50	0x366c8d58	3.5249013e-06
51	0x386f52bd	5.7059096e-05
52	0x38d9a0da	0.00010377327
53	0x383aaa8d	4.4504694e-05
54	0x356daac4	8.8537877e-07
55	0x37f410df	2.9094923e-05
56	0x37f161d5	2.8774995e-05
57	0x3769f0a8	1.3943914e-05
58	0x344ab940	1.888011e-07
59	0x37197a4b	9.147984e-06
60	0x3800b5db	3.0686944e-05
61	0x3754835a	1.2666767e-05
62	0x347dad07	2.3625408e-07
63	0x36a93696	5.042947e-06
64	0x38c8c122	9.572717e-05
65	0x386294f7	5.4021333e-05
66	0x34e18e75	4.2013167e-07
67	0x371876c3	9.087557e-06
68	0x37f87473	2.961813e-05
69	0x376fdc49	1.4296799e-05
70	0x34999518	2.860695e-07
71	0x368d97c4	4.2197953e-06
72	0x3a01e654	0.0004955281
73	0x39781da6	0.00023662168
74	0x363965c3	2.7626381e-06
75	0x383b8a8d	4.471331e-05
76	0x396e8682	0.00022747557
77	0x38fd66b3	0.00012083109
78	0x35e883b1	1.7323674e-06
79	0x381e8f1e	3.7803424e-05
80	0x390c7cdc	0.00013397954
81	0x3884b4a7	6.3278996e-05
82	0x356dc849	8.8580833e-07
83	0x37a166eb	1.924062e-05
84	0x384f12f4	4.9370297e-05
85	0x379ffba2	1.9071453e-05
86	0x34cf2102	3.858077e-07
87	0x3714a152	8.859048e-06
88	0x39b10599	0.0003376424
89	0x394e7a27	0.00019691196
90	0x3648ec5b	2.99399e-06
91	0x388e5eae	6.788723e-05
92	0x398ab4f1	0.00026456223
93	0x391c2617	0.00014891509
94	0x35b26321	1.3290884e-06
95	0x37d60543	2.5513238e-05
96	0x365b955b	3.272048e-06
97	0x36170da3	2.250869e-06
98	0x332bd099	4.000376e-08
99	0x361ea769	2.364128e-06
100	0x38cb6f69	9.700546e-05
101	0x3831f333	4.2426585e-05
102	0x35445f29	7.3154166e-07
103	0x37e18e02	2.6888218e-05
104	0x392df561	0.00016589976
105	0x38c7c998	9.526609e-05
106	0x3522dd7e	6.0672016e-07
107	0x3780ed5d	1.536932e-05
108	0x3822da3a	3.882705e-05
109	0x3783f148	1.5728772e-05
110	0x34a67136	3.100228e-07
111	0x36bab88b	5.5647156e-06
112	0x3a3b27e5	0.00071394286
113	0x39c83637	0.00038187366
114	0x36a2efa0	4.8558722e-06
115	0x38adec40	8.293288e-05
116	0x3936b278	0.00017423357
117	0x38b0cca4	8.430451e-05
118	0x359df4ba	1.1768636e-06
119	0x380f6c74	3.419486e-05
120	0x3a07386a	0.00051582477
121	0x399ffb59	0.00030514112
122	0x3695139a	4.442828e-06
123	0x38aa6161	8.12437e-05
124	0x390cd2eb	0.00013430013
125	0x387b2ea5	5.9886504e-05
126	0x356c5201	8.803618e-07
127	0x37b05273	2.1019228e-05
128	0x39dc00c0	0.0004196223
129	0x39456708	0.00018825766
130	0x361e7fa3	2.361813e-06
131	0x380e6ace	3.3954908e-05
132	0x3834ea0c	4.3133317e-05
133	0x379ae1f9	1.8463457e-05
134	0x34af8a40	3.269688e-07
135	0x370602d2	7.987679e-06
136	0x392fe9e8	0.00016776437
137	0x38b8d8a9	8.81416e-05
138	0x360936bf	2.0446457e-06
139	0x380a67a7	3.2998298e-05
140	0x3a6b49e5	0.000897555
141	0x39f5c518	0.00046876888
142	0x36d48591	6.3336415e-06
143	0x390b129b	0.00013263004
144	0x385cd727	5.2652464e-05
145	0x37cb7be1	2.4257171e-05
146	0x34625192	2.1077565e-07
147	0x3695be86	4.462726e-06
148	0x389718e8	7.20488e-05
149	0x384c96d5	4.8777863e-05
150	0x3565dc3c	8.562963e-07
151	0x372f23bc	1.0439133e-05
152	0x39a6f5b1	0.00031845042
153	0x39199133	0.00014645308
154	0x361c9803	2.3334294e-06
155	0x38873e4b	6.4489046e-05
156	0x3941b515	0.00018473373
157	0x38d70c76	0.0001025432
158	0x35b81a46	1.3716715e-06
159	0x37fdbfce	3.0249266e-05
160	0x3987ed49	0.00025925998
161	0x391a4a5b	0.00014714284
162	0x35fc86e2	1.8814719e-06
163	0x38283e63	4.0112423e-05
164	0x388de7d9	6.766589e-05
165	0x37f20981	2.8853074e-05
166	0x350db6e8	5.2792757e-07
167	0x375c280e	1.3122348e-05
168	0x3901dd1f	0.00012384773
169	0x388d2bda	6.731572e-05
170	0x355ac086	8.1491487e-07
171	0x3755e2d6	1.2748604e-05
172	0x3930edac	0.00016873208
173	0x3894d849	7.097476e-05
174	0x35c644a3	1.4772125e-06
175	0x37cdc33f	2.4528823e-05
176	0x3995552d	0.00028482956
177	0x391bb45f	0.00014849145
178	0x3648a23b	2.9896753e-06
179	0x38d870d8	0.000103207014
180	0x38f313d1	0.00011590834
181	0x38517c2c	4.9945127e-05
182	0x3545ea37	7.3729046e-07
183	0x37b1536e	2.1138894e-05
184	0x382cd232	4.1203755e-05
185	0x37a452da	1.9588904e-05
186	0x347ba634	2.3436661e-07
187	0x36a5bf11	4.9396263e-06
188	0x38b5dbae	8.671671e-05
189	0x38139515	3.5186375e-05
190	0x351b83da	5.793387e-07
191	0x3796b2cc	1.7964652e-05
192	0x38a33545	7.782368e-05
193	0x382c9136	4.1143234e-05
194	0x357c10b5	9.390163e-07
195	0x37c5dbc8	2.3586574e-05
196	0x3a04e5dc	0.0005069652
197	0x3993f7f2	0.0002822276
198	0x36473b3d	2.9687792e-06
199	0x386e1db3	5.677128e-05
200	0x3707139c	8.051193e-06
201	0x3660d9d5	3.3505396e-06
202	0x33492235	4.683007e-08
203	0x36257205	2.4653284e-06
204	0x387dbc9b	6.0495553e-05
205	0x380b5a21	3.322412e-05
206	0x3512d65c	5.470117e-07
207	0x375be999	1.3107806e-05
208	0x39954180	0.00028468296
209	0x391eb459	0.00015135239
210	0x365dd287	3.305411e-06
211	0x386829f2	5.5352175e-05
212	0x393a7ce3	0.00017784866
213	0x38beba87	9.0946494e-05
214	0x35d6e42a	1.6010647e-06
215	0x383cc4b2	4.500588e-05
216	0x35c10ee6	1.4383957e-06
217	0x35309e66	6.579561e-07
218	0x3266b7c4	1.34295455e-08
219	0x3532ad16	6.656204e-07
220	0x39456af5	0.00018827229
221	0x38b7d806	8.7663575e-05
222	0x3593514b	1.0976013e-06
223	0x3766081c	1.3710956e-05
224	0x3895ccd2	7.1430244e-05
225	0x380c8b55	3.3508364e-05
226	0x35581b5e	8.0506095e-07
227	0x375c9941	1.3148704e-05
228	0x37829400	1.5566126e-05
229	0x36e182c3	6.720745e-06
230	0x33da57a1	1.0167356e-07
231	0x36acb66c	5.147236e-06
232	0x363972be	2.7633937e-06
233	0x35bbe6a5	1.3999712e-06
234	0x32e9f0a5	2.7234202e-08
235	0x350d5b10	5.2659107e-07
236	0x38c57f42	9.4173956e-05
237	0x3841c102	4.619454e-05
238	0x35206fb1	5.976718e-07
239	0x3739ba5f	1.1070252e-05
240	0x372f18d9	1.0436598e-05
241	0x368a5b95	4.123382e-06
242	0x33c66d70	9.24e-08
243	0x35fb934f	1.874383e-06
244	0x3802d6f3	3.1194602e-05
245	0x3776ceab	1.4710861e-05
246	0x34943c47	2.7611006e-07
247	0x367dcfbd	3.7820857e-06
248	0x3aa14c67	0.0012306095
249	0x3a165989	0.00057353877
250	0x36d1174a	6.2313966e-06
251	0x38e2cba1	0.000108144486
252	0x389683b0	7.177086e-05
253	0x380189a2	3.0884177e-05
254	0x3537143a	6.8202246e-07
255	0x37691da6	1.3894785e-05

exp_avg f4 [64]
0	0x39e5c622	0.00043825904
1	0x3b83413f	0.0040055807
2	0x3b83b306	0.004019144
3	0x3b9813d2	0.0046410346
4	0x3a86e002	0.0010290148
5	0xb88d1f69	-6.7292545e-05
6	0x3a528056	0.0008029988
7	0xba0d30f7	-0.00053860195
8	0xbac32499	-0.0014888226
9	0x39239646	0.00015600873
10	0x3aac8f89	0.0013165335
11	0x3b198b04	0.0023428807
12	0x382474f6	3.9209575e-05
13	0x3b0085a8	0.0019610915
14	0xb88511bc	-6.3452375e-05
15	0xbaad25d9	-0.0013210132
16	0x3ad8c6f8	0.001653879
17	0x3a64e917	0.0008732243
18	0x3b48e9f6	0.003065703
19	0x3b0440a7	0.0020180137
20	0x3a1d7f41	0.0006008037
21	0x3abd0760	0.0014421754
22	0x3a1d976e	0.00060116395
23	0x3b2a6c16	0.0026004366
24	0xb9e2304d	-0.00043142066
25	0x3b0f8aa0	0.0021902695
26	0xba45b82f	-0.0007542399
27	0xbad6c31c	-0.0016385051
28	0xb7cf1dd5	-2.4690215e-05
29	0xb8a2b280	-7.75801e-05
30	0xb84a3b15	-4.8215577e-05
31	0x3a813d53	0.0009860195
32	0x3ac9d3eb	0.001539824
33	0xba0e3083	-0.0005424099
34	0x3983197a	0.0002500525
35	0x3ac543c1	0.00150501
36	0xba157ad4	-0.0005702202
37	0x3a1a8436	0.0005894335
38	0x3adb47b9	0.0016729749
39	0x3a7be5a0	0.0009609107
40	0x39a0faf5	0.00030704556
41	0x397f0add	0.00024322742
42	0x3aaa7b6d	0.0013006754
43	0x39c51cd0	0.00037596235
44	0x3b1e20a7	0.002412835
45	0x3a09fbaf	0.0005263639
46	0xba0e6fe7	-0.0005433545
47	0x3a28ab92	0.00064342574
48	0x3ad6ecc8	0.0016397471
49	0x3b9f94a1	0.004870013
50	0xba264b11	-0.0006343583
51	0xb9083607	-0.00012990097
52	0x3a64283f	0.0008703507
53	0xbb94dc14	-0.004542837
54	0xb9080af6	-0.00012974054
55	0x3ab36f67	0.0013689817
56	0x3a01bac7	0.00049487915
57	0xba62f944	-0.00086583593
58	0xba1750dc	-0.0005772242
59	0x3af22674	0.0018474595
60	0x38f10a36	0.000114936774
61	0x3b1583e1	0.0022814202
62	0x3bdbb98f	0.00670547
63	0x3a017a50	0.00049391855

exp_avg_sq f4 [64]
0	0x38cb804e	9.703693e-05
1	0x39dff422	0.00042715768
2	0x39b0a197	0.0003368973
3	0x3a293ae1	0.0006455612
4	0x39eaf145	0.00044811718
5	0x3883aa9b	6.2783445e-05
6	0x3a31c36a	0.0006781133
7	0x3773805e	1.45138165e-05
8	0x37acd978	2.0605265e-05
9	0x38b44166	8.59525e-05
10	0x38479dc0	4.7592213e-05
11	0x3a009de8	0.00049063424
12	0x39cadb2a	0.00038691732
13	0x39950775	0.0002842505
14	0x37aa99f0	2.0337262e-05
15	0x37831e67	1.5630574e-05
16	0x382a123d	4.0548144e-05
17	0x37c5e18d	2.358926e-05
18	0x39f0d5fb	0.00045935795
19	0x3983d012	0.00025141292
20	0x38f2ce01	0.000115778304
21	0x38c236b8	9.260833e-05
22	0x3a172545	0.00057657465
23	0x38eee87d	0.00011392029
24	0x370a3d3b	8.239697e-06
25	0x397d0a8a	0.00024131886
26	0x38795c4b	5.945218e-05
27	0x379b8703	1.854031e-05
28	0x39eb44b1	0.00044873872
29	0x3966cc86	0.000220107
30	0x3a2ea54e	0.00066622056
31	0x39137016	0.00014060768
32	0x39ad293f	0.00033027862
33	0x382aa57d	4.068528e-05
34	0x39812f9f	0.00024640278
35	0x3a743d09	0.0009316956
36	0x37b68547	2.1758153e-05
37	0x38809e27	6.132974e-05
38	0x3a087006	0.0005204681
39	0x393d6e52	0.00018065542
40	0x396c03d0	0.00022508134
41	0x390b2d82	0.00013273026
42	0x3906634f	0.00012816231
43	0x39361b45	0.00017367031
44	0x3a8f86e3	0.0010950234
45	0x3915a69a	0.00014271811
46	0x37c24712	2.3159697e-05
47	0x38fe5dd6	0.00012129142
48	0x397b34bd	0.00023956872
49	0x39babdac	0.00035618
50	0x36dc4122	6.5640934e-06
51	0x39042080	0.00012600608
52	0x39cc1e06	0.0003893228
53	0x38bcafaf	8.997262e-05
54	0x360d8f6d	2.1094122e-06
55	0x390c4378	0.00013376574
56	0x38fd9c4f	0.00012093095
57	0x3789cf03	1.642807e-05
58	0x3634b411	2.6926903e-06
59	0x39022549	0.00012411656
60	0x3789ff03	1.6450422e-05
61	0x37a96cd5	2.0197049e-05
62	0x3a207900	0.0006121546
63	0x3917280d	0.00014415402

exp_avg f4 [2, 64]
0	0xbbb8c88f	-0.005639143
1	0x3a9114f5	0.0011068868
2	0x3ac936b2	0.0015351383
3	0x3a8ff8ec	0.0010984219
4	0xba2045be	-0.0006113908
5	0xba29ef45	-0.00064824923
6	0xb8a535d1	-7.877837e-05
7	0xba12c61c	-0.00055989786
8	0xba35f47d	-0.00069410336
9	0xbbb16659	-0.005413812
10	0x37cec981	2.4650946e-05
11	0x3b660c33	0.0035102486
12	0x387e456b	6.062297e-05
13	0x3b038d91	0.0020073394
14	0xb7b68844	-2.1759544e-05
15	0xba89585e	-0.0010478606
16	0x39a01469	0.00030532785
17	0xbbdbe64a	-0.006710802
18	0x3995b3cc	0.00028553454
19	0xbad1d2f1	-0.00160083
20	0x3b4f7f10	0.0031661429
21	0xba78efd7	-0.0009496188
22	0xbabf6ee4	-0.0014605192
23	0x39c2f590	0.00037185522
24	0xbad3430b	-0.0016118003
25	0x3b66eb99	0.0035235642
26	0xb8cc5fff	-9.745359e-05
27	0xbaa23f9f	-0.001237858
28	0x3939d3f5	0.00017721935
29	0x3b8f9778	0.00438207
30	0xba36e899	-0.0006977409
31	0x3b13d1d3	0.0022555485
32	0xb9b9d253	-0.00035442653
33	0xba0b4462	-0.0005312619
34	0xbadb377c	-0.001672491
35	0x399a4a99	0.00029428749
36	0xba6906f2	-0.00088892796
37	0xbb030e34	-0.001999748
38	0x3b2d46b4	0.0026439847
39	0x3b58ca2a	0.0033079484
40	0x3b32e372	0.0027296213
41	0xbbadb1aa	-0.00530072
42	0xba19ff40	-0.0005874522
43	0xba8aa96c	-0.0010579056
44	0xbb9d1345	-0.004793557
45	0x3b8c4da8	0.0042817183
46	0x3b0eaccf	0.0021770482
47	0x3b8d2e7e	0.004308521
48	0xba7e3499	-0.0009697169
49	0x3ab3a1f7	0.0013704885
50	0xb9320efa	-0.00016980982
51	0xbbde02f8	-0.0067752562
52	0xbb8337e1	-0.004004464
53	0xba34ce0a	-0.0006897157
54	0xb9a0e0a9	-0.00030684963
55	0xbaea8c85	-0.0017894661
56	0xbb3b3799	-0.0028567074
57	0xb9801d56	-0.0002443592
58	0xbb9be584	-0.004757585
59	0xbab8d3e3	-0.0014101233
60	0xbb4a1be2	-0.0030839373
61	0xbb9eb79b	-0.004843665
62	0xb8c029c3	-9.163052e-05
63	0xbb6f6f20	-0.0036534742
64	0x3bb8c88e	0.0056391424
65	0xba9114ed	-0.0011068858
66	0xbac936b1	-0.0015351382
67	0xba8ff8f2	-0.0010984226
68	0x3a2045b9	0.0006113905
69	0x3a29ef46	0.0006482493
70	0x38a536e8	7.87804e-05
71	0x3a12c61b	0.0005598978
72	0x3a35f47c	0.0006941033
73	0x3bb16659	0.005413812
74	0xb7ceca15	-2.4651215e-05
75	0xbb660c30	-0.003510248
76	0xb87e44b8	-6.062232e-05
77	0xbb038d88	-0.0020073373
78	0x37b68843	2.1759543e-05
79	0x3a89585e	0.0010478606
80	0xb9a01452	-0.00030532718
81	0x3bdbe64c	0.006710803
82	0xb995b3ba	-0.000285534
83	0x3ad1d2fa	0.001600831
84	0xbb4f7f0a	-0.0031661415
85	0x3a78efd1	0.00094961846
86	0x3abf6ef0	0.0014605206
87	0xb9c2f58e	-0.00037185516
88	0x3ad3430e	0.0016118006
89	0xbb66eb95	-0.0035235633
90	0x38cc6013	9.745373e-05
91	0x3aa23f9f	0.001237858
92	0xb939d381	-0.00017721766
93	0xbb8f9777	-0.0043820697
94	0x3a36e89f	0.0006977412
95	0xbb13d1cf	-0.0022555476
96	0x39b9d257	0.00035442665
97	0x3a0b4460	0.0005312618
98	0x3adb377c	0.001672491
99	0xb99a4a65	-0.00029428597
100	0x3a6906fa	0.0008889284
101	0x3b030e35	0.0019997482
102	0xbb2d46ae	-0.0026439833
103	0xbb58ca1f	-0.0033079458
104	0xbb32e36b	-0.0027296196
105	0x3badb1ab	0.0053007207
106	0x3a19ff39	0.0005874518
107	0x3a8aa96d	0.0010579057
108	0x3b9d1348	0.0047935583
109	0xbb8c4da9	-0.0042817187
110	0xbb0eaccd	-0.0021770478
111	0xbb8d2e7d	-0.0043085204
112	0x3a7e348f	0.0009697163
113	0xbab3a1f5	-0.0013704883
114	0x39320f16	0.00016981023
115	0x3bde02f6	0.0067752553
116	0x3b8337e2	0.0040044645
117	0x3a34ce0a	0.0006897157
118	0x39a0e0a9	0.00030684963
119	0x3aea8c86	0.0017894662
120	0x3b3b3796	0.0028567067
121	0x39801d61	0.00024435951
122	0x3b9be583	0.0047575845
123	0x3ab8d3e8	0.0014101239
124	0x3b4a1be2	0.0030839373
125	0x3b9eb79b	0.004843665
126	0x38c02997	9.16302e-05
127	0x3b6f6f1e	0.0036534737

exp_avg_sq f4 [2, 64]
0	0x39a73eba	0.00031899457
1	0x39b3c089	0.0003428499
2	0x3a0c772b	0.00053583336
3	0x3971903a	0.0002303728
4	0x3902040e	0.00012399277
5	0x37299f4d	1.0110275e-05
6	0x3940c5e4	0.00018384267
7	0x37d57790	2.5447254e-05
8	0x3779a47d	1.48798545e-05
9	0x39c5287a	0.00037604925
10	0x3810a1c0	3.4482917e-05
11	0x399c0369	0.0002975718
12	0x390d0449	0.00013448404
13	0x393fd86a	0.000182958
14	0x348083ce	2.3937758e-07
15	0x37140185	8.821841e-06
16	0x3956bfe9	0.00020480122
17	0x39a7392a	0.00031895313
18	0x38e4b34c	0.00010905284
19	0x391085cb	0.00013782752
20	0x39b71a7c	0.00034924212
21	0x39244e88	0.00015669514
22	0x395fcaf3	0.00021342542
23	0x36e25e9f	6.74634e-06
24	0x3813c354	3.5229445e-05
25	0x39b8e86d	0.00035268386
26	0x366b177e	3.5031403e-06
27	0x379416c1	1.765357e-05
28	0x38c8ea71	9.580411e-05
29	0x3a26ed73	0.000636778
30	0x3930524b	0.00016815324
31	0x392f964a	0.00016745288
32	0x38eb5e3c	0.00011223226
33	0x36bf830b	5.707499e-06
34	0x39543919	0.00020239166
35	0x39273805	0.0001594723
36	0x390e353b	0.00013562005
37	0x37a903cd	2.014814e-05
38	0x396636ca	0.0002195492
39	0x3a18522c	0.00058105844
40	0x39dc850f	0.00042060806
41	0x3997f267	0.00028981568
42	0x395c0446	0.00020982427
43	0x38ec08a6	0.00011254968
44	0x39fc6425	0.000481398
45	0x39a23ab5	0.00030942788
46	0x393d5d42	0.00018059186
47	0x39bf19ad	0.0003644949
48	0x39114148	0.00013852597
49	0x39eae172	0.00044799928
50	0x371af637	9.236442e-06
51	0x3a01750d	0.00049384014
52	0x39aaf3fb	0.00032606706
53	0x353211e5	6.633621e-07
54	0x366b4019	3.5055039e-06
55	0x39541c75	0.00020228497
56	0x397149ad	0.00023010997
57	0x382d0053	4.1246716e-05
58	0x39501cb8	0.00019847124
59	0x39a813d3	0.00032058227
60	0x38fe2f89	0.00012120518
61	0x39708aea	0.00022939933
62	0x3808cbf3	3.261487e-05
63	0x3960280c	0.00021377223
64	0x39a73eba	0.00031899457
65	0x39b3c089	0.0003428499
66	0x3a0c772c	0.0005358334
67	0x3971903b	0.00023037281
68	0x3902040c	0.00012399274
69	0x37299f4e	1.0110276e-05
70	0x3940c5e6	0.0001838427
71	0x37d57791	2.5447256e-05
72	0x3779a47f	1.4879856e-05
73	0x39c5287b	0.00037604928
74	0x3810a1c0	3.4482917e-05
75	0x399c0369	0.0002975718
76	0x390d044a	0.00013448406
77	0x393fd86b	0.00018295801
78	0x348083cd	2.3937756e-07
79	0x37140185	8.821841e-06
80	0x3956bfe9	0.00020480122
81	0x39a7392a	0.00031895313
82	0x38e4b34c	0.00010905284
83	0x391085cb	0.00013782752
84	0x39b71a7d	0.00034924215
85	0x39244e87	0.00015669513
86	0x395fcaf3	0.00021342542
87	0x36e25e9f	6.74634e-06
88	0x3813c354	3.5229445e-05
89	0x39b8e86c	0.00035268383
90	0x366b177d	3.50314e-06
91	0x379416c1	1.765357e-05
92	0x38c8ea6f	9.58041e-05
93	0x3a26ed74	0.0006367781
94	0x3930524b	0.00016815324
95	0x392f9649	0.00016745286
96	0x38eb5e3e	0.00011223227
97	0x36bf8314	5.707503e-06
98	0x39543919	0.00020239166
99	0x39273805	0.0001594723
100	0x390e353a	0.00013562004
101	0x37a903cd	2.014814e-05
102	0x396636ce	0.00021954926
103	0x3a18522d	0.0005810585
104	0x39dc850e	0.00042060803
105	0x3997f266	0.00028981565
106	0x395c0446	0.00020982427
107	0x38ec08a8	0.00011254969
108	0x39fc6427	0.00048139805
109	0x39a23ab7	0.00030942794
110	0x393d5d42	0.00018059186
111	0x39bf19ac	0.00036449486
112	0x39114149	0.00013852598
113	0x39eae173	0.0004479993
114	0x371af637	9.236442e-06
115	0x3a01750d	0.00049384014
116	0x39aaf3fd	0.00032606712
117	0x353211e4	6.63362e-07
118	0x366b4019	3.5055039e-06
119	0x39541c75	0.00020228497
120	0x397149af	0.00023011
121	0x382d0053	4.1246716e-05
122	0x39501cba	0.00019847127
123	0x39a813d2	0.00032058224
124	0x38fe2f87	0.000121205165
125	0x39708ae9	0.00022939932
126	0x3808cbf5	3.2614877e-05
127	0x3960280d	0.00021377225

exp_avg f4 [2]
0	0x3b05732c	0.0020362837
1	0xbb05731e	-0.0020362805

exp_avg_sq f4 [2]
0	0x3b136e05	0.0022495997
1	0x3b136e05	0.0022495997

exp_avg f4 [1, 64]
0	0x3a5d3d5e	0.00084396254
1	0x3b11236a	0.0022146353
2	0x3b3ac8a1	0.0028500932
3	0x3aed6d4b	0.0018114237
4	0x38c29eed	9.280243e-05
5	0x39dbc94a	0.00041920907
6	0x3b9e31c3	0.0048277094
7	0x3a4c14ee	0.0007785101
8	0xb991961f	-0.00027768404
9	0xb97b26a3	-0.00023951619
10	0xba0a1bac	-0.00052684057
11	0x3b6946dd	0.0035595216
12	0x3b6e4ab1	0.0036360438
13	0x3b4d7857	0.0031352246
14	0x385af8cb	5.2206957e-05
15	0x3a08c3b2	0.0005217149
16	0x3b157de4	0.0022810632
17	0x39dc8749	0.00042062465
18	0x3a86ddb2	0.0010289459
19	0x3b2fad88	0.0026806314
20	0x3bad4385	0.00528759
21	0x3acb1204	0.001549304
22	0x3b8ecd6d	0.0043579848
23	0x3953c358	0.000201953
24	0x3a76fec8	0.00094221206
25	0x3b517711	0.0031961838
26	0x3a69c88e	0.00089181296
27	0x39c91c23	0.0003835867
28	0x3b64f4d0	0.0034935959
29	0x3bd08f73	0.0063647567
30	0x3b48a39c	0.0030615097
31	0x3b4f5597	0.003163671
32	0x3a101a71	0.0005497104
33	0x399429e2	0.00028259965
34	0xba85cbcd	-0.0010207832
35	0x3b8f5931	0.004374646
36	0x3ae378b7	0.0017354701
37	0x3a1778d5	0.0005778198
38	0x3b7b5574	0.0038350495
39	0x3bd88e11	0.0066087325
40	0x3bb1aa3b	0.0054219044
41	0x3a6b695f	0.000898024
42	0x3ae23803	0.0017259124
43	0xb993e03d	-0.00028205095
44	0x3abaec4d	0.0014261097
45	0x3b7e7752	0.0038828445
46	0x3b8339b2	0.0040046806
47	0x3b8017cc	0.003909087
48	0xba17f5cf	-0.0005796821
49	0x3b2e425e	0.002658985
50	0x3a5863d9	0.00082546246
51	0x38ca6e01	9.6526004e-05
52	0x3b409ae5	0.00293892
53	0x3a74586c	0.0009321037
54	0x39135fab	0.00014054652
55	0x3ac42fc1	0.0014967845
56	0xba056e2c	-0.0005089964
57	0x3ad6b908	0.0016382048
58	0x392b247b	0.00016321421
59	0x3b2004b6	0.002441687
60	0x39d57ce0	0.00040719565
61	0xb8bd644c	-9.030904e-05
62	0x39aa74c3	0.0003251192
63	0x389f35e1	7.5917465e-05

exp_avg_sq f4 [1, 64]
0	0x397547f9	0.00023391833
1	0x397ec140	0.00024295319
2	0x39b0aa9d	0.00033696453
3	0x39355429	0.00017292857
4	0x391b1c6a	0.00014792537
5	0x36ac29ad	5.130851e-06
6	0x39838811	0.00025087644
7	0x3737ee05	1.0963068e-05
8	0x36e52cd1	6.829949e-06
9	0x398784d3	0.00025848168
10	0x379532b2	1.7785791e-05
11	0x3959c78f	0.00020769074
12	0x39514189	0.00019956207
13	0x392e7a76	0.00016639553
14	0x34a7fdc7	3.129082e-07
15	0x36c520a3	5.874857e-06
16	0x38861998	6.394385e-05
17	0x392f9cce	0.00016747715
18	0x3907964c	0.00012930593
19	0x393be24b	0.0001791801
20	0x39baaad5	0.00035603964
21	0x39471376	0.00018985369
22	0x39920ffe	0.00027859205
23	0x3675a195	3.6601898e-06
24	0x37eabbbd	2.7982396e-05
25	0x3967131a	0.00022036993
26	0x3605db9d	1.9946376e-06
27	0x371ddcb3	9.409315e-06
28	0x3902a848	0.00012460456
29	0x39dcd1df	0.00042118036
30	0x3951d427	0.00020010826
31	0x393e347a	0.00018139361
32	0x391720f4	0.00014412758
33	0x369159f4	4.3318087e-06
34	0x392f3358	0.00016708428
35	0x39533278	0.00020141329
36	0x386a2961	5.5828485e-05
37	0x374a83d8	1.20708355e-05
38	0x39476d1c	0.00019018765
39	0x39e9f3aa	0.00044622767
40	0x39a32bb6	0.0003112235
41	0x396af5f7	0.00022407608
42	0x396c6fcb	0.0002254836
43	0x39056ea4	0.00012725085
44	0x39aa12cc	0.00032438932
45	0x39982fa5	0.00029027197
46	0x39047660	0.00012632599
47	0x399610c6	0.00028622727
48	0x39054940	0.00012711156
49	0x3996af4f	0.00028740845
50	0x36862608	3.9979386e-06
51	0x39b0ba67	0.00033708217
52	0x39a07317	0.00030603327
53	0x358d5af0	1.0531785e-06
54	0x3694d3a4	4.435382e-06
55	0x39790483	0.00023748171
56	0x39489fcc	0.00019133015
57	0x37a18f87	1.925953e-05
58	0x38d4e41c	0.000101514364
59	0x398dac6f	0.0002702209
60	0x38c09e8f	9.184807e-05
61	0x38e4a0d1	0.000109018416
62	0x382039e3	3.8200884e-05
63	0x39372db5	0.00017469267
